synth02_30_23_22_10_09_FullyConnected.pth (torch, 550959 bytes, 8 tensors)

fc1.weight f4 [256, 4]
0	0x3e059568	0.13045275
1	0xbe90eb9e	-0.28304762
2	0x3ddf7b20	0.10912156
3	0x3df0af90	0.11752236
4	0x3e8ab45a	0.27090722
5	0xbe293054	-0.16522342
6	0x3dc972f0	0.09836376
7	0xbe95ce10	-0.29258776
8	0xbeccc74e	-0.39995807
9	0x3e645ed8	0.22301805
10	0xbe912902	-0.283516
11	0x3e303aa0	0.17209864
12	0xbdf79ed4	-0.12090841
13	0x3f4fe817	0.81213516
14	0x3f70fc75	0.9413522
15	0x3ea902f9	0.3301008
16	0x3e98a623	0.29814252
17	0x3eb0ab01	0.34505466
18	0xbede790b	-0.43451723
19	0xbd9f8eb9	-0.07790894
20	0xbe56d5a0	-0.20979929
21	0xbec75286	-0.38930148
22	0xbe0fec28	-0.1405493
23	0xbe8b7f04	-0.27245343
24	0x3f1d63f9	0.6148067
25	0x3ee26c6c	0.44223344
26	0x3ef7c778	0.4839437
27	0x3e92eec9	0.28697804
28	0xbe9874a3	-0.29776487
29	0xbe2feff4	-0.17181379
30	0xbf20b356	-0.62773645
31	0xbda5cf44	-0.080961734
32	0x3e69ed89	0.22844519
33	0x3ec33e6f	0.3813357
34	0x3e86902c	0.2628187
35	0xbebab37d	-0.36465064
36	0xbd25daa9	-0.040491734
37	0x3f0947c3	0.53625125
38	0x3ec39b19	0.38204268
39	0xbe8e8164	-0.27833092
40	0xbf4e1f20	-0.80516243
41	0x3f2d3827	0.67663807
42	0x3e5bf872	0.21481493
43	0xbc8588fc	-0.01630067
44	0xbd0092f7	-0.031390157
45	0x3f4b7a90	0.7948389
46	0xbd546f5c	-0.051864013
47	0xbce6e66d	-0.028186047
48	0xbe4bcbb5	-0.19901927
49	0x3f6982ab	0.9121501
50	0x3f008406	0.5020145
51	0x3eba9999	0.3644531
52	0xbea228d3	-0.3167177
53	0x3eea025e	0.4570493
54	0x3e5bacf8	0.21452701
55	0x3d90e2dc	0.0707452
56	0xbd571c28	-0.052517086
57	0xbc9aad33	-0.018881416
58	0xbef9316f	-0.48670527
59	0xbeaabcef	-0.3334727
60	0x3ee37f96	0.44433278
61	0x3eb73cfb	0.35788712
62	0x3e6a5b90	0.22886491
63	0xbef132ec	-0.47109163
64	0x3ec595fc	0.38590991
65	0x3c9e1834	0.01929865
66	0xbe8a9a5d	-0.27070895
67	0xbd6384a1	-0.055546407
68	0x3e59f7c4	0.21285921
69	0x3e8a1016	0.26965398
70	0x3e671b90	0.22569108
71	0xbebbcf20	-0.3668146
72	0xbe5e3518	-0.21699941
73	0x3f572839	0.8404575
74	0x3ed71a5b	0.42012295
75	0x3eda32bd	0.42616835
76	0xbe9ed6ef	-0.31023356
77	0xbe2e6d5d	-0.17033906
78	0xbf36133d	-0.71123105
79	0xbeac6ee4	-0.33678353
80	0x3e6e6d4c	0.23283881
81	0x3f4d1554	0.8011067
82	0x3f15476f	0.58312124
83	0xbd41ae9d	-0.047285665
84	0xbda3ec5c	-0.08004066
85	0x3dfa728f	0.122288816
86	0xbcb5c9fa	-0.022191036
87	0x3d50ff63	0.051024806
88	0xbd0b9b92	-0.03408391
89	0xbf6b16a7	-0.9183144
90	0xbefc4a08	-0.4927523
91	0x3edc7157	0.4305522
92	0xbe08d5f0	-0.1336286
93	0xbe993e58	-0.29930377
94	0xbe726d54	-0.23674518
95	0xbea2bc6a	-0.31784374
96	0x3f056404	0.52105737
97	0xbf5c7b17	-0.8612532
98	0xbf6cf9be	-0.92568576
99	0xbe2219a4	-0.15830094
100	0xbeea5808	-0.45770288
101	0x3ef67976	0.48139542
102	0x3dca33c1	0.098731525
103	0x3e960081	0.2929726
104	0x3eeddcd6	0.46457547
105	0x3e9f65a1	0.31132224
106	0x3f14804b	0.5800826
107	0x3e499c3f	0.1968851
108	0xbee498c0	-0.4464779
109	0x3ee71506	0.45133227
110	0x3ee75299	0.45180205
111	0xbedc2d36	-0.43003243
112	0xbee2669c	-0.4421891
113	0xbdf43d70	-0.11925781
114	0x3da1faf8	0.079091966
115	0x3ecab960	0.39594555
116	0xbe084550	-0.1330769
117	0xbe5ac984	-0.21365935
118	0x3eba8abc	0.3643397
119	0x3e344e28	0.17607939
120	0xbeb66f84	-0.35631955
121	0x3e695888	0.22787678
122	0x3c7cfa6b	0.015440564
123	0xbd79c829	-0.060981903
124	0xbdc498aa	-0.09599431
125	0xbcf62b7c	-0.030050032
126	0xbe77d4fe	-0.24202344
127	0xbdf75fab	-0.12078794
128	0xbcea1a48	-0.028576985
129	0x3de001e1	0.109378584
130	0xbd0c494c	-0.03424959
131	0xbeeb2b87	-0.45931646
132	0xbecd8299	-0.401387
133	0xbe8ba85e	-0.2727689
134	0xbf1cca0a	-0.6124579
135	0xbd5d3f4b	-0.05401544
136	0x3c6aff8c	0.014343154
137	0x3eb11a9c	0.34590614
138	0xbee70831	-0.45123437
139	0x3ddd8932	0.108171836
140	0xbe561f36	-0.20910344
141	0x3f44316a	0.766379
142	0x3cc379d6	0.023861807
143	0x3ec6522a	0.3873456
144	0xbe8de26f	-0.27711818
145	0x3d892bc2	0.06697799
146	0x3da6c1e5	0.08142451
147	0xbd3a5464	-0.045490637
148	0xbef18822	-0.47174174
149	0xbeb05e98	-0.3444717
150	0xbe83bdfc	-0.25730884
151	0xbe514320	-0.20435762
152	0x3dcd84c0	0.10035086
153	0xbe135278	-0.14386928
154	0x3ecc2b3e	0.3987674
155	0x3dc0f770	0.09422195
156	0xbc7ec480	-0.015549779
157	0xbee29b26	-0.44258994
158	0x3d11f530	0.03563422
159	0xbede136c	-0.43374193
160	0xbecd8c65	-0.40146175
161	0xbf6deda9	-0.92940766
162	0xbf382638	-0.7193332
163	0x3ec68b06	0.3877794
164	0xbe8df1ed	-0.27723637
165	0xbe55d5c4	-0.20882326
166	0xbde1588d	-0.11003218
167	0x3dbacb7c	0.09120843
168	0xbedc69e2	-0.43049532
169	0xbf6c274f	-0.9224748
170	0xbf7c75fc	-0.9861753
171	0x3d2e21ca	0.042512693
172	0x3db6ab7c	0.08919427
173	0xbf41d88f	-0.7572107
174	0xbf6af607	-0.9178166
175	0xbe3e9521	-0.18611576
176	0xbdf2f1bf	-0.11862516
177	0xbe6e76b3	-0.23287468
178	0xbdcd14c9	-0.1001373
179	0x3ecd8109	0.4013751
180	0x3e36e414	0.17860442
181	0xbea5af1a	-0.32360154
182	0xbe2da4c0	-0.16957378
183	0xbe371a2c	-0.17881078
184	0x3e2abc5b	0.16673414
185	0xbe19e0e8	-0.15027201
186	0x3ee274b1	0.44229653
187	0xbf0908b8	-0.5352893
188	0x3cbb7dd4	0.022887148
189	0x3e82a52d	0.25516644
190	0xbede148c	-0.4337505
191	0x3a86ba06	0.0010278828
192	0x3f137fb4	0.57616735
193	0xbf1482a3	-0.58011836
194	0xbf37f218	-0.7185378
195	0xbe687538	-0.22700965
196	0x3f1174b7	0.5681872
197	0x3ead4ddc	0.33848464
198	0x3efece65	0.49766842
199	0x3e47c76f	0.19509672
200	0x3ee5133d	0.4474124
201	0xbf3ded46	-0.74190176
202	0xbf2c2060	-0.672369
203	0x3cc06f04	0.023490436
204	0x3ee73247	0.45155546
205	0x3f061bf9	0.5238643
206	0x3f351b8b	0.7074515
207	0x3ee31503	0.44351968
208	0x3f15a3a6	0.5845283
209	0xbee9e3f9	-0.45681742
210	0x3e87a53b	0.26493248
211	0xbe977fd2	-0.29589707
212	0x3e0457a0	0.12924051
213	0xbdf23668	-0.118267834
214	0xbdb9dc78	-0.09075254
215	0xbee65cbe	-0.44992632
216	0xbe7d73e8	-0.24751246
217	0xbd1a3140	-0.037644625
218	0x3ecce272	0.40016514
219	0xbdcab6e0	-0.09898162
220	0xbe373b00	-0.178936
221	0xbdb1b110	-0.0867635
222	0x3ea4c6ba	0.32182866
223	0xbef0a8a6	-0.4700367
224	0x3c12e400	0.008965492
225	0xbe64d210	-0.22345757
226	0x3e990186	0.29883975
227	0xbe3fb5bc	-0.1872167
228	0x3e9ade7e	0.30247873
229	0xbe665ebc	-0.22497076
230	0x3ec29afe	0.38008875
231	0x3dac6eb8	0.084195554
232	0x3e9f2478	0.3108251
233	0x3e61549f	0.22004937
234	0xbf114d00	-0.5675812
235	0x3e01ccd2	0.12675789
236	0x3e870ac0	0.2637539
237	0xbf1bf190	-0.6091547
238	0xbf3a9de4	-0.7289717
239	0x3e8c48e7	0.2739937
240	0x3dbbf2fb	0.09177204
241	0xbf43e46a	-0.7652041
242	0xbf24a43d	-0.6431311
243	0xbed9a3dc	-0.42507827
244	0x3c1aed00	0.009455919
245	0x3e3a4b30	0.18192744
246	0x3e542268	0.2071625
247	0xbdcd7e18	-0.10033816
248	0xbebf5acb	-0.37373957
249	0xbe5dd4a4	-0.21663147
250	0x3eb91856	0.3615138
251	0xbee64fed	-0.44982854
252	0xbed42450	-0.41433954
253	0x3e5ca2c0	0.21546459
254	0xbebcd890	-0.36883974
255	0xbd1991d0	-0.037492573

fc1.bias f4 [256]
0	0xbedef7da	-0.4354847
1	0xbe9d46a6	-0.30717963
2	0xbce55500	-0.027994633
3	0xbe7565ec	-0.23964661
4	0xbeb3c76a	-0.35113078
5	0xbed6e56c	-0.4197191
6	0xbe3f0cd3	-0.18657236
7	0x3dd17ccb	0.102288805
8	0xbee50f89	-0.44738415
9	0x3ea6d87b	0.32587036
10	0x3e038baa	0.12846246
11	0xbe9e982a	-0.30975467
12	0xbe6d1f4a	-0.23156467
13	0x3c47409f	0.012161403
14	0x3e417bfb	0.18894951
15	0xbe4e6827	-0.20156918
16	0xbd8b925a	-0.06815024
17	0xbeafa018	-0.3430183
18	0xbe9c9fb9	-0.3059061
19	0x3e8580c7	0.26074812
20	0xbe8d22b3	-0.27565536
21	0xbd10272f	-0.03519362
22	0xbe16672b	-0.14687793
23	0xbde05728	-0.10954124
24	0x3dc03fc4	0.09387162
25	0xbcd2d9f1	-0.025738688
26	0xbdbf4627	-0.093395524
27	0x3e85fcdb	0.26169476
28	0xbebc2e50	-0.36754084
29	0xbe5027c4	-0.2032767
30	0x3c1be37b	0.009514685
31	0x3d2beb11	0.041972224
32	0x3e80578f	0.25066802
33	0x3df5304a	0.11972101
34	0xbef7c9b5	-0.48396078
35	0xbe99c83d	-0.30035582
36	0x3d0be5d1	0.034154717
37	0xbe76f65c	-0.24117416
38	0xbe348518	-0.17628896
39	0xbecce25a	-0.40016443
40	0xbbe094b9	-0.0068536666
41	0x3c8a5db2	0.01689038
42	0x3ef076fd	0.4696578
43	0xbe787b62	-0.24265817
44	0xbf07a717	-0.52989334
45	0xbee0f1aa	-0.43934375
46	0x3e6930bb	0.22772495
47	0xbe043362	-0.12910226
48	0x3e5623d4	0.20912105
49	0xbe1b0f82	-0.15142635
50	0x3d13feed	0.036131788
51	0xbdd61d59	-0.10454816
52	0x3e0c4bef	0.13700841
53	0xbe1582a4	-0.14600617
54	0x3d02de90	0.031950533
55	0xbea453f4	-0.320953
56	0xbedd88ea	-0.4326852
57	0xbee54a40	-0.4478321
58	0xbec1a3c0	-0.37820244
59	0x3eaa0fc5	0.33215156
60	0x3eb1f708	0.34758782
61	0xbeabfa8e	-0.33589596
62	0x3ea5fa89	0.32417706
63	0x3dc31250	0.09524977
64	0x3e10ee02	0.14153293
65	0x3cbcc028	0.023040846
66	0x3e08f588	0.13374913
67	0xbe8e4e2c	-0.27794015
68	0xbe93c522	-0.28861338
69	0xbee31178	-0.44349265
70	0x3d3fcc6c	0.04682581
71	0xbefccae2	-0.49373537
72	0xbe88d9fc	-0.2672881
73	0x3e3beadb	0.18351309
74	0xbebb724c	-0.3661064
75	0xbee50c22	-0.4473582
76	0xbeda9ca8	-0.42697644
77	0xbd74cc21	-0.059764985
78	0x3e44d32b	0.19221179
79	0xbdd66341	-0.1046815
80	0xbd207f89	-0.039184127
81	0xbe9dc54a	-0.30814582
82	0x3e2b98b2	0.16757467
83	0xbe21431f	-0.15748261
84	0x3ded8cbe	0.1159911
85	0xbe51a96e	-0.20474789
86	0xbe04dfc8	-0.12975991
87	0x3df2b110	0.11850178
88	0x3d91e2f8	0.07123369
89	0xbeee861c	-0.46586692
90	0x3d905272	0.07046975
91	0x3e3f648e	0.18690702
92	0xbe4c6eca	-0.19964138
93	0xbe232092	-0.15930393
94	0x39ef577b	0.0004565081
95	0x3e68713a	0.22699443
96	0xbda97960	-0.082751036
97	0xbeed7f70	-0.4638629
98	0x3efaae13	0.48960933
99	0xbe8f321e	-0.27967924
100	0xbdf2836e	-0.118414745
101	0x3e202f49	0.15643038
102	0xbed5e1fc	-0.41773975
103	0xbdae0388	-0.08496767
104	0xbef2bbf0	-0.4740901
105	0xbefc4914	-0.49274504
106	0x3e94dc58	0.2907436
107	0x3db422da	0.0879571
108	0x3d9399a7	0.07207041
109	0x3e905d0f	0.28195998
110	0x3e7f6ea3	0.24944548
111	0x3e038ed6	0.12847456
112	0xbed7eeb7	-0.42174312
113	0x3e1e4ed2	0.15459755
114	0x3d564f50	0.052321732
115	0xbe69c0b8	-0.22827423
116	0x3e9cc1e7	0.30616686
117	0x3cd59199	0.026070403
118	0xbec5dfe1	-0.3864737
119	0x3e124e3b	0.14287655
120	0x3e74ff33	0.23925476
121	0xbee8743e	-0.45401186
122	0xbe9fcee2	-0.31212527
123	0xbed11ba8	-0.40841413
124	0xbe796103	-0.24353413
125	0xbeb26376	-0.34841508
126	0xbe05b35c	-0.13056701
127	0x3e80c965	0.25153652
128	0xbebd791c	-0.37006462
129	0xbecc3afc	-0.39888752
130	0x3e5c473a	0.21511546
131	0xbdbe4a47	-0.09291511
132	0x3efcbf1a	0.4936455
133	0xbebcc490	-0.36868715
134	0xbedcc6fe	-0.4312057
135	0xbe8df650	-0.27726984
136	0xbead73f7	-0.33877537
137	0xbe97389a	-0.2953537
138	0x3e862bf1	0.262054
139	0x3cad11a7	0.021126581
140	0xbddc75b8	-0.107646406
141	0x3eafccce	0.3433594
142	0x3e00c317	0.12574421
143	0xbc471fc0	-0.012153566
144	0x3dadf34c	0.08493671
145	0xbd5f4398	-0.05450782
146	0xbeba1c06	-0.36349505
147	0x3daf6238	0.085636556
148	0x3d9a537c	0.07535455
149	0xbec5bd14	-0.38620818
150	0x3d1b9ed0	0.037993252
151	0xbea9729e	-0.33095258
152	0xbea6b334	-0.32558596
153	0xbecb3c3c	-0.39694393
154	0x3dbcfc7d	0.09227846
155	0xbeab19f3	-0.33418235
156	0x3d326fdc	0.04356371
157	0xbd8e863f	-0.06959199
158	0xbe791080	-0.243227
159	0xbead50e2	-0.3385077
160	0xbe81e261	-0.25368026
161	0x3e942a4d	0.28938523
162	0x3c6d941a	0.014500642
163	0x3ddee610	0.10883725
164	0xbe0bcb10	-0.13651681
165	0xbd7fb8f0	-0.06243223
166	0xbe91b7cc	-0.28460538
167	0x3e6d264c	0.2315914
168	0x3dd73b65	0.105093755
169	0x3ce232ab	0.027612051
170	0xbe9e7ba8	-0.30953717
171	0xbed256fe	-0.41081995
172	0xbea0df70	-0.3142047
173	0x3eb74e04	0.3580171
174	0x3e15fc55	0.14647038
175	0xbdfcdd30	-0.12346876
176	0x3de9a657	0.1140868
177	0x3e8a0cef	0.26962993
178	0xbcacfb89	-0.021116035
179	0xbe5a0da7	-0.2129427
180	0x3ed1579f	0.40887162
181	0xbc63036d	-0.013855797
182	0xbeab9832	-0.33514553
183	0x3eae133e	0.33999056
184	0xbe6546e6	-0.22390327
185	0xbe47d411	-0.1951449
186	0x3d7457a8	0.059653908
187	0xbeb7d980	-0.35908127
188	0xbebd8370	-0.3701434
189	0xbd6aee36	-0.057356082
190	0xbe53042d	-0.20607062
191	0x3e0028df	0.12515591
192	0xbe12793c	-0.1430406
193	0x3bcce2c0	0.0062526166
194	0xbe9c4238	-0.3051927
195	0x3d37bcb9	0.044857714
196	0xbd54a6f8	-0.051917046
197	0xbe67d7af	-0.2264087
198	0x3ddbe701	0.1073742
199	0x3dc0969e	0.09403728
200	0xbdaa54d0	-0.08316958
201	0xbd7f4035	-0.062317092
202	0x3df9f117	0.12204187
203	0xbbb4c2fb	-0.0055164075
204	0xbe2fb4d2	-0.17158821
205	0x3ce6da60	0.028180301
206	0xbe406b04	-0.18790823
207	0xbe95e7d1	-0.29278424
208	0xbe3c8b6e	-0.18412563
209	0x3e78b65a	0.24288312
210	0x3e166518	0.14687002
211	0x3dfecb3d	0.124411084
212	0xbe292034	-0.16516191
213	0xbe96a032	-0.29419094
214	0x3dcc438c	0.09973821
215	0xbd77367d	-0.0603547
216	0xbeed5800	-0.463562
217	0xbd5f3074	-0.054489568
218	0xbddc027d	-0.10742662
219	0xbe4032e0	-0.18769407
220	0xbdc527f8	-0.09626764
221	0xbe62ffe0	-0.22167921
222	0xbe5ebbe4	-0.21751362
223	0x3dd25620	0.10270333
224	0xbd0e2b5d	-0.034709323
225	0xbd72a075	-0.059235055
226	0xbea6da26	-0.3258831
227	0x3db4be18	0.0882532
228	0xbecbed84	-0.39829648
229	0x3d076270	0.03305286
230	0x3dd56e7d	0.104214646
231	0xbece86b0	-0.40337133
232	0xbf02036f	-0.5078649
233	0xbec5838c	-0.38576925
234	0x3d968381	0.07349301
235	0xbd5241bb	-0.051332217
236	0x3d854099	0.06506462
237	0x3e7c0ad2	0.24613503
238	0x3de0b0dc	0.10971233
239	0xbdd9a190	-0.10626519
240	0x3d6871f5	0.056749303
241	0x3dee0ec6	0.116239116
242	0xbec025a4	-0.37528718
243	0xbee1ca3e	-0.4409961
244	0xbb4bd746	-0.0031103655
245	0xbf092c0b	-0.5358283
246	0xbb0ee000	-0.0021800995
247	0x3de8f330	0.11374509
248	0x3e5fd6fc	0.21859354
249	0x3e602423	0.21888785
250	0xbec2f764	-0.3807937
251	0x3e80abf9	0.25131205
252	0xbe88e85e	-0.26739782
253	0xbe2e0922	-0.16995671
254	0x3cebaba9	0.028768377
255	0xbbf65c4c	-0.007518327

fc2.weight f4 [256, 256]
0	0xbc972d0c	-0.018454097
1	0x3d391b24	0.0451919
2	0xbd5de912	-0.05417735
3	0xbe6f69c0	-0.23380184
4	0xbd0194c2	-0.031636007
5	0x3b8b9b40	0.0042604506
6	0xbe950b36	-0.29110116
7	0x3c579778	0.013158672
8	0x3d68333e	0.056689493
9	0xbe419d6d	-0.1890771
10	0xbeb778a1	-0.3583422
11	0xbea0e369	-0.314235
12	0xbe445132	-0.19171599
13	0xbe8384da	-0.25687295
14	0xbd576e3b	-0.05259536
15	0xbe7baa8f	-0.24576782
16	0xbd98c1b5	-0.07458822
17	0xbd223882	-0.03960467
18	0xbe885013	-0.26623592
19	0x3e873f25	0.26415363
20	0xbe80c85a	-0.25152856
21	0xbe5cf113	-0.21576338
22	0x3d058fe3	0.032607924
23	0x3d75f26a	0.060045637
24	0xbd8d5f1c	-0.06902906
25	0xbe8d297a	-0.27570707
26	0xbe5873e1	-0.21137954
27	0xbe28892a	-0.16458574
28	0x3c85e544	0.016344674
29	0xbcc1f1d0	-0.023674875
30	0xbe43b539	-0.191121
31	0xbd216448	-0.039402276
32	0xbe1ce3d8	-0.1532129
33	0x3e9b870a	0.30376464
34	0xbb3d3e40	-0.0028876215
35	0xbeaada96	-0.33369893
36	0xbe7e9f3e	-0.24865434
37	0x3c214b10	0.009844556
38	0xbd21ef88	-0.039535075
39	0x3d49778e	0.04918628
40	0x3dec3e3f	0.1153531
41	0xbd24fa4b	-0.04027776
42	0x3d653874	0.05596204
43	0xbd453041	-0.04814172
44	0x3c60d7b8	0.013723306
45	0x3d2336b2	0.039847083
46	0xbdebb465	-0.11509017
47	0xbea12557	-0.314738
48	0xbd56614b	-0.05233888
49	0xbe59e5b5	-0.21279033
50	0xbb80cc05	-0.003930571
51	0xbe337ccf	-0.1752808
52	0xbda77975	-0.08177463
53	0xbd10a710	-0.035315573
54	0xbd7a5cf0	-0.06112379
55	0xbca83378	-0.020532355
56	0x3c00f9c8	0.0078720525
57	0x3c657b78	0.014006488
58	0xbe5ea1eb	-0.21741454
59	0xbd348c8b	-0.044079345
60	0x3cc19d3f	0.023634551
61	0x3d3b9aa4	0.045801774
62	0xbd6a868b	-0.057257216
63	0x3d40765c	0.046987876
64	0xbe283aa2	-0.16428617
65	0x3dc5da82	0.09660818
66	0xbe9fb31a	-0.3119133
67	0xbe900061	-0.2812529
68	0x3d70317a	0.058640935
69	0xbd6c1288	-0.05763486
70	0xbd5a848a	-0.053349055
71	0xbd3d3f9e	-0.04620325
72	0x3db38ec1	0.087674625
73	0xbe72cbcb	-0.23710553
74	0x3d107286	0.035265468
75	0xbd1bf54c	-0.03807573
76	0xbe8f1f86	-0.27953738
77	0xbd54a5c0	-0.051915884
78	0xbe6e0dc3	-0.23247437
79	0xbe881ef5	-0.26586118
80	0xbdb521a3	-0.08844306
81	0x3ca5ca18	0.020237967
82	0x3d8472da	0.06467219
83	0xbe7b9e11	-0.24572016
84	0xbe1bcaed	-0.15214129
85	0xbe5189c7	-0.20462714
86	0x3cd54684	0.026034601
87	0x3eb07d2b	0.34470496
88	0x3e2ce10c	0.16882724
89	0xbd16c72a	-0.03681103
90	0xbe1a8098	-0.15088117
91	0xbe5a609e	-0.21325919
92	0xbeb1dd1a	-0.34739
93	0xbe9a633d	-0.30153838
94	0xbe09ffa9	-0.13476433
95	0xbe0079cd	-0.12546463
96	0xbc896214	-0.0167704
97	0x3d1cb5a0	0.03825915
98	0xbe2e70de	-0.17035243
99	0x3d59cbfe	0.053173058
100	0x3bb363e0	0.0054745525
101	0xbe139ac1	-0.14414503
102	0x3ca394ec	0.019968472
103	0xbd62ec2c	-0.055401012
104	0xbcdb8678	-0.026797518
105	0xbd418b98	-0.047252268
106	0x3cef56ab	0.029216131
107	0xbe0b9a59	-0.13633098
108	0x3c7c1981	0.01538694
109	0xbda6780d	-0.081283666
110	0xbd258263	-0.04040755
111	0xbe219aa8	-0.15781653
112	0xbeac1248	-0.33607697
113	0xbe28b27e	-0.1647434
114	0x3c6253d0	0.013813928
115	0xbc7fa1f0	-0.015602574
116	0xbe53dd0d	-0.20689793
117	0xbe769997	-0.24082027
118	0xbe56bb05	-0.2096978
119	0x3e858ea8	0.260854
120	0xbe516316	-0.20447955
121	0x3bea8d20	0.0071579367
122	0xbd5d710a	-0.05406288
123	0xbce3b9c0	-0.027798533
124	0xbe91dc68	-0.2848847
125	0xbc8f5904	-0.0174985
126	0xbd0aa47c	-0.03384827
127	0xbe4221a2	-0.18958142
128	0x3d023932	0.031792827
129	0xbd275330	-0.04085082
130	0xbdaceeca	-0.08443983
131	0xbddafc82	-0.10692693
132	0xbd664bde	-0.056224696
133	0xbd9598d0	-0.07304537
134	0xbd670b3e	-0.056407206
135	0x3ccd09b4	0.02502904
136	0x3b838800	0.004014015
137	0x3c7a40c0	0.015274227
138	0xbe00c1af	-0.12573884
139	0xbe653a31	-0.2238548
140	0xbe8f85a8	-0.2803166
141	0xbe328a91	-0.17435671
142	0xbe3ecf59	-0.18633784
143	0x3d3b4338	0.0457184
144	0xbe208248	-0.15674698
145	0xbe4789f7	-0.19486223
146	0xbebf232f	-0.3733153
147	0xbd1e0f8e	-0.038589053
148	0xbe28f1e6	-0.16498527
149	0xbe570f1e	-0.2100186
150	0xbd072ce8	-0.03300181
151	0x3d40c358	0.047061294
152	0xbd7d801a	-0.061889745
153	0xbb7a20a0	-0.0038166419
154	0xbe283913	-0.16428022
155	0xbe97b617	-0.2963111
156	0xbdfe2a88	-0.12410456
157	0x3d937d64	0.07201651
158	0xbd7d2d26	-0.061810635
159	0xbd00f886	-0.03148701
160	0x3d63d2e2	0.055621035
161	0xbcf3ee94	-0.029776849
162	0xbe06965f	-0.131433
163	0xbe611a83	-0.2198277
164	0xbd1aa7dc	-0.03775774
165	0xbc63e130	-0.013908669
166	0x3c98e5c4	0.018664248
167	0xbe2f42c9	-0.1711532
168	0xbe6239e5	-0.22092398
169	0xbe846aca	-0.25862724
170	0xbd6bebb2	-0.057597823
171	0xbc043b68	-0.008070804
172	0xbd65f9be	-0.056146376
173	0xbdac4ed4	-0.08413473
174	0x3e91255f	0.28348824
175	0x3d1a4216	0.03766068
176	0xbde76610	-0.11298764
177	0xbe398311	-0.18116404
178	0xbe6d33cf	-0.23164295
179	0xbe52151a	-0.20515862
180	0x3b66ef57	0.0035237873
181	0xbe1fdad2	-0.15610817
182	0x3d10c332	0.035342403
183	0xbd8452aa	-0.064610794
184	0xbcc6e14e	-0.024277356
185	0x3cd9f0f8	0.02660416
186	0xbe30dff7	-0.17272936
187	0xbe25e573	-0.16200809
188	0xbc9eb658	-0.019374058
189	0xbe74c5fb	-0.23903649
190	0xbe547fb9	-0.20751847
191	0xbe7ca529	-0.24672379
192	0xbd70c2b0	-0.05877942
193	0xbe888bcb	-0.26669154
194	0xbd5983a2	-0.05310405
195	0xbe4379cf	-0.19089435
196	0xbe70273e	-0.2345247
197	0xbe803209	-0.25038174
198	0xbe157d45	-0.14598568
199	0xbe37b3f3	-0.17939739
200	0xbd2ecd3c	-0.042676196
201	0xbe784b28	-0.2424742
202	0xbe153b1a	-0.14573327
203	0xbe4fb08a	-0.20282188
204	0xbcafa4fc	-0.021440975
205	0x3d339ec6	0.04385259
206	0xbd21c886	-0.039497875
207	0xbe8a2d00	-0.26987457
208	0xbe65571c	-0.22396511
209	0xbdd096a2	-0.10184981
210	0x3d621004	0.055191055
211	0xbe2695e0	-0.1626811
212	0xbda2f35e	-0.07956575
213	0x3d3326fd	0.043738354
214	0xbe619eaf	-0.22033189
215	0xbda65bf5	-0.08123008
216	0xbcca5bd4	-0.02470199
217	0xbde341af	-0.110965125
218	0xbe89b773	-0.26897773
219	0xbe99182a	-0.29901248
220	0xbe7e5d3b	-0.24840252
221	0x3d02254a	0.031773843
222	0x3d6ea11c	0.058259115
223	0xbcb14f74	-0.021644332
224	0xbe30b1b0	-0.17255282
225	0xbdfe9c48	-0.12432152
226	0x3cabfca4	0.020994492
227	0x3d466980	0.048440456
228	0xbd07ec52	-0.033184357
229	0xbe4e7d1c	-0.20164913
230	0x3cec36d6	0.028834742
231	0x3d7d01ac	0.061769173
232	0xbddda154	-0.108217865
233	0x3c55d398	0.013050936
234	0xbe6d6634	-0.23183519
235	0xbe876052	-0.26440674
236	0xbd3caa7f	-0.046061035
237	0xbd4d6126	-0.050141476
238	0x3d67a08a	0.056549586
239	0xbe6bbd50	-0.23021436
240	0xbe2aa50c	-0.16664523
241	0xbe0cdc1b	-0.13755839
242	0xbc858bc4	-0.016301997
243	0xbd24971c	-0.04018317
244	0xbe6b45cb	-0.22975843
245	0xbcadc430	-0.021211714
246	0x3d273aea	0.04082767
247	0x3d1dd088	0.03852895
248	0x3c0f5680	0.008748651
249	0x3d8df118	0.069307506
250	0x3d0ff956	0.035149895
251	0x3cf54274	0.029938914
252	0x3cc39468	0.023874477
253	0xbe61b898	-0.22043073
254	0xbe87add2	-0.26499802
255	0xbd327591	-0.04356915

fc2.bias f4 [256]
0	0xbe4fab81	-0.20280267
1	0xbddb8da0	-0.10720372
2	0xbb1d3f00	-0.002399385
3	0xbdc3bdc0	-0.09557676
4	0xbbc10822	-0.005890862
5	0xbdd44e7c	-0.10366532
6	0xbd3e7f4e	-0.046508126
7	0x3d1aaeab	0.037764233
8	0xbd86dc75	-0.065850176
9	0xbc3cc67d	-0.011521933
10	0xbc8d7c8c	-0.017271303
11	0xbcda4e21	-0.026648583
12	0xbdb4ced0	-0.08828509
13	0xbe5e928c	-0.2173559
14	0x3e05949e	0.13044974
15	0xbd9d7d8d	-0.076899625
16	0xbed28e9b	-0.41124424
17	0x3de8fba7	0.11376124
18	0xbddd99e4	-0.10820368
19	0x3e68e581	0.22743799
20	0xbe6a8ae8	-0.22904551
21	0xbdf70746	-0.12061934
22	0xbd1525e2	-0.03641308
23	0xbd46311d	-0.04838668
24	0xbd7be1ae	-0.06149452
25	0xbe31bc7d	-0.17357059
26	0xbd8512bc	-0.06497714
27	0xbe386f75	-0.18011267
28	0xbe6cadd2	-0.23113182
29	0xbdca545f	-0.09879374
30	0xbd875b02	-0.06609155
31	0xbddf9def	-0.10918795
32	0xbe066f16	-0.13128313
33	0xbde19269	-0.11014254
34	0x3de903da	0.11377688
35	0xbd5813fe	-0.05275344
36	0xbdfbfbad	-0.12303863
37	0xbd017306	-0.031603836
38	0xbd4518b8	-0.048119277
39	0x3ba4d7c3	0.0050306036
40	0x3e93061e	0.28715605
41	0xbdd2b49c	-0.10288355
42	0xbd9d9289	-0.07693965
43	0xbdc9435d	-0.09827302
44	0xbbdaa000	-0.0066719055
45	0xbd18d15c	-0.037309036
46	0xbd331b70	-0.04372734
47	0x3ad004d4	0.001587058
48	0xbd7be1b2	-0.061494537
49	0xbcf95fd9	-0.030441212
50	0xbdcbab89	-0.09944827
51	0x3d837239	0.064182706
52	0x3e3ec8c2	0.1863127
53	0xbe2d7ca6	-0.16942081
54	0xbe18e9eb	-0.14932983
55	0xbc732688	-0.01484073
56	0xbd927c29	-0.07152588
57	0x3d3c4cb3	0.045971584
58	0xbc4a5ca0	-0.012351185
59	0xbd89d831	-0.06730688
60	0xbe868b8a	-0.26278335
61	0xbd3ee860	-0.04660833
62	0xbda5966c	-0.08085331
63	0xbd60989e	-0.054833047
64	0xbdccb64e	-0.09995709
65	0xbdd3ee4f	-0.10348188
66	0xbdb167eb	-0.08662399
67	0xbcd93d69	-0.02651854
68	0xbdea153a	-0.1142983
69	0xbd719590	-0.058980525
70	0xbe87c915	-0.265206
71	0xbbaa604f	-0.005199469
72	0xbd131326	-0.035906933
73	0xbc7a3998	-0.0152725205
74	0xbdc49b72	-0.09599961
75	0xbc95f54f	-0.018305449
76	0x3a9831c4	0.0011611511
77	0xbdc6f06b	-0.09713825
78	0xbea75dc4	-0.32688725
79	0x3dde7182	0.10861494
80	0xbdac2fe7	-0.08407574
81	0xb882f1f9	-6.243954e-05
82	0xbe55847f	-0.20851324
83	0xbdf2e81e	-0.11860679
84	0xbe33c1a7	-0.17554341
85	0xbda3f8ce	-0.0800644
86	0xbded28a0	-0.11580014
87	0xbed321a3	-0.412366
88	0xbdc48681	-0.09595967
89	0xbce1e9a3	-0.027577227
90	0xbe0674cc	-0.13130492
91	0xbc36d5b7	-0.011159352
92	0xbd0a6514	-0.0337878
93	0xbd286d0e	-0.041119628
94	0xbc9b7359	-0.0189759
95	0xbdc0d763	-0.09416082
96	0x3e195dcb	0.14977185
97	0x3e1bb5fb	0.15206139
98	0xbd366f34	-0.044539645
99	0xbe2b7a62	-0.16745904
100	0xbb91c980	-0.0044490695
101	0xbd891a80	-0.066945076
102	0xbd736ab9	-0.05942795
103	0x3cdde0b4	0.027084686
104	0xbd954841	-0.07289172
105	0xbe9a98a8	-0.30194592
106	0xbd8b8327	-0.06812125
107	0xbc22219e	-0.00989571
108	0xbc89ac7a	-0.016805876
109	0xbd989736	-0.07450716
110	0xbe1247a3	-0.1428514
111	0xbde2942e	-0.11063419
112	0xbe78c344	-0.24293238
113	0xbd90fe43	-0.070797466
114	0xbdaee921	-0.085405596
115	0xbdef3bd5	-0.11681334
116	0xbd15ffa5	-0.036620755
117	0xbd4859ab	-0.04891364
118	0xbdd97b4b	-0.106192194
119	0x3cc90ce4	0.02454228
120	0xbda19ae3	-0.078908704
121	0xbc085e30	-0.008323237
122	0xbe8a99b6	-0.27070397
123	0xbe2d4090	-0.1691916
124	0x3e629583	0.22127347
125	0xbda6ebf6	-0.08150475
126	0xbd9037c4	-0.070418864
127	0x3c1886ff	0.009309529
128	0xbd70503e	-0.058670275
129	0xbc913899	-0.017727183
130	0xbdb45096	-0.08804433
131	0xbd4568f1	-0.048195783
132	0xbd6e1536	-0.058125697
133	0xbcc3231f	-0.023820458
134	0xbddf9496	-0.109170124
135	0xbda646b9	-0.08118958
136	0x3db84d6a	0.089991406
137	0xbc797d1a	-0.01522758
138	0xbebb928a	-0.36635238
139	0x3e25ba66	0.16184387
140	0xbe129910	-0.14316201
141	0xbcf9ebc2	-0.030507926
142	0xbcab9d87	-0.020949138
143	0xbc3c282a	-0.011484185
144	0xbb6d32e0	-0.0036193654
145	0xbdc1c863	-0.09462049
146	0xbe40154f	-0.18758129
147	0xbd950dff	-0.0727806
148	0xbe8949f6	-0.2681424
149	0xbdf637f3	-0.1202239
150	0xbd8d4b40	-0.068991184
151	0xbdd1787f	-0.10228061
152	0xbd27dace	-0.040980153
153	0xbd1d0d21	-0.0383426
154	0xbd50037c	-0.050784573
155	0xbd513fab	-0.05108611
156	0xbc887a4b	-0.016659876
157	0xbbd695ad	-0.0065486045
158	0xbd38b723	-0.045096528
159	0xbdc18c65	-0.09450606
160	0x3eb2eb34	0.3494507
161	0x3d087a6a	0.03331987
162	0xbc43fb2d	-0.01196174
163	0xbcec3b8c	-0.028836988
164	0xbbfc7850	-0.007704772
165	0xbad37c0f	-0.0016134995
166	0xbdd47190	-0.10373223
167	0xbe97a785	-0.29619995
168	0xbdcc9dff	-0.09991073
169	0x3e781f9b	0.24230807
170	0xbcd3999e	-0.025830086
171	0x3de1b3e7	0.11020642
172	0xbe92e3eb	-0.28689513
173	0x3cb03058	0.021507427
174	0xbd071016	-0.032974325
175	0xbbfec840	-0.0077753365
176	0xbe92c982	-0.28669363
177	0x3bd30366	0.006439614
178	0xbd59a920	-0.053139806
179	0x3d0a271c	0.033728704
180	0xbdcd1975	-0.10014621
181	0xbd0cde77	-0.034391847
182	0x3dbb6f6a	0.0915211
183	0xbe91b89d	-0.2846116
184	0xbd6dcd5d	-0.058057178
185	0x3e9256d0	0.28581858
186	0xbe03bfe4	-0.12866169
187	0xbd690449	-0.056888852
188	0xbdf1dcd8	-0.11809701
189	0xbcdc573c	-0.026897065
190	0xbdd3f06e	-0.10348593
191	0xbbc80dc6	-0.0061051575
192	0xbd931adc	-0.071828574
193	0xbe92b819	-0.2865608
194	0x3e4aa2f1	0.1978872
195	0xbd0383aa	-0.032107987
196	0x3e4904b3	0.19630699
197	0xbe9facd8	-0.31186557
198	0xbdcfc609	-0.10145194
199	0xbd5eb4b0	-0.054371536
200	0xbc587b7b	-0.013213034
201	0xbdf54a22	-0.1197703
202	0x3e1503bb	0.14552204
203	0xbd0d38ca	-0.034477986
204	0xbdebe355	-0.115179695
205	0x3e7626c8	0.24038231
206	0xbe29e8d9	-0.1659273
207	0xbaeb3dd5	-0.0017947505
208	0xbda91fa8	-0.08257991
209	0xbcd4774b	-0.02593579
210	0xbcf5dd14	-0.030012645
211	0xbd875702	-0.06608392
212	0xbd700bf7	-0.05860516
213	0xbc46b194	-0.012127299
214	0x3dc2ddd4	0.095149666
215	0xbc215441	-0.009846748
216	0x3d8002fb	0.062505685
217	0xbdd09c04	-0.101860076
218	0xbd075451	-0.033039395
219	0x3d9b519b	0.075839244
220	0xbd18f685	-0.037344474
221	0xbde89313	-0.11356177
222	0xbdedec18	-0.11617297
223	0xbd0ab6e0	-0.03386581
224	0xbd7f6f3f	-0.062361952
225	0xbda5d87c	-0.08097932
226	0x3d1d2106	0.03836157
227	0xbc73f8ed	-0.0148908915
228	0x3d6df162	0.05809153
229	0xbcbc1500	-0.022959232
230	0xbdb4d850	-0.08830321
231	0xbd0f5e7c	-0.035002217
232	0xbe411ae4	-0.18857914
233	0xbc316853	-0.0108280955
234	0xbdf80522	-0.12110354
235	0xbc0c1867	-0.00855074
236	0xbe6c873d	-0.23098464
237	0x3d5acafc	0.053416237
238	0xbd494d7c	-0.04914616
239	0xbca242f2	-0.019807313
240	0xbe0f3ec5	-0.13988788
241	0x3a0e2903	0.00054229813
242	0xbd9b9748	-0.07597214
243	0x3e7eb957	0.24875389
244	0x3e780392	0.24220112
245	0xbe64b7c4	-0.22335726
246	0xbdfaf001	-0.12252808
247	0xbdd9e2c4	-0.10638955
248	0xbce6730c	-0.02813103
249	0xbcda8f2e	-0.026679602
250	0xbd6781c4	-0.05652024
251	0x3e4c1340	0.19929218
252	0xbd9cde46	-0.07659583
253	0xbe2b4b4b	-0.1672794
254	0x3caeb43f	0.021326182
255	0xbdcb7771	-0.09934891

fc3.weight f4 [256, 256]
0	0xbca72788	-0.020404592
1	0x3cbce058	0.023056194
2	0x3d0a0de6	0.03370466
3	0xbbe18fb7	-0.006883587
4	0xbc438380	-0.0119332075
5	0x3d746317	0.059664812
6	0x3d29ad28	0.0414249
7	0xbd2b9763	-0.04189242
8	0xbda6570a	-0.0812207
9	0x3d907422	0.070534006
10	0xbd1309be	-0.035897963
11	0x3bc638c0	0.0060492456
12	0x3bb6e7b9	0.0055818227
13	0x3bdc8550	0.0067297593
14	0xbd290268	-0.04126206
15	0x3d89a9d0	0.06721842
16	0xbe003f5e	-0.12524173
17	0x3c3de1d9	0.011589491
18	0x3d506e6c	0.050886557
19	0x3cf6fdc9	0.030150311
20	0x3bde0c50	0.00677637
21	0x3c44e620	0.012017757
22	0xbd143d62	-0.03619135
23	0x3d4ba34c	0.04971628
24	0x3d74beee	0.059752397
25	0x3d5d148a	0.053974666
26	0xbd6c3040	-0.057663202
27	0x3a143480	0.0005653575
28	0xbe2ad061	-0.16681053
29	0xbd644abb	-0.05573533
30	0x3d3387a2	0.04383052
31	0xbd0b13fe	-0.033954613
32	0x3dcf1f8b	0.10113438
33	0xbcd46930	-0.025929064
34	0xbd51f380	-0.05125761
35	0xbc997764	-0.018733688
36	0x3d59ae05	0.053144474
37	0xbe07ce78	-0.13262355
38	0xbd428f88	-0.047500163
39	0xbd5f6e31	-0.054548446
40	0x3d08faab	0.03344218
41	0x3c710680	0.014711022
42	0xbdee564f	-0.11637556
43	0x3cf3bddf	0.029753624
44	0x3d3bf2e8	0.04588595
45	0x3bacb440	0.005270511
46	0x3d146a9e	0.03623449
47	0x3cf08998	0.029362485
48	0x3c571878	0.013128392
49	0xbd9cf64a	-0.076641634
50	0xbc6694e2	-0.014073582
51	0x3ca0c7f9	0.019626604
52	0xbd82f129	-0.06393654
53	0xbd1497fc	-0.036277756
54	0xbc9a86cc	-0.018863104
55	0xbc82932c	-0.015939318
56	0xbd2d1e5b	-0.042265277
57	0x3bc6738a	0.006056254
58	0x3b961070	0.004579596
59	0x3d320cce	0.043469243
60	0xbd540d78	-0.051770657
61	0x3c7878e0	0.015165538
62	0x3c067075	0.008205523
63	0x3d512fca	0.051070966
64	0x3d68d523	0.056843888
65	0x3c5d588e	0.013509883
66	0xbc852149	-0.016251223
67	0x3d164eee	0.036696367
68	0xbd26ea6e	-0.040750913
69	0x3d5cb300	0.053881645
70	0xbc6d9c88	-0.014502652
71	0xbd8630e3	-0.06552293
72	0x3c39a8b0	0.011331722
73	0x3cc4765b	0.023982218
74	0xbc847c18	-0.016172454
75	0x3d5a33ac	0.053271934
76	0x3cdb9844	0.026806004
77	0x3d182fb2	0.03715486
78	0x3d7b1ed0	0.061308682
79	0xbdf904dd	-0.12159131
80	0x3c334fcd	0.010944319
81	0xbc2aa181	-0.010414482
82	0x3ccc0c40	0.024908185
83	0xbcaed49c	-0.021341614
84	0x3dd43f92	0.103636876
85	0xbc816ee9	-0.015799956
86	0x3d0cf37a	0.034411885
87	0xbd695974	-0.056970075
88	0x3d4bf08c	0.04978995
89	0xbd3fcf98	-0.046828836
90	0xbd17c3f8	-0.037052125
91	0x3d3becac	0.045880005
92	0x3d8bcf12	0.06826605
93	0xbe0767d5	-0.13223203
94	0x3d8ccc96	0.06874959
95	0xbdcf4640	-0.10120821
96	0xbbae020c	-0.0053103026
97	0x3c080fbe	0.0083045345
98	0x3ba7ef50	0.005124964
99	0xbda76f63	-0.08175542
100	0x3d232fb0	0.0398404
101	0x3d7814b8	0.060566634
102	0x3d180dff	0.037122723
103	0xbd1c808e	-0.038208537
104	0xbcd6f760	-0.026241004
105	0xbdb35c7a	-0.08757873
106	0x3de4b357	0.11167019
107	0x3d810416	0.062996075
108	0xbd3278e2	-0.043572314
109	0x3cd15490	0.025553018
110	0xbcdf9907	-0.027294649
111	0xbd10ecc8	-0.035382062
112	0x3d3ea700	0.046545982
113	0xbca8149c	-0.02051764
114	0x3e0f3d5b	0.13988249
115	0xbb718e00	-0.003685832
116	0xbd7dca8c	-0.061960742
117	0x3dcfaedb	0.10140773
118	0xbdc78a2a	-0.097431496
119	0xbd871c24	-0.06597164
120	0x3d13febf	0.036131617
121	0xbc95c38c	-0.01828172
122	0x3b75d7e0	0.0037512705
123	0x3b465780	0.0030264556
124	0xbd9b79d8	-0.07591599
125	0x3cc2ae74	0.023764826
126	0xbcb2efc0	-0.021842837
127	0x3d8ea833	0.06965675
128	0x3ddf796f	0.109118335
129	0xbc2a39c8	-0.010389753
130	0xbdcfe39c	-0.10150835
131	0x3c4ad8b3	0.012380767
132	0x3d75c570	0.060002744
133	0xbd096fea	-0.033553995
134	0x3cd88d88	0.026434675
135	0xbdbabc5a	-0.091179565
136	0x3d553951	0.052056614
137	0xbb0218c0	-0.0019851178
138	0x3d85f0d9	0.06540079
139	0xbd33ea2f	-0.043924507
140	0xbd6fa196	-0.05850371
141	0x3c2b4b20	0.010454923
142	0x3d006122	0.031342633
143	0xbd4664c1	-0.04843593
144	0xbc2dfa28	-0.010618724
145	0xbc7409f0	-0.014894947
146	0xbd33d608	-0.043905288
147	0x3d054ce4	0.03254403
148	0xbdd8d130	-0.10586774
149	0x3d775bca	0.06039027
150	0xbb0a8dc7	-0.0021141635
151	0x3a179a00	0.00057831407
152	0xbbb75c90	-0.005595751
153	0xbd125f7e	-0.0357356
154	0xbdc1906f	-0.09451377
155	0xbd6d2562	-0.05789698
156	0x3d0a1874	0.033714727
157	0xbd4fe9da	-0.050760128
158	0x3c98d72b	0.018657288
159	0x3c8cbc1c	0.017179541
160	0x3ca736b7	0.020411832
161	0x3d285498	0.0410963
162	0x3d0b6720	0.034033895
163	0x3c99209c	0.018692307
164	0x3c6d4d98	0.014483832
165	0xbcc6a315	-0.024247685
166	0xbcc835b4	-0.02443967
167	0xbd98ec20	-0.07466912
168	0xbcf10650	-0.029421955
169	0xbc873833	-0.01650629
170	0x3ce57ac8	0.028012648
171	0xbdd9456f	-0.106089465
172	0x3d1fc7b4	0.03900881
173	0xbd6a2a0e	-0.057169013
174	0x3d70f152	0.05882389
175	0x3db95007	0.09048467
176	0xbb8f9020	-0.0043811947
177	0x3c56d7a0	0.013112932
178	0x3df08ac7	0.1174522
179	0x3d6fbd7e	0.058530323
180	0x3d9fc941	0.07802058
181	0xbda73fa6	-0.08166437
182	0x3c8db1ec	0.017296754
183	0xba44d580	-0.00075086206
184	0xbdf21fe2	-0.118224874
185	0xbd793fc7	-0.06085184
186	0xbcb54f76	-0.022132616
187	0xbc885164	-0.016640373
188	0x3e08469e	0.13308188
189	0x3c3bd900	0.011465311
190	0x3d357758	0.04430327
191	0xbdb1bf90	-0.08679116
192	0xbbbbb050	-0.005727805
193	0xbd9a6235	-0.07538263
194	0xbd1ea6a8	-0.038733155
195	0xbd4524f6	-0.04813095
196	0xbbe3db20	-0.006953612
197	0xbd1de9b0	-0.03855294
198	0x3cd55bc9	0.026044743
199	0xba651700	-0.0008739084
200	0xbc84a740	-0.016193032
201	0x3bf3f6c0	0.0074451864
202	0xbcf6fed4	-0.030150808
203	0xbd77ef64	-0.060531035
204	0x3a2f2427	0.00066811073
205	0x3a3a47e2	0.0007106048
206	0x3d78dab6	0.060755454
207	0x3a57fc17	0.00082391634
208	0xbcb96838	-0.022632703
209	0xbb7c4d77	-0.003849832
210	0x3c72f8d0	0.014829829
211	0x3bd5eba1	0.0065283333
212	0xbda31a1c	-0.07963964
213	0xbd3009d4	-0.042978123
214	0xbcff3659	-0.031153845
215	0xbd1c66fc	-0.03818415
216	0xbc2a9f53	-0.010413962
217	0xbd154fae	-0.03645294
218	0xbd2509a6	-0.040292405
219	0x3c402363	0.011727187
220	0x3d98c1ad	0.07458816
221	0x3d68d90e	0.056847624
222	0x3d2528c2	0.040322073
223	0xbd8fe8d3	-0.070268296
224	0x3d6cf541	0.05785108
225	0x3d1ae3fe	0.037815087
226	0x3d4dda7a	0.050257184
227	0x3cb7ccd4	0.022436537
228	0xbd483916	-0.048882566
229	0xbc7ddb80	-0.015494227
230	0x3cc7b4e8	0.024378255
231	0x3b9be5fc	0.004757641
232	0xbd013290	-0.03154236
233	0x3c343b8c	0.011000525
234	0xbd05f36c	-0.03270285
235	0xbcb1c2ac	-0.021699272
236	0xbc3316b8	-0.01093071
237	0xbd4cff84	-0.050048366
238	0x3c7fa318	0.015602849
239	0xbc9a40e4	-0.01882977
240	0xbc7d8c45	-0.015475337
241	0x3d539168	0.051652342
242	0xb7d26000	-2.5078654e-05
243	0xbcafee9a	-0.021476079
244	0xbc40acb2	-0.011759924
245	0x3d088998	0.033334345
246	0x3cf111a4	0.029427357
247	0xbd4dee48	-0.05027607
248	0x3c98211f	0.01857048
249	0x3d76e52e	0.060277157
250	0xbdf0e15a	-0.117617324
251	0xbcec6b16	-0.028859656
252	0x3c73cf61	0.014880986
253	0xbd1ccde6	-0.038282298
254	0x3ccbc9ea	0.024876554
255	0xbcbc7c63	-0.023008531

fc3.bias f4 [256]
0	0xbd2da33e	-0.042392008
1	0xbdb3997a	-0.08769508
2	0xbe069e8e	-0.13146421
3	0xbd506720	-0.050879598
4	0xbd8bf0dc	-0.0683305
5	0x3c4659ef	0.012106403
6	0xbda57a5d	-0.080799796
7	0xbdb4b0cb	-0.08822783
8	0x3dc98d8a	0.098414496
9	0x3f0bfbca	0.54681075
10	0xbcd6b6b6	-0.02621017
11	0xbda71f09	-0.08160216
12	0x3e8d75ab	0.27628836
13	0xbd0ecf61	-0.03486574
14	0xbced648b	-0.028978607
15	0xbcfebae0	-0.031094968
16	0xbd887300	-0.066625595
17	0x3f2b5473	0.66925734
18	0xbd8ca963	-0.068682455
19	0x3d9cde7b	0.07659622
20	0xbe0b271e	-0.13589141
21	0xbd1c20cf	-0.038117226
22	0xbe3bd485	-0.18342789
23	0xbdb10b66	-0.08644752
24	0xbd13fdc3	-0.036130678
25	0xbdecc522	-0.115610376
26	0x3c81c4f7	0.01584099
27	0xbdd60bdb	-0.1045148
28	0xbd1c9b92	-0.0382343
29	0xbdc84119	-0.097780414
30	0x3f21f031	0.6325713
31	0xbdb9adb5	-0.09066335
32	0xbd67387e	-0.05645036
33	0xbd5bba6d	-0.053644586
34	0xbd97d326	-0.0741332
35	0xbf08ad16	-0.5338911
36	0xbe93c740	-0.28862953
37	0xbd9ef7a7	-0.0776208
38	0xbd7ec784	-0.06220199
39	0x3e023019	0.1271366
40	0x3cb93766	0.022609424
41	0xbd09c0c6	-0.03363111
42	0xbe419b21	-0.18906833
43	0xbc4b7684	-0.012418393
44	0xbdea4e4b	-0.114407144
45	0xbd9f5fc7	-0.0778194
46	0xbea5cf3c	-0.3238467
47	0xbc3d2039	-0.011543327
48	0xbdbfa540	-0.09357691
49	0x3ded49e4	0.11586359
50	0x3cde7ac7	0.027158154
51	0xbd84ab54	-0.06477991
52	0xbd432157	-0.047639217
53	0xbe03a2d7	-0.12855087
54	0xbdfa2f4b	-0.12216052
55	0xbc4c55bc	-0.012471613
56	0x3dcb32ed	0.09921823
57	0xbd923429	-0.07138855
58	0xbd8c463c	-0.06849334
59	0xbe40b58c	-0.18819255
60	0xbe208bc4	-0.15678316
61	0xbc0e98ff	-0.008703469
62	0xbdf69a18	-0.1204111
63	0xbcf0cc20	-0.02939421
64	0xbb12e649	-0.0022415093
65	0xbd5e3381	-0.054248337
66	0x3cdb320f	0.026757268
67	0xbe68851a	-0.22707024
68	0xbd9deebc	-0.077115506
69	0xbd8097fe	-0.0627899
70	0xbedf5cb2	-0.43625408
71	0xbc108df7	-0.00882291
72	0xbd990f48	-0.07473618
73	0xbd8ddff4	-0.06927481
74	0xbd8b80bd	-0.06811664
75	0xbc85ec80	-0.016348124
76	0xbdb9fde5	-0.0908163
77	0xbd30a6eb	-0.043127935
78	0xbd90b84f	-0.07066404
79	0xbd86ee40	-0.06588411
80	0x3d516a9c	0.05112706
81	0xbc8ff27e	-0.017571684
82	0x3e618e0e	0.22026846
83	0xbcc0db79	-0.023542153
84	0x3e6a7c39	0.2289895
85	0xbe232ddc	-0.15935463
86	0x3bd67a1a	0.0065453174
87	0xbdcf4a53	-0.10121598
88	0xbda2cd45	-0.07949308
89	0xbddf21cf	-0.1089512
90	0xbd934d64	-0.071924955
91	0x3e55a762	0.20864633
92	0xbda3e66c	-0.08002934
93	0xbcab99bd	-0.020947332
94	0xbcb0ea70	-0.021596164
95	0xbcbd0f8f	-0.023078708
96	0xbb9e03ac	-0.004822215
97	0xbeaa24e4	-0.3323127
98	0x3d8b2ad7	0.067952804
99	0xbe6f33a8	-0.23359549
100	0xbd62e94c	-0.05539827
101	0xbe114c90	-0.14189363
102	0xbb533707	-0.0032228844
103	0xbd8d284c	-0.06892452
104	0xbaba8465	-0.001423013
105	0xbd378cb2	-0.044811912
106	0xbd719822	-0.058982976
107	0xbe5378f6	-0.20651612
108	0xbcabb7d7	-0.020961685
109	0xbdc46c88	-0.09591013
110	0xbde80cf6	-0.11330597
111	0x3c8135dd	0.015772754
112	0xbdc36d02	-0.09542276
113	0x3e420e4d	0.18950768
114	0xbdffbcf6	-0.12487213
115	0xbe9c6eef	-0.30553386
116	0xbae63f10	-0.0017566402
117	0xbd8124d7	-0.06305855
118	0xbe229603	-0.15877537
119	0xbc8d003e	-0.01721203
120	0xbd72c103	-0.0592661
121	0xbd2ea974	-0.04264207
122	0xbd9c049b	-0.07618066
123	0xbdab1df0	-0.083553195
124	0x3bda95f1	0.0066707064
125	0xbf14db5a	-0.58147204
126	0x3dec6d24	0.115442544
127	0xbe2a03ac	-0.16602963
128	0xbd8b8385	-0.06812195
129	0xbdd86e8f	-0.105679624
130	0xbde1b073	-0.11019983
131	0xbe97e8de	-0.2966985
132	0xbd6f468a	-0.05841688
133	0xbe44a93e	-0.19205186
134	0xbe1a7cc3	-0.15086655
135	0xbbded05c	-0.0067997407
136	0xbde4544f	-0.11148893
137	0xbec60425	-0.38675037
138	0x3d86bede	0.06579374
139	0xbd1362cd	-0.035982896
140	0xbd53b0bf	-0.05168223
141	0x3daa47d6	0.08314483
142	0xbd96a4f5	-0.07355682
143	0xbe13a572	-0.14418581
144	0xbc4f6062	-0.012657257
145	0xbd72b31f	-0.059252854
146	0xbe696789	-0.22793402
147	0xbd442cf6	-0.04789444
148	0xbddb11ad	-0.10696731
149	0xbd83c7f4	-0.064346224
150	0x3ea79afb	0.32735428
151	0xbd002ce4	-0.03129281
152	0xbd152b5f	-0.036418315
153	0xbde84d85	-0.11342911
154	0xbd862f84	-0.06552032
155	0xbe5b0703	-0.21389394
156	0x3d2725f8	0.040807694
157	0xbd846486	-0.06464486
158	0xbd875548	-0.06608063
159	0xbd41836f	-0.047244485
160	0xbd26afcb	-0.040694993
161	0xbd42b65f	-0.047537204
162	0xbdd8f738	-0.10594028
163	0xbd7db595	-0.06194075
164	0x3e8a11f3	0.2696682
165	0xbdd8f743	-0.105940364
166	0x3b10ded6	0.0022105477
167	0xbdcd4359	-0.10022611
168	0x3eb746ce	0.35796207
169	0xbc7e6193	-0.015526193
170	0xbdd19765	-0.10233954
171	0xbccb93eb	-0.024850806
172	0xbddc7312	-0.107641354
173	0x3e802bc9	0.25033405
174	0xbd081486	-0.033222698
175	0xba4b4f7c	-0.00077556795
176	0x3e3565e0	0.17714643
177	0x3ee9d04c	0.4566673
178	0x3cfb2f5d	0.030662233
179	0xbd8174fb	-0.063211404
180	0xbd33d69f	-0.04390585
181	0xbc84cacc	-0.016209982
182	0xbed8596e	-0.4225573
183	0xbd55bc19	-0.052181337
184	0xbe0b73db	-0.13618414
185	0xbddae908	-0.106889784
186	0xbe931c72	-0.2873264
187	0xbccc2f95	-0.024925033
188	0xbd95e0cc	-0.07318267
189	0xbd6c6b97	-0.057719793
190	0xbbebc132	-0.0071946615
191	0xbe6372dd	-0.22211786
192	0xbdce5285	-0.10074333
193	0xbdb70cbb	-0.08937975
194	0xbebb0fda	-0.3653553
195	0x3c644eaf	0.013934775
196	0xba8e700e	-0.0010867135
197	0xbd53dd14	-0.05172451
198	0xbde82d34	-0.11336747
199	0x3dd19de4	0.10235193
200	0xbcaead2d	-0.021322811
201	0x3e0943f0	0.13404822
202	0xbc34cbab	-0.011034886
203	0x3ea1038e	0.31448025
204	0x3c89ffd3	0.01684562
205	0xbe50ce19	-0.2039112
206	0xbde4be05	-0.11169056
207	0xbd60b8dd	-0.0548638
208	0xbd42009c	-0.047363862
209	0xbe09fa5d	-0.13474412
210	0xbd0803cb	-0.033206742
211	0x3ba83433	0.0051331758
212	0xbd8b45c4	-0.06800416
213	0xb9ba51b9	-0.00035537573
214	0xbdc3a4e1	-0.095529325
215	0xbd888c94	-0.06667438
216	0xbca0ceb0	-0.019629806
217	0xbd801400	-0.06253815
218	0xbea59a0d	-0.32344094
219	0xbdae412b	-0.085085236
220	0x3e2df7b4	0.16989022
221	0xbdebee62	-0.11520077
222	0xbcdc6fc2	-0.026908759
223	0xbe88c20e	-0.26710552
224	0x3ec6da78	0.38838553
225	0x3e68242e	0.22670051
226	0xbdabe87f	-0.083939545
227	0xbde30ecd	-0.110868074
228	0xbd34809c	-0.044067964
229	0xbe0c365b	-0.1369261
230	0xbe8e167a	-0.27751523
231	0xbe445258	-0.19172037
232	0xbd137943	-0.036004316
233	0xbcb1f827	-0.021724774
234	0x3edde2cb	0.43337092
235	0xbdd7422b	-0.105106674
236	0x3b30fe58	0.002700707
237	0xbdb7487d	-0.08949373
238	0xbe64fdb6	-0.22362408
239	0xbda36311	-0.0797788
240	0xbd80202d	-0.06256137
241	0xbd6e6b89	-0.058208022
242	0xbc75e25e	-0.015007583
243	0x3a45eb65	0.000755003
244	0xbe4d5edc	-0.20055717
245	0xbd719f87	-0.058990028
246	0x3e6b43ac	0.22975034
247	0x3f26ae8e	0.651101
248	0xbd537237	-0.051622596
249	0xbde78376	-0.11304371
250	0xba5e554d	-0.0008481339
251	0xbe3c10cc	-0.18365782
252	0x3e94a1a7	0.2902958
253	0xbc82aaed	-0.015950644
254	0xbe520d87	-0.20512973
255	0xbd9412bf	-0.07230138

classifier.weight f4 [16, 256]
0	0xbe8db5bf	-0.27677724
1	0xbd9e7eba	-0.07739015
2	0x3d656ff9	0.05601499
3	0xbd44df63	-0.0480646
4	0x3cb75d2c	0.022383295
5	0xbdb1b80c	-0.08677682
6	0xbd4b9154	-0.049699143
7	0x3d7d012b	0.061768692
8	0xbe41d0b7	-0.18927275
9	0xbe492a51	-0.19645049
10	0x3abdf256	0.0014491777
11	0xbe0b8889	-0.13626303
12	0xbea51d3c	-0.32248867
13	0x3de7673d	0.11298988
14	0xbe6b97c5	-0.23007114
15	0xbd953642	-0.072857395
16	0xbd4fe3a2	-0.050754197
17	0xbeb710c8	-0.3575499
18	0xbdb1d612	-0.08683409
19	0xbe3e5b5b	-0.18589537
20	0x3def709b	0.116914
21	0xbdbd7aa1	-0.09251905
22	0x3bbb783b	0.0057211197
23	0xbc833803	-0.01601792
24	0xbdf91f60	-0.121641874
25	0x3d3f84a8	0.04675737
26	0xbc76ad0e	-0.015055908
27	0xbd8fb07c	-0.070160836
28	0xbcaa1574	-0.020762183
29	0x3ddc0888	0.10743815
30	0x3c15b32a	0.009136954
31	0x3d08f5ff	0.033437725
32	0xbe8cd24f	-0.27504203
33	0xbd9bbee4	-0.07604769
34	0xbddad9d5	-0.106860794
35	0x3e7ee2ba	0.24891177
36	0x3cdcd401	0.02695656
37	0xbe2de4b6	-0.16981778
38	0xbc2048d1	-0.009782986
39	0xbe81ce78	-0.25352836
40	0xbb876cc2	-0.004132838
41	0xbe0146bc	-0.1262464
42	0xbe1010ac	-0.1406886
43	0xbcd38f38	-0.025825128
44	0xbd14371f	-0.03618538
45	0xbd986230	-0.07440603
46	0x3e23a039	0.15979089
47	0xbd81e07f	-0.06341647
48	0x3d9fce65	0.078030385
49	0xbf81f738	-1.015357
50	0x3cafae47	0.021445407
51	0xbde2a97c	-0.11067483
52	0x3c2e5ac6	0.010641759
53	0x3d8f2f8d	0.069914915
54	0xbc27ce0b	-0.010241996
55	0xbd7a1157	-0.061051693
56	0xbd126c0c	-0.035747573
57	0x3d8c37d4	0.06846586
58	0xbc76c517	-0.015061638
59	0xbe20b079	-0.15692319
60	0xbe050992	-0.12991932
61	0x3d495cae	0.04916065
62	0x3d2306a5	0.03980126
63	0xbd71cf22	-0.059035428
64	0xbd78ee93	-0.060774397
65	0x3bbbaff3	0.005727762
66	0xbd5b5f84	-0.053557888
67	0xbb8044ec	-0.003914466
68	0xbdd1e1ac	-0.102481216
69	0xbbe0dc65	-0.0068622106
70	0xbd545e1d	-0.051847566
71	0xbd53fd9c	-0.051755533
72	0xbd04debf	-0.03243899
73	0xbe578f49	-0.21050753
74	0xbd8f4908	-0.069963515
75	0xbd2fdbd5	-0.042934258
76	0x3c0f7fbf	0.008758484
77	0xbd15f45f	-0.036610004
78	0xbd954468	-0.07288438
79	0xbd28c1f0	-0.04120058
80	0xbd0a072c	-0.033698246
81	0xbc5f2bc9	-0.013621279
82	0xbe947cb6	-0.29001397
83	0x3c57cef0	0.013171896
84	0x3cb7c4d3	0.02243272
85	0xbef81d43	-0.48459825
86	0xbbf3db2f	-0.0074419
87	0xbd7b9472	-0.061420865
88	0xbd16e653	-0.036840748
89	0xbd3b3a1f	-0.045709725
90	0xbd9eaac3	-0.07747414
91	0xbf24a1cd	-0.6430939
92	0xbd8ef2d9	-0.06979913
93	0xbc6b055b	-0.014344539
94	0xbd447daa	-0.047971405
95	0x3d062d4e	0.03275805
96	0xbd949587	-0.072550826
97	0x3d2533f6	0.040332757
98	0x3d7c3b4c	0.061579987
99	0xbe17d49a	-0.14827195
100	0x3d29f205	0.041490573
101	0xbdbc5968	-0.091967404
102	0xbd4afa1c	-0.04955493
103	0x3cf073d8	0.029352114
104	0x3baf20d7	0.005344491
105	0xbd32cf59	-0.043654773
106	0xbe0d7bfe	-0.1381683
107	0xbda284f5	-0.07935516
108	0xbcdd958c	-0.027048849
109	0xbd39d329	-0.045367394
110	0xbcf1a3b1	-0.029497
111	0xbe0e2fcd	-0.13885422
112	0xbc383746	-0.011243647
113	0xbe5a1a1a	-0.2129902
114	0xbca89737	-0.020579917
115	0x3b49338d	0.0030700893
116	0x3d11938f	0.035541113
117	0xbde97402	-0.1139908
118	0xbd6bad7a	-0.057538487
119	0xbb983744	-0.00464526
120	0x3a6e917b	0.0009100658
121	0x3c344fa4	0.011005316
122	0x3d1fe005	0.039032
123	0x3cb186dd	0.021670753
124	0xbc5e2277	-0.013558022
125	0x3efe7906	0.4970171
126	0xbcad7fb7	-0.021179063
127	0x3d5605b0	0.052251518
128	0x3d9e4653	0.07728257
129	0x3d8f3fc8	0.06994587
130	0x3d196113	0.037446093
131	0xbda55b78	-0.08074087
132	0x3daa98c8	0.08329922
133	0x3c932cf3	0.01796577
134	0x3ce95ac8	0.02848567
135	0xbd9059c0	-0.070483685
136	0xbdb34bac	-0.08754668
137	0xbf109adc	-0.56486297
138	0xbe9221b6	-0.28541344
139	0xbc021a5e	-0.007940857
140	0xbcf60a01	-0.030034067
141	0xbd977c1e	-0.0739672
142	0x3ccdd033	0.025123691
143	0x3d4aa7fa	0.0494766
144	0x3df2ae38	0.11849636
145	0xbdc3c17e	-0.0955839
146	0xbc5e76b6	-0.013578108
147	0x3c60f7dd	0.01373097
148	0x3d9e42cb	0.077275835
149	0xbd024f3f	-0.031813856
150	0xbe482c2c	-0.195481
151	0x3d0edab1	0.03487653
152	0x3c7ba593	0.0153593
153	0x3d1d8dea	0.038465418
154	0xbd6a0984	-0.05713798
155	0xbe121ae8	-0.14268076
156	0xbdfedbd6	-0.12444274
157	0x3d9e9aad	0.07744346
158	0xbdebc18e	-0.11511527
159	0xbd38cdc4	-0.04511811
160	0xbdafd4d4	-0.085855156
161	0xbd69f923	-0.05712236
162	0x3c2e1a3d	0.010626373
163	0x3e09f708	0.13473141
164	0xbea5ae37	-0.32359478
165	0xbcd75a21	-0.026288094
166	0xbe83b61d	-0.2572488
167	0x3d909cbe	0.07061146
168	0xbe045cf8	-0.1292609
169	0xbcb74bd9	-0.022375034
170	0x3d765122	0.060135968
171	0xbde13d6a	-0.10998042
172	0x3c2f229f	0.010689407
173	0xbe7ddb2c	-0.24790639
174	0xbdaf4e34	-0.08559838
175	0xbd5175a5	-0.051137585
176	0xbd1fa382	-0.038974293
177	0xbed2c8b0	-0.41168737
178	0x3c83d198	0.016091153
179	0xbd6144a8	-0.054997116
180	0xbc7d097a	-0.015444154
181	0xbd8a0b74	-0.06740466
182	0x3e7d7d60	0.24754858
183	0xbd90126e	-0.07034765
184	0x3d14cc3f	0.036327597
185	0xbce683ab	-0.028138956
186	0xbdf2b78f	-0.11851417
187	0x3c7407ca	0.014894435
188	0xbdae2034	-0.08502236
189	0xbcc53f9a	-0.02407818
190	0xbd1317d5	-0.0359114
191	0xbdf73f26	-0.120725915
192	0xbbfa4445	-0.007637533
193	0xbdb4c9e3	-0.08827569
194	0xbe7cb20e	-0.24677297
195	0x3cc30f4d	0.023811007
196	0xbd4517c8	-0.048118383
197	0xbc691251	-0.014225558
198	0x3d53d72e	0.051718883
199	0xbbe13186	-0.0068723587
200	0xbc53b43d	-0.01292139
201	0xbf1000a0	-0.56250954
202	0xbd81b63f	-0.06333589
203	0xbf214ce4	-0.6300795
204	0x3d58943d	0.052875746
205	0xbcf11fc6	-0.029434096
206	0xbd6322fb	-0.05545328
207	0x3d2ac922	0.04169572
208	0xbc10a28d	-0.008827818
209	0x3d208fc7	0.039199617
210	0xbceae139	-0.028671848
211	0xbe30ca19	-0.17264594
212	0x3cff82b4	0.031190254
213	0xbbe7eda6	-0.0070778904
214	0x3db0075d	0.085951544
215	0xbdcee3fa	-0.10102077
216	0x3ccaece6	0.024771165
217	0x3da17b68	0.07884866
218	0x3dc72561	0.09723926
219	0xbe240ab0	-0.16019702
220	0xbe1f8468	-0.15577853
221	0xbc96b5c1	-0.018397214
222	0xbd507212	-0.050890036
223	0x3db30dfb	0.08742901
224	0xbd61f4f8	-0.05516526
225	0xbf1dfeb8	-0.61716795
226	0xbd0f5f4f	-0.035003003
227	0x3cf69d1e	0.030104216
228	0x3c63c097	0.013900897
229	0xbdb11379	-0.08646292
230	0xbdaf58f2	-0.08561887
231	0x3dff363f	0.124615185
232	0x3dc1495e	0.09437822
233	0x3cedc57c	0.029024832
234	0xbf881330	-1.0630856
235	0xbd9da1b1	-0.07696856
236	0xbdaa4139	-0.083132215
237	0x3d312c97	0.043255415
238	0x3d3859de	0.04500758
239	0xbd6932fa	-0.05693338
240	0xba43d587	-0.0007470478
241	0xbda306ae	-0.079602584
242	0x3c92e14d	0.017929697
243	0xbe24c7a8	-0.16091788
244	0x3db1a13e	0.08673333
245	0x3c39a399	0.011330509
246	0xbe57e98d	-0.21085186
247	0xbe8ae079	-0.27124384
248	0x3de188e5	0.11012439
249	0x3d12dd82	0.035855778
250	0x3d0e0b1c	0.034678563
251	0x3cb43ca4	0.022001572
252	0xbe0fd835	-0.1404732
253	0xbccc402d	-0.024932945
254	0x3dd08da5	0.101832666
255	0xbd78519a	-0.060624696

classifier.bias f4 [16]
0	0xbf39e7f9	-0.7261959
1	0x3e8b9cd1	0.2726808
2	0x3ebc893a	0.36823446
3	0x3d86fe38	0.06591457
4	0xbc5c9f87	-0.013465769
5	0x3e0e88ba	0.13919345
6	0x3da15a9c	0.078786105
7	0x3d9ad2b5	0.075597204
8	0x3e2c906e	0.1685197
9	0xbca8f2b3	-0.02062354
10	0x3d196759	0.037452076
11	0x3d460126	0.04834094
12	0x3cf77415	0.03020672
13	0x3e4f8edd	0.20269342
14	0x3cadf289	0.021233814
15	0xbf3cdaa3	-0.73771113
