synth01_46_23_22_10_09_FullyConnected.pth (torch, 550959 bytes, 8 tensors)

fc1.weight f4 [256, 4]
-0.18047604 0.7359862 0.60149854 -0.08539397 -0.87981755 0.2753761 0.74421775 0.22843312
-0.035654545 0.13293564 0.16894674 -0.2697668 0.24465771 0.29360434 0.3995222 -0.15090705
0.236852 0.45361212 0.35583755 -0.33387443 0.32647562 -0.28830272 0.35742474 -0.07176858
-0.10977852 -0.98094404 -1.1531109 0.5185614 -0.28062344 -0.21072423 0.17843401 -0.00029689074
0.41442668 -0.21666902 0.073906064 -0.2556181 -0.34653303 -0.91768515 -0.36697468 0.17981383
-0.035773113 0.80604196 0.8094597 0.27982727 -0.03910899 -0.37366152 0.1332084 -0.01609075
0.16184486 0.372235 -0.51510954 0.31075144 -0.359595 0.5595915 0.47669008 0.2804393
-0.3868006 0.3110754 0.5532876 0.43324512 0.08243806 0.43965647 0.1027675 0.028329076
0.52933234 0.9201408 0.6006405 0.24480191 -0.28878483 -0.7917981 -0.43396285 0.13994929
-0.081271805 -0.41401953 -0.32559043 -0.27028757 -0.13343501 -0.24770556 -0.80508816 -0.18818979
0.17898946 0.7494702 0.70177454 -0.2921387 0.47978574 -0.1573596 -0.3918724 -0.33252412
0.117576264 -0.57967603 -0.70981497 -0.14703482 -0.10585588 -0.068624675 -0.042234957 -0.37370783
0.024833897 -0.73559666 0.30822998 0.45269537 0.30482233 0.35784742 -0.2368713 0.30612814
-0.11597258 -0.031851172 -0.10093647 0.46481144 0.06658866 -0.505754 -0.42208222 0.426192
0.34486052 0.11030577 -0.49375096 -0.4846994 -0.21086693 -0.4900849 0.390167 -0.35109687
-0.22248912 -0.49126488 0.07466018 0.12675333 -0.025217593 -0.23048586 0.4019767 -0.10088289
0.23669542 0.37040955 -0.045994397 -0.259135 -0.4430082 0.82144034 0.55358344 0.022464743
-0.22558495 -0.3287177 0.29321447 -0.5337265 0.42868102 0.43219697 0.37018523 -0.3963404
0.13113628 0.15701814 -0.09971479 -0.4616331 -0.09169757 -0.08719474 0.40505755 -0.3043614
0.37508917 -0.2325672 0.071990184 -0.060925283 -0.27735636 0.036981314 -0.052800022 0.3793045
-0.44890702 -0.3030674 0.11722964 -0.021115541 0.21908301 0.25724757 -0.008228779 -0.07674652
-0.6897473 0.6870845 0.22786914 0.09879164 -0.13004154 0.38651097 -0.41180092 -0.41377985
-0.32104328 -0.056595333 -0.109623305 -0.48729858 0.1684102 -0.8457193 -0.15053266 -0.0662671
0.5706104 -0.7144325 -0.7876776 0.3533494 -0.28503764 0.021176577 0.29444522 -0.07487154
0.33407775 -0.7745422 -0.8064516 0.38133714 -0.76606023 0.3968433 0.361586 0.22555393
0.42065603 -0.13031918 -0.04441333 -0.1500346 -0.22795856 -0.1465503 0.4123177 -0.49600506
-0.44112146 -0.34279847 -0.11865616 -0.12659425 -0.049045626 0.039347358 -0.3630686 0.028787382
0.2756273 -0.4341574 -0.33361295 0.11908041 -0.1071821 -0.101120286 0.063825615 -0.3622794
-0.13906257 0.21688373 -0.2641884 -0.23972696 0.15577316 -0.5899228 -0.5591407 0.3537055
0.48156995 -0.6485317 -0.31467763 0.15125889 -0.19807264 0.41848892 -0.45883217 -0.54639363
0.25409117 -0.96864855 -0.86208904 0.41325784 0.43947065 -0.43077093 -0.43168488 0.10852347
0.26036602 -0.31209323 0.07867797 0.27575815 0.11406696 -0.34032434 -0.4424016 -0.14577764
00000000: b6ce 38be 9769 3c3f cffb 193f 09e3 aebd
00000010: b93b 61bf 19fe 8c3e 0e85 3e3f 5fea 693e
00000020: 800a 12bd 4820 083e 6000 2d3e e01e 8abe
00000030: 8d87 7a3e 4f53 963e 2c8e cc3e 6187 1abe
00000040: 5589 723e d93f e83e 5730 b63e 97f1 aabe
00000050: d027 a73e 6a9c 93be 6000 b73e 68fb 92bd
00000060: 90d3 e0bd 261f 7bbf 2399 93bf 71c0 043f
00000070: e0ad 8fbe 18c8 57be 68b7 363e 00a8 9bb9
00000080: bc2f d43e 7cde 5dbe 105c 973d 60e0 82be
00000090: c76c b1be 6aed 6abf 1be4 bbbe 1e21 383e
000000a0: d486 12bd c458 4e3f c038 4f3f 8545 8f3e
000000b0: c030 20bd 9050 bfbe c867 083e c0d0 83bc
000000c0: a9ba 253e 9695 be3e 38de 03bf d01a 9f3e
000000d0: d61c b8be 6341 0f3f b910 f43e bd95 8f3e
000000e0: ba0a c6be 4645 9f3e 42a4 0d3f 4ed2 dd3e
000000f0: 49d5 a83d a71a e13e c477 d23d 6112 e83c
00000100: 5382 073f 598e 6b3f 93c3 193f 5aad 7a3e
00000110: 9bdb 93be 48b3 4abf 6130 debe de4e 0f3e
00000120: d571 a6bd 5efa d3be cab3 a6be 2263 8abe
00000130: 30a3 08be 87a6 7dbe 421a 4ebf d3b4 40be
00000140: 0349 373e 47dd 3f3f 7fa7 333f 3493 95be
00000150: 7aa6 f53e e022 21be 80a3 c8be 9a40 aabe
00000160: d3cb f03d a665 14bf 6fb6 35bf 4c90 16be
00000170: f8ca d8bd 188b 8cbd 90fe 2cbd a256 bfbe
00000180: 7570 cb3c 1050 3cbf 52d0 9d3e b0c7 e73e
00000190: ac11 9c3e c737 b73e 648e 72be d4bc 9c3e
000001a0: 0883 edbd 6076 02bd c8b7 cebd c4fb ed3e
000001b0: a35f 883d 1879 01bf 291b d8be d635 da3e
000001c0: 8f91 b03e fee7 e13d edcc fcbe 852a f8be
000001d0: 80ed 57be 68ec fabe f8c3 c73e f8c2 b3be
000001e0: 30d4 63be 1287 fbbe 70e7 983d a0cb 013e
000001f0: 2095 cebc 7c04 6cbe e4cf cd3e b09b cebd
00000200: 4960 723e 52a6 bd3e 9f64 3cbd 58ad 84be
00000210: f9d1 e2be ea49 523f a5b7 0d3f fb07 b83c
00000220: beff 66be b04d a8be 3520 963e 4da2 08bf
00000230: 147c db3e ec48 dd3e eb88 bd3e 21ed cabe
00000240: 9748 063e 5dc9 203e 4537 ccbd 2c5b ecbe
00000250: f0cb bbbd 2893 b2bd b463 cf3e 42d5 9bbe
00000260: b00b c03e 1926 6ebe 976f 933d ca8c 79bd
00000270: a701 8ebe b879 173d d644 58bd 3334 c23e
00000280: 24d7 e5be a62b 9bbe 1816 f03d 80fa acbc
00000290: 4c57 603e f4b5 833e 00d2 06bc 482d 9dbd
000002a0: 4793 30bf c5e4 2f3f 8756 693e 4553 ca3d
000002b0: 9c29 05be c4e4 c53e 92d7 d2be f4da d3be
000002c0: c95f a4be 82d0 67bd 2f82 e0bd 337f f9be
000002d0: b973 2c3e 0f81 58bf 3c25 1abe 0cb7 87bd
000002e0: 8613 123f 0ce5 36bf 3da5 49bf 36ea b43e
000002f0: 74f0 91be 807a ad3c 86c1 963e 4056 99bd
00000300: 3d0c ab3e 6648 46bf 9d73 4ebf 9f3e c33e
00000310: 861c 44bf 0c2f cb3e cd21 b93e 9cf7 663e
00000320: 3a60 d73e 6472 05be c0ea 35bd aca2 19be
00000330: f86d 69be 4811 16be 4e1b d33e 60f4 fdbe
00000340: acda e1be 4883 afbe 0002 f3bd eca1 01be
00000350: 11e4 48bd b22a 213d 21e4 b9be 84d3 eb3c
00000360: 051f 8d3e e149 debe 51cf aabe 6ee0 f33d
00000370: 4a82 dbbd 2718 cfbd 01b7 823d af7c b9be
00000380: 6b66 0ebe c516 5e3e b443 87be fc7a 75be
00000390: 0083 1f3e 2e05 17bf d823 0fbf e318 b53e
000003a0: 5690 f63e 2c06 26bf 6d1d a1be 9ce3 1a3e
000003b0: 8ed3 4abe 2e44 d63e 0dec eabe 74e0 0bbf
000003c0: 3d18 823e 5af9 77bf deb1 5cbf 8896 d33e
000003d0: 4c02 e13e 028e dcbe cd05 ddbe 8e41 de3d
000003e0: b24e 853e afca 9fbe ea21 a13d 2c30 8d3e
000003f0: f09b e93d fe3e aebe 7682 e2be bc46 15be

fc1.bias f4 [256]
0.12389714 0.06518265 -0.41322988 0.14734846 0.40086293 -0.4677112 -0.19541621 -0.4333549
-0.28555268 -0.13800217 -0.112636834 -0.34457523 -0.4726616 -0.19474156 -0.27769318 0.19453979
0.042389043 -0.06448853 -0.21437836 0.20336 -0.24920186 -0.43933153 0.36661538 -0.16617727
-0.55832535 -0.2987825 -0.46063107 -0.037229724 0.27594173 -0.3369497 -0.3116175 -0.28193223
0.21205474 0.17471583 0.2772795 0.33665583 0.097722515 0.07220256 -0.22343953 -0.21995161
-0.37327456 -0.40874827 0.13614327 -0.42755657 0.24329232 -0.26930273 0.09140887 -0.25407404
0.22182335 0.08912755 -0.42725915 0.05763817 -0.029645145 -0.103356555 0.110476695 0.22328736
0.14188446 0.16992503 0.08932616 0.17472647 0.03387625 0.1897414 -0.43335947 -0.4032098
0.04900975 -0.48391813 -0.06158948 -0.02730969 0.31501347 0.29309845 -0.17903054 0.05131639
-0.09267405 -0.24472755 -0.504356 0.13828538 -0.06901492 0.36311436 0.05886579 0.08378686
0.120376505 -0.19057381 0.16515082 -0.44745386 -0.21310526 0.114648916 0.22424155 0.0572713
-0.4076556 -0.03979735 0.216952 -0.14591262 -0.049129784 0.39362848 0.07955759 0.22240329
0.013965335 -0.09203732 -0.6542042 0.12965846 0.19559433 -0.17008758 0.15785018 0.23892395
0.27858776 -0.3828509 -0.05065709 0.07845846 -0.4455002 -0.26551747 0.1985048 0.041307796
-0.080909885 -0.5304666 -0.082592726 -0.3037178 -0.08820775 0.28843865 -0.23552525 -0.4451406
-0.4746893 -0.33807534 -0.3677376 0.10912564 0.17833523 -0.020331038 0.4581006 -0.070327476
0.22924533 -0.023070231 -0.4353509 0.12294518 -0.06042029 0.10243459 0.29785815 0.20878763
0.122787364 -0.45564008 0.027302504 -0.023586411 -0.46690357 -0.0918316 -0.04507618 0.043477416
-0.04333135 0.0052542025 -0.35748005 -0.18137461 -0.019840132 0.23673935 -0.043525133 -0.033616673
-0.4128977 -0.55538845 -0.41921335 -0.391022 -0.24337488 -0.11261672 -0.35011378 -0.2698833
0.23017898 -0.46368366 0.15199877 -0.10256474 -0.39272863 -0.4780056 0.31064337 -0.2680475
-0.45785373 -0.28617364 -0.0038621703 0.5268537 -0.37127733 0.017617084 0.21775766 0.1542133
-0.08835721 -0.13764612 -0.1966852 -0.0022540502 0.20972417 0.040953424 0.12734489 0.18244673
-0.025006652 0.095380366 -0.036759663 0.088067636 -0.44282508 -0.41724676 -0.6508197 0.13329798
0.26740077 -0.0525856 -0.18429561 -0.13134943 0.10733557 0.0073970393 0.20936984 0.15354554
-0.291627 0.1092275 -0.38339186 0.17290744 0.3608786 0.21570776 -0.48012346 -0.19635382
0.28995612 0.30883574 0.24710375 -0.029636214 -0.10408414 0.17404975 0.2145227 -0.060474478
0.108630285 -0.22997123 0.29443854 -0.05123714 -0.117583096 -0.43716043 -0.36614338 -0.04459393
-0.29348296 -0.11825806 0.12676802 0.14823872 -0.21955276 -0.06815773 -0.043594737 -0.091045536
-0.16768372 -0.42811945 -0.16673352 0.16873057 -0.17287403 -0.24307388 -0.08338457 0.07213023
-0.49737453 0.38531727 -0.049442984 -0.41126418 -0.47479737 0.1651867 -0.026396826 -0.24013788
0.04311555 0.023948934 0.58374023 0.08525638 0.20770504 -0.10137715 -0.30552578 0.26329622
00000000: c9bd fd3d 7b7e 853d de92 d3be 84e2 163e
00000010: e83d cd3e d877 efbe 301b 48be b2e0 ddbe
00000020: f633 92be 7150 0dbe 24ae e6bd 2a6c b0be
00000030: b400 f2be 556a 47be cd2d 8ebe 7035 473e
00000040: 22a0 2d3d 9012 84bd 0086 5bbe 9b3d 503e
00000050: c62e 7fbe 10f0 e0be 03b5 bb3e 602a 2abe
00000060: 69ee 0ebf 05fa 98be d6d7 ebbe 327e 18bd
00000070: 3c48 8d3e ac84 acbe 548c 9fbe 6c59 90be
00000080: e124 593e b5e8 323e 94f7 8d3e 275e ac3e
00000090: be22 c83d f0de 933d 55cd 64be ff3a 61be
000000a0: d81d bfbe 7447 d1be 2469 0b3e b2e8 dabe
000000b0: 9f21 793e 0ce2 89be 9334 bb3d fe15 82be
000000c0: a925 633e 8188 b63d b6c1 dabe 0016 6c3d
000000d0: 60da f2bc 9aac d3bd 9b41 e23d 71a5 643e
000000e0: 294a 113e d400 2e3e a2f0 b63d 7feb 323e
000000f0: d3c1 0a3d 924b 423e 4be1 ddbe 8471 cebe
00000100: 73be 483d 1ec4 f7be 4045 7cbd 92b8 dfbc
00000110: 7249 a13e 0011 963e c853 37be 2331 523d
00000120: e4cb bdbd dc99 7abe 7a1d 01bf af9a 0d3e
00000130: b257 8dbd 20ea b93e 411d 713d 7298 ab3d
00000140: f587 f63d c825 43be 4c1d 293e ac18 e5be
00000150: 4438 5abe 0dcd ea3d 949f 653e 5095 6a3d
00000160: 3cb8 d0be 8c02 23bd aa28 5e3e 1e6a 15be
00000170: 503c 49bd ac89 c93e 17ef a23d b0bd 633e
00000180: dcce 643c 107e bcbd ed79 27bf 30c5 043e
00000190: e149 483e 702b 2ebe 7aa3 213e 7ba8 743e
000001a0: 0ea3 8e3e 0805 c4be cf7d 4fbd d4ae a03d
000001b0: 9a18 e4be e8f1 87be d844 4b3e 5d32 293d
000001c0: 15b4 a5bd a9cc 07bf 6026 a9bd e680 9bbe
000001d0: 44a6 b4bd 3bae 933e 882d 71be 78e9 e3be
000001e0: 7a0a f3be 3618 adbe 1a48 bcbe 437d df3d
000001f0: 839d 363e 478d a6bc 298c ea3e da07 90bd
00000200: 4abf 6a3e c8fd bcbc 50e6 debe afca fb3d
00000210: 447b 77bd 3ac9 d13d dd80 983e 6dcc 553e
00000220: f177 fb3d a849 e9be 80a9 df3c 4a38 c1bc
00000230: fc0d efbe 3512 bcbd cda1 38bd 6015 323d
00000240: 377c 31bd 722b ac3b a007 b7be 44ba 39be
00000250: c687 a2bc cd6b 723e 6947 32bd a3b1 09bd
00000260: 5467 d3be f02d 0ebf 22a3 d6be 0934 c8be
00000270: 4437 79be 98a3 e6bd 1d42 b3be 252e 8abe
00000280: 0ab4 6b3e f267 edbe 91a5 1b3e 760d d2bd
00000290: ba13 c9be 26bd f4be a60c 9f3e 863d 89be
000002a0: ce6b eabe 5a85 92be 771c 7dbb e2df 063f
000002b0: 1018 bebe b451 903c ddfb 5e3e 17ea 1d3e
000002c0: a0f4 b4bd 1bf3 0cbe d867 49be b0b8 13bb
000002d0: efc1 563e c7be 273d b366 023e 51d3 3a3e
000002e0: c0da ccbc c856 c33d 4d91 16bd ce5c b43d
000002f0: f8b9 e2be 5ea1 d5be 1f9c 26bf 447f 083e
00000300: c1e8 883e 0064 57bd fdb7 3cbe 7780 06be
00000310: c0d2 db3d dd62 f23b 0c65 563e 0b3b 1d3e
00000320: 2250 95be abb2 df3d f04b c4be a60e 313e
00000330: 14c5 b83e 7fe2 5c3e bed2 f5be fa10 49be
00000340: 2175 943e b81f 9e3e c408 7d3e a5c7 f2bc
00000350: 112a d5bd 193a 323e d7ab 5b3e 16b4 77bd
00000360: 8e79 de3d 947d 6bbe a6c0 963e 09de 51bd
00000370: 68cf f0bd 7ed3 dfbe 2577 bbbe 20a8 36bd
00000380: 6643 96be 4831 f2bd 7acf 013e e4cb 173e
00000390: 70d2 60be 4896 8bbd 6590 32bd 1576 babd
000003a0: 48b5 2bbe 7932 dbbe 31bc 2abe b5c7 2c3e
000003b0: e405 31be 5ce8 78be 88c5 aabd 04b9 933d
000003c0: e0a7 febe 4e48 c53e ba84 4abd 3891 d2be
000003d0: a418 f3be b426 293e 283e d8bc b4e6 75be
000003e0: ee99 303d 8e30 c43c 0070 153f e69a ae3d
000003f0: a1b0 543e d39e cfbd e06d 9cbe c3ce 863e

fc2.weight f4 [256, 256]
0.029383957 0.017093852 -0.023840569 -0.012807536 -0.035396554 -0.008601584 -0.12744893 -0.045010142
0.012910955 -0.0283871 -0.04769082 -0.027764998 0.003693169 -0.036378305 -0.116075814 0.009878361
-0.08622332 -0.0141205015 -0.0017876041 -0.18424325 0.025465135 -0.01811181 -0.048450004 -0.04803349
-0.057858787 -0.07249644 -0.060903378 -0.24469845 -0.13945512 0.056639023 0.027555808 0.02394493
-0.13778706 0.056078196 -0.020968834 -0.025356539 -0.07155597 0.020158924 -0.21478048 0.048761386
0.016802356 -0.021366224 -0.009960638 0.00886891 -0.08503213 -0.03167901 -0.17236505 -0.02215448
-0.12839009 0.036388747 0.018301576 0.031099536 -0.017691404 -0.16266736 -0.13742009 -0.027694933
-0.051800784 -0.16401574 -0.19265176 0.039811082 -0.056692492 -0.14210768 -0.10724526 -0.05723749
-0.046775986 -0.04029426 -0.049824394 -0.07292694 -0.053956915 -0.070479184 -0.04118958 0.037089303
-0.20795822 0.051509 -0.059445 -0.033861343 -0.16384916 0.089777805 0.013046913 -0.09590465
-0.15592206 -0.01115936 0.010235064 0.0058023334 0.015694737 -0.12651181 -0.18216336 0.047423266
0.039069183 0.014209225 -0.022897555 -0.10701913 0.010383032 -0.042862706 -0.13113403 -0.07690921
-0.12611961 -0.04546237 -0.0184165 -0.0032400414 -0.060075972 0.055567373 -0.048918746 -0.0182262
-0.04486555 -0.19110662 -0.15893953 -0.024403317 0.010849856 -0.02760689 0.016629817 -0.14461298
-0.13617003 0.16875555 -0.0016690418 0.015697628 -0.07801408 -0.14873067 -0.05093163 -0.1582384
-0.0861659 0.0010727708 -0.025028832 -0.13246502 0.027775535 -0.15826772 0.05086557 -0.0004658397
0.039291553 0.051236633 -0.03187315 -0.19056831 0.0036230648 -0.15967123 -0.16691808 0.012413419
-0.10773159 0.048831686 7.6301396e-05 0.05892309 -0.0045979694 -0.05819822 -0.08464973 -0.036408544
-0.07579021 -0.10711475 0.053201877 -0.13443096 -0.10218797 0.005712719 -0.14093539 -0.10761035
-0.05959709 0.07445115 -0.053372554 -0.10698774 0.043420687 0.028117416 -0.022277106 -0.14037342
-0.08434205 0.016523182 0.013831113 -0.016931416 -0.035994425 0.045075245 -0.04518455 0.03246306
-0.030430451 -0.19778511 -0.036290355 -0.0055228653 0.0025372978 -0.2527401 -0.044695906 -0.03233996
0.058072574 0.026226379 0.05066388 -0.08019886 -0.024556525 -0.046866473 -0.003047335 0.07732172
-0.027768523 0.01453463 -0.107629955 -0.020085104 0.10331865 -0.002133727 -0.102415495 0.06264985
-0.0098055 -0.1490864 -0.10793555 -0.054552928 0.053402632 -0.093021706 0.06129343 -0.16212057
-0.017446935 -0.06459362 -0.091315225 -0.12519573 -0.064554594 -0.04734406 0.011978701 0.039243348
-0.007678258 -0.15320335 -0.1047131 -0.051966835 0.024199383 0.07969152 0.023976712 -0.05705409
-0.045928203 -0.051352553 0.00675599 0.032236718 -0.04265201 -0.0015854314 -0.13994054 -0.03892272
-0.05034753 -0.05191526 -0.08959008 0.005327444 -0.046348132 0.036116682 0.037207723 -0.061611716
-0.060369894 -0.10817146 -0.054636948 -0.096134454 0.05142367 -0.04147093 -0.026520483 -0.20715964
-0.033075653 -0.06945143 -0.058172293 -0.0070520267 -0.05177416 -0.004602045 -0.03671136 0.040029697
0.031975824 -0.0848674 -0.017729253 -0.008535001 -0.1062135 0.005547259 -0.06272231 -0.10487549
00000000: a0b6 f03c 6808 8c3c 4c4d c3bc b3d6 51bc
00000010: fafb 10bd a8ed 0cbc f981 02be 8e5c 38bd
00000020: 7888 533c 108c e8bc 7357 43bd 6c73 e3bc
00000030: 1809 723b 6b01 15bd 28b9 edbd d9d8 213c
00000040: da95 b0bd ad59 67bc 0a4e eaba 43aa 3cbe
00000050: 429c d03c 385f 94bc 8373 46bd c4be 44bd
00000060: 56fd 6cbd 0379 94bd d275 79bd 3b92 7abe
00000070: 53cd 0ebe 52fe 673d b8bc e13c 2828 c43c
00000080: 0d18 0dbe 40b2 653d d5c6 abbc 84b8 cfbc
00000090: f08b 92bd 5424 a53c 6aef 5bbe 05ba 473d
000000a0: 18a5 893c 3808 afbc f231 23bc e84e 113c
000000b0: 5325 aebd d9c1 01bd 7780 30be 507d b5bc
000000c0: b178 03be 5e0c 153d 30ed 953c 74c4 fe3c
000000d0: 90ed 90bc 4692 26be dab7 0cbe 7ce0 e2bc
000000e0: 0f2d 54bd bef3 27be 8146 45be f210 233d
000000f0: 6336 68bd ad84 11be 67a3 dbbd dc71 6abd
00000100: 2d98 3fbd 980b 25bd aa14 4cbd b85a 95bd
00000110: ed01 5dbd 6457 90bd 68b6 28bd f4ea 173d
00000120: 00f3 54be 1afb 523d 9a7c 73bd 31b2 0abd
00000130: 13c8 27be 6ddd b73d b8c2 553c a869 c4bd
00000140: 08aa 1fbe c0d5 36bc f8b0 273c 8021 be3b
00000150: 4092 803c 508c 01be 0889 3abe e63e 423d
00000160: 0207 203d cfcd 683c a793 bbbc d82c dbbd
00000170: 981d 2a3c ce90 2fbd 0048 06be 9382 9dbd
00000180: 8025 01be c036 3abd 33de 96bc e056 54bb
00000190: 3912 76bd 9d9a 633d 065f 48bd 1d4f 95bc
000001a0: f0c4 37bd 74b1 43be 0bc1 22be 77e9 c7bc
000001b0: 98c3 313c d827 e2bc 413b 883c 6d15 14be
000001c0: 2870 0bbe 41ce 2c3e c0c3 daba 5098 803c
000001d0: d9c5 9fbd da4c 18be af9d 50bd 3f09 22be
000001e0: bf77 b0bd 379c 8c3a 4409 cdbc e9a4 07be
000001f0: 8589 e33c ef10 22be 6a58 503d f23b f4b9
00000200: 2ef0 203d 81dd 513d 6c8d 02bd 5724 43be
00000210: f170 6d3b db80 23be 93ec 2abe a761 4b3c
00000220: 61a2 dcbd bc03 483d 0004 a038 5759 713d
00000230: 90aa 96bb 4261 6ebd d65c adbd 2021 15bd
00000240: e637 9bbd fa5e dbbd 36ea 593d 45a8 09be
00000250: ed47 d1bd c331 bb3b 5e51 10be d162 dcbd
00000260: 141c 74bd d879 983d 2e9d 5abd 631c dbbd
00000270: e4d9 313d 7f56 e63c 7a7e b6bc 0dbe 0fbe
00000280: 86bb acbd a05b 873c e59b 623c c1b3 8abc
00000290: e46e 13bd d2a0 383d 6f13 39bd fcf7 043d
000002a0: 4849 f9bc 2e88 4abe 32a5 14bd 27f9 b4bb
000002b0: cb48 263b 2667 81be 0e13 37bd e876 04bd
000002c0: 82dd 6d3d b4d8 d63c ee84 4f3d 4d3f a4bd
000002d0: c42a c9bc 0ff7 3fbd ccb5 47bb da5a 9e3d
000002e0: d07a e3bc a822 6e3c 186d dcbd 8489 a4bc
000002f0: ba98 d33d 00d6 0bbb 37bf d1bd 914e 803d
00000300: 3fa7 20bc 1baa 18be 500d ddbd e472 5fbd
00000310: b8bc 5a3d 2a82 bebd d20e 7b3d ef02 26be
00000320: e0ec 8ebc a949 84bd 7a03 bbbd 4f33 00be
00000330: 3335 84bd d8eb 41bd 5042 443c a2bd 203d
00000340: e699 fbbb 57e1 1cbe d273 d6bd 2ddb 54bd
00000350: c93d c63c 4f35 a33d cf6a c43c 8db1 69bd
00000360: 361f 3cbd 0e57 52bd 5a61 dd3b a60a 043d
00000370: e0b3 2ebd 40ce cfba 934c 0fbe 6e6d 1fbd
00000380: 3639 4ebd 18a5 54bd 017b b7bd d791 ae3b
00000390: 8ad7 3dbd 16ef 133d 2067 183d 915c 7cbd
000003a0: 6c46 77bd 0089 ddbd feca 5fbd 24e2 c4bd
000003b0: a0a1 523d 6cdd 29bd 7c41 d9bc a821 54be
000003c0: 567a 07bd 8d3c 8ebd 1246 6ebd b014 e7bb
000003d0: 2411 54bd c0cc 96bb a75e 16bd 2ef6 233d
000003e0: 15f9 023d f6ce adbd f03c 91bc 64d6 0bbc
000003f0: 7786 d9bd c8c5 b53b 8e74 80bd f6c8 d6bd

fc2.bias f4 [256]
-0.13959232 0.032030556 -0.03897853 -0.05367578 -0.07843719 -0.08812521 0.009325765 -0.07445165
-0.08724801 -0.00467743 -0.0049315915 -0.1693585 -0.019794784 -0.08841276 -0.2619166 -0.03671771
-0.16095845 -0.002442136 -0.05669136 -0.09216853 -0.20205906 -0.06558661 -0.06095772 -0.10857082
-0.0962367 -0.21224158 -0.119687214 -0.20529453 -0.04050976 -0.22741386 -0.12406808 -0.19340584
-0.290793 -0.09566242 -0.039258525 -0.10532553 -0.057956688 -0.13135737 -0.2412726 -0.020275757
-0.25796202 -0.093199134 0.01948976 -0.21785839 -0.03701583 -0.09916867 -0.106684215 -0.017249256
-0.12818106 -0.018269546 -0.014460463 -0.25293818 -0.2951177 -0.28243595 -0.073093 -0.0587897
0.1406476 0.23418343 -0.26171908 -0.06884578 -0.08879048 0.13035792 0.056372043 -0.04892949
-0.19434275 -0.028200239 0.16291645 -0.102490894 -0.060442865 -0.24370617 -0.02115018 -0.008464858
-0.18504523 0.05685865 -0.05060368 -0.059968874 -0.042274453 -0.093450785 -0.005152216 -0.015169628
-0.047372162 -0.3024047 0.003779381 -0.029389927 -0.14879732 -0.0433446 -0.27764255 -0.24982543
-0.045131627 -0.25621638 -0.034844525 -0.14178078 -0.373663 -0.075578675 0.011417826 -0.3039599
0.007342808 -0.36149538 0.1445608 -0.12904482 -0.014841464 -0.2633981 -0.027897947 -0.100106664
-0.019837359 -0.15814959 -0.19583501 -0.01007362 -0.00522043 -0.1952161 -0.047057457 -0.07804578
-0.3172644 -0.03620191 -0.0888082 0.16296005 -0.023904838 -0.071928605 -0.046498537 -0.2949618
-0.2688719 -0.043277133 -0.28232294 -0.10521851 -0.0681703 -0.087455444 -0.08711968 -0.2201883
-0.10904993 0.0032383353 -0.038207106 -0.15083985 0.039239205 -0.0009721738 -0.08356177 -0.08882969
-0.04419972 -0.0007214994 -0.038492247 -0.069207415 -0.07196444 0.057177074 -0.12801045 -0.03541751
-0.2334412 0.07553983 -0.1483063 -0.107433826 -0.10182413 -0.06647874 -0.0046400013 -0.047074936
0.03372633 0.1472719 -0.04619305 -0.12100854 -0.11991566 -0.13443577 -0.018128995 -0.06424723
-0.13920519 -0.093418404 0.09695365 -0.12736438 -0.056855958 -0.0059477016 -0.11696451 0.28716913
-0.012346487 -0.15573046 -0.07211559 -0.10716695 -0.23946482 -0.05004461 -0.115288936 -0.020561479
-0.056686945 -0.12329587 -0.09539492 0.049478903 0.008235447 -0.11386363 -0.022427768 -0.23715656
-0.08065571 -0.015604749 0.25260383 0.1424843 -0.13202335 0.05157479 -0.14284766 -0.09907169
-0.029074563 0.033397615 -0.1871488 -0.11250037 -0.30116412 -0.09978525 -0.042009432 -0.09419223
-0.011002941 0.03978882 -0.014852502 -0.13343942 -0.044055387 -0.18875603 -0.07240026 -0.09580252
-0.030696776 -0.028203316 -0.21629038 -0.15760885 -0.052471522 -0.1618453 -0.21038552 -0.15812188
-0.22750285 -0.086520776 -0.041579697 -0.15064682 -0.22938314 -0.053835437 -0.048735283 -0.063394055
-0.14880152 -0.116197795 -0.13066767 -0.073093496 -0.26017874 -0.02093949 0.051643953 0.31774753
-0.11326025 -0.18061796 -0.08599676 -0.108393155 -0.3256172 0.043469485 -0.06612498 -0.10470647
-0.12520744 -0.028850075 -0.05719202 -0.021195302 -0.015296541 -0.0015861262 -0.16141535 -0.069495715
-0.12851179 -0.056746695 -0.056165975 -0.017699072 -0.06915764 -0.055389162 -0.013698125 -0.07685603
00000000: 4af1 0ebe 7932 033d f3a7 1fbd 22db 5bbd
00000010: ada3 a0bd fd7a b4bd 18cb 183c 1b7a 98bd
00000020: 16af b2bd 2045 99bb 3099 a1bb 516c 2dbe
00000030: ac28 a2bc c011 b5bd ef19 86be 4f65 16bd
00000040: 4bd2 24be 3e0c 20bb 3335 68bd dbc2 bcbd
00000050: 92e8 4ebe 4652 86bd cdae 79bd 615a debd
00000060: bf17 c5bd db55 59be 921e f5bd bb38 52be
00000070: 90ed 25bd 2edf 68be 6817 febd 2e0c 46be
00000080: d2e2 94be a9ea c3bd 8ccd 20bd e9b4 d7bd
00000090: fe63 6dbd 8c82 06be 2a10 77be 5819 a6bc
000000a0: 9913 84be 30df bebd fda8 9f3c 4516 5fbe
000000b0: e99d 17bd f218 cbbd 417d dabd 504e 8dbc
000000c0: e541 03be 04aa 95bc 94eb 6cbc 1d81 81be
000000d0: ab19 97be 729b 90be c8b1 95bd 78cd 70bd
000000e0: ed05 103e c8cd 6f3e 0b00 86be 04ff 8cbd
000000f0: c8d7 b5bd 8c7c 053e 5fe6 663d 4a6a 48bd
00000100: c901 47be 3004 e7bc 92d3 263e bfe6 d1bd
00000110: f092 77bd 1c8e 79be 2443 adbc 30b0 0abc
00000120: 7f7c 3dbe 9ee4 683d ce45 4fbd eca1 75bd
00000130: fa27 2dbd 2063 bfbd ecd3 a8bb 088a 78bc
00000140: 5009 42bd cad4 9abe 7eaf 773b 25c3 f0bc
00000150: 535e 18be 1b8a 31bd 2a27 8ebe 3dd2 7fbe
00000160: f1db 38bd cb2e 83be 22b9 0ebd fb2e 11be
00000170: c250 bfbe fec8 9abd d511 3b3c a2a0 9bbe
00000180: f09b f03b ec15 b9be bf07 143e 5324 04be
00000190: 9d29 73bc 1edc 86be 3c8a e4bc b904 cdbd
000001a0: f581 a2bc f7f1 21be f988 48be d30b 25bc
000001b0: 2410 abbb bbe6 47be 52bf 40bd 77d6 9fbd
000001c0: 7b70 a2be 7448 14bd 13e1 b5bd 00df 263e
000001d0: 14d4 c3bc 4e4f 93bd 4075 3ebd 3c05 97be
000001e0: 94a9 89be 5d43 31bd a28c 90be cd7c d7bd
000001f0: df9c 8bbd d71b b3bd ce6b b2bd 0b79 61be
00000200: 9255 dfbd 403a 543b 0e7f 1cbd c375 1abe
00000210: 4ab9 203d 7bd9 7eba 6f22 abbd 57ec b5bd
00000220: c40a 35bd 0123 3dba 0caa 1dbd 9ebc 8dbd
00000230: 1862 93bd 8232 6a3d 2c15 03be f311 11bd
00000240: 360b 6fbe a0b4 9a3d 9bdd 17be 4406 dcbd
00000250: 2b89 d0bd 0126 88bd 270b 98bb a6d1 40bd
00000260: 9f24 0a3d 72ce 163e ec34 3dbd 53d3 f7bd
00000270: 5796 f5bd 88a9 09be 4283 94bc 0d94 83bd
00000280: ce8b 0ebe 2652 bfbd a38f c63d cf6b 02be
00000290: cbe1 68bd f0e4 c2bb 178b efbd d507 933e
000002a0: eb48 4abc ce77 1fbe 57b1 93bd 597a dbbd
000002b0: 4436 75be 94fb 4cbd 9b1c ecbd 8c70 a8bc
000002c0: 9230 68bd 8c82 fcbd 695e c3bd 64aa 4a3d
000002d0: f8ed 063c 5631 e9bd 70ba b7bc 2bd9 72be
000002e0: d22e a5bd 10ab 7fbc 4a55 813e 68e7 113e
000002f0: 2131 07be 1640 533d a846 12be 19e6 cabd
00000300: c72d eebc f0cb 083d efa3 3fbe 9866 e6bd
00000310: 2f32 9abe 365c ccbd 1512 2cbd dbe7 c0bd
00000320: ae45 34bc 9af9 223d e957 73bc 58a4 08be
00000330: 6c73 34bd 4349 41be 9646 94bd 1d34 c4bd
00000340: ce77 fbbc a40a e7bc 3a7b 5dbe 3764 21be
00000350: 61ec 56bd c6ba 25be 4d6f 57be b4ea 21be
00000360: 82f6 68be ce31 b1bd 794f 2abd 2943 1abe
00000370: 6ae3 6abe 8c82 5cbd a69e 47bd bed4 81bd
00000380: 6d5f 18be 1cf9 edbd bfcd 05be 0bb2 95bd
00000390: 2636 85be 4b89 abbc 9c88 533d ceaf a23e
000003a0: fdf4 e7bd eaf3 38be 121f b0bd 3bfd ddbd
000003b0: 4cb7 a6be 0f0d 323d 896c 87bd 5970 d6bd
000003c0: 6136 00be fe56 ecbc 2e42 6abd c5a1 adbc
000003d0: 589e 7abc 90e5 cfba 114a 25be c553 8ebd
000003e0: 9898 03be 396f 68bd 4b0e 66bd a5fd 90bc
000003f0: 85a2 8dbd bfdf 62bd 1a6e 60bc b266 9dbd

fc3.weight f4 [256, 256]
0.09240238 -0.017844941 0.019188866 -0.06649847 0.06353735 0.07524212 0.032710165 -0.01608085
-0.051258236 -0.020864196 0.0130991265 0.024276357 0.015189953 0.08797138 0.026894212 -0.02138342
0.06676715 -0.09951972 0.119794525 0.013777608 -0.03402672 -0.009615049 -0.057809606 0.004710965
-0.01983716 -0.07405533 -0.0011274837 -0.05528718 0.041430645 -0.056522083 0.07328244 0.17281109
0.031730786 0.074011035 0.050726786 0.011174418 0.042613715 -0.08565266 -0.017681696 -0.018898264
-0.0012532845 -0.0453039 -0.067692734 0.10674802 0.12073434 0.11742774 0.06278046 -0.0365894
0.04307555 -0.0018612453 -0.043753643 0.036467828 -0.07463129 -0.031987123 0.09668511 0.059566636
-0.0563655 -0.58799905 -0.07451882 0.0854804 0.00040168525 -0.44096538 0.00554577 0.003280595
-0.05458973 0.025472425 -0.059497725 0.07068193 0.08334003 0.008679509 0.044691328 -0.0014883429
-0.1764667 -0.017266087 0.09187332 0.056242924 -0.051975258 0.08917618 0.007026793 0.022841811
0.031803787 -0.14855875 -0.01684209 0.073729895 0.080911465 -0.0023805425 0.02711647 -0.105486035
0.10429096 -0.15209252 -0.13088425 -0.0061984127 -0.07138132 -0.07951063 0.04111784 0.027554188
-0.04924801 -0.09909318 -0.11035114 0.028698431 0.013896175 0.044494595 -0.032677412 0.11049603
0.027973961 0.036856268 0.00953745 0.003286889 0.008282866 -0.104783334 0.10221725 0.007639915
-0.017602215 0.07965755 -0.007751068 -0.009838804 -0.0396104 -0.11880487 0.093124926 -0.0908539
0.045721836 0.107296 -0.42548043 0.10791735 0.10787867 0.00054206245 0.038616367 0.007137485
-0.0004188344 0.061498977 -0.002632551 0.032955088 -0.13562989 0.06469822 0.0699002 0.029125834
0.052117668 -0.09682927 -0.025515992 0.098689154 0.031964175 0.007823028 0.020634472 0.088775836
-0.09135396 -0.04748893 -0.052373193 0.010614825 0.019670418 0.020917658 0.018682515 0.045305714
0.0052787806 -0.50799257 0.03521034 0.09814597 0.060342036 -0.05298682 0.09855015 0.08648856
-0.027667463 0.02896119 -0.13026309 0.06404745 -0.019590013 -0.046955615 0.11010282 -0.41766632
-0.18578836 -0.09501787 0.0494128 0.03501215 -0.2313033 0.042280786 0.014524227 -0.1114609
0.037637472 -0.06679565 0.04809092 -0.09841104 -0.014030628 0.07503851 0.023980692 0.0048622414
0.05708713 0.02605455 -0.08610376 -0.02653909 0.13484554 0.0097731715 -0.038225997 0.055362772
0.014514321 -0.09341124 0.0336402 -0.032836102 0.045305014 0.16101256 -0.07654011 0.06464162
0.069620185 -0.013747096 0.06603733 -0.07556547 -0.008703679 -0.02506697 0.044786792 0.108181655
0.015874352 0.007856828 -0.05395706 0.054717373 0.066042274 -0.13699798 -0.029498436 0.024041012
0.12021287 0.02779828 0.024747698 0.033604547 -0.04215592 -0.05074384 -0.016812846 0.03822074
0.11873376 -0.03295356 0.09619476 0.10669096 -0.106250495 0.12139931 -0.04256785 -0.64335805
0.041772354 -0.049075723 0.014380376 0.03593436 0.26786625 -0.008856083 0.007770195 0.01165228
-0.027400158 0.050605122 -0.0624082 0.013964584 0.08941075 0.07178956 0.010004021 0.047473375
0.122377545 -0.011914949 -0.01479119 0.095793344 0.0076411413 -0.092829995 0.10936835 -0.08668941
00000000: 763d bd3d 8e2f 92bc f831 9d3c 5a30 88bd
00000010: df1f 823d 8a18 9a3d 18fb 053d fdbb 83bc
00000020: 28f4 51bd 64eb aabc b89d 563c 36df c63c
00000030: 48df 783c 572a b43d 4051 dc3c 482c afbc
00000040: 37bd 883d ffd0 cbbd d556 f53d 7abb 613c
00000050: 9a5f 0bbd 7088 1dbc c4c9 6cbd 705e 9a3b
00000060: 8a81 a2bc 52aa 97bd 13c8 93ba cf74 62bd
00000070: 2eb3 293d b383 67bd 1b15 963d 64f5 303e
00000080: 24f8 013d 1993 973d e4c6 4f3d e814 373c
00000090: b88b 2e3d a96a afbd 34d9 90bc 88d0 9abc
000000a0: 4045 a4ba 9590 39bd 7da2 8abd b59e da3d
000000b0: 9143 f73d f47d f03d 0b93 803d c4de 15bd
000000c0: fd6f 303d 07f5 f3ba 0537 33bd 4a5f 153d
000000d0: 4ad8 98bd ee04 03bd d802 c63d 25fc 733d
000000e0: 83df 66bd 1b87 16bf 539d 98bd 5910 af3d
000000f0: 4899 d239 37c6 e1be 4ab9 b53b 40ff 563b
00000100: 7b99 5fbd 8cab d03c e3b3 73bd b0c1 903d
00000110: 2dae aa3d 8034 0e3c 410e 373d 8014 c3ba
00000120: b0b3 34be 9c71 8dbc 1428 bc3d fb5e 663d
00000130: 02e4 54bd 00a2 b63d 0341 e63b c01e bb3c
00000140: b044 023d c91f 18be 6cf8 89bc b3ff 963d
00000150: e9b4 a53d e002 1cbb 5c23 de3c 1009 d8bd
00000160: 8096 d53d 24be 1bbe 8506 06be 0e1c cbbb
00000170: 5f30 92bd 78d6 a2bd 2e6b 283d 52b9 e13c
00000180: 48b8 49bd 5df1 cabd c7ff e1bd f918 eb3c
00000190: c8ac 633c f73f 363d c0d8 05bd be4b e23d
000001a0: a629 e53c 99f6 163d f742 1c3c d968 573b
000001b0: dcb4 073c a598 d6bd 4757 d13d 4158 fa3b
000001c0: 8532 90bc 7f23 a33d acfc fdbb ef32 21bc
000001d0: 843e 22bd f84f f3bd 48b8 be3d 9c11 babd
000001e0: d246 3b3d 01be db3d 92d8 d9be c603 dd3d
000001f0: 7eef dc3d 3219 0e3a 322c 1e3d 90e1 e93b
00000200: 0097 dbb9 5ae6 7b3d e086 2cbb eafb 063d
00000210: 90e2 0abe 8080 843d d627 8f3d 4d99 ee3c
00000220: 5679 553d 6d4e c6bd ea06 d1bc 8a1d ca3d
00000230: deec 023d 282c 003c a009 a93c 1bd0 b53d
00000240: c917 bbbd c183 42bd 4685 56bd cee9 2d3c
00000250: db23 a13c 825b ab3c 130c 993c 7c92 393d
00000260: 9ff9 ac3b cd0b 02bf b838 103d c100 c93d
00000270: 3629 773d b508 59bd a9d4 c93d ea20 b13d
00000280: e0a6 e2bc 0440 ed3c b063 05be 4f2b 833d
00000290: 3c7b a0bc 8854 40bd 967d e13d 5cd8 d5be
000002a0: 4e3f 3ebe bb98 c2bd 1465 4a3d e668 0f3d
000002b0: c6da 6cbe 9e2e 2d3d 06f7 6d3c 9d45 e4bd
000002c0: c029 1a3d 28cc 88bd fcfa 443d ba8b c9bd
000002d0: b8e0 65bc caad 993d 2873 c43c 7053 9f3b
000002e0: 32d4 693d 5a70 d53c 2b57 b0bd 8168 d9bc
000002f0: f314 0a3e a71f 203c dd92 1cbd 13c4 623d
00000300: 7acd 6d3c 644e bfbd 4eca 093d 267f 06bd
00000310: c091 393d 7ae0 243e 10c1 9cbd d362 843d
00000320: 0795 8e3d 803b 61bc 943e 873d 12c2 9abd
00000330: e099 0ebc 3f59 cdbc 5b72 373d 588e dd3d
00000340: ee0a 823c edb9 003c 1402 5dbd 531f 603d
00000350: 2c41 873d 3349 0cbe b4a6 f1bc a8f1 c43c
00000360: 2a32 f63d 38b9 e33c afbb ca3c eca4 093d
00000370: b0ab 2cbd c6d8 4fbd 18bb 89bc 5a8d 1c3d
00000380: b02a f33d 50fa 06bd c201 c53d ca80 da3d
00000390: dc99 d9bd 34a0 f83d a05b 2ebd 1db3 24bf
000003a0: 7d19 2b3d a003 49bd ab9b 6b3c e82f 133d
000003b0: c425 893e 1b19 11bc 1f9d fe3b 34e9 3e3c
000003c0: 4c76 e0bc 5147 4f3d be9f 7fbd b6cb 643c
000003d0: fc1c b73d 6806 933d e8e7 233c 7173 423d
000003e0: 14a1 fa3d eb36 43bc bf56 72bc 4d2f c43d
000003f0: 8a62 fa3b a71d bebd 83fc df3d 388a b1bd

fc3.bias f4 [256]
-0.30383107 -0.10925724 -0.08015998 -0.088908106 0.2401761 -0.08169442 -0.054154135 -0.082346745
0.47120938 0.5303516 0.07118135 0.14148387 -0.0037386566 -0.105437614 -0.21581505 -0.00083041936
-0.06362814 -0.07201864 -0.072277024 -0.009254692 -0.056316167 -0.048576992 -0.056264397 -0.18676016
0.10864834 0.120489545 -0.05346541 -0.18739529 0.3121912 -0.1153464 -0.15191957 -0.37258986
0.114579536 -0.08732064 -0.11480259 -0.116848625 0.3697247 -0.008027777 -0.03622562 -0.06473639
0.5032848 -0.069490604 -0.05014551 -0.053316977 -0.014587042 -0.11751768 -0.1787833 -0.049207177
-0.07590044 -0.16956884 -0.10452233 -0.08401512 -0.032696646 -0.14006959 -0.09359996 -0.05002749
-0.072287425 -0.25647962 -0.07117652 -0.08569098 0.019326342 -0.07175991 -0.115940176 -0.23844635
-0.17178413 -0.09526733 0.034043055 -0.08969847 -0.07389882 -0.070364274 -0.09978867 -0.15868539
-0.1871136 -0.19538514 0.57851464 -0.11852117 -0.028262602 -0.15376979 -0.23466142 0.30540422
0.09473389 -0.085483566 -0.08369263 -0.24816066 -0.10094877 -0.041508503 -0.11090183 -0.019026428
-0.17997031 -0.27421218 0.21776882 -0.16300456 -0.04705089 -0.12440523 -0.1380811 -0.10136474
-0.0950908 -0.06446827 0.37347656 -0.19786331 -0.263527 -0.17543495 -0.11915314 -0.3137864
-0.053851467 -0.20480072 -0.018594878 -0.11285697 -0.16695869 0.0005377223 -0.11772152 -0.06404982
-0.14512572 -0.07340306 0.0057440875 0.5876519 -0.2042856 -0.2013798 -0.110388055 0.23371114
0.16419642 -0.09699243 -0.117287755 -0.06040675 0.042776287 0.09459217 -0.11147384 -0.074516505
0.7527454 0.39364702 -0.08300362 -0.07211137 -0.02154583 -0.106865734 -0.05646645 0.47642425
-0.06746119 0.43323436 -0.26571438 -0.49639916 -0.26030666 -0.115568295 -0.15718149 -0.025601609
0.05875053 -0.015542101 -0.311966 -0.37100795 -0.36651272 -0.29208526 -0.006924532 -0.078582756
-0.33084002 -0.32568467 -0.10467093 -0.21118711 -0.11039539 0.15227495 -0.13940637 -0.04647285
-0.021530787 -0.09480245 0.27791932 -0.22513828 -0.05545394 -0.0250575 0.5622474 -0.064980924
-0.106649615 -0.10268097 -0.040589496 0.05538186 -0.12677553 0.12614052 0.20010464 -0.018016363
-0.0008176787 0.18868336 0.022901898 -0.073765896 0.6900439 -0.07151967 0.007202551 -0.110567234
0.22015654 -0.119174026 -0.21672058 -0.23881502 -0.089298196 -0.061455846 -0.20606437 -0.12087987
-0.06488198 -0.018887565 -0.080264725 -0.27698857 -0.16291061 -0.23405054 -0.10593384 -0.24278153
-0.0780961 -0.1567583 0.047851752 -0.1374406 -0.057530943 -0.051211532 -0.1177046 0.23619823
0.09136437 -0.012839787 -0.011960073 0.37743875 -0.21642967 0.119827785 -0.15629767 0.16898249
-0.27871516 -0.04612501 -0.15083303 0.019333063 0.17514619 -0.06871356 0.056306835 -0.10680744
-0.111151524 -0.041164156 -0.10562399 -0.09262644 0.18769924 -0.07206199 -0.14492594 -0.12028372
-0.24352272 -0.23365407 -0.1157521 -0.11411854 -0.03170226 0.047047913 -0.010340024 -0.2504614
-0.015097258 -0.11646227 -0.013622045 -0.20820329 -0.027983198 0.08733164 -0.036335748 -0.40032604
-0.093390755 -0.06780283 -0.18790595 0.29967776 -0.0881742 0.028829586 -0.09525871 -0.059982955
00000000: bf8f 9bbe 43c2 dfbd ea2a a4bd 7415 b6bd
00000010: b9f0 753e 674f a7bd bad0 5dbd 69a5 a8bd
00000020: 5b42 f13e 1fc5 073f 87c7 913d 26e1 103e
00000030: 4004 75bb adef d7bd 9ffe 5cbe 80b0 59ba
00000040: 784f 82bd 827e 93bd fa05 94bd fea0 17bc
00000050: c8ab 66bd abf8 46bd 7f75 66bd 0e3e 3fbe
00000060: 0583 de3d 39c3 f63d 8cfe 5abd 8de4 3fbe
00000070: 86d7 9f3e bc3a ecbd ce90 1bbe 19c4 bebe
00000080: ada8 ea3d 2ad5 b2bd 9f1d ebbd 554e efbd
00000090: 8e4c bd3e f086 03bc 5161 14bd 8394 84bd
000000a0: 46d7 003f 1751 8ebd 6165 4dbd e762 5abd
000000b0: 7dfe 6ebc 1cad f0bd f812 37be 778d 49bd
000000c0: b171 9bbd 74a3 2dbe ce0f d6bd 1f10 acbd
000000d0: ebec 05bd 676e 0fbe 56b1 bfbd a0e9 4cbd
000000e0: 6e0b 94bd 4c51 83be ffc4 91bd c17e afbd
000000f0: 4752 9e3c dcf6 92bd 0b72 edbd 482b 74be
00000100: 2ee8 2fbe 851b c3bd bb70 0b3d d5b3 b7bd
00000110: 4458 97bd 251b 90bd 015e ccbd 6c7e 22be
00000120: b59a 3fbe 0b13 48be 8919 143f 3abb f2bd
00000130: f986 e7bc d475 1dbe 154b 70be f15d 9c3e
00000140: d703 c23d 0212 afbd 0b67 abbd d41d 7ebe
00000150: 3bbe cebd d204 2abd 8020 e3bd 50dd 9bbc
00000160: 234a 38be 8a65 8cbe cafe 5e3e abea 26be
00000170: 6fb8 40bd 2bc8 febd 2265 0dbe 5198 cfbd
00000180: f7be c2bd f107 84bd 5238 bf3e ae9c 4abe
00000190: 03ed 86be 38a5 33be 9006 f4bd 9ca8 a0be
000001a0: 5b93 5cbd 48b7 51be 4954 98bc 8e21 e7bd
000001b0: 38f7 2abe eff5 0c3a fb17 f1bd 8d2c 83bd
000001c0: d69b 14be 5854 96bd e638 bc3b 5b70 163f
000001d0: 3f30 51be 8236 4ebe 2213 e2bd f951 6f3e
000001e0: 1b23 283e f8a3 c6bd 9034 f0bd 116d 77bd
000001f0: 3036 2f3d 8ab9 c13d 664c e4bd 1c9c 98bd
00000200: ecb3 403f 1a8c c93e cdfd a9bd 20af 93bd
00000210: e180 b0bc 6cdc dabd 5d49 67bd e1ed f33e
00000220: 1829 8abd e5d0 dd3e b70b 88be 0828 febe
00000230: ea46 85be 12af ecbd 2ff4 20be 77ba d1bc
00000240: 65a4 703d 4ca4 7ebc 02ba 9fbe c1f4 bdbe
00000250: 8ea7 bbbe 338c 95be 2fe7 e2bb ffef a0bd
00000260: dd63 a9be 24c0 a6be b65d d6bd 6f41 58be
00000270: fa16 e2bd f7ed 1b3e 8bc0 0ebe 515a 3ebd
00000280: 5561 b0bc c927 c2bd 714b 8e3e a68a 66be
00000290: ac23 63bd 6345 cdbc 72ef 0f3f b814 85bd
000002a0: 1d6b dabd 674a d2bd 2c41 26bd 17d8 623d
000002b0: 72d1 01be fb2a 013e 3be8 4c3e 0d97 93bc
000002c0: 7d59 56ba 3636 413e c39c bb3c 9312 97bd
000002d0: b8a6 303f e878 92bd 6003 ec3b 1371 e2bd
000002e0: b770 613e 8311 f4bd 00ec 5dbe ed8b 74be
000002f0: f9e1 b6bd 20b9 7bbd 8a02 53be de8f f7bd
00000300: d8e0 84bd 18ba 9abc d561 a4bd 72d1 8dbe
00000310: 0ad2 26be f2aa 6fbe d7f3 d8bd b99b 78be
00000320: d9f0 9fbd 3f85 20be 3300 443d 3bbd 0cbe
00000330: 91a5 6bbd 2fc3 51bd 1c0f f1bd f3dd 713e
00000340: 3e1d bb3d f85d 52bc 2ff4 43bc a73f c13e
00000350: bd9f 5dbe 4568 f53d 7f0c 20be bf09 2d3e
00000360: c1b3 8ebe 94ed 3cbd f973 1abe 5f60 9e3c
00000370: 8659 333e b2b9 8cbd ffa1 663d dcbd dabd
00000380: 69a3 e3bd bf9b 28bd 6451 d8bd eeb2 bdbd
00000390: 3b34 403e 3d95 93bd 7767 14be 5057 f6bd
000003a0: 055e 79be 0343 6fbe 700f edbd fbb6 e9bd
000003b0: 3bda 01bd 50b5 403d 3469 29bc 7a3c 80be
000003c0: 7d5a 77bc c583 eebd ff2e 5fbc 3e33 55be
000003d0: 053d e5bc eeda b23d cbd4 14bd 89f7 ccbe
000003e0: a743 bfbd 36dc 8abd 6b6a 40be 5d6f 993e
000003f0: ad94 b4bd 062c ec3c 0017 c3bd b0b0 75bd

classifier.weight f4 [16, 256]
0.110841066 0.012737982 0.047230944 -0.10500001 0.008299127 0.018602384 -0.0135655925 -0.024865614
-0.07724378 -1.0601857 0.04749537 0.05229368 -0.0012960257 0.0022885841 -0.01702726 -0.13626412
0.021926789 -0.14215302 -0.11300042 -0.0078505045 -0.08708773 0.0074727368 -0.039204188 0.40678582
0.060557235 -0.012767873 -0.0990728 0.105834216 -0.032799736 -0.022625512 0.009833153 -0.049687926
-0.23603582 0.0114809275 0.0134765245 0.045653373 -0.13153033 0.04832043 0.021335425 0.002410982
-0.22557327 -0.07005047 0.0056208703 0.059451047 -0.094008654 -0.16987146 0.09099792 -0.032088123
-0.15881376 -0.08825386 0.029529873 -0.00783823 0.03393328 -0.14369187 -0.06288422 -0.2697717
0.033774704 -0.14937317 0.042917065 0.002211032 0.064853474 -0.084289506 0.08291778 0.05548314
0.13055529 0.025382077 0.09257377 0.02167069 -0.020081833 0.05561854 -0.01051006 0.08544614
0.11547834 0.37416387 -0.87750494 0.031320143 -0.03360947 0.034348223 -0.0861867 -0.27631658
-0.007064633 0.034877032 0.013472255 -0.17277403 -0.018238353 0.052816503 0.06808658 -0.049086716
-0.096286476 0.12602642 -0.12884036 0.07670876 -0.063775115 0.038355853 -0.032577947 -0.003577202
0.037199557 -0.22247578 -0.03242545 0.09435824 -0.024577972 0.04279925 0.022046383 0.015997408
0.043838438 0.11696905 -0.006110378 0.015061321 -0.11156223 0.054988142 0.09577618 -0.03643554
0.1304087 -0.017297674 -0.078444324 -0.088319056 -0.03223567 0.029386597 0.04923154 -0.20853542
-0.2798473 0.06793382 -0.1308395 0.022847919 0.05915013 -0.19853683 -0.036037907 0.026347961
-1.7404243 -0.23498712 -0.1788109 -0.078750394 0.024785234 -0.065670446 -0.113346145 -0.029813595
0.10080017 -0.64545757 -0.1720583 -1.233047 -0.2222133 0.09681999 -0.15118812 0.05202023
0.05462872 -0.06086639 0.0058931657 -0.50938225 -0.20152883 0.016007334 -0.026859876 -0.10841271
-0.16213831 0.13815911 0.016763268 -0.13505436 -0.055001527 -0.1445567 0.10803528 0.017200826
0.016769033 0.04972239 0.007948862 -0.10784178 -0.08752957 0.06979427 -0.1941733 0.057179414
0.061826315 -0.08468505 0.060924564 -0.46905506 0.33256915 -0.23596062 -0.21089964 -0.06810658
0.049973696 -0.2084841 0.007346825 -0.00689382 -1.5905946 -0.02953261 -0.06279102 -0.0636256
0.03287105 -0.0010870242 -0.24624574 -0.030032597 0.013078671 -0.12418959 -0.11881265 0.009610357
0.04736694 0.041036747 -0.092173934 0.19907299 0.036261495 -0.05371484 -0.112265356 0.35058823
-0.0060565183 0.17118104 -0.16302268 -0.07939742 -0.04919509 -0.03519137 0.064568624 -0.024801655
0.033448797 0.012111374 -0.28970864 0.0782918 0.035941567 0.0657128 -0.0343222 -0.19652693
0.016838053 -0.103497475 0.100444146 -0.16364007 -0.23135543 0.032822892 0.041424647 0.032333978
-0.077666625 0.047911264 -0.104546495 0.045618743 -0.67133677 0.021853846 -0.007936718 0.05503722
-0.16139369 0.046394736 -0.006458523 0.10537702 -0.050397236 0.046442084 0.04457023 -0.15242729
0.013457747 -0.19062391 0.09704067 0.11683703 -0.19327667 -0.31803527 -0.030444061 -0.08721128
-0.06943235 -0.0020206983 -0.012971543 -0.51865065 0.055996805 0.033779584 0.011845205 0.0022951625
00000000: a400 e33d f8b2 503c 3c75 413d 3f0a d7bd
00000010: 10f9 073c 0764 983c 3842 5ebc f9b2 cbbc
00000020: fd31 9ebd 2ab4 87bf 818a 423d e631 563d
00000030: 68df a9ba 12fc 153b c17c 8bbc d288 0bbe
00000040: cf9f b33c 9090 11be c46c e7bd 679f 00bc
00000050: 0d5b b2bd dcdd f43b 9294 20bd 3b46 d03e
00000060: dd0a 783d 5730 51bc aee6 cabd 9cbf d83d
00000070: 0459 06bd 2359 b9bc 3c1b 213c 9185 4bbd
00000080: 60b3 71be 801a 3c3c a4cc 5c3c 08ff 3a3d
00000090: e3af 06be a5eb 453d a1c7 ae3c 9101 1e3b
000000a0: aefc 66be 9f76 8fbd 472f b83b f182 733d
000000b0: 9c87 c0bd c9f2 2dbe 1e5d ba3d d66e 03bd
000000c0: 13a0 22be 71be b4bd a2e8 f13c eb6b 00bc
000000d0: 9ffd 0a3d f623 13be 71c9 80bd 841f 8abe
000000e0: 5857 0a3d 48f5 18be cec9 2f3d f6e6 103b
000000f0: e6d1 843d fa9f acbd ccd0 a93d 4a42 633d
00000100: 49b0 053e 13ee cf3c 5197 bd3d bb86 b13c
00000110: a882 a4bc 44d0 633d 6332 2cbc 63fe ae3d
00000120: e87f ec3d 6892 bf3e 2aa4 60bf 8d49 003d
00000130: 15aa 09bd b9b0 0c3d a782 b0bd 5e79 8dbe
00000140: 707e e7bb 38db 0e3d bcba 5c3c adeb 30be
00000150: 9968 95bc 1e56 583d fa70 8b3d 270f 49bd
00000160: d831 c5bd 120d 013e baee 03be 7b19 9d3d
00000170: 879c 82bd 071b 1d3d 7470 05bd 7e6f 6abb
00000180: 905e 183d b1d0 63be 8cd0 04bd e53e c13d
00000190: be57 c9bc 444e 2f3d 9e9a b43c ff0c 833c
000001a0: ef8f 333d 788d ef3d 9139 c8bb c2c3 763c
000001b0: bd7a e4bd 3f3b 613d 4d26 c43d 6f3d 15bd
000001c0: dc89 053e dab3 8dbc 6ba7 a0bd 9fe0 b4bd
000001d0: 8d09 04bd 29bc f03c 03a7 493d 4f8a 55be
000001e0: 2548 8fbe e320 8b3d cafa 05be 8f2b bb3c
000001f0: 6847 723d 3d4d 4bbe 7c9c 13bd aed7 d73c
00000200: 39c6 debf 77a0 70be 341a 37be e347 a1bd
00000210: 670a cb3c 3a7e 86bd 0622 e8bd a43b f4bc
00000220: 5270 ce3d b53c 25bf 0d30 30be 7cd4 9dbf
00000230: e28b 63be 8f49 c63d 0fd1 1abe 2a13 553d
00000240: 5dc2 5f3d 094f 79bd 751b c13b e066 02bf
00000250: 935d 4ebe d021 833c 3e09 dcbc 7c07 debd
00000260: 9607 26be 9579 0d3e 1f53 893c b14b 0abe
00000270: 4849 61bd ac06 14be 9a41 dd3d bfe8 8c3c
00000280: 365f 893c b4a9 4b3d f23b 023c 27dc dcbd
00000290: b442 b3bd 4cf0 8e3d 5ed5 46be f634 6a3d
000002a0: 973d 7d3d 5b6f adbd 098c 793d fc27 f0be
000002b0: 8146 aa3e a99f 71be 13f6 57be 767b 8bbd
000002c0: 38b1 4c3d db7c 55be a3bd f03b 8ee5 e1bb
000002d0: 9b98 cbbf 5fee f1bc 9498 80bd 234e 82bd
000002e0: cba3 063d 7b7a 8eba d827 7cbe ec06 f6bc
000002f0: ec47 563c 1d57 febd 0c54 f3bd c274 1d3c
00000300: d603 423d 2616 283d b0c5 bcbd cad9 4b3e
00000310: ef86 143d 1804 5cbd 61eb e5bd 4d80 b33e
00000320: c275 c6bb 154a 2f3e 6bef 26be 1d9b a2bd
00000330: ca80 49bd d324 10bd 8e3c 843d d72c cbbc
00000340: 9b01 093d c96e 463c b154 94be 7457 a03d
00000350: 7737 133d 6f94 863d 6f95 0cbd 5b3e 49be
00000360: f5ef 893c 7cf6 d3bd a9b5 cd3d 4391 27be
00000370: 70e8 6cbe 4c71 063d e4ac 293d a270 043d
00000380: ae0f 9fbd 9a3e 443d 791c d6bd b8da 3a3d
00000390: badc 2bbf d606 b33c 0209 02bc b56e 613d
000003a0: 6344 25be 6808 3e3d 05a2 d3bb e8cf d73d
000003b0: 556d 4ebd 0e3a 3e3d 468f 363d e615 1cbe
000003c0: e27d 5c3c ea32 43be 42bd c63d 4148 ef3d
000003d0: 52ea 45be 85d5 a2be d365 f9bc d49b b2bd
000003e0: 8c32 8ebd b16d 04bb 9886 54bc 4ac6 04bf
000003f0: e85c 653d 765c 0a3d 6412 423c 706a 163b

classifier.bias f4 [16]
0.11099001 -0.07002803 -0.12576833 0.03618243 0.14628293 0.06258499 -0.051556844 0.18669255
0.1440818 0.20584875 -0.032489114 -0.05038659 0.10319695 -0.06342585 -0.15318765 -0.18014829
00000000: bb4e e33d db6a 8fbd 6ac9 00be 0734 143d
00000010: 31cb 153e 8f2c 803d 452d 53bd 552c 3f3e
00000020: 2e8a 133e 04ca 523e 4e13 05bd 2b62 4ebd
00000030: ec58 d33d 69e5 81bd 39dd 1cbe cb78 38be
