synth02_16_05_22_10_09_FullyConnected.pth (torch, 550959 bytes, 8 tensors)

fc1.weight f4 [256, 4]
0	0xbe8737dc	-0.26409805
1	0xbe9acbb4	-0.30233538
2	0x3efe6200	0.49684143
3	0xbe510080	-0.20410347
4	0x3d6c26ef	0.057654317
5	0x3f0f2534	0.5591614
6	0x3e2b82df	0.16749142
7	0x3de65b2c	0.112478584
8	0x3e7cff9c	0.24706882
9	0x3efd3d3e	0.49460787
10	0x3d35a5e0	0.044347644
11	0xbed738b8	-0.4203546
12	0x3ee710ea	0.45130092
13	0xbe799150	-0.24371839
14	0xbdba1f3a	-0.09087987
15	0xbd717438	-0.058948725
16	0xbe36e720	-0.17861605
17	0xbcee74a0	-0.029108346
18	0x3e664a50	0.22489285
19	0x3deb3270	0.114842296
20	0xbe6587e0	-0.22415113
21	0xbe9089b2	-0.28230053
22	0x3eb59b36	0.3546998
23	0xbe89c8d0	-0.2691102
24	0x3e9463d8	0.28982425
25	0x3e963bd1	0.2934251
26	0x3ea93c7e	0.33053964
27	0xbed2fd09	-0.41208676
28	0x3e0b5b4b	0.13609044
29	0x3e892bfa	0.26791364
30	0x3ea7f24a	0.3280204
31	0xbeb9e263	-0.36305532
32	0xbc81ab82	-0.015828852
33	0x3d179bf2	0.037013955
34	0x3ef3ced2	0.4761873
35	0xbe993d4c	-0.29929578
36	0x3e764a10	0.2405169
37	0xbf2509d8	-0.64468145
38	0xbea69cfb	-0.32541642
39	0x3c9af8f2	0.018917535
40	0xbdf5f6ed	-0.12009988
41	0xbe65c0e8	-0.22436869
42	0xbf0f7b93	-0.56047934
43	0x3e9d63f6	0.30740327
44	0xbea605c5	-0.32426277
45	0x3cddc3f5	0.027070979
46	0xbed8f48b	-0.4237407
47	0xbe4f589f	-0.2024865
48	0xbeaf83c3	-0.34280214
49	0x3e57d8e0	0.21078825
50	0xbf0384df	-0.5137462
51	0x3dd9f38c	0.10642156
52	0xbf060e91	-0.52365977
53	0x3f017b66	0.50578916
54	0xbe9eba01	-0.31001285
55	0xbea33a1a	-0.31880265
56	0xbef1e93d	-0.4724826
57	0x3e7ee886	0.24893388
58	0xbee60d8d	-0.44932213
59	0xbf0300be	-0.5117301
60	0xbe3434a4	-0.17598206
61	0xbe81d5e0	-0.25358486
62	0xbe775dac	-0.24156827
63	0xbd3cf720	-0.046134114
64	0xbe3f4de8	-0.18682063
65	0x3efec164	0.4975692
66	0x3e415f24	0.1888395
67	0xbeba9396	-0.36440724
68	0x3e2b9c78	0.16758907
69	0x3df2f442	0.11862995
70	0x3d004c31	0.03132266
71	0xbe147799	-0.14498748
72	0x3e89525e	0.26820654
73	0x3f01d97f	0.507225
74	0x3e2963b5	0.16541941
75	0x3eb9e6d4	0.3630892
76	0x3ebc218c	0.36744344
77	0xbecd5a8d	-0.40108147
78	0xbeb56a8c	-0.3543285
79	0x3e82a772	0.25518376
80	0x3e5af33e	0.21381852
81	0x3e56d2c8	0.20978844
82	0x3eb0a183	0.34498224
83	0xbe293c14	-0.16526824
84	0x3e2abd51	0.16673781
85	0xbf3790b1	-0.71705157
86	0xbdb75b15	-0.089529194
87	0xbe179152	-0.14801529
88	0x3e422b94	0.18961936
89	0xbea8e11a	-0.3298424
90	0xbedd49ba	-0.4322031
91	0xbe69c036	-0.22827229
92	0xbdc7f71a	-0.09763928
93	0x3d66ef42	0.056380518
94	0x3ea8c243	0.3296071
95	0x3f0413f4	0.51592946
96	0xbdfb178f	-0.12260353
97	0xbf20af41	-0.62767416
98	0xbdd0ebab	-0.102012
99	0x3ed08269	0.40724495
100	0x3ed91e6a	0.42406017
101	0x3e19fcde	0.15037867
102	0x3eb82bee	0.35971016
103	0xbe59d17c	-0.21271318
104	0x3e042b78	0.12907207
105	0x3dffaaf8	0.124837816
106	0xbe9d9238	-0.3077562
107	0xbe003dcc	-0.12523574
108	0xbea1f56c	-0.31632555
109	0x3ec03054	0.3753687
110	0x3efa042a	0.48831302
111	0xbe43fec4	-0.19140154
112	0x3ec2205e	0.3791532
113	0xbe2cb593	-0.1686614
114	0x3e27bdfe	0.1638107
115	0x3e461691	0.19344546
116	0xbe63fe46	-0.22264966
117	0x3e993af3	0.29927787
118	0x3ec2f601	0.3807831
119	0x3eac30e8	0.33631063
120	0xbe1beeaf	-0.1522777
121	0x3ebd21d3	0.36939868
122	0x3d8406eb	0.06446632
123	0x3d3d670b	0.046240848
124	0x3daf73b0	0.085669875
125	0x3ea74e4e	0.3267693
126	0xbed999c4	-0.42500126
127	0xbe7acbbc	-0.24491781
128	0x3f0ee81a	0.5582291
129	0x3e95f192	0.29285866
130	0x3ddf94b0	0.10917032
131	0x3e8af540	0.27140236
132	0xbdc464ce	-0.095895395
133	0x3f0fabc9	0.561215
134	0x3ed17e63	0.40916738
135	0x3e87998a	0.26484329
136	0xbe77acac	-0.24186963
137	0xbea9d62e	-0.3317122
138	0x3e929328	0.28627896
139	0x3dccb918	0.09996241
140	0xbe679988	-0.22617161
141	0xbe9a44c0	-0.30130577
142	0x3e449fb4	0.19201547
143	0x3ea04156	0.31299847
144	0xbf0b3072	-0.54370797
145	0xbe7a2314	-0.24427444
146	0xbe2b1e7f	-0.16710852
147	0x3e15f77d	0.1464519
148	0x3eeeb64b	0.46623453
149	0x3e6f3a9d	0.23362203
150	0x3ed46725	0.41484943
151	0xbefe0953	-0.4961649
152	0x3ed48c73	0.41513404
153	0x3f1b1f6a	0.6059481
154	0x3e8c2a10	0.2737584
155	0xbb90c839	-0.0044183997
156	0xbed30d94	-0.41221297
157	0xbe3e264c	-0.18569297
158	0x3e34ac5c	0.17643875
159	0xbee0e10e	-0.43921703
160	0xbecab63e	-0.39592165
161	0xbf2e2f0b	-0.6804053
162	0xbddae255	-0.10687701
163	0x3e6751d9	0.22589816
164	0xbe1a5348	-0.15070832
165	0xbefb2592	-0.490521
166	0x3eac7730	0.33684683
167	0x3dc57440	0.096413136
168	0x3e39fec5	0.18163593
169	0xbea9e224	-0.33180344
170	0x3e6a8e10	0.22905755
171	0xbe38f80f	-0.18063377
172	0x3ec0c2e5	0.37648693
173	0x3ec27c44	0.37985432
174	0x3f2d7cd2	0.67768586
175	0x3d3f8cc0	0.04676509
176	0xbe77a043	-0.24182229
177	0x3e357232	0.17719343
178	0x3eec8547	0.46195433
179	0x3b663a78	0.0035130065
180	0xbea99b3c	-0.33126247
181	0x3e11e580	0.14247704
182	0x3e7a2954	0.24429828
183	0xbe8eec3a	-0.27914602
184	0x3e95d865	0.29266658
185	0xbf346473	-0.70465773
186	0xbde0ab76	-0.109702036
187	0xbcba761b	-0.022761395
188	0xbebd0d50	-0.3692422
189	0xbf0793fe	-0.52960193
190	0xbeb36860	-0.3504057
191	0xbe1a7c5a	-0.15086499
192	0xbe7a083c	-0.24417204
193	0x3d8c0150	0.06836188
194	0xbea42d90	-0.3206601
195	0xbe84cb8a	-0.25936538
196	0xbeeebff7	-0.46630833
197	0x3e6c5f02	0.23083118
198	0x3ea26be7	0.31722948
199	0x3e2c63cc	0.16834944
200	0x3e1ad859	0.15121593
201	0x3ecb7a8f	0.39741942
202	0xbe8b6d2d	-0.27231732
203	0x3e47eddf	0.19524334
204	0xbec13f5f	-0.3774366
205	0xbf2caf14	-0.6745465
206	0x3c0972eb	0.008389215
207	0x3d91ab9e	0.071128115
208	0x3e90e712	0.28301293
209	0xbd8054b0	-0.06266153
210	0x3e98f51b	0.298745
211	0xbe04c829	-0.1296698
212	0xbd7fc946	-0.06244781
213	0x3ef3c522	0.47611338
214	0x3f1417c1	0.57848746
215	0xbe3655be	-0.17806146
216	0xbef45172	-0.47718388
217	0xbd4fde20	-0.050748944
218	0xbdce8d90	-0.10085595
219	0xbefce92e	-0.49396652
220	0x3ddeedaf	0.10885178
221	0x3bd3ff77	0.0064696628
222	0x3ec117dc	0.37713516
223	0xbd9f4baa	-0.07778104
224	0xbe450ac0	-0.19242382
225	0x3edee6cc	0.4353546
226	0x3eaefda8	0.341779
227	0xbe1b2360	-0.15150213
228	0xbdbf0f30	-0.09329069
229	0xbec1e56e	-0.37870353
230	0x3e053494	0.13008338
231	0xbee019de	-0.43769735
232	0x3e8c9dd1	0.27464154
233	0xbf01b06a	-0.5065981
234	0x3e283aed	0.16428728
235	0x3e916f08	0.28405023
236	0x3c5f370a	0.013623962
237	0xbf154e45	-0.58322555
238	0x3e841385	0.25796142
239	0xbeaa9d6c	-0.33323228
240	0xbeaaa3da	-0.33328134
241	0x3f17e33a	0.59331095
242	0x3e8abf4d	0.27099076
243	0xbd1d8587	-0.03845742
244	0xbec93b13	-0.39302883
245	0x3f0202bb	0.50785416
246	0xbe3a46c2	-0.18191054
247	0xbe7d118d	-0.24713726
248	0x3e3ff04a	0.18744007
249	0xbec04c54	-0.37558234
250	0xbd4659e6	-0.048425578
251	0x3e89ca8c	0.26912344
252	0x3dadbec8	0.08483654
253	0xbe745b98	-0.23863065
254	0x3eccc010	0.39990282
255	0xbe83c612	-0.25737053

fc1.bias f4 [256]
0	0xbebe8b52	-0.37215668
1	0x3e265135	0.16241916
2	0xbe80fdc0	-0.25193596
3	0x3ecbd855	0.39813486
4	0xbebb8ac6	-0.36629313
5	0xbe0026bc	-0.12514776
6	0xbeb65241	-0.3560963
7	0x3cdc07a3	0.02685911
8	0x3eb1517b	0.34632477
9	0xbe953e16	-0.2914893
10	0x3d294781	0.041327957
11	0x3eb69b8e	0.35665554
12	0x3e21071e	0.15725371
13	0x3ec8cd6e	0.3921923
14	0x3eccb571	0.3998218
15	0xbeeb0c36	-0.45907754
16	0xbee19e26	-0.4406597
17	0xbe97d632	-0.29655606
18	0xbde40b04	-0.111349136
19	0xbf0056dc	-0.50132537
20	0x3e1edfed	0.15515108
21	0x3e2404e3	0.16017489
22	0x3ed32ac3	0.41243562
23	0xbe0d5a79	-0.13804044
24	0xbe722d1c	-0.2365002
25	0x3d0d8b55	0.034556706
26	0xbecbade6	-0.3978111
27	0xbe29c368	-0.16578448
28	0x3e86d057	0.26330826
29	0x3e045449	0.12922777
30	0x3e849d84	0.25901425
31	0xbee636ae	-0.44963592
32	0xbe9aed41	-0.30259135
33	0xbe6ed788	-0.23324406
34	0xbe18dbfc	-0.14927667
35	0xbee14c20	-0.4400339
36	0x3e566ed2	0.20940712
37	0x3e780353	0.24220018
38	0x3e322d97	0.17400204
39	0xbebff9c2	-0.37495238
40	0x3eb9140f	0.36148116
41	0xbeffec86	-0.4998514
42	0x3e5244b2	0.20534018
43	0xbeb5ea68	-0.355304
44	0x3ea1f48a	0.3163188
45	0xbd37b490	-0.044849932
46	0xbe947dbd	-0.2900218
47	0x3f09cd57	0.5382895
48	0xbed0b930	-0.40766287
49	0x3e3fb299	0.18720473
50	0xbda9cf72	-0.0829152
51	0x3e8c9e3c	0.27464473
52	0x3dad7b56	0.0847079
53	0x3e88c4ac	0.2671255
54	0x3c5c0d00	0.013430834
55	0xbea0929a	-0.31361848
56	0xbe9319c8	-0.28730607
57	0xbde131d0	-0.10995829
58	0x3df26441	0.11835528
59	0x3eb390a6	0.35071295
60	0x3eacbca8	0.33737683
61	0x3eb4c1e8	0.3530419
62	0x3d649536	0.05580636
63	0xbe7a5d20	-0.24449587
64	0xbe3ebf23	-0.186276
65	0x3e31c253	0.17359285
66	0x3eb035ff	0.34416196
67	0xbd2cd12c	-0.04219167
68	0xbb7ba909	-0.0038400313
69	0x3e6eee03	0.23332982
70	0xbe5c5016	-0.21514925
71	0x3e2ab78b	0.16671579
72	0xbce57b5c	-0.028012924
73	0x3c827260	0.015923679
74	0xbecd74b8	-0.40128112
75	0xbee2aeea	-0.44274074
76	0x3ed4e1c0	0.41578484
77	0x3d4cbed0	0.04998666
78	0xbd731904	-0.05935003
79	0x3ed8830e	0.42287487
80	0xbc05c9c0	-0.008165777
81	0xbe899f22	-0.2687922
82	0xbeaba9be	-0.3352794
83	0xbdb62b00	-0.0889492
84	0xbdb7278a	-0.08943088
85	0xbe028bdb	-0.12748663
86	0x3eb4f6e1	0.35344604
87	0xbe128fa2	-0.14312604
88	0xbe9a77e6	-0.301696
89	0xbd9c294e	-0.07625066
90	0xbec083f1	-0.37600663
91	0xbdeeab78	-0.11653799
92	0x3ed755ba	0.42057592
93	0x3e995960	0.29951
94	0xbdf43c10	-0.119255185
95	0x3e9caf13	0.3060232
96	0xbec24744	-0.37944996
97	0x3c4470c0	0.011989772
98	0x3e30b466	0.17256317
99	0xbcaac23f	-0.020844577
100	0xbde386f8	-0.111097276
101	0x3ea7adeb	0.32749876
102	0x3d0a3412	0.033741064
103	0xbe11d6e2	-0.14242128
104	0x3e836f88	0.2567103
105	0x3e9f6d62	0.3113814
106	0x3e42ae6a	0.19011846
107	0x3d88f258	0.066868484
108	0x3e391f67	0.18078385
109	0xbef02e82	-0.46910483
110	0xbeb2fe34	-0.34959567
111	0x3c49c240	0.012314379
112	0x3eebca1d	0.46052638
113	0xbea4d274	-0.32191813
114	0xbd858f13	-0.0652143
115	0xbe396df4	-0.1810835
116	0x3ecb41bf	0.39698598
117	0x3da9a0e8	0.082826436
118	0x3dc30b93	0.09523692
119	0xbef75a28	-0.4831097
120	0xbe83e04e	-0.25757068
121	0xbf02be8e	-0.51072013
122	0x3e881c3d	0.26584044
123	0x3ef9044f	0.486361
124	0x3e0dbae4	0.13840824
125	0xbe79620c	-0.24353808
126	0xbe146ed8	-0.14495409
127	0xbc39487d	-0.011308786
128	0x3c0fd237	0.0087781465
129	0xbd9285fa	-0.0715446
130	0xbe0e20f2	-0.13879755
131	0x3e9a43af	0.30129763
132	0xbce2a72c	-0.027667604
133	0x3e56f045	0.20990093
134	0xbefceb0e	-0.49398082
135	0xbe95d652	-0.29265076
136	0x3d9e3e56	0.077267334
137	0xbeb960a2	-0.36206537
138	0x3c8b1fdb	0.016982963
139	0x3e76b2f2	0.240917
140	0xbe6f6dd4	-0.2338174
141	0xbea81778	-0.32830405
142	0x3ebc706b	0.36804518
143	0x3e8e4992	0.27790505
144	0xbec6a1f8	-0.38795447
145	0x3e0df689	0.13863577
146	0xbe2e8fcd	-0.17047043
147	0x3e562e70	0.20916152
148	0xbdfc3de0	-0.12316489
149	0xbea0723f	-0.31337163
150	0x3d7b9db6	0.0614297
151	0x3e848dc1	0.258894
152	0xbde55748	-0.11198288
153	0xbeea70eb	-0.45789275
154	0xbe5a5da3	-0.21324782
155	0x3e580ee7	0.21099435
156	0x3e4fcdcd	0.2029335
157	0xbeea9a6a	-0.45820934
158	0xbe4ade16	-0.19811282
159	0x3c1e7500	0.00967145
160	0xbde1a63d	-0.110180356
161	0x3dab0896	0.08351247
162	0xbe810a02	-0.25202948
163	0x3e86889f	0.2627611
164	0xbeea86be	-0.45805925
165	0x3ebe24fb	0.3713759
166	0x3df2454d	0.11829624
167	0xbe7bf97c	-0.2460689
168	0xbeb1d86e	-0.34735435
169	0xbdd8c31d	-0.1058409
170	0x3e54c322	0.20777562
171	0xbe30fae6	-0.1728321
172	0xbbf40064	-0.0074463356
173	0x3ccc7c4e	0.024961617
174	0x3eca0b9d	0.39461985
175	0x3ea5584f	0.32293937
176	0xbec4b170	-0.38416624
177	0x3ee7022a	0.4511884
178	0xbe1662cb	-0.14686124
179	0x3d673e07	0.05645564
180	0x3ef6192d	0.48066083
181	0xbe8489e3	-0.2588645
182	0xbed9efcd	-0.42565766
183	0x3ecb21a8	0.39674115
184	0xbd282a06	-0.0410557
185	0xbcadcd24	-0.021215983
186	0xbec720c0	-0.38892174
187	0xbedc73a6	-0.43056983
188	0x3ecb454b	0.39701304
189	0x3e9d6801	0.3074341
190	0xbed2c97e	-0.4116935
191	0xbec47b08	-0.38375115
192	0x3ea7275d	0.3264722
193	0x3dfbbdba	0.12292047
194	0x3c8e9a35	0.017407516
195	0xbeca6fbf	-0.3953838
196	0x3e27b579	0.1637782
197	0xbd3895f0	-0.045064867
198	0xbcd6523e	-0.026162263
199	0x3e946f92	0.2899137
200	0x3eac8693	0.33696422
201	0xbd986409	-0.07440955
202	0xbd98d4ca	-0.07462461
203	0x3d8122c7	0.063054614
204	0x3e02ca8b	0.12772577
205	0xbd91bdf5	-0.071163096
206	0x3ec3e9c7	0.38264295
207	0x3e8f423e	0.27980226
208	0x3e0d110f	0.13776039
209	0xbc8e990e	-0.017406967
210	0x3df429cc	0.119220346
211	0xbeb46300	-0.3523178
212	0xbefa2c0e	-0.48861736
213	0x3c72d580	0.01482141
214	0xbe515b80	-0.2044506
215	0xbde50430	-0.11182439
216	0xbec5caac	-0.3863119
217	0xbb6f053c	-0.0036471626
218	0x3e8ba914	0.27277434
219	0x3ed35ecc	0.41283262
220	0x3edf0d43	0.43564805
221	0xbeedfb66	-0.46480864
222	0xbe818bed	-0.25302067
223	0x3e8303df	0.2558889
224	0xbd1605b0	-0.036626518
225	0xbeafb5c4	-0.34318364
226	0xbda8e8fd	-0.08247564
227	0x3e5671aa	0.20941797
228	0xbe9b92c8	-0.30385423
229	0xbefe6b28	-0.4969113
230	0x3d931e45	0.07183508
231	0x3eb7d3e3	0.35903844
232	0x3daf6bdc	0.085654944
233	0xbf023444	-0.50861
234	0x3e4b3dc0	0.19847775
235	0x3ed0f724	0.40813553
236	0x3d8188e8	0.06324941
237	0x3eb5bda9	0.35496262
238	0x3ebe4749	0.3716376
239	0xbe50ed45	-0.20403011
240	0x3e9d2eda	0.30699807
241	0x3e8b6fd8	0.27233768
242	0x3dd289b3	0.1028017
243	0xbee348ce	-0.44391483
244	0xbdf330e8	-0.118745625
245	0xbebe0826	-0.37115592
246	0xbe3bfd90	-0.18358445
247	0xbdc9592c	-0.09831461
248	0xbee7f6fa	-0.45305616
249	0x3dc5d694	0.09660068
250	0x3e4e068b	0.20119683
251	0x3ea0fb84	0.3144189
252	0x3eb23fb2	0.3481422
253	0x3ea5f998	0.32416987
254	0x3d7dc1e0	0.06195247
255	0xbda136c3	-0.07871773

fc2.weight f4 [256, 256]
0	0x3d265b76	0.040614568
1	0xbbfb2f52	-0.007665553
2	0xbcf651f4	-0.030068375
3	0xbde79edf	-0.11309599
4	0xbd1e6758	-0.038672775
5	0xbd6e7df4	-0.058225587
6	0xbce80ed4	-0.028327383
7	0x3cc4c3f8	0.024019226
8	0xbda984a1	-0.0827725
9	0xbdded27f	-0.10879993
10	0xbdc7d6c3	-0.097577594
11	0xbdd4dbda	-0.10393496
12	0x3bba12d0	0.005678512
13	0xbc80f8e0	-0.015743673
14	0x3cd39ee8	0.025832608
15	0x3c63a3a0	0.013893992
16	0xbd4fa35e	-0.05069291
17	0x3c622990	0.013803855
18	0xbcfb1fa2	-0.030654732
19	0xbdcaf782	-0.099104896
20	0xbd95f33e	-0.073217854
21	0xbca5da21	-0.020245614
22	0xbdbb8782	-0.091567054
23	0xbdad880e	-0.08473216
24	0xbcc1e6a3	-0.023669546
25	0xbd39722d	-0.045274902
26	0xbd474144	-0.048646227
27	0xbd7e9526	-0.062153958
28	0xbcc39d5b	-0.023878744
29	0xbd4619c3	-0.048364412
30	0x3b3bf226	0.0028678267
31	0x3d3f538e	0.046710543
32	0xbdeafd3f	-0.11474084
33	0x3d1f1b2a	0.038844265
34	0xbd2ccc2e	-0.04218691
35	0xbc0ae8f0	-0.008478388
36	0xbddb313a	-0.107027486
37	0xbd02ebe7	-0.031963255
38	0xbdb9bfa6	-0.09069757
39	0xbca0cbd4	-0.019628443
40	0xbdc7aa4d	-0.09749279
41	0x3d45e024	0.04830946
42	0xbd0b8512	-0.034062453
43	0xbc8422b0	-0.016129822
44	0xbdc4ef59	-0.096159644
45	0x3cdb1ef4	0.026748158
46	0xbcb90ab6	-0.022588115
47	0xbdcd49df	-0.100238554
48	0x3c5d1870	0.013494596
49	0xbc902ae3	-0.017598575
50	0xbb75d370	-0.003751006
51	0xbc1a25c8	-0.009408422
52	0xbd828d61	-0.06374622
53	0xbcaa9e88	-0.020827547
54	0xbd59d67a	-0.053183056
55	0xbd00d63e	-0.031454317
56	0x3d3cad48	0.04606369
57	0xbd57a016	-0.052642904
58	0xbd813ebf	-0.06310796
59	0xbd4dd87a	-0.050255276
60	0x3ba49400	0.005022526
61	0xbd1cc72e	-0.03827589
62	0xbda4496c	-0.080218166
63	0xbc90662c	-0.017626844
64	0xbda527f7	-0.08064263
65	0xbd9ef907	-0.07762342
66	0xbcef3681	-0.029200794
67	0xbd3ac004	-0.045593277
68	0xbaa1f777	-0.0012357075
69	0xbd499145	-0.049210805
70	0xbc41d110	-0.01182963
71	0xbd53d178	-0.051713437
72	0xbd8a4c17	-0.06752794
73	0xbd1cb7ba	-0.038261153
74	0x3d5af6e6	0.053458117
75	0x3c0cd278	0.008595102
76	0xbdd3dd96	-0.103449985
77	0xbdaafd9c	-0.083491534
78	0x3bb9527d	0.0056555853
79	0xbd12c478	-0.0358319
80	0x3d14ae9a	0.036299326
81	0xbca6bb50	-0.02035299
82	0xbb9c4ab0	-0.0047696456
83	0xbd997c2a	-0.074943855
84	0xbd4fb550	-0.050710022
85	0xbdbf0a31	-0.09328116
86	0xbd89370a	-0.06699951
87	0xbdc0c00a	-0.094116285
88	0x3c21b1e8	0.009869076
89	0xbd5838d8	-0.052788585
90	0x3d45ac04	0.04825975
91	0xbc821044	-0.015876897
92	0xbd8cc6a2	-0.06873824
93	0xbd2f3a56	-0.042780243
94	0xbc8ce673	-0.01719973
95	0xbae2df66	-0.001730901
96	0x3d1147f6	0.035469018
97	0x3c46e638	0.012139849
98	0x3d55b230	0.052171886
99	0xbdd22d3c	-0.10262534
100	0xbd0f3cde	-0.034970157
101	0xbc1c7a08	-0.009550579
102	0xbda680f3	-0.08130064
103	0xbc643c60	-0.01393041
104	0xbd4afe14	-0.049558714
105	0x3c867844	0.016414769
106	0x3b5f033b	0.0034029025
107	0xbc7ca318	-0.015419744
108	0xbcffe4e1	-0.031237068
109	0x3c538e48	0.01291234
110	0xbc9d9934	-0.019238092
111	0x3d3c96bc	0.04604219
112	0x3cf40338	0.029786691
113	0xbd358a08	-0.04432109
114	0xbd0c24fc	-0.03421496
115	0x3d2ad776	0.041709386
116	0xbd02a486	-0.031895183
117	0x3c8ea9f4	0.017415024
118	0xbcf147e4	-0.029453225
119	0xbcfa799c	-0.030575566
120	0x3d6c60ae	0.05770939
121	0x3a80d921	0.0009830334
122	0x3b890836	0.004181887
123	0xbc84aea7	-0.016196562
124	0x3d34654c	0.044041917
125	0x3d4eb6a4	0.05046715
126	0xbd11bde2	-0.035581477
127	0xbcd51c91	-0.026014598
128	0xbcd9b605	-0.026576051
129	0xbd945195	-0.07242123
130	0x3d32fd64	0.043698683
131	0xbd02b2a0	-0.03190863
132	0x3cc7d7d8	0.024394915
133	0xbd392f20	-0.045210958
134	0xbbdace80	-0.0066774487
135	0x3d1d6f2a	0.038436092
136	0xbcc04cb4	-0.023474075
137	0xbcabd104	-0.02097369
138	0xbcad2238	-0.02113448
139	0xbd38ddcc	-0.045133397
140	0xbd3584ea	-0.04431621
141	0x3c32eae0	0.010920256
142	0xbd90e811	-0.07075513
143	0xbd0ebf22	-0.034850247
144	0xbcb36930	-0.021900743
145	0xbcb3c4c6	-0.021944415
146	0xbcc97745	-0.024593005
147	0xbc355554	-0.011067707
148	0x3c386070	0.011253461
149	0xbd1c4d08	-0.0381594
150	0xbc7eabcc	-0.015543889
151	0xbdc7916e	-0.097445354
152	0xbd631890	-0.055443347
153	0xbd52b7e0	-0.051444888
154	0xbcf046dc	-0.029330663
155	0x3d0e5af4	0.03475471
156	0x393f611e	0.00018251358
157	0xbcd8f19c	-0.026482396
158	0xbc7762e8	-0.015099265
159	0x3d34daf2	0.044154115
160	0xbdb7b15f	-0.08969378
161	0xbde58fde	-0.11209081
162	0x3c1e21b0	0.009651586
163	0xbddd61af	-0.10809647
164	0xbd0ba370	-0.034091413
165	0xbd98b29c	-0.07455942
166	0xbd8300f6	-0.06396668
167	0x3d57bce6	0.052670382
168	0xbb156fe0	-0.0022802278
169	0x3d3b2892	0.045692988
170	0xbd9e7129	-0.07736427
171	0xbcab2031	-0.020889373
172	0xbd3d1077	-0.04615828
173	0x3cc7dff8	0.024398789
174	0xba999d24	-0.0011719805
175	0x3a1143c3	0.00055414083
176	0x3d1ce1fc	0.038301453
177	0xbdd9b5c5	-0.10630373
178	0x3ca01240	0.019539952
179	0xbd3c32ef	-0.04594701
180	0xbdc4d9a7	-0.096118264
181	0xbaeba948	-0.0017979527
182	0xbdd06fd3	-0.10177579
183	0xbd59337d	-0.05302762
184	0xbd9e74ec	-0.07737145
185	0xbd5ace8a	-0.053419627
186	0x3ba29d70	0.0049626157
187	0xbc296340	-0.010338604
188	0xbd0c8a01	-0.0343113
189	0x3ca827f0	0.020526856
190	0x3b8f7e90	0.004379101
191	0xbd7bfd7a	-0.06152103
192	0xbd9364c3	-0.07196953
193	0xbdd420e6	-0.103578374
194	0xbcaaadd5	-0.020834843
195	0x3a08f480	0.00052244216
196	0xbd97b6bd	-0.074079014
197	0xbd2e7ce2	-0.042599566
198	0xbceebd09	-0.029142873
199	0xbd2fa2e1	-0.042879943
200	0xbd4d4ac8	-0.050120145
201	0xbdd1a01a	-0.10235615
202	0xbb3baa00	-0.0028635263
203	0xbd5faa08	-0.054605514
204	0xbd925bb4	-0.07146397
205	0xbbd061df	-0.0063593234
206	0xbdef9898	-0.11699027
207	0xbccfafab	-0.02535232
208	0xbdd141d2	-0.10217632
209	0x3d124cce	0.035717778
210	0xbda18275	-0.07886211
211	0x3cc00574	0.0234401
212	0x3b8cbbf0	0.004294865
213	0xbd14ba44	-0.03631045
214	0xbc91e0f4	-0.017807461
215	0x3d61e43c	0.055149302
216	0x3b68e440	0.0035536438
217	0xbdcd5f69	-0.10027964
218	0xbdaff3df	-0.085914366
219	0xbd56dfac	-0.052459404
220	0xbce2706f	-0.027641503
221	0xbb84f8f0	-0.004057996
222	0xbca02210	-0.019547492
223	0xbd2ffb47	-0.042964246
224	0xbd8c3979	-0.068468995
225	0x3d14c58e	0.036321215
226	0x3b8efb50	0.004363455
227	0xbdcd9cc2	-0.10039665
228	0x3c76c0c0	0.015060604
229	0xbd17a060	-0.03701818
230	0xbc441147	-0.01196701
231	0xbd85e1ed	-0.065372325
232	0xbcbc4826	-0.022983622
233	0x3d4181ee	0.04724305
234	0xbc814e50	-0.015784413
235	0xbc90beb0	-0.017669052
236	0xbc9e26db	-0.019305637
237	0xbde6757f	-0.11252879
238	0xbcde336e	-0.027124133
239	0xbccb4700	-0.024814129
240	0xbcdd7854	-0.027034916
241	0xbdbf3291	-0.09335817
242	0xbdd39525	-0.103311814
243	0x3c7ebba8	0.01554767
244	0xbc8ef220	-0.017449439
245	0xbbe55100	-0.0069981813
246	0x3d0e6fd6	0.034774624
247	0x3b0d72c9	0.002158331
248	0x3d36d766	0.044639014
249	0xbc623f88	-0.013809092
250	0xbdab672a	-0.08369286
251	0x3d083276	0.03325125
252	0x3c80dc40	0.015730023
253	0xbdd84146	-0.10559325
254	0x3c7575d8	0.014981709
255	0xbbaa6b4f	-0.0052007805

fc2.bias f4 [256]
0	0xbd382dfa	-0.04496572
1	0xbdc3d530	-0.09562147
2	0xbdd0a35a	-0.10187407
3	0xbd4d7892	-0.050163813
4	0xbd8e2c6e	-0.06942068
5	0x3db4db92	0.08830942
6	0xbc92ce1d	-0.017920548
7	0xbd03e0b0	-0.0321967
8	0xbda458ef	-0.08024775
9	0xbd7c52a8	-0.061602265
10	0x3d549b4a	0.051905908
11	0xbd434978	-0.047677487
12	0x3b729f52	0.0037021232
13	0xbcb3a609	-0.021929758
14	0xbd8e9ca8	-0.069634736
15	0xbd18fb08	-0.037348777
16	0xbbd40409	-0.0064702076
17	0xbd7cf836	-0.06176015
18	0x3b5ce0e0	0.0033703372
19	0xbdd354ae	-0.10318886
20	0xbd20e714	-0.039282873
21	0xbd66ac90	-0.056316912
22	0xbd173cb0	-0.03692311
23	0xbbc5d660	-0.0060375184
24	0xbddb9ac5	-0.10722879
25	0xbd49015e	-0.04907357
26	0xbd522241	-0.0513022
27	0xbd9b6c02	-0.0758896
28	0x3a747e9e	0.0009326729
29	0xbd164de9	-0.036695395
30	0xbdeaf964	-0.11473349
31	0xbd45796a	-0.048211493
32	0xbd3b0538	-0.045659274
33	0xbddd964d	-0.10819683
34	0xbc805c67	-0.01566906
35	0xbdc0cf26	-0.094145104
36	0xbcc219bc	-0.023693912
37	0x3c765198	0.015034102
38	0xbca862bc	-0.020554893
39	0xbd700df7	-0.058607068
40	0xbd9e9718	-0.077436626
41	0xbdba2719	-0.090894885
42	0xbdd8a8e6	-0.1057909
43	0xbd8a68bb	-0.06758257
44	0xbcca5751	-0.024699839
45	0xbdda74f3	-0.106668375
46	0x3b40d28c	0.002942237
47	0x3d197f4a	0.037474908
48	0xbc1e37ee	-0.009656889
49	0xbc3db966	-0.011579847
50	0xbd933b62	-0.07189061
51	0xbdebc067	-0.11511307
52	0x3da751b2	0.08169879
53	0xbdad96fc	-0.084760636
54	0xbc93cb6e	-0.018041339
55	0xbd5a5bc6	-0.05331018
56	0x3c622b73	0.013804304
57	0xbd4a8f80	-0.04945326
58	0xbd09d7b2	-0.03365297
59	0xbc8fc8d5	-0.017551819
60	0xbd18b0e7	-0.037278082
61	0xbdf90eae	-0.12161003
62	0xbc70a7c1	-0.014688433
63	0xbd67035b	-0.056399684
64	0x3dfcb4ba	0.12339158
65	0xbcdec753	-0.027194655
66	0x3b156b34	0.0022799494
67	0xbdb05238	-0.08609432
68	0xbd3fbc3c	-0.046810374
69	0xbbe9b270	-0.007131867
70	0xbd889f2f	-0.06670987
71	0x3d7d470e	0.06183534
72	0xbdd63671	-0.104596026
73	0xbd2d9427	-0.042377617
74	0xbd540a38	-0.051767558
75	0xbb9349a9	-0.004494865
76	0xbd1c4ae1	-0.038157348
77	0xbc46394f	-0.012098624
78	0xbdd88321	-0.10571886
79	0xbc38dde1	-0.011283369
80	0xbd7ae1de	-0.06125056
81	0xbc052994	-0.008127589
82	0x3c3bc581	0.011460663
83	0xbc4cb4e4	-0.0124943
84	0xbdcb980c	-0.0994111
85	0xbdee867e	-0.11646746
86	0xbdaa5ecd	-0.08318863
87	0xbd095f99	-0.033538435
88	0x3e231047	0.15924178
89	0x3d72e140	0.059296846
90	0x3cfbc794	0.030734815
91	0xbc9b96cc	-0.018992804
92	0xbc1d5f07	-0.009605176
93	0xbd70b08d	-0.058762122
94	0xbd5619fb	-0.05227087
95	0xbd9f557d	-0.077799775
96	0xbd0ffbf1	-0.03515238
97	0xbdd69af9	-0.104787774
98	0xbdb567a0	-0.088576555
99	0xbd932fbb	-0.07186838
100	0xbd0e3715	-0.0347205
101	0xbdbecf5d	-0.09316895
102	0xbdc2f7f3	-0.09519949
103	0xbc9829db	-0.018574646
104	0xbdb91d7b	-0.09038826
105	0xbcd326b8	-0.025775298
106	0x3d9b52f1	0.07584179
107	0x3d414a38	0.04718992
108	0x3cb6cc17	0.022314114
109	0xb9a1afa4	-0.00030839175
110	0x3c8c96e4	0.017161794
111	0xbcc1822f	-0.023621647
112	0xbd62ca3c	-0.055368647
113	0xbdd30e27	-0.10305434
114	0xbd8e873a	-0.06959386
115	0xbdb28855	-0.087174095
116	0xbe0b9532	-0.13631132
117	0xbda5358d	-0.080668546
118	0x3d4d9caa	0.050198235
119	0xbccb8cbd	-0.024847383
120	0xbd0a11a4	-0.03370823
121	0xbbebe240	-0.007198602
122	0xbd1e591f	-0.03865921
123	0xbd58371a	-0.052786924
124	0xbc9da10c	-0.019241832
125	0xbdac3305	-0.08408169
126	0xbd622eb9	-0.05522034
127	0xbd964f98	-0.073394
128	0xbcd82c7d	-0.026388401
129	0xbc170b70	-0.0092190355
130	0xbc5f9210	-0.013645664
131	0xbd59fae9	-0.053217802
132	0xbd794f73	-0.060866784
133	0xbd4e2bb5	-0.05033465
134	0xbdaa6219	-0.08319492
135	0x3d72698e	0.059182696
136	0x3d8687da	0.065688804
137	0xbc97ad48	-0.018515244
138	0xbdc4e459	-0.09613866
139	0x3cb42700	0.021991253
140	0xbd54ae8b	-0.05192427
141	0x3bf48b76	0.007462914
142	0xbd7048cb	-0.05866317
143	0x3df74140	0.12072992
144	0x3dac0812	0.08399977
145	0xbd8f6c93	-0.07003131
146	0xbd300868	-0.042976767
147	0xbdacd4b9	-0.08439011
148	0xbbaaece6	-0.005216229
149	0xbdb538eb	-0.08848747
150	0xbcb1dd0c	-0.021711849
151	0xbd2f0d03	-0.04273702
152	0xbd81d3ca	-0.06339224
153	0x3ca8bf88	0.020599142
154	0xbd5d706f	-0.054062303
155	0x3d3aa746	0.04556968
156	0x3da5ac9e	0.08089565
157	0xbda165b2	-0.07880725
158	0xbd9305f9	-0.071788736
159	0xbceb31d4	-0.028710283
160	0x3ccfce20	0.025366843
161	0xbd9ba520	-0.075998545
162	0xbdd8625b	-0.10565635
163	0xbcc37122	-0.023857657
164	0x3d1d052c	0.03833501
165	0xbd3cf55b	-0.046132427
166	0x3d161788	0.036643535
167	0xbdc26bbc	-0.09493205
168	0xbcb6f5d4	-0.022334017
169	0xbd7edd91	-0.06222302
170	0xbd212d34	-0.03934975
171	0xbd462940	-0.048379183
172	0xbe1beb5a	-0.15226498
173	0x3e11a213	0.14221983
174	0xbcc9ff64	-0.024657913
175	0xbdf8b2be	-0.12143467
176	0x3de7e33f	0.11322641
177	0x3c774a90	0.015093461
178	0xbda53dd7	-0.08068436
179	0xbe1bcda7	-0.15215169
180	0xbda07e8c	-0.07836637
181	0xbd6ccdf0	-0.057813585
182	0xbd5e33da	-0.05424867
183	0xbbcf9150	-0.0063344613
184	0xbd72b05c	-0.05925022
185	0x3d675ecc	0.05648689
186	0x3be60b44	0.007020386
187	0xbc3fa36b	-0.011696677
188	0x3d1e9b9f	0.03872263
189	0xbd3b2a00	-0.04569435
190	0xbd9e6f28	-0.07736045
191	0xbd7630e8	-0.060105234
192	0xbd76e72a	-0.06027905
193	0xbba5385f	-0.0050421203
194	0xbdad4baf	-0.08461701
195	0xbd94ca17	-0.07265108
196	0x3cfe79b8	0.0310639
197	0xbd6276dc	-0.055289134
198	0x3d9a6729	0.075392075
199	0x3d6ac5d8	0.057317585
200	0x3c273228	0.010204829
201	0xbd70f20b	-0.05882458
202	0xbdab1ca2	-0.08355071
203	0xbd37ab91	-0.044841353
204	0xbd8b6be4	-0.06807688
205	0xbcfb7152	-0.030693684
206	0xbd67e9fc	-0.05661963
207	0xbd5fcc05	-0.054637928
208	0xbdead4cf	-0.11466371
209	0xbc361763	-0.011113974
210	0xbda8bb86	-0.08238892
211	0x3b1698e0	0.0022979304
212	0xbd42b012	-0.047531195
213	0xbb1f9e23	-0.0024355731
214	0xbdef6e7f	-0.11690997
215	0xbdc4637b	-0.09589287
216	0xbdbf243e	-0.093330845
217	0xbce49433	-0.027902698
218	0xbcf8e794	-0.030383863
219	0xbd1d891e	-0.038460843
220	0xbd49acd8	-0.049237102
221	0xbda9af2e	-0.08285366
222	0xbe3365eb	-0.17519347
223	0x3d28b6ac	0.041189834
224	0xbd9f088f	-0.07765304
225	0xbc58933b	-0.013218696
226	0xbd093ecd	-0.033507157
227	0xbde2512d	-0.11050639
228	0xbb4cb1b8	-0.0031233858
229	0xbd0e2a82	-0.034708507
230	0xbd034b17	-0.032054033
231	0xbd578e95	-0.05262621
232	0xbdb231d9	-0.08700914
233	0x3d996687	0.07490259
234	0xbdcc79ce	-0.0998417
235	0xbd5643a5	-0.052310605
236	0xbdaebc7a	-0.08532043
237	0xbd448307	-0.04797652
238	0xbdb9d147	-0.090731196
239	0xbd57ed1c	-0.05271636
240	0xbd2d6579	-0.0423331
241	0x3c1ed0d1	0.00969334
242	0xbd15e1d4	-0.03659232
243	0xbdb860cd	-0.09002838
244	0xbdd989e4	-0.10622004
245	0xbcdf34cc	-0.027246855
246	0xbc900f90	-0.017585546
247	0xbd649aed	-0.05581181
248	0xbd4c7926	-0.049920224
249	0xbd8dcc7c	-0.06923768
250	0xbc4092c9	-0.011753746
251	0xbd7300d4	-0.05932696
252	0xbd95c2b5	-0.07312528
253	0xbdd8f16b	-0.10592922
254	0xbd69c4ee	-0.057072572
255	0x3c0c35b0	0.008557722

fc3.weight f4 [256, 256]
0	0x3b862f60	0.004095003
1	0xbce25f30	-0.02763328
2	0x3c9033f0	0.01760289
3	0xbc870e14	-0.016486205
4	0x3c15bd38	0.009139352
5	0x3d85b0b4	0.06527844
6	0x3b6dc080	0.003627807
7	0x3d83c179	0.06433386
8	0x3da65c72	0.08123101
9	0xbccf4e6f	-0.025305955
10	0x3d098b40	0.033580065
11	0xbd676e6c	-0.05650179
12	0xbc9a6fc6	-0.018852126
13	0xbc5edbbe	-0.013602195
14	0xbd1c5942	-0.03817106
15	0x3cdabc70	0.026701182
16	0xbdb4d5be	-0.088298306
17	0xbd0d5f42	-0.034514673
18	0xbd140612	-0.0361386
19	0x3b85c520	0.004082337
20	0xbcfa59b8	-0.03056036
21	0xbc330cf8	-0.010928385
22	0x3d0f45dc	0.034978732
23	0x3cdc0860	0.026859462
24	0xbc101038	-0.008792929
25	0xbb82439e	-0.0039753458
26	0xbba81d50	-0.0051304474
27	0x3d6e7f38	0.058226794
28	0xbdf4cf90	-0.11953652
29	0xbd65944c	-0.05604963
30	0x3c9f9208	0.019478813
31	0x3c07a430	0.008278891
32	0x3d3f1384	0.04664947
33	0x3c81a510	0.015825778
34	0xbc09bb5b	-0.008406485
35	0x3c7fad00	0.015605211
36	0xbd25052a	-0.040288128
37	0xba288f00	-0.000643
38	0xbd1f5f88	-0.038909465
39	0x3d6ec808	0.058296233
40	0xbad7a5ba	-0.0016452589
41	0xbd70e49c	-0.05881177
42	0xbce0ffc6	-0.027465712
43	0xbe57df62	-0.21081308
44	0x3d970848	0.073746264
45	0xbd0f2e3a	-0.034956194
46	0xbe15c4e3	-0.14625888
47	0xbcf7adf8	-0.030234322
48	0xb811836a	-3.4693083e-05
49	0xbc477424	-0.012173686
50	0x3b470612	0.0030368608
51	0x3a92b20d	0.0011191979
52	0xbe10d898	-0.14145124
53	0x3d20c502	0.03925038
54	0x3d8846ca	0.06654127
55	0xbd3c3970	-0.045953214
56	0xbe87ac6f	-0.26498744
57	0xbd01576a	-0.031577505
58	0xbd6ff593	-0.058583807
59	0xbd0c7494	-0.034290865
60	0xbdd0e0eb	-0.1019915
61	0xbc0d3618	-0.008618854
62	0x3c0e3a82	0.008680942
63	0x3d326404	0.043552414
64	0x3d4f8405	0.050663013
65	0x3b692dc0	0.0035580248
66	0xbd173d34	-0.036923602
67	0xbde3d8da	-0.111253455
68	0xbc378340	-0.011200726
69	0xbc5fa1d0	-0.013649419
70	0xbd25d7a2	-0.040488847
71	0xbd6f67d6	-0.058448635
72	0xbd0c3e55	-0.034239132
73	0xbd367390	-0.044543803
74	0x3d83bfbb	0.06433054
75	0x3daea499	0.08527488
76	0xbc400bf8	-0.011721604
77	0xbd90a7c4	-0.07063249
78	0xbd365d51	-0.044522587
79	0xbc344e8b	-0.011005054
80	0xbd25454a	-0.040349282
81	0xbe1902d9	-0.14942493
82	0x3c730241	0.01483208
83	0x3d19e6c0	0.037573576
84	0x3bc5346b	0.0060182116
85	0xbc9a31e0	-0.01882261
86	0xbca2f7e4	-0.019893594
87	0xbd28b092	-0.041184016
88	0x3b0c6059	0.0021419732
89	0x3c02d4b0	0.007985279
90	0xbedeebd2	-0.43539292
91	0xbcb94404	-0.02261544
92	0x3d9d60c6	0.07684474
93	0xbd70df38	-0.058806628
94	0x3d031b36	0.032008372
95	0xbd361348	-0.04445198
96	0xbd1ad766	-0.037803076
97	0xbdc8130e	-0.097692594
98	0x3a98c900	0.0011656582
99	0xbdc1c656	-0.09461658
100	0xbe8dfa97	-0.27730247
101	0x3bca7ac4	0.0061791856
102	0x3d6c908a	0.05775503
103	0xbd54176b	-0.051780146
104	0xbd41ae52	-0.047285385
105	0xbdf8d943	-0.121508144
106	0xbcb15d0d	-0.021650815
107	0x3c87cc80	0.016577005
108	0xbe1a9688	-0.15096486
109	0xbc7a78f9	-0.015287631
110	0x3c6eca50	0.014574602
111	0x3c8fd000	0.017555237
112	0x3d85929b	0.065221034
113	0xbd0216f6	-0.03176018
114	0x3d13d9b8	0.036096305
115	0xbc055c44	-0.008139674
116	0xbcd0a010	-0.025466949
117	0x3dc614ff	0.096719734
118	0xbe4cbcbe	-0.19993874
119	0xbd5a0efc	-0.053236946
120	0xbd6f6e14	-0.058454588
121	0x3cb7a20c	0.022416137
122	0xbd153814	-0.036430433
123	0xbd1e561e	-0.038656346
124	0xbc92f3f0	-0.017938584
125	0x3c17f3a9	0.009274402
126	0xbd56d808	-0.052452117
127	0x3d2aa96e	0.041665487
128	0xbcba5021	-0.022743287
129	0xbd78af42	-0.060714014
130	0xbc6eeb50	-0.01458247
131	0xbd64ed33	-0.055890273
132	0xbdceead6	-0.10103385
133	0x3ceff830	0.02929315
134	0x3dc7b9f2	0.09752263
135	0x3d5421ce	0.05179005
136	0x3dbe62e7	0.09296208
137	0xbc28f3b8	-0.010312013
138	0xbda525da	-0.0806386
139	0xbc6054b0	-0.013692066
140	0x3d72af88	0.05924943
141	0x3b1c5bd6	0.002385845
142	0xbcca202e	-0.024673548
143	0x3d64d099	0.055862997
144	0x3d4e6294	0.05038698
145	0xbdb15900	-0.086595535
146	0x3b9ad820	0.004725471
147	0x3d16e294	0.036837175
148	0x3c205ca0	0.0097877085
149	0x3c247560	0.01003775
150	0xbd7f145e	-0.062275283
151	0xbc8c5bcf	-0.017133621
152	0xbd2cb2c0	-0.042162657
153	0xbdea6ab9	-0.11446137
154	0xbdd0c70a	-0.10194214
155	0x3cffe448	0.031236783
156	0x3e0abb88	0.135481
157	0x3cb294c8	0.02179946
158	0x3d635b7e	0.055507176
159	0x3d23b4b2	0.039967246
160	0x3ddeebad	0.10884795
161	0x3c04bd98	0.008101843
162	0xbcab1740	-0.02088511
163	0xbc1cbd70	-0.00956665
164	0xbe7f1aeb	-0.24912612
165	0x3d4dfb64	0.050288573
166	0xbd07394e	-0.033013634
167	0xbd40f637	-0.04710981
168	0xbd7348fa	-0.059395768
169	0xbbc7b2c0	-0.0060943067
170	0x3d1a14a8	0.037617356
171	0xba2b5700	-0.00065360963
172	0xbc7029e5	-0.014658426
173	0x3dd28762	0.102797285
174	0xbcfce0d8	-0.030868933
175	0xbd78f1cc	-0.06077747
176	0x3d4a7fd4	0.049438313
177	0xbb789c03	-0.0037934787
178	0x3d345cba	0.044033743
179	0xbd01558c	-0.031575724
180	0x3d9dc886	0.077042624
181	0xbd97fdd6	-0.07421462
182	0x3d7b056e	0.061284475
183	0xbd459792	-0.04824025
184	0xbdc1e662	-0.0946777
185	0xbcaa4b3c	-0.020787828
186	0xbdb32816	-0.0874788
187	0xbbcabc91	-0.0061870296
188	0xbdd1a242	-0.10236026
189	0xbd5de566	-0.05417385
190	0x3bea3cf1	0.007148378
191	0xbd1218da	-0.03566823
192	0x3c87d810	0.016582519
193	0xbdcb1a59	-0.09917135
194	0xbd57130c	-0.0525084
195	0xbd35a6ba	-0.044348456
196	0xbd18c994	-0.037301615
197	0xbc1359d0	-0.008993581
198	0x3c0da6ed	0.008645755
199	0x3c230d68	0.009951927
200	0xbd4d3a9c	-0.050104722
201	0xba29bdb7	-0.0006475108
202	0x3de37153	0.11105599
203	0xbd9ba780	-0.076003075
204	0xbd6fdb5a	-0.0585588
205	0x3d1c4730	0.038153827
206	0xbd5d107e	-0.053970806
207	0xbd1847d8	-0.03717789
208	0x380ed461	3.405323e-05
209	0xbde48743	-0.111586116
210	0x3d5eae66	0.054365538
211	0x3cc98300	0.024598598
212	0xbd916706	-0.07099728
213	0xbc14cf40	-0.009082615
214	0x3d5fb51a	0.05461607
215	0x3d46b05b	0.04850803
216	0xbd9cfdf2	-0.07665624
217	0xbce8eabc	-0.028432243
218	0x3d32e5bf	0.043676134
219	0xbc8e5758	-0.017375633
220	0xbd31670a	-0.043311156
221	0x3d6ab498	0.057301134
222	0xbd1cc574	-0.038274243
223	0x3d48b7f8	0.04900357
224	0x3d0f6b27	0.035014298
225	0xbd3d54d9	-0.046223495
226	0xbcd908a0	-0.02649337
227	0x3bbe140c	0.0058007296
228	0x3d009630	0.03139323
229	0x3cde47d7	0.027133865
230	0xbce99d8c	-0.028517507
231	0xbd625c80	-0.055263996
232	0x3c24a0c8	0.010048099
233	0x3db0947d	0.08622072
234	0xbc7ba328	-0.015358724
235	0x3cce569c	0.025187783
236	0xbd98f756	-0.074690506
237	0xbd060053	-0.032715153
238	0x3d24f537	0.040272918
239	0x3d538090	0.05163628
240	0x3d289dff	0.0411663
241	0x3b9120b7	0.0044289487
242	0x3cf537ac	0.029933773
243	0xbd7ab4c8	-0.061207563
244	0xbdd840c1	-0.10559226
245	0xbd218484	-0.039433017
246	0x3d1c47e6	0.038154505
247	0x3d20e8e8	0.039284617
248	0x3d2377cc	0.03990917
249	0x3d69bb1e	0.057063214
250	0x3c939cb4	0.018019058
251	0xbd1eca34	-0.038767055
252	0xbdcf93fb	-0.10135647
253	0x3825d51d	3.9537543e-05
254	0x3cbc1ac8	0.022961989
255	0x3cf2b8c4	0.029629119

fc3.bias f4 [256]
0	0x3c06902b	0.008213083
1	0xbe6fca6c	-0.23417062
2	0xbcf172cf	-0.02947369
3	0xbdf20e15	-0.11819092
4	0xbc8ace42	-0.016944055
5	0x3d3c0033	0.045898627
6	0xbddbacea	-0.1072634
7	0x3e2a97b3	0.16659431
8	0xbd8478b2	-0.06468333
9	0xbdce9a2b	-0.10087999
10	0x3d52b000	0.051437378
11	0xbd38bb3b	-0.045100432
12	0xbc4adce5	-0.012381767
13	0xbcc36860	-0.02385348
14	0xbd9bbfde	-0.07604955
15	0x3e4dcaa2	0.2009683
16	0xbe0e84f1	-0.139179
17	0x3e182443	0.14857583
18	0x3deac467	0.11463242
19	0xbd6ac379	-0.057315324
20	0xbdceadea	-0.10091765
21	0x3d121aa0	0.035669923
22	0x3e538edb	0.20659964
23	0xbd9deaa8	-0.07710773
24	0xbca75c41	-0.020429732
25	0xbd921eb9	-0.07134766
26	0xbdb9c642	-0.09071018
27	0xbe2e7dcb	-0.17040174
28	0xbe04fbe3	-0.12986712
29	0xbd0a2bd4	-0.033733204
30	0xbcec7c6d	-0.028867925
31	0xbdba364d	-0.09092388
32	0xbdbcfac7	-0.092275195
33	0xbd67c52a	-0.056584515
34	0x3e084346	0.13306913
35	0xbe19b529	-0.15010513
36	0x3b59f4fa	0.003325759
37	0xbd1781e6	-0.036989115
38	0xbde1698a	-0.11006458
39	0x3e717864	0.23581082
40	0xbd822503	-0.06354716
41	0xbc906b68	-0.01762934
42	0x3b07e725	0.0020737138
43	0xbc785868	-0.015157796
44	0x3d508e33	0.05091686
45	0xbd119443	-0.035541784
46	0x3dcf0944	0.10109189
47	0xbbbed232	-0.005823397
48	0xbdcc33ef	-0.09970843
49	0x3d8f2aac	0.06990561
50	0xbd660d1e	-0.056164853
51	0x3cc7ad3a	0.024374593
52	0xbde14f62	-0.11001469
53	0x3e841c6f	0.25802943
54	0x3cca7ce0	0.024717748
55	0xba1446c3	-0.0005656296
56	0xbdf1aed1	-0.11800922
57	0x3d979486	0.074013755
58	0xbd3b5834	-0.045738414
59	0x3ddfd3d7	0.10929077
60	0x3c2b20e8	0.010444857
61	0xbda1122a	-0.07864793
62	0xbdb9610c	-0.09051713
63	0xbe14fc05	-0.14549263
64	0xbce43ff4	-0.027862526
65	0x3dc5ae33	0.096523665
66	0xbddd1eab	-0.10796865
67	0x3c2300c1	0.00994891
68	0xbbe729b6	-0.007054533
69	0xbcbcd073	-0.023048615
70	0xbde3b61c	-0.11118719
71	0xbd82f38e	-0.063941106
72	0xbdb709f6	-0.08937447
73	0xbd9ed45b	-0.07755347
74	0x3d87174b	0.0659624
75	0xbdd8a8e1	-0.10579086
76	0x3cd1941c	0.02558332
77	0x3c8f1f06	0.017470848
78	0xbdbb6c67	-0.091515355
79	0xbd4e2dc6	-0.05033662
80	0xbda08793	-0.07838359
81	0xbdf3cfe7	-0.119048886
82	0x3d6e6c13	0.058208536
83	0x3d0ff35d	0.0351442
84	0xbdb7060a	-0.08936699
85	0xbdf5e624	-0.120067865
86	0xbdba9536	-0.09110491
87	0xbdb14ec0	-0.086575985
88	0x3e987e5a	0.297839
89	0x3c257517	0.010098717
90	0xbd8b12e7	-0.06790715
91	0xbd0546cd	-0.032538224
92	0xbd16c6d3	-0.036810707
93	0xbdb5c779	-0.08875937
94	0xbdd13334	-0.10214844
95	0xbe08f583	-0.13374905
96	0xbd68eae3	-0.05686463
97	0xbe0199e2	-0.12656358
98	0x3d86c0d0	0.06579745
99	0xbd499229	-0.049211655
100	0xbdba8ebe	-0.09109257
101	0xbd65f21d	-0.0561391
102	0xbd7d3932	-0.061822124
103	0xbd5aa6b0	-0.05338162
104	0xbcc6460c	-0.024203323
105	0xbd0aff8c	-0.033935115
106	0xbe28bf64	-0.1647926
107	0xbd18f937	-0.037347045
108	0xbd3da0aa	-0.0462958
109	0x3e2cac93	0.16862707
110	0xbc5efa68	-0.013609506
111	0xbddf2588	-0.108958304
112	0xbbf0164b	-0.0073268763
113	0xbdf15860	-0.11784434
114	0xbde1d784	-0.110274345
115	0xbda5bd8e	-0.08092795
116	0xbd8dabdc	-0.06917545
117	0xbd77e984	-0.060525432
118	0xbdf3e730	-0.1190933
119	0xbbf094e9	-0.00734197
120	0xbdc6af29	-0.09701378
121	0xbd4d66b6	-0.05014678
122	0xbdfb9842	-0.122849
123	0x3e5cf76e	0.21578762
124	0x3d5ab58e	0.0533958
125	0xbbfb86cc	-0.007675981
126	0xbded0ee3	-0.11575105
127	0x3d96ce47	0.07363563
128	0x3942fdf9	0.00018595894
129	0xbd64c37c	-0.05585049
130	0xbcb7c0b9	-0.022430765
131	0x3dc07fe8	0.09399396
132	0xbd7bd941	-0.061486486
133	0x3c6b2318	0.014351629
134	0xbd88e05a	-0.06683417
135	0x3e258eeb	0.161678
136	0xbdc94985	-0.09828476
137	0xbd77f235	-0.06053372
138	0xbd8f1d40	-0.06988001
139	0xbd53918b	-0.051652472
140	0x3e5fb8e5	0.21847875
141	0x3e37ada0	0.17937326
142	0xbe1fff0a	-0.15624633
143	0xbdf9c019	-0.12194843
144	0xbc290e8a	-0.010318408
145	0xbd837b26	-0.06419973
146	0xbc6ed076	-0.014576068
147	0xbba3f93a	-0.0050040754
148	0xbda524ac	-0.08063635
149	0xbda50371	-0.08057297
150	0xbd0593bd	-0.032611597
151	0x3e7e8771	0.24856354
152	0xbd48a9bc	-0.048989996
153	0x3cf78f9b	0.030219844
154	0xbd99bdad	-0.07506881
155	0x3dd5b0cd	0.10434113
156	0xbc9b83a0	-0.018983662
157	0xbe4a68dd	-0.19766565
158	0xbc49bba4	-0.012312803
159	0xbdbf57ff	-0.09342956
160	0x3e3184c2	0.173358
161	0xbd5bf1ab	-0.05369727
162	0xbdbee644	-0.093212634
163	0xbdc0c6dc	-0.094129294
164	0xbd5cce4d	-0.05390768
165	0xbc82d5f0	-0.015971154
166	0xbd95c273	-0.07312479
167	0xbb6c76c2	-0.0036081527
168	0xbd9fc01f	-0.07800316
169	0xbda5ad1a	-0.08089657
170	0x3d533561	0.051564578
171	0xbd5c8ebf	-0.05384707
172	0xbd152515	-0.036412317
173	0xbdda3e03	-0.10656359
174	0xba0903ba	-0.00052266906
175	0x3ba29405	0.004961493
176	0x3be3ca77	0.006951626
177	0xbd4476a1	-0.047964696
178	0xbdce1899	-0.100632854
179	0xbdc664f3	-0.09687223
180	0xbd3a299b	-0.045449834
181	0xbdf7527c	-0.120762795
182	0xbe2af6c5	-0.16695698
183	0xbe2c5359	-0.1682867
184	0x3e17f0e1	0.14837982
185	0xbb7b27dc	-0.0038323319
186	0xbc06f84c	-0.0082379095
187	0xbbe572f2	-0.007002228
188	0xbd421678	-0.04738471
189	0xbcaaf6dd	-0.020869667
190	0xbd9ef8b3	-0.07762279
191	0x3e87eb43	0.26546678
192	0x3e0890a4	0.13336426
193	0xbd141869	-0.03615609
194	0x3e0af16f	0.13568662
195	0xbd02ca1c	-0.031931028
196	0xbd05399f	-0.032525655
197	0xbdb659d9	-0.08903856
198	0xbcd74d7e	-0.026282068
199	0xbd5f922c	-0.05458276
200	0x3e13ff5a	0.14452878
201	0x3dfeac0f	0.12435161
202	0xbddd584e	-0.108078584
203	0x3d69459f	0.05695116
204	0xbd929d9e	-0.07158969
205	0xbdd3eabc	-0.103475064
206	0xbdae8d90	-0.08523095
207	0xbe118145	-0.14209469
208	0xbd7c8026	-0.06164565
209	0xbc99c897	-0.018772407
210	0xbca618e7	-0.020275546
211	0x3e28e757	0.16494499
212	0xbd335942	-0.043786295
213	0xbdb95a20	-0.09050393
214	0xbdd276d2	-0.102765694
215	0xbdbd43b4	-0.09241429
216	0x3d8e64a7	0.06952792
217	0x3be632dc	0.007025106
218	0xbca154c9	-0.019693749
219	0xbde3da34	-0.11125603
220	0xbcec6604	-0.028857239
221	0xbd492218	-0.04910478
222	0x3d0c6f90	0.03428608
223	0xbdbf7f0d	-0.09350405
224	0xbc09236c	-0.008370262
225	0xbd2aa011	-0.041656557
226	0x3dc1f886	0.0947123
227	0xbe1679bc	-0.14694875
228	0xbdcb2d4f	-0.09920751
229	0xbcb89992	-0.022534166
230	0x3b101c0e	0.0021989378
231	0xbd037466	-0.032093428
232	0xbd4a53bc	-0.04939626
233	0x3d1e54ee	0.038655214
234	0x3e3b33a3	0.18281417
235	0x3d0dd265	0.034624476
236	0xbdd9b78b	-0.10630711
237	0xbcb173aa	-0.021661598
238	0xbdf4b8f5	-0.1194934
239	0xbd48d5f3	-0.049032163
240	0x3cbacc9f	0.022802649
241	0xbd633cfa	-0.055478074
242	0x3e28ffad	0.16503783
243	0xbd94943a	-0.072548345
244	0x3e088e7b	0.13335602
245	0xbc72e8c7	-0.014826006
246	0xbdd09d72	-0.1018628
247	0xbddf225f	-0.10895228
248	0x3d89a1a7	0.06720286
249	0xbd3210a6	-0.04347291
250	0xbda58509	-0.08082015
251	0x3e56fb9b	0.20994417
252	0xbdc46512	-0.0958959
253	0xbd38fcdc	-0.04516302
254	0x3e5b6fa9	0.21429314
255	0xbe11ab1e	-0.14225432

classifier.weight f4 [16, 256]
0	0xbe38d965	-0.1805168
1	0xbdb14ff6	-0.086578295
2	0xbe59dda4	-0.21275955
3	0x3dda1400	0.10648346
4	0xbb9a395d	-0.0047065453
5	0xbb87fe1f	-0.0041501666
6	0xbd207aec	-0.039179727
7	0xbea081ff	-0.3134918
8	0x3cdf556f	0.027262418
9	0xbd051a75	-0.032495935
10	0x3d20092b	0.039071243
11	0xbdab99bf	-0.08378934
12	0x3ce60225	0.028077194
13	0x3d02b52c	0.03191106
14	0x3d931e26	0.07183485
15	0xbe81faa0	-0.25386524
16	0xbda3423a	-0.07971616
17	0xbd905aeb	-0.07048591
18	0xbe9caab0	-0.30598974
19	0xbe18aa5f	-0.14908741
20	0xbd9fab00	-0.077962875
21	0xbde0527b	-0.10953232
22	0xbe1abda8	-0.1511141
23	0x3da0fa88	0.07860285
24	0xbbc86123	-0.006115095
25	0x3a4f5f52	0.0007910627
26	0xbdfc8109	-0.12329299
27	0x3df23b4a	0.11827715
28	0xbe248a7e	-0.16068456
29	0xbe4b6726	-0.19863567
30	0xbdbde23f	-0.09271669
31	0xbbf13390	-0.007360883
32	0x3d853727	0.0650466
33	0x3b9a21ec	0.004703751
34	0x3d6dcb33	0.058055114
35	0xbe2b4c30	-0.16728282
36	0xbcb5d4f6	-0.022196274
37	0xbc32fcec	-0.010924559
38	0x3dc35ecd	0.09539566
39	0xbf29bca2	-0.66303456
40	0xbdcaf49a	-0.09909935
41	0xbe464f73	-0.19366245
42	0xbb9d8541	-0.004807145
43	0x3c89819f	0.016785441
44	0xbdbf8b53	-0.09352746
45	0xbaabfd0b	-0.0013121677
46	0xbe184d3c	-0.14873213
47	0xbd449230	-0.047990978
48	0xbd5cfc80	-0.05395174
49	0xbe5713e2	-0.21003678
50	0xbcc54794	-0.024081983
51	0xbe10702e	-0.14105293
52	0x3d50e016	0.050994955
53	0xbdfabe4b	-0.12243327
54	0xbd22d33c	-0.03975223
55	0x3d07c6a9	0.03314844
56	0x3dc912a0	0.098180056
57	0xbd57fb63	-0.052729975
58	0x3d91d42b	0.07120546
59	0xbe491700	-0.1963768
60	0x3caea220	0.021317542
61	0xbdce770a	-0.10081299
62	0xbbb90faa	-0.0056476193
63	0x3e43c9cd	0.1911995
64	0xbdac28c9	-0.08406217
65	0xbeb17361	-0.3465834
66	0x3c0ce46f	0.008599385
67	0x3da8fffa	0.08251949
68	0xbe6c80f0	-0.23096061
69	0xbd01c5a1	-0.031682614
70	0xbda5869c	-0.08082315
71	0x3d916143	0.07098629
72	0xbe010216	-0.12598452
73	0xbd55fed6	-0.052244984
74	0xbe4a5183	-0.19757657
75	0xbe2087fe	-0.15676877
76	0xbc40906f	-0.011753186
77	0xbd9d372c	-0.07676539
78	0x3cbf5c1f	0.023359356
79	0xbd60acc2	-0.054852255
80	0xbb03db2e	-0.0020119655
81	0xbdc837f8	-0.097763
82	0xbe38c00e	-0.18042013
83	0xbd95b62f	-0.073101394
84	0x3cb5336a	0.022119243
85	0x3d1c60d6	0.038178287
86	0x3da11054	0.078644425
87	0xbc2b592f	-0.010458275
88	0xbeb8ca42	-0.3609181
89	0x3c3302c4	0.010925952
90	0x3d328e03	0.043592464
91	0xbdc58a93	-0.096455716
92	0xbd22054b	-0.03955583
93	0x3c5edd97	0.013602636
94	0x3d7a3f25	0.061095376
95	0xbdd8e53b	-0.10590597
96	0x3db557dd	0.08854649
97	0x3db4e0f2	0.088319674
98	0xbe29ce93	-0.16582708
99	0x3dbdd3f6	0.09268944
100	0xbd8692fc	-0.06571004
101	0x3c0a2f7e	0.008434175
102	0xbd90ba40	-0.07066774
103	0xbddc4236	-0.10754816
104	0x3d796a72	0.06089253
105	0xbd6b6b8f	-0.057475623
106	0xbd20425f	-0.039125796
107	0x3dff8f33	0.12478485
108	0x3b21beab	0.0024680297
109	0xbdb1a9f2	-0.086749926
110	0xbd6eca40	-0.05829835
111	0xbbac0f65	-0.0052508586
112	0xbdbb00eb	-0.091310345
113	0x3d888547	0.06666046
114	0x3da16978	0.07881445
115	0x3d707fc1	0.058715586
116	0xbd0c8de5	-0.03431501
117	0x3d01f2ae	0.031725578
118	0xbc2f58c0	-0.010702312
119	0x3cebec59	0.028799223
120	0xbd2b4cf6	-0.041821443
121	0xbdd85f63	-0.105650686
122	0x3d1bd765	0.038047213
123	0xbe46e685	-0.19423874
124	0xbe2939fb	-0.16526024
125	0x3b0d8520	0.0021594241
126	0x3e05a090	0.13049531
127	0xbe3e7ea1	-0.18602993
128	0xbdde79dc	-0.108630866
129	0xbdb1669c	-0.08662149
130	0xbbdb687f	-0.0066958065
131	0xbd5d290d	-0.053994227
132	0x3d8abe9a	0.067746356
133	0xbe339317	-0.17536579
134	0x3db58973	0.08864107
135	0xbefb79f1	-0.4911647
136	0xbdfd6b8f	-0.12374031
137	0xbde84999	-0.11342163
138	0xbd70ed3d	-0.058819998
139	0x3ca554a0	0.020181954
140	0xbeac7b66	-0.33687896
141	0xbddb1fc6	-0.1069942
142	0x3e044eb6	0.12920651
143	0x3ceffec6	0.02929629
144	0xbccbf6ef	-0.02489802
145	0xbd2dd8ae	-0.04244297
146	0x3d974641	0.07386447
147	0xbe0b8509	-0.13624968
148	0xbd67dc81	-0.056606773
149	0xbd404d06	-0.046948455
150	0xbd9d0f73	-0.07668962
151	0xbeb2b965	-0.3490707
152	0xbdbf8f2e	-0.09353481
153	0xbe28cafa	-0.1648368
154	0x3c27e965	0.010248517
155	0x3d2725dc	0.04080759
156	0xbd763ef6	-0.060118638
157	0x3e48e613	0.19619016
158	0x3d37ae21	0.044843797
159	0xbe451140	-0.19244862
160	0xbe4b98ea	-0.19882551
161	0xbde74250	-0.11291945
162	0x3d610ba9	0.05494276
163	0x3e01f2df	0.12690304
164	0xbba49e9d	-0.005023791
165	0x3db8eda0	0.09029698
166	0xbd20a0d5	-0.03921588
167	0xbc707c9d	-0.014678148
168	0xbcf175fd	-0.029475207
169	0x3c7f3515	0.015576621
170	0xbe3c6af2	-0.18400171
171	0xbd932455	-0.07184664
172	0x3dc862c6	0.097844645
173	0xbd82d916	-0.06389062
174	0xbc988572	-0.01861832
175	0xbe03c7e3	-0.1286922
176	0x3cf74267	0.03018303
177	0x3dbfe1c7	0.093692355
178	0xbd118250	-0.035524666
179	0x3dda716e	0.10666166
180	0x3d508b15	0.05091389
181	0x3c77d0f7	0.015125505
182	0x3de9626b	0.11395725
183	0xbddd0048	-0.10791069
184	0xbdc1fd18	-0.09472102
185	0xbd83aa2a	-0.064289406
186	0x3d5ff0a1	0.05467284
187	0x3caf5a2a	0.021405298
188	0xbd8f04f9	-0.0698337
189	0x3dfe7f59	0.124266334
190	0x38014efd	3.082956e-05
191	0xbeed9ab4	-0.46407092
192	0xbe0a1f88	-0.1348859
193	0x3bd749d1	0.006570079
194	0xbe4b3213	-0.1984332
195	0xbac57a80	-0.0015066415
196	0xbdda142a	-0.10648377
197	0x3d1f7b2f	0.038935836
198	0xbd699a3d	-0.05703186
199	0xbdb33989	-0.08751208
200	0xbeeaba2f	-0.45845172
201	0xbdc7cd5e	-0.097559676
202	0x3e11e809	0.1424867
203	0xbde3edb9	-0.111293264
204	0x3d76eeb9	0.060286257
205	0x3c978e86	0.018500578
206	0x3d34011b	0.043946367
207	0x3e22d159	0.15900172
208	0xbe22d51e	-0.1590161
209	0xbd8cbfd9	-0.068725295
210	0xbd9271c3	-0.071506046
211	0xbea68de9	-0.32530144
212	0xbddb33b1	-0.10703219
213	0x3e07c0ad	0.13257094
214	0x3d9bbc35	0.07604257
215	0xbdb30806	-0.08741765
216	0x3adee1bc	0.001700453
217	0xbdfae422	-0.12250544
218	0x3d2177f5	0.03942104
219	0x3df03763	0.11729314
220	0xbcb80308	-0.022462383
221	0xbe379edc	-0.17931694
222	0x3d3a092c	0.045418903
223	0x3d5fa5d1	0.054601494
224	0xbd824893	-0.06361499
225	0x3d09a08e	0.033600383
226	0x3cb0897c	0.021549933
227	0x3e05f9e4	0.13083607
228	0x3db58325	0.088629045
229	0x3c6544a1	0.013993413
230	0x3c389338	0.011265568
231	0x3d0697e7	0.03285971
232	0xbd385fbe	-0.045013182
233	0x3d509858	0.050926536
234	0xbda50ca0	-0.08059049
235	0xbcedf1ff	-0.029046057
236	0xbdd11bd8	-0.10210389
237	0x3d11dca1	0.0356108
238	0x3c13cfd0	0.009021714
239	0xbd3c366b	-0.045950335
240	0x3d146ea1	0.036238316
241	0xbde2d840	-0.11076403
242	0xbe22c7d2	-0.15896538
243	0xbe171fcd	-0.14758225
244	0xbdf87ff7	-0.12133782
245	0xbde78573	-0.1130475
246	0xbd4f157c	-0.0505576
247	0x3c97cf38	0.018531427
248	0x3c3c7f2b	0.011504929
249	0x3cb396dc	0.021922521
250	0xbcfa4064	-0.030548282
251	0xbe8931f1	-0.26795915
252	0x3d4c9a55	0.04995187
253	0x3d8ad6af	0.06779229
254	0xbe0b3246	-0.13593397
255	0xbd113a98	-0.03545627

classifier.bias f4 [16]
0	0xbe5336f2	-0.20626429
1	0xbdb744b5	-0.08948652
2	0xba7eed6a	-0.00097247085
3	0x3d5141b3	0.051088046
4	0x3c3a7e9b	0.011382724
5	0x3d4c410c	0.04986672
6	0x3d205009	0.039138827
7	0x3dafa04d	0.08575497
8	0x3dbbbe50	0.091671586
9	0x3d53b572	0.05168671
10	0x3d84f5b2	0.06492175
11	0x3df3c35a	0.11902495
12	0x3d8298d4	0.06376806
13	0xbd39723d	-0.04527496
14	0xbdd91338	-0.10599369
15	0xbe5ae84d	-0.21377678
