transfer17_22_54_22_10_12_FullyConnected.pth (torch, 550959 bytes, 8 tensors)

fc1.weight f4 [256, 4]
000000 ad e5 bd 3e 53 21 0c 3f 6b e3 c5 be b7 e3 9c 3d
       0.3708929 0.5473835 -0.3865007 0.07660621
000010 69 55 21 3d c6 c8 1a bf 9d b9 8e be 67 0c 49 be
       0.039388094 -0.60462606 -0.27875987 -0.19633637
000020 b0 c7 07 bf b8 cc 0f 3f 21 3f 0c be 7d 4e 82 3e
       -0.53039074 0.5617175 -0.13695957 0.25450507
000030 60 c8 f5 3e 3c 98 fd be 4e d4 a0 3b 5b 5c d9 3d
       0.48004436 -0.49530208 0.004908121 0.106133185
000040 ec 66 80 3e 5d 7d f3 3d 07 1f 57 3c eb 24 02 bf
       0.25078523 0.118891455 0.013129956 -0.5083758
000050 4a 87 8b be 65 4a 05 3f bd ec 29 3f d8 99 20 3e
       -0.27251655 0.5206664 0.6637686 0.15683687
000060 09 90 7a 3e ec 76 23 3f ae 76 b1 3e a9 ab 30 3e
       0.24469008 0.63853335 0.34660858 0.17252983
000070 66 af 09 be 81 66 29 3f 83 aa 77 3e c9 9d 81 3e
       -0.13445815 0.66172034 0.24186139 0.25315693
000080 0e f2 c4 3e 73 5c d0 be 33 98 b5 bd f4 cf 3a 3e
       0.38465923 -0.40695533 -0.0886692 0.1824339
000090 86 7d 96 be d8 5f 54 3e 30 ce 86 be 2c bf 90 be
       -0.29392642 0.20739686 -0.26329184 -0.28270853
0000a0 6a 3f d8 be b8 41 87 3d b4 37 99 3e 60 38 ec bc
       -0.4223588 0.06604332 0.2992531 -0.028835475
0000b0 e2 4b 48 3d b8 a9 cc be 84 3b 45 be 55 bc 69 3e
       0.048900492 -0.39973235 -0.19260985 0.22825749
0000c0 1c cd d4 be 42 c3 e8 be a8 54 ae be ea 86 eb be
       -0.41562736 -0.4546147 -0.34048963 -0.4600137
0000d0 b9 e5 bd 3e a3 55 e8 be 02 ea 1a bf 54 c9 cb be
       0.37089327 -0.45377836 -0.6051332 -0.3980204
0000e0 62 ac 48 3e ee 31 31 bd de fb cb bd 29 94 f0 be
       0.19597009 -0.043260507 -0.09960149 -0.46988037
0000f0 fa b9 ca be 14 9d 7b 3e dc be ed be 50 3a 00 be
       -0.39595014 0.2457164 -0.46434677 -0.12522244
000100 b1 e6 ce 3d db 83 33 be 8a 8c d9 3e b4 4d 86 be
       0.10102595 -0.17530768 0.42490035 -0.26231158
000110 79 7f 9a 3e 25 0c a0 be 5e c5 21 bf 3c d0 c4 bd
       0.3017538 -0.31259266 -0.63191783 -0.0961003
000120 2d 05 8a be 96 96 06 3f 78 e5 26 3f 4b 65 d1 3e
       -0.26957074 0.52573526 0.6519389 0.40897593
000130 98 d3 b7 bd a8 87 23 be 98 f2 76 be 84 6c 6d be
       -0.08975905 -0.15969718 -0.2411598 -0.23185927
000140 cb 9b 41 bd 4a bb 02 3f f2 67 1b 3f 09 25 c9 be
       -0.047267716 0.5106703 0.6070548 -0.39286068
000150 59 8e 87 be 4b ca 01 bc a7 f8 68 bd a6 6e cf 3c
       -0.2647579 -0.007921766 -0.05687776 0.025321316
000160 6c fd 96 3e d0 37 dd bd 42 66 16 bf 43 0b 85 bd
       0.2949022 -0.10801661 -0.58749783 -0.064962886
000170 f5 d2 6f 3e d8 d8 a4 be cd 2f 69 be 3b ff 85 3d
       0.23420317 -0.3219669 -0.22772141 0.06542822
000180 30 1a d3 bd 64 af fd be 64 c7 6f be 70 2b ac 3d
       -0.10307729 -0.49547875 -0.23415905 0.084067225
000190 92 fa 57 be 6e 62 0c bf d3 36 af bc 70 55 86 3e
       -0.21091679 -0.5483769 -0.021388447 0.2623706
0001a0 54 b2 8b be 6c 75 01 be 38 6d d5 bd a0 62 ea 3d
       -0.2728449 -0.12642449 -0.104212224 0.114445925
0001b0 f8 3e 85 be 98 03 f1 bd fe 7c aa be 44 f3 f0 be
       -0.26024604 -0.117682636 -0.33298486 -0.47060597
0001c0 3a b8 c8 3e a1 1a 0f bf fc 0f 95 be 28 87 bf 3d
       0.39203054 -0.5590001 -0.29113758 0.09351951
0001d0 18 ed 5d be 8e ba 8e be 26 c5 ce be d4 e8 2c be
       -0.21672475 -0.27876705 -0.40384787 -0.16885692
0001e0 38 83 45 be 70 f5 d7 be f8 a5 54 3e 70 ea 19 be
       -0.19288337 -0.4217944 0.20766437 -0.15030837
0001f0 d2 46 63 bd a2 c7 99 3d 6a 8c 95 be 19 3e b7 be
       -0.05548746 0.0750878 -0.2920869 -0.35789564
000200 1c b2 e2 be c4 14 5c be 28 c1 05 3e e0 7c af bc
       -0.44276512 -0.21492296 0.13061965 -0.02142185
000210 59 8b bd 3e 4a bf 16 3f 0b 99 5f be a7 43 2d bd
       0.37020376 0.58885634 -0.21835725 -0.042300846
000220 77 56 c8 3e 2b 4a e9 be 2a 16 98 bd a5 6f 54 be
       0.39128467 -0.45564398 -0.074261025 -0.20745714
000230 be 6d 25 bd 26 3f b1 be d3 33 18 3e f2 14 04 be
       -0.04038786 -0.3461849 0.1486352 -0.12898615
000240 5d 49 f7 3d 24 1c 8d be 16 0e a4 3c 23 9e e2 be
       0.1207454 -0.27560532 0.020026248 -0.44261274
000250 9f a7 a5 be dd 6e 1c bf b3 ea 3f bf f9 f8 56 3d
       -0.32354447 -0.61106664 -0.749675 0.052483533
000260 cc 7a 1a 3c 67 a7 e6 be 14 74 de bc 92 e8 82 3d
       0.009428691 -0.45049593 -0.02715496 0.063920155
000270 37 ed a3 3e be c4 12 3f cd 29 27 3f 37 ec 8e 3d
       0.32016918 0.57331455 0.6529816 0.06978648
000280 d3 b8 ef bd 81 3e d8 be 18 ee 08 be 23 f3 c8 3d
       -0.11705174 -0.42235187 -0.13372076 0.09812
000290 60 0c 0d bd fc 7a 38 be ee eb c4 be e0 6f 5a 3d
       -0.03443563 -0.18015665 -0.3846125 0.05332935
0002a0 26 3c 7c be e5 fa 82 be 28 47 de be 80 e6 ba 3d
       -0.2463232 -0.25582042 -0.43413663 0.09125996
0002b0 a8 a5 fb 3e 59 1a 21 3f d6 63 2b 3f 1c f6 a5 be
       0.49149823 0.6293083 0.6694921 -0.3241433
0002c0 ac 06 44 be cc 2d 42 3e 80 74 6a bd 02 c9 fc be
       -0.1914317 0.18962783 -0.05724001 -0.49372107
0002d0 5a 69 61 3e c3 69 1b bf 06 54 0d 3e e9 bd 9c 3e
       0.22012845 -0.60708255 0.13801584 0.3061364
0002e0 6c ee 83 3e a7 41 0b 3e 83 cd 40 3e e3 a8 3b 3e
       0.2576784 0.13599263 0.18828396 0.18326144
0002f0 ac 69 06 be 0b f9 0d 3e 62 f2 62 bc 0c 4e 70 be
       -0.13126248 0.13864534 -0.013851734 -0.23467273
000300 a0 56 f8 3d a0 cb 2d 3d 30 17 79 be 78 f9 69 3e
       0.121258974 0.04243052 -0.24325252 0.22849071
000310 6f 03 76 3e 13 1b 15 3f 46 cd f1 3e bb 09 92 be
       0.24024747 0.58244437 0.47226924 -0.2852305
000320 2e 81 ce 3e 36 d6 fe be 50 2c ed 3e 2a 83 f3 be
       0.4033293 -0.49772805 0.4632287 -0.47561008
000330 52 3c c7 3e b1 e1 ef be 10 92 6b 3e 0f 22 05 bf
       0.38913208 -0.46851876 0.23004937 -0.52005094
000340 91 9c a1 3e 57 ec 0b 3e 5d 64 07 3f 97 89 ca be
       0.31564763 0.13664375 0.5288752 -0.39558098
000350 51 a0 88 be 3d 44 7c 3e 4f 37 c1 3c 46 96 94 3e
       -0.26684812 0.24635406 0.023585944 0.290209
000360 41 45 60 be 9d d7 27 3e d6 95 06 3f bd f5 13 3e
       -0.21901418 0.16390844 0.5257238 0.1444921
000370 36 30 9a be 32 bb b1 be 6c bb 52 be f0 78 2d 3e
       -0.30114907 -0.3471313 -0.20579308 0.16940665
000380 cc a5 35 3e 20 fe b0 3c b0 36 d3 bd 40 72 38 3c
       0.17739028 0.021605551 -0.10313165 0.011257708
000390 a7 38 59 be c4 42 62 3d cc 85 20 be b1 80 cf be
       -0.21213017 0.055239454 -0.1567604 -0.4052787
0003a0 72 d6 b1 3e a6 0f 03 3f 9d f7 4e 3e 8f 11 c7 3d
       0.3473392 0.5119575 0.20211644 0.09720146
0003b0 cf b3 10 be 62 1b 25 bf e1 e7 74 3c da 98 0b 3e
       -0.14131092 -0.6449491 0.014947862 0.13632527
0003c0 d8 bb dd be 74 50 27 be 44 58 bf be 70 3c 21 be
       -0.43307376 -0.16339284 -0.3737203 -0.15745711
0003d0 72 db 64 3e 20 d7 a5 3e 74 49 6f 3c b1 57 a9 bd
       0.22349337 0.3239069 0.014604915 -0.08268679
0003e0 f8 f4 3e be 33 35 6e be fa 24 3d bf 1e 56 58 3e
       -0.18648136 -0.23262481 -0.73884547 0.21126601
0003f0 d0 1a 8f 3e 42 96 c6 be 33 c3 22 bf df e1 66 3e
       0.27950144 -0.38786513 -0.635791 0.225471

fc1.bias f4 [256]
000000 9a 83 05 bf 6f 3e 19 3c 5f 12 76 3e 95 4e 50 bd
       -0.52153933 0.009353264 0.24030446 -0.05085619
000010 d0 c6 8f 3e ea 32 81 bd ca 5c ae 3d 97 3f 56 3e
       0.2808137 -0.06308539 0.08513792 0.20922695
000020 90 35 93 bd 34 d0 fb be 80 74 2e 3c 46 7a d3 be
       -0.071879506 -0.49182284 0.010647893 -0.41304225
000030 67 67 fc 3e 06 ca 94 bd 8e a0 b5 3e 80 50 ed bb
       0.4929764 -0.072650954 0.35474056 -0.0072422624
000040 7f 7e 59 bd 06 02 80 3e e8 28 76 3e 00 4b 10 bc
       -0.05309915 0.25001544 0.24039042 -0.008806944
000050 1e f4 52 3e 1a 0a 63 3e a0 a4 ba 3d 11 37 a1 3d
       0.20600936 0.22171822 0.09113431 0.07871831
000060 36 10 ed be de d2 72 bd cc a5 c4 be 78 bd c0 be
       -0.4630143 -0.05928313 -0.38407743 -0.37644553
000070 ce f9 37 be 04 f1 22 be 52 0c a6 be 9a 49 53 3d
       -0.17966387 -0.15912253 -0.32431275 0.051583864
000080 00 92 22 be 1d 68 05 bf c3 25 72 3e 7b a0 c5 3e
       -0.15876007 -0.5211199 0.23647217 0.38599
000090 62 4a c5 bd 79 4d 41 3d 7f 57 f4 3d 8f 79 0a 3e
       -0.09633328 0.047193024 0.11930751 0.13522933
0000a0 f4 5a 29 3e 80 66 e0 be 43 d7 55 3e 9d 54 a8 3e
       0.16538602 -0.438282 0.20882897 0.32877055
0000b0 28 21 9c be 82 87 ae 3b 0a ee 08 be 45 f7 37 3e
       -0.30494046 0.0053262124 -0.13372055 0.1796542
0000c0 1c c6 c0 be 62 dc d8 3e 8c 4e 47 be 44 f4 a0 3e
       -0.37651145 0.4235564 -0.19463557 0.3143636
0000d0 7f a4 6f 3e ee 80 32 3c 84 4d 4b 3e 7c 8a 85 be
       0.23402594 0.010894997 0.19853789 -0.26082218
0000e0 20 39 97 be 0d 02 a0 3e 2d e6 71 3e 3d 15 37 3e
       -0.2953577 0.31251565 0.23622961 0.17879196
0000f0 f4 c4 62 be 8e f4 85 3d 2e ee 0f bd ec 7f 5c 3e
       -0.22145444 0.06540786 -0.035139255 0.21533173
000100 08 06 94 be a9 29 a0 3c 80 84 2d 3e 98 4e 73 be
       -0.2891085 0.019551115 0.16945076 -0.2376045
000110 0c 8d fe be b0 5b 3f 3e e8 ee a0 be 61 f5 2b 3e
       -0.49716985 0.1868732 -0.3143227 0.16792823
000120 c2 9f ec bd b4 06 b6 3e 5e ee dd be cc 64 67 be
       -0.11553909 0.3555199 -0.43345922 -0.22597045
000130 3c a5 87 3e 5f 6a c4 3e 19 53 3d 3e e5 c7 84 3d
       0.2649325 0.38362405 0.1848873 0.06483439
000140 e7 38 20 bb 73 dd 68 3e de 3b 8d 3e 28 f4 7d 3e
       -0.002444798 0.22740726 0.27584738 0.2480017
000150 b9 9a 86 be 2e cf 52 3e c6 e1 8a be 25 1e 21 be
       -0.2628992 0.20586845 -0.27125376 -0.15734155
000160 0e f3 fe 3c 08 5b bc be 40 94 74 be b0 c7 77 bd
       0.031121757 -0.367882 -0.23884678 -0.06049317
000170 ec 05 a4 be e3 23 8e be cb 34 1c 3d 32 79 a7 be
       -0.32035768 -0.27761754 0.038136285 -0.32709652
000180 78 46 00 bf 60 d6 a2 be 37 4e 13 3e 07 80 2f 3e
       -0.50107527 -0.3180418 0.14385305 0.17138682
000190 6b 41 ab 3e b1 e4 07 bd 0c 8d 04 be 7d e1 74 bd
       0.33448347 -0.03317708 -0.1294443 -0.059785355
0001a0 1c 9c 8c bd 5c fa f7 be 27 c2 9c 3d 23 fb 89 3e
       -0.06865713 -0.48433197 0.07654219 0.26949415
0001b0 10 bc d0 bd 05 59 1c 3d 6a c7 e5 3d 6c 24 30 3e
       -0.1019212 0.038170833 0.11219676 0.17201394
0001c0 f4 b6 85 3c a4 08 9c be 68 97 49 be 28 da 57 be
       0.01632259 -0.30475342 -0.19686663 -0.21079314
0001d0 5e 44 40 bd ff 3d b8 bc 1f 25 1e be 87 d2 9c 3e
       -0.0469402 -0.0224905 -0.15443848 0.3062937
0001e0 2e 05 3c 3e 49 0e 54 be e7 b7 57 3e 00 95 62 3c
       0.18361351 -0.20708574 0.21066247 0.01382947
0001f0 19 0f bf 3e 78 5e 04 3e 00 e8 60 3a 6a 7f 69 3d
       0.37316206 0.12926662 0.00085794926 0.057006277
000200 7f 4e 9a be 38 a7 01 3e 5c b8 24 be 28 42 93 be
       -0.30138013 0.12661445 -0.16085953 -0.2876141
000210 2e 77 fa be 6a e0 33 3d c4 38 a4 be 96 e1 f4 be
       -0.48919052 0.04391519 -0.3207456 -0.47828358
000220 ca c3 75 3c a0 ea 27 bd 36 ab fe be 75 a2 28 3e
       0.015000293 -0.04099524 -0.4974 0.16468222
000230 3e 51 48 3d 19 64 b6 be d6 e0 ac 3e 30 ec aa be
       0.048905604 -0.35623243 0.33765286 -0.33383322
000240 5d a0 85 3e 7d 1f e2 3e 20 a7 88 be a9 aa dc 3e
       0.2609891 0.4416465 -0.26690006 0.43098953
000250 49 87 79 3e df b9 9a 3e 77 48 a1 3e 7b 8e bf bc
       0.24368013 0.30219933 0.315006 -0.02338337
000260 1e 53 b7 be 30 ee 2f 3e 48 24 37 3e 88 42 df be
       -0.358056 0.17180705 0.17884934 -0.43605447
000270 46 63 ea be d2 19 ae 3d 68 6a 29 3d 17 c9 cb 3c
       -0.45778865 0.085010186 0.041361243 0.02487616
000280 b8 07 e6 bd fc 4c 8f 3e bd 05 a9 3e a8 71 44 be
       -0.11231941 0.27988422 0.3301219 -0.19183981
000290 d7 79 11 3e 00 e9 0c be 89 d8 0d 3e d5 90 19 3e
       0.14206634 -0.13760757 0.13852133 0.14996655
0002a0 b0 3c 07 3e 84 01 c1 bb d9 8d 52 3e c0 48 96 3e
       0.13206744 -0.0058900733 0.20561923 0.2935238
0002b0 51 63 8a bc c2 a6 7e be 47 55 3a 3d 62 6d 3c 3e
       -0.01689306 -0.248683 0.045491483 0.18401101
0002c0 9c 79 b3 bd 88 5a 90 3e 47 51 bf 3e f2 a0 82 3e
       -0.087634295 0.2819407 0.37366697 0.25513417
0002d0 df 3f d3 bc ea 2b d7 3e b0 17 6e 3e 5c 8a 9d be
       -0.025787292 0.4202569 0.23251224 -0.30769622
0002e0 3a f6 cc be c1 90 a2 be fe be fc be c6 3b 9e be
       -0.40031606 -0.31751063 -0.49364465 -0.3090498
0002f0 9b 85 a8 3e 15 13 31 3e 68 fb 1c be 91 b6 77 be
       0.32914433 0.17292435 -0.15330279 -0.24190737
000300 06 d3 fc be cb 29 c9 be 4c 36 ad be 98 5c d9 be
       -0.49379748 -0.39289698 -0.33830488 -0.42453456
000310 f8 65 03 3e fa 5f b0 be 1f 0d 9c 3e c2 15 b7 be
       0.12831867 -0.34448224 0.3047876 -0.35758787
000320 ea f9 fc be c7 c7 6a 3e 6b 20 9e 3e 5a 1e c9 be
       -0.4940942 0.22927772 0.30884108 -0.3928097
000330 c0 d6 8f 3e 16 4f d7 be 5a d3 c5 3e 1e 1b 00 3f
       0.2809353 -0.42052525 0.3863781 0.5004138
000340 30 a0 25 be 58 a3 d3 bd a0 61 5e bd 3c 55 4e 3e
       -0.16174388 -0.1033389 -0.05429232 0.20149702
000350 be 94 97 be 09 c5 81 3b 80 4e 55 be 80 9b 23 3c
       -0.2960567 0.003960256 -0.20830727 0.009985805
000360 97 b2 eb 3e 66 37 1a 3e 54 53 b3 be 8b 08 c1 3d
       0.4603469 0.15060195 -0.35024512 0.094254576
000370 e4 ca 72 3e d5 3b 8d bd cd ba 21 3e bc ea 21 be
       0.23710209 -0.06896178 0.15793915 -0.158122
000380 d6 a8 c7 bc 84 a7 23 be 8d da 92 3e f0 39 08 be
       -0.0243725 -0.15981871 0.28682366 -0.13303351
000390 c5 60 4f 3e 06 de d4 be 07 c1 cd be 9b f4 c0 3d
       0.20251758 -0.4157564 -0.4018633 0.09421655
0003a0 4c 5f ac be e0 c4 0e bd 06 c3 d1 3e ee d2 d9 3e
       -0.33666456 -0.034855723 0.40969104 0.4254374
0003b0 ae d4 d0 bb 6d 1f 83 3e 51 2f 03 3e c0 4a 1d 3e
       -0.0063730096 0.25609913 0.12811019 0.15360546
0003c0 22 c8 2d 3e 55 fe 25 3d e0 1a 2f 3d f2 00 ef be
       0.16970876 0.040525753 0.04275024 -0.4668041
0003d0 2a c3 f7 bc ab ef b9 3d 34 d1 2a be 4e 04 db be
       -0.030244429 0.09078916 -0.16681367 -0.42776722
0003e0 45 8e 04 3e 91 19 85 bb 2a bb a5 be 04 d2 9c 3d
       0.12944897 -0.0040618856 -0.32369357 0.07657245
0003f0 79 0e 22 3e 8a 57 ab be 40 8b 53 be 51 c1 e7 bc
       0.15825833 -0.33465225 -0.20658588 -0.028290423

fc2.weight f4 [256, 256]
000000 12 db 2f bd 06 1b 3c bd e0 da 80 bc ba 95 42 bd
       -0.04293353 -0.04592421 -0.015729368 -0.04750607
000010 60 60 53 bb f8 b5 6a bc 70 e7 af bb 40 03 43 3b
       -0.003225349 -0.014325611 -0.0053681657 0.0029756576
000020 8c a9 77 3d 18 17 63 bd 12 42 37 bd 90 f3 9a 3c
       0.060464427 -0.055441946 -0.044740744 0.018914968
000030 10 0c cc 3b 44 fa 1c 3d dc e1 b6 3c 4c 99 38 bd
       0.006227024 0.03832461 0.022324495 -0.04506807
000040 ac fe 0b 3d 10 4e 2d 3d a0 ef 76 bb 80 5a bc bb
       0.03417842 0.042310774 -0.0037679449 -0.005748093
000050 5e a4 3c 3d a8 b4 13 bd e0 35 10 bd ce 20 7d bd
       0.04605519 -0.03606096 -0.03520763 -0.061798863
000060 44 6b 6c 3d 92 06 60 3d cc f7 ca 3c ac f7 de bc
       0.057719484 0.054693766 0.024776362 -0.027217709
000070 aa 4e 65 bd 1c 58 b1 bc 46 85 77 bd 9a ee 2e 3d
       -0.055983223 -0.02164846 -0.060429834 0.042708017
000080 00 d6 ea b9 0c 3d c0 bc 80 02 fe ba 4e 2e 42 bd
       -0.000447914 -0.02346661 -0.0019379407 -0.04740744
000090 0e 2c 45 bd c4 63 0a bd dc dc cb 3c 40 56 ab 3c
       -0.048137717 -0.03378655 0.024885587 0.02091515
0000a0 ec a7 5f bd ec eb 7f 3d aa db 26 bd b8 2e 8c bc
       -0.054603502 0.062480852 -0.04073683 -0.017112121
0000b0 d6 ae 48 bd 3a 14 5b 3d 80 95 76 3c f0 c1 11 3c
       -0.04899486 0.053486086 0.015050292 0.008896336
0000c0 88 75 2a bc 5c 36 18 bd 08 1a 37 bd b2 47 5e 3d
       -0.010403998 -0.037161216 -0.04470256 0.054267593
0000d0 c4 a5 5d 3d ec e5 28 bd 2c 53 14 bd 10 39 51 3c
       0.054113165 -0.041234896 -0.03621213 0.012769952
0000e0 c0 8a ac 3b 7c f8 4a bd 3c dd 6c bd 58 4a ca bc
       0.0052655637 -0.04955338 -0.057828173 -0.024693653
0000f0 00 95 92 ba c8 66 76 3d a0 5a 00 3d 32 94 4a bd
       -0.0011183321 0.060156614 0.031336427 -0.049457736
000100 20 93 83 bb f0 ea 09 3c 40 74 bd bc e0 db 7b bd
       -0.0040153414 0.00841783 -0.023126721 -0.061488986
000110 04 b6 48 3d 98 b3 6f 3c 66 35 64 3d 60 e7 b3 3b
       0.04900171 0.014630221 0.055714987 0.0054902285
000120 a8 b6 60 3d da 3e 7d 3d e8 3f 02 bc 5e 58 46 bd
       0.054861695 0.061827518 -0.007949807 -0.048424117
000130 28 02 4a 3d ec be 1b 3d 00 6a 73 bc 72 0a 3a bd
       0.049318463 0.038023874 -0.014856815 -0.045420118
000140 00 e8 49 ba 20 15 d1 bc 86 0e 27 bd 46 6e 68 3d
       -0.0007702112 -0.025522768 -0.040785335 0.05674579
000150 b8 a6 a4 bc 54 ae 06 3d c0 24 ae 3a 46 28 4b 3d
       -0.020099029 0.032881096 0.0013286099 0.049598955
000160 44 9a ea bc f6 71 5a bd 88 08 3a bd 78 fa 49 bd
       -0.028638013 -0.053331338 -0.045418292 -0.04931113
000170 1e 09 46 bd 20 a8 a7 3b 80 71 f1 bc 82 fe 03 bd
       -0.04834854 0.0051164776 -0.029473066 -0.03222514
000180 70 c1 a3 3b 54 9f 03 bd 68 09 37 bc e4 9b 79 bd
       0.004997425 -0.03213437 -0.011171676 -0.060939685
000190 04 bd 83 3c 58 74 36 3c 4e c8 39 bd 38 69 72 3d
       0.01608134 0.011136137 -0.04535704 0.059182376
0001a0 74 43 d4 3c 4c e6 54 3d 40 f0 cd 3a 04 7c e9 bc
       0.02591107 0.05197744 0.0015711859 -0.028501518
0001b0 8e 39 0d bd 02 bc 40 3d 3c 81 b6 3c 9c dd 1f bd
       -0.034478717 0.0470543 0.02227842 -0.039029703
0001c0 b4 e4 41 bd 7e f8 6f 3d 1c 62 4c bd 00 6a c9 3a
       -0.04733725 0.05858659 -0.049898252 0.0015366673
0001d0 78 ae 9e bc e0 4e 02 3d 70 92 11 3c 8e ae 15 bd
       -0.019370303 0.031813502 0.008885011 -0.03654342
0001e0 2e 06 53 bd 40 c2 f4 3c 00 29 8b 3a 78 76 6b 3c
       -0.051519565 0.029877782 0.0010617077 0.014371507
0001f0 64 73 97 3c 80 4d 85 bc e2 3d 0f 3d a4 fc 60 3d
       0.01848764 -0.016272306 0.034971125 0.054928437
000200 98 89 fa bc 10 28 9a bc c2 c1 12 bd f0 69 aa bb
       -0.030583188 -0.018817931 -0.035829313 -0.005200617
000210 d0 40 68 3d 36 e9 4f 3d 28 5e 7f 3d e0 03 79 3b
       0.056702435 0.050759517 0.062345654 0.0037996694
000220 62 30 42 bd d6 d4 0d 3d 94 99 3e 3d e6 82 3f 3d
       -0.047409423 0.034626804 0.046533182 0.046755694
000230 f4 a8 1f bd e4 13 2f 3d b0 eb 20 bc da 21 41 3d
       -0.038979486 0.04274358 -0.009821817 0.047151424
000240 d0 4f 25 bc 20 ea 98 bc 50 2b 32 bd c8 47 13 bd
       -0.01008983 -0.018666327 -0.043498337 -0.035957128
000250 5c da 8d 3c fe bb 08 bd 16 68 73 3d 24 d2 e0 3c
       0.017316036 -0.03338241 0.059425436 0.027443953
000260 00 e7 a0 bc 48 b4 4e bd 32 bf 53 bd a0 da d3 bc
       -0.0196414 -0.0504649 -0.05169601 -0.025861084
000270 66 e0 1a 3d 5c 36 ad 3c 5a 6c 72 3d 00 7e 59 3b
       0.03781166 0.021144085 0.059185363 0.0033186674
000280 d8 66 33 3d 50 ec 3a 3c 1c 00 db bc 60 86 09 bd
       0.04379925 0.01140888 -0.02673345 -0.033575416
000290 da f8 3a bd ac e3 e5 3c ba a7 74 bd f6 ad 10 bd
       -0.04564748 0.028062664 -0.05973027 -0.035322152
0002a0 68 df a3 bc 7c 5c 99 bc 84 7f df 3c 58 df 5c 3d
       -0.02000399 -0.018720858 0.027282484 0.053923935
0002b0 9e 7a 38 bd 48 d2 5a bd 2a 3a 04 bd 82 d4 37 3d
       -0.04503881 -0.053423196 -0.032282032 0.044880398
0002c0 56 d5 03 bd 08 87 c4 bc 14 cb 42 bd 18 f4 08 bd
       -0.032185875 -0.02399017 -0.04755695 -0.03343591
0002d0 1e 84 32 3d 0c 55 b6 3c cc 4a b0 bc 06 6e 10 3d
       0.043583028 0.02225735 -0.02152004 0.035261177
0002e0 60 f0 51 3d 64 5c e4 bc 50 13 9b bb 60 57 ab 3c
       0.05125463 -0.027876087 -0.004732527 0.020915687
0002f0 00 23 d9 bb 18 d8 46 bc 56 e9 6e 3d 00 92 0d 39
       -0.006626487 -0.012136482 0.058327995 0.00013501197
000300 60 4c 0c bc be 42 1e 3d 5a d8 7f 3d 08 29 28 3c
       -0.008563131 0.03863787 0.06246219 0.010263689
000310 b8 8f e0 bc 30 22 e5 3c ac 18 ff bc c8 2b 20 3c
       -0.02741228 0.027970403 -0.031139694 0.009776063
000320 e0 0f 0a bb 50 56 f9 3c 86 e8 4f 3d e8 64 67 bc
       -0.002106659 0.030436665 0.05075886 -0.014123179
000330 d2 12 29 bd 0c b5 f8 bc 96 04 02 bd a0 69 55 3c
       -0.041277714 -0.030359767 -0.031742655 0.013025671
000340 d0 37 9a bc 56 3e 77 bd 50 d6 f4 3b 38 f7 00 bd
       -0.018825442 -0.060362183 0.007471837 -0.031485766
000350 5a 4d 33 bd 30 0e e1 3c ac 3d 6c 3d e8 8c 3a 3c
       -0.04377494 0.027472585 0.057676002 0.011386134
000360 08 13 0a 3c f0 7a 26 bc d6 da 6a bd 50 b5 d6 3c
       0.008427389 -0.0101611465 -0.057337604 0.026209503
000370 d2 c4 63 bd 2c e4 32 bd 68 f3 50 3d 38 6e 41 bc
       -0.055607624 -0.043674633 0.05101338 -0.011806063
000380 06 26 23 bd 74 1d 28 3d ea 1e 60 3d 00 36 45 b9
       -0.039831184 0.041043714 0.054716982 -0.000188075
000390 58 38 06 3c 10 c9 6a 3c 7c 9f d1 bc 88 77 29 3c
       0.008192144 0.014330164 -0.025588743 0.01034344
0003a0 d6 02 20 3d d0 77 55 bc 88 1c ed bc 66 38 53 3d
       0.039065205 -0.013029054 -0.028944269 0.051567458
0003b0 c0 50 a6 3b 58 7a ef bc e0 f5 24 bd 00 ba 2e 3a
       0.005075544 -0.029233143 -0.040273547 0.00066652894
0003c0 ea f6 2a 3d 10 14 bc bc ce a1 6f bd 44 ad 1c bd
       0.04173938 -0.022958785 -0.05850392 -0.038251176
0003d0 08 ab 3b bd 68 96 71 3c 48 68 5f bc 98 c8 10 bc
       -0.045817405 0.014745332 -0.013635702 -0.008836888
0003e0 84 b3 a1 bc 68 d3 e7 3c 80 fa 9b ba e8 04 bf 3c
       -0.01973892 0.028299049 -0.0011900216 0.02331777
0003f0 20 5d 0d 3d 50 13 ec 3c 10 2b 91 bb 4c 93 8c 3c
       0.03451264 0.028817803 -0.0044301823 0.01716008

fc2.bias f4 [256]
000000 e0 5b 05 3b 6f 8a b4 3c fc 95 de bd 19 7e d9 3b
       0.0020348951 0.022038667 -0.10868451 0.0066373465
000010 ea 7c 7a bd f5 23 dc bd 55 2c 1c be e3 60 60 bc
       -0.061154284 -0.10749046 -0.15251286 -0.013694975
000020 d2 82 69 bd 04 83 7e bc b4 5b 0f bc 9b 9c 0e bb
       -0.057009526 -0.015534166 -0.008749891 -0.0021760825
000030 7c 5a 9f bc dd 2a 99 3c 58 ed 8e 3c 63 c6 9a bd
       -0.019452326 0.018697197 0.017447159 -0.075573705
000040 0e 16 47 bd e9 c7 f6 bd 54 e7 e3 3c b4 2f 5e bd
       -0.048605017 -0.120498486 0.027820267 -0.054244712
000050 0a d2 37 bd 46 28 f6 bc 76 6d dc bd 5c b5 9b bd
       -0.044878043 -0.0300485 -0.107630655 -0.07602951
000060 c3 8a 46 bd e8 08 48 bc 1f a0 f3 b9 e7 19 6e bd
       -0.048472177 -0.012209155 -0.0004646787 -0.05813017
000070 56 26 c8 bb 00 d1 92 bd d8 5c a5 bc 15 6b ae 3d
       -0.0061080856 -0.0716877 -0.020185873 0.08516518
000080 48 c9 bb bc b6 30 e4 3c e7 23 0c bd 2a 33 0a bd
       -0.022923127 0.027855258 -0.034213927 -0.0337402
000090 d4 1a 6e 3d b4 3a da 3d c8 f1 f1 bd 6b 27 6b bd
       0.058131054 0.10655728 -0.11813694 -0.05741064
0000a0 a4 fa ad bc fe 74 99 bd 82 96 ff bd c4 11 c8 bc
       -0.021237679 -0.074930176 -0.12479879 -0.024422534
0000b0 3f 6b a7 bd 37 04 28 bd a2 a5 cf bc 56 46 6e bc
       -0.081747524 -0.041019645 -0.025347535 -0.014543137
0000c0 f8 dd c8 bc 68 7e 07 bc 19 ed 63 3c b6 63 53 bb
       -0.024519905 -0.008269884 0.013911509 -0.0032255477
0000d0 5e 48 49 bd 1e 01 84 bc 85 9e fa bd ff 7a 0d bd
       -0.04914128 -0.016113814 -0.122372665 -0.034541126
0000e0 9c 6d b1 bc 67 b5 92 bc 63 9a e2 bc 43 58 8c bd
       -0.021658711 -0.017908765 -0.027661508 -0.06852772
0000f0 85 77 a7 bc 9c 0b 87 bc ad ea 4b bd d6 ac 58 bd
       -0.020442734 -0.016485028 -0.04978435 -0.052899204
000100 e0 45 de bc e1 b3 6f bd 92 09 49 bd 76 32 5d bd
       -0.027132928 -0.058521155 -0.049081393 -0.0540032
000110 f8 74 21 bd c3 0b 81 bc 10 b5 92 bd 6b c8 b2 bc
       -0.03941819 -0.015752679 -0.07163441 -0.021824082
000120 e4 44 7f 3d 2c 79 8b bb fe 32 7a 3d 4b f5 f2 bc
       0.06232156 -0.004256388 0.061083786 -0.02965798
000130 78 ab 4a bd 6b 9b 43 bd 1a 39 d3 bc a7 3f e6 bc
       -0.04947993 -0.04775564 -0.025784064 -0.028106524
000140 e6 bd dd bd 6b 42 38 bd 19 a6 c5 3c f7 3c ca 3b
       -0.10827236 -0.044985216 0.024127053 0.0061718184
000150 07 db d1 3d 3c 71 d6 bd f6 c3 5a bd a4 4a 35 bd
       0.10246854 -0.104708165 -0.05340954 -0.044260636
000160 08 a7 47 bd 65 38 e3 bd 6f 19 9d bd e1 6f 81 bc
       -0.048743278 -0.11094741 -0.07670867 -0.015800418
000170 e6 6f dc bd 94 f8 8b bd ff 18 02 3e 9b 07 dd bd
       -0.107635304 -0.06834522 0.12704848 -0.10792466
000180 e7 21 17 bd ea fa ef 3c ef 56 f9 bd 0c b6 b9 bd
       -0.036897566 0.02929445 -0.121747844 -0.09067926
000190 37 60 63 bd 79 5a ff bd ce 72 9a 3c a1 f7 d5 bd
       -0.05551168 -0.12468428 0.018853571 -0.10447622
0001a0 77 df fb bd 93 2e 61 3a 8f 84 93 bd 98 0c cf 3c
       -0.12298482 0.0008590009 -0.07203018 0.02527456
0001b0 7d 13 8e bd 19 90 97 bc e1 9b bd 3d 1c e1 57 bd
       -0.06937311 -0.018501328 0.09258247 -0.052704915
0001c0 ad 4e 16 3d 38 b2 bf 3c 80 c2 3a bd f4 69 ca bd
       0.036696125 0.023400411 -0.045595646 -0.0988349
0001d0 fb 16 29 bd b8 7c 1e bd 40 2a 24 bd 7e 98 d0 bd
       -0.04128168 -0.03869316 -0.040079355 -0.101853356
0001e0 f3 ac cf bd b0 11 cb bd 7c b2 39 bd 00 47 ff bc
       -0.10140409 -0.09915483 -0.04533623 -0.031161785
0001f0 ee df f9 bd 36 f1 5e bd 0c f1 c0 bd 20 fe 10 3d
       -0.12200914 -0.054429255 -0.09420976 0.035398602
000200 52 ef 9d bd 8f 6a ef bb 7b 11 03 3c 45 d2 f5 bd
       -0.07711662 -0.007306404 0.007999773 -0.12002996
000210 59 19 18 3e 21 2c 09 bd 6f 62 97 3c 92 21 e6 3a
       0.1485342 -0.03348935 0.018479554 0.0017557612
000220 99 a2 bd bb 77 ab 79 bd e1 1b 13 bd c0 19 3a bb
       -0.0057872054 -0.060954537 -0.03591526 -0.0028396696
000230 d0 88 07 bc 4c 9c 9c bd 27 ef fc bc 0b 8e 0b be
       -0.008272365 -0.07646999 -0.030875755 -0.13628404
000240 5e 29 a1 bd 80 7a e5 bc 81 16 69 bd 3b 95 c3 bc
       -0.07869218 -0.028012514 -0.056906227 -0.02387487
000250 47 78 c0 3c c4 47 0b bd 91 ed d7 bd 06 3d 9a bd
       0.023494853 -0.034003988 -0.10543359 -0.075311705
000260 b8 a1 36 bd d8 89 c6 3c b8 a2 24 bd 57 cb 3b bd
       -0.04458782 0.02423565 -0.040194243 -0.045848217
000270 f8 4b e3 3b 2e c9 5b 3d e2 29 2e bd 14 35 e0 bc
       0.0069365464 0.053658657 -0.04252041 -0.02736906
000280 61 dc 67 bd 98 68 6f bd 06 23 6a 3c bb e7 8f 3d
       -0.056606654 -0.058449358 0.014290577 0.07026621
000290 5a 42 06 bc 6f be 7f bd b7 ae 03 bc 48 12 d5 bd
       -0.00819453 -0.06243747 -0.008037261 -0.104038775
0002a0 e3 97 f6 3d 98 7a c3 bd 20 e7 78 bc 15 b3 8e bd
       0.12040689 -0.09544867 -0.015191823 -0.06967751
0002b0 c4 2d 10 3c b0 cc 77 bd ba 2e 0c bc bb 34 3f bd
       0.008799974 -0.06049794 -0.008556062 -0.046681147
0002c0 9e cf 83 bc d9 4f 97 bd 9f e9 83 bd 48 e8 fa bd
       -0.01609021 -0.073882766 -0.06441044 -0.122513354
0002d0 86 ae 0c be f6 2c c0 bd df 24 27 3d d0 f1 9a bc
       -0.1373845 -0.093835756 0.040806647 -0.018914133
0002e0 93 4b 1c be c2 2a 2f 3d b0 f6 df bd 2c e4 65 3d
       -0.15263204 0.042765386 -0.10935724 0.056125805
0002f0 71 42 8d bd 32 d5 94 bd 20 ac bb bd ea 2d 16 bc
       -0.06897438 -0.07267226 -0.091636896 -0.00916622
000300 e0 6b a7 bd 00 b4 bb bd c9 89 85 bd 44 51 b5 3c
       -0.081748724 -0.09165192 -0.06520421 0.022133477
000310 41 89 ba bb cd fc e3 bd 8a be 6a bd fd 1e 8b bc
       -0.0056926315 -0.11132202 -0.05731062 -0.01698255
000320 d4 fc d2 bc 20 6c 16 3c 8e e2 ee bd c0 0e 1f 3b
       -0.025755323 0.009181052 -0.116643056 0.0024270266
000330 93 58 ba bd b3 63 0f bd 30 25 53 bd e8 60 23 3d
       -0.090989254 -0.03500719 -0.051549137 0.03988734
000340 63 f0 f6 3c 3e 36 18 bb fb a3 24 3e e9 62 3c bd
       0.030143922 -0.002322569 0.16078179 -0.045992766
000350 48 f9 68 3d b0 b4 c6 3c 9c 23 33 3d 83 62 6b bd
       0.056878358 0.02425608 0.04373513 -0.057466995
000360 ae a7 94 bd 42 db 4d bd 84 9e 3f bc 26 57 41 bd
       -0.07258545 -0.05025793 -0.011695508 -0.04720225
000370 94 6d 93 bd c9 1b f5 bc 07 e1 81 bd a6 83 94 bd
       -0.07198635 -0.029920476 -0.06341749 -0.072516724
000380 c5 59 ac 3d b0 07 2d bd 1f a7 2f bc 79 dc c4 bd
       0.0841556 -0.04224366 -0.010720997 -0.09612364
000390 68 5d 5e bd 1b f3 4e 3d 05 b2 f2 bd 1b f8 b1 bc
       -0.054288298 0.050524812 -0.11850361 -0.021724751
0003a0 e8 8a cd 3d d2 df 80 bd 07 ec e6 bd c4 ca c6 3c
       0.1003626 -0.0629269 -0.112754874 0.024266608
0003b0 b1 78 98 bd 3e 54 e6 3d 3f 35 25 3e b0 59 74 bd
       -0.07444895 0.11246537 0.16133593 -0.059655845
0003c0 d5 92 c2 bc bf 7c b1 bc 23 96 c2 3c 30 ce 16 bc
       -0.023751656 -0.021665929 0.023753231 -0.009204432
0003d0 79 41 b4 bd 69 5b 5f bc a1 4d 23 bd 7c c7 41 3d
       -0.088015504 -0.013632634 -0.039868955 0.047309384
0003e0 5e 37 65 bc d0 43 22 3d c3 9f 78 bc 88 9c 5b 3c
       -0.013990251 0.039615452 -0.015174809 0.013404019
0003f0 d8 fe 20 3e 9c be 88 bd 7c 88 c0 3c aa 46 8d bd
       0.15722215 -0.06676981 0.02350258 -0.06898244

fc3.weight f4 [256, 256]
000000 9e aa 7d 3d d4 47 b5 bd ea c3 6b bd 87 85 03 bd
       0.06193029 -0.08851591 -0.057559885 -0.032109763
000010 b6 27 38 3d 92 91 a7 bd b6 84 62 bd 65 e9 4c bc
       0.044959746 -0.08182062 -0.055302344 -0.0125068175
000020 0c 74 9c 3c 6b d6 d5 bd 0d dc ff bc f1 46 dc bd
       0.019098304 -0.104412876 -0.031232858 -0.107557185
000030 73 f5 d3 3d d2 c1 bf bd 00 5f f1 3a ae 7c c9 bd
       0.1034955 -0.0936314 0.0018415153 -0.09838234
000040 70 aa 5e 3c e8 bc b4 bd 24 2f 34 bd 79 0a ac bd
       0.01359044 -0.088250935 -0.04399027 -0.08400435
000050 07 63 e4 bd 0c c7 1a ba 15 8e bc bd ec e9 d1 bc
       -0.111517005 -0.0005904294 -0.092067875 -0.025624238
000060 f5 a7 79 bd 0b 31 c7 3c dd 7a 8c bd f0 7b 8c 3b
       -0.060951192 0.024315378 -0.06859372 0.0042872354
000070 08 48 32 bd 9a ad 69 bd e8 2d d5 bd 41 00 42 bc
       -0.043525726 -0.057050325 -0.104091465 -0.011840881
000080 b8 f8 34 bc c1 95 75 bc d6 62 41 bc 2c 6c 04 bd
       -0.011045627 -0.014989317 -0.0118033495 -0.032329723
000090 00 5b 0b 3c 29 b1 f7 bb 86 d8 22 3d e8 c2 2b bc
       0.008505583 -0.007558961 0.039757274 -0.010483481
0000a0 12 d6 53 bd 35 47 0a bd 4a ea ba bc 00 b9 12 3c
       -0.051717825 -0.033759315 -0.022816796 0.00895524
0000b0 42 fd 55 bd 6c 01 09 bd 4b 47 87 bc fc 8c 22 bd
       -0.05224348 -0.03344862 -0.016513487 -0.039685234
0000c0 70 cf dd bc 88 c9 a4 3c 97 ad ee bc 1e f2 42 3d
       -0.027076453 0.020115629 -0.029135508 0.047594182
0000d0 4f 1f b7 bd f2 25 92 bd 0c ae 80 bd 14 1c 03 3d
       -0.089415185 -0.07136144 -0.06283197 0.0320092
0000e0 77 05 ca bc 60 f7 43 bb 2e 97 53 bb c8 b5 0a bc
       -0.024660809 -0.0029902086 -0.0032286155 -0.008466192
0000f0 2b d4 ab bd e0 ee 45 bd 23 5b e3 bd 20 1f 91 3b
       -0.08390077 -0.048323512 -0.11101367 0.004428759
000100 80 4b 52 bd d7 bc 5a 3d 3c a7 09 bd e2 aa 5a bd
       -0.051341534 0.053402748 -0.033606753 -0.053385623
000110 5c 3a f7 bc 40 c4 e8 3d fc 22 96 bd 1a 2f 11 bc
       -0.030179195 0.11365557 -0.073308915 -0.008861328
000120 79 31 ce bd 4f ec fa bc 0f 55 b9 bd 29 e3 87 bc
       -0.1006803 -0.030630259 -0.09049427 -0.01658781
000130 4d 99 b2 bd 03 a6 60 3d 60 02 09 bc 0c 76 d0 bd
       -0.08720646 0.05484582 -0.008362383 -0.10178766
000140 f4 67 f0 bc e0 86 0e bd 00 25 cf bd 04 60 a3 bd
       -0.029346444 -0.034796596 -0.10114479 -0.07977298
000150 85 6e ec bd ab 7e 89 bc 77 b6 11 bd 5e bb b1 3d
       -0.115445174 -0.016784033 -0.035574403 0.086783156
000160 fc 02 3e bd 78 46 d2 3c 03 6d 82 bd 08 46 e8 3c
       -0.046389565 0.025668368 -0.063684486 0.028353706
000170 dc 14 a1 3d 66 c4 b3 bc 7e 82 8d bd 9c c5 42 bc
       0.07865307 -0.021944236 -0.06909655 -0.011887934
000180 79 ad b0 bc 62 ee 0d bd 0a bf 3b bd 64 9f 25 bc
       -0.021567093 -0.034651168 -0.045836486 -0.0101088025
000190 be 62 5e bc d7 98 ea bc a8 23 a7 3d 78 a5 51 bd
       -0.013573347 -0.028637333 0.08161098 -0.051183194
0001a0 a8 25 5f bd a3 f8 a1 bd 90 27 af bb 8a 85 cb bd
       -0.05447927 -0.07908752 -0.0053452924 -0.0993758
0001b0 82 90 39 bd 7a 79 48 bc 9e ec 56 bd 70 a1 44 3d
       -0.04530383 -0.0122359935 -0.05247175 0.04800552
0001c0 18 9e 84 bd 4f 22 13 bc 56 bb 0c bd 71 8e 42 bd
       -0.064754665 -0.008980348 -0.034358345 -0.047499124
0001d0 04 b9 13 bd f0 33 4a bc b0 8b 80 3d 38 e1 0e bc
       -0.036065117 -0.012341484 0.06276643 -0.0087206885
0001e0 8a a9 f0 ba 0b bd bd bd 1f ac 1a bd 1a 93 f0 bd
       -0.0018361073 -0.09264573 -0.037761804 -0.117468074
0001f0 f5 82 47 bd 1d 17 30 3d 3e 46 4d bd eb fb 70 bd
       -0.048708875 0.042990793 -0.050115816 -0.058833998
000200 0d 13 e2 bc 72 3d 5a 3d f2 e9 56 bc f6 2e 69 3d
       -0.027596975 0.053281255 -0.0131173 0.05692955
000210 f0 44 c4 3c c2 48 d4 bc f0 5e d4 bc 42 29 42 bd
       0.023958653 -0.0259136 -0.025924176 -0.047402628
000220 8a b4 a1 bd 11 2d 3a bd f4 b1 96 bd 5c 15 1a bd
       -0.07895763 -0.045453135 -0.073581606 -0.037618026
000230 50 06 b1 bc 4c 88 e7 3c 7a aa 0b bd e0 9f 9f bd
       -0.021609455 0.028263234 -0.034098126 -0.077941656
000240 2b 23 e4 bc 9e 22 41 bd aa 41 57 3d 7f d4 ea bd
       -0.0278488 -0.047152154 0.052552857 -0.11466312
000250 d6 85 e4 bd f8 40 46 bc 30 f8 7a bc 00 91 fa bc
       -0.1115834 -0.012100451 -0.015317962 -0.03058672
000260 6e b7 7b bd d4 eb 7e 3d c4 cf 12 3b c0 2b 65 bd
       -0.06145423 0.062236622 0.002240167 -0.055949926
000270 5b 8e ba bc 5e 61 7c bc 90 42 2e 3d f9 60 31 bd
       -0.022772959 -0.0154040735 0.042543948 -0.04330537
000280 83 cb 02 bc bf 84 6f b9 c3 99 f0 bd 48 0c 58 bd
       -0.007983091 -0.00022842268 -0.11748078 -0.052746087
000290 68 29 68 bd e0 9f f8 3d 05 d9 e7 bd 98 bb 9c bd
       -0.056680113 0.12139869 -0.1132069 -0.07652968
0002a0 04 a3 cc bd 98 80 f1 bc c3 7e 5c bd 28 98 f2 bc
       -0.0999203 -0.029480264 -0.053831827 -0.02961357
0002b0 16 29 72 bd 18 9e 2a bd eb ab 2e bc a4 91 e8 bd
       -0.059121214 -0.041654676 -0.010661106 -0.11355904
0002c0 94 b8 dd bd 28 32 b4 bc cf ae d9 bd 6d 8c 4e bc
       -0.10826221 -0.021996573 -0.10629045 -0.012606722
0002d0 cb 9a ea bd 28 20 5c bd 95 6e 9b bd 90 66 16 3d
       -0.11455306 -0.053741604 -0.07589451 0.036718905
0002e0 2e 4a cf bd 66 81 3d bd 90 04 c3 bd 00 70 f5 3a
       -0.101215705 -0.046265982 -0.095223546 0.0018725395
0002f0 52 99 33 bd 86 da c0 bd a2 a6 d5 bd 84 37 ec bd
       -0.04384739 -0.0941668 -0.10432173 -0.11534026
000300 98 bb dc bc 40 fc e6 bb ad e5 e9 bb b0 09 78 3d
       -0.02694492 -0.0070491135 -0.007137975 0.060556114
000310 80 ce 01 bd 37 57 f5 bd 64 15 1e bd fb 81 11 bd
       -0.031691074 -0.119795255 -0.03859462 -0.03552435
000320 10 b7 8c bc 14 40 41 3d 42 cf 23 bb 5a 4b 39 3d
       -0.017177135 0.04718025 -0.0024995361 0.045237876
000330 41 c2 7a bd 67 74 c9 bd 92 7b bd bd 9c 31 e4 bc
       -0.06122041 -0.09836655 -0.09252085 -0.027855687
000340 37 69 6e bd db 0c bc bd c0 84 57 3b 26 3d 83 3d
       -0.05820581 -0.091821395 0.0032885522 0.064081475
000350 04 34 48 3d d3 59 34 bd 1e e9 1f bd e2 4c c8 bd
       0.04887773 -0.044030976 -0.039040677 -0.09780289
000360 c9 c1 d2 bd 4d 5b e9 3c a0 3b e0 bd 63 99 d6 bc
       -0.10290868 0.028485918 -0.109488726 -0.026196187
000370 af 8d b8 bd c2 9e 8c 3a c3 48 c8 bd 9c 07 13 3d
       -0.09011399 0.0010728466 -0.09779503 0.03589593
000380 01 62 ce bd 89 a0 e5 bd 4e 38 b4 bd 83 fd 9c bd
       -0.100772865 -0.1121226 -0.08799802 -0.07665541
000390 88 17 26 bd 5d 10 8f bd d9 0c 42 bc 55 d9 b0 bc
       -0.040549785 -0.06985543 -0.011843883 -0.021588007
0003a0 db 1a 5b bd e7 31 55 bd fe f4 47 bd 1a a1 87 bc
       -0.05349241 -0.052049544 -0.048817627 -0.016556311
0003b0 30 18 86 3c 87 94 b5 bd 55 69 2c bd 00 e4 98 b9
       0.016368955 -0.0886622 -0.04209264 -0.00029161572
0003c0 50 6a e7 39 70 55 34 3d 76 3d 34 3d 80 4f 06 3d
       0.00044138962 0.044026792 0.044003926 0.03279066
0003d0 46 0d c4 bd 98 ae 8b bc 24 ff d8 bb d4 bc de bd
       -0.09572844 -0.017051026 -0.006622212 -0.1087586
0003e0 fd 5e f0 bd fa 47 3c bd 5e a8 d5 bd 04 c2 91 3c
       -0.117368676 -0.04596708 -0.10432504 0.01779271
0003f0 00 ae 8c bd a2 85 1f bd 92 04 b4 bd 79 02 9d bc
       -0.06869125 -0.0389458 -0.08789934 -0.019166218

fc3.bias f4 [256]
000000 98 14 c3 bd e3 36 7d 3d 56 e5 ed bd 49 8e d1 3d
       -0.09525412 0.061819922 -0.11616008 0.10232217
000010 7b 00 c0 bd e0 17 92 bd 34 59 1a bd a1 39 f3 bc
       -0.09375092 -0.0713346 -0.037682727 -0.029690566
000020 bd 53 ef bb ed 26 12 3e cd de 12 3c 66 60 d0 3d
       -0.0073036836 0.14272662 0.008964253 0.101746365
000030 12 55 27 3d cc 37 b1 bd c0 cf 48 bc 69 4f e6 3c
       0.040852614 -0.086532205 -0.012256563 0.028114038
000040 dc 68 57 bd 9d b0 cd bd 32 54 6a bd 6b c7 b9 bd
       -0.052590236 -0.10043452 -0.0572092 -0.09071239
000050 6e 1e 60 3e df 8a 7f 3e 58 3b c2 bd 3a 27 a8 bd
       0.21886608 0.24955319 -0.09483975 -0.08210607
000060 78 1e ce bd 58 87 86 bd 53 7c 3c be 3c 6f 1f 3e
       -0.10064405 -0.065687835 -0.18406801 0.15569776
000070 a7 59 bb 3d 06 97 55 bd 55 bf bd bd 91 60 94 bd
       0.09147959 -0.05214598 -0.09265009 -0.07244981
000080 25 d2 f5 bc 1a 92 64 bd 41 62 b0 bd e4 59 ae bd
       -0.030007431 -0.055803396 -0.086124904 -0.08513239
000090 77 f7 39 bd b7 1d f0 3c 77 b6 91 bd ea 5b 21 bc
       -0.045402016 0.029311044 -0.071148805 -0.009848574
0000a0 8a 3b b1 bc 0a 0e 2b 3e cb f2 cc bc 36 5b b7 3d
       -0.021634836 0.16704574 -0.025018116 0.08952944
0000b0 b2 06 5f 3e 54 ed a6 bc 3f 72 6b bd f3 12 c1 bc
       0.21779898 -0.020376839 -0.057482 -0.023568606
0000c0 13 72 ca bd 26 f6 61 3d 30 f2 18 bd f9 2d c2 bd
       -0.09885039 0.055166386 -0.037340343 -0.09481425
0000d0 df 86 d0 bd aa 58 5b bd 68 fe 14 3e 3e 1a ac bb
       -0.101819746 -0.053551354 0.14550173 -0.0052521518
0000e0 53 c7 b3 3d b0 3e 46 3c 85 8e 0c bc d8 27 9b bd
       0.087782525 0.012099907 -0.008578901 -0.07575959
0000f0 79 4b 25 3e ea 23 28 bd 82 d5 c6 bd 3b 6c ee bd
       0.16142072 -0.041049875 -0.09708692 -0.11641737
000100 fd e3 d4 bd 6c 43 82 bd 74 61 cb bd fa b0 35 bd
       -0.10395048 -0.06360516 -0.09930697 -0.04435823
000110 36 b0 1f bd eb c2 c1 bd 8a ef 0e bd 9e 35 e1 bc
       -0.038986407 -0.09461006 -0.03489641 -0.027491387
000120 7c 5c 02 be 4f 5f 66 bd 7e 2c 64 bd 43 a8 89 bd
       -0.12730592 -0.056243237 -0.055706494 -0.067215465
000130 8b 8f 1f 3c a2 77 2e bd 65 dd db 3d 8b f5 b4 bd
       0.009738813 -0.04259456 0.10735587 -0.08835896
000140 6f 3a 33 be 78 70 b4 3d af 80 23 3b 9c da 91 3d
       -0.1750276 0.08810514 0.0024948528 0.071217746
000150 1b 03 3a 3e cb c4 bb bd 55 ca 3d bd 08 f8 c7 3c
       0.18165247 -0.09168395 -0.046335537 0.024410263
000160 54 5e ae bc 24 6c 7d bc 4c d3 8f 3d e3 20 36 bd
       -0.021285214 -0.015467677 0.070227236 -0.044464957
000170 65 5b f4 bd 5b d9 0c bd c9 32 ba 3d 75 fe e7 bd
       -0.119314946 -0.034386974 0.09091718 -0.11327831
000180 87 48 a3 bd d0 3b de bd de cf 8f 3d 77 54 0f bd
       -0.07972818 -0.10851252 0.070220694 -0.03499266
000190 e6 e7 7f bc b6 8c fc 3d ee f6 44 bd dd 89 b6 bd
       -0.015619254 0.12331526 -0.048087053 -0.08913014
0001a0 d8 a5 a0 bd 4d 80 28 3d 22 2d 83 bd 89 65 4c bd
       -0.07844132 0.041137982 -0.06405093 -0.04990152
0001b0 59 bf 37 3e 55 35 ae 3d a5 cf f0 bd 6c 53 1b 3e
       0.17944087 0.08506266 -0.11758355 0.15168542
0001c0 d7 7f d6 bd de dc 34 bd 6f e3 f2 3d c8 e7 eb bd
       -0.10473602 -0.044155948 0.11859786 -0.11518818
0001d0 e7 30 cb bd cf 07 43 3c 1c 20 04 bd 50 cb be 3c
       -0.09921437 0.011903717 -0.032257184 0.023290306
0001e0 40 61 d9 bc 8f f9 07 be 42 0a 8c 3e 3a 2e 1a be
       -0.02653563 -0.13278793 0.27351576 -0.15056697
0001f0 a6 ea d9 bd 5a 7d c8 bd 1e 93 a4 bd fc d6 bc bc
       -0.10640459 -0.09789534 -0.08035873 -0.023051731
000200 bf c7 26 be c9 6a 50 3e 81 5e f7 bc f9 26 7c 3d
       -0.16287135 0.20353235 -0.03019643 0.061560605
000210 7f ae 95 bd 7e 6a 92 bd a0 26 1d bd d8 64 a8 bd
       -0.07308673 -0.07149218 -0.038366914 -0.082223594
000220 50 26 14 bd 42 cf 37 3d 78 fc a6 bd ff c1 84 3b
       -0.03616935 0.04487539 -0.08153623 0.0040514464
000230 d6 bd 9a bc 10 9e d2 bc 96 59 88 bd 56 57 9c bd
       -0.018889349 -0.025710136 -0.06657712 -0.076338455
000240 a4 76 df bd c5 c5 df bd 81 86 30 bc ba 66 64 bd
       -0.10911301 -0.109263934 -0.010774256 -0.05576203
000250 50 e5 c3 bc 0f 1a b7 bd 9e b1 08 be d9 7f 08 3d
       -0.023913056 -0.08940517 -0.13349006 0.03332505
000260 dc 92 15 bd 00 b2 6b bd 42 db 15 3d 62 34 c3 bd
       -0.03651701 -0.0575428 0.036586054 -0.095314756
000270 73 0d b0 bd e7 9b 80 3e e4 c8 ce bc fe 78 4b bd
       -0.08596315 0.25118944 -0.025242276 -0.049675934
000280 f4 e3 eb 3c 7a 8a 11 bd 4a 0c 1b be 4e 54 57 3e
       0.02879522 -0.035532452 -0.15141407 0.21028253
000290 52 df 42 bd 29 45 f5 bc e0 47 e2 bc 45 72 48 bd
       -0.047576256 -0.029940205 -0.027622163 -0.0489371
0002a0 3d 20 95 bd f7 31 cd bc d8 2b 01 3e 7f dc cc bd
       -0.072815396 -0.02504824 0.12614381 -0.10002994
0002b0 ad 99 de bd 88 39 47 bd 62 3c de bd bf 4b a6 3c
       -0.10869155 -0.04863885 -0.10851361 0.02029979
0002c0 c5 0d 20 3e a0 31 15 bd 85 ef b9 bd 0c 44 9f 3d
       0.15630253 -0.03642428 -0.09078888 0.07776651
0002d0 28 79 e2 bd 9a 5c bb bd 5c 6d 9a bd d2 15 9d bc
       -0.11058265 -0.09148522 -0.0754039 -0.019175444
0002e0 db 67 99 bd 6a 87 c8 bc f8 0b 0e 3d 95 8d 8f bd
       -0.07490512 -0.024478633 0.034679383 -0.070094265
0002f0 c8 6b 8c 3d 04 2f 5b 3d ed 48 4b bd ad 10 d0 bd
       0.06856495 0.053511634 -0.049630094 -0.10159431
000300 99 f6 d4 3d 83 21 e7 bd c0 ba 98 ba 96 33 d7 bd
       0.10398597 -0.11285689 -0.0011652336 -0.10507886
000310 77 02 af bd 2a 8b 2b bd 85 29 16 bd 4a 6f 5b 3e
       -0.08545392 -0.041880764 -0.03666069 0.21429172
000320 84 71 be 39 be 8a 0f 3e be 58 65 bd 93 66 35 3e
       0.000363242 0.1401777 -0.055992834 0.1771491
000330 d9 21 d4 3d 64 3b cb bd 76 41 db 3d 68 b3 d9 bd
       0.103580184 -0.09923437 0.10705845 -0.10629922
000340 67 06 03 be a3 0b 21 bd 44 e9 69 bd db 18 52 bd
       -0.12795411 -0.03931774 -0.057107225 -0.051293235
000350 c6 86 db bd 18 56 9c bd 43 07 ab bd 7d c5 43 bb
       -0.10719065 -0.076336086 -0.083509944 -0.002987235
000360 4f df a1 bd 76 4c 98 bd c1 5b 99 3a a4 ff e2 bd
       -0.07903921 -0.07436459 0.0011700318 -0.11083916
000370 c0 ad 01 3e ae 3f 4b 3d 0a c4 2e bd 78 5b 3c 3d
       0.12663937 0.049621277 -0.042667426 0.04598567
000380 49 52 41 bd 86 91 ea 3d 9b 3f c5 bd ec 88 45 bd
       -0.047197614 0.11453538 -0.096312724 -0.048226282
000390 b0 a5 f6 3c ad 8c b4 bd 74 37 a2 bd 46 b1 73 bb
       0.030108303 -0.08815894 -0.07920733 -0.003718452
0003a0 4c d8 af bd 5e 73 be 3a 28 24 72 3e 6e 42 22 bd
       -0.08586177 0.0014530232 0.23646605 -0.039614134
0003b0 c9 b3 c2 bd 62 04 fb 3d 74 be f0 bd d9 21 d3 bd
       -0.095069475 0.12256695 -0.11755076 -0.1030919
0003c0 bd 62 e6 bd c1 99 33 be c5 24 7b bb 94 78 c9 bd
       -0.112493016 -0.17539121 -0.0038321477 -0.098374516
0003d0 ab a0 3f bd 9d e0 2b 3d 17 f9 74 3e fa ad 6a bd
       -0.046784084 0.041962255 0.23923145 -0.057294823
0003e0 6a 42 95 bc 47 b7 29 3d 02 2c 35 bd d4 a1 ba bd
       -0.018220145 0.041434553 -0.044231422 -0.091128975
0003f0 db ef c2 bc 79 e1 0c be 10 dd 01 3e 5b bd 5b 3e
       -0.023796013 -0.13757886 0.12681985 0.21458952

classifier.weight f4 [16, 256]
000000 7a 20 a5 3c 1f d4 3e 3d 05 14 4d 3d 87 c6 77 3c
       0.020157088 0.046589013 0.05006792 0.015123016
000010 6f 5b 44 3d 7e 8f a2 bd 50 65 ce 3d 5c 1b 7c bc
       0.04793876 -0.07937525 0.100779176 -0.015387382
000020 c5 c5 ec bd 59 ad 64 be cc e6 f9 bd a7 68 1d 3d
       -0.11561159 -0.22331752 -0.12202224 0.038429882
000030 7e 8b 78 3d c0 05 08 3d 87 37 ec bc 0e 40 98 3d
       0.060679905 0.03320861 -0.028835071 0.074340925
000040 e2 58 e0 3b 6d b7 18 3c 0e 30 a7 3c aa d6 01 3e
       0.006846533 0.009321076 0.020408656 0.12679544
000050 e1 34 7e be 21 d8 a9 bd 62 e2 52 3d e8 3e 2b bd
       -0.24824859 -0.082931764 0.051485427 -0.04180804
000060 69 2a 06 bc 0f 2e ed 3d 0c bf b4 3c 15 7b 1c be
       -0.008188822 0.115810506 0.022063754 -0.15281327
000070 33 46 1d bd b7 58 87 bd d0 3b 8d bd 32 0c eb 3c
       -0.038397025 -0.06608718 -0.06896174 0.028692339
000080 e0 62 13 3d a8 56 36 3d 4d 21 1c 3d e1 da 80 bd
       0.035982966 0.044516236 0.038117696 -0.06291748
000090 dc ce 46 3d a6 d6 ba 3c 66 ce 05 3d d7 42 05 bd
       0.04853712 0.02280743 0.03266754 -0.032534447
0000a0 c8 66 8e bc d4 33 36 be dd a5 bf bd d0 43 85 bd
       -0.017382994 -0.17793208 -0.09357808 -0.06507075
0000b0 f4 63 13 bf 8c 3b 0a 3d c8 07 75 bd 6d 1a fd 3c
       -0.5757439 0.033748195 -0.059821874 0.03089639
0000c0 86 71 6e bc 45 0f b4 bd 4f 33 b3 3c 38 ba 71 3d
       -0.014553433 -0.08791975 0.021875052 0.059015483
0000d0 78 09 7a bd 31 e6 af bd 85 d6 44 3d 7d 1b 97 3c
       -0.061044186 -0.085888274 0.048056144 0.018445725
0000e0 a2 e1 30 be d0 fb f5 3c d4 ba 12 3d 7a b5 53 3d
       -0.17273572 0.0300273 0.035822704 0.05168674
0000f0 56 7a c2 bb 2b b1 c4 3c 62 a6 95 3c 35 25 ed bd
       -0.0059349937 0.024010262 0.018267814 -0.11579362
000100 32 61 12 bd 44 de df bc 23 d7 1f 3d 2d ba e3 3d
       -0.035737224 -0.027327664 0.03902353 0.111194946
000110 e8 dd 45 3c ce ca 87 3d 0f cc a0 3c 72 83 9c bd
       0.012076832 0.06630479 0.019628553 -0.07642259
000120 ae e0 23 be 48 d6 94 bc db 7b c8 3c e0 87 bc 3b
       -0.16003677 -0.018168584 0.024473121 0.0057535022
000130 ac 1d 2c 3b f3 52 8c 3d e0 2b 73 3d f8 20 9e bd
       0.0026262803 0.06851759 0.059368014 -0.07721132
000140 da 45 fc 3d 1a ef 81 3d 21 6f 08 3c bd 01 ae 3d
       0.12318011 0.06344433 0.008327276 0.08496425
000150 c9 72 12 be 50 a4 ac 3d cc 6d e9 3d 82 79 48 3d
       -0.143016 0.084297776 0.11397895 0.048944004
000160 82 0e 90 3d 7f 5a 8f 3d f5 b6 7d be da 5e cb 3b
       0.07034017 0.06999683 -0.24776824 0.0062063755
000170 3f a6 8d bd ff 58 0f bc eb 0c 03 be 23 17 e7 bd
       -0.069164746 -0.008749246 -0.12797897 -0.1128371
000180 9a 15 bb 3c a5 48 b0 bd 31 76 93 3d 78 3e 9d 3d
       0.022837449 -0.08607606 0.072002776 0.076779306
000190 7e 64 ca bd 92 80 62 be b0 51 52 3d b8 96 c9 3d
       -0.098824486 -0.22119358 0.051347435 0.098432004
0001a0 b3 0d c5 3d fb 7d c0 3d d2 23 4e bb 28 0e 83 3d
       0.096217535 0.09399029 -0.0031454456 0.063991845
0001b0 49 cc 23 bd 35 fd 80 3d 77 cd 28 bc 5b b7 e1 bb
       -0.039989743 0.062982954 -0.010302893 -0.0068883128
0001c0 88 b2 f4 3a 06 66 82 3d 9a 43 ef be aa e1 cd 3d
       0.0018668929 0.06367116 -0.46731263 0.10052808
0001d0 1b 36 4a 3d 8c 3d 6f bd 72 ef c5 3b 87 f1 c2 3d
       0.049368005 -0.058408305 0.006040507 0.09518724
0001e0 a4 0a 7b 3b 59 30 bb bd 68 c6 cb be 3a 1b b4 bd
       0.0038305903 -0.09140081 -0.3979981 -0.087942556
0001f0 e7 7e f3 3c c7 8f 1f 3d a9 f8 d8 3d bb a0 be bc
       0.029723598 0.038955476 0.10594303 -0.023270002
000200 07 d2 d6 3d 27 a3 69 be 47 d6 d0 3c 4e 4d b0 be
       0.10489278 -0.22816144 0.0254928 -0.3443398
000210 b4 28 c8 bd 3d 8c dd 3b f7 b0 c7 bd 4b 64 ff bc
       -0.097733885 0.0067611025 -0.0975055 -0.031175753
000220 2b ed c8 3c d6 a4 88 bd ee 35 9e 3b 87 8a 84 3d
       0.024527153 -0.06672065 0.0048282063 0.064717345
000230 e2 3d be bb fd d5 47 bc 7b 76 74 3d 48 cc 87 3b
       -0.005805717 -0.012197015 0.059683304 0.0041442253
000240 4c c1 23 3d 98 bf 9f 3c f3 9e 4e 3d a8 2b 2e 3d
       0.039979264 0.019500539 0.050444555 0.042522103
000250 14 d3 b5 3d f6 09 82 bc 78 54 18 bd 87 0e f1 bd
       0.088781506 -0.01587389 -0.03718993 -0.11770349
000260 50 c1 e1 bd fa af e9 bd a4 b4 02 3d a2 13 d1 bd
       -0.110231996 -0.11410518 0.031910554 -0.10208823
000270 02 0f 28 3c 33 8a 2a bf e7 3d 2f be 7d c2 73 bd
       0.010257484 -0.66617125 -0.17113458 -0.05951165
000280 a8 11 75 3c f5 64 82 39 18 6c 1f bd d9 db 2b 3d
       0.014957823 0.0002487075 -0.038921446 0.04195771
000290 00 b1 67 3d 56 03 c0 3c 30 fb 7a 3c 32 e4 16 be
       0.056565285 0.02343909 0.015318677 -0.14735487
0002a0 83 d2 fb 3d ec da 5f 3d 9e 88 84 be c0 31 3e 3d
       0.12296011 0.05465214 -0.2588548 0.046434164
0002b0 0a 2d f4 ba fe 93 bc 3b 55 c4 34 3d 8a 67 54 be
       -0.0018629145 0.0057549467 0.04413255 -0.20742622
0002c0 1b f9 54 be b9 a5 1d bd 18 0e ad bd b8 1a 96 bd
       -0.20798151 -0.038488124 -0.08449954 -0.07329315
0002d0 a2 22 70 3b c8 c1 b1 bc 98 b7 c0 bd 6c 07 81 3b
       0.0036641737 -0.021698847 -0.09410018 0.0039376523
0002e0 c3 40 ea 3c 4a 07 c8 3c 34 e9 6b bd d8 fe bd bd
       0.028595334 0.024417538 -0.057595447 -0.09277123
0002f0 f7 cc f2 bd d6 53 a7 3d 38 c5 83 3c 35 d8 95 bd
       -0.118555 0.08170287 0.016085252 -0.07316629
000300 f8 87 19 3d 92 40 bd bc e8 2f 85 3d e5 3d 20 3d
       0.037483186 -0.023102079 0.06503278 0.039121527
000310 de 03 c6 bd ea d0 cb bd a7 89 40 3d f4 85 25 bf
       -0.09668706 -0.099519566 0.047006276 -0.6465752
000320 de 53 0f 3d aa 64 d2 bd cb a5 88 bb 39 d9 a5 be
       0.03499209 -0.102731064 -0.0041701547 -0.3239229
000330 df f9 65 be ec 3a 6f 3b 27 44 8e bd 90 15 51 3c
       -0.224586 0.0036503626 -0.06946593 0.012761489
000340 11 97 52 3c 1e a2 54 3d 7e 99 db 3c d2 12 63 3d
       0.0128534 0.05191242 0.02680659 0.05543787
000350 a6 fc d2 3b 17 13 cf bc a8 dc 47 3d 15 f4 09 3d
       0.0064388094 -0.025277657 0.04879442 0.03368004
000360 18 c2 44 3d 5b 23 3c bc b1 b1 65 3d 62 f8 b9 3c
       0.048036665 -0.011483039 0.056077663 0.022701446
000370 80 8f 28 bc 17 10 76 bd 7f 20 3c be 90 f2 62 bb
       -0.010288119 -0.06007394 -0.18371771 -0.0034629442
000380 6d 02 91 3d f8 7f 76 bb 58 11 e4 bc de 96 7c 3d
       0.07080541 -0.0037612896 -0.027840301 0.061667316
000390 68 37 04 bc 8f 95 eb ba dc b8 5e 3a 90 64 37 3d
       -0.0080698505 -0.0017973649 0.0008496174 0.04477364
0003a0 de ab f2 3c 52 53 e9 3c de 22 6b bd e1 8b 89 3d
       0.029622968 0.028482113 -0.0574063 0.06716133
0003b0 ff e6 a0 bd 19 ea 31 be 4d 95 fe 3d bf fc 18 3c
       -0.07856559 -0.17374457 0.124308206 0.009337603
0003c0 cf db d2 3c 94 bd 88 3d a9 4f 48 3d d3 2e 19 be
       0.025739579 0.06676784 0.048904095 -0.14959268
0003d0 7e 54 bc bd fc 6e ce bd 3d d8 c0 3c f7 17 9d bd
       -0.09195803 -0.10079762 0.02354061 -0.076705866
0003e0 a7 d6 08 3d 5b dd fe 3d 32 16 07 3e 8b 1c 7b 39
       0.033407833 0.12444564 0.1319206 0.00023947858
0003f0 76 0d 53 3c bc f3 e4 3d 1c eb 91 be bf b5 eb bd
       0.012881627 0.11179301 -0.28499687 -0.11509275

classifier.bias f4 [16]
000000 eb c5 0f be 37 fb 19 bd bb 52 b4 bd 59 49 cf 3b
       -0.14040343 -0.037593093 -0.08804842 0.0063258824
000010 f5 79 ef 3d 86 ec 5d 3c b1 c4 12 3e a9 80 25 3e
       0.11693183 0.013545161 0.14332844 0.16162361
000020 d2 88 59 3d dc f8 89 3d 6c 19 a9 bd 3f e7 8f 3d
       0.053108998 0.06736919 -0.08256802 0.070265286
000030 42 77 47 3d 11 c6 cc 3d 3d a2 df bd ab 87 14 be
       0.048697717 0.09998716 -0.10919616 -0.14504878
