transfer04_05_21_22_10_12_FullyConnected.pth (torch, 550959 bytes, 8 tensors)

fc1.weight f4 [256, 4]
00000000: 8ea0 013f b213 09bf 81b8 12bf 56ef ab3e
00000010: fe3e c23c 6fc0 f6be e1eb fe3c d2b5 c03d
00000020: 00f2 82be 543b 2dbe cabf f43e 6657 bf3e
00000030: bc9e e33d 2fd6 e7be 58da d7bd 45b7 03be
00000040: d0b3 11be d457 b8be ce25 9b3e d0df f6bd
00000050: fc03 363e 10ee 8f3e 50cd 313e 5c6c 70be
00000060: decc b3be e812 d1bd 4c3c 01be d033 2c3e
00000070: 802b 5abd 9805 ca3d c411 edbe 9c1a fdbe
00000080: 8c7b 65be 2cde ee3e dc90 60be b220 babe
00000090: 8a50 ce3d f9ac 2bbf 33e4 943c fe93 c73e
000000a0: e24a 313e 22da 2e3e 9b60 0fbf 44ed 153d
000000b0: 9e77 c3be de6b f7be 9fae 05bf 6135 be3e
000000c0: 3e98 c43e e251 d8be e363 e9be 3805 b0bc
000000d0: 40d6 a03e 0e6f 2abf 5f3f f1bd 7cbb 763e
000000e0: 44d4 f1be 803d e13b f090 e83e 0cb5 0c3e
000000f0: 82a3 983d c195 c0be 1b78 c33d e7d5 063e
00000100: de3f eabd 7adb 30be 26fd 5f3e a56b c7be
00000110: 1248 c43e e4e0 a2be 065b 56bc 1e2f a1bd
00000120: 407a c73d f3e5 c43e c1ff 233f 69ee 793d
00000130: 68ef 643d fb8b 04bf 65a9 36be 01db 153e
00000140: 6247 803e 5883 033e c03a b93d 5016 bfbd
00000150: 9e29 953d 8e31 263f 00fb c93e 0463 953d
00000160: 72cd 263e 1dca 123f ecb5 b93e fa73 abbe
00000170: ac76 d7be 8f3b a23e 11f3 9f3b 4e36 e8bc
00000180: 1eb4 763e fa97 0c3e b4b9 d4bd dc5d 413d
00000190: ca3b ec3d ecfe 13bf 7477 b4be e321 d4bd
000001a0: 464d b9be 7031 bfbd 00fe 95ba f4d9 26be
000001b0: a83e 6cbe ce98 ec3d f61d 98be 8172 ad3e
000001c0: 6634 d1be d05a 853d 3224 d23e 18c8 d6be
000001d0: 4012 0d3f a5b0 ccbe d090 d5be c8dc bfbe
000001e0: fe97 dd3e ec9a 8f3e 4a79 a5bd 991f 9c3e
000001f0: cec7 ccbe 2cec 8d3e 50b6 debe 2ac3 86be
00000200: e3b2 28be 1396 30bf c48a 3ebf 6d86 f1bd
00000210: 06b4 a7be 6f69 abbe 91ed f3be 4ab0 733e
00000220: fb4f b53e a8a1 d5be fb9d 97bd 7744 783e
00000230: 3208 783e 1961 e73e 4cf6 53bd d7e0 e4bc
00000240: 3819 57be e7b1 5abe 3f63 82be 53d0 903e
00000250: 7887 20be a681 ea3e 0412 00be eec8 debe
00000260: 5387 a7be ec7f 6e3e 2415 d53e 7afa 44be
00000270: 8073 a7bd f2a8 ac3e c023 2b3e 3a98 edbe
00000280: 4f45 953e 946d 143f 4ac9 2ebe 1b77 573e
00000290: 078e 0abf 956a 363e c5fe 593e 5d7d 793e
000002a0: ce91 ddbe d451 5d3e e818 fb3d 2e9a b3be
000002b0: 6359 b03e 44e9 fb3d 63e6 55bd 6a09 613e
000002c0: 5c79 ddbe 10b7 4ebd d819 103e 0041 b0bc
000002d0: 9afb 29be 35aa 033f 9f82 013f 9e86 e23e
000002e0: ce90 b43e d69f 14bf 9a7b 0fbf 317e 9e3e
000002f0: 54c9 d1be 7b94 c8be a603 01bf d42b 84be
00000300: 1868 e53d 3c66 913e 60d9 25bd 163d e1be
00000310: a8f0 c4be a0c8 543d a87d 64be ec44 653e
00000320: 626b b9be 8818 2bbf 165b 13bf b6d9 1b3f
00000330: 1a19 cc3e d4dd 05bf 449b 7bbe d378 b63d
00000340: 4e39 ccbe 10ab 843e 22e1 e73e 2e25 90be
00000350: 0885 32be 20d7 37bd 9a4a 903e 4069 f5bd
00000360: 33f0 153c be42 dbbe 692f f7be f1d3 d63e
00000370: 3861 c4be 8814 f5be 98af a6bd c043 8dbd
00000380: ffd7 1f3e bc02 9ebe e5a3 c4bd 3d3d 1e3e
00000390: 32ce 5b3b 4cb1 cd3e 28fc d13e 583f 0abe
000003a0: ffb3 c5bd ec7b 753e 2226 143f 9878 5a3e
000003b0: a670 b8be 1c31 fabe 007f fe3c 00b1 003d
000003c0: af6e dfbe b35a 1bbf 5401 80be 65bd 3dbe
000003d0: e63a 503e 2cce 033f aec8 46be f26c 863e
000003e0: 2826 873e e8aa 8abc 6517 f43e 6a51 70be
000003f0: 23d1 db3e 3c9d bcbe cb86 a63d 9e20 383e
0.5063561 -0.5354568 -0.5731278 0.33581036 0.023711678 -0.4819369 0.031118335 0.094096795
-0.25575256 -0.16917163 0.47802573 0.37371367 0.111142606 -0.45280597 -0.10539693 -0.1286288
-0.1422875 -0.36004508 0.3030228 -0.120544076 0.17774957 0.28111315 0.17363477 -0.23478836
-0.3511724 -0.10208684 -0.12620658 0.1681664 -0.05326414 0.09864348 -0.46302617 -0.49434364
-0.2241041 0.4665388 -0.2193026 -0.3635307 0.10073955 -0.6706081 0.01817522 0.38980097
0.17313722 0.17075399 -0.56006783 0.036603227 -0.38177198 -0.48324484 -0.52219576 0.371501
0.38397402 -0.42249972 -0.4558402 -0.021486863 0.3141346 -0.66575706 -0.11779665 0.24094957
-0.47232258 0.0068737864 0.4542308 0.13740939 0.07453062 -0.37614253 0.09544393 0.13167535
-0.11437963 -0.17271224 0.21873912 -0.38949314 0.38336235 -0.31812203 -0.013083225 -0.07870315
0.09740114 0.38456687 0.64062124 0.06101838 0.055892378 -0.51776093 -0.17838056 0.14634325
0.2505446 0.12843072 0.09044409 -0.09330428 0.072833285 0.64919364 0.3944931 0.07294276
0.16289309 0.5733965 0.36271608 -0.3348692 -0.42082727 0.31686065 0.0048812707 -0.028346207
0.24092147 0.1372985 -0.103869826 0.047208652 0.11534841 -0.57810855 -0.35247386 -0.10358026
-0.36191767 -0.09335601 -0.0011443496 -0.1629408 -0.23070776 0.11552583 -0.29710358 0.33876422
-0.4086029 0.06511462 0.4104324 -0.41949534 0.5510597 -0.3997852 -0.41712046 -0.3747313
0.43280023 0.28047884 -0.08079775 0.30492857 -0.3999619 0.27719247 -0.43498468 -0.26320773
-0.1647449 -0.68978995 -0.7443049 -0.11793218 -0.32754534 -0.33478877 -0.47642186 0.23797718
0.35412583 -0.41724896 -0.07403179 0.24244867 0.24221876 0.45191267 -0.05174856 -0.027939243
-0.21005714 -0.21356927 -0.25466344 0.2828394 -0.15676677 0.4580204 -0.12506872 -0.43512672
-0.32720432 0.23290986 0.41617692 -0.19236174 -0.08176327 0.33722645 0.16712856 -0.46405202
0.2915444 0.579797 -0.17068973 0.21041529 -0.54122967 0.17814095 0.21288593 0.24364229
-0.43275303 0.21613246 0.1226061 -0.35078567 0.34443197 0.12300351 -0.052221667 0.21976247
-0.43256652 -0.05046755 0.14072359 -0.02151537 -0.16599885 0.5143159 0.50589937 0.4424333
0.35266727 -0.5805639 -0.56047976 0.3095565 -0.40973914 -0.39175782 -0.5039619 -0.25814688
0.11201495 0.2839831 -0.040490508 -0.43991917 -0.38464856 0.051949143 -0.22313559 0.22389573
-0.3621474 -0.66834307 -0.5756086 0.60879076 0.398629 -0.5229161 -0.24570948 0.08909764
-0.3988747 0.2591176 0.4528895 -0.28153366 -0.1743356 -0.044882894 0.28181916 -0.119829655
0.009151506 -0.42824358 -0.4827836 0.41958573 -0.38355422 -0.47867227 -0.081389606 -0.06897688
0.1560974 -0.3086146 -0.09601573 0.15453048 0.003353965 0.4017433 0.41012692 -0.13500726
-0.09653472 0.23973054 0.57870686 0.21335065 -0.36023444 -0.48865592 0.031066418 0.0314188
-0.43639132 -0.6068527 -0.25001013 -0.1852928 0.20334968 0.5148647 -0.1941249 0.26254994
0.26396298 -0.016927198 0.476741 -0.23468557 0.42932996 -0.3683871 0.081311785 0.17981192

fc1.bias f4 [256]
00000000: 56c9 a73d 5c31 963e 9499 a2be 8dd4 b5bc
00000010: 5483 c2be 28c3 b8be 643e 07be 489c e83d
00000020: c0a6 02bd 905c 81be f114 babc f539 693e
00000030: e846 8a3e c654 6b3e c039 46be cc21 b93d
00000040: 54a1 273e 8662 333e 00ab 35be 2cc4 ac3e
00000050: b2f3 a2be 1268 4d3e 2377 ad3e 2528 7c3e
00000060: 9945 883e 7db1 273e 5c6b 3d3e 2586 1ebe
00000070: f87b 16be 6d9c e33e 0aa2 bfbe 70c9 dcbe
00000080: 3f43 fb3d 1576 a93d a745 14bd 899a 833e
00000090: bfdb 953d 1027 1f3d 683b b43e 00ac 633c
000000a0: a9bc 0dbe 0ae9 a0be 1006 05bd 0d70 6cbe
000000b0: da4c ffbe 3f13 d4bd de62 4abe 0325 a73e
000000c0: 78dd 9cbe 8eb0 a9be 5a87 17be 8ca6 493e
000000d0: 3cf4 08be 00eb 2ebd e442 073e 5050 01be
000000e0: 4b78 493d 5124 8c3e 5413 de3d bcaf 70be
000000f0: ed2d 023f 30e9 f1be 522a 033e c132 cfbd
00000100: 96e1 94be 5eff dfbe 1477 103e b419 f0be
00000110: ea2a 48be b11e 523e 6c4b 63be 0642 eabe
00000120: 087e 803e a6fe a33d ec2c 81be 2029 f1bc
00000130: e095 9c3e d904 cc3e 9ffa 9bbd 403b 12be
00000140: aaf1 4e3d a4d2 ed3d 12a9 afbe 5c4c 203e
00000150: 78ee f8bd f94f 373e 1cdb 72bc de17 43be
00000160: a484 1b3e 763e 8d3e 952a b33d 98d3 5fbe
00000170: 4c44 e23e 7473 643e e0ed 843d cc51 70be
00000180: 6878 803d b4f5 bbbc 9e30 683e 15c4 893e
00000190: 5c7c 513e 54de b33d 850a a43e e289 613e
000001a0: 9d8d 73be 9679 9dbe 9817 64be 5227 5f3e
000001b0: 422a 463e c578 8b3e 4495 0f3e 1d56 093e
000001c0: a2d1 cc3c 3a45 493e 80a6 ecbd a43f e5be
000001d0: 548b c8be 50be e5be 7a3a d5be 09c5 d83e
000001e0: 03de f2bd 306f 42bd ef7c d13d 9661 bdbe
000001f0: 2854 babe ece1 48be 81d8 b5bc 51e0 f43d
00000200: 949c 5bbe e623 d5bd 6ecf d03e 9c24 dbbe
00000210: ce60 4e3e d691 f9be 2469 013e 35a7 d3bc
00000220: 1f02 803e 0081 c5bd 7847 84be e633 993e
00000230: 66a1 b9be c072 71be de84 4d3e e09d 19bd
00000240: f83e 04be 31e2 bbbe 84f0 e33d 16d5 2dbd
00000250: 91dd 3d3e 324d 82be da50 f03d b54f ebbe
00000260: 532d 5c3e 6841 813e a31d 72be ead6 da3d
00000270: af4f 973e 4829 213e 9e8c a23e 7820 30be
00000280: f31e b9be d905 a53e 8989 a83e 882b 58be
00000290: a26a f53e 3918 f63d 347d 483e 3860 75be
000002a0: 90e2 2dbd 4a4d f43b 5c8f e6be d089 d3be
000002b0: 0e2e 3c3d 5f21 8a3e eff3 98bd e944 a0be
000002c0: 1b95 033d a6e7 fabe 075f 673e 22c3 d7be
000002d0: 4ea1 cb3d 137b 873e cb8a 573e 664e 3dbe
000002e0: 1d22 d53e 0808 babe 3f70 8bbd e75d 49be
000002f0: 64d5 72be 9a6d 88be 697c 33be 603b 163e
00000300: fe90 843c 2a56 a8be 2966 6dbe ac8a aebe
00000310: 48b9 b6be e4fa fabe b5d3 c83e c30c 4b3d
00000320: a351 b1bc 87fb a73e cf2a db3e 6585 7e3e
00000330: 9797 b33e fce5 f5be 46f6 7a3e 3693 efbe
00000340: 77bc a13e a0f2 f4be 7174 3a3e 1b57 823e
00000350: 9913 aabc b375 24bd e0ca a7be 90b8 dabd
00000360: f424 0c3e ee11 08be e6de a4be ac71 f9be
00000370: ba12 2b3d fe4f 78bd 399d 9c3d e238 c7be
00000380: bae9 993d 35d8 5c3e 6b99 0fbe 9e3c 7c3e
00000390: 0109 873d dd5f b7be 8474 f7be 5a55 38be
000003a0: 81a1 653d 3a88 f13e 7e16 dfbe 48cc c9be
000003b0: a552 d8bd b4c1 95be d5e1 303e 7208 dd3d
000003c0: fc0c 1cbe 220a c7be c081 f7be 99d7 38be
000003d0: b4da 95be eeb4 edbe 3cab b4be 4353 f33d
000003e0: b24b f8be 8fa7 a9bc 9f85 f53d aa3f 9dbe
000003f0: 82c6 debe ccfe 33be b09c aebe c285 81be
0.08192699 0.29334533 -0.31757796 -0.022196079 -0.3799082 -0.36086392 -0.13207394 0.11357933
-0.031897306 -0.25265932 -0.022715064 0.22776015 0.27007222 0.22981557 -0.19357967 0.09039649
0.16370136 0.17518052 -0.17741013 0.33743417 -0.3182655 0.20059231 0.33879957 0.24624689
0.266156 0.163763 0.18497986 -0.1548086 -0.14695728 0.4445528 -0.37428313 -0.43122435
0.122686855 0.082744755 -0.03619924 0.25703838 0.07317304 0.038855612 0.35201573 0.013895988
-0.138415 -0.31427795 -0.032476485 -0.23089619 -0.4986332 -0.103552334 -0.19764277 0.32645425
-0.30637717 -0.33142513 -0.14797726 0.19692439 -0.13374418 -0.042704582 0.1320911 -0.12628293
0.049186986 0.27371457 0.1084353 -0.23504537 0.5085133 -0.4724822 0.12809113 -0.101171024
-0.29078358 -0.43749517 0.14107925 -0.4689461 -0.1954762 0.2051952 -0.2219674 -0.45753497
0.25096154 0.08007555 -0.25229585 -0.029438555 0.30583096 0.39847448 -0.076161616 -0.14280415
0.050523438 0.11612442 -0.34308678 0.15654129 -0.12154859 0.17901601 -0.014822748 -0.19052073
0.15187317 0.27586716 0.08748356 -0.2185806 0.4419273 0.22309667 0.064906836 -0.23468703
0.06272966 -0.022944309 0.22674796 0.2690741 0.20457596 0.0878264 0.32039276 0.22025254
-0.2378449 -0.30756825 -0.22274625 0.21792343 0.19352058 0.27240577 0.14021784 0.13411756
0.025002304 0.19655314 -0.11555195 -0.44775116 -0.391688 -0.4487176 -0.41646177 0.42337826
-0.118587516 -0.047469318 0.10228907 -0.36988515 -0.3639233 -0.19617432 -0.022197964 0.119568475
-0.21446449 -0.10407238 0.40783256 -0.42801368 0.20154116 -0.48744076 0.12637764 -0.025836566
0.25001618 -0.096437454 -0.25835776 0.29922408 -0.3625595 -0.2357893 0.20070216 -0.037504077
-0.12914646 -0.36696008 0.11129859 -0.042439543 0.18541552 -0.2544952 0.11734171 -0.4595925
0.21501665 0.25245214 -0.23644118 0.10685523 0.2955298 0.15738404 0.31747907 -0.17199886
-0.36156425 0.32231024 0.3291743 -0.21110356 0.47932917 0.12016339 0.19579011 -0.23962486
-0.042452395 0.0074555026 -0.4503125 -0.4131608 0.04594236 0.26978585 -0.07468402 -0.31302574
0.03212462 -0.4900486 0.22594844 -0.42141062 0.09942876 0.26461086 0.21049039 -0.18486938
0.4162759 -0.36334252 -0.068085186 -0.19664727 -0.23714215 -0.2664612 -0.17527927 0.14671087
0.016182419 -0.32878238 -0.23183502 -0.34090173 -0.35688233 -0.4901954 0.3922402 0.049572717
-0.021645373 0.32809088 0.42806098 0.24855573 0.3507659 -0.48027027 0.24508008 -0.46792
0.315891 -0.47841358 0.18208481 0.2545708 -0.020761298 -0.04015131 -0.3277197 -0.10679734
0.13685971 -0.1328809 -0.32201308 -0.48719537 0.041765906 -0.06062316 0.07647175 -0.38910586
0.07515283 0.21566851 -0.14023368 0.24632499 0.06593514 -0.35815325 -0.48331082 -0.18001309
0.056062225 0.47174245 -0.43571848 -0.39413667 -0.10562638 -0.29249346 0.17273648 0.107926264
-0.15239328 -0.38874918 -0.4834118 -0.18050994 -0.2926842 -0.464271 -0.3528689 0.11881115
-0.4849525 -0.020709781 0.11988377 -0.30712634 -0.43510824 -0.17577666 -0.34103918 -0.25297362

fc2.weight f4 [256, 256]
00000000: 323f ae3c 4e23 3c3d 24b6 b93c dba2 1e3d
00000010: 5030 f8bc de45 3dbd 6ebc 34bd 2604 57bd
00000020: 5833 2d3d 6c84 713d a668 a0bc f5ec c43d
00000030: 1af4 693d 3cfb 373d 54c6 79bd 6c63 e7bb
00000040: 9b55 9ebd 528a 60bd 2103 ccbd 630c 853d
00000050: 2c96 27bd 3bac b3be db3e 8bbe de2f 9ebd
00000060: bad9 d3bd c5f4 7b3d 006b baba 5f47 98bd
00000070: beb3 17bd 1136 5d3d efc8 bebd 0083 8b3a
00000080: 6da8 4c3e 23b2 2b3e 92a4 163d 5870 41bd
00000090: dd3e c53b 1000 c43c 7485 bfbd 7e97 423d
000000a0: 03ec 72be a650 153d b82f 883c 08f0 bebd
000000b0: 0874 d1bc 2b68 a1bd 1441 023e 92c1 323e
000000c0: c845 4f3c a8c0 ff3c d44d 4f3e 6e9d 093d
000000d0: ecc4 91bc 2af7 11bd 90ce 9a3b 3005 2b3d
000000e0: 2c89 fe3c a63e a4be d5af 76be f435 d03c
000000f0: 28f0 143e c04f 2bbd bf0a 7fbd 6586 f13c
00000100: d0f5 43bc 3ed5 733d 520c 25bd 50e2 753d
00000110: 84e2 90bc 9497 243e cc97 59bd 5e70 6c3d
00000120: 6f38 443d 20ef ba3d c0dd 45bb 90c3 0bbc
00000130: ba97 87bd 61ca 80be c63a 4b3e 87f8 1a3e
00000140: cb9e c1be 4f02 edbc c0a9 85bc 37dd 02be
00000150: 18b2 2abd 72a9 02be 5b90 b43d d051 d03c
00000160: 3869 19bd 6151 cebe 03eb a63b e6f6 2f3d
00000170: 0a37 4bbe 759e 95bd 7875 7d3c 6a88 3abd
00000180: a296 fcbd ede2 94be 9f72 303e 1e16 17bd
00000190: 3b7b 1dbe 6784 a93d 69e4 85bd 1583 123e
000001a0: b98b 06bc a4dc 4abd 00bb 963b 3afb d83b
000001b0: e5ba 813d 80fe 123d 5877 f63c 61f3 94bd
000001c0: 9ef1 04be 9ea3 c5bc c88d d33c 9088 ae3c
000001d0: dcfa 0bbd 7016 3f3c c237 2ebd 78d5 553e
000001e0: 6b9b e2bc 1e14 513d 871d 613e f2cb 0f3d
000001f0: 8cd2 9ebc 8c9e 90bc bc87 bebc 0911 503c
00000200: c869 5abd a784 073e b702 13be 8429 ecbc
00000210: 3e26 cfbd 28dc 3f3c c7cc ba3d 464c 653d
00000220: 5c13 07bc e0c7 f03c fec1 77bd fde1 6ebd
00000230: 2293 67bd a03f 263d 9750 dbbd 94df 3f3d
00000240: 7916 22bd bf96 babd 9887 1e3e e4b1 153d
00000250: 11fc b8be f8b5 f7bc 2bab 71bd c400 bb3c
00000260: c26a 58bd f5ab 66be 39eb 13bc 69f0 1ebe
00000270: 883f 7cbe 468f bbbd 71fb c13d 9baa a23d
00000280: e093 a43c b990 3b3c 0201 833e 86f8 5abe
00000290: f2a4 433d 1511 253e 6a6f b83d f68f 013d
000002a0: 4c2f a6bc cab0 3a3e d09d 563d ac96 a23c
000002b0: db1a aebe fe24 17be 013f a13c 6ddc 03be
000002c0: 8de1 a93d 0ce4 efbc cbf6 82be 9422 adbc
000002d0: efc0 9f3d b3a6 21bd 7574 a1be 01fe 343e
000002e0: f700 6abe d009 063c 2105 513d 3a53 8e3d
000002f0: 1e13 453d c8be 3cbd 5da3 b13d ef77 2d3d
00000300: fa8a 4abd e877 82bc 1633 473c febd 533d
00000310: 53bb 03bd 183d 853c dc2b 993c a804 923d
00000320: 474c 61bd c374 40be 1380 59be ed59 993d
00000330: 08ef ed3d 0090 e7b9 7793 aabe 1045 a63c
00000340: 7663 073e 66be 3bbd 19a7 783e 1f13 56bd
00000350: 0ba7 b6bd 4e30 56bd 90f7 6ebd 9820 e13c
00000360: 3e0f 1a3d 2375 15bd 42ab ccbc ea1d 113d
00000370: 9a90 3f3b a05d 8c3d ba45 b0be a879 a8bc
00000380: a5e8 913d 5e03 193e 30d5 98bc 0ac8 80be
00000390: 5fa9 49bd f72c e4bd 14e0 01bd ffac c0bd
000003a0: 044b ddbd 1968 373d be0e 4ebd 276f d43b
000003b0: dddb fcbd 0c39 7a3d afe2 04be 85f1 2dbd
000003c0: 6c53 63bd 16d8 513d 506d 77bc 83bf 2fbd
000003d0: 0836 6fbd 242b dc3c 40da 9cbc de9d bfbe
000003e0: 38dd 793c 8bd9 25bc 8c1d ac3c e0ae ed3b
000003f0: 203d ea3c 64b2 47bd e04c 8bbb acd2 34bd
0.021270368 0.045932107 0.02266986 0.03872953 -0.030296475 -0.04620921 -0.044125013 -0.05249419
0.042285293 0.058964178 -0.01958115 0.096155085 0.05711756 0.04491733 -0.060980156 -0.0070614126
-0.07731172 -0.054819413 -0.09961534 0.06496503 -0.0409147 -0.3509234 -0.27196392 -0.07723974
-0.103442624 0.061512727 -0.0014222562 -0.07435488 -0.03703665 0.05400664 -0.09315669 0.00106439
0.19986124 0.16767173 0.03677804 -0.04722628 0.006019457 0.023925811 -0.09351626 0.047507755
-0.23722844 0.036453865 0.016624317 -0.09323126 -0.025568023 -0.078811966 0.12720138 0.17456654
0.0126509145 0.031219795 0.20244533 0.033597402 -0.017794095 -0.035636105 0.004724331 0.041752994
0.031071268 -0.32079047 -0.24090512 0.025416352 0.14544737 -0.041824102 -0.062266108 0.02948303
-0.011960462 0.059529535 -0.040294953 0.06003028 -0.017686136 0.16073447 -0.05312328 0.05772435
0.04790538 0.09127641 -0.0030191988 -0.008530512 -0.066207364 -0.25154403 0.19846639 0.15133868
-0.37816462 -0.028931765 -0.016316295 -0.127797 -0.04167375 -0.12759951 0.08816596 0.025429636
-0.03745386 -0.40296462 0.0050939335 0.04296007 -0.19845214 -0.07305614 0.015469901 -0.04554025
-0.123334184 -0.2907938 0.17231224 -0.036886327 -0.1537904 0.08277207 -0.065377064 0.14307816
-0.008212023 -0.049526826 0.004599929 0.0066217454 0.063344754 0.03588724 0.030086204 -0.07272983
-0.12982795 -0.02412587 0.025824443 0.021305352 -0.034174785 0.011663064 -0.042533644 0.20882213
-0.027662 0.051044576 0.2198392 0.035106607 -0.019387506 -0.017653726 -0.023258083 0.012699374
-0.053323537 0.13234197 -0.14356504 -0.02882839 -0.10114716 0.011710204 0.091210894 0.055980943
-0.008244362 0.029392183 -0.06048774 -0.058320988 -0.0565368 0.04058802 -0.10708731 0.04684408
-0.039572213 -0.09110784 0.15481412 0.036546603 -0.3612981 -0.030238137 -0.05900113 0.022827514
-0.052836187 -0.22526534 -0.009028249 -0.15521397 -0.2463361 -0.091581866 0.09471787 0.07942697
0.020090044 0.011448079 0.25586706 -0.21383867 0.047764726 0.16119798 0.090056255 0.031631432
-0.020286225 0.18231502 0.052396595 0.019847237 -0.34004864 -0.14760205 0.019683363 -0.12877055
0.082949735 -0.029283546 -0.25578913 -0.021134652 0.07800471 -0.039465617 -0.31534162 0.1767502
-0.2285193 0.00818105 0.051030282 0.06949468 0.048113935 -0.04608038 0.08673737 0.042350706
-0.049448945 -0.015926316 0.012158176 0.051694863 -0.03216107 0.016264483 0.018697672 0.07129794
-0.055004384 -0.18794541 -0.21240263 0.07487855 0.11617857 -0.00044167042 -0.33315632 0.020296603
0.13221535 -0.045835875 0.24282493 -0.05226433 -0.0891858 -0.05229216 -0.058341563 0.027481362
0.037612192 -0.036488663 -0.024984006 0.03542892 0.0029230476 0.06853795 -0.34428197 -0.020565823
0.071244515 0.1494269 -0.018656343 -0.25152618 -0.04923379 -0.11141389 -0.03170784 -0.094079964
-0.10805324 0.04477701 -0.050307028 0.006482977 -0.12346623 0.06108956 -0.12977098 -0.04246666
-0.05549948 0.051231466 -0.015101746 -0.04290725 -0.058401138 0.02687604 -0.019147038 -0.3742513
0.015250497 -0.010122667 0.021010183 0.0072535127 0.0285936 -0.04875411 -0.0042511076 -0.044146225

fc2.bias f4 [256]
00000000: c6c3 61bc db1f dfbd 4317 a9bd 53a1 f3bd
00000010: 77fa 753d 3ed6 223e 8f5f adbd f21b 47bd
00000020: a054 33bb 058b 36bd 69c2 f83d 42cb e3bb
00000030: 1186 003c c3d0 cbbd bc18 e7bc 2392 dfbd
00000040: e27c 6abd 3136 7bbd a24e 13bd bd6a abbc
00000050: 108b dc3a d72f bdbd ef20 3abd ff82 2fbd
00000060: e323 84bc 38e3 f6bd 841e a3bc 84a3 9c3d
00000070: 4d51 dcbd 3b1c 13be ed7a 25bc fbd7 c03d
00000080: a12c 29bd a2a6 7bbd ef55 1c3d 29d9 f2bc
00000090: 08a0 75bd 2edd 33bd 284d e6bd 259f 46bd
000000a0: 2e59 82bc 71e4 edbd 7d57 7dbd f8e1 13bc
000000b0: 740c e3bc e7ac 76bc 68f8 b7bd 601a edbd
000000c0: 66c8 d83c bb3c 92bd beb8 1dbd 7a7f 4dbd
000000d0: 5f0c 04bc 0c1a f0bd 3e05 40bd d51c 96bc
000000e0: 8f5a 163e ef4d 06bd b711 acbc a42c 663d
000000f0: 4016 f9bc 8556 21bd 0eaf 1a3d f885 1bbc
00000100: 6d8b bfbd b345 cfbd 65b8 eabd 233c 5fbd
00000110: 82f9 07bd ced3 dfbd a47f cdbd d459 413d
00000120: d0f3 45bd e19b 313d fb44 5ebd a15b 82bb
00000130: 08a0 edbc d3c1 09bd 807f 1bba de4f b8bd
00000140: c3e6 b1bb ba45 9dbd 6ad6 bc3b 420e 383d
00000150: 2dd2 993b a3bd bfbd 592b 9fbc 30a9 e2bd
00000160: 2ad7 19bd c2ac ff3d e3b0 50bb 2b6e a8bd
00000170: f72c b2bd d8c6 063d 0499 bfbc 2541 a6bc
00000180: 2969 82bc 0a62 98bd de59 073d 6778 443e
00000190: ca21 44bd 9623 4b3e 0c78 c1bc 8874 1cbc
000001a0: dfab 15bd 50fa 58bd 1a45 363d 8d02 14be
000001b0: 727a 64bd 3d09 23bd 04e9 b4bd e282 79bd
000001c0: ac64 99bd e0ca 11bb 5751 5cbd 9cf0 aebc
000001d0: 448f 5ebd a1a6 40bc f4e8 5abd c22a 9fbd
000001e0: 487c 4ebd f5a3 f6bb 33e5 f8bd 0028 bb38
000001f0: 71c5 cdbd 2b89 b7bd c567 71bd 4cdb d8bd
00000200: 14b1 afbd bc33 debc 07b1 58bd 9083 53bd
00000210: 7010 e9bc c062 abbc 1c81 223d bc0c 40bc
00000220: d940 c1bd 3850 82bc e5e2 d7bd 4cc0 dc3d
00000230: ee9c 45bc 21cc 98bc 0645 05bc c3e2 233c
00000240: c1ab c3bd c0fc 56bd 4e91 eabc 7f38 8cbd
00000250: c002 5fbc 4032 8f3c 900a 63bd 9c48 96bd
00000260: 61a7 57bd 3c9e 663b 5dbb ddbd c85e aabc
00000270: 0ca3 a5bd 724f 6bbd 4c2e c43a d882 debd
00000280: 2ee1 dfbd 2004 853b 0457 28bd 0fd5 9ebd
00000290: 3d41 c0bd 359d 96bd e4a6 0cbd 0ce3 77bc
000002a0: d761 c0bd 117b 86bc 11d3 04bd 9562 bbbd
000002b0: 43ee ecbd 0b87 29bd cca4 86bc be2e 82bd
000002c0: c56d f1bc ab2b 0138 251b c1bd 8f3c d2bd
000002d0: 2c03 513d e31b debc 811b dfbd 1e60 a9bd
000002e0: 5788 61b9 37ed 7e3a 1868 bbbd 9d1f 813c
000002f0: 8b9a 6cbd 06df 15bb 8f13 e5bd 1c68 cfbc
00000300: c6f4 403d 6c8f 56bd 1ca1 12bd 8488 b9bd
00000310: a9c9 f7bd 3293 76bd 1fe9 cd3d 2def 103c
00000320: 1b21 ab3d 0590 453e 309d 0a3c 7215 243d
00000330: 8ce0 f83b 035b 81bc 03a0 bebd 4a3d dabd
00000340: 2050 84bd 6580 a63c 62dd 7fbd 45f1 e4bd
00000350: c2bf d2bc de05 1dbd 14fc e5bd cd74 45bd
00000360: f51d 54bc aa20 37bc 385e d5bd aeec e03a
00000370: ce03 bdbb 64e0 edbd 9215 54bd 4219 3bbc
00000380: 32d8 49bd 116b 35bd 9e35 24bc 7918 4bbd
00000390: 158d edbd 4816 9cbc 1b5d debd 8ab7 033d
000003a0: ed3a a2bd cc0d 7bbd 9d85 1bbd e28f eabd
000003b0: bea0 1b3d 64b3 9bbd 20ed 19bc 379f dc3d
000003c0: c95e 0cbd 9d61 a6bd 1fdf c1bd 4b42 cabc
000003d0: 013e b2bd aa25 013a 064a e8bd f4ee e3bd
000003e0: 3ee8 28bd b8a4 e33c 969f dbbd 1a1a 70bd
000003f0: 4dee 1abd 2c54 62bd 6380 adbd 2447 edbd
-0.013779586 -0.10894748 -0.0825639 -0.118960045 0.060053315 0.1590204 -0.08465492 -0.048610635
-0.0027363673 -0.044566173 0.12146456 -0.0069517205 0.007844464 -0.099519275 -0.028210036 -0.10916545
-0.057248004 -0.061330978 -0.035963662 -0.02092492 0.0016826112 -0.0923764 -0.045441564 -0.042849537
-0.016130393 -0.12055057 -0.019912012 0.07648376 -0.107576944 -0.14366238 -0.010100109 0.09416195
-0.041302327 -0.06143821 0.03816789 -0.029644566 -0.05996707 -0.043912105 -0.11245185 -0.048491616
-0.015911665 -0.11615837 -0.061851013 -0.009026043 -0.027715899 -0.015055872 -0.089829266 -0.11577296
0.026462745 -0.0714049 -0.038506262 -0.0501704 -0.00805959 -0.11723718 -0.04688 -0.018324295
0.14682983 -0.032789167 -0.02100454 0.056194916 -0.030406117 -0.039389152 0.0377646 -0.00949239
-0.09352765 -0.10120716 -0.11460952 -0.05450071 -0.033196934 -0.109290704 -0.10034111 0.047204807
-0.04832822 0.04336155 -0.054265004 -0.003978208 -0.029006973 -0.03363211 -0.000593178 -0.089996085
-0.0054291203 -0.07679315 0.005762865 0.044935472 0.0046942444 -0.09362342 -0.01942985 -0.11067426
-0.037558712 0.12484123 -0.0031843714 -0.08224138 -0.086999826 0.032904476 -0.023388393 -0.020294735
-0.015919285 -0.074405745 0.03304469 0.19186555 -0.047883786 0.19837794 -0.023616813 -0.009549268
-0.036540862 -0.05297309 0.044499494 -0.14454098 -0.055780835 -0.039803732 -0.08833507 -0.060915835
-0.07489905 -0.0022246167 -0.05378851 -0.021354966 -0.054335847 -0.011758477 -0.053444818 -0.07771827
-0.050411493 -0.0075268694 -0.12153091 8.9243054e-05 -0.100474246 -0.089617096 -0.058936853 -0.105887026
-0.08578697 -0.027124278 -0.0529032 -0.05163914 -0.02845022 -0.020921111 0.03967391 -0.011721786
-0.09436197 -0.015907392 -0.105413236 0.10778865 -0.012061341 -0.018652024 -0.008134132 0.010002795
-0.09554244 -0.052487135 -0.02863374 -0.06846713 -0.0136114955 0.017480016 -0.055429995 -0.07338068
-0.05264986 0.003518953 -0.10826752 -0.020797148 -0.08087739 -0.05744881 0.0014967411 -0.108648
-0.109316215 0.0040593296 -0.04109861 -0.077554815 -0.09387443 -0.073542036 -0.034338847 -0.015129816
-0.093936615 -0.016416105 -0.03242785 -0.091496624 -0.11568882 -0.041388553 -0.016436003 -0.063565716
-0.029471288 3.0796666e-05 -0.094290055 -0.10265457 0.051028416 -0.027112907 -0.10893918 -0.08270286
-0.00021508463 0.0009724679 -0.09150714 0.015762145 -0.05776457 -0.0022868528 -0.11185371 -0.025318198
0.047108434 -0.05238287 -0.035798177 -0.090592414 -0.120990105 -0.06019897 0.1005423 0.008846086
0.08355924 0.1929322 0.008460328 0.040059514 0.0075951274 -0.015790468 -0.093078636 -0.10656221
-0.06460595 0.020324895 -0.062466986 -0.11178831 -0.025726203 -0.038335674 -0.11229721 -0.048207093
-0.012946595 -0.011177221 -0.104183614 0.001716038 -0.005768276 -0.11615065 -0.051778384 -0.011419596
-0.049278446 -0.04429156 -0.010022549 -0.049583886 -0.11599175 -0.019053593 -0.10857602 0.03215746
-0.079213955 -0.061292455 -0.03796922 -0.11453225 0.037995093 -0.076025754 -0.009394914 0.10772555
-0.03427008 -0.08124087 -0.09466385 -0.024689814 -0.087032326 0.0004926572 -0.11342244 -0.11129561
-0.04123711 0.027788505 -0.10723798 -0.058618642 -0.037824918 -0.055256054 -0.084717534 -0.115858346

fc3.weight f4 [256, 256]
00000000: 394b 76bd 1f7b ddbc d909 76bc 8339 b9bd
00000010: f071 2bbc c10a b8bd 52fe 783d 50d6 513c
00000020: 7812 22bd 024c debc 3070 61bc 56c0 9bbb
00000030: d154 3bbd 00cc 5d3b 4a69 323d e6a4 7cbd
00000040: 7057 b0ba 7fd2 e9bd b6e4 48bd 8c1e acbd
00000050: f2b2 1c3d 44ca f53c 0c51 cebd c8e9 a5bd
00000060: 7660 a2bb 0c96 fbbc 5886 be3c e89e 573c
00000070: 3854 d43c 18aa babc 9fa2 a9bd d9ad ddbd
00000080: bcaa a2bb b0b7 edbc 269b 25bd a422 ab3c
00000090: 19e8 11bd 52c9 0bbd 7081 1fbc 008a 7cb9
000000a0: c746 f8bd 696f e2bd a4b3 a6bd 93a3 87bd
000000b0: 37af 9bbd a439 45bb 8206 06b9 7785 0cbc
000000c0: 84c2 853c 9ee8 013d ff68 66bd ffc6 2bbb
000000d0: 616f debd c8d6 ccbd 9275 73bd 9780 80bc
000000e0: 10b2 27bc ac6d 95bd a0c6 183d 6ac6 603d
000000f0: d422 b8bc 91b8 29bd b946 f4bd 982d bc3c
00000100: bccc eebc 663f 2bbd e8f1 01bd 1f2b 0bbd
00000110: 0f24 d1bc 574f bfbc da1e 1cbd 2cc0 d4bd
00000120: 5c25 66bd aa6d f8bd b0d8 6abc d836 a63c
00000130: 9cc7 373d ef5e dabd 5844 b23c b2f2 1c3d
00000140: 006a c0bc 02a1 3ebd c633 47bd 0a91 0a3d
00000150: d425 f2bd 71b4 58bc cdf7 cdbd 1abc 21bd
00000160: c0d6 34bd e4be a4bc 92bb 733d a0bf e53b
00000170: f5c8 c6bd d0f3 58bc f048 26bc c212 31bd
00000180: ac54 a6bd 2830 8ebd 5b97 94bd d0e5 d7bb
00000190: ec37 f7bc 3885 2cbc aa5f 49bd 666e 05bd
000001a0: 4c63 50bd 647e 5b3d 6ed4 473d e898 823c
000001b0: fdc0 25bd 9497 debc 17ac f5bd d8bd 133d
000001c0: 3096 b3bc 34d4 a93c 42f3 2cbd b20c 1e3d
000001d0: 6caf c3bc 6409 cdbd a8b2 45bc 91d2 38ba
000001e0: beef abbd aae6 a6bb 14bd d1bd b0bd 373d
000001f0: 3eff 1abd 94ca edbd a49f 47bd c03f c63b
00000200: 35ea e8bd 800d 033a 0c1f a2bc f07b 54bd
00000210: dcce 05bd 38a4 61bc e089 1fbb 445b 5dbd
00000220: a688 f5bd b815 1c3d f267 a8bd d84a 09bd
00000230: 6a3d f7bd 9a3b 61bd 2ec8 acbc b3a5 dfbd
00000240: 5c3a aabc 688b 103d 7426 72bd b75c 05bd
00000250: dcb0 9abc 2026 86bd c253 443d 44b0 4bbd
00000260: 9de2 3fbd 1457 2b3d c934 6bbc 86da 373d
00000270: bc57 5c3d 8622 2dbd e845 7ebd 40b8 143b
00000280: fc2f 44bd d4fc b03c ea96 b0bd cc51 13bd
00000290: ff96 41bd 30fe 04bd 8c91 99bc 91d8 10bd
000002a0: 58bf 86bd a5ab 45bd a859 a4bc 3448 b53c
000002b0: bc8c 2f3d ac63 c93c 28e5 453d c2c0 52bd
000002c0: e85f 60bd 261b d3bb 6070 a2bc edee e5bd
000002d0: 9c5f 99bc 8dfd 4abb 00ae 9e39 d49a e7bd
000002e0: cc0b 593d 5012 e7bc d2ec 89bc 4035 ee3a
000002f0: a22f e7bd 243f 46bd 9e63 343d 2cf4 b53c
00000300: 0a3b 51bd 283c 5b3c 61f6 90bd ed01 c6bd
00000310: 3a85 233d c06f d3bb 7200 7e3d 1111 cfba
00000320: a819 5c3d b0d7 cdbc f03c 593d d093 14bd
00000330: 60bc 9e3c 38de 05bd df86 2bbc 6c23 84bd
00000340: 0558 e7bd 71d3 babc 28f0 d2bc ca1b 263d
00000350: 0e64 6fb9 ec9d e4bd e7c6 f3bd f387 aebc
00000360: 4cbb 95bd 3426 6dbd d48d b93c 0ead 27bd
00000370: ea88 74bd 5aee 5f3d e474 37bd cee4 4fbc
00000380: 2000 313c d09c 9dbb cdbf e6bd d5b8 a7bd
00000390: 5c80 debd f120 e6bd 20f5 66bc e86c 90bc
000003a0: d0dd e4bb 1019 1cbd 25a5 30bd 4459 ee3c
000003b0: 003e a5bc b840 f3bd 30bb 013d d155 ecbd
000003c0: 0e6b 86bd b083 053c 24b9 a03c 66af 2c3d
000003d0: 00aa 383c 2c69 693d a623 8cbd 3222 dbbd
000003e0: acc6 91bd fb50 2ebb 42da b1bd 48cc 9cbc
000003f0: e1be a1bd 3e82 49bd c00f 99bb 3e54 9cbd
-0.06013033 -0.027036248 -0.015016996 -0.090441726 -0.010464177 -0.08986426 0.060789414 0.012807444
-0.039568394 -0.027135853 -0.013759658 -0.004753153 -0.045735184 0.0033843517 0.043557443 -0.061680697
-0.0013453793 -0.11417102 -0.04904624 -0.08404264 0.038256593 0.030003674 -0.10074052 -0.08101231
-0.0049553467 -0.030711196 0.02325742 0.013160445 0.025919065 -0.022786185 -0.08282971 -0.108241744
-0.004964201 -0.029018253 -0.040431164 0.020890541 -0.035621736 -0.03412754 -0.00973545 -0.00024084002
-0.12122875 -0.11056406 -0.081397325 -0.06622996 -0.07601779 -0.003009417 -0.0001278166 -0.008576742
0.016328104 0.03171598 -0.056252476 -0.002621114 -0.108610876 -0.10001904 -0.059438296 -0.015686316
-0.0102353245 -0.07296309 0.0372988 0.054876722 -0.022477545 -0.041435782 -0.11927552 0.02297096
-0.02915036 -0.04180851 -0.03172484 -0.03397667 -0.02552989 -0.023353262 -0.03811536 -0.103882164
-0.056187972 -0.12130292 -0.014333889 0.020289823 0.044868097 -0.106626384 0.021761104 0.03831739
-0.023488045 -0.046540268 -0.04863336 0.033829726 -0.118236214 -0.013226614 -0.1005703 -0.03948603
-0.044150114 -0.020110555 0.059505053 0.007011369 -0.09706298 -0.013241723 -0.010149226 -0.04323078
-0.08121619 -0.06942779 -0.07255431 -0.006588675 -0.030178033 -0.010529809 -0.049163498 -0.032575987
-0.050875947 0.053587332 0.048786573 0.015942052 -0.04046725 -0.027171887 -0.11995714 0.03606972
-0.0219222 0.02073107 -0.042224176 0.038586326 -0.023887359 -0.10011557 -0.012066521 -0.000705042
-0.083953366 -0.0050934153 -0.10241142 0.044858634 -0.037841074 -0.11610904 -0.04873623 0.00605008
-0.113727964 0.0004999265 -0.019790195 -0.05187601 -0.03266798 -0.013772063 -0.0024343655 -0.054042116
-0.11988954 0.03810665 -0.08222951 -0.033518642 -0.12072261 -0.05498848 -0.021091547 -0.109202765
-0.020779781 0.0352892 -0.059118703 -0.032559123 -0.018883161 -0.065502405 0.04793144 -0.049728647
-0.046846975 0.04183109 -0.014355847 0.044886135 0.053794608 -0.042269252 -0.062078387 0.002269283
-0.047897324 0.021604933 -0.086225346 -0.03596668 -0.04726314 -0.032468975 -0.01874616 -0.035362784
-0.06579465 -0.048259396 -0.020062283 0.022129156 0.042858824 0.02458366 0.048314244 -0.05145336
-0.054778963 -0.0064424453 -0.019828975 -0.11227212 -0.018722348 -0.0030973882 0.00030265749 -0.11308828
0.052989766 -0.028206974 -0.016836558 0.0018173829 -0.11288382 -0.04840006 0.044040315 0.022211157
-0.051081695 0.013381042 -0.07078243 -0.09668336 0.039921977 -0.0064525306 0.062012143 -0.0015797933
0.053735405 -0.025127262 0.05303663 -0.036273777 0.019376934 -0.032682627 -0.0104691675 -0.06452069
-0.11296085 -0.022805901 -0.025749281 0.040553845 -0.0002283009 -0.11162934 -0.11903172 -0.02130506
-0.07311115 -0.05789776 0.022650637 -0.040936522 -0.059700884 0.05467067 -0.04478921 -0.012688829
0.010803252 -0.0048099533 -0.11267052 -0.08189551 -0.10864326 -0.11236752 -0.014096528 -0.017630056
-0.00698445 -0.03810984 -0.043126244 0.0290953 -0.020171165 -0.118775785 0.031672657 -0.11539806
-0.06563388 0.0081490725 0.019619532 0.04215946 0.011271 0.056985065 -0.06842737 -0.106998816
-0.07117972 -0.002659856 -0.086842075 -0.019140378 -0.078977354 -0.049196474 -0.004671067 -0.076332554

fc3.bias f4 [256]
00000000: 14ab 52bc c648 e7bd 7b07 8d3d 0a96 5bbd
00000010: 3c47 2ebd e3cc 5abd b5e6 52bc 2fbe d53c
00000020: 93be 1dbd 3866 d0bd 819d 26bd 7a4c 6f3d
00000030: dcff df38 3f1e 18be f7b5 96bd d663 c43c
00000040: d1d1 dabd 0952 4fbe 92f4 36bd 79a3 37be
00000050: 30b1 9c3c 6e18 4ebd 3e8d 8fbd 4152 d3bc
00000060: 6c82 26bd 6d52 99bd 6cb5 04be 3dda 16bd
00000070: e69c c1bd 1fc3 083e 3d93 68bd 3f50 33bd
00000080: 0a52 4d3e 12f8 84bc 3103 1d3e b5bb 783e
00000090: 3287 0dbe ca8b 113e 9bf3 c4bd bf94 1e3d
000000a0: e9b0 78bd 5754 b3bd 5c2c 6c3e 9a52 4e3e
000000b0: fb20 cabd 9e0b 82bd 200a 20bd de55 59bc
000000c0: 33b6 133d 4db0 9b3d 6650 83ba fc58 dbbd
000000d0: f1cb 873d 4df4 39bd ad8f 22bb 409f f03b
000000e0: 8ef5 37be e110 59bd 80d9 06be d850 49bd
000000f0: b0da 72bc 5cbf c1bd 4d96 d9bc d034 88bd
00000100: ad8b 41bb 40a0 88bd dd95 70bd 4b15 373e
00000110: 98da f2bd 729d 563e c066 8cba 4298 6439
00000120: 6172 04be f337 b6bd b034 7dbd 8d4a 84bd
00000130: adb5 0abb 5670 29be 6738 9cbd e5b7 07be
00000140: 7505 d5ba 3171 38bd bb95 dabc fc97 83bc
00000150: fca7 5ebd 318e efbd c45c b1bb 3f44 febc
00000160: 206f 2fbd 95fc c8bb 5116 3ebd 2980 48bd
00000170: 61c7 1c3e a5d3 95bc a8ef 723e 42d2 3abd
00000180: 430d 56bd 994b 93bd ecc1 ff3d 6f7d 9abc
00000190: cc33 1bbe 3c94 72bd e360 3e3e 791c d5bd
000001a0: d22a 6fbd db3f f43c 8a09 30bd 16db 593e
000001b0: 8930 d1bd d18c 94bd 4866 cebd abb7 d13d
000001c0: 2b27 25bd 14cd 4d3c ad18 d2bd 9d29 26be
000001d0: 49e8 9abd 15c5 8dbd 837a a4bd a5dc 2ebd
000001e0: 1da5 d3bd 7b22 77bd 58de 56bd 51a9 0fbe
000001f0: 503f d6bd 3c89 83bc e390 e4bd d87b 32bd
00000200: 64a8 403b c4d0 c9bd 6ffa 2abd 0fdb d3bd
00000210: f61f dfbd 340b 88bd 14a4 77bd 2831 0ebe
00000220: 6e7a 83bd 9498 efbd e172 2ebe 4f31 d5bc
00000230: f2b7 5ebd 1569 88bd 0330 ccbc 8db2 aa3e
00000240: 1901 d7bc 9d7c 95bd bd9a 8e3d 8dd8 cdbd
00000250: 6922 66bd c91e a7bd eb98 163d 5b62 a4bd
00000260: 9305 84bd ff6d 28be fc58 7ebd 4e7c ccbb
00000270: bf13 fb3d 159f c9bd 9534 0dbd f16c 4fbd
00000280: ac74 87bd a870 a5bd fe8a a9bd 81ca bdbd
00000290: d603 663e f175 2dbe 9ee0 e6bc c7d5 1dbd
000002a0: 4bc8 cdbd c1f4 30bd 7322 debd 7384 c6bd
000002b0: d55d eb38 ceab 5abd 2d0b 36bd 9edb 0cbe
000002c0: a43f d2bd 968f 9dbd 7850 0abd 1360 bebd
000002d0: b604 203e 070b 8fbd 011b 42bd 7e61 83bd
000002e0: bace e8bd 4678 31bc 0985 c13d ad44 8abd
000002f0: cad8 7cbd 4a77 a73d 9a0d c6bd cbc4 fbbd
00000300: dd3b 8cbd 81c9 36bd d3d4 dc3d 9a8d 88bc
00000310: 6768 da3a 5b69 453d ce96 a3bd 6509 17be
00000320: 1aa3 c2bd 6014 89bd c0bd 1b3c 1ce0 f4bd
00000330: 465d 8d3b beff a6bd db44 49bd 9028 933e
00000340: 8b2d 68bd 35ac 51ba efef bc3b 2ed1 9eba
00000350: 0d94 afbd 8df2 453c 6342 e9bc f986 5dbd
00000360: 10f1 c2bc 252a 8fbd fa51 63bc ce9a a7bd
00000370: 095f 11bd ee2d 16be c18d c63c b6bf acbd
00000380: 366d 9cbd 27ac d0bd 94f0 82bd ed92 a8bc
00000390: 6995 6f3e a5da 88bd 9eb3 de3c 937c 86bd
000003a0: 4de3 db3c 27dc b4bd e5b7 873e 0c92 20bc
000003b0: a6fb 9bbc 0d95 8db9 a593 d2bc 0611 fdb8
000003c0: 3840 2fbc ba1b 1cbe c14d dc3d 8203 bcbb
000003d0: dfb2 95bd f20b e9bb 1eb4 23be e7d3 b73d
000003e0: 9d3d 063e 1a2c dfbd 59cb 39bd ee4d 433e
000003f0: e47d 96bd 4256 c8bc 23a8 733d 871c 16be
-0.012858171 -0.11293177 0.068861924 -0.053609885 -0.042548403 -0.05341805 -0.012872388 0.026091663
-0.038511824 -0.10175747 -0.04067755 0.058422543 0.00010681126 -0.14855288 -0.07358926 0.023973387
-0.106845506 -0.20246138 -0.044666834 -0.17933454 0.019127458 -0.050316267 -0.07009362 -0.025796058
-0.040651724 -0.074864246 -0.12959832 -0.036829222 -0.09453754 0.13355683 -0.056781042 -0.0437777
0.20050827 -0.01623157 0.15333249 0.24290355 -0.13821104 0.14213482 -0.096167766 0.038716074
-0.06071559 -0.08756321 0.23063797 0.20148697 -0.09869572 -0.06349872 -0.039072156 -0.013265101
0.03606243 0.07601986 -0.0010018467 -0.10710332 0.066306956 -0.045399 -0.0024804876 0.007343203
-0.17964765 -0.052994613 -0.13168907 -0.049149364 -0.014822647 -0.09460327 -0.026560927 -0.06650698
-0.0029532716 -0.0667119 -0.05873667 0.17879216 -0.118581 0.20958498 -0.0010711774 0.00021800495
-0.12934257 -0.0889739 -0.061817825 -0.06459532 -0.0021165416 -0.16546759 -0.076279454 -0.13253744
-0.0016252237 -0.045029823 -0.026682725 -0.016063683 -0.05435942 -0.11697043 -0.00541267 -0.031038402
-0.042830586 -0.0061336257 -0.046408 -0.048950348 0.15310432 -0.018289397 0.23724234 -0.045610674
-0.05225874 -0.071921535 0.124881595 -0.01885864 -0.15156478 -0.0592234 0.18591647 -0.10405821
-0.058390446 0.029815605 -0.042977847 0.21274981 -0.102143355 -0.07253421 -0.10078102 0.1024011
-0.040320557 0.0125611015 -0.10258613 -0.16226812 -0.07563836 -0.06922356 -0.0803118 -0.04269089
-0.10334227 -0.060335618 -0.052458137 -0.14029433 -0.10461295 -0.01605665 -0.111604474 -0.043575138
0.0029397244 -0.09854272 -0.04174274 -0.103445165 -0.10894768 -0.06642762 -0.06045921 -0.13885939
-0.06419836 -0.11699024 -0.1703601 -0.026024489 -0.054374643 -0.06660668 -0.024925238 0.33339348
-0.02624564 -0.07299159 0.06963108 -0.100510694 -0.05618516 -0.08160169 0.036766928 -0.08026572
-0.06446376 -0.1644821 -0.06209658 -0.006240404 0.12259626 -0.098447956 -0.034473974 -0.050641004
-0.0661405 -0.08078128 -0.08278464 -0.0926714 0.22462401 -0.16939522 -0.028183278 -0.038533952
-0.100479685 -0.043202166 -0.108464144 -0.096932314 0.00011223151 -0.053386502 -0.04444425 -0.13755652
-0.10266045 -0.076934025 -0.033768147 -0.092956685 0.15626797 -0.06984525 -0.047389034 -0.064150795
-0.11367555 -0.010831898 0.094492026 -0.0675138 -0.061730184 0.081770495 -0.09670563 -0.12293395
-0.068473555 -0.044625763 0.107827805 -0.016669083 0.0016663194 0.048196178 -0.07987748 -0.14749677
-0.095037654 -0.06693339 0.009505689 -0.11956808 0.0043140976 -0.08154248 -0.04913793 0.28741884
-0.05668406 -0.0007998378 0.005765907 -0.0012116784 -0.0857316 0.012081754 -0.028474038 -0.054083798
-0.023796588 -0.0699046 -0.013874525 -0.081838235 -0.035491023 -0.14665958 0.024237515 -0.084350035
-0.07638018 -0.101890855 -0.06393543 -0.020577872 0.23396839 -0.06682328 0.027185258 -0.065667294
0.026841784 -0.08831053 0.26507488 -0.009800445 -0.019040894 -0.00027004667 -0.025705168 -0.00012067151
-0.010696463 -0.15244952 0.10757018 -0.005737723 -0.073095076 -0.0071120197 -0.15986678 0.08975964
0.13109441 -0.108970836 -0.045359943 0.19072697 -0.073482305 -0.024455193 0.05948652 -0.1465932

classifier.weight f4 [16, 256]
00000000: f6ea cf3c 2d53 46bc 5279 7e3d b641 8d3a
00000010: b089 91bc d799 2a3d 23f5 983d 91d4 9bbd
00000020: c685 bdbd be59 f2bc 62e7 573d 5d03 813d
00000030: 257d b2bd a9c6 83ba 5542 013e a7df a53d
00000040: c5e7 d8ba 9221 2e3c 1f55 183e 4460 04be
00000050: 7508 23be 8963 eebc 3bd1 abbb 5616 7fbd
00000060: 6b0b 303e c0eb 67bd c1b1 26ba 088b fabb
00000070: f0f2 7d3c 91d6 d6bc 7710 89bd fcdf b43d
00000080: ab33 c1bd 3572 87bc 0d70 d0be 9636 b6be
00000090: 75c8 9cbe 07d6 49be 71f6 d0bc 3477 b53b
000000a0: 2802 a93d 8ed5 0ebc f41b 5bbe 8e09 d7be
000000b0: 7187 883d 9aba f8bc 5246 5f3d 1dd0 a9bd
000000c0: f706 aa3d f35f 41be 9320 7dbd 0937 94bd
000000d0: 8069 59bd 2aa4 003e 7699 793c 8961 27be
000000e0: f934 573e 60e8 febd f657 4d3c b285 293e
000000f0: 5000 713c 1da0 d83d 2529 67bd 712f 9e3b
00000100: 0e8e 06bd 761b ab3c b0f6 10bd 8d3d 8cbe
00000110: 12f2 aebc d08b c6bd 8099 acba b819 13be
00000120: a9af a7bd eb7a b83a ef3b d9bc 22ad 3a3e
00000130: b2f0 133e c706 f63b 1d93 683b bc42 f2bd
00000140: 5880 f53c 1032 9cbd 8ae4 903d f6f3 633c
00000150: 1bfd d13c 87b0 6dbd 450c a7bd 99f7 e5bd
00000160: 6206 62bd 510e a73c 5cf5 f93c 2084 8abd
00000170: b8de 7bbe f88b adbd adc3 f4bd e605 09bd
00000180: 8314 0cbe 9f2e c13d 04bc 663d f0e0 9ebc
00000190: 6355 d63d d949 393e a91e 65be 2eac 503e
000001a0: 4e7f 053e 51b8 0a3b 58d5 453d 1c40 62be
000001b0: eaf8 543e 947e d63b c8a5 233e 098f 3abc
000001c0: cf7c 1abc 8510 abbd d976 ed3c 910e 6d3c
000001d0: 62ce d9bd 11a1 223d 4891 253e 6637 1fbd
000001e0: 84c4 023d dba8 1e3d af45 683b 9bd2 253e
000001f0: 8c96 ab3c 6449 c83c e868 a4bc f8ba 393d
00000200: da5b d6bd ca40 aabd 15bf 8bbd ae0b c7bd
00000210: 88ab 173d 63e6 a73b a2ad fd3c 60d2 0c3c
00000220: 7ff0 aabd c09f 88bd 555c 7f3d 2f62 193d
00000230: d5b6 2e3d b772 c93c 8759 5fbd 6b87 fabe
00000240: bc35 883d e3cd 64bd 5e1e 09be 0dd9 73bd
00000250: 2848 a2bd ee0b 453d bba2 fcbd 7072 9fbd
00000260: a107 e83c 7aef 223e 1385 d1bc aa1f 5e3c
00000270: 4329 b1bd 4b5f 8ebc f6ba 97bd d398 1fbd
00000280: 960f 41b9 8030 4fbd 3a1e 473e ccea a1bc
00000290: 224b d3be cc13 a6bc fbe5 70bd 1095 f93c
000002a0: d885 8abd ff83 53bd e960 00bd 7e46 8abc
000002b0: 0ba8 9c3d 3ef7 153d b301 19be 1b08 283e
000002c0: 1937 83bd ef1b 03bd 0395 913d 52ce d4bc
000002d0: 4fbd 153c a3da 133d 3da4 c1bc 1118 65bc
000002e0: 870e 64be 4240 3dbd fb7d 83be 2035 b8bd
000002f0: 80c1 b6bc b8b2 77be 79d5 713d c3e2 af3d
00000300: 2400 92bd 1c78 54bd 7ced 13be ac9e a3bc
00000310: 2ab7 54be 53c5 f8bd c70c 253d d94a 29be
00000320: 4e73 7abd a6cc 783d 4870 72bc 1ab0 ba3d
00000330: 03fb abbc e791 44bd 5462 8a3c 6f3b 04bf
00000340: 5a42 f2bb f115 a7bc 4533 a3bd 9ea8 9abd
00000350: 9701 873d e5be 543d 99c1 1cbd 46fa efbc
00000360: 1ebb bf3d 86b3 97bc 91cd d5bb a62a 49bd
00000370: 9a5c 72be 4f10 2f3e 740d aebe 3158 d83b
00000380: eb60 3e3e 3a7d 7d3d b74e ed3d 9ca5 7f3d
00000390: 1c7a 39bd 28f7 9fbc b84a afbe d41a 573d
000003a0: 1a48 523d 9003 543d c3b3 5dbd 1e57 44bd
000003b0: 1057 48bd e5ab 913d 3466 0abd 0255 acbd
000003c0: e88f 26bd e122 47bd 7f18 363d 8de1 303d
000003d0: 5c3f e6bd 4c3e a3bb 1773 643d f427 38be
000003e0: 1b63 263d 2f32 343d 55f7 b53a 2373 7cbe
000003f0: 96b0 883d ab75 1ebd a323 a83c 66a6 383e
0.025380593 -0.012104792 0.06212742 0.001077703 -0.01776585 0.04165062 0.07468631 -0.07608903
-0.09254031 -0.029583808 0.0527109 0.062994696 -0.08715276 -0.0010053712 0.1262296 0.08099299
-0.0016548565 0.010628121 0.14876221 -0.12927347 -0.15921195 -0.029100196 -0.005243448 -0.06227716
0.17191856 -0.056621313 -0.0006358885 -0.0076459683 0.015499815 -0.02622536 -0.066925935 0.08831784
-0.09433683 -0.01653395 -0.40710488 -0.3558852 -0.30621687 -0.19710551 -0.025508137 0.0055378918
0.082523644 -0.008717908 -0.21397382 -0.41999477 0.066664584 -0.030362416 0.054510422 -0.082916476
0.0830211 -0.18884258 -0.061798643 -0.072370596 -0.05307913 0.12562624 0.015234342 -0.163458
0.21016301 -0.12446666 0.012533179 0.16554907 0.014709547 0.10577414 -0.056435723 0.004827433
-0.032850318 0.020887118 -0.03539151 -0.2739071 -0.021355662 -0.09694636 -0.0013168305 -0.1436528
-0.081878014 0.0014074718 -0.026517836 0.18230107 0.14447287 0.007508132 0.0035488077 -0.11829135
0.029968426 -0.07626736 0.0707484 0.013913145 0.025633385 -0.058029678 -0.08156637 -0.11228866
-0.05518187 0.020392569 0.030512504 -0.06763482 -0.24596679 -0.084739625 -0.11951385 -0.03345289
-0.136797 0.094327204 0.05633165 -0.019394368 0.10465505 0.18094577 -0.22374977 0.20378181
0.13036844 0.002116699 0.048299164 -0.22094768 0.20798078 0.006545851 0.1598121 -0.011386641
-0.009429171 -0.0835276 0.028987335 0.014468805 -0.106350675 0.039704386 0.16168702 -0.03887119
0.031925693 0.038735252 0.0035441925 0.16193621 0.02094581 0.024449058 -0.020069554 0.045344323
-0.10466738 -0.08313139 -0.068235554 -0.097190246 0.03702882 0.0051239 0.030966584 0.008595079
-0.08346652 -0.06671095 0.062343914 0.03744715 0.04265483 0.024590833 -0.05452874 -0.4893144
0.06650874 -0.05586041 -0.1339049 -0.059533168 -0.07923919 0.04810708 -0.12335726 -0.07785499
0.02832395 0.15911666 -0.02557615 0.013557354 -0.08650448 -0.017379424 -0.07408707 -0.038964104
-0.0001841172 -0.050583363 0.19445124 -0.01976528 -0.4126826 -0.020273112 -0.058813076 0.030466586
-0.0676381 -0.051639553 -0.03134242 -0.016879316 0.07649239 0.03661274 -0.14942054 0.16409342
-0.064069934 -0.03200906 0.071085 -0.025977287 0.009139373 0.03609718 -0.023637885 -0.013982789
-0.22271167 -0.04620386 -0.25682053 -0.08994508 -0.022309065 -0.2418927 0.059041474 0.08588173
-0.07128933 -0.051872358 -0.14446062 -0.019973122 -0.20772997 -0.121470116 0.04029539 -0.16532458
-0.06114512 0.060742043 -0.014797278 0.0911562 -0.020993715 -0.047990706 0.01689259 -0.5165319
-0.0073931636 -0.020396205 -0.07968763 -0.075516924 0.065921 0.051939864 -0.038270567 -0.029294144
0.09361862 -0.01851822 -0.0065247496 -0.04911294 -0.23668137 0.17096065 -0.3399464 0.00660231
0.18591659 0.061887003 0.11587279 0.062413797 -0.04528247 -0.019527033 -0.34236693 0.05251582
0.051338293 0.05176121 -0.054126512 -0.047934644 -0.048911154 0.071128644 -0.033788875 -0.084146515
-0.040664583 -0.048617247 0.044456955 0.043183852 -0.112425536 -0.0049817916 0.05577382 -0.17983991
0.040621858 0.04399317 0.0013882915 -0.24653296 0.06674306 -0.038686436 0.020524805 0.18032226

classifier.bias f4 [16]
00000000: ab0c afbd 6ca4 bebc dee6 54bd db22 563d
00000010: 53c6 303b e3a8 d23c 7c50 e73d 15a4 ba3d
00000020: 99e6 453d 2292 e03d e224 c2bb e798 a7bd
00000030: 0fe9 c2bc b411 803a 9c57 93bc 2bf2 703c
-0.08547338 -0.023271762 -0.051977985 0.052279335 0.002697368 0.025715297 0.11294648 0.091133274
0.04831562 0.109653726 -0.005924807 -0.08183461 -0.023792772 0.0009770901 -0.017986111 0.014706175
