transfer04_22_51_22_10_12_FullyConnected.pth (torch, 550959 bytes, 8 tensors)

fc1.weight f4 [256, 4]
00000000: 741d 693e 64b5 94be f048 333e 82c8 e0be
00000010: eef7 57be 2f5b 073f b91e 883e d02f 913e
00000020: a486 fa3d 2c27 6ebe 2c44 5a3e b228 73bd
00000030: d5fe be3e 5b68 13bf 4182 05bf 37d1 4a3e
00000040: 5aea 2ebe 2150 373d ef25 013f 5f3d ab3e
00000050: 3268 c0be 485c be3d d4d0 213e 6008 a43e
00000060: 508f fc3d 8467 1bbe 3897 6bbe 20dc f2bc
00000070: 90f1 243e 4029 1a3e 700e 0bbd 6ce9 7fbe
00000080: e685 fbbe 0b13 37be 977c 05bf 1f26 c83d
00000090: e4e4 c0be 55ea cbbe 1a68 033d 8065 6cbe
000000a0: 150f bbbe e9ab 16bf cca2 11bf 430d c3bd
000000b0: be08 b93e 584c 9c3d 0e82 813e d082 96be
000000c0: 5038 f4be 3ce5 6cbe c0f2 89bc 7048 4cbe
000000d0: ca66 983d b46e 183f a90e 043f e203 093e
000000e0: 2185 70be 8c49 60be 5c55 8ebe 55d4 b33c
000000f0: c876 0d3e fcc3 e6be 32e8 9e3e 4071 66bd
00000100: 7506 32be 233e 243f e489 033f 2894 27be
00000110: 3377 343e df93 d7bd c1e0 4e3e 7547 4c3e
00000120: bee8 9fbe ff78 a53e 1339 d33e e77b a23e
00000130: c1c0 07bf 34bd 4c3d 6449 82bd 0b15 d1be
00000140: bb32 88be a589 323e cb63 2b3f 4ae8 cb3e
00000150: 0017 9a3b 785e 203e 8816 7e3e 78d9 e7be
00000160: 28b9 e3be 7f08 dc3e 6816 c03e 36ab 0b3f
00000170: 28f0 22be 2cf8 df3e b035 6abe 8010 64bc
00000180: 0576 eb3e 06b9 e1be ef52 cfbe d233 5f3e
00000190: ca19 adbe 5aa8 1ebf 507f 85be 00cd 433e
000001a0: f6b8 adbe a8f7 c3bd a895 863e 788f f13d
000001b0: 306e 52be 6825 c73e 7713 023f bda0 a73e
000001c0: 6e53 f83e 1a39 cabe 9375 99bd 6975 d5bd
000001d0: 8fe7 8f3e a2dc a23d 4c58 88be 1b39 523e
000001e0: a966 25be 22f9 b13e 6fd3 103f 2c54 37be
000001f0: 1503 233e bec0 81be 2b4c 24bf 89ac ae3e
00000200: 74c2 24be 30b0 033d 68e5 833d 1692 d1be
00000210: 6898 a83e 2b4d 993e 289c c2be eaf1 843e
00000220: 97a3 063f 7f63 983e f6a6 ddbe a35e f9be
00000230: 6006 abbd a061 42be 9c89 573e 6093 463e
00000240: c677 b8be 8063 ae3d 70a3 953e 0020 dfbb
00000250: 00ac 393a f4fc 57be 7024 d53d 8096 ebbc
00000260: 70ed c4bd 4557 8d3e 5911 8ebe 0036 293e
00000270: d6f8 c43e 145e b3bc 4eb8 0abf e70b 62be
00000280: 4c28 1dbf c4f8 983c 98cb 18bd 54e7 ae3e
00000290: 28f9 963e 9bcb 103f f512 103e b9ff 4cbe
000002a0: 60e7 db3c 1c9c 1fbe 40f4 7a3d e2ee dcbe
000002b0: 5a11 98be d0fe 933e f8fd e33e c80c 803e
000002c0: c941 533e abb9 1abf 9d8b 603e 6495 79be
000002d0: b5be c33e 2685 e23d 5e80 2d3f b3a8 1b3d
000002e0: f6b2 ecbc c9b5 ce3e 605f 213f 045e afbd
000002f0: 2e61 193e 14da 4dbe efeb d1be 6eba 0d3d
00000300: 2ecd d5be a020 4d3e d4fe 01be dc57 b53e
00000310: 4711 10be 1a45 73be d483 0bbf 68f9 e53c
00000320: da26 e43e 881b 8e3e 8e79 333f 2309 d1be
00000330: 7e6d 63bd 5556 193f e9b7 003f 7880 fd3e
00000340: 5fed 843e effc f03d 5403 993e 3ce7 d4be
00000350: 4626 72be 4a30 07bd a1d7 d43d a2a7 02be
00000360: 8376 9e3e 03b4 24bf 6944 22bf 656f 80be
00000370: ec17 4dbe 60a6 d73e 70fa c8bd 962c acbe
00000380: 3ce4 30be 8c03 3fbe 2c6c 563e ac31 ddbe
00000390: a4f1 203e 5d45 c63e f24b 61bd 4bcc 7b3e
000003a0: d518 9fbe 53c9 04bf c11b 01bd 5c31 90be
000003b0: b888 833e da42 3dbe 7d96 bf3e 91b2 44be
000003c0: 49b5 07bf ddc7 d43e b37d 2b3e 63df 843e
000003d0: 37db 0a3f d728 7abd 21f0 c6be 8958 433e
000003e0: b737 fc3e 77a9 813e a34e 9fbe 0401 223e
000003f0: 5c31 3cbe d053 203e 021b 93be a03c 1fbe
0.22765142 -0.2904464 0.17508292 -0.43902975 -0.21090671 0.5287351 0.2658594 0.2835679
0.12232712 -0.2325713 0.21315068 -0.059364982 0.37303796 -0.5758111 -0.52151877 0.19806372
-0.17081586 0.04475415 0.5044851 0.3344526 -0.37579495 0.09294945 0.15802318 0.3203764
0.12332022 -0.15176207 -0.23006904 -0.02964598 0.16107774 0.15054798 -0.033949316 -0.24991387
-0.49125594 -0.17878358 -0.52143234 0.09772896 -0.3767463 -0.3982722 0.0320817 -0.23085594
-0.36534944 -0.58856064 -0.56889033 -0.09524014 0.36139482 0.07631749 0.25294536 -0.29396677
-0.47699213 -0.23134321 -0.016839385 -0.19949508 0.074414805 0.5954392 0.5158487 0.13380387
-0.23488285 -0.21903056 -0.277995 0.021951834 0.13814843 -0.450714 0.31036526 -0.056260347
-0.17385276 0.64157313 0.5138228 -0.16365111 0.17623596 -0.10526251 0.20202924 0.19949134
-0.31232256 0.32318875 0.41254482 0.31735155 -0.53028494 0.049985126 -0.063616544 -0.40836367
-0.26601204 0.1743532 0.66949147 0.3982566 0.004702449 0.15661037 0.24813282 -0.45283103
-0.444772 0.42975232 0.37517095 0.5455812 -0.15911925 0.43744028 -0.22872043 -0.0139199495
0.4598848 -0.44086474 -0.4049296 0.21797112 -0.33808738 -0.61975634 -0.26073694 0.1912117
-0.33930176 -0.09568721 0.26286054 0.117949426 -0.20549846 0.38895726 0.5081095 0.3273982
0.48501152 -0.3949669 -0.07493129 -0.10422785 0.28106353 0.079522386 -0.26629865 0.20529597
-0.16152443 0.34760386 0.5657262 -0.17903203 0.15919144 -0.25342363 -0.64178723 0.3411601
-0.16089803 0.032150447 0.0644024 -0.40931767 0.32928777 0.29941687 -0.38009763 0.25965816
0.5259337 0.2976341 -0.43291444 -0.48705015 -0.08350825 -0.18982553 0.21048588 0.19392157
-0.3602888 0.08515072 0.29226255 -0.0068092346 0.000708282 -0.21092588 0.104073405 -0.028758287
-0.096156 0.27605644 -0.2774761 0.16524506 0.38471097 -0.021895446 -0.54187477 -0.22074853
-0.61389613 0.018673308 -0.037303537 0.34160864 0.29486966 0.5656068 0.14069732 -0.20019425
0.026843727 -0.15586895 0.06126809 -0.43151003 -0.29700738 0.28905344 0.445297 0.2500975
0.20630564 -0.60439557 0.21928258 -0.24373394 0.38231435 0.11060552 0.67774 0.03800268
-0.028893929 0.40373066 0.63036156 -0.08562854 0.14978477 -0.20102721 -0.41000316 0.03460162
-0.41758102 0.20031977 -0.12694865 0.35418594 -0.14069091 -0.23756829 -0.5449803 0.028073028
0.4456089 0.2775538 0.7010735 -0.40827283 -0.05552434 0.5989736 0.50280625 0.49512076
0.2596235 0.11766993 0.29885352 -0.41582668 -0.23647413 -0.033005036 0.103926904 -0.1275926
0.30949792 -0.64337176 -0.63385636 -0.25084987 -0.20028657 0.42119122 -0.09813392 -0.33627766
-0.17274565 -0.18653697 0.20939702 -0.4320196 0.15717179 0.38724795 -0.055004068 0.2458965
-0.31073633 -0.51869696 -0.03152061 -0.28162658 0.25690246 -0.18482533 0.374195 -0.19208743
-0.53010994 0.41558734 0.16747169 0.2595168 0.54240745 -0.061074104 -0.3885508 0.19076742
0.49261257 0.25324604 -0.31114683 0.158207 -0.18378204 0.15656972 -0.28731543 -0.1555047

fc1.bias f4 [256]
00000000: 00c9 603c 233e 5a3e 3c79 673e a5b4 b7be
00000010: c9a7 5ebe 4059 a8be ca05 abbe 30bd fcbe
00000020: 10bf 343e caae d53e 39b0 f13e 4aaf 81be
00000030: d07c 393d 4022 a2be ec26 55be c6b6 e2be
00000040: aca3 dd3b 90e0 d8be ab0c 4f3e 3c47 943e
00000050: bce2 3bbe 242f 5abe 2dbd 8abe ee26 dcbe
00000060: 5c31 6d3e b650 6a3e 6ccd 88be 1be0 9cbe
00000070: 9acc 193e d847 b53e 6d2a ec3e 057e 2d3d
00000080: ccce 183e dca9 0d3d 8d3e 213d 70f0 62be
00000090: e8d7 96bd 5e1f bfbe de34 463e 8b92 163e
000000a0: 415c 193e c461 263e e05e 6dbd f015 ecbe
000000b0: 2739 e33e 265a dbbd f634 0e3d a381 2c3e
000000c0: 2ae0 97be f6b7 c33e 8fb5 323e e9fe 3abe
000000d0: 2916 523e 7f3c c33e eba8 17bd 947a 27be
000000e0: 1079 82be f330 853e 99e7 e63e 2d1b a63e
000000f0: 3306 b73d 832e 8dbe 72af c5be 1c2f 56be
00000100: f015 8b3e 2c00 82be 32f6 b6be 4a7d dabd
00000110: bcb6 79be 6ba3 e73d 3158 24bd 866a d4bd
00000120: 9982 353e ca3b 613e c252 31bd e806 283e
00000130: 5ece b83e 5c63 fbbe 8227 d43e d49a 17be
00000140: cf44 7d3d d2d9 133d 51d7 60be 2877 1c3e
00000150: 5485 26be 2409 563e 44cb a03c be57 d43e
00000160: 6baa 933e be12 d7be f054 f03d 7207 ffbe
00000170: 004a fb3c ede5 aa3d f017 653e 4d12 72be
00000180: 3be7 a4be 225c 6abe ece9 fdbe f43e bbbe
00000190: fb18 a63e 54b9 4fbe b384 4fbd 4817 c8be
000001a0: 42fe f2be b537 63be f41d 67bd bc50 ae3e
000001b0: 805e c93e 1c1a f03e 9e85 9abe dd04 86be
000001c0: 00ae 74bd 36eb 8bbe 08ea 78be 901d 9e3e
000001d0: d2f1 d33e f016 fc3e dfef 253e 217b e93e
000001e0: 2712 ed3d 3950 323e 1ed6 e4bd 6c3b b9be
000001f0: 4af7 c0be 74da a23e 3050 acbe e33e b13e
00000200: b2cf 703e c88f 41be 6b28 ed3d 9eb8 c9be
00000210: 8c20 a2bd 4bca b5bd 029d b8be 84dc 2abe
00000220: cd86 fd3d 98a5 3f3e aab3 d0be 688b 973d
00000230: 38f7 babc ba2a 933e 913d 983e 021e babe
00000240: 0e52 0bbe 2d25 bebc fa49 b5be 2d20 913e
00000250: a02e d2be ffa3 ed3c 2818 f9be 597b 593e
00000260: e6a0 b83e ac34 44be 553f 4e3e de7e ffbe
00000270: c3d7 ce3e e03b c7be 30a4 a6be d088 32bd
00000280: 0936 183e 56a4 fcbe d676 c4be c854 023e
00000290: 0046 01bd 5535 c73e 5275 cc3d 54d8 753e
000002a0: 9b43 e13e b4b1 82be 862d 533e 1402 ac3e
000002b0: 86b7 863e f0bb ebbd 9c5a 45be b20e 8d3e
000002c0: 89c9 7abe a803 97be 8421 3abe 3b9a e23e
000002d0: b94c 09be 58b5 f5bd cee8 323e 7191 033d
000002e0: 9085 f4bd f8e0 16be b803 22be 4091 55be
000002f0: 9ac0 9d3e 6e7f b4bc ad27 78ba d7a2 653d
00000300: 39bc 5f3e ddd4 493e daab e83e a883 2e3e
00000310: 8928 7fbd 36b3 6bbc 5471 1dbe ec00 873e
00000320: 2474 f8be be55 553e 3c7b 63be a189 fbbe
00000330: b31e f0bc 5ad9 873e 5876 4cbe bb34 9cbe
00000340: 7666 a33e 1af5 bd3e 069f a9bd 440c 28be
00000350: 5c01 b3bc 976a 653e 72e9 74be 9588 93bd
00000360: 37e8 a8bd 2261 253e 15cd 8b3e 6cfd f8be
00000370: 20e6 133e be4f bd3c 95fc 153e e97f b73e
00000380: 837d 90be bf41 2b3e 4a56 cabd 04a4 c1be
00000390: b4bd ef3d 1747 d1bd fb34 283e 4e5d 1d3e
000003a0: aa33 9d3e 1008 4ebd 7f04 b93d 8ec1 f9be
000003b0: 654f ba3e 26c1 b6be 8e5f 5cbe c050 c5be
000003c0: 4a61 a6bd 3e41 67bd 8b85 cfbc 93eb 953d
000003d0: cab8 15be 4307 2f3e 2c38 68be 24d8 d1be
000003e0: 10d5 bebe 445b 003e 8458 b0be 068e a13e
000003f0: 4b74 343d e3fb 7d3e 03f0 763e 00ab a93d
0.013719797 0.21312766 0.22604841 -0.35880008 -0.21743692 -0.32880592 -0.33402854 -0.4936309
0.1765101 0.41734916 0.4720476 -0.25329047 0.045285046 -0.31666756 -0.20815629 -0.4428007
0.006763896 -0.42358828 0.20219676 0.28960598 -0.18348211 -0.21307045 -0.27097455 -0.4299845
0.2316336 0.22882351 -0.26719224 -0.3063973 0.15019456 0.35406375 0.46126118 0.04235651
0.14922637 0.03458582 0.039366294 -0.22162032 -0.073653996 -0.3732862 0.19356105 0.14704339
0.14976598 0.16248232 -0.057951808 -0.46110487 0.4437954 -0.10710554 0.034718476 0.16846327
-0.2966321 0.3822629 0.17452072 -0.18261303 0.20516266 0.38132092 -0.037026327 -0.16355354
-0.25482988 0.26013908 0.4509857 0.32442608 0.08936729 -0.27574548 -0.38610417 -0.20916408
0.27165174 -0.25390756 -0.35734707 -0.10668428 -0.24386114 0.113104664 -0.04012317 -0.1037188
0.177256 0.21995464 -0.043291815 0.16408885 0.36094946 -0.49099243 0.41436392 -0.14805156
0.0618332 0.0360964 -0.21957137 0.1527983 -0.16261798 0.20901924 0.019628175 0.41473192
0.28840956 -0.42006487 0.117349505 -0.49810368 0.030674934 0.08344636 0.22372413 -0.23639794
-0.32207665 -0.22886708 -0.4959253 -0.36571467 0.32440934 -0.20285541 -0.05066366 -0.39080262
-0.47459608 -0.2218922 -0.05642505 0.3404597 0.3932991 0.4689492 -0.30180067 -0.26175585
-0.05973625 -0.2732789 -0.24308026 0.3088193 0.41395432 0.4923625 0.16204785 0.45601752
0.11575728 0.17413415 -0.11173652 -0.36178148 -0.37688667 0.31807292 -0.33654928 0.3461829
0.2351673 -0.18902504 0.11579975 -0.39398664 -0.07916364 -0.08876475 -0.36057287 -0.16685683
0.12379227 0.18715513 -0.40762073 0.073996365 -0.022822961 0.28743535 0.2973447 -0.3635102
-0.1360552 -0.023211086 -0.35408002 0.2834486 -0.41051197 0.029008863 -0.48651242 0.2123846
0.36060256 -0.19160718 0.20141347 -0.4990148 0.40398988 -0.38912868 -0.3254714 -0.043587506
0.14864363 -0.49344128 -0.38371915 0.12727654 -0.031560898 0.38907877 0.099833146 0.24008304
0.4399689 -0.25526202 0.20622835 0.33595335 0.26311892 -0.115104556 -0.19272846 0.27550274
-0.24490942 -0.29494977 -0.18176848 0.44258294 -0.13408174 -0.11997479 0.1747162 0.032121126
-0.119395375 -0.14734256 -0.15821731 -0.2085619 0.30811006 -0.02203342 -0.00094663614 0.0560635
0.21849145 0.19710107 0.45443612 0.1704241 -0.062294517 -0.014385989 -0.15375262 0.2636789
-0.48526108 0.2083349 -0.22214979 -0.4912844 -0.029311514 0.26533014 -0.1996702 -0.3050898
0.3191411 0.3710106 -0.082822844 -0.16410929 -0.021851234 0.22403942 -0.23917177 -0.07203785
-0.082474165 0.16150334 0.27304903 -0.48630846 0.14443254 0.023109313 0.14647134 0.35839775
-0.28220758 0.16724299 -0.098797396 -0.37820446 0.11706105 -0.102186374 0.1642646 0.15367624
0.3070348 -0.050300658 0.09034061 -0.48780483 0.36388698 -0.35694236 -0.21520826 -0.3853817
-0.08124025 -0.056458704 -0.025332233 0.07320323 -0.14621273 0.17092614 -0.22677678 -0.40985215
-0.3727193 0.12534815 -0.34442532 0.31553668 0.044056218 0.24803118 0.24114995 0.08284569

fc2.weight f4 [256, 256]
00000000: 6081 573d 2caa 9d3c 90f5 bc3c 5cce 3ebd
00000010: ac83 73bd 6e5b 5bbd 640a eebc bafd 4ebd
00000020: 66ec 02bd d082 02bd 9045 f33b 0083 5b3c
00000030: ba8d 743d b6b1 733d 2680 64bd 74a8 333d
00000040: 987c f33c 4445 16bd ead2 243d 7c22 eebc
00000050: dc4a d2bc 7aa4 3abd 16d0 5cbd 603c ca3b
00000060: 3214 223d 0809 32bc f4b0 5e3d 4800 57bd
00000070: 4c1a 633d 866b 6ebd 74f3 823c 54a1 0c3d
00000080: a60c 2e3d 80e2 8fbb c0ea e2ba 6ce9 c43c
00000090: 7e5b 62bd e444 1dbd ecd6 bebc c848 353d
000000a0: 6649 6e3d cc79 5fbd 007d cebc 0cfc 47bd
000000b0: cc4e c0bc c0cf 51bc 8e08 0e3d 1e6b 67bd
000000c0: 08a9 a03c 107e 723c e0ac 013c 60f8 f4bc
000000d0: b0dc 1fbd c028 b83c 4276 213d a89f 133c
000000e0: 641a 993c c65d 3f3d a2dd 6dbd 9e4e 65bd
000000f0: 8ccc 723d 5642 0cbd 62cb 6b3d d6cd 033d
00000100: 7af0 303d 3ccd a1bc 0082 43bd 0c26 123d
00000110: b67e 31bd a481 7d3d be6d 583d c232 50bd
00000120: 3cb0 0ebd a847 293d dcff 363d 208e 46bc
00000130: 08cf 133c 4470 c83c cc7e 953c f2d0 0b3d
00000140: 00fb 3c3c f68d 1cbd 2848 553c ee9c 3dbd
00000150: 4490 023d a24a 733d a635 2dbd 8256 59bd
00000160: a87e 0fbd e88e 6f3c 98e1 37bd cc5c c3bc
00000170: c036 38bb 98ca 3b3c 3c0c 93bc f273 3cbd
00000180: b8d3 38bc d0e7 b23c 64af fb3c 9e8b 113d
00000190: 0c07 89bc 385d 31bc 54c5 74bd 1044 a33b
000001a0: 805c 3f3b 8072 84bc 2c3a 33bd ea97 37bd
000001b0: 305f 13bd fcf0 aa3c a6c4 5bbd 18a3 7fbc
000001c0: 306e 5e3d ac77 5b3d 04f1 d2bc 26aa 29bd
000001d0: de95 353d 2017 dabb 8ad6 5ebd 6ce2 55bd
000001e0: f61e 10bd f6c4 333d 00e0 c63c 287b 6e3d
000001f0: 58ac 143c 001c 9139 f6cc 55bd 96c1 273d
00000200: 9274 703d 78d8 5c3c 5854 753d c05e 893c
00000210: 705e 2abc f08e 1fbc 7ab3 4abd f040 47bc
00000220: ece8 77bd 0094 1bbb 50a3 51bc e85c 35bd
00000230: 8811 683c d49e dbbc 704b da3c e0c1 053d
00000240: 4cc6 5dbd 404e 4d3b 80d3 62bb b824 233d
00000250: 7064 c83c 80d1 513c b00f 4e3d 7a62 7e3d
00000260: ce09 5abd b48d 373d 7059 8ebb 14d3 9c3c
00000270: 8057 7e3d 0845 5dbc 8edf 473d 18f1 723c
00000280: 9c16 673d 6817 70bc 7835 c43c 9ce6 18bd
00000290: 2680 7f3d 78bb 413c 6acf 073d 7cda 52bd
000002a0: feb7 413d 9c37 c73c 50ad a73c 58a2 2c3d
000002b0: a4dc f9bc 2878 1d3c 168f 0f3d c071 7d3b
000002c0: 20c6 52bd e021 11bd 705d d0bb e8d3 4d3d
000002d0: 18b8 9bbc 8cc8 953c cc8c 18bd 4846 b63c
000002e0: 86e4 293d 208f 29bd b419 ebbc c260 3e3d
000002f0: d085 7cbc c015 84bc 6612 22bd ac62 b0bc
00000300: 9c68 df3c b049 0ebc 4233 363d 5431 7abd
00000310: 3c22 273d 7037 363d c0d1 dfba e8f6 f7bc
00000320: 40cc a63c 4043 e9bb 1ea5 65bd 7a0c 38bd
00000330: f0df adbb b8f2 503d ecb2 243d 2afa 40bd
00000340: 4007 92bc 1011 62bc 6032 27bb c042 563b
00000350: d824 593d 70b5 a53c 40db a7bc 2cf8 b43c
00000360: ac34 093d a2eb 0dbd 9c9b 9c3c 0e81 26bd
00000370: cc79 66bd f451 39bd 143d 38bd 3667 33bd
00000380: c052 4fbc fea5 033d 8874 3dbd 582d 3cbd
00000390: e0ab bf3b 7c06 423d a08b 983c d860 f63c
000003a0: 44b8 993c 1824 8abc 0028 4b3a 90c7 acbb
000003b0: e00a fbbc 84d5 76bd 348a 6f3d ea2e 763d
000003c0: 4e73 1fbd 089d 57bd 2c38 12bd c024 fa3c
000003d0: b836 6cbd f0cb f23b f810 f9bc b026 ea3b
000003e0: cc0d 47bd 88c6 823c 4822 8a3c f0bb d83b
000003f0: 8a75 1abd bc93 d6bc 48bc 333c 0061 87bc
0.052613616 0.019246183 0.023066312 -0.04658352 -0.059451744 -0.05355399 -0.029057689 -0.05053494
-0.03196373 -0.031863034 0.007424064 0.013397932 0.059705473 0.05949565 -0.055786274 0.04386182
0.029722497 -0.03668715 0.040240206 -0.029069178 -0.025670461 -0.045567013 -0.053909384 0.006171748
0.03957004 -0.010866411 0.054367974 -0.052490503 0.055445 -0.05820801 0.015985228 0.034333542
0.04249253 -0.0043910146 -0.0017312393 0.024037085 -0.055263035 -0.038395777 -0.023295842 0.044258863
0.058175467 -0.054559514 -0.025206089 -0.048824355 -0.023475073 -0.012805879 0.034676127 -0.05649864
0.01961185 0.014800563 0.007914752 -0.02990359 -0.039028823 0.022480369 0.03941942 0.009010233
0.018689342 0.04672029 -0.058072694 -0.05598318 0.059277102 -0.03424295 0.057567008 0.032178722
0.043198086 -0.019751184 -0.0477314 0.035680816 -0.04333373 0.061891213 0.052839033 -0.050829656
-0.03483604 0.041328102 0.0446776 -0.012118846 0.009021528 0.024467595 0.018248938 0.034134813
0.011534452 -0.038221322 0.013017692 -0.046292238 0.031875864 0.059397347 -0.04228749 -0.053061016
-0.0350329 0.014621474 -0.044892877 -0.02384796 -0.0028108805 0.011461876 -0.01795017 -0.04600901
-0.011280946 0.021839052 0.030723281 0.03553354 -0.016726993 -0.010825448 -0.0597585 0.004982479
0.0029199421 -0.01616788 -0.04375665 -0.04482261 -0.03597945 0.020866863 -0.053654335 -0.015602849
0.0543043 0.053580925 -0.02574969 -0.04142203 0.044332378 -0.0066555887 -0.05440382 -0.052217886
-0.035185777 0.04388901 0.024276733 0.05822292 0.009074293 0.00027677417 -0.05219742 0.040956102
0.05870492 0.013479345 0.05989489 0.016768813 -0.010398492 -0.009738669 -0.04948757 -0.012161478
-0.060524866 -0.0023739338 -0.012795284 -0.044278055 0.014164336 -0.026809134 0.0266473 0.032655597
-0.05414419 0.0031327158 -0.0034610927 0.03982994 0.024461955 0.012806296 0.05030793 0.062105633
-0.053232007 0.044812873 -0.004344158 0.019143619 0.062095165 -0.013505228 0.048797183 0.014827989
0.056418046 -0.014654018 0.023951277 -0.0373293 0.06237807 0.011824481 0.03315679 -0.051477894
0.04729461 0.024318509 0.020468384 0.04214701 -0.030500717 0.009611167 0.035048567 0.0038672537
-0.051458478 -0.035432696 -0.006358795 0.050250918 -0.019008681 0.018284105 -0.03724365 0.02225031
0.041477703 -0.04139626 -0.02869878 0.046478994 -0.015412763 -0.016123652 -0.039568327 -0.021531425
0.027271561 -0.008684561 0.044482477 -0.0610822 0.040804133 0.044486463 -0.001707606 -0.030269101
0.020361066 -0.0071186125 -0.05606567 -0.044933774 -0.0053062364 0.051012725 0.040209696 -0.047113575
-0.017825723 -0.013798013 -0.0025512204 0.0032693595 0.053013653 0.020228118 -0.020490289 0.022090994
0.033497497 -0.034648545 0.01911717 -0.04065042 -0.0562685 -0.045244172 -0.044980124 -0.0437996
-0.0126540065 0.032140724 -0.04625371 -0.04594168 0.0058493465 0.047369465 0.018621266 0.030075476
0.018764623 -0.016862914 0.0007749796 -0.005272813 -0.030644834 -0.060262218 0.05848141 0.060103334
-0.038928322 -0.05263999 -0.0356981 0.030535102 -0.05766937 0.007409565 -0.0304036 0.007145725
-0.048597142 0.015963808 0.01686205 0.006614201 -0.03770975 -0.026193492 0.010970183 -0.016525745

fc2.bias f4 [256]
00000000: 14fc e7bc 9cf8 f8bd 339d dfbc 1de1 e3bc
00000010: 339f 0bbe d1c7 833d f99f b8bd 6247 fdbc
00000020: b948 c3bd abcc 00be b26c bbbd 8da8 dfbd
00000030: eced ce3a c185 9f3c 6724 10bd 3c7c d43c
00000040: 1ec5 f4ba 5e1c 59bd 23ae 50bd 3f88 02bd
00000050: 20d4 aa3d 0c11 e8bc 1816 ffbd 749b d7bd
00000060: 75c6 e63d c2be d9bd 0cd7 67bd 4bca f8bd
00000070: 53a3 ddbd cf5f f0bd 0efc 82bc 4ff9 98bd
00000080: b557 2d3e 1e57 72bd 22b7 8f3e 5162 133d
00000090: 28b3 a3bd 4f73 7fbd c622 76bc 4fb8 82bc
000000a0: 0f16 a43d aa9e 65bd 3ab7 753c 2b6b e43d
000000b0: f2e2 45bd 8251 1bbe 233c 57bb cd2c 35bd
000000c0: b545 8dbd 56b6 8dbd 8863 993d 6da2 073d
000000d0: c464 77bd 4976 a2bd 0681 13bd ed08 dfbd
000000e0: c61e 0abe a731 d2bd d224 59bd dc0c 9ebd
000000f0: 6d13 24bd b749 c6bd 609f 1fbd 7699 2abd
00000100: bcd4 fabd 3001 8dbc 349e 13bd 58ec 053c
00000110: 20ba a73d 7743 87bc ceeb 4f3c 4ae2 f5bd
00000120: 56a7 b0bd 88c9 fb3c a2c0 e6bd 9061 3fbc
00000130: 3ce5 dbbd d26a 85bd 4933 e3bd 244c 8ebd
00000140: 0220 c43d c765 093c 82ae 7bbd ed04 bcbd
00000150: 5898 fdbd f53f e53c e726 9ebd 1210 4dbd
00000160: c004 763d 6599 be3d 9654 88bc f668 333b
00000170: ef5d 79bd abe9 9ebd 662a 81bc 5006 3d3c
00000180: fc69 9c3c 2563 dabc 23a4 60bc 8163 fcbd
00000190: 929c fbbb 191e 09bd c605 e53d a152 f6bd
000001a0: a42a 9ebd 590c 8abc b40d 90bd f673 84bd
000001b0: 2685 0dbe b2d9 cbbd f636 83bc d80b dabd
000001c0: 5617 d5bc 9501 02bd 8c7c f5bc 0dd0 dcbd
000001d0: cb98 f7bd 2742 e2bd 1296 07bd ab5f a1bd
000001e0: fcc6 45bc 91a7 3cb9 bad1 79bd ccc6 d9bc
000001f0: 9c0c 5bbc 91e3 1cbd 3651 febc 9c50 2bbd
00000200: 08e8 16bd d5a4 d6bd 3f6b 21bd 19df 84bd
00000210: 19c2 1cbe 57df 62bd 9a91 773d 1c59 1dbd
00000220: f766 f6bd a550 5cbd f489 abbc eecf f7bc
00000230: 2a5a e7bd 3a70 7a3a 7470 c9bc 51cf 7ab7
00000240: def9 d6bc 30af 5cbc b951 f6bb e475 e6bd
00000250: 7da5 30bd c1e0 c93c 12e2 ae3b 9f3a 2b3a
00000260: d88e 03be 348a 16bd e25f 07bd 998e fdbc
00000270: abdc 55bd 7439 b0bc 0d20 0fbd 27ee a3bd
00000280: 56ca acbd 0f74 e0bd 979a 7abb f703 dfbd
00000290: 526e b2bc c772 d53d ad8b 3abc fff7 aabd
000002a0: b0a3 d23b 3552 99bd 5d1d 3bbd b3a2 80bc
000002b0: 85eb 00be b4d6 2cbd 4cb6 8f3c 6e66 bfbd
000002c0: 0f4b 5bbd 9a41 89bc 9f81 55bd 632f 2ebd
000002d0: 5ef5 c4bc 777f f1bd 27df d03b 5402 dabc
000002e0: 6aab 13bc 7931 e2bd 4622 1bbd 843d 4dbd
000002f0: d30c 5dbd a0c8 fc3c 30c7 02bc 9c14 6bbc
00000300: aedb 44bd 119a 39bd 0538 0fbd 367e 41bd
00000310: abda 70ba 6ae2 a5bd 459b e1bd 1dad 00be
00000320: fde6 98bc b4f5 36bd d342 12bd 13e1 fabd
00000330: 737c b63c 32dd 02be 0c68 06bd a24d d0bc
00000340: 6439 b33c d4f1 4dbd 14a4 403b 7f31 c8bd
00000350: d5ca 8fbd 38e8 08be 78c3 a4bd 8558 6dbc
00000360: eeab abbd 0de6 c0bd e01b 39bd b07e 27bd
00000370: 1b30 88bb 57fc 35bd c9be a2bc 2b8b 70bd
00000380: a458 f5bc 94ac 88bd 46aa 00bd a618 37bd
00000390: e8b8 ac3d 5f34 fa3c b106 aebd d893 113c
000003a0: b7eb 00be c111 863b 13b1 1ebd 26d6 073e
000003b0: a23c cfbd a7f5 abbd d245 b5bd b835 883d
000003c0: 4adc d0bc f580 5cbc acce 74bd e526 9ebd
000003d0: c77e 3dbc 49bb 5ebd 8030 a9ba e8e5 9ebc
000003e0: 8249 60bd ee0a ccbd c0c2 c8bd f53b 9a3c
000003f0: 440c dcbc c73f e0bd f07a 1f3e 6232 99bd
-0.028318442 -0.121567935 -0.027296638 -0.027817303 -0.13634948 0.06434596 -0.09014887 -0.030917827
-0.09535355 -0.12578075 -0.09151591 -0.109208204 0.0015787459 0.019472959 -0.035190966 0.025938146
-0.0018674468 -0.05300557 -0.05094732 -0.031868216 0.08341241 -0.028328441 -0.12455386 -0.10527697
0.112683214 -0.10632087 -0.05660157 -0.12147959 -0.10822167 -0.11737024 -0.01598933 -0.07469427
0.16927989 -0.059165113 0.28069407 0.035982434 -0.07993156 -0.062365826 -0.015022939 -0.015957026
0.0801202 -0.056059517 0.014997298 0.11153253 -0.048312135 -0.15167812 -0.003284224 -0.04423218
-0.06898061 -0.069195434 0.07489687 0.033113886 -0.060398832 -0.07932717 -0.03601172 -0.10890374
-0.13488302 -0.10263377 -0.05301363 -0.077172965 -0.04005759 -0.09682029 -0.03897035 -0.041650258
-0.12247607 -0.01721248 -0.036039546 0.0081740245 0.081897974 -0.016511662 0.012690498 -0.12006052
-0.08625667 0.030735746 -0.112672105 -0.011680976 -0.10737082 -0.06514515 -0.11093766 -0.069481164
0.095764175 0.008386082 -0.06144572 -0.09180627 -0.12382573 0.027984599 -0.07722264 -0.050064154
0.060063124 0.093066014 -0.016641896 0.0027375794 -0.060880598 -0.077594124 -0.015767287 0.01153715
0.019093506 -0.026658604 -0.013711008 -0.12323666 -0.0076785767 -0.03347597 0.11182742 -0.12027479
-0.07722977 -0.016851591 -0.07033864 -0.0646743 -0.13820323 -0.099536315 -0.016017418 -0.1064679
-0.026012104 -0.03173979 -0.029966615 -0.1078187 -0.1208969 -0.11047774 -0.033102103 -0.07879575
-0.012071367 -0.000179915 -0.060991026 -0.026584052 -0.0133697055 -0.03830296 -0.031044584 -0.041824922
-0.036842376 -0.10480658 -0.03940892 -0.06487865 -0.15308417 -0.055388775 0.06044159 -0.03841506
-0.12031358 -0.053787846 -0.020939805 -0.030250516 -0.11296494 0.0009553466 -0.024589755 -1.4949431e-05
-0.026242193 -0.013469502 -0.0075170663 -0.112529546 -0.043126572 0.024643304 0.0053370083 0.00065318675
-0.1284746 -0.036752895 -0.033050425 -0.030951785 -0.0522124 -0.02151177 -0.034942675 -0.08004408
-0.0843703 -0.109596364 -0.0038239115 -0.10889428 -0.02178112 0.10422283 -0.01138584 -0.08348083
0.0064282045 -0.07486383 -0.0456823 -0.015702581 -0.12589844 -0.042196944 0.01754298 -0.09345709
-0.05353838 -0.016754914 -0.05212557 -0.04252566 -0.024042781 -0.1179189 0.006374258 -0.026612438
-0.009013036 -0.110445924 -0.037874483 -0.050107494 -0.05396731 0.030857384 -0.00798206 -0.014348175
-0.048061065 -0.045312945 -0.034965534 -0.047239505 -0.00091878575 -0.08099826 -0.110159434 -0.12566037
-0.018664831 -0.044667915 -0.03570826 -0.12249961 0.022276139 -0.12779692 -0.03281407 -0.025427643
0.021877952 -0.050279453 0.0029394673 -0.09775066 -0.07021109 -0.13369834 -0.08045095 -0.014486437
-0.08382402 -0.09418879 -0.0451926 -0.040892303 -0.0041561252 -0.044430103 -0.019866364 -0.05872647
-0.029949494 -0.06673542 -0.031412385 -0.04470124 0.084337056 0.03054255 -0.0849737 0.008885346
-0.12589918 0.004091472 -0.03874309 0.13265285 -0.10118987 -0.08396464 -0.08851208 0.06650871
-0.025495667 -0.01345848 -0.05976741 -0.07722262 -0.011565871 -0.054377828 -0.0012908131 -0.019396737
-0.054757603 -0.09963022 -0.098027706 0.018827418 -0.026861317 -0.109496646 0.1557424 -0.07480313

fc3.weight f4 [256, 256]
00000000: 6e38 76bd deb6 003c 9041 8dbc 3f1d 54bd
00000010: cd0b d1bd 6e18 d1bd acb0 92bc 1d4b 69bd
00000020: 8016 ba3b d75c 23bd 8b4c 2b3c 6bbb d4bd
00000030: 80ad 973a 10e0 28bc 0362 d6bd d05d 52bc
00000040: 34a3 e1bd d085 ee3c c452 32bd e421 cabc
00000050: 6751 9dbd 349f a4bc 3803 03bc 10e4 633c
00000060: 7854 9ebc 7ef7 793d 1227 123d fc1d 9d3c
00000070: 4c3f c53c 3006 7bbc c06d d63a 008d b4b9
00000080: 2d4d 9cbd a644 733d bfe3 5fbd 39b5 84bd
00000090: 50a2 3dbc 04e5 c0bc e560 d0ba bc85 ed3c
000000a0: 00cc 31bc 2624 4fbd a3d2 b6bd da50 d0bb
000000b0: c028 76bc 1e3f 1ebd 4f5f 84bc 92e1 6fbc
000000c0: 2e79 b1bd e5b5 9cbc 6c27 c9bc a5c6 16bd
000000d0: 7095 ccbb adb7 023c 5284 1a3d 3821 2ebd
000000e0: f0e9 263c 786e 233c a83b 703c c06b 6b3b
000000f0: a047 8ebb 1e38 39bd b8ae 183d 769c f9bc
00000100: 5443 3f3d fe12 e9bd d20f 06bd f888 39bc
00000110: 7943 f6bc 03f9 9bbd 54e7 abbc d4e4 e9bc
00000120: ac9d 513d 585b 873c f08c 163d 5ca0 883c
00000130: 0016 89bc 8cff 8fbc 180e 783d 6e07 6b3d
00000140: 3b52 abbb 68f6 a03c e8b5 f7bc fa6a 46bc
00000150: 28a4 2c3c dc95 40bd 7e3b c1bb fc24 eb3c
00000160: 30e3 92bb dc62 7dbc 7c0b 39bd 4a18 67bd
00000170: b62a c6bd de07 7e3d 67b4 2cbc ace9 2fbd
00000180: 8814 0fbd 0019 34bd 10dc 5dbd 6d0c 89bc
00000190: ac42 debd f226 0ebd 8c17 243d 9ccf d0bc
000001a0: f2b2 87bc da54 30bd a818 e0bd 885c 0b3c
000001b0: 04df 7abd 884f f23c 80f4 733b d003 0ebd
000001c0: 2817 123c a4ee cfbd fe10 4bbd d0f2 f23b
000001d0: e47f 253d 0826 163c e0e2 813b d678 113d
000001e0: 7093 61bc 22f7 12bd 3cc8 83bd 39f7 b0bd
000001f0: 14e5 27bc ae52 23bd 0ccb 583d 4e77 37bd
00000200: 802b b5bb 0817 a5bc a616 593d c316 46bd
00000210: 7af8 733d 82a7 383d 8235 003d 58ab 593c
00000220: a58b d9bd 608b 44bd bcba 52bd f2a7 2dbd
00000230: 5a1f 533d 9098 df3c 78c9 7fbc fe1a c83d
00000240: 7230 103d b89b 54bc 0d11 08bb c6f9 473d
00000250: 7463 98bc 8605 b0bd 806f 513d 3628 363d
00000260: 6432 e73c 549a 29bd c85d 74bc 8c7f c8bc
00000270: 6b5c bf3d 4cc9 633d 6521 ca3b 7269 7bbd
00000280: 7c44 64bd cd8b 78bd 60a4 70bd dc2d 42bd
00000290: bd7a d7bd d678 16ba 5a76 a1bd 1023 893c
000002a0: 2ce7 023d d029 f83b 00af 8aba 8862 aa3c
000002b0: b055 84bc 0a41 5ebc 34ff d53c 74fc 63bd
000002c0: aa07 4dbd 402a e8bb f026 783d 5674 86bc
000002d0: aabf 55bd 0041 253b 7bde f0bc 7007 0dbc
000002e0: 04ba 9ebc a0a0 d5bb 209a d4bb 2094 bd3c
000002f0: 890a 7ebc ce6c 67bd 281f 983c d0af 613d
00000300: 14bb 6dbd 8e7e 303d f006 15bd 0719 c7bd
00000310: a454 56bd 421e 5cbd 9e68 613d 582d 40bd
00000320: 1499 aebd 80b7 5f3d 8b66 4cbd de71 50bd
00000330: 5077 3f3c 30a5 a5bc 00d3 b9ba 8029 243b
00000340: 68e6 2a3d 36b5 6dbd 46a8 28bd 806c e0ba
00000350: 665a dabd 7c2b 1ebd ae96 c9bd 80c2 cdbb
00000360: 04fb a2bd 7265 6b3d d5bc 2cbd 71ea 75bd
00000370: 6a84 4abd 70d6 f23b f89d 69bd fc31 da3c
00000380: b86c e3bc 529a 49bd 9e33 05bd 009a bc3a
00000390: c4d1 d3bd 9f8f 7cbd 9021 adbb f4cf 3f3d
000003a0: 9fa4 f8bc 3050 273d 3e3c 51bd 24dd 7dbd
000003b0: 1a62 94bd 5617 33bd 080c aabd 1afa 4bbd
000003c0: d0c6 263d df1e 453d 807d 3fbd 9e88 10bd
000003d0: d022 0fbc 9e8d 163d f8de f73c b8c4 653d
000003e0: 9423 bebc 00ec a0bc fee2 4ebd 81a7 c2bd
000003f0: 704d 643d 1f96 e1bc 75e4 0ebd 30b1 4b3c
-0.06011241 0.007856099 -0.017243177 -0.051785704 -0.10207329 -0.10209738 -0.01790651 -0.0569564
0.0056789517 -0.03988346 0.010455261 -0.1038731 0.0011572093 -0.010307327 -0.10467913 -0.012839749
-0.11017457 0.029116541 -0.043535963 -0.024674363 -0.07681542 -0.020095445 -0.007996373 0.013909355
-0.019327387 0.061027043 0.03568179 0.019179337 0.024078034 -0.015321299 0.0016359612 -0.0003443733
-0.076319076 0.05939164 -0.054660555 -0.06479878 -0.011574343 -0.023546703 -0.0015898017 0.028994434
-0.01085186 -0.050571583 -0.089268945 -0.0063572945 -0.015024364 -0.038634412 -0.016158728 -0.0146411825
-0.08665691 -0.019129703 -0.02455493 -0.036810536 -0.0062434003 0.007978362 0.037723847 -0.04251215
0.010187611 0.009975068 0.014662661 0.0035922378 -0.0043420345 -0.045219533 0.037276 -0.030470114
0.04669507 -0.113805756 -0.03272993 -0.01132416 -0.03006147 -0.076158546 -0.02098433 -0.028551497
0.05117576 0.016523048 0.036755502 0.016678028 -0.016734123 -0.017577909 0.060560316 0.057380132
-0.0052283085 0.019648746 -0.030238107 -0.012110466 0.010537185 -0.047017917 -0.0058969846 0.028704159
-0.0044826493 -0.015465464 -0.045176968 -0.05641965 -0.09676115 0.06201922 -0.010541058 -0.042947456
-0.03493169 -0.043969154 -0.054164946 -0.016729558 -0.108525604 -0.03470511 0.04006152 -0.02548962
-0.01656482 -0.04304967 -0.10942203 0.008505948 -0.06124784 0.02957894 0.003722459 -0.034671605
0.008916654 -0.10152939 -0.049576752 0.0074141994 0.04040517 0.009164341 0.003963813 0.03551563
-0.013768062 -0.035880215 -0.06434676 -0.08640904 -0.010247488 -0.03987377 0.052928016 -0.044791512
-0.0055288672 -0.020152584 0.053000115 -0.04836155 0.059563138 0.045081623 0.03130103 0.01328548
-0.10622338 -0.04798448 -0.051447615 -0.042396493 0.05154357 0.027294427 -0.015611999 0.09770773
0.03520245 -0.012976579 -0.0020762116 0.048822187 -0.01860211 -0.085948035 0.051131725 0.044471942
0.02822227 -0.041406944 -0.014914937 -0.024474882 0.09343799 0.055611894 0.0061685317 -0.061379857
-0.055729374 -0.0606802 -0.05875051 -0.047407016 -0.10521457 -0.0005740052 -0.07883902 0.016740352
0.031958744 0.007573344 -0.0010580719 0.020798936 -0.01615414 -0.013565311 0.026122667 -0.05566068
-0.050056137 -0.0070851147 0.06058401 -0.016412895 -0.05218474 0.0025215745 -0.029402962 -0.00860773
-0.019375809 -0.006519392 -0.0064880997 0.02314192 -0.015505441 -0.05650025 0.018569544 0.05509931
-0.05803974 0.043089442 -0.03638357 -0.097215705 -0.052326813 -0.053739794 0.05503141 -0.046918243
-0.08525291 0.05461836 -0.04990248 -0.050889842 0.011686161 -0.02022037 -0.0014177263 0.002504915
0.04172364 -0.058034144 -0.041176103 -0.0017122179 -0.106617734 -0.03861569 -0.09843193 -0.0062792897
-0.07958034 0.057469793 -0.04217227 -0.060038034 -0.049442686 0.007410817 -0.057035416 0.026635163
-0.027761802 -0.049219437 -0.03251993 0.0014389157 -0.10342744 -0.061660405 -0.005283542 0.04682918
-0.030351935 0.040847957 -0.051082842 -0.061978474 -0.07245274 -0.043723427 -0.08303076 -0.049799062
0.040716946 0.048125144 -0.046750546 -0.03528654 -0.008736327 0.03675615 0.030257687 0.05609581
-0.023210324 -0.019643784 -0.050509445 -0.09504605 0.055737913 -0.027537404 -0.034885842 0.0124323815

fc3.bias f4 [256]
00000000: d2b6 4bbc c27e d0ba 0195 05be 415e cfbd
00000010: 5f01 91bd a0d3 dcbd 6ad6 d33e d3a5 45bd
00000020: d815 44bd 73cf 31be ae05 43bd e40a 4b3e
00000030: 373a 633e ce16 c1bc 28dd 393d e0e5 e83c
00000040: 2e31 8abd a353 b1bd 15e6 943e 39d0 f5bc
00000050: e9d0 80bd b31b ccbd 8bf7 f0bd 7771 22bd
00000060: 7e40 b7bd 9968 92bc 53db 313d a55e 7d3e
00000070: f9d8 af3d bd88 923d 1dad cbbc b090 89bc
00000080: 7acb 83bd 4817 e7bd 2032 493e 98ec 5b3c
00000090: 0cb8 21be cbe0 7ebd fffe babd ac1c 54bd
000000a0: 78a7 1ebd 738f 6fbc e7ab a5bd 02fd 90bd
000000b0: 64c5 dbbc a957 9dbd 6bb3 8c3d 96a5 783c
000000c0: 4035 a43d 60a4 b9bc 7708 1dbc a6a8 e2bd
000000d0: 67ed 08be a348 b5bd 99d6 51bc b7c4 1e3b
000000e0: 7ef2 a9bb ee19 37be 954e f53d 9e6f b23d
000000f0: 935e 8bbd 78dc efbd 8487 8fbd 23f3 b83e
00000100: 0dbe 12be e6a0 71bd 0b8c dbbb 4546 d2bd
00000110: e34b bdbd 7edb 81bd 9093 13bd 2e4d 92bc
00000120: f37f cabd 4ac6 29bc 1dec 83bd 207f 3dbd
00000130: 18f2 ecbd 2b5d 01bc 7f7e cabd c384 aabd
00000140: a2d3 9cbd 0a0c fe3c 02d6 8abd d1cd cebd
00000150: 7e49 86bd bc29 32bd 9e30 c7bc 7cea 733e
00000160: 0a98 1fbc 5483 1abc 2104 c2bd 61ae 0fbe
00000170: 3d95 a3bd 4ffb daba 32b1 87bd cd90 43bd
00000180: 7a1c 183d ece1 0bbe f4a4 99bc 6d81 2e3d
00000190: 84be 9f3c 7250 f33c fcd1 993c 4a44 a4bd
000001a0: de91 9abd 5bc7 47bc 14e5 3dbd 43e0 bebd
000001b0: 6050 f8bd 2c92 35be 6204 0ebd c568 11bd
000001c0: 8c15 8f3e deed 09be e3d5 22bc 28c4 12be
000001d0: 5a09 01bc 7ac2 4d3e b3fd e6bb 23c0 0bbc
000001e0: b574 09bd 1413 abbd caa5 0fbc 26cc a33d
000001f0: dc2a 99bd 26d7 ad3c b100 e8bd 8c2f 5cbd
00000200: d483 193e b9dc 17bd 8a6d febc 4542 c6bd
00000210: 4d15 aebd 5fcc 99bd 3a31 eebd f856 6dbb
00000220: b338 d9bd f585 8b3d 8c91 b6bd 4a9a c4bc
00000230: eff2 803d 4075 dfba 8cbd 81bd e9eb d5bd
00000240: 0747 55bd 5157 2abe 890c 02be cddb 7f3c
00000250: fb85 3cbd 5868 a03e 0d4a 4e3e de98 abbd
00000260: f481 9a3e f615 0abc 8b27 cdbd efac c7bd
00000270: 84bf d0bd 6254 983e 8858 42bc 1841 dbbc
00000280: 7f02 973d 72ec d2bd b2f8 a03e bf45 94bd
00000290: 27d1 963c 8351 29be 8e2b 84bd acd7 03bd
000002a0: c779 c6bd cba3 dabd 880d cdbd 5da7 2cbd
000002b0: d56c b6bd 9e09 773e 54fc babc e754 1abd
000002c0: 2986 bcbd 54dd 84bd 2a02 b23d 9b9e b13d
000002d0: b296 c8bd ca42 5cbd 76ce a1bc a674 233d
000002e0: b04c 17bd b8ff 1abe 31fb 69bd 12e5 96bd
000002f0: b44f 8ebd 7dac b1bd fbe0 cabb 9910 c3bc
00000300: 88e8 c0bd 76d9 d9bd 88e0 eabd 9265 5abd
00000310: 3ea5 e8bd c912 ddbd 0dc9 abbc c4d3 a8bd
00000320: c66c 67bd f062 5d3e a4df 79bd e1f2 babd
00000330: 9219 44be 0542 a7bd b3ad fbbd f124 e43c
00000340: 5fa5 6fbd 0a43 f0bc ba1e d8bd c55e 063e
00000350: 0f02 78bd ad93 3a3d 1d02 6fbd c473 59bd
00000360: 879f 4bbd 3903 83bd eb99 9dbd e56b 83bd
00000370: d920 bfbd 1f12 023d f643 67bd 7ae8 b6bd
00000380: a7b5 363d 1c1f 30be 53d2 06bd 19c5 3cbe
00000390: 7561 cabc e779 10bd 10e6 25bd 5970 27bd
000003a0: 884e a6bd e6f6 44bc 8c3b f4bb fabb 9b3e
000003b0: 2a03 8dbd fa69 5cbd a729 54bc 627b 2ebd
000003c0: e52f fcbb 013f e73b 4e35 d7bd 0f5f a0bd
000003d0: f7f9 fd3a e736 11be 35a6 93bd 0eb6 9abd
000003e0: d8b2 80bc c953 70bd af5d 5ebd eb7a dcbc
000003f0: bedf 96bd 97af ecbc 79e0 bf3d 3c83 85bd
-0.0124337245 -0.0015906917 -0.13045122 -0.101253994 -0.0708034 -0.10782552 0.41374522 -0.048253845
-0.047872394 -0.17364292 -0.04761284 0.19828373 0.22190176 -0.023570444 0.045376927 0.028429925
-0.067476615 -0.086585306 0.2908179 -0.030006515 -0.062898465 -0.09966221 -0.11765965 -0.03965899
-0.08947848 -0.017872142 0.043422054 0.24743135 0.08586306 0.07154987 -0.02486282 -0.016792625
-0.064352944 -0.112837374 0.19648027 0.013423108 -0.15792865 -0.062226098 -0.09130668 -0.051785156
-0.03873393 -0.014621603 -0.080894284 -0.070795074 -0.026827522 -0.076827355 0.06870159 0.0151761975
0.08017969 -0.022661388 -0.009584538 -0.110673234 -0.13371812 -0.08851745 -0.012807512 0.0024226138
-0.005186378 -0.17880985 0.11977879 0.087126955 -0.06805148 -0.11711973 -0.070082694 0.36123
-0.14330311 -0.058991335 -0.006700044 -0.10267309 -0.0924299 -0.06340693 -0.0360294 -0.017859068
-0.098876856 -0.010362217 -0.064415194 -0.046263814 -0.11569613 -0.007895748 -0.098874085 -0.083261035
-0.07657553 0.0310116 -0.067791 -0.1009785 -0.06556986 -0.043496832 -0.024315175 0.23819917
-0.009740839 -0.009430725 -0.09473444 -0.14031364 -0.07987449 -0.0016706976 -0.06625594 -0.047745515
0.037136532 -0.13660401 -0.018755414 0.0426039 0.019500025 0.029701445 0.018776886 -0.080208376
-0.07547353 -0.012193526 -0.046361044 -0.09320118 -0.12124705 -0.17731541 -0.03467215 -0.035500307
0.27946126 -0.13469645 -0.00993869 -0.1433264 -0.007875765 0.20093718 -0.0070492863 -0.008529696
-0.033558566 -0.08353248 -0.008767555 0.079979226 -0.07478878 0.021220755 -0.11328257 -0.05375628
0.14991695 -0.037075732 -0.031058092 -0.09680609 -0.085001566 -0.07509684 -0.11630483 -0.0036215167
-0.10606518 0.0681266 -0.089144796 -0.023999352 0.06296336 -0.0017048493 -0.06334981 -0.10445387
-0.05206969 -0.16634871 -0.12700094 0.015616369 -0.04602621 0.31329608 0.20145436 -0.083787665
0.3017727 -0.008428087 -0.10017308 -0.09749781 -0.10192779 0.2975188 -0.011861928 -0.026764438
0.07373523 -0.102990046 0.3143974 -0.072398655 0.018410278 -0.16535 -0.0645362 -0.032188103
-0.09691196 -0.10675772 -0.100123465 -0.042151798 -0.08907477 0.24124762 -0.022825398 -0.037678625
-0.092052765 -0.064875275 0.08691819 0.0867283 -0.09794368 -0.053774633 -0.019751769 0.039906166
-0.03693837 -0.15136611 -0.05712432 -0.073679104 -0.06948796 -0.08675478 -0.0061913705 -0.023811625
-0.09419352 -0.106371805 -0.11468607 -0.05331952 -0.113596424 -0.107945986 -0.020969892 -0.08243516
-0.05650022 0.21619773 -0.061004296 -0.09128357 -0.1915038 -0.08166889 -0.1228899 0.027849646
-0.05850732 -0.029328842 -0.105527356 0.13122089 -0.06054884 0.04555099 -0.058351625 -0.05308892
-0.049712684 -0.06397099 -0.07695373 -0.064170636 -0.09332437 0.031755563 -0.056461297 -0.0893106
0.04460683 -0.17199367 -0.032915425 -0.18434562 -0.024704674 -0.035272505 -0.040502608 -0.040878627
-0.081204474 -0.012021756 -0.0074533876 0.30416852 -0.06885369 -0.053812005 -0.012949384 -0.042598136
-0.007696139 0.007057071 -0.10508214 -0.07830631 0.0019376863 -0.141811 -0.07209436 -0.075542554
-0.01571028 -0.058673654 -0.054288562 -0.02691408 -0.07366894 -0.028892322 0.09368987 -0.065191716

classifier.weight f4 [16, 256]
00000000: af82 94bb d89e 463d 0e17 1fbd 1940 5cbd
00000010: 6c01 8a3d a15b a2bd 3868 eebe 697b 09bb
00000020: 02c7 ddbc 2664 dabd 969a 233e 7e41 063d
00000030: be91 d2be 78b6 a13d 45da a03b 9232 13be
00000040: 34ed a3bd 5de9 2fbc 0121 f0be 64ea 57bd
00000050: 36a8 33bc 16b2 ff3d 5487 0ebd b0e1 a33b
00000060: f299 0cbe 0153 42be 86cc b6bd f388 dc3c
00000070: 4583 a23d adb4 9c3d 1f87 1b3d e256 88bc
00000080: ee2c 103d 6a8c 863d d69c 8dbe f058 03bd
00000090: 4208 193e a2b1 0fbe f9b5 943d 143c a13d
000000a0: f71e 21bd f1fc 97bd b082 7bbb bad8 853d
000000b0: 9704 653d 757d d13a 5a11 0d3d d4df 30be
000000c0: ac69 18be fd08 90bd 292a 0f3d 81ab eb3c
000000d0: 5e7e b33d 9179 05bd c65b bebb aa8f 233d
000000e0: 2245 dd3c a809 9b3d f813 57bc 7b68 77be
000000f0: 35ce 3a3c f859 8e3d fa80 bfbd 2f89 a5be
00000100: d90a 2cbc 4935 69bd 8fae 39bd 6989 e13c
00000110: e81d 17bd bae6 a43c dc27 823d ef0f acbd
00000120: 3079 86bd 647b 323d f6df 413d 0175 81bc
00000130: 6be8 cd3c a8d7 bcb9 fb67 033e f5c6 7cbd
00000140: 0a62 5dbe 45ce 3abe e571 4b3d 9acb 223d
00000150: 948d a33d fdfc e9bd 090e b5bd fc1a 4abe
00000160: 67d7 9bbb 3676 0b3d 0d5e 623d 0aa6 293d
00000170: 55af b43d 1f0d 6dbd 79cf a23c 6cd2 ba3c
00000180: 9e51 c53d 8218 f13d 8fa1 4bbd 1852 e0bd
00000190: e3f0 2cbd a8ca 2bbd aaf8 1cbe f0a9 90bd
000001a0: 5af3 6b3b b962 2cbd e9df 5b3d d166 a33c
000001b0: 5b5f ed3c edfb 52bd e323 e9bc 3451 23bc
000001c0: 15af 50be 23a1 b1bd 7a3d 993d d569 e63d
000001d0: 775e 4e3d 97ba 70be 83c4 7f3c eea0 d5bc
000001e0: 5e2c 4f3d 993d c7bd c587 51bd a2ef 30be
000001f0: 3683 0d3e 6d7c 673d acab 0b3d 50ec 6fbd
00000200: fbd9 1abd cde4 9abb 8562 fab7 003a b93d
00000210: 84f6 143d 484f f83c 514f 0cbd 9935 a93d
00000220: de6e aebb 0dc8 7bbe 0ad8 8abd 8e39 303d
00000230: a751 46bd d0db e3bb 6f21 07be 4f93 c4bd
00000240: ed32 863d 22ac 133e aabe f03d 6653 2f3d
00000250: 1332 73bd ca06 c0be 6082 25be 56c9 673d
00000260: fde5 26be 23c8 0d3c d5cf e1bd 0d68 973d
00000270: d619 b63d 0612 1dbf aad5 98bd ee54 4c3d
00000280: 036c 233d 5867 d7bc 36c1 b9be bd26 e13c
00000290: fde4 a0bd 5ce9 91bd 9e40 abbc 5aab 613d
000002a0: 1818 a8bd 1a90 61bd 2839 62bd 7b8e 5ebd
000002b0: e6e3 163d a635 a9bd c0c7 493d a4e3 863c
000002c0: 29b0 903d b019 37bd 4618 b7bd bb1d 1ebe
000002d0: 72cf 583d 349f 463d 37f3 3a3b bd9a 363d
000002e0: b29d 643c 7dc3 f73d 9835 293d 3049 c83d
000002f0: 62aa 183e 8119 6d3d 754b 9238 7406 d0bd
00000300: d045 3b3c d41a 1bbd 06f2 533d 18a7 01be
00000310: 1156 67bd 8104 c8bd 0ab9 b4bd 15cb d93c
00000320: 22ab 643c df35 15be 2de7 b3bc 832c 963c
00000330: 55c9 023e 222a b23c 8b66 cb3d 6473 94bd
00000340: 6570 dabc 18c8 163c 2a7d 063d 2980 98be
00000350: cb05 4f3c a789 02be ef26 c03d 6fcf 2ebc
00000360: 3c84 ea3b b0a3 0d3d a36d d0bc 5a1f debb
00000370: 2293 2c3e d86d 2cbe aa64 67bc 8acb cf3d
00000380: 64de 673d dcf0 c13d c3e0 3bbb 5503 df3d
00000390: 6ee2 cebd f4be 073d 38f4 48bc 8f8f b73a
000003a0: dcce 40bc e292 f03d 7669 07be 185d 9dbe
000003b0: 620d 793c c07e f7bb 7b99 80bc d17c 28bc
000003c0: a7b8 fd3c 6dcf babd e472 89bc cc35 bfbc
000003d0: fddf dfba f167 033e ae43 b7bd 0d68 37bd
000003e0: d768 b6bc b6fa 8c3d 9eab f7bc c593 b43d
000003f0: 94d6 793d a784 ac3b a1b1 8f3b 74a4 b83d
-0.0045321803 0.04849133 -0.038840346 -0.053772066 0.067385525 -0.07927633 -0.46563888 -0.00209781
-0.027072433 -0.10663633 0.15976939 0.032777302 -0.41126817 0.07896131 0.0049088323 -0.1437476
-0.08004227 -0.0107367905 -0.4690018 -0.052713767 -0.010965398 0.12485139 -0.034797028 0.0050012693
-0.137306 -0.18976976 -0.089257285 0.026920771 0.07935194 0.07651649 0.03797066 -0.016642991
0.0351991 0.065697506 -0.2765872 -0.03206724 0.14944556 -0.14032605 0.07261271 0.07872787
-0.03933617 -0.074212916 -0.0038377456 0.06535478 0.05591258 0.0015982824 0.034440376 -0.17272884
-0.1488406 -0.070329644 0.034952316 0.028768303 0.08764337 -0.032586638 -0.00580928 0.03993193
0.027010504 0.07570201 -0.0131273195 -0.2416095 0.011401703 0.06950754 -0.09350772 -0.32331225
-0.010500633 -0.056935582 -0.045332488 0.027531343 -0.036893755 0.02012955 0.06355259 -0.084014766
-0.065660834 0.043574706 0.047332726 -0.015802862 0.02513524 -0.0003601883 0.12832634 -0.061713178
-0.2161943 -0.18242748 0.049669165 0.03974495 0.07985988 -0.11425207 -0.088405676 -0.19736856
-0.0047559026 0.03404828 0.055265475 0.041418113 0.088225044 -0.05787384 0.019874321 0.022805415
0.09634708 0.117722526 -0.04971462 -0.10953158 -0.042221915 -0.041941315 -0.15329233 -0.07063663
0.0036003203 -0.042086337 0.053680334 0.019946488 0.028976133 -0.051509786 -0.028459495 -0.009968091
-0.20379288 -0.086733125 0.07482429 0.112506546 0.050383057 -0.23508678 0.015610817 -0.026077714
0.05057942 -0.09728546 -0.05115487 -0.17278913 0.13819584 0.056515146 0.034099266 -0.058574975
-0.03780554 -0.004726982 -2.98482e-05 0.09044266 0.036367908 0.030311242 -0.03425533 0.08262176
-0.005323275 -0.24588032 -0.067794874 0.04302364 -0.048417713 -0.006953694 -0.13196348 -0.095984094
0.06552682 0.14421132 0.11755116 0.042804144 -0.059373926 -0.3750518 -0.16163015 0.056588493
-0.16298671 0.008653673 -0.11025969 0.07392893 0.088916466 -0.61355627 -0.07462628 0.049885683
0.03989793 -0.026294395 -0.3628022 0.027484292 -0.07856176 -0.07124588 -0.020904835 0.055095054
-0.082077205 -0.055069067 -0.05523029 -0.0543351 0.036838435 -0.08262186 0.049262762 0.01646597
0.0706485 -0.044702232 -0.08940177 -0.15441029 0.05293221 0.04849167 0.0028526315 0.044581164
0.013953613 0.12097833 0.041310877 0.097795844 0.14908746 0.05788565 6.9758775e-05 -0.10157481
0.011430219 -0.037867382 0.051744483 -0.12661397 -0.056478564 -0.09766484 -0.08824356 0.026586095
0.013956817 -0.14571331 -0.02196082 0.018331772 0.12772115 0.021748606 0.09931668 -0.072485715
-0.026664922 0.0092029795 0.03283421 -0.29785278 0.0126356585 -0.12747823 0.09382426 -0.010669573
0.007156877 0.034579933 -0.025442904 -0.0067786397 0.16853002 -0.16838777 -0.014123121 0.10146244
0.056608573 0.094697684 -0.0028667904 0.108893074 -0.10101782 0.03314109 -0.012265258 0.0014004576
-0.011768069 0.11746766 -0.13223824 -0.30735087 0.015200945 -0.0075529516 -0.015698185 -0.010283665
0.030971838 -0.091215946 -0.016778417 -0.023341082 -0.0017080304 0.12832619 -0.08948456 -0.044776965
-0.022266788 0.06883757 -0.0302332 0.08817247 0.060995653 0.005264837 0.0043851887 0.09015742

classifier.bias f4 [16]
00000000: 5f70 83be a393 d2bd 697f 9f3d 28bf 60bd
00000010: 55d9 923d 0ecc 0c3e 3244 833d e51f a3bc
00000020: 86d1 da3d 5929 ea3d cc85 54bc bbab 213b
00000030: a711 ef3c 852f 13bd a7c1 16be 9768 b4bd
-0.2567167 -0.10282066 0.077879734 -0.0548698 0.07170359 0.13749716 0.064094916 -0.01991267
0.10684495 0.11433668 -0.012971353 0.002466901 0.029183222 -0.03593399 -0.1472231 -0.088090114
