transfer04_13_07_22_10_12_FullyConnected.pth (torch, 550959 bytes, 8 tensors)

fc1.weight f4 [256, 4]
0.16573861 0.39140186 0.05078324 0.13022856 -0.13073745 -0.51626605 -0.15505563 0.51556236
-0.34387106 -0.09100276 0.11551976 -0.29741007 0.06010022 0.46046844 -0.367398 -0.1477718
0.3067067 0.58892006 0.48081416 -0.04182477 0.2080636 0.29434508 -0.24224418 -0.36301965
0.16493417 0.041321404 -0.12131408 -0.32939285 -0.36769179 -0.099805914 -0.45729804 -0.30457872
0.20905244 0.029812813 0.08566052 -0.47023684 -0.6310078 0.3134446 -0.2702062 0.33796364
-0.119367346 -0.45072556 0.025818354 -0.37722775 -0.096865654 0.23544097 -0.15623796 -0.22597688
0.30959076 -0.4584767 -0.4883033 0.29629186 0.27719516 0.046006393 -0.6150953 -0.12395933
0.37811747 -0.31001383 -0.5113907 -0.16901343 0.023276448 -0.23074645 0.29909122 -0.40345156
-0.4785731 0.028860435 -0.16255346 -0.22013421 0.21161005 -0.48547298 -0.6869106 -0.38899192
0.18489693 -0.061793253 -0.39522457 -0.032923967 0.47247332 0.23857647 -0.49355537 -0.2525428
0.3636376 -0.5576251 -0.6213835 0.39547113 0.37115324 -0.42772743 -0.018232139 0.29291883
0.39214927 0.521426 -0.16265498 -0.43541834 0.49778402 0.41103673 0.046753433 -0.028206127
0.014772191 -0.39368793 -0.08361492 0.34487593 0.121140696 0.0067429612 0.3041362 0.2107869
-0.28119794 -0.4566129 0.41166744 0.10305285 0.3588521 -0.5985835 -0.39416453 -0.20130433
0.5027243 0.0362854 -0.4416697 0.15683755 0.1962201 0.22053641 0.15487069 0.027319074
0.18564883 0.29967013 0.29152167 -0.19139297 0.34052563 -0.6460347 -0.3441985 -0.19024155
0.47711763 -0.02801633 -0.17412676 -0.4351646 0.4226701 0.12956536 -0.4629093 0.10286802
-0.31854507 -0.6427983 -0.19474977 0.16011514 0.15710592 -0.63775915 -0.31829736 -0.017571608
0.33968416 0.058507975 0.48803914 0.009975283 0.044591844 -0.4885065 0.033130504 -0.28048724
0.055167988 0.2101471 -0.37538978 -0.27797577 -0.08257358 0.37579116 0.44280323 0.27336478
-0.35169572 0.03408885 0.023930669 -0.3922801 0.035636764 0.5953398 0.2273583 -0.3272097
0.15198945 0.4684066 0.55192405 0.050547935 0.15748893 0.21087492 0.35226274 0.33720762
-0.024165636 0.39866537 0.17261146 0.299967 -0.21273181 -0.21733925 -0.6225093 -0.2754308
-0.4122873 -0.56381774 0.064039096 0.39400455 -0.31199285 -0.4428343 -0.59505725 0.15947714
0.42686868 -0.2674585 -0.61345565 -0.25392568 -0.4227239 0.22898734 -0.34023803 -0.24257362
0.0062530367 -0.6554842 -0.44490483 0.44478515 -0.3196759 0.4697432 0.4526125 0.27731493
-0.30619925 0.35187024 -0.014980311 0.32158503 0.006608486 -0.28235883 0.3082257 0.05948192
-0.41918367 0.028773427 0.21199882 -0.26904374 0.44967195 -0.38151318 0.25650346 -0.381286
-0.38758725 -0.03215915 -0.20542902 -0.20640051 0.07210314 0.32068175 0.30120954 -0.28294957
0.19332714 0.42545167 0.074000515 -0.056687914 0.36790842 -0.5394278 -0.6293027 -0.43063837
-0.28050733 0.25661498 0.10391176 -0.3486007 -0.030961357 0.05819242 -0.24426919 0.15129855
0.17933893 0.0913684 -0.23934308 -0.06689673 0.3545774 0.15624061 0.34849128 -0.020969393
00000000: 62b7 293e d365 c83e 1602 503d a35a 053e
00000010: 0ae0 05be 032a 04bf e7c6 1ebe e5fb 033f
00000020: de0f b0be a85f babd a095 ec3d 2246 98be
00000030: a62b 763d 85c2 eb3e 971b bcbe 7e51 17be
00000040: a908 9d3e 77c3 163f 462d f63e 7350 2bbd
00000050: a00e 553e 66b4 963e dc0e 78be b6dd b9be
00000060: 81e4 283e a240 293d 8473 f8bd 2ea6 a8be
00000070: 1942 bcbe 0b67 ccbd f822 eabe bef1 9bbe
00000080: d811 563e 003a f43c c86e af3d e2c2 f0be
00000090: ba89 21bf d07b a03e 7858 8abe 9209 ad3e
000000a0: de76 f4bd 80c5 e6be 0381 d33c ff23 c1be
000000b0: 8061 c6bd 7017 713e d8fc 1fbe 7c66 67be
000000c0: ae82 9e3e 75bd eabe e402 fabe 91b3 973e
000000d0: 86ec 8d3e 3371 3c3d e376 1dbf 64de fdbd
000000e0: 9d98 c13e 22ba 9ebe 80ea 02bf db11 2dbe
000000f0: 40ae be3c cc48 6cbe 7c22 993e 3491 cebe
00000100: 8907 f5be b86c ec3c 6a74 26be dd6a 61be
00000110: 4eb0 583e ea8f f8be 60d9 2fbf f329 c7be
00000120: 9f55 3d3e ec1a 7dbd e05a cabe 48db 06bd
00000130: 06e8 f13e 644d 743e 4ab3 fcbe 4a4d 81be
00000140: b52e ba3e 85c0 0ebf fd12 1fbf 317b ca3e
00000150: cc07 be3e 17ff dabe 915b 95bc 75f9 953e
00000160: cac7 c83e 2d7c 053f 078f 26be 27ef debe
00000170: 8cdd fe3e 6873 d23e 8780 3f3d 8910 e7bc
00000180: 0f07 723c 7791 c9be 4d3e abbd 9493 b03e
00000190: 9d18 f83d 0ff4 dc3b bdb7 9b3e 85d8 573e
000001a0: 2df9 8fbe 2bc9 e9be 13c6 d23e 5f0d d33d
000001b0: 76bb b73e c53c 19bf efcf c9be b922 4ebe
000001c0: 8ab2 003f 00a0 143d 8822 e2be 069a 203e
000001d0: eced 483e 4cd4 613e 6c96 1e3e 40cc df3c
000001e0: ba1a 3e3e 5d6e 993e 5442 953e 85fc 43be
000001f0: 6059 ae3e 8862 25bf c93a b0be aece 42be
00000200: c348 f43e 8182 e5bc 494e 32be e5cd debe
00000210: 3768 d83e c8ac 043e 7302 edbe 78ac d23d
00000220: 5718 a3be 6e8e 24bf 7c6c 47be 39f5 233e
00000230: 60e0 203e 2f44 23bf dff7 a2be 55f2 8fbc
00000240: 15eb ad3e 0fa6 6f3d 44e0 f93e 5f6f 233c
00000250: f0a5 363d 861d fabe dab3 073d 069c 8fbe
00000260: d4f7 613d cd30 573e 1733 c0be d752 8ebe
00000270: 561c a9bd b367 c03e 1bb7 e23e 78f6 8b3e
00000280: 7611 b4be c0a0 0b3d 400a c43c f0d8 c8be
00000290: dbf7 113d 3068 183f 9dd0 683e 0888 a7be
000002a0: 1fa3 1b3e fdd2 ef3e e54a 0d3f 5a0b 4f3d
000002b0: c744 213e 98ef 573e c85b b43e 7aa6 ac3e
000002c0: 03f7 c5bc de1d cc3e 0fc1 303e 4695 993e
000002d0: 5ed6 59be 2e8e 5ebe c55c 1fbf 4405 8dbe
000002e0: 5217 d3be 5c56 10bf ee26 833d f7ba c93e
000002f0: 87bd 9fbe 2dbb e2be ac55 18bf fa4d 233e
00000300: 888e da3e 52f0 88be 6e0b 1dbf 8c02 82be
00000310: 446f d8be a87b 6a3e ae33 aebe 3865 78be
00000320: 46e6 cc3b d0cd 27bf 91ca e3be e1ba e33e
00000330: 8fac a3be 2e82 f03e d3bc e73e 39fc 8d3e
00000340: 26c6 9cbe 5628 b43e fa6f 75bc cba6 a43e
00000350: 008c d83b 5691 90be c2cf 9d3e 50a3 733d
00000360: 3e9f d6be 40b6 eb3c 3816 593e 1ac0 89be
00000370: 673b e63e b255 c3be 6c54 833e eb37 c3be
00000380: d671 c6be 50b9 03bd fc5b 52be a85a 53be
00000390: d0aa 933d 6630 a43e 2338 9a3e c4de 90be
000003a0: 8df7 453e cdd4 d93e 958d 973d 9631 68bd
000003b0: 7e5e bc3e f117 0abf fb19 21bf a27c dcbe
000003c0: a89e 8fbe 0a63 833e b0cf d43d ca7b b2be
000003d0: aca2 fdbc 2d5b 6e3d b421 7abe 02ee 1a3e
000003e0: a0a4 373e 5b1f bb3d 5a16 75be 2701 89bd
000003f0: 2b8b b53e 8afd 1f3e 736d b23e 01c8 abbc

fc1.bias f4 [256]
-0.12618253 -0.17894422 0.13419634 0.12183024 0.26353374 -0.16320354 0.29910898 0.44115627
-0.056271672 0.12473704 0.35782814 -0.14588827 0.098326586 0.21711914 0.33694753 -0.28397095
0.28893083 -0.009585817 0.2899866 -0.33757132 0.1098245 -0.023868758 0.22668941 -0.076028325
0.061174735 0.15664513 0.19068952 -0.080176346 -0.22095889 -0.45471334 0.26250765 -0.07002415
0.18700139 -0.4470782 0.014289651 -0.047721718 -0.3658354 0.4462644 0.30226517 -0.14062886
-0.29569316 0.02971468 0.12350931 0.04742433 0.009291707 0.22176042 0.14205164 0.27902612
0.3993364 -0.27717936 -0.22047393 0.22562288 -0.14757222 -0.3394782 0.025891483 0.21559797
-0.06838292 0.40559146 0.08985037 0.48746604 -0.43709886 -0.3098466 -0.10981244 0.31553257
0.26623386 0.20352124 0.14767115 -0.16026184 -0.37671864 -0.42650354 -0.10230878 -0.08915061
0.44535467 -0.13684787 0.009001195 0.14597018 -0.06040952 0.09581511 0.27927813 0.31964388
0.20959343 -0.49713445 -0.09364432 0.17771931 -0.21269247 -0.23494548 0.23937468 -0.2902562
-0.16655621 0.3172823 0.10765147 0.18459663 -0.07594496 0.34356782 0.1603329 0.1449484
0.32775557 -0.23906952 -0.20063835 0.023014398 -0.3552451 0.28232077 0.35493395 -0.13193399
-0.18933754 -0.2592695 -0.0013651351 0.20484157 0.25779176 0.26298106 -0.379435 0.11080176
-0.0026753559 0.12049115 -0.144274 0.30523714 0.442357 -0.28887635 0.28936556 -0.26093546
-0.24615437 0.3546276 -0.13568181 -0.29218304 0.09245118 0.29981977 0.25115556 0.012497134
-0.48957634 0.35444742 0.12636283 -0.149307 -0.2971251 0.18700929 -0.32922947 -0.4867041
-0.43788403 0.25136167 -0.38621676 -0.54951763 -0.20158806 -0.08349197 -0.12046087 0.13679874
0.16326754 -0.32381213 0.00389372 -0.08658475 -0.22787565 0.36327976 0.34738934 -0.03324151
-0.058849454 0.18959524 0.14203414 0.008085589 0.20533027 -0.12779942 -0.47078454 -0.3517561
-0.11349681 0.43002555 0.28766546 0.28532308 -0.12675828 0.0066313683 -0.08815396 0.22277354
0.27361023 0.3467965 0.1698674 0.0094770435 -0.36536896 0.29478076 -0.37108302 -0.031302452
0.054507792 0.23532008 0.37265974 -0.16313565 0.10335341 -0.10004124 0.17244147 -0.3279972
0.3012915 -0.080262825 0.43527612 -0.41268575 0.067122094 0.07939008 0.12944122 0.20590656
-0.12336457 -0.014031974 -0.15578179 -0.22571166 -0.22258736 0.1592847 -0.15197107 -0.4831941
0.17671922 -0.27185595 -0.41417676 -0.111207366 -0.10355234 0.07157497 0.26192212 -0.007794142
-0.22472417 -0.122547604 -0.11227077 -0.10236293 -0.19142728 0.27149066 -0.09326744 0.17918724
0.14509742 -0.2486338 -0.32052305 0.38235387 -0.06796597 0.16974553 -0.116982825 0.40133205
0.16410151 0.19240864 0.32079592 -0.19824505 -0.3845287 -0.4944769 -0.392583 0.39691597
-0.11695498 -0.089999616 0.13778444 -0.060641203 -0.04777931 -0.22046047 -0.3732847 -0.09525997
0.21355608 0.11738953 0.026535809 -0.33312207 -0.26083177 0.081847705 -0.43417186 0.0928391
0.24613608 -0.50527465 0.19610006 0.072802514 0.031700373 0.2719907 -0.48881412 -0.30976504
00000000: fe35 01be 273d 37be c46a 093e 2282 f93d
00000010: e5ed 863e d41e 27be d024 993e 3cdf e13e
00000020: 207d 66bd 2276 ff3d 4035 b73e bc63 15be
00000030: 735f c93d 7b54 5e3e 6384 ac3e a464 91be
00000040: beee 933e d50d 1dbc 2079 943e 26d6 acbe
00000050: abeb e03d 6a88 c3bc 4521 683e bdb4 9bbd
00000060: 5c92 7a3d 9567 203e 1d44 433e 7f33 a4bd
00000070: 0c43 62be 30d0 e8be 6767 863e d268 8fbd
00000080: 4b7d 3f3e 6fe7 e4be 241f 6a3c d977 43bd
00000090: c74e bbbe c47c e43e 80c2 9a3e 0301 10be
000000a0: 1865 97be 336c f33c 73f2 fc3d 0440 423d
000000b0: 3e3c 183c 2a15 633e fc75 113e 83dc 8e3e
000000c0: d275 cc3e 74ea 8dbe ebc3 61be af09 673e
000000d0: 2c1d 17be 16d0 adbe 601a d43c b7c5 5c3e
000000e0: 580c 8cbd afa9 cf3e 7903 b83d 2695 f93e
000000f0: 6ccb dfbe 37a4 9ebe 58e5 e0bd 7c8d a13e
00000100: ce4f 883e df67 503e 1b37 173e ae1b 24be
00000110: 44e1 c0be ac5e dabe 4487 d1bd 9894 b6bd
00000120: 8705 e43e d921 0cbe c079 133c 3579 153e
00000130: f96f 77bd b63a c43d 8bfd 8e3e 5da8 a33e
00000140: a99f 563e 6888 febe 98c8 bfbd 0dfc 353e
00000150: 0ecc 59be 8c95 70be a31e 753e 769c 94be
00000160: b68d 2abe d372 a23e 6078 dc3d e606 3d3e
00000170: 0889 9bbd 1fe8 af3e 4f2e 243e 5a6d 143e
00000180: 94cf a73e a4ce 74be 2474 4dbe b188 bc3c
00000190: b0e2 b5be 598c 903e e7b9 b53e b419 07be
000001a0: b3e1 41be f9be 84be 55ee b2ba fdc1 513e
000001b0: 48fd 833e 74a5 863e 4e45 c2be 08ec e23d
000001c0: 0655 2fbb 10c4 f63d 90bc 13be 0b48 9c3e
000001d0: 9e7c e23e 9ae7 93be b927 943e 5599 85be
000001e0: e40f 7cbe c091 b53e 2cf0 0abe 0499 95be
000001f0: 0b57 bd3d fa81 993e 7697 803e c7c0 4c3c
00000200: c0a9 fabe 227a b53e 4265 013e efe3 18be
00000210: c820 98be 5d7f 3f3e c490 a8be 4831 f9be
00000220: 5632 e0be 7ab2 803e 34be c5be 30ad 0cbf
00000230: 1a6d 4ebe d7fd aabd 30b4 f6bd f814 0c3e
00000240: 9b2f 273e b4ca a5be c82d 7f3b 5853 b1bd
00000250: 3c58 69be ceff b93e 04dd b13e 4028 08bd
00000260: 200c 71bd 4125 423e 6671 113e 6b79 043c
00000270: 1942 523e dadd 02be ac0a f1be 6019 b4be
00000280: 0471 e8bd 4f2c dc3e e348 933e de15 923e
00000290: eccc 01be f34b d93b 108a b4bd bf1e 643e
000002a0: a416 8c3e 508f b13e b8f1 2d3e 9a45 1b3c
000002b0: a411 bbbe 81ed 963e 98fe bdbe 0037 00bd
000002c0: 9043 5f3d bff7 703e 42cd be3e 080d 27be
000002d0: f4aa d33d 6ce2 ccbd 7f94 303e 40ef a7be
000002e0: e142 9a3e d660 a4bd 83dc de3e 8c4b d3be
000002f0: 4f77 893d 4497 a23d 3d8c 043e 2bd9 523e
00000300: 90a6 fcbd 5de6 65bc 4385 1fbe f520 67be
00000310: f1ed 63be 871b 233e 4e9e 1bbe 3865 f7be
00000320: e2f5 343e b430 8bbe fa0e d4be b0c0 e3bd
00000330: 4013 d4bd e695 923d a81a 863e 0066 ffbb
00000340: 181e 66be 3dfa fabd 38ee e5bd a8a3 d1bd
00000350: 8305 44be d300 8b3e 0003 bfbd dc7c 373e
00000360: 6b94 143e dc99 7ebe 991b a4be e3c3 c33e
00000370: be31 8bbd c6d1 2d3e b194 efbd 657b cd3e
00000380: 3a0a 283e c506 453e 5d3f a43e c000 4bbe
00000390: f2e0 c4be 142c fdbe a400 c9be 9238 cb3e
000003a0: 1886 efbd b851 b8bd 5d17 0d3e e962 78bd
000003b0: 3db4 43bd 64c0 61be 2c1f bfbe a917 c3bd
000003c0: 72ae 5a3e ec69 f03d a061 d93c fa8e aabe
000003d0: be8b 85be c59f a73d c64b debe 6d22 be3d
000003e0: 190b 7c3e ae59 01bf 74ce 483e 7c19 953d
000003f0: 40d8 013d 5d42 8b3e d845 fabe 8699 9ebe

fc2.weight f4 [256, 256]
-0.030527852 -0.00979273 -0.017433286 -0.039468616 -0.018288359 -0.054037265 -0.035994217 0.021800093
0.028896332 0.057442367 0.0388173 0.03207823 -0.062060922 -0.02771753 0.029061198 -0.039072342
-0.054271877 0.03376662 -0.04154174 0.008143246 0.027207412 -0.03943049 0.04128623 0.044757605
-0.034783654 0.039647788 0.029275738 -0.04129403 -0.03089457 0.008394346 0.01603815 -0.03405302
0.039790325 -0.0395452 -0.004448913 0.062311903 0.03865934 0.006393969 0.061589763 -0.0050007626
0.03984245 -0.04772202 -0.058868438 -0.0017202124 -0.010545939 -0.021423668 -0.04557944 0.058682047
-0.054799326 0.044469997 -0.055407085 -0.034039155 0.040023334 0.056242935 -0.0606774 0.0041858405
0.018087998 -0.0031376854 -0.03311643 0.013259336 0.050289482 0.02407293 0.025961071 -0.040490568
-0.029191025 0.032059595 -0.05345489 -0.05683361 -0.047210015 0.031064436 -0.02845338 -0.015155494
0.051543675 -0.029159255 0.051937953 0.034573376 -0.039788574 -0.0013745949 -0.02868452 -0.041138634
-0.0063292235 -0.014347881 0.053257354 0.034485407 0.036487892 0.006698698 0.0035303533 0.058782354
-0.05422333 -0.012527123 0.002157241 -0.017757602 -0.035272017 0.05554851 -0.025472939 -0.015909456
-0.054698028 0.05016602 -0.0258409 0.050682396 0.0053114593 0.05340609 -0.022045203 -0.013744205
-0.062232755 0.050777145 -0.058867864 0.008888878 0.0034491196 -0.013981588 -0.0022468045 -0.033571146
0.054246962 -0.059637226 0.0051401705 0.031108603 0.024635702 0.05521743 -0.04923179 -0.01275865
0.043150485 -0.027080856 0.045045927 0.00463973 0.016652353 -0.012402773 -0.036648758 0.009090215
0.057302445 0.025033817 -0.02888713 0.030522898 0.02667977 0.05956074 0.0035219714 0.019370973
0.05476729 -0.0220059 -0.06124655 -0.0054887086 0.02182535 -0.055403978 0.0032322556 0.009918392
0.0009972677 0.052036636 0.00021461397 -0.025370263 -0.015953898 -0.058231264 0.004759744 0.052163295
0.045365863 -0.017022952 0.039290234 -0.034177385 -0.024560317 -0.06146504 -0.033040367 -0.016370513
-0.020268083 -0.037567735 -0.035386793 -0.023256749 0.03434147 0.016180485 0.010053687 0.0016554743
-0.049214974 -0.021563046 -0.008497804 0.034428917 0.034353293 0.04088316 0.035148285 0.0030668154
0.008001238 0.010781191 0.007115796 -0.016527124 -0.023678191 -0.029309027 -0.049218535 0.016314179
-0.055122763 -0.030156426 0.031792663 0.0594661 0.02851227 -0.054189794 -0.030096374 0.012819067
0.043360017 0.0037650838 -0.046742186 -0.010015704 -0.016527623 0.0029245988 0.029998906 0.00015486777
-0.035243332 -0.026415095 -0.037014432 0.056344956 -0.047796793 -0.038758397 -0.016677976 -0.061655328
-0.054250658 -0.034613036 -0.05629924 -0.01483161 0.023893028 0.0011516735 0.03187854 0.062095106
-0.0127521455 0.026194856 -0.008467965 -0.01933334 -0.012782641 -0.026738226 -0.04128883 -0.023975305
0.026255533 0.006582059 0.006288402 -0.029637203 -0.052648388 0.062254578 -0.002148293 -0.06169805
-0.040116467 0.029400036 -0.012001604 0.02579502 -0.019929968 -0.007904954 -0.025429368 0.002685465
0.055858128 -0.037865914 -0.007953957 -0.036267035 0.04951472 -0.023473993 -0.010845378 0.060794763
0.0288456 -0.026254952 0.02743496 0.05398585 0.015124656 -0.023623116 -0.02996885 0.04192414
00000000: 8c15 fabc b071 20bc 40d0 8ebc d8a9 21bd
00000010: 78d1 95bc 2e56 5dbd ac6e 13bd 1c96 b23c
00000020: 00b8 ec3c b048 6b3d e4fe 1e3d 7664 033d
00000030: 9833 7ebd e00f e3bc c011 ee3c 520a 20bd
00000040: 304c 5ebd de4e 0a3d ac27 2abd 406b 053c
00000050: 14e2 de3c de81 21bd c01b 293d c053 373d
00000060: 4e79 0ebd b865 223d acd3 ef3c ee23 29bd
00000070: 9c16 fdbc 7088 093c 7062 833c 2e7b 0bbd
00000080: 2efb 223d 26fa 21bd 30c8 91bb c43a 7f3d
00000090: 4259 1e3d 8084 d13b 8c45 7c3d 70dd a3bb
000000a0: d631 233d 2a78 43bd 0820 71bd c078 e1ba
000000b0: e0c8 2cbc b080 afbc 82b1 3abd 965c 703d
000000c0: 4275 60bd 2c26 363d 8af2 62bd a46c 0bbd
000000d0: 82ef 233d fe5e 663d de88 78bd 6029 893b
000000e0: 482d 943c a0a1 4dbb 18a5 07bd b03d 593c
000000f0: 58fc 4d3d 9834 c53c 50ac d43c 70d9 25bd
00000100: 0422 efbc ec50 033d 84f3 5abd 5cca 68bd
00000110: 4a5f 41bd d87a fe3c 1017 e9bc c04e 78bc
00000120: 761f 533d 64df eebc e4bc 543d d09c 0d3d
00000130: 58f9 22bd c02b b4ba ccfb eabc fc80 28bd
00000140: 6065 cfbb 6013 6bbc 6224 5a3d 9240 0d3d
00000150: 5474 153d c080 db3b 805d 673b c4c5 703d
00000160: 4819 5ebd 903e 4dbc 8060 0d3b 6478 91bc
00000170: 6479 10bd d686 633d a0ac d0bc 8c54 82bc
00000180: 0a0b 60bd e27a 4d3d 4cb0 d3bc 5898 4f3d
00000190: c00b ae3b 58c0 5a3d 2498 b4bc 602f 61bc
000001a0: c6e7 7ebd b2fb 4f3d 6e1f 71bd a8a2 113c
000001b0: a00a 623b 0813 65bc 203f 13bb e681 09bd
000001c0: 1032 5e3d 2a46 74bd e06e a83b 78d7 fe3c
000001d0: d0d0 c93c ac2b 623d 46a7 49bd a809 51bc
000001e0: 90be 303d acd8 ddbc 1482 383d e008 983b
000001f0: 846a 883c 0035 4bbc 021d 16bd 20ef 143c
00000200: f8b5 6a3d b813 cd3c b4a4 ecbc 280b fa3c
00000210: 888f da3c f6f5 733d e0d0 663b e0af 9e3c
00000220: aa53 603d b845 b4bc aadd 7abd a0da b3bb
00000230: 14cb b23c 48ef 62bd 40d4 533b c080 223c
00000240: c0b6 823a 5e24 553d 000a 6139 4cd5 cfbc
00000250: c0b1 82bc e883 6ebd a0f7 9b3b 2ea9 553d
00000260: 8ed1 393d b873 8bbc ccee 203d 96fd 0bbd
00000270: b832 c9bc c4c2 7bbd 5655 07bd 741b 86bc
00000280: 4009 a6bc a0e0 19bd bef1 10bd f084 bebc
00000290: a4a9 0c3d f08c 843c 38b8 243c 80fc d83a
000002a0: a495 49bd fca4 b0bc 603a 0bbc 5605 0d3d
000002b0: 0ab6 0c3d 1a75 273d a6f7 0f3d a0fc 483b
000002c0: a017 033c 98a3 303c a02b e93b e463 87bc
000002d0: c4f8 c1bc 7c19 f0bc 6099 49bd 50a5 853c
000002e0: 68c8 61bd 9c0a f7bc 0639 023d ba92 733d
000002f0: 9092 e93c 1ef6 5dbd ac8c f6bc 1007 523c
00000300: 469a 313d a0bf 763b bc74 3fbd e818 24bc
00000310: f064 87bc a0aa 3f3b 44c0 f53c 0064 2239
00000320: 505b 10bd 7864 d8bc 729c 17bd f8c9 663d
00000330: 92c6 43bd 20c1 1ebd 40a0 88bc 4c8a 7cbd
00000340: f035 5ebd 66c6 0dbd 089a 66bd 4800 73bc
00000350: 50bb c33c c0f3 963a 1293 023d 7057 7e3d
00000360: 60ee 50bc 9896 d63c 38bd 0abc f460 9ebc
00000370: 486e 51bc 200a dbbc 7a1e 29bd dc67 c4bc
00000380: d815 d73c 50ae d73b f00e ce3b b8c9 f2bc
00000390: d6a5 57bd a8fe 7e3d 60ca 0cbb 18b7 7cbd
000003a0: 2a51 24bd 58d8 f03c 60a2 44bc 1450 d33c
000003b0: 2c44 a3bc c883 01bc 4051 d0bc a0fe 2f3b
000003c0: 7ecb 643d 4a19 1bbd 5051 02bc be8c 14bd
000003d0: f2cf 4a3d 884c c0bc d0b0 31bc ee03 793d
000003e0: 9c4d ec3c a014 d7bc 48bf e03c 4420 5d3d
000003f0: 68cd 773c 4485 c1bc 3c81 f5bc a6b8 2b3d

fc2.bias f4 [256]
-0.024538837 -0.03118759 -0.06947956 -0.035443246 -0.034244932 -0.10191958 -0.05211422 0.049146004
0.15708657 -0.0605853 -0.024551637 0.037750736 -0.11719201 -0.031076763 -0.024935016 -0.0513671
0.17079529 -0.099082224 -0.06570375 0.044191144 -0.026826043 -0.06733919 -0.10239615 -0.11678854
-0.03609257 -0.056556087 -0.07471606 -0.046922877 -0.009485453 0.032942537 -0.072646484 -0.14100234
-0.085059024 0.019518064 -0.096226916 -0.050447613 0.025723316 -0.0001692902 -0.09006222 -0.0695445
-0.02446337 0.05643652 -0.08190455 -0.010374972 -0.089055195 -0.04507736 -0.102972545 -0.049235977
-0.09386307 -0.07692776 -0.016713653 0.021929178 -0.03923052 -0.08565635 -0.08365762 0.14140086
-0.0179004 -0.11552089 -0.0043655676 -0.028852293 -0.08001539 -0.041507505 -0.075109124 -0.051015638
-0.029673124 -0.02520985 -0.06877126 0.014291808 -0.0038047454 -0.03551786 -0.007314705 -0.109931625
-0.0580196 -0.08101797 -0.11205494 -0.061644536 -0.052318536 -0.027684221 -0.0069480403 -0.030388497
-0.097842075 -0.00011877643 -0.00091978937 -0.18264967 -0.11797193 0.01240982 0.12663819 0.00028325617
-0.057082646 -0.0024272061 -0.113054514 0.010336799 -0.045063984 0.00081914227 -0.059059747 -0.120518565
0.016421646 -0.10544692 -0.039366156 -0.073281385 -0.061368838 0.009213597 -0.084170945 0.016485834
0.023198962 0.01664137 -0.039147783 -0.04529511 0.0042751655 -0.005733709 -0.13438387 -0.02317685
0.008704657 -0.04365869 -0.047590796 -0.0039433152 -0.0082252845 -0.09839378 0.074793234 -0.031520292
-0.07977105 0.079396956 -0.077674694 0.046121493 -0.029741667 -0.12339681 -0.010693722 -0.009026502
-0.054268517 -0.07974361 -0.11834031 -0.020503884 -0.028533565 -0.12185693 0.007782503 0.03815932
-0.05992122 -0.09192812 -0.09875142 -0.0061661247 -0.040056676 -0.08105029 -0.023423694 0.0951512
-0.031029386 -0.043034125 0.022824049 0.07064395 -0.020310223 -0.024416037 -0.13268776 -0.14036465
-0.06817372 0.086931445 -0.010600015 0.0011174497 0.002515778 -0.09889253 -0.015693985 0.021120517
0.006850295 -0.0734722 -0.08717305 0.0074130194 -0.09096749 -0.011328422 -0.048680507 -0.12280414
-0.0758875 -0.041580983 -0.03045991 -0.04363238 -0.04695248 -0.10790105 -0.077818096 -0.035187215
-0.014089936 -0.027926518 -0.0684061 0.20444472 -0.08758039 -0.05855415 -0.014625201 -0.11152596
-0.02707456 0.00016579032 -0.05693822 -0.03789962 -0.018241804 -0.011832967 -0.119603366 -0.040203743
-0.066442855 -0.091028795 -0.036653735 -0.040083505 0.0061877845 0.050731022 -0.012952983 -0.015947165
-0.0059843166 -0.10352746 -0.07337566 -0.021700341 -0.014634686 -0.07869012 -0.053373635 -0.032210402
-0.12047871 0.16004188 0.00018530356 -0.107132055 -0.05169362 -0.0073360424 -0.10935878 -0.020940227
-0.017051257 -0.09019084 -0.010559283 -0.10324094 -0.038801603 -0.08070953 -0.14088117 -0.11567662
-0.04819145 -0.058672074 0.11409267 -0.08763138 -0.1551608 0.056501936 0.021691259 0.0061458945
-0.04266163 -0.12175103 0.037655555 -0.010742511 0.011067989 0.0064763594 -0.031187188 0.024659555
0.0014087236 -0.02451363 -0.0031100877 -0.05326635 -0.08154896 -0.083337896 -0.05294159 -0.03756243
0.13725497 0.0057117166 -0.02182585 -0.022093581 0.0014247894 -0.03447388 -0.013979742 -0.1136042
00000000: ac05 c9bc 1e7d ffbc 4d4b 8ebd f02c 11bd
00000010: 6a44 0cbd 36bb d0bd b875 55bd 524d 493d
00000020: 4ddb 203e 4b28 78bd 8420 c9bc 84a0 1a3d
00000030: 5d02 f0bd b294 febc 8544 ccbc 4f66 52bd
00000040: f6e4 2e3e 9feb cabd b08f 86bd c601 353d
00000050: 4ac2 dbbc 21e9 89bd 13b5 d1bd d42e efbd
00000060: cdd5 13bd 5ba7 67bd bc04 99bd 3432 40bd
00000070: e068 1bbc c1ee 063d aec7 94bd eb62 10be
00000080: 6d33 aebd 59e4 9f3c 9e12 c5bd 28a2 4ebd
00000090: b4b9 d23c 7e83 31b9 8b72 b8bd 596d 8ebd
000000a0: 6867 c8bc fb29 673d 93bd a7bd c9fb 29bc
000000b0: 9262 b6bd 0aa3 38bd 45e3 d2bd aaab 49bd
000000c0: 483b c0bd 4d8c 9dbd 12eb 88bc d2a4 b33c
000000d0: 2fb0 20bd 996c afbd b054 abbd 63cb 103e
000000e0: dca3 92bc 3796 ecbd 090d 8fbb a55b ecbc
000000f0: 1cdf a3bd c603 2abd d0d2 99bd c6f5 50bd
00000100: 0d15 f3bc e384 cebc f2d7 8cbd 3028 6a3c
00000110: 0959 79bb 2d7b 11bd 31b0 efbb d523 e1bd
00000120: f6a5 6dbd c0ec a5bd 0f7d e5bd fb7e 7cbd
00000130: f64b 56bd 05ca e2bc 63ac e3bb 4cf1 f8bc
00000140: 6d61 c8bd 9c17 f9b8 051e 71ba 8408 3bbe
00000150: 449b f1bd 8f52 4b3c 71ad 013e 0082 9439
00000160: 7ecf 69bd c311 1fbb 2089 e7bd ad5b 293c
00000170: 0395 38bd b5bb 563a a2e8 71bd 70d2 f6bd
00000180: b086 863c 8ef4 d7bd 683e 21bd 8d14 96bd
00000190: e45d 7bbd a0f4 163c d161 acbd 4d0d 873c
000001a0: c00b be3c 7b53 883c 6d59 20bd 5e87 39bd
000001b0: b016 8c3b d6e1 bbbb ed9b 09be 61dd bdbc
000001c0: fa9d 0e3c 74d3 32bd 91ee 42bd ed36 81bb
000001d0: 58c3 06bc ae82 c9bd 322d 993d 6c1b 01bd
000001e0: 015f a3bd df9a a23d e913 9fbd e4e9 3c3d
000001f0: cca4 f3bc 77b7 fcbd b934 2fbc e5e3 13bc
00000200: aa48 5ebd 9e50 a3bd 685c f2bd c3f7 a7bc
00000210: 39bf e9bc 2090 f9bd 5e04 ff3b f24c 1c3d
00000220: f46f 75bd cf44 bcbd 2f3e cabd 340d cabb
00000230: 7812 24bd b2fd a5bd 0ce3 bfbc a2de c23d
00000240: 5731 febc 8d44 30bd 80f9 ba3c c6ad 903d
00000250: a061 a6bc 2404 c8bc 4ddf 07be c0bb 0fbe
00000260: aa9e 8bbd 1d09 b23d afab 2dbc 6477 923a
00000270: c0df 243b 2b88 cabd ac90 80bc ef04 ad3c
00000280: 7078 e03b 9878 96bd c987 b2bd eae8 f23b
00000290: 2a4d babd d99a 39bc 3665 47bd bd80 fbbd
000002a0: e86a 9bbd d250 2abd 1087 f9bc deb7 32bd
000002b0: 3e51 40bd 3afb dcbd 185f 9fbd 7820 10bd
000002c0: 7ad9 66bc 27c6 e4bc 7f18 8cbd f559 513e
000002d0: 595d b3bd 7ad6 6fbd 8a9e 6fbc b967 e4bd
000002e0: 78cb ddbc 00d8 2d39 0d38 69bd a23c 1bbd
000002f0: d66f 95bc 10df 41bc 9cf2 f4bd aeac 24bd
00000300: 3113 88bd 4e6d babd 3a22 16bd 9a2e 24bd
00000310: e6c2 ca3b 55cb 4f3d c038 54bc a1a3 82bc
00000320: 1618 c4bb 3406 d4bd fa45 96bd eac4 b1bc
00000330: 52c6 6fbc 4928 a1bd 509e 5abd 0eef 03bd
00000340: 8bbd f6bd 05e2 233e 0c4e 4239 0d68 dbbd
00000350: b0bc 53bd 2f63 f0bb 7ff7 dfbd d78a abbc
00000360: 14af 8bbc fab5 b8bd d800 2dbc fc6f d3bd
00000370: 6eee 1ebd 0a4b a5bd 2743 10be dde7 ecbd
00000380: 6664 45bd 2152 70bd 6ba9 e93d 1578 b3bd
00000390: 79e2 1ebe 936e 673d deb1 b13c 8063 c93b
000003a0: f6bd 2ebd 9b58 f9bd b63c 1a3d 5b01 30bc
000003b0: 8356 353c a437 d43b 467c ffbc d602 ca3c
000003c0: eca4 b83a cfd0 c8bc 9dd2 4bbb d12d 5abd
000003d0: 2403 a7bd 0fad aabd 48d9 58bd 10db 19bd
000003e0: 918c 0c3e 5a29 bb3b 20cc b2bc 99fd b4bc
000003f0: 00c0 ba3a 7c34 0dbd 4a0b 65bc 52a9 e8bd

fc3.weight f4 [256, 256]
-0.023181468 0.10633593 -0.07461916 -0.04961415 0.05258293 0.0879597 0.0058830082 -0.03533707
0.06810198 -0.116900735 0.0118838325 -0.053312138 0.09538355 0.009783787 0.09354973 -0.08620524
0.020983553 -0.08825121 0.08734355 -0.03588453 0.014598169 -0.015237355 -0.058137156 -0.044167142
0.12381966 -0.0016137108 0.013642038 0.09748929 0.047854744 -0.0655255 -0.07628549 0.0057220906
0.04390295 0.06557749 0.015684837 -0.010038422 -0.028313838 -0.08432175 0.09162433 0.05797628
-0.053519838 -0.059856817 0.031752575 0.015108801 0.12081514 0.006073774 0.0110323215 0.09719025
0.0572331 -0.01675082 0.063584924 -0.014424598 0.11588208 -0.028362738 -0.1471787 0.03760233
-0.044812746 0.056443416 0.048981372 -0.07877135 0.026689466 0.0027960849 0.07026608 -0.038410537
-0.059417132 -0.0010959887 -0.0492385 -0.008615121 -0.072605096 -0.10968369 0.030305464 -0.014896542
0.050118037 -0.10937949 -0.14086638 -0.03269376 0.018388769 -0.31333187 -0.16106617 -0.057631373
-0.05427398 -0.21106459 -0.10637768 -0.098609634 0.00050461374 0.065242566 0.049307954 -0.00031852722
0.089608245 0.02569599 0.056578692 -0.17753302 0.1017228 -0.06924865 -0.058384947 -0.097949296
0.011584662 0.05245643 -0.017913194 0.047530964 0.05850428 -0.03307487 0.03707187 -0.1175691
-0.03438732 -0.070424855 0.06436529 0.039305225 0.026974745 0.046756145 -0.028947145 -0.13221419
0.027138634 -0.029053599 -0.061727908 -0.0997601 0.033206526 0.059629343 -0.029308686 -0.111050025
0.19611253 -0.06624099 -0.048075385 0.059224814 0.0074996576 -0.03496395 0.092437394 0.050537813
-0.013034679 0.107702054 0.08807942 -0.16250545 0.013083927 -0.06597293 0.0064819325 -0.061121896
0.002491288 -0.089469574 0.11535619 0.0040041935 -0.007907305 -0.058920473 0.0045045875 0.06340244
-0.4140685 0.19069144 -0.036798872 0.006632253 -0.060577624 -0.055800293 0.1053373 -0.010639794
0.054042827 0.084601335 0.0022384983 -0.023143692 -0.050363123 0.016772086 0.014750506 -0.4146092
0.024616651 -0.010054443 0.08969563 0.04833997 -0.14997034 0.07052165 0.022930361 0.02913678
0.08088703 -0.0051081553 0.10923198 -0.0019251108 0.051162563 0.007413794 -0.060692713 0.00035122782
0.0017732055 -0.0896666 -0.029845612 0.12124633 0.029330693 0.112472944 0.031026034 0.002310597
-0.056580707 0.021079548 0.058864612 -0.08134712 0.08403152 0.02041898 0.1065166 -0.09223966
0.035685044 0.0041675856 0.014432393 -0.10519979 0.028113097 -0.0842449 -0.024224848 -0.023004461
-0.16241786 0.05148108 0.02226019 -0.11383771 -0.09685904 0.055140227 -0.014070362 -0.17540503
0.09892701 0.0870126 0.032896187 0.09683753 -0.024589518 0.09582211 -0.07320025 0.06355611
0.03494118 0.11974313 0.02393718 0.040457897 0.03218448 0.114177935 0.055357873 -0.03997621
0.0050142035 -0.09078837 0.036935695 0.0030478826 -0.14947154 -0.12713124 -0.25887206 0.02595348
-0.04509894 0.034940973 -0.06132982 -0.008131395 -0.0040495573 0.0963812 0.09728519 -0.08592538
-0.11287642 -0.014765125 0.03489718 -0.049262345 0.11059515 0.017762301 0.0317744 0.08239708
0.08575947 -0.028684199 -0.020059228 -0.063852504 -0.004479967 -0.10375024 -0.001563634 0.0445967
00000000: 10e7 bdbc a7c6 d93d eed1 98bd 3538 4bbd
00000010: 3361 573d 3724 b43d 40c6 c03b 9abd 10bd
00000020: 0d79 8b3d a769 efbd 68b4 423c d45d 5abd
00000030: 7358 c33d 2d4c 203c 0097 bf3d 5f8c b0bd
00000040: b3e5 ab3c 0dbd b4bd 2de1 b23d a8fb 12bd
00000050: 292d 6f3c 19a6 79bc 3a21 6ebd 9be8 34bd
00000060: 2995 fd3d 2683 d3ba db82 5f3c 77a8 c73d
00000070: 5603 443d 3c32 86bd 913b 9cbd 6080 bb3b
00000080: 94d3 333d 7e4d 863d 7d7d 803c 3278 24bc
00000090: 6cf2 e7bc e2b0 acbd 89a5 bb3d 8978 6d3d
000000a0: 9e37 5bbd 6c2c 75bd fd0e 023d e88a 773c
000000b0: ee6d f73d 8206 c73b e9c0 343c af0b c73d
000000c0: 416d 6a3d 0439 89bc d038 823d 2655 6cbc
000000d0: 9553 ed3d f958 e8bc 03b6 16be e704 1a3d
000000e0: 928d 37bd 3631 673d b1a0 483d e052 a1bd
000000f0: dea3 da3c 853e 373b aae7 8f3d 5e54 1dbd
00000100: 615f 73bd 47a7 8fba 4fae 49bd 7026 0dbc
00000110: fbb1 94bd d8a1 e0bd 2a43 f83c a010 74bc
00000120: 9248 4d3d 5b02 e0bd 473f 10be e4e9 05bd
00000130: 0ba4 963c 096d a0be 88ee 24be e00e 6cbd
00000140: 654e 5ebd 5121 58be 8bdc d9bd d9f3 c9bd
00000150: 0e48 043a e59d 853d 23f7 493d 0000 a7b9
00000160: 8784 b73d 6680 d23c 0fbf 673d 37cb 35be
00000170: 0b54 d03d 3cd2 8dbd 0e25 6fbd a499 c8bd
00000180: 98cd 3d3c 8edc 563d b1be 92bc d4af 423d
00000190: 2fa2 6f3d 8479 07bd acd8 173d 11c8 f0bd
000001a0: b8d9 0cbd e83a 90bd f3d1 833d 84fe 203d
000001b0: 24fa dc3c 5f83 3f3d 9022 edbc 2863 07be
000001c0: d751 de3c d001 eebc 67d6 7cbd 064f ccbd
000001d0: 9103 083d e63d 743d c518 f0bc 326e e3bd
000001e0: b9d1 483e 5ba9 87bd b2ea 44bd b895 723d
000001f0: b0bf f53b 5c36 0fbd d14f bd3d bd00 4f3d
00000200: 688f 55bc e592 dc3d fc62 b43d d467 26be
00000210: f85d 563c d11c 87bd 6466 d43b f45a 7abd
00000220: e044 233b d33b b7bd de3f ec3d 9c35 833b
00000230: a48d 01bc 9856 71bd 389b 933b 23d9 813d
00000240: c900 d4be 9e44 433e 6aba 16bd 5f53 d93b
00000250: 3e20 78bd d98e 64bd 15bb d73d 8852 2ebc
00000260: 035c 5d3d 7743 ad3d c5b3 123b d797 bdbc
00000270: 9049 4ebd 9d65 893c 1bac 713c a847 d4be
00000280: dca8 c93c 64bb 24bc 58b2 b73d 2200 463d
00000290: d391 19be a86d 903d 74d8 bb3c 42b0 ee3c
000002a0: 19a8 a53d 5062 a7bb 04b5 df3d 0054 fcba
000002b0: d68f 513d 69ef f23b ec98 78bd 0025 b839
000002c0: e76a e83a 1fa3 b7bd c97e f4bc ff4f f83d
000002d0: ec46 f03c 3758 e63d 4f2a fe3c 636d 173b
000002e0: 2cc1 67bd 04af ac3c 051c 713d 5299 a6bd
000002f0: b818 ac3d b445 a73c 6025 da3d 26e8 bcbd
00000300: 7b2a 123d 3e90 883b d875 6c3c fd72 d7bd
00000310: 704d e63c 9788 acbd 3073 c6bc da73 bcbc
00000320: de50 26be d3dd 523d 015b b63c bf23 e9bd
00000330: 085e c6bd b8da 613d 6087 66bc 609d 33be
00000340: 3f9a ca3d a933 b23d 27be 063d c152 c63d
00000350: f56f c9bc 623e c43d 03ea 95bd b529 823d
00000360: 7c1e 0f3d e33b f53d e817 c43c 2eb7 253d
00000370: e0d3 033d 1fd6 e93d f0be 623d 18be 23bd
00000380: 304e a43b 41ef b9bd e249 173d fcbe 473b
00000390: 110f 19be b12e 02be e18a 84be 649c d43c
000003a0: abb9 38bd 441e 0f3d fa34 7bbd 8b39 05bc
000003b0: 26b2 84bb 8263 c53d 753d c73d a5f9 afbd
000003c0: c12b e7bd 6ce9 71bc 58f0 0e3d 50c7 49bd
000003d0: b67f e23d 3f82 913c e025 023d cdbf a83d
000003e0: a9a2 af3d 20fb eabc 4053 a4bc 1ac5 82bd
000003f0: b0cc 92bb 017b d4bd daf2 ccba 08ab 363d

fc3.bias f4 [256]
0.088286124 -0.018183112 0.26179948 -0.03463231 -0.0025115265 -0.07231556 0.06958228 -0.04805628
0.0002773944 -0.05708795 -0.09620429 -0.026160931 -0.13248277 -0.07677938 -0.11428352 0.082349904
-0.039929517 0.0874703 -0.03112857 -0.06492439 -0.11485909 -0.011644082 0.045986872 -0.06445622
0.21888168 0.16116916 -0.09703556 0.26653415 -0.069588274 -0.02741576 -0.013201527 -0.07905686
-0.09994301 -0.0037433046 -0.013916203 -0.07517687 -0.010662916 0.041208275 -0.09960176 0.0007788421
-0.08906988 -0.114791095 0.11558962 -0.07257371 -0.05913511 -0.034804933 0.14722258 -0.098324224
0.060859773 -0.11860523 0.019513696 -0.044456754 -0.08405789 -0.06112493 -0.11764877 -0.055735685
-0.02265459 -0.05181867 0.17825253 -0.08045543 0.20117703 -0.08744615 -0.057735052 -0.06021112
-0.09199434 0.15784909 -0.087225616 0.17355582 -0.08446077 -0.09876562 -0.020846918 0.019276096
-0.0010894302 -0.16635229 -0.019298913 -0.039380133 -0.022441255 0.027656218 -0.08875943 -0.043086655
0.12637965 0.113401815 -0.069773056 -0.058972795 -0.058060337 -0.07859618 -0.03238402 -0.0066376715
-0.07235604 0.08634666 0.18288437 0.059158437 0.018562134 -0.015391882 0.18173386 -0.07935984
-0.044774663 -0.014766248 -0.075416416 -0.07665026 0.22175965 -0.09836665 -0.048635215 -0.047422603
-0.030343562 -0.00097220956 -0.16731012 -0.016730074 0.04093711 -0.030179376 -0.09194872 -0.026716616
-4.2419557e-05 -0.00051255286 0.25632817 0.21776524 -0.060143292 -0.16039526 -0.022550244 -0.10858615
-0.033377983 0.040070776 -0.05937077 0.10369411 -0.026687833 -0.10780458 -0.12051715 0.024133753
-0.14423479 -0.16671488 0.10940342 -0.09185798 -0.107373126 -0.11664106 0.17416862 -0.07396113
0.13385643 -0.03760245 -0.010311938 -0.007322617 -0.06405817 0.26136634 -0.10345412 -0.058633532
0.09223886 -0.07301273 -0.07436255 -0.1146507 -0.032318875 -0.073361814 -0.027050152 0.107112505
-0.046947993 -0.073347785 0.00559501 -0.0822723 -0.13987848 -0.014214197 0.043951675 -0.036043532
-0.10541983 -0.03654945 -0.03274496 0.12132327 -0.02942609 -0.013834318 -0.016589968 0.0626888
0.22131045 0.14101914 -0.032157507 0.10048308 0.18699817 -0.080654345 0.0015536101 -0.13156353
0.15573315 0.028674057 -0.11188509 -0.009725972 -0.09241723 -0.09761808 -0.029866835 0.13794485
-0.0917734 -0.0031137143 -0.07641229 0.07895262 -0.08256136 0.001392055 -0.08137431 -0.06224119
0.10689829 -0.059048563 -0.071804754 -0.112769544 -0.1429874 -0.081685856 0.00684587 -0.02818137
-0.036692545 -0.10832316 -0.01747521 0.035915695 -0.044082943 -0.08421624 -0.049149405 -0.040489823
-0.021031324 0.11437136 0.071135856 -0.11100479 -0.0023906888 -0.18712129 0.12754723 -0.09480463
-0.07805541 -0.09196559 0.039820537 -0.0775427 0.0060877637 -0.06321978 -0.02062701 -0.1143096
0.20491602 0.047698684 -0.00833958 -0.08578773 -0.040873684 -0.037349835 -0.0680015 -0.0064747497
0.04717926 -0.06138538 -0.045808088 -0.078134045 -0.036057465 0.018105082 -0.112786084 -0.14599751
0.35282105 -0.033516694 -0.039464753 -0.03603958 -0.076154776 0.14112037 -0.00012705501 -0.15215789
0.17642549 -0.0397077 -0.048021115 -0.056294553 -0.049546964 0.22850862 -0.021421084 0.14286454
00000000: 5bcf b43d c0f4 94bc 950a 863e 9cda 0dbd
00000010: 6c98 24bb 2e1a 94bd 2881 8e3d a9d6 44bd
00000020: 3f6f 9139 0ed5 69bd c106 c5bd 734f d6bc
00000030: 90a9 07be 823e 9dbd 7a0d eabd 11a7 a83d
00000040: 228d 23bd a123 b33d 5801 ffbc 14f7 84bd
00000050: 3e3b ebbd d2c6 3ebc bb5c 3c3d 9f01 84bd
00000060: 8522 603e 8709 253e 94ba c6bd 2a77 883e
00000070: 4c84 8ebd 0497 e0bc 384b 58bc 90e8 a1bd
00000080: ecae ccbd 3b52 75bb c900 64bc 55f6 99bd
00000090: 83b3 2ebc 02ca 283d 02fc cbbd 352b 4c3a
000000a0: 456a b6bd 9817 ebbd 40ba ec3d 86a1 94bd
000000b0: a837 72bd 9e8f 0ebd 84c1 163e 365e c9bd
000000c0: 1948 793d 4ce7 f2bd 30db 9f3c 4918 36bd
000000d0: 8b26 acbd 225e 7abd d7f1 f0bd 1a4b 64bd
000000e0: 1e96 b9bc d03f 54bd d587 363e d1c5 a4bd
000000f0: 5a01 4e3e f816 b3bd 977b 6cbd ef9f 76bd
00000100: 8767 bcbd 31a3 213e 58a3 b2bd 9eb8 313e
00000110: c5f9 acbd a145 cabd 28c7 aabc e7e8 9d3c
00000120: 36cb 8eba 4158 2abe c118 9ebc 104d 21bd
00000130: b9d6 b7bc 4b8f e23c 81c7 b5bd a27b 30bd
00000140: ab69 013e 363f e83d 2de5 8ebd 758d 71bd
00000150: add0 6dbd 09f7 a0bd 1ba5 04bd d380 d9bb
00000160: 672f 94bd 85d6 b03d 0a46 3b3e 1e50 723d
00000170: 9e0f 983c 3b2e 7cbc 7118 3a3e 6987 a2bd
00000180: a365 37bd 22ee 71bc ec73 9abd d0fa 9cbd
00000190: f614 633e 7474 c9bd b835 47bd 343e 42bd
000001a0: 1093 f8bc e1db 7eba 5853 2bbe 820d 89bc
000001b0: acad 273d bd3a f7bc 9c4f bcbd cedc dabc
000001c0: a7eb 31b8 d75c 06ba 723d 833e dafd 5e3e
000001d0: d058 76bd a83e 24be 4abb b8bc 6a62 debd
000001e0: 5ab7 08bd 4121 243d c42e 73bd 945d d43d
000001f0: 71a0 dabc a6c8 dcbd b2d1 f6bd 26b4 c53c
00000200: 49b2 13be 4eb7 2abe e60e e03d 0920 bcbd
00000210: 71e6 dbbd 82e1 eebd 4259 323e ef78 97bd
00000220: a911 093e 0705 1abd 67f3 28bc 90f2 efbb
00000230: ee30 83bd cfd1 853e c1df d3bd b729 70bd
00000240: bae7 bc3d b387 95bd 654b 98bd fccd eabd
00000250: cc60 04bd b83e 96bd 4898 ddbc cd5d db3d
00000260: 8a4c 40bd 5d37 96bd 5856 b73b 617e a8bd
00000270: 4e3c 0fbe aae2 68bc ac06 343d 62a2 13bd
00000280: 5ae6 d7bd e0b4 15bd 941f 06bd 5678 f83d
00000290: fc0e f1bc 56a9 62bc afe7 87bc fc62 803d
000002a0: 359f 623e 5267 103e 97b7 03bd 13ca cd3d
000002b0: 737c 3f3e 1b2e a5bd 81a2 cb3a 97b8 06be
000002c0: 8378 1f3e dbe5 ea3c 0324 e5bd af59 1fbc
000002d0: 3f45 bdbd fdeb c7bd 4bab f4bc 6a41 0d3e
000002e0: b1f3 bbbd 750f 4cbb 0c7e 9cbd e9b1 a13d
000002f0: ee15 a9bd 9d75 b63a 93a7 a6bd 9ef0 7ebd
00000300: 7eed da3d e8dc 71bd 5f0e 93bd b8f3 e6bd
00000310: 4a6b 12be ea4a a7bd 5253 e03b 9edc e6bc
00000320: ec4a 16bd 88d8 ddbd 2c28 8fbc 561c 133d
00000330: 5190 34bd 9079 acbd e350 49bd a8d8 25bd
00000340: e249 acbc 883b ea3d adaf 913d 7b56 e3bd
00000350: 1aad 1cbb b99c 3fbe be9b 023e ee28 c2bd
00000360: 84db 9fbd 7558 bcbd dc1a 233d b5ce 9ebd
00000370: dd7b c73b 5f79 81bd faf9 a8bc 271b eabd
00000380: 81d5 513e b25f 433d bca2 08bc 7ab1 afbd
00000390: 2a6b 27bd 24fc 18bd 5f44 8bbd 232a d4bb
000003a0: 0a3f 413d 3c6f 7bbd 43a1 3bbd be04 a0bd
000003b0: feb0 13bd 1c51 943c 64fc e6bd 5f80 15be
000003c0: f6a4 b43e cd48 09bd cba5 21bd 3d9e 13bd
000003d0: 09f7 9bbd dc81 103e 123a 05b9 47cf 1bbe
000003e0: e2a8 343e 8ba4 22bd cab1 44bd 1e95 66bd
000003f0: c2f1 4abd 2afe 693e 457b afbc 154b 123e

classifier.weight f4 [16, 256]
0.03341561 -0.0018919855 -0.1688653 -0.0109340865 -0.11498093 -0.017898666 0.08462774 0.17070201
0.05197293 -0.1567631 -0.06419313 -0.055252746 0.10438808 0.014060891 0.16406925 -0.22884527
-0.060504325 0.038089316 0.056202423 0.06468983 -0.00055489363 0.001129055 -0.09587637 0.023906445
-0.26227143 -0.18639861 -0.08404543 -0.28053802 -0.03315675 -0.09706351 0.028945347 0.0170306
0.08759168 -0.0368901 0.02382812 -0.06233654 0.12684627 -0.054242995 0.04768004 -0.12205296
0.04960094 -0.0023468593 -0.23013489 -0.04907151 -0.058453254 0.0064010867 -0.05880737 0.15603237
0.037984632 0.14192045 -0.0897429 0.07723426 -0.010195859 0.06257797 -0.013154943 -0.0456033
-0.03547478 0.030697994 -0.33139044 -0.028689032 -0.4747802 0.05009982 -0.006224716 -0.026912322
0.01141777 -0.1525559 -0.04036666 -0.27390012 -0.11969138 -0.01698427 0.10495354 -0.16105832
-0.047939517 -0.113693416 -0.10228818 -0.030487766 -0.071404435 -0.12513982 0.04461216 0.0016746725
-0.32270256 -0.21655686 -0.0892317 0.0030236447 0.08930015 0.054913092 0.030580347 -0.10780432
-0.018442107 -0.15128644 -0.29357475 0.07978688 0.039690085 -0.069110736 0.010818375 -0.09246897
0.014679801 -0.010273173 -0.10421822 0.02566638 -0.48920184 0.08616138 0.052037895 0.0008204155
-0.083017714 0.029040877 0.12258336 -0.07753944 -0.119641855 -0.15425874 0.032809973 -0.077844046
0.0033084452 0.0006506803 -0.20625086 -0.2566451 0.00975851 0.14799294 0.041085172 0.084253095
0.14066292 0.09028093 -0.07185496 -0.23427582 0.028299926 0.09956089 0.01886732 -0.020277506
0.07776169 0.11267373 0.09116151 -0.026132515 0.10378518 -0.030509586 -0.20003293 0.025977591
-0.08917732 -0.050314493 0.00811942 0.011103123 0.0108328 -0.39860633 0.005777865 0.06915543
-0.08837068 0.029043093 0.00056675705 -0.039225258 -0.12335982 -0.025503913 0.07999367 0.04882687
0.045062676 0.04381801 0.044078596 0.036100913 0.07837438 0.051417638 0.04010221 0.04770942
0.0041392017 -0.025608154 0.07274209 0.062439628 -0.0442705 -0.011501025 -0.009977347 0.017994627
-0.27843082 -0.045433924 0.11069616 0.092959516 -0.22676407 -0.0006159842 -0.1627387 0.13096584
-0.25089282 0.010377855 -0.04155388 0.034720987 -0.008261079 0.012285024 0.08941474 -0.36693418
0.017483443 -0.24815908 0.0005087266 -0.20301908 0.059171636 0.019622905 -0.033698436 0.04272764
0.03724497 0.060536705 -0.19237223 0.014553429 0.01884761 0.1698958 0.029732293 0.06794385
-0.08916685 -0.13353767 -0.037676185 0.03139662 0.037873458 -0.11891018 0.0346049 -0.112310074
-0.023776956 -0.07844076 -0.2123868 -0.04146455 0.01821907 0.12596539 -0.2253473 -0.062445644
-0.1457045 -0.009428119 0.015448457 -0.09353277 -0.0803356 -0.08597499 -0.06017617 -0.0014027996
-0.22877707 -0.024871774 -0.13479836 0.012152308 0.042301085 0.07641826 -0.06499817 0.0063456097
0.060140535 0.0054320595 0.16122128 0.031324863 -3.1284988e-05 0.022460591 -0.1418634 0.14460269
-0.27377665 -0.07462026 0.036913574 0.06406486 -0.15340453 -0.43068212 -0.120740555 0.14385302
-0.15447389 -0.11810953 0.1949388 -0.10278562 -0.048840914 -0.20453563 -0.07361544 -0.2994915
00000000: cfde 083d 80fc f7ba 06eb 2cbe e224 33bc
00000010: 1f7b ebbd 39a0 92bc 4f51 ad3d 82cc 2e3e
00000020: 91e1 543d 8286 20be b077 83bd b450 62bd
00000030: 6bc9 d53d a75f 663c c501 283e 6a56 6abe
00000040: 62d3 77bd 8b03 1c3d 8334 663d 1a7c 843d
00000050: 4876 11ba cdfc 933a d55a c4bd 73d7 c33c
00000060: 7148 86be 47df 3ebe 0320 acbd aea2 8fbe
00000070: 5fcf 07bd 3cc9 c6bd cb1e ed3c c283 8b3c
00000080: 4463 b33d 131a 17bd 3133 c33c 9a54 7fbd
00000090: fde3 013e e72d 5ebd 254c 433d e7f6 f9bd
000000a0: 5b2a 4b3d c4cd 19bb 7ba8 6bbe 35ff 48bd
000000b0: ae6c 6fbd 35c0 d13b ffdf 70bd f3c6 1f3e
000000c0: c695 1b3d 9853 113e 20cb b7bd ff2c 9e3d
000000d0: 880c 27bc e128 803d d487 57bc 87ca 3abd
000000e0: 014e 11bd 5c7a fb3c 02ac a9be 4305 ebbc
000000f0: 6416 f3be 7835 4d3d b4f8 cbbb 3b77 dcbc
00000100: 9911 3b3c 9d37 1cbe 8357 25bd a33c 8cbe
00000110: c120 f5bd 9922 8bbc e2f1 d63d 79ec 24be
00000120: 3a5c 44bd 18d8 e8bd 777c d1bd 7bc1 f9bc
00000130: 7d3c 92bd a724 00be 3ebb 363d af80 db3a
00000140: 4539 a5be 15c1 5dbe 1cbf b6bd 5728 463b
00000150: ffe2 b63d 8dec 603d a383 fa3c 83c8 dcbd
00000160: e713 97bc d5ea 1abe 6e4f 96be 4e67 a33d
00000170: 1292 223d ee89 8dbd 8e3f 313c 5f60 bdbd
00000180: 8c83 703c d050 28bc 5d70 d5bd 4d42 d23c
00000190: aa78 fabe 6175 b03d b025 553d 2711 573a
000001a0: 3105 aabd 22e7 ed3c fc0c fb3d ffcc 9ebd
000001b0: ca06 f5bd 01f6 1dbe c063 063d b36c 9fbd
000001c0: 80d2 583b 6a92 2a3a 6d33 53be fd66 83be
000001d0: 28e2 1f3c 768b 173e ed48 283d e38c ac3d
000001e0: f109 103e 35e5 b83d b128 93bd 00e6 6fbe
000001f0: 3fd5 e73c 94e6 cb3d a38f 9a3c 031d a6bc
00000200: 8541 9f3d 7cc1 e63d e3b2 ba3d db13 d6bc
00000210: 538d d43d 3def f9bc 6fd5 4cbe f5ce d43c
00000220: 99a2 b6bd 9216 4ebd 5107 053c e0e9 353c
00000230: 0e7c 313c 2116 ccbe 3f54 bd3b 5da1 8d3d
00000240: b0fb b4bd c8eb ed3c 6c92 143a aaaa 20bd
00000250: 13a4 fcbd 95ed d0bc b9d3 a33d affe 473d
00000260: a493 383d 837a 333d c28b 343d 8dde 133d
00000270: bf82 a03d 4d9b 523d 3742 243d f46a 433d
00000280: 24a2 873b 31c8 d1bc cef9 943d b2c0 7f3d
00000290: fc54 35bd cc6e 3cbc 0778 23bc 7869 933c
000002a0: 7c8e 8ebe ec18 3abd abb4 e23d 8f61 be3d
000002b0: d734 68be 007a 21ba f9a4 26be e91b 063e
000002c0: 0675 80be e107 2a3c 6734 2abd 9837 0e3d
000002d0: 7a59 07bc 2047 493c 131f b73d ccde bbbe
000002e0: 7039 8f3c 6a1d 7ebe 105c 053a 3ce4 4fbe
000002f0: f55d 723d 37c0 a03c 5f07 0abd 2e03 2f3d
00000300: 2f8e 183d 56f5 773d 3afd 44be 8171 6e3c
00000310: 4e66 9a3c 2af9 2d3e 2391 f33c 2526 8b3d
00000320: 1c9d b6bd 19be 08be 5852 1abd be99 003d
00000330: 3321 1b3d 2e87 f3bd debd 0d3d d302 e6bd
00000340: e4c7 c2bc 8da5 a0bd ed7b 59be bbd6 29bd
00000350: 2940 953c 12fd 003e 71c1 66be 01c7 7fbd
00000360: 8f33 15be 6678 1abc 861b 7d3c 1c8e bfbd
00000370: fe86 a4bd a813 b0bd 4a7b 76bd 25de b7ba
00000380: 8944 6abe e4bf cbbc 9508 0abe 791a 473c
00000390: e743 2d3d 2d81 9c3d c31d 85bd d5ee cf3b
000003a0: ec55 763d 6bff b13b 3117 253e 804e 003d
000003b0: 0038 03b8 46ff b73c a444 11be ba12 143e
000003c0: 742c 8cbe 82d2 98bd b032 173d 7034 833d
000003d0: 1416 1dbe 5e82 dcbe d346 f7bd 354e 133e
000003e0: 672e 1ebe 69e3 f1bd 099e 473e 4481 d2bd
000003f0: 690d 48bd ca71 51be b1c3 96bd f356 99be

classifier.bias f4 [16]
-0.14542611 -0.06841468 -0.012740064 -0.018517386 0.034926455 -0.08740849 0.11474448 0.0058012647
0.09469841 0.03976816 0.10157507 0.05290299 -0.03596818 0.033079635 -0.044331037 -0.037278008
00000000: 95ea 14be ff1c 8cbd b4bb 50bc c6b1 97bc
00000010: 0b0f 0f3d 3903 b3bd 27ff ea3d 8918 be3b
00000020: 3df1 c13d f0e3 223d 9706 d03d ceb0 583d
00000030: 5f53 13bd 837e 073d 7694 35bd d3b0 18bd
