transfer04_03_23_22_10_12_FullyConnected.pth (torch, 550959 bytes, 8 tensors)

fc1.weight f4 [256, 4]
0.39876166 -0.4569101 -0.07434247 -0.47858095 -0.38335425 0.080871105 0.2511291 -0.35827267
-0.14529002 -0.34888983 0.43276954 -0.29740137 0.09659384 0.18627669 -0.029615212 -0.12893549
0.13343678 0.21694611 0.20239541 0.14061168 -0.16722794 -0.04081513 0.6059333 0.4261148
-0.4129858 -0.16431141 0.27713478 0.35736763 -0.41017947 0.26571414 0.03645265 -0.07747746
-0.31551403 0.29655856 -0.15219969 0.1056326 0.23957619 0.029631658 -0.63007766 0.025756577
0.1798858 -0.5875772 -0.68387276 0.0423389 -0.26454085 -0.42668205 0.1523683 -0.4917267
-0.37840256 -0.60037625 -0.52042234 -0.15162188 0.3091856 -0.2902313 -0.45453304 0.08278325
0.29464108 -0.25982186 -0.10707604 0.29970938 -0.028810702 0.39840195 -0.4794352 0.1507001
-0.27607054 -0.022586286 0.36662865 -0.090635836 0.25755626 0.35091898 0.38162923 0.11637187
0.03815285 -0.14533725 -0.09154413 0.23766257 0.36130494 -0.09506418 0.23244989 -0.50849956
-0.3412034 -0.15043424 -0.53098345 0.048573427 0.4124222 -0.42104533 -0.22234838 -0.36962202
-0.4670593 -0.09302944 0.15154177 0.12359291 0.28355843 -0.17573942 -0.1600832 0.094325684
0.30155033 -0.049054384 -0.062414706 -0.23126608 -0.30334455 -0.22444375 -0.28518653 -0.45826265
0.0041543716 0.6029457 0.11504369 0.11040594 0.30814677 0.23889512 -0.2940839 -0.08402628
-0.10170251 -0.48564988 0.0665288 0.07725304 -0.025851078 0.40183708 -0.14306001 0.20394948
0.4416271 -0.36509606 -0.43066764 -0.13214126 0.050223764 0.6019732 -0.20016171 0.16967975
0.3552454 -0.09995526 0.40482026 -0.4648111 0.06483972 -0.6028023 -0.16939485 -0.4674537
-0.46673286 -0.27535856 -0.066481054 0.0022549033 0.26611835 -0.35020497 -0.2922352 0.22980998
-0.47221166 0.3674028 -0.04471934 0.17494768 -0.15130222 0.45798093 0.21944618 -0.116568744
-0.018033147 0.028313696 0.39295447 -0.24722838 0.32194802 0.2978027 0.6843903 -0.42036065
0.454994 0.10155222 -0.15530412 -0.2733855 -0.41054732 0.47845766 -0.16663139 -0.24298762
-0.21961802 0.44802815 -0.13842219 -0.27326888 0.23909211 0.13547802 -0.19040096 -0.24805498
-0.17241977 0.48825824 0.1565726 -0.42807415 0.45972267 0.36676192 -0.15015332 0.29304945
-0.10551357 -0.117495894 -0.18529898 -0.48434353 0.54857266 -0.58494043 -0.3633389 -0.026087385
0.43013257 -0.36742732 -0.43580133 0.54574114 0.38945872 -0.58504117 -0.5330044 -0.1735397
-0.46503878 -0.42382127 -0.07015836 -0.3196218 -0.067916274 -0.1278674 0.45948797 0.19845605
0.15127791 0.06429074 0.3026975 -0.23589103 0.39662156 0.50700504 0.38835803 -0.23625784
0.042779267 -0.23732805 -0.090842485 0.19219679 -0.08326765 -0.15555754 -0.62878084 0.4175636
-0.107735254 -0.34683037 -0.74143267 0.27284664 -0.049495563 0.18223837 -0.27384222 -0.48747218
-0.06571027 -0.2648879 -0.46465507 0.44236633 0.18019202 0.53027964 -0.036476027 0.008334761
-0.44681442 0.33162946 -0.31583166 0.109278284 0.28679675 -0.34303552 -0.35773826 -0.22140789
-0.32942122 -0.2758373 -0.054914355 -0.39934695 0.1975294 0.4773706 0.2991535 0.012732268
00000000: 7d2a cc3e 1ff0 e9be dd40 98bd 9008 f5be
00000010: 0247 c4be c09f a53d fe93 803e 846f b7be
00000020: e8c6 14be b0a1 b2be f893 dd3e fe44 98be
00000030: fed2 c53d 51bf 3e3e 9a9b f2bc aa07 04be
00000040: a7a3 083e 1f27 5e3e be40 4f3e 82fc 0f3e
00000050: cd3d 2bbe c42d 27bd 721e 1b3f b82b da3e
00000060: e072 d3be 4041 28be 9ce4 8d3e e4f8 b63e
00000070: 0b03 d2be af0b 883e 604f 153d 81ac 9ebd
00000080: 0e8b a1be 86d6 973e 3cda 1bbe e855 d83d
00000090: 7653 753e 17be f23c c54c 21bf 75ff d23c
000000a0: fc33 383e 766b 16bf 4912 2fbf 8e6b 2d3d
000000b0: e671 87be 1276 dabe 7006 1c3e 9ac3 fbbe
000000c0: fbbd c1be 42b2 19bf 663a 05bf c442 1bbe
000000d0: 934d 9e3e 3299 94be 8eb8 e8be 448a a93d
000000e0: 32db 963e 5f07 85be af4a dbbd 8273 993e
000000f0: 6c04 ecbc 57fb cb3e 8878 f5be 2151 1a3e
00000100: 1e59 8dbe e006 b9bc c0b6 bb3e 489f b9bd
00000110: 6ade 833e a7ab b33e e864 c33e 6054 ee3d
00000120: 2a46 1c3d 4ad3 14be 7d7b bbbd d15d 733e
00000130: f6fc b83e 02b1 c2bd 5807 6e3e 072d 02bf
00000140: 36b2 aebe 6f0b 1abe 88ee 07bf eef4 463d
00000150: 0129 d33e 4193 d7be 4baf 63be 193f bdbe
00000160: 6622 efbe 3886 bebd c42d 1b3e 481e fd3d
00000170: 922e 913e 09f5 33be daec 23be d32d c13d
00000180: ce64 9a3e 40ed 48bd 90a6 7fbd 04d1 6cbe
00000190: fa4f 9bbe 95d4 65be f803 92be 67a1 eabe
000001a0: 6521 883b a65a 1a3f 079c eb3d 821c e23d
000001b0: 6ac5 9d3e eca0 743e 2a92 96be f815 acbd
000001c0: 6849 d0bd 1aa7 f8be 4040 883d d836 9e3d
000001d0: a4c5 d3bc 97bd cd3e 537e 12be 22d8 503e
000001e0: f21c e23e dfed babe 7880 dcbe 0a50 07be
000001f0: 6fb7 4d3d ea1a 1a3f 31f7 4cbe 87c0 2d3e
00000200: bae2 b53e 58b5 ccbd 9a44 cf3e b8fb edbe
00000210: b0ca 843d 4051 1abf d875 2dbe 1756 efbe
00000220: 9cf7 eebe ccfb 8cbe 3827 88bd 00c7 133b
00000230: aa40 883e 114e b3be da9f 95be 4f53 6b3e
00000240: bac5 f1be 381c bc3e a02b 37bd 7c25 333e
00000250: f8ee 1abe 7a7c ea3e 80b6 603e 98bb eebd
00000260: 40ba 93bc 20f2 e73c 5431 c93e 7029 7dbe
00000270: 5fd6 a43e 9879 983e 3434 2f3f 8339 d7be
00000280: f9f4 e83e 9cfa cf3d 0b08 1fbe 2ff9 8bbe
00000290: 4233 d2be 67f8 f43e 6ba1 2abe bfd1 78be
000002a0: 8ce3 60be f263 e53e 8cbe 0dbe e6e9 8bbe
000002b0: 90d4 743e c0ba 0a3e 78f8 42be 2002 7ebe
000002c0: cf8e 30be fcfc f93e 9154 203e 892c dbbe
000002d0: c560 eb3e 38c8 bb3e cbc1 19be 940a 963e
000002e0: 8017 d8bd b0a1 f0bd 04bf 3dbe e0fb f7be
000002f0: 426f 0c3f a8be 15bf 8e07 babe 36b5 d5bc
00000300: 563a dc3e 6f1f bcbe 5a21 dfbe b1b5 0b3f
00000310: 2267 c73e 42c5 15bf fa72 08bf 64b4 31be
00000320: 9019 eebe 1aff d8be 30af 8fbd 78a5 a3be
00000330: b017 8bbd acef 02be 0242 eb3e 1038 4b3e
00000340: 99e8 1a3e ddaa 833d 2bfb 9a3e 6b8d 71be
00000350: fb11 cb3e 15cb 013f ddd6 c63e 93ed 71be
00000360: 5039 2f3d 2006 73be a00b babd 3ccf 443e
00000370: 3b88 aabd 7a4a 1fbe c8f7 20bf e5ca d53e
00000380: 4da4 dcbd c093 b1be 88ce 3dbf 8eb2 8b3e
00000390: dcbb 4abd b29c 3a3e 0c35 8cbe f495 f9be
000003a0: 1b93 86bd 639f 87be 45e7 edbe d77d e23e
000003b0: 4284 383e 68c0 073f e367 15bd 858e 083c
000003c0: dcc4 e4be 56cb a93e b0b4 a1be 4bcd df3d
000003d0: 06d7 923e 5aa2 afbe 7829 b7be c0b8 62be
000003e0: e6a9 a8be 8c3a 8dbe e0ed 60bd 3477 ccbe
000003f0: 2645 4a3e eb69 f43e a62a 993e 019b 503c

fc1.bias f4 [256]
0.5202496 0.108879745 0.05237788 0.24793823 -0.014821446 -0.27444857 -0.20255429 0.1872849
-0.23440868 0.09493994 -0.25470194 -0.26962185 0.3947147 0.13389422 -0.14443493 -0.42585137
-0.22853816 0.028981155 -0.3169569 -0.12212837 0.2087584 0.5098552 -0.04311025 -0.026456365
-0.3793736 0.4048191 0.16268866 -0.49262834 -0.48831695 -0.24554926 0.2843981 0.056449786
-0.38899392 0.26048183 -0.113000214 0.04308999 -0.22893274 -0.44677222 -0.03407687 0.28133938
-0.017765613 0.31810477 -0.32099724 -0.2049551 0.339892 -0.27073616 0.099615455 -0.38460642
-0.30985874 0.030008692 -0.008929849 -0.43334073 0.2673032 0.153182 -0.49983436 0.025111713
0.07281571 0.29462546 0.017339965 -0.10794133 0.23834601 -0.42001432 -0.4710561 0.08508117
0.18306847 -0.29051578 -0.24138385 0.3370482 0.19969293 0.17494628 0.270823 0.07278333
0.3432119 -0.41611862 -0.05481045 -0.48477542 -0.1076771 0.040470835 0.048836548 -0.3750087
0.03918604 -0.22189754 0.16877465 -0.08812446 0.30307457 -0.37025842 0.11911235 -0.44624257
-0.3214414 -0.4070561 -0.43300408 0.20459467 -0.3639539 -0.4847849 -0.021282349 0.095805824
0.1285128 -0.20815253 -0.54767615 -0.12963061 -0.4775924 -0.310325 -0.49398696 -0.09613693
-0.09738159 -0.48805267 0.2946939 -0.36027724 -0.0040196166 0.23183455 -0.04506627 -0.069631495
-0.41643542 0.26543003 0.013181127 0.26142251 0.19827317 -0.090393335 -0.32142878 -0.5326363
0.37996393 -0.30928552 0.20721816 -0.20734234 -0.2058534 0.14334033 -0.32401472 -0.33612466
-0.13027447 -0.05662801 0.50167936 -0.21321227 -0.09208146 0.1859315 -0.30228138 -0.28964138
-0.1932053 -0.14975077 0.09542855 -0.014747977 0.13408317 -0.33963764 -0.41235238 -0.2866779
-0.23227715 0.051381074 0.21765828 0.39240086 0.330768 0.42646626 -0.08844783 -0.07371583
0.22584198 -0.20849341 0.2851583 -0.019414745 -0.3936618 0.38043433 -0.48517573 -0.14983189
-0.14012407 0.47786197 -0.44012123 0.36978856 0.038430218 -0.07092696 0.04397448 -0.1459317
-0.48855096 0.21366453 -0.3595016 -0.36880225 -0.061828345 0.26339105 -0.48649055 -0.16303349
-0.072194695 0.011222894 0.47516075 0.15017824 0.24811234 0.11447973 0.17331009 -0.31302404
0.13113514 0.21334423 0.3665066 -0.46763545 0.28989017 0.21331532 -0.2579412 0.14818338
0.03619641 0.16472918 0.41784462 -0.04926351 0.34108075 0.34997833 -0.15641254 0.0077204704
-0.4927643 -0.40025315 -0.3862853 -0.46838462 0.08311672 0.08850616 -0.49938607 0.3668274
-0.16361171 -0.48387527 -0.48272473 -0.17157185 0.4853962 0.35281518 0.14893332 -0.09419786
-0.12994003 -0.05565375 -0.1766813 -0.044498343 -0.4855793 0.23460531 -0.15359044 0.3624962
0.032245923 0.07134867 -0.42131174 -0.474824 0.11766724 0.17858067 -0.20980507 -0.31483153
0.15699565 -0.035011053 0.39813 -0.23930198 -0.3492417 -0.0670006 -0.29613918 0.111983344
0.25613788 0.049244825 -0.27965277 -0.34753877 -0.36476052 -0.10039744 0.3190335 0.2577639
0.34759402 -0.10071021 0.029171526 0.3182509 0.124922864 -0.41746348 -0.1771847 0.3888619
00000000: 142f 053f 58fc de3d 308a 563d 85e3 7d3e
00000010: a6d5 72bc 8684 8cbe 646a 4fbe 9dc7 3f3e
00000020: d408 70be df6f c23d 4b68 82be e00b 8abe
00000030: 0c18 ca3e 911b 093e c0e6 13be 3109 dabe
00000040: e805 6abe e369 ed3c 2d48 a2be 701e fabd
00000050: c3c4 553e df85 023f 6094 30bd 05bb d8bc
00000060: 423d c2be 7344 cf3e db97 263e c839 fcbe
00000070: ae04 fabe 4471 7bbe a19c 913e e437 673d
00000080: 362a c7be e05d 853e a86c e7bd 217f 303d
00000090: 586d 6abe 54bf e4be 3094 0bbd b70b 903e
000000a0: 3189 91bc a1de a23e c059 a4be c0df 51be
000000b0: 5306 ae3e ee9d 8abe 3003 cc3d 22eb c4be
000000c0: cea5 9ebe cad4 f53c 804e 12bc d6de ddbe
000000d0: f7db 883e bedb 1c3e 4aea ffbe 14b7 cd3c
000000e0: 6720 953d 26d9 963e 8b0c 8e3c 5810 ddbd
000000f0: fa10 743e 1e0c d7be 442e f1be 093f ae3d
00000100: 4d76 3b3e 7cbe 94be 542d 77be 9591 ac3e
00000110: 4e7c 4c3e 1e25 333e 50a9 8a3e 6d0f 953d
00000120: 78b9 af3e 800d d5be ec80 60bd 7c34 f8be
00000130: d085 dcbd bfc4 253d d508 483d 2401 c0be
00000140: 8b81 203d 1c39 63be 43d3 2c3e 997a b4bd
00000150: 972c 9b3e 8392 bdbe 2df1 f33d e879 e4be
00000160: f893 a4be a869 d0be b6b2 ddbe 4481 513e
00000170: 2a58 babe ba35 f8be 5258 aebc d835 c43d
00000180: dc98 033e f025 55be 8134 0cbf e3bd 04be
00000190: fe86 f4be ebe2 9ebe dceb fcbe 70e3 c4bd
000001a0: 0070 c7bd 0ae2 f9be 1ee2 963e 4276 b8be
000001b0: fdb6 83bb 0966 6d3e 6997 38bd f59a 8ebd
000001c0: 0637 d5be 72e6 873e a7f5 573c 2cd9 853e
000001d0: 1f08 4b3e 2420 b9bd 5092 a4be da5a 08bf
000001e0: a28a c23e ac5a 9ebe ff30 543e 8d51 54be
000001f0: 3ccb 52be cfc7 123e 42e5 a5be 8818 acbe
00000200: ac66 05be c6f2 67bd 0f6e 003f 5154 5abe
00000210: 3495 bcbd d464 3e3e a0c4 9abe e04b 94be
00000220: 9cd7 45be 4458 19be 0b70 c33d 80a1 71bc
00000230: 194d 093e fce4 adbe da1f d3be 72c7 92be
00000240: 10da 6dbe f674 523d d0e1 5e3e c4e8 c83e
00000250: 6c5a a93e c959 da3e 2324 b5bd 53f8 96bd
00000260: 1f43 673e 4c7f 55be 4500 923e ac0b 9fbc
00000270: 0a8e c9be 4ac8 c23e f468 f8be 886d 19be
00000280: af7c 0fbe 53aa f43e 9257 e1be ed54 bd3e
00000290: 0169 1d3d 2742 91bd 961e 343d 1f6f 15be
000002a0: 5a23 fabe e0ca 5a3e 9810 b8be a6d3 bcbe
000002b0: b83f 7dbd 31db 863e 4a15 f9be 40f2 26be
000002c0: d0da 93bd 3be0 373c 4548 f33e 53c8 193e
000002d0: 2911 7e3e 5974 ea3d 3378 313e b044 a0be
000002e0: 4a48 063e e976 5a3e c1a6 bb3e ea6d efbe
000002f0: 7c6c 943e 556f 5a3e de10 84be 62bd 173e
00000300: b042 143d c4ae 283e bbef d53e 89c8 49bd
00000310: 23a2 ae3e 5c30 b33e 9c2a 20be 00fc fc3b
00000320: 9a4b fcbe fbed ccbe 30c7 c5be 1cd0 efbe
00000330: 1939 aa3d b842 b53d 88af ffbe cdd0 bb3e
00000340: d489 27be 80be f7be b227 f7be 88b0 2fbe
00000350: da85 f83e 31a4 b43e fa81 183e cfea c0bd
00000360: 000f 05be 30f5 63bd f1eb 34be e543 36bd
00000370: da9d f8be 603c 703e d046 1dbe 1a99 b93e
00000380: 4d14 043d 401f 923d 2cb6 d7be 221c f3be
00000390: 86fb f03d dadd 363e 24d7 56be 9931 a1be
000003a0: 78c3 203e c067 0fbd b2d7 cb3e 940b 75be
000003b0: cfcf b2be 9c37 89bd 8e9f 97be 8657 e53d
000003c0: 8124 833e f1b4 493d a62e 8fbe 9af0 b1be
000003d0: e4c1 babe 2c9d cdbd 5c58 a33e a1f9 833e
000003e0: d8f7 b13e 2841 cebd 20f9 ee3c c8f1 a23e
000003f0: 8fd7 ff3d c6bd d5be e86f 35be e818 c73e

fc2.weight f4 [256, 256]
0.017011993 0.020361833 0.046436235 0.014883429 0.051251084 0.03555198 -0.039017 -0.04071319
-0.02943366 0.006845005 0.013566732 0.05076377 -0.029729135 -0.05896394 -0.028664932 -0.053058274
0.04060337 0.05175294 0.027131483 0.04711049 -0.022606805 0.03151997 -0.05764369 -0.055762284
-0.04105643 -0.0018016621 0.0059995353 0.0176135 0.028641947 0.033073254 -0.011101872 0.050436296
-0.04749403 -0.049816467 -0.06177769 0.045192525 0.049927518 -0.035087213 0.0018176511 -0.007024355
-0.032881588 0.0035794377 0.032773197 0.051321246 0.04841826 0.052315712 0.054260306 -0.026966743
0.06101977 -0.049136207 -0.03151752 0.017495528 -0.02923134 -0.03788925 -0.00095129013 -0.05527737
0.036490902 -0.018219136 -0.040204234 0.04411643 0.010834478 -0.029761344 -0.013368204 0.04541987
-0.03973066 0.021715872 -0.0028595105 0.037825003 -0.044783436 -0.053732976 -0.020551428 -0.041117556
-0.019309327 0.058801495 0.03971435 -0.025471643 0.0068839863 0.014668927 0.03158406 0.047712184
0.0021461993 0.013426542 -0.06026884 0.031934723 0.010251813 0.057270326 0.0070855618 0.060529083
-0.060773 -0.022840597 0.05219432 0.029087722 -0.024661079 -0.05888687 0.02857589 -0.047112584
0.00836996 0.028047636 0.0392635 -0.05743438 -0.010820396 -0.028892115 0.021574691 -0.02952689
-0.044026263 0.049461298 -0.008325495 -0.04725541 0.037411295 0.04084622 -0.033183336 -0.043736592
0.006775722 -0.04836361 0.038307026 0.061120078 -0.026449397 -0.0085304305 -0.014778785 -0.01320602
0.018322743 -0.021304123 0.014146812 0.037068322 0.02114579 -0.057847664 -0.05878622 -0.05037701
-0.017534249 0.003518805 -0.0042421147 0.061279498 -0.0074577928 0.042693675 -0.023539908 0.044674173
-0.014630854 0.0587316 0.023709878 0.03078118 -0.0036120042 0.010550767 -0.050635695 -0.008391216
-0.04290846 -0.049185567 -0.055582643 0.061544076 0.03835602 0.0056564435 0.037146382 -0.030798353
0.0031788498 0.009195134 0.011484049 -0.028432593 -0.055416785 -0.0363746 0.0605511 -0.021227524
-0.056668393 -0.05726306 -0.05903761 0.014626503 -0.01051157 0.0049872994 -0.011767969 0.032171108
0.04848384 -0.034202486 0.011744909 -0.055957526 -0.034773566 -0.05530671 -0.014622778 -0.020452857
0.05296395 -0.017262734 -0.02787283 0.061798066 -0.037255056 -0.037527286 0.026087709 -0.019888945
-0.025225937 -0.010357723 0.014680058 0.05680318 0.034953408 -0.047217198 -0.017311059 0.020607196
-0.02758202 0.039451584 0.013414793 0.013398074 -0.015554756 0.0050968975 -0.0010755882 0.017598905
0.007418826 0.0023300424 -0.041218437 -0.024157353 -0.059901163 -0.020415165 0.058247395 -0.03907574
0.031619795 -0.05715435 -0.0048782155 0.041777723 0.052943632 -0.027684204 -0.044858105 0.024396174
-0.027354963 -0.036456004 0.010910779 -0.061062314 -0.0049095824 0.03402731 -0.043929197 -0.04212723
0.04940225 -0.013385601 -0.038868614 0.048502564 0.03629005 -0.0043764487 -0.018708907 -0.041044377
-0.04688251 -0.0034748018 -0.02835913 0.052619867 -0.0072410554 -0.051487617 -0.040954538 -0.028472804
0.00791797 -0.028061442 0.00482893 -0.009786427 -0.031493686 -0.0069942474 -0.017272726 -0.025478385
0.046313263 0.020094275 0.01210364 -0.012557067 -0.043688536 0.03887348 0.023028724 -0.013232224
00000000: bc5c 8b3c dccd a63c ec33 3e3d a0d9 733c
00000010: a8ec 513d f49e 113d 4ad0 1fbd e0c2 26bd
00000020: dc1e f1bc 104c e03b 0047 5e3c aced 4f3d
00000030: 848a f3bc 2c84 71bd b8d2 eabc a253 59bd
00000040: b84f 263d e4fa 533d d842 de3c eef6 403d
00000050: e831 b9bc 161b 013d ca1b 6cbd fe66 64bd
00000060: ca2a 28bd c025 ecba c097 c43b 304a 903c
00000070: 84a2 ea3c d277 073d a0e4 35bc 4a96 4e3d
00000080: 1a89 42bd 5a0c 4cbd 9a0a 7dbd cc1b 393d
00000090: cc80 4c3d 9cb7 0fbd 403e ee3a 902c e6bb
000000a0: d8ae 06bd 0095 6a3b 303d 063d 3a36 523d
000000b0: 3a52 463d 0049 563d 0e40 5e3d 5ce9 dcbc
000000c0: deef 793d 0c43 49bd 8418 01bd c852 8f3c
000000d0: 9076 efbc c231 1bbd 0060 79ba 866a 62bd
000000e0: 7c77 153d 4c40 95bc 32ad 24bd 6eb3 343d
000000f0: 1883 313c 10ce f3bc 5006 5bbc 300a 3a3d
00000100: 9ebc 22bd 7ce5 b13c a066 3bbb 64ee 1a3d
00000110: d66e 37bd 1c17 5cbd 785b a8bc e26a 28bd
00000120: 982e 9ebc d6d9 703d 84ab 223d e8a9 d0bc
00000130: 1093 e13b f055 703c 4a5e 013d da6d 433d
00000140: 40a7 0c3b 00fb 5b3c 76dc 76bd fccd 023d
00000150: 38f7 273c 4a94 6a3d 002e e83b 58ed 773d
00000160: 1ced 78bd 341c bbbc b6c9 553d 6049 ee3c
00000170: 0806 cabc 5c33 71bd fc17 ea3c 20f9 40bd
00000180: 2822 093c 28c4 e53c c4d2 203d 5040 6bbd
00000190: 0848 31bc 28af ecbc 68bd b03c 60e2 f1bc
000001a0: e254 34bd ee97 4a3d a867 08bc e48e 41bd
000001b0: 963c 193d 5e4e 273d 40eb 07bd 2425 33bd
000001c0: e006 de3b ec18 46bd d4e7 1c3d 0c59 7a3d
000001d0: 68ac d8bc 38c3 0bbc b822 72bc 105e 58bc
000001e0: 9419 963c fc85 aebc 08c8 673c f4d4 173d
000001f0: f039 ad3c acf1 6cbd d2c9 70bd 2058 4ebd
00000200: fca3 8fbc c09b 663b 7001 8bbb 3600 7b3d
00000210: 8060 f4bb 90df 2e3d c4d6 c0bc 44fc 363d
00000220: 40b6 6fbc 8c90 703d 383b c23c d028 fc3c
00000230: 60b7 6cbb 20dd 2c3c 6067 4fbd 507b 09bc
00000240: c8c0 2fbd ce76 49bd a0aa 63bd a415 7c3d
00000250: 341b 1d3d b059 b93b ce26 183d d44c fcbc
00000260: 4054 503b 30a7 163c 9827 3c3c 78eb e8bc
00000270: b6fc 62bd 88fd 14bd 6e04 783d 58e5 adbc
00000280: 1e1d 68bd ac8c 6abd 6cd1 71bd 00a4 6f3c
00000290: b838 2cbc 806c a33b 70ce 40bc dac5 033d
000002a0: fe96 463d e817 0cbd b86d 403c b833 65bd
000002b0: ba6e 0ebd 4a89 62bd 6094 6fbc c08c a7bc
000002c0: baf0 583d 946a 8dbc 9055 e4bc f81f 7d3d
000002d0: c298 18bd 36b6 19bd e4b5 d53c 24ee a2bc
000002e0: a0a6 cebc 70b3 29bc a084 703c 74aa 683d
000002f0: 4e2b 0f3d d266 41bd eccf 8dbc 6cd0 a83c
00000300: b0f3 e1bc fc97 213d b8c9 5b3c 9883 5b3c
00000310: 60d9 7ebc e003 a73b c0fa 8cba 942b 903c
00000320: a019 f33b a0b3 183b aad4 28bd a4e5 c5bc
00000330: ec5a 75bd b43d a7bc d294 6e3d e20d 20bd
00000340: c283 013d ae1a 6abd 70d9 9fbb 1e1f 2b3d
00000350: 6cdb 583d fcc9 e2bc 22bd 37bd 7cda c73c
00000360: 8417 e0bc e452 15bd 20c3 323c 7a1c 7abd
00000370: 90e0 a0bb 3860 0b3d 1aef 33bd 9a8d 2cbd
00000380: 045a 4a3d 484f 5bbc b234 1fbd a0aa 463d
00000390: e0a4 143d 5068 8fbb 6c43 99bc 261e 28bd
000003a0: e007 40bd 80b9 63bb 6851 e8bc ee87 573d
000003b0: 6046 edbb aee4 52bd f2bf 27bd cc3f e9bc
000003c0: 60ba 013c 1ce1 e5bc 003c 9e3b 4057 20bc
000003d0: 86ff 00bd 0030 e5bb 887f 8dbc 0cb8 d0bc
000003e0: fab2 3d3d c09c a43c 584e 463c 28bc 4dbc
000003f0: c0f2 32bd cc39 1f3d bca6 bc3c f8cb 58bc

fc2.bias f4 [256]
-0.041975945 -0.117875315 -0.044553734 0.0019858992 0.010838337 -0.10698529 0.08279415 0.066734925
-0.016330274 0.056582283 -0.046935968 -0.045586333 -0.1220256 -0.11696967 -0.07452895 0.15327454
-0.046438992 0.0030091198 -0.12201657 -0.01540316 -0.09470388 -0.051236607 -0.01897221 -0.052016236
-0.062775664 -0.03350871 -0.023679784 0.022816062 0.033819064 0.13446866 -0.00920841 0.014092252
-0.11445153 -0.026427131 0.07538871 -0.015591561 -0.019173762 -0.12915371 -0.09485876 -0.087340675
-0.04785848 0.018117085 0.0045298096 -0.09662134 -0.12060492 -0.09436437 -0.13596562 -0.010412607
0.05190266 -0.031576753 0.036866505 -0.018362112 -0.10434936 -0.0064259125 -0.08175288 0.0011158145
-0.042558413 -0.010200143 -0.044168398 -0.0037549015 -0.027444046 -0.034148566 -0.026028335 -0.04051459
-0.08939771 -0.018420016 -0.051742636 -0.107225925 -0.023872381 -0.09546019 -0.07398159 -0.032011386
-0.10718771 -0.020430122 -0.031357933 0.040930163 -0.00035041565 -0.05570806 0.0047284574 -0.041566625
-0.002162598 -0.053489707 -0.018158691 0.0036095083 -0.1123527 -0.0125781745 -0.03953836 -0.11520256
-0.10626325 -0.120053984 -0.06782963 0.120586365 -0.027640425 -0.09572416 -0.07268918 -0.022325808
-0.07748579 -0.036299743 -0.11363511 -0.06630393 -0.031681087 -0.07230801 -0.058200784 0.07220138
-0.025257446 -0.038116857 0.01225768 0.20926872 -0.004484207 -0.09631451 -0.07413649 -0.04115365
-0.10255658 0.03918173 0.036960527 -0.037893634 -0.011312275 -0.07476099 0.06480811 -0.13189898
-0.059688505 -0.055991575 -0.06605998 -0.0137032615 -0.06432102 -0.042485494 -0.055431757 -0.053176787
-0.0419049 -0.035497464 -0.010480886 0.08794585 -0.052449152 -0.053008225 -0.048804402 -0.047689255
-0.06805351 -0.014233391 -0.011996947 -0.07238836 -0.034417 -0.09873537 -0.000351429 -0.10709595
-0.047203213 0.045034893 -0.11839994 -0.047297854 -0.0011738467 -0.06788354 -0.044808764 -0.08256188
-0.083032876 0.0011870278 -0.12719803 -0.058293343 -0.059912376 -0.03554294 -0.0959688 -0.024800166
-0.039744906 0.0028961655 0.032553397 -0.027436223 -0.04744531 -0.07730799 0.1182272 -0.10329625
-0.06845061 -0.08290161 -0.08247363 -0.04149545 -0.12719855 -0.13427153 -0.054353278 -0.06348335
-0.07800416 -0.025546141 -0.023146177 -0.089403674 -0.10439785 -0.1352756 0.013620116 -0.040206313
-0.05168153 -0.08536245 -0.016054474 -0.09001999 -0.026610948 -0.08296944 -0.065277696 -0.03901088
-0.080981046 0.19277312 0.021132648 -0.020226208 -0.04760752 0.05402283 -0.07602133 -0.0065469034
-0.036047287 0.11880292 0.03527033 -0.0617266 -0.07726194 -0.0678085 -0.04611217 -0.047791936
-0.10853048 -0.04371272 -0.06430103 -0.04837951 0.09302189 -0.036550958 -0.11505772 -0.039100904
-0.13006598 -0.09285991 -0.018376678 -0.07781915 -0.10209694 -0.03294082 -0.10512128 -0.019589277
-0.06630618 -0.0014976385 0.065642715 -0.03997572 -0.0133418795 0.006250487 -0.0022573357 -0.027625881
-0.016124122 -0.06250559 -0.058982145 -0.09962246 0.15556258 -0.032245934 -0.042153355 -0.10706302
-0.04875138 -0.06991212 -0.003607188 0.008974956 -0.00045923746 -0.017548796 -0.026680088 0.028277574
-0.06054604 0.020723537 -0.01859758 -0.056713086 -0.060923684 -0.039979182 -0.12684917 -0.09389438
00000000: f8ee 2bbd 9d68 f1bd fa7d 36bd dc25 023b
00000010: 4893 313c 1b1b dbbd fb8f a93d 52ac 883d
00000020: 11c7 85bc d3c2 673d ee3f 40bd bcb8 3abd
00000030: 8fe8 f9bd cb8d efbd a2a2 98bd 00f4 1c3e
00000040: d036 3ebd a734 453b d3e3 f9bd 895d 7cbc
00000050: 1cf4 c1bd 7add 51bd 9c6b 9bbc fa0e 55bd
00000060: 8790 80bd 6e40 09bd 1bfc c1bc c0e8 ba3c
00000070: dc85 0a3d 27b2 093e dfde 16bc 30e3 663c
00000080: 9065 eabd b67d d8bc 6565 9a3d bf73 7fbc
00000090: 4b12 9dbc df40 04be 4f45 c2bd abdf b2bd
000000a0: 4107 44bd 486a 943c cc6e 943b 69e1 c5bd
000000b0: b6ff f6bd 1b42 c1bd 923a 0bbe a499 2abc
000000c0: e297 543d a056 01bd 5501 173d 246c 96bc
000000d0: 1eb5 d5bd 7690 d2bb 0e6e a7bd 8640 923a
000000e0: bb51 2ebd 801e 27bc ece9 34bd cb14 76bb
000000f0: 56d2 e0bc 5edf 0bbd 6039 d5bc a0f2 25bd
00000100: 2616 b7bd 93e5 96bc 16f0 53bd 4499 dbbd
00000110: 0390 c3bc a280 c3bd a983 97bd 5f1e 03bd
00000120: 3b85 dbbd 125d a7bc 2d71 00bd 63a6 273d
00000130: feb7 b7b9 222e 64bd 2df1 9a3b c441 2abd
00000140: 60ba 0dbb 0618 5bbd 89c1 94bc 808d 6c3b
00000150: 2c19 e6bd b014 4ebc faf2 21bd 52ef ebbd
00000160: 8ca0 d9bd ddde f5bd 43ea 8abd fcf5 f63d
00000170: 2c6e e2bc 070b c4bd 11de 94bd 9de4 b6bc
00000180: dfb0 9ebd 0aaf 14bd 86b9 e8bd 5bca 87bd
00000190: 07c4 01bd 3916 94bd f263 6ebd 51de 933d
000001a0: b4e8 cebc 6c20 1cbd 70d4 483c 8a4a 563e
000001b0: 41f0 92bb 8b40 c5bd dfd4 97bd bb90 28bd
000001c0: 2f09 d2bd 067d 203d ec63 173d 5b36 1bbd
000001d0: 1f57 39bc 4a1c 99bd 1dba 843d 8710 07be
000001e0: ef7b 74bd 6c57 65bd 744a 87bd a583 60bc
000001f0: bdba 83bd 4505 2ebd 690c 63bd e7cf 59bd
00000200: 79a4 2bbd ca65 11bd 06b8 2bbc f41c b43d
00000210: ecd4 56bd 271f 59bd 20e7 47bd cf55 43bd
00000220: a35f 8bbd 2b33 69bc d88e 44bc 5940 94bd
00000230: d7f8 0cbd c535 cabd 0040 b8b9 1f55 dbbd
00000240: 2858 41bd 8276 383d ab7b f2bd 65bb 41bd
00000250: c2db 99ba 8706 8bbd 6589 37bd 3416 a9bd
00000260: 240d aabd 0b96 9b3a 3340 02be 00c5 6ebd
00000270: ae66 75bd 7995 11bd 4a8b c4bd b829 cbbc
00000280: 8ecb 22bd 98cd 3d3b b656 053d eec1 e0bc
00000290: 0356 42bd a753 9ebd 1a21 f23d fc8c d3bd
000002a0: d52f 8cbd 52c8 a9bd efe7 a8bd 22f7 29bd
000002b0: 5640 02be 7a7e 09be 8ba1 5ebd 8f03 82bd
000002c0: a5c0 9fbd 2446 d1bc 0d9d bdbc 4619 b7bd
000002d0: 8ace d5bd b085 0abe e826 5f3c 60af 24bd
000002e0: 03b0 53bd 82d2 aebd ac84 83bc 675c b8bd
000002f0: 34ff d9bc e2eb a9bd 50b0 85bd dfc9 1fbd
00000300: 64d9 a5bd 5166 453e 601e ad3c 6fb1 a5bc
00000310: 1a00 43bd 0b47 5d3d 12b1 9bbd 6887 d6bb
00000320: 52a6 13bd f24e f33d 9f77 103d 08d5 7cbd
00000330: 823b 9ebd 2fdf 8abd 1de0 3cbd 7ac1 43bd
00000340: 3a45 debd 1c0c 33bd 42b0 83bd 9829 46bd
00000350: 4382 be3d 75b6 15bd 62a3 ebbd 4528 20bd
00000360: 0430 05be 562d bebd b08a 96bc a65f 9fbd
00000370: 3318 d1bd f4ec 06bd d349 d7bd b179 a0bc
00000380: 89cb 87bd 694c c4ba b06f 863d 95bd 23bd
00000390: e697 5abc e3d0 cc3b cfef 13bb ac4f e2bc
000003a0: bc16 84bc ee02 80bd 4397 71bd dc06 ccbd
000003b0: cc4b 1f3e 5014 04bd ffa8 2cbd db43 dbbd
000003c0: 87af 47bd 162e 8fbd 9266 6cbb b20b 133c
000003d0: cfc5 f0b9 7ec2 8fbc 3390 dabc 5fa6 e73c
000003e0: 20ff 77bd 68c4 a93c f459 98bc fb4b 68bd
000003f0: 1d8b 79bd 36c1 23bd c0e4 01be b24b c0bd

fc3.weight f4 [256, 256]
-0.059489913 -0.050358403 -0.05591563 0.015394357 -0.040303774 0.07344513 -0.23640127 -0.26801467
-0.034203332 0.11291661 -0.05968722 0.099219985 0.04981154 0.08323666 0.038049445 -0.0405076
-0.028151782 -0.057229698 0.107111104 0.091952585 -0.04845076 0.02470693 0.05546598 -0.018969987
0.113550566 -0.013776921 0.05635073 -0.045744605 -0.046684727 -0.021560196 -0.07298866 -0.035707213
-0.03201401 0.015810426 0.124343514 0.0886082 0.09364574 -0.066328295 0.037204497 -0.08297724
0.055275455 0.1010288 -0.07125448 -0.007765293 -0.07598413 0.036481462 0.12470627 -0.06623404
0.05873408 -0.11858812 -0.1256252 -0.021134779 0.0354766 0.027817162 0.025126299 -0.09577111
-0.0120335 0.034167938 0.017634604 -0.07691428 0.002971477 0.035112217 -0.034877576 -0.069920905
0.11843455 -0.016634872 -0.052008085 -0.06810006 0.004960146 -0.034441166 -0.020414297 0.0067255166
-0.0853431 0.0025108973 -0.02052265 0.06269356 -0.105295554 -0.004539413 -0.1014089 0.048853364
0.039520256 0.05446952 -0.058200706 -0.039437413 -0.0006284478 -0.03575527 0.0056014294 0.14644529
0.07115578 -0.04635845 0.043505806 0.12340774 0.046491496 0.055351548 0.10397496 0.073637046
-0.009654866 -0.0019910617 -0.038447253 -0.10393503 -0.1631218 0.040121403 0.06128545 0.06520772
-0.05527053 0.024714358 0.010591388 0.017659547 -0.0033112823 -0.0024406544 0.02632154 -0.1059682
-0.04905435 -0.031111121 -0.059350617 -0.04211909 0.09270434 0.071078785 0.008238816 -0.0703396
-0.06588757 -0.05397474 0.112442255 0.007870627 0.04764063 -0.051632028 0.0035364507 -0.1016629
0.06958801 0.024632685 -0.1005175 0.047376234 0.074544564 -0.013434452 -0.027739912 -0.112997346
-0.04392032 -0.012755248 -0.017813865 0.12564991 0.10954155 0.05303107 -0.004445441 0.13555966
-0.05718126 0.051364537 -0.038372632 -0.07435964 -0.093643844 -0.010897412 -0.064698175 0.095959425
0.045385797 0.03516309 -0.035140965 0.07596166 0.10063285 -0.009779588 0.0961312 0.08582332
0.06222277 0.049733702 -0.23032734 0.043539528 -0.021336712 -0.0038754402 0.1529793 0.021578727
0.02140671 0.08334624 -0.14335814 -0.014536828 -0.011308288 0.00031122979 -0.046546794 -0.009457762
-0.111885935 0.033166163 0.11824858 -0.069706544 0.10832745 -0.021846322 -8.232892e-06 -0.01534991
0.047827657 0.07456063 -0.002173707 -0.048014678 0.037337184 0.07462765 -0.010931099 0.024836926
-0.057522543 -0.024267936 0.058813244 -0.06905213 -0.10578511 -0.20836504 -0.10289197 -0.07826952
0.100390896 0.14337653 -0.102318645 0.07105909 0.034685936 -0.04495485 0.025913076 -0.02198338
0.052663762 0.039967876 0.08825169 0.06086631 -0.14094532 -0.071248665 0.061842646 -0.071460016
-0.014561772 0.029424656 -0.05031971 0.06151355 0.008344889 -0.10332363 0.10530731 -0.012013821
0.077345684 -0.07583608 0.104457185 -0.033123337 0.08022498 -0.035291575 0.09765634 -0.04833561
-0.012458628 0.10464608 0.14446013 0.061589748 0.12121159 -0.034487523 0.014178914 -0.1312897
-0.08015599 0.09337017 -0.07394404 0.14798142 -0.009840347 0.053595137 0.07152727 0.04450477
-0.03974688 -0.016925262 0.033582352 0.12007218 -0.015822714 0.08226117 -0.026173336 -0.10113815
00000000: b2ab 73bd 9d44 4ebd ca07 65bd 9d38 7c3c
00000010: 9215 25bd 666a 963d 2d13 72be 3839 89be
00000020: cb18 0cbd d340 e73d 967a 74bd d933 cb3d
00000030: 2f07 4c3d fb77 aa3d bcd9 1b3d 4ceb 25bd
00000040: 919e e6bc b069 6abd 115d db3d a351 bc3d
00000050: 4e74 46bd 3066 ca3c 4c30 633d f266 9bbc
00000060: 338d e83d 98b8 61bc 06d0 663d b25e 3bbd
00000070: 7c38 3fbd 029f b0bc 147b 95bd ba41 12bd
00000080: 1f21 03bd de84 813c d0a7 fe3d 3778 b53d
00000090: 56c9 bf3d 21d7 87bd be63 183d f9ef a9bd
000000a0: 8468 623d 30e8 ce3d deed 91bd 0074 febb
000000b0: 919d 9bbd 966d 153d 0066 ff3d b6a5 87bd
000000c0: 2693 703d 54de f2bd e4a3 00be d822 adbc
000000d0: e94f 113d d1e0 e33c abd5 cd3c a523 c4bd
000000e0: 2828 45bc aef3 0b3d 7276 903c 3c85 9dbd
000000f0: 1dbd 423b d4d1 0f3d cadb 0ebd b132 8fbd
00000100: d08d f23d db45 88bc 6e06 55bd 0b78 8bbd
00000110: b888 a23b 2e12 0dbd e23b a7bc b961 dc3b
00000120: 5dc8 aebd de8d 243b 1e1f a8bc 7b65 803d
00000130: 32a5 d7bd 5bbf 94bb 78af cfbd 771a 483d
00000140: fedf 213d 6e1b 5f3d dd63 6ebd 2089 21bd
00000150: 6bbe 24ba 1e74 12bd 328c b73b c1f5 153e
00000160: 1fba 913d 5ce2 3dbd 2533 323d 32bd fc3d
00000170: de6d 3e3d 4eb8 623d d3f0 d43d 05cf 963d
00000180: 712f 1ebc 797c 02bb de7a 1dbd e4db d4bd
00000190: 6709 27be 5756 243d 7406 7b3d a08b 853d
000001a0: 5a63 62bd c475 ca3c 8087 2d3c c1aa 903c
000001b0: 1902 59bb 63f3 1fbb 45a0 d73c db05 d9bd
000001c0: 37ed 48bd c0dc febc a219 73bd 1185 2cbd
000001d0: c6db bd3d c191 913d 19fc 063c 350e 90bd
000001e0: 10f0 86bd 9e14 5dbd 2048 e63d cdf3 003c
000001f0: d222 433d 1b7c 53bd ccc3 673b a334 d0bd
00000200: 2984 8e3d 7cca c93c 1edc cdbd 950d 423d
00000210: d2aa 983d 2d1c 5cbc d03e e3bc 276b e7bd
00000220: cbe5 33bd 63fb 50bc 62ee 91bc 5faa 003e
00000230: 5257 e03d 1b37 593d 10ab 91bb 27d0 0a3e
00000240: e636 6abd 9f63 523d 9f2c 1dbd de49 98bd
00000250: 58c8 bfbd 0f8b 32bc 7a80 84bd 6086 c43d
00000260: 75e6 393d 2c07 103d f9ef 0fbd c991 9b3d
00000270: 9818 ce3d 913a 20bc 6fe0 c43d 23c4 af3d
00000280: 4edd 7e3d 91b5 4b3d eeda 6bbe 8156 323d
00000290: 54ca aebc 19fb 7dbb 9ba6 1c3e dfc5 b03c
000002a0: 205d af3c 6fb1 aa3d 7acc 12be e02b 6ebc
000002b0: 6646 39bc 8e2c a339 daa7 3ebd bbf4 1abc
000002c0: 7424 e5bd 3ed9 073d 502c f23d 4ec2 8ebd
000002d0: c8da dd3d 0ff7 b2bc 0020 0ab7 307e 7bbc
000002e0: efe6 433d 3eb3 983d c074 0ebb 0aab 44bd
000002f0: e0ee 183d 62d6 983d 5a18 33bc cf76 cb3c
00000300: c29c 6bbd 8dcd c6bc 28e6 703d 346b 8dbd
00000310: dda5 d8bd a55d 55be 06b9 d2bd c54b a0bd
00000320: be99 cd3d 4cd1 123e 708c d1bd 6e87 913d
00000330: d712 0e3d 9422 38bd a947 d43c 7d16 b4bc
00000340: f5b5 573d 5bb5 233d 4dbd b43d f44e 793d
00000350: f853 10be d2ea 91bd b74e 7d3d a159 92bd
00000360: 8094 6ebc fa0b f13c 0a1c 4ebd a2f5 7b3d
00000370: 00b9 083c 579b d3bd 5cab d73d 9ed5 44bc
00000380: 6a67 9e3d f24f 9bbd a6ed d53d 56ac 07bd
00000390: ff4c a43d e68d 10bd 0c00 c83d 90fb 45bd
000003a0: 461f 4cbc af50 d63d 5bed 133e 8845 7c3d
000003b0: c83d f83d ca42 0dbd ad4e 683c cf70 06be
000003c0: d328 a4bd dc38 bf3d f96f 97bd 7188 173e
000003d0: 6839 21bc 9386 5b3d e47c 923d a24a 363d
000003e0: a0cd 22bd d9a6 8abc a68d 093d 67e8 f53d
000003f0: a39e 81bc 8b78 a83d 7769 d6bc 8521 cfbd

fc3.bias f4 [256]
-0.05919704 -0.052272417 -0.011482186 0.195627 -0.05173372 0.096513115 -0.025602339 -0.06516787
-0.0075822244 -0.06322223 -0.00903999 -0.09427413 -0.1180624 -0.011160322 0.11581881 -0.038862854
0.021612737 -0.057635628 -0.099626325 -0.04039341 -0.034614325 -0.062028293 0.064805955 -0.13137387
0.113159634 -0.10919127 -0.040344004 0.1567622 0.20409241 -0.013384953 0.002477757 -0.09521083
0.15242471 -0.08311118 0.1808123 -0.17656483 -0.10299548 -0.053850986 0.040354263 -0.085387304
-0.13194937 0.060018774 0.08835299 -0.05788923 -0.021947298 0.03659373 0.020499043 -0.13049327
0.16104192 -0.01286083 -0.12441873 -0.016857479 0.02146239 0.13163167 0.12314333 -0.124593355
-0.006585321 0.32246137 0.2088495 0.16089182 -0.12630215 -0.10740444 -0.09211025 -0.10371974
-0.115342796 -0.16228183 -0.065997764 -0.05403194 0.21845719 0.29965505 0.028543998 0.029341273
-0.007636775 -0.042925674 0.16302334 -0.08444738 -0.12672615 0.08657674 -0.0842997 0.051957283
-0.03168807 -0.11987771 -0.002686569 -0.13880114 -0.050833173 -0.0587707 -0.09046697 -0.024798067
-0.018931005 0.21726489 0.13827877 -0.027494036 -0.07608463 -0.0039761625 0.00086002145 0.027256003
-0.05317119 -0.15239465 -0.09409145 -0.08603879 -0.02183008 -0.0136092985 0.048593625 -0.030683229
0.03906626 -0.032620344 -0.03186645 -0.099205114 -0.011186001 0.113810554 -0.049634963 0.07547318
-0.003326302 -0.09219898 -0.060774434 -0.085041404 -0.06145412 -0.03816451 0.02192583 0.016712883
0.07082684 -0.08902799 -0.18381435 -0.09259915 -0.03832226 -0.09009582 -0.06356186 -0.010553483
0.0060760593 -0.090971135 0.0021353965 -0.046495732 -0.11754726 -0.07136326 0.058131807 -0.067147166
-0.039512217 0.13168046 0.11094301 -0.0994913 -0.09262531 -0.037142467 -0.053177916 -0.021376735
-0.024652189 0.0024403697 0.055737868 -0.0022554463 0.007710546 -0.11438186 -0.13976447 -0.03786449
-0.0736385 -0.066261515 -0.111513734 -0.09705364 -0.08203459 -0.04796254 -0.061492585 -0.016850535
0.269042 0.13046826 -0.052158065 -0.15076597 -0.08102864 -0.035799928 0.16462544 -0.06807958
-0.08420163 0.15613717 -0.08395803 -0.046442367 -0.19207674 -0.045763083 -0.063641824 0.009853392
-0.070780195 -0.09152181 -0.03482482 0.1484286 -0.0020493993 -0.02992311 0.36870176 -0.067784004
-0.085932985 -0.07170664 0.25852028 0.092883684 -0.018704249 -0.07485629 -0.083556935 -0.03354222
0.12951396 0.059428655 -0.020404141 -0.07432081 -0.107700765 0.105764754 -0.08524404 -0.090054326
0.0023992572 -0.05535139 -0.037239935 -0.06663763 0.002469265 0.032881066 -0.08950013 0.113066636
0.019766157 -0.010434113 -0.041134812 0.01505017 -0.10892264 -0.08469598 0.010403812 -0.00047875012
0.2676178 -0.010785319 -0.12468072 0.11875891 0.06032563 0.107406326 0.0925149 -0.019123247
-0.12635946 -0.049837325 -0.075782485 -0.028534759 -0.09818503 -0.13273197 -0.032136835 -0.10165152
-0.09534358 -0.082502864 -0.089114085 0.0649636 -0.16051626 0.00476477 -0.022324163 0.0057852017
-0.04469118 -0.0019674716 -0.06069835 -0.05315023 0.32916352 -0.007880378 -0.037240487 -0.009727784
-0.13924272 -0.12809102 -0.017629089 0.28363895 0.01800474 -0.056731295 -0.08352965 -0.010845634
00000000: 9878 72bd 9a1b 56bd c71f 3cbc 7252 483e
00000010: bde6 53bd aba8 c53d ffbb d1bc bb76 85bd
00000020: 4f74 f8bb a87a 81bd 771c 14bc cc12 c1bd
00000030: b3ca f1bd c9d9 36bc 6a32 ed3d a82e 1fbd
00000040: 320d b13c 5613 6cbd e308 ccbd 8f73 25bd
00000050: c0c7 0dbd 6111 7ebd fcb8 843d df86 06be
00000060: 3dc0 e73d ac9f dfbd c13f 25bd 4586 203e
00000070: 9afd 503e 904c 5bbc dd61 223b e5fd c2bd
00000080: 3915 1c3e 3236 aabd dc26 393e 69cd 34be
00000090: 4bef d2bd da92 5cbd 834a 253d 8adf aebd
000000a0: bc1d 07be 3fd6 753d 6af2 b43d 421d 6dbd
000000b0: d2ca b3bc 4fe3 153d 9ced a73c 07a0 05be
000000c0: 2ce8 243e 3bb6 52bc 3fcf febd b218 8abc
000000d0: e5d1 af3c 74ca 063e 9232 fc3d cd2a ffbd
000000e0: adc9 d7bb a819 a53e a5dc 553e d3c0 243e
000000f0: 5a55 01be dcf6 dbbd 4ca4 bcbd 046b d4bd
00000100: d838 ecbd 352d 26be d629 87bd 9850 5dbd
00000110: 3eb3 5f3e 636c 993e 1ad5 e93c 1c5d f03c
00000120: e93d fabb d5d2 2fbd 97ef 263e bff2 acbd
00000130: 80c4 01be 254f b13d 52a5 acbd 29d1 543d
00000140: 5acb 01bd 7282 f5bd 2611 30bb e321 0ebe
00000150: 7236 50bd 8cb9 70bd bf46 b9bd 5125 cbbc
00000160: 3215 9bbc b07a 5e3e f398 0d3e 2c3b e1bc
00000170: 42d2 9bbd 784a 82bb 1073 613a fb47 df3c
00000180: 09ca 59bd 580d 1cbe 05b3 c0bd 1b35 b0bd
00000190: ffd4 b2bc 89f9 5ebc 1c0a 473d 655b fbbc
000001a0: f103 203d e99c 05bd 6586 02bd 0d2c cbbd
000001b0: 7d45 37bc 8215 e93d 084e 4bbd af91 9a3d
000001c0: 16fe 59bb d2d2 bcbd 9dee 78bd 302a aebd
000001d0: 51b7 7bbd 6452 1cbd cc9d b33c 75e9 883c
000001e0: aa0d 913d 4f54 b6bd d439 3cbe a0a4 bdbd
000001f0: cdf7 1cbd 2884 b8bd b82c 82bd 84e8 2cbc
00000200: ae19 c73b 134f babd 02f2 0b3b 4f72 3ebd
00000210: 9ebc f0bd e726 92bd 9e1b 6e3d 7484 89bd
00000220: 90d7 21bd 3ed7 063e 1736 e33d 18c2 cbbd
00000230: 57b2 bdbd b322 18bd 16d1 59bd 431e afbc
00000240: 63f3 c9bc 9cee 1f3b 644d 643d 1cd0 13bb
00000250: bfa8 fc3b 0941 eabd 6b1e 0fbe cc17 1bbd
00000260: c8cf 96bd 1eb4 87bd 5061 e4bd 0fc4 c6bd
00000270: c001 a8bd 5e74 44bd a6df 7bbd 220a 8abc
00000280: dfbf 893e 7999 053e b2a3 55bd 6562 1abe
00000290: 58f2 a5bd f2a2 12bd 9293 283e 4f6d 8bbd
000002a0: e771 acbd 6ce2 1f3e 30f2 abbd 5a3a 3ebd
000002b0: c4af 44be 1272 3bbd a556 82bd 1f70 213c
000002c0: 35f5 90bd c96f bbbd 78a4 0ebd abfd 173e
000002d0: 374f 06bb 4f21 f5bc 7ac6 bc3e 57d2 8abd
000002e0: a2fd afbd eeda 92bd c55c 843e cd39 be3d
000002f0: a739 99bc 414e 99bd e61f abbd 9163 09bd
00000300: 4f9f 043e 766b 733d 9626 a7bc 8235 98bd
00000310: 3892 dcbd 319b d83d 6d94 aebd 676e b8bd
00000320: db3c 1d3b 24b8 62bd e788 18bd 4f79 88bd
00000330: 64d3 213b 4cae 063d d84b b7bd 7b8f e73d
00000340: a3ec a13c d8f3 2abc fa7c 28bd fd94 763c
00000350: d512 dfbd 1675 adbd c074 2a3c c100 fbb9
00000360: 3305 893e e8b4 30bc 9b58 ffbd df37 f33d
00000370: 0218 773d d9f7 db3d 7478 bd3d 5ba8 9cbc
00000380: 6064 01be 3922 4cbd d933 9bbd bac1 e9bc
00000390: 3c15 c9bd e4ea 07be eaa1 03bd ac2e d0bd
000003a0: 7f43 c3bd 43f7 a8bd 7281 b6bd a30b 853d
000003b0: 605e 24be ca21 9c3b 2ae1 b6bc ca91 bd3b
000003c0: 190e 37bd b2f0 00bb d59e 78bd 0eb4 59bd
000003d0: 1f88 a83e b31c 01bc 7b89 18bd 4961 1fbc
000003e0: a595 0ebe 4b2a 03be e16a 90bc 2039 913e
000003f0: ad7e 933c 135f 68bd 9811 abbd e3b1 31bc

classifier.weight f4 [16, 256]
0.11037016 0.007167432 -0.042882107 -0.08522614 -0.06656008 0.025312316 0.08163354 -0.09184955
-0.023509534 0.0071594478 0.041469395 0.13597462 0.20247552 0.096019514 -0.03314182 -0.0676699
-0.16604938 0.111860156 -0.14148337 -0.064965636 -0.056779157 0.01936081 -0.3354177 0.037522424
-0.12384502 -0.008709593 0.0750067 -0.415932 -0.30077705 0.11426447 0.03709239 -0.046199672
-0.19748509 0.17068525 -0.11008694 0.16233654 0.006534607 0.027781129 -0.37253392 -0.094993465
-0.111173145 -0.048061 0.056962326 -0.051867843 0.050857797 0.018977568 -0.19274907 0.11212973
-0.35180986 -0.15607409 0.16447914 -0.108801484 0.043001033 -0.27212626 -0.3959978 0.058964044
-0.058419514 -0.2515187 -0.008873274 -0.18908422 0.03601498 0.11493448 -0.04684169 -0.027026825
-0.064058684 0.12903257 -0.0003356626 0.14947672 -0.06327083 -0.47124732 -0.20584586 0.04730087
-0.04209295 -0.069919616 -0.37408096 -0.03731213 0.07522104 -0.21547806 0.11292523 -0.0888925
0.04891462 -0.09681579 -0.24387392 0.033914123 -0.04976812 -0.1661639 -0.08862506 -0.12746464
0.031089751 0.027526617 -0.5696364 0.016315196 -0.008123771 -0.27663794 -0.15825889 0.017933518
-0.14949226 0.15862067 -0.0004359574 -0.030731108 0.048604153 -0.105924495 0.08171011 0.061832704
-0.17462626 0.0028082114 -0.028157944 0.014145301 0.04469282 -0.2386672 0.07541446 0.032978907
-0.0044581536 -0.10132724 -0.077498086 0.0002764614 -0.10822542 0.012768856 -0.24407984 -0.036435477
-0.12794808 0.04987767 0.18047994 0.0017217208 0.023378203 0.011805039 -0.018966371 -0.097399734
0.0211609 0.11742946 0.023446297 -0.12865351 0.057756856 -0.053411577 0.04501363 0.0050248355
-0.038490456 -0.26795384 0.08411951 0.088165164 -0.02073462 0.029614402 -0.042425882 -0.024328355
-0.07301539 -0.040254697 0.030099139 -0.10138722 -0.094107464 0.015318633 0.11001532 -0.010510964
-0.0044293907 -0.094698355 0.10603421 0.11364168 0.15889868 -0.113972954 -0.03859765 -0.15217711
-0.49928555 -0.32282752 -0.076526925 0.024309972 -0.012439441 0.026475135 -0.08757853 -0.091317
-0.06765662 0.0068515674 -0.04581107 -0.023716763 0.1419647 0.038808446 -0.07446785 -0.025424385
-0.018662836 -0.07744081 0.0682232 -0.036591977 -0.11841455 0.035698194 -0.48568237 -0.12480226
0.022273606 -0.014571025 -0.17116433 -0.049168065 -2.1905907e-05 0.0872663 -0.10743222 -0.04204005
-0.31818515 -0.17082666 0.00014858326 -0.07385792 0.0017035253 -0.17225043 -0.004477041 -0.021200119
0.0063303914 0.04506955 0.05912395 -0.017147673 0.0644988 0.04025539 0.00051777414 0.030717196
-0.189111 -0.08968336 -0.062364876 0.11830399 0.090435 -0.03551748 -0.120117106 0.08787789
-0.41295946 -0.11684608 0.020077826 0.08554192 -0.116648875 -0.34770083 -0.22590548 0.009376404
0.014743961 0.069806024 -0.057728875 -0.17595248 -0.06422827 0.11237558 0.16576003 -0.085896716
0.020811094 -0.0013103207 -0.11093617 -0.21332873 -0.06304227 -0.19969068 -0.013666613 0.067423575
-0.10595041 -0.055120718 0.00059259805 0.033960123 -0.046298563 -0.16537555 0.097499 -0.24873318
0.19917077 -0.04225613 0.017815068 -0.431068 -0.20861009 0.058280155 -0.04065286 -0.094836764
00000000: c009 e23d c7dc ea3b 26a5 2fbd 0b8b aebd
00000010: a750 88bd c65b cf3c 7c2f a73d 9e1b bcbd
00000020: 1197 c0bc cd99 ea3b d0db 293d ee3c 0b3e
00000030: be55 4f3e e1a5 c43d b8bf 07bd 8496 8abd
00000040: d908 2abe f016 e53d 04e1 10be b40c 85bd
00000050: 4391 68bd 909a 9e3c debb abbe 1db1 193d
00000060: 75a2 fdbd aeb2 0ebc 1d9d 993d 0af5 d4be
00000070: 73ff 99be 7e03 ea3d 31ee 173d de3b 3dbd
00000080: 8839 4abe 1dc8 2e3e 4375 e1bd 8d3b 263e
00000090: 4220 d63b 4095 e33c c4bc bebe ef8b c2bd
000000a0: bfae e3bd 9cdb 44bd 5451 693d 6073 54bd
000000b0: 4450 503d d876 9b3c 0360 45be 46a4 e53d
000000c0: 6c20 b4be e3d1 1fbe 386d 283e 50d3 debd
000000d0: da21 303d 2254 8bbe 39c0 cabe 4884 713d
000000e0: 4d49 6fbd 0fc7 80be 3561 11bc 4b9f 41be
000000f0: 7284 133d c562 eb3d 12dd 3fbd 5c67 ddbc
00000100: 3331 83bd 1d21 043e dffb afb9 6d10 193e
00000110: 2394 81bd 5447 f1be 42c9 52be 8fbe 413d
00000120: a869 2cbd 0432 8fbd 8a87 bfbe 9bd4 18bd
00000130: 7d0d 9a3d 48a6 5cbe 5845 e73d 450d b6bd
00000140: b25a 483d 5b47 c6bd 16ba 79be 89e9 0a3d
00000150: a8d9 4bbd df26 2abe 0e81 b5bd 1786 02be
00000160: efaf fe3c 807f e13c b1d3 11bf 72a7 853c
00000170: 9119 05bc 7da3 8dbe 9e0e 22be 50e9 923c
00000180: 8014 19be 756d 223e 3691 e4b9 cebf fbbc
00000190: 2615 473d f1ee d8bd a157 a73d 4a44 7d3d
000001a0: 3ad1 32be f809 383b 7dab e6bc b1c1 673c
000001b0: d20f 373d 2d65 74be e572 9a3d e414 073d
000001c0: b415 92bb a884 cfbd 51b7 9ebd 05f2 9039
000001d0: 4aa5 ddbd 7734 513c 11f0 79be 5e3d 15bd
000001e0: d204 03be 874c 4c3d bccf 383e 5dab e13a
000001f0: a583 bf3c ec69 413c 5d5f 9bbc 8379 c7bd
00000200: a059 ad3c db7e f03d 7312 c03c bfbd 03be
00000210: 7492 6c3d 19c6 5abd 3660 383d 60a7 a43b
00000220: 2ba8 1dbd 3f31 89be da46 ac3d f08f b43d
00000230: a6db a9bc e799 f23c c3c6 2dbd 424c c7bc
00000240: 1889 95bd 1ce2 24bd 7892 f63c 1aa4 cfbd
00000250: 6abb c0bd 01fb 7a3c b64f e13d 2e36 2cbc
00000260: 6c24 91bb 36f1 c1bd 7728 d93d f8bc e83d
00000270: 56b6 223e a76a e9bd 9218 1ebd 51d4 1bbe
00000280: 5ba2 ffbe a649 a5be 26ba 9cbd b525 c73c
00000290: ccce 4bbc 62e2 d83c 5f5c b3bd 6804 bbbd
000002a0: 8e8f 8abd 1d83 e03b 63a4 3bbd a849 c2bc
000002b0: 325f 113e 9bf5 1e3d 9a82 98bd cd46 d0bc
000002c0: cee2 98bc 4a99 9ebd 9bb8 8b3d 78e1 15bd
000002d0: 5483 f2bd 4538 123d 5cab f8be 5498 ffbd
000002e0: 2377 b63c 4fbb 6ebc b445 2fbe 7464 49bd
000002f0: 94c2 b7b7 adb8 b23d 6c05 dcbd 3032 2cbd
00000300: 2ae9 a2be 2fed 2ebe 04cd 1b39 d242 97bd
00000310: d348 df3a 6b62 30be 24b4 92bb dfab adbc
00000320: 2c6f cf3b d99a 383d f42b 723d 4779 8cbc
00000330: f217 843d d6e2 243d 3cbb 073a a1a2 fb3c
00000340: 50a6 41be e9ab b7bd 5072 7fbd 5d49 f23d
00000350: fc35 b93d c77a 11bd f5ff f5bd 53f9 b33d
00000360: 6c6f d3be ff4c efbd 417a a43c 9a30 af3d
00000370: 9be5 eebd d805 b2be c453 67be 7d9f 193c
00000380: a890 713c 76f6 8e3d 1d75 6cbd e32c 34be
00000390: 1c8a 83bd 2b25 e63d ffbc 293e 9eea afbd
000003a0: 077c aa3c 11bf abba 8132 e3bd d972 5abe
000003b0: 4e1c 81bd b77b 4cbe eee9 5fbc 5f15 8a3d
000003c0: 87fc d8bd 43c6 61bd 9558 1b3a c519 0b3d
000003d0: 90a3 3dbd 3558 29be 8ead c73d e9b3 7ebe
000003e0: 6cf3 4b3e c414 2dbd e8f0 913c f2b4 dcbe
000003f0: e29d 55be 2cb7 6e3d 9d83 26bd c739 c2bd

classifier.bias f4 [16]
-0.181825 -0.013579138 0.049341056 0.095052905 0.05776208 -0.0010761777 0.07089727 0.09553128
0.030721597 0.09749184 -0.062424876 -0.024190705 -0.06446525 -0.1023979 -0.009931091 -0.035875008
00000000: 5530 3abe 087b 5ebc d919 4a3d 19ab c23d
00000010: ee97 6c3d 880e 8dba 9732 913d e7a5 c33d
00000020: dcab fb3c cda9 c73d 3ab1 7fbd 962b c6bc
00000030: 5b06 84bd fdb5 d1bd 04b6 22bc acf1 12bd
