transfer17_39_35_22_10_12_FullyConnected.pth (torch, 550959 bytes, 8 tensors)

fc1.weight f4 [256, 4]
00000000: 7f82 203e 7671 19be 2d50 3cbe cc9f b23e
00000010: c164 23be e8a9 043f 135d 023e 09f3 9cbe
00000020: 0cb4 05be 3a85 b33e 5c21 733e 6e75 c8be
00000030: ae0e 3abe 1222 b9be 0b82 30be 9393 073d
00000040: 1503 06bf 837a 733e 48d1 013f 2fee 8dbd
00000050: 579b f23e 19bb 93be 9ea0 80be e48d 8ebe
00000060: ecde 913e 9229 d33e 5382 9ebe 0bb7 98be
00000070: ca0f c83e 201f 0ebe e03a a03d 42bd a1be
00000080: 3d48 afbe 6d3c 0abf f184 b0be b4f0 39bd
00000090: 40f5 83bc 088b 74be 6897 813e 6480 6dbe
000000a0: 101d 5b3e d69a 88be f059 dc3d 70b3 9ebd
000000b0: 6e2c c7be 50ab 5e3e 5480 f8be fa28 c13e
000000c0: b1e3 c53d 74d3 2f3e e451 5a3e 4770 303e
000000d0: 302e 483e ad01 60bd 1922 383e 5a11 d8be
000000e0: e4c1 3bbe 4ef6 9b3e 0025 923e 0091 ccbe
000000f0: c196 eb3e c5c7 89be 7e51 b9be ff9d 0cbf
00000100: e0d4 c6be 8089 15bf af16 97be 9790 42be
00000110: d91f 0fbf b378 863e 0644 cbbe ce5e 833e
00000120: b111 a43e da8e 023e 21bc 81be e74e 6f3e
00000130: e2d8 aabe 14c7 51be 8aca b6be e639 9c3e
00000140: 05bc c13e 4bb5 edbe 559f f0be 978f c83e
00000150: 432b 0bbe b5fc 213f cabe 59be 8bb7 82be
00000160: 37ca 9abd 59ea f73d 7a70 2d3f c780 aebd
00000170: a7c0 b03e 98a0 e3bd fecb 083e 41e2 8e3d
00000180: c05a 003f bc81 023f 4553 2e3f b514 babe
00000190: dc7c e33e 3176 09bf c1b7 6dbd 59cd d53e
000001a0: 485b c7be 568c 993d 4be5 683e cd7b 49bc
000001b0: 8280 d13d 40ca 32bf 4572 f3be 5ddc 603e
000001c0: fec2 0e3e 025e 7b3e a15d f63e 3069 6a3e
000001d0: c44a 63be dc80 3fbe 3a83 e0be 7afa f3be
000001e0: edea 723e 9292 a93e a1ca b3be 6b6d 753e
000001f0: a281 3d3d 08d9 823e 6d14 c93d b686 dabd
00000200: f172 56be b804 87be 4297 b3be 7fc3 b6bd
00000210: b207 3b3e 3c75 063f 2494 81be e69b d93e
00000220: c2e8 e1be a58a 073f d222 d63e 4f83 c93e
00000230: 3401 893e 4376 e03e 5e7e b53e cc7a 05be
00000240: fe7f 89be 019f 32be cbac aabd 30b5 413e
00000250: 78cb bdbe 1a3f 903d 861f 293d 43c3 05bf
00000260: 4f7a d83e aabd 02bf be4e dfbe 1c3e 183e
00000270: f950 853e aa8b d33e 4600 e2bd e3a9 a9be
00000280: 8afd e3be 4a35 bebe 18d8 543e 28eb d63e
00000290: ecab d73e 9735 b13e 4e71 c8bd 457d 95be
000002a0: 0c2b 0f3e ee47 89be 0049 0fbd 849d 54be
000002b0: 0c1a 85be 0032 35be a29d c03e 780f cabd
000002c0: c488 4b3e 7698 8d3e 0f8c cb3e bb36 063e
000002d0: 236c 66be 6eff 94be 2909 de3e e343 6b3e
000002e0: 7d1e a43e aab1 bf3e 19e7 ab3d ee45 b7bd
000002f0: 3117 e23e 1fa7 b03e ac6b 003f 178d fa3d
00000300: 8c98 ab3e 6ea9 99be d3a7 31be ba70 943b
00000310: 4147 3e3d 1fb9 d5be 9c1a a8be ed90 b33e
00000320: 8abd ba3d b39e bf3e 41a5 d23e efa1 e53d
00000330: 0c0e 5b3e 043f 9ebe 7803 6fbe 2210 f6be
00000340: 02ba 983e 2680 133e fb49 bf3d 5323 e7be
00000350: 1d3f 0cbe 70a7 c53e ca90 e83c 3a0b 223e
00000360: 6e70 cebe b384 ce3e 42ea 7bbe 9f0f 8d3c
00000370: 8e65 173e 012a 063f 12cc c03e de34 9b3d
00000380: 4aa1 a6be 18f1 8e3e ce17 e7be 689a c13d
00000390: 3e58 083f 735f de3e d58f 4ebe bfef 8d3e
000003a0: 1591 cbbc 9012 01bf d75a d5be 6f2c 9c3e
000003b0: f2bd d0be 6844 0ebe 7068 4d3e 6e59 a93e
000003c0: d31e 943e cfa7 5d3e 821c a63d 6291 2fbd
000003d0: 7521 ec3e 34d4 4f3d 00d1 73be e45f 1ebb
000003e0: a07e 3a3d 18bc 3bbe a0af c23c 005d 6dbb
000003f0: 338d d3be 1edc c93e 3aed 513e 6ad9 f83e
0.1567478 -0.14984688 -0.1838996 0.3488754 -0.15956403 0.51821756 0.12730817 -0.3065417
-0.13056964 0.3506258 0.23743194 -0.39152092 -0.18169662 -0.36158806 -0.17237107 0.033099722
-0.5234845 0.23777203 0.5070996 -0.069301955 0.4738414 -0.28853682 -0.2512254 -0.2784263
0.28490388 0.41242653 -0.30958804 -0.2982715 0.39074546 -0.13879061 0.078237295 -0.31589705
-0.342348 -0.5399845 -0.34476426 -0.045395568 -0.016108155 -0.23881161 0.25310826 -0.23193508
0.21397805 -0.2668063 0.10759342 -0.07749069 -0.38901085 0.21745038 -0.48535407 0.37726575
0.09662569 0.17170507 0.21320301 0.1723033 0.19548869 -0.0546891 0.17981757 -0.42200738
-0.18335682 0.30461353 0.28543854 -0.39954376 0.46013454 -0.26910225 -0.36194986 -0.5492858
-0.38834286 -0.58412933 -0.29509494 -0.19000469 -0.5590797 0.2626396 -0.39700335 0.25658268
0.32044747 0.12749806 -0.25338843 0.23369943 -0.33368593 -0.20486099 -0.357014 0.30512923
0.3783876 -0.46427378 -0.4699656 0.3917205 -0.13590722 0.63276225 -0.21264187 -0.25530657
-0.07558101 0.12105245 0.6774975 -0.08520656 0.34521982 -0.11114615 0.13359067 0.06976748
0.50138474 0.5097921 0.6809581 -0.36343923 0.44431198 -0.5369597 -0.05803657 0.4175823
-0.3893683 0.0749747 0.22743718 -0.012297583 0.10229589 -0.6983986 -0.47548118 0.21959062
0.13941571 0.2454758 0.48118308 0.22891688 -0.2219649 -0.187015 -0.43850118 -0.47652036
0.2372243 0.33119637 -0.3511553 0.23967521 0.046266206 0.25556207 0.09818349 -0.10670225
-0.20942284 -0.26370788 -0.35076338 -0.08924007 0.18264654 0.52522635 -0.25308335 0.42501754
-0.44122893 0.5294593 0.4182344 0.39357993 0.2675873 0.43840227 0.35447973 -0.13035125
-0.26855463 -0.17443468 -0.08333739 0.18916774 -0.37069297 0.07043286 0.04128983 -0.5225107
0.42280814 -0.51070654 -0.43614763 0.14867443 0.2603834 0.41317493 -0.110352084 -0.33137426
-0.44529372 -0.3715003 0.20785558 0.41976285 0.42123353 0.34611198 -0.09787236 -0.29197136
0.13981265 -0.2681269 -0.034981728 -0.20763212 -0.25996435 -0.17694855 0.37620264 -0.09866232
0.1987639 0.2765538 0.39755294 0.13106816 -0.22502188 -0.29101127 0.43366364 0.22975115
0.3205451 0.37440234 0.08393688 -0.08948885 0.4415832 0.34502503 0.50164294 0.12233942
0.33514822 -0.30012077 -0.17349176 0.0045300396 0.04645467 -0.417428 -0.328328 0.35071507
0.09118183 0.37425765 0.41141704 0.11212527 0.21392077 -0.30907452 -0.23341167 -0.48059183
0.29829413 0.14404353 0.093402825 -0.45144138 -0.13695951 0.38604307 0.028389353 0.15824595
-0.40320152 0.40335616 -0.24601081 0.017219363 0.14784834 0.5240784 0.37655693 0.07578443
-0.3254493 0.27918315 -0.4513535 0.09453279 0.53259647 0.43432197 -0.20172055 0.27721974
-0.024849454 -0.5041895 -0.41670868 0.3050265 -0.40769917 -0.13893282 0.20059371 0.33076042
0.28929767 0.21646045 0.08110906 -0.042863257 0.46119276 0.050739482 -0.23810196 -0.0024166042
0.045530915 -0.18333471 0.023765385 -0.0036218762 -0.41318664 0.3942575 0.20500651 0.48603374

fc1.bias f4 [256]
00000000: 5ece 573e 526e 543e a8f3 9bbe ee5f 953e
00000010: c318 c3bd 31c9 343e bef5 3a3e e6a1 9ebe
00000020: d144 923e 0068 0a3b 8eac 8fbe 64d3 83be
00000030: b182 16bd cb33 59bd 9018 33bd 42bf d93e
00000040: 7850 ce3e 65b3 3d3e daa5 e8bd e758 623d
00000050: 2d1e 5f3e 1506 5c3e a09d 903e 6950 2bbe
00000060: c6d8 913e d9d8 43bd 0bae 453e 0115 82be
00000070: 4eec 9fbe e00e f33d 9c9f 043e 9863 4e3e
00000080: 998b b53e f818 30be 007a 373e aea0 7abe
00000090: 1433 eabd 9aa4 7d3e 7cc9 823d cc65 893e
000000a0: 5c42 70be aa6c fdbe 902a 1dbe e080 a63d
000000b0: 8563 2fbe ae10 5cbd 47bf 0e3d 0c89 9cbd
000000c0: 8e94 033d 3602 4bbe 3e9b 803e 0a8a cebe
000000d0: b3f0 6e3e 13c7 413e cb8f 383e 2f2c 243e
000000e0: 7813 0abe 0579 91be cfcc 433e 5686 e8be
000000f0: 8e27 1abd 9037 1ebe 582e 78be 6e56 c7ba
00000100: 8681 d73e 100b 7ebd 10a6 6abd 8aaa d4be
00000110: d553 be3e c4c2 fabe cbf2 de3e 3ac8 f43b
00000120: 9c94 bd3e b7b0 af3e cf63 90bd b86e 32be
00000130: 3ac9 6a3d b35e c53e f46e c73e 16e3 b8bd
00000140: 0c18 a5be f8fb 44be 18bc 99bc 98d0 cabb
00000150: ef26 c4be e2d0 b33e f484 63bd 51da 8cbd
00000160: 0c18 1fbe c4fe 643e 74fb bd3e 7c5b 093e
00000170: 706d ca3e 1bd5 9b3e fe1b 853e cd55 013e
00000180: e4c0 c5be ea10 663e 4a9c 60bd 1026 a13e
00000190: 601f 0fbe ecbf ad3b 6b81 f03e ab63 793b
000001a0: e0f6 ecbc f1c0 613d 54f8 913e fa33 acbe
000001b0: 2dbd a83e ca73 5c3e 9cce b1bd 9719 103e
000001c0: f36b d43e 88be 6fbe 7ba9 de3e 9df0 b03e
000001d0: 50c9 273e 609a 9a3e ceed 163e a16b cf3e
000001e0: 9088 d43e cee8 b73d b4ac 783e 92cf e639
000001f0: 6637 953e 3778 963e 035a 9cbc 3cf7 f2be
00000200: 2cd8 d6bc 2716 9d3e 186a ad3d 5e08 6d3e
00000210: 00bb 353c 98e3 f1bc 3c85 253e d5d8 943e
00000220: e577 4f3e 3001 473e 5001 0fbd 3e9b b03e
00000230: 4075 68be 0a86 a03e 5bcc 9abd 985d 193e
00000240: c675 ffbe 2ea3 8f3e 1ca2 ca3e 6d22 393e
00000250: 136a 053d 306f 733e 39b8 e53d 8a86 6ebc
00000260: f0d1 ef3d 1a34 c23e ea6d 8e3e eb59 0dbe
00000270: 2e90 c6bd df0a a0bc 9906 b23e 7adb fb3c
00000280: f435 edbe 80bd 63bc 3a6a 8c3e 7aaa e2bd
00000290: 79f4 023e bc57 d53e 807c 7d3e 623a e7be
000002a0: 9ae2 31be abe3 1f3e 183a bdbe 3333 963e
000002b0: 1867 f9be 4871 85be acd0 ccbc 1c94 c3be
000002c0: 2a44 37be 21ed 413e b490 f13e fbed 9fbe
000002d0: 8e8f dcbe c088 fd3c f2ec b23d 0626 dfbe
000002e0: 81d6 ed3d 4a82 c5be b822 dcbe 9f58 aa3d
000002f0: 2330 1f3e 3503 c0be d4ad eabe 768e a4bd
00000300: 7461 113e 7f09 e63d 01da a83d f146 573e
00000310: 1513 6bbe 3a9b 203e dc4b d3be 898e 813e
00000320: a7fe 5b3e 46c8 f8be 087c 39be c0f2 66be
00000330: 203d 51bd abc7 843e 5089 d43e 0b33 693e
00000340: f073 79be b4ac 993e 2a53 073e dbde bc3d
00000350: 2f05 3c3e ab91 df3c c5ed 333e 1b7f b33e
00000360: c2c1 2a3e a6d5 f6be ee12 283e 1a6f 98be
00000370: 0a6e 68be 4c1e e1be 9eb8 8fbe dd56 a03e
00000380: d9f6 7f3e a0d7 76be 44aa b1bc 2f79 5f3e
00000390: 1234 b8be 1072 67be 7560 b33e 1ccb 2b3e
000003a0: 1441 2f3e e074 923e 40a9 66bd 878f a1be
000003b0: 6cd4 563e 3b4f 853d e0a9 e4bc 2cfa 1f3a
000003c0: bbf0 5cbe aadd ea3d b2da 513e da43 cfbc
000003d0: 504d e03e 882a 93be a63a e1be d4e8 e7bc
000003e0: 1831 a73d 4041 c2bc dcf0 8ebe 28bd ea3e
000003f0: 594e 3e3e 841d 02be 3d8a 8d3e c476 77be
0.21074817 0.20745209 -0.30459332 0.2917475 -0.09526207 0.17654873 0.18257806 -0.30982894
0.28568128 0.0021119118 -0.28061336 -0.25747216 -0.03674573 -0.05302791 -0.043724597 0.4252873
0.40295768 0.18525465 -0.11359759 0.055260565 0.21788855 0.21486695 0.28245258 -0.16729893
0.28485698 -0.047814224 0.19304673 -0.2540665 -0.31234974 0.118680716 0.12951511 0.2015518
0.35458067 -0.17197025 0.17917633 -0.24475357 -0.11435524 0.24769822 0.06386086 0.26835477
-0.23462814 -0.49496967 -0.15348268 0.0813005 -0.17127807 -0.053726844 0.034850385 -0.07643327
0.032124095 -0.19825062 0.2511844 -0.4033969 0.23334007 0.18923597 0.18023603 0.1603248
-0.13483989 -0.28412643 0.19121097 -0.4541499 -0.03763538 -0.15450883 -0.24236429 -0.0015208253
0.42091006 -0.06202227 -0.057287276 -0.4153636 0.37173334 -0.4897672 0.4354461 0.007470158
0.37027442 0.3431451 -0.07050287 -0.17425048 0.05732081 0.38548812 0.38951838 -0.09027688
-0.3224491 -0.19236743 -0.018766448 -0.006189417 -0.38310954 0.35120302 -0.055546716 -0.06877578
-0.15536517 0.2236281 0.37105906 0.13413805 0.3953662 0.30436024 0.2599792 0.12630387
-0.38623726 0.2246739 -0.05483655 0.31474352 -0.13976812 0.00530242 0.46973738 0.0038053792
-0.028926313 0.055115644 0.28509772 -0.33633405 0.3295683 0.21528545 -0.08681986 0.14072262
0.4148861 -0.23412526 0.43488678 0.34558573 0.16385388 0.30195904 0.14739153 0.40511802
0.4151044 0.08979951 0.24284631 0.0004402367 0.29143828 0.29388592 -0.01908589 -0.4745425
-0.026226126 0.30680963 0.084675014 0.23147723 0.011091948 -0.02952747 0.16164106 0.2907168
0.2026058 0.19434047 -0.03491336 0.3449344 -0.22700977 0.31352264 -0.07558509 0.1497711
-0.49894542 0.28054184 0.39576805 0.18079539 0.032571863 0.23772883 0.11216778 -0.014558444
0.11709964 0.37930375 0.27818233 -0.13803832 -0.09695469 -0.019536434 0.3477066 0.030744303
-0.46330225 -0.013900161 0.27424794 -0.11067672 0.12788571 0.416685 0.24754524 -0.4516173
-0.17371598 0.15614192 -0.36958385 0.29335937 -0.48711467 -0.2606299 -0.025001846 -0.38198936
-0.17897096 0.18938114 0.47180712 -0.31236252 -0.43078274 0.030948997 0.087366 -0.43583697
0.11613179 -0.38575965 -0.42995238 0.083176844 0.15545706 -0.37502447 -0.45835745 -0.08034985
0.14197332 0.1123228 0.08244706 0.21023156 -0.22956498 0.15684214 -0.41268814 0.25304058
0.21483861 -0.48590297 -0.1811372 -0.2255354 -0.051083684 0.25933585 0.4151101 0.22773378
-0.24360633 0.30014575 0.13215318 0.09222194 0.18361352 0.02729114 0.1757117 0.3505791
0.16675475 -0.48209876 0.16413471 -0.29772264 -0.22698227 -0.43968427 -0.2807054 0.3131627
0.24996509 -0.24105692 -0.021687634 0.21823572 -0.35977226 -0.22602105 0.35034528 0.16776699
0.17114669 0.28604794 -0.056313753 -0.31554815 0.2097947 0.06509253 -0.027913034 0.0006102647
-0.21576206 0.1146806 0.20493582 -0.025300909 0.43808985 -0.28743386 -0.43990058 -0.028309263
0.08163661 -0.023712754 -0.27918136 0.4584744 0.18584575 -0.12706572 0.2764453 -0.24166399

fc2.weight f4 [256, 256]
00000000: 168f a93b 8e6e 7c3e b068 22bd 1b49 28be
00000010: 8533 2e3e 6439 52be 0e8f e23c a027 3cbd
00000020: c66e 84bd ac85 bb3c ac1d a9bc 30ee 293d
00000030: ed41 3bbd 74db 023d 20f1 fdbb 1f83 33be
00000040: e404 01be 463f 9d3c c24e bfbc 7530 403b
00000050: 4b5d 63bd 9da1 263e bff0 b53d 51ec 02be
00000060: b29f c73b 10ed 1fbe 72c5 d53d b75d a4bd
00000070: b6ce d23d 2061 9ebc 805f 1bbd 134c 7e3d
00000080: 00ee a6bd 774a 22bd 1751 513e eb8c 953d
00000090: 3e73 61bd 59d7 dc3d e73c 9cbe d0cb b1bc
000000a0: f27a 40bd f746 c93a ec7c 70bd d861 5dbd
000000b0: ef4f ae3d 1786 54bd 00f4 db3c 6c38 dc3b
000000c0: b310 1fbe 6b82 e8bd 9abf cf3c c04c 42bd
000000d0: b8a8 06bd 3bdb 3e3d a8c5 933e 8f03 7f3d
000000e0: 7eb9 46bd e81b 52bd 94c9 64be a8b2 aabc
000000f0: 9ec5 64bd 7138 fbbd 64bc ecbc 2a54 b03d
00000100: 2d9d 2b3e ff82 213e b85b 613d 487f 58bc
00000110: 3c80 51be 90ab e93c 5870 80be 7fc6 c9bd
00000120: fe42 b33d d7ba bb3c 6834 933d 144e edbc
00000130: fbf8 aebe 7904 883d 716e 8bbd 4a7b 303d
00000140: 8002 e93c b052 25bc 1635 4cbd 4b45 ac3d
00000150: 1376 893d 079b 553e 0b98 593d 7703 dc3d
00000160: 08a4 533c 4c1a e1bd d154 b73d aaf3 9fbe
00000170: e2a4 11be 4ed3 113e 247f 0a3e 390d 14bd
00000180: e01c 773d 6607 fa3d 1e63 bcbd fc8d acbd
00000190: 5085 85bc fdd4 3bbd 685e 72be 87e2 373d
000001a0: 703a 9ebb d8ad 24be 106d e3bb 0060 cf37
000001b0: 1949 0b3d 0433 82be 3e1d cdbd a0a6 ebbd
000001c0: 7abc b53e a4e2 093d ff80 20be 6db4 71be
000001d0: 347e 503e 1db4 523d 8084 7f3e 1362 eb3d
000001e0: 8c22 7d3e e2dd 903d ea9f 7f3d 0d7d 153c
000001f0: 1ab9 6dbd 7bb8 d23b 5424 58bd 6454 ecbc
00000200: 459d 03bd f74e fdbc 6f71 2cbd d9ce 1fbd
00000210: 8268 10bd 92f6 5dbd c2e0 e8bd c0e8 edbd
00000220: decc 0ebe 240a f93d b88a 0c3d 86ee 49be
00000230: ac81 d4ba f619 903b 98e4 643e 22cd ee3c
00000240: 0c9a 303d 2412 65be 3ee8 e0bd 490b 703e
00000250: baef 9e3d 89b6 adbe 4264 92be e2b9 46bc
00000260: e354 bd3d 75a6 91be 9c99 4b39 02ef b4bd
00000270: b4f7 313c 3290 ccbd 18b8 1ebe c5da 7ebe
00000280: 0484 79bd fece 7e3d d886 853e 8dc0 763c
00000290: 6955 9abd 5ee8 843e 0aa8 4fbd 44d6 12bd
000002a0: a5d2 38bd 2e48 07be 10ec ac3d c36e 5dbc
000002b0: 5a98 7d3d 30e7 acbb 3e01 473d 9421 e5bc
000002c0: 06c4 0fbd 3593 1dbe eff3 2fbc 4fee 5abd
000002d0: 4044 14bd 9e9d 433d 21b2 d9ba a0fa f73c
000002e0: e987 cc3d 6a60 0cbd 280f dfbc f93e a93e
000002f0: 4751 5abd 046c 833e 4ac1 873d 7d6d da3c
00000300: 32a9 3abd 967b b0bd 57ec 9c3d e58d 33bd
00000310: 8e13 1f3e 9189 aabc b2c1 20bd 3ccc a7be
00000320: e88c 323d 9826 6dbd bcef 6c3d 9c27 eebc
00000330: d020 f8bc 90a6 803d edbe c4bd 5cb1 47be
00000340: e8a4 08be a3a0 63bd 8e3b e0bd 4305 313d
00000350: d0ba 3f3d 5375 1bbd 49e4 8cbe 797f e2ba
00000360: 9f80 38be aefd 55bd 150d 12be f646 28bd
00000370: 4af0 8cbd 0698 b4bd 8e29 71bd 5b2d 613e
00000380: 87eb 73be 14ad fb3c 3dc8 40bd 4a8e 713c
00000390: d87f 593d e002 703c e7e0 35bd 5b84 14be
000003a0: f3f6 ad3d 61a0 75bd dc5c 17bd 4218 953d
000003b0: d855 00be 19ca 4abd f04a b03b dcdf 79bd
000003c0: 3bc0 0e3a 22c5 0cbe 8ff4 a3bd 26e6 c0be
000003d0: 0ba2 04be 1a24 6abd 08eb abbc d9b8 96be
000003e0: c48d c0bc aa3c 303d 98cb 3bbd 05fe 4cbe
000003f0: 4649 d23d ae95 3abd 33db 55bc 88f9 5dbd
0.005174528 0.24651548 -0.03965062 -0.16434138 0.1701184 -0.20529705 0.027656104 -0.045936227
-0.06466441 0.022890888 -0.020644031 0.04148692 -0.04571717 0.031947568 -0.0077496916 -0.17530487
-0.12599522 0.01919521 -0.023352984 0.0029325758 -0.055508893 0.16272588 0.08883809 -0.1278546
0.006092035 -0.15617776 0.1043805 -0.08025687 0.10293333 -0.019333422 -0.037932873 0.06208427
-0.08150864 -0.039621796 0.2044109 0.073022686 -0.055041544 0.10783262 -0.30515215 -0.02170363
-0.04699225 0.0015356232 -0.058712885 -0.05404839 0.0851134 -0.05188569 0.026849747 0.006720593
-0.15533714 -0.11353 0.025359917 -0.047436476 -0.032875746 0.046595793 0.28861737 0.062259253
-0.048516743 -0.051296145 -0.22342521 -0.020837143 -0.055852525 -0.12266625 -0.028898425 0.08609803
0.16759177 0.15772627 0.05501911 -0.01321394 -0.20459074 0.02852419 -0.2508571 -0.09852313
0.08753012 0.02291624 0.0718773 -0.028967895 -0.34174332 0.06641478 -0.068081744 0.043086328
0.028443575 -0.010090515 -0.049855314 0.08411654 0.06711974 0.2085992 0.053123515 0.10742848
0.012917526 -0.10991344 0.08951724 -0.31240588 -0.14223054 0.14240763 0.13525063 -0.036145423
0.06033027 0.122084424 -0.091985926 -0.08425519 -0.01629892 -0.04585742 -0.23668826 0.044893768
-0.0048287436 -0.16081941 -0.0069404915 2.4721026e-05 0.03400526 -0.25429547 -0.10015343 -0.115063906
0.3549536 0.033663407 -0.15674208 -0.23603983 0.20360643 0.0514413 0.24952888 0.114933155
0.2472021 0.07073571 0.062408365 0.009124053 -0.058037855 0.006430683 -0.05276902 -0.028848834
-0.032132406 -0.030921442 -0.042100366 -0.039015625 -0.035255916 -0.054190226 -0.11370994 -0.11616659
-0.13945338 0.12160137 0.03431198 -0.19719896 -0.0016212962 0.004397626 0.22352827 0.02915055
0.04311566 -0.22370201 -0.10981797 0.23441805 0.07760568 -0.33928326 -0.28592116 -0.012129279
0.092447065 -0.2844731 0.00019416813 -0.088346496 0.01086228 -0.099884406 -0.15499914 -0.24888141
-0.060916916 0.062209122 0.2607944 0.015060556 -0.07535822 0.25958532 -0.050697364 -0.03584887
-0.04512276 -0.13211128 0.08443463 -0.013515177 0.061912872 -0.005276583 0.04858517 -0.027970113
-0.035099052 -0.15388186 -0.010739311 -0.053449925 -0.0361979 0.047757737 -0.0016608873 0.030270875
0.0998686 -0.034271635 -0.027228907 0.33055857 -0.05330017 0.25668347 0.06628664 0.026663536
-0.045571513 -0.08617322 0.07662266 -0.043836493 0.15534803 -0.02081755 -0.039247222 -0.32773006
0.04359141 -0.057898134 0.057845816 -0.029071622 -0.030289084 0.06281769 -0.09606729 -0.19501251
-0.13344157 -0.055573117 -0.10948859 0.04321791 0.046809018 -0.037953686 -0.27517918 -0.0017280421
-0.18017815 -0.05224388 -0.14262803 -0.0410833 -0.06881769 -0.08818059 -0.05887752 0.21989958
-0.23820315 0.030722179 -0.047065962 0.014743397 0.053100437 0.014649123 -0.044403937 -0.14503615
0.084943675 -0.059967402 -0.036953792 0.072800174 -0.12532747 -0.04950914 0.005380027 -0.061004505
0.00054455147 -0.13747075 -0.0800563 -0.3767559 -0.1295244 -0.057163335 -0.020986095 -0.29437903
-0.0235051 0.043026604 -0.04584846 -0.20018776 0.10267882 -0.045552902 -0.013052749 -0.05419305

fc2.bias f4 [256]
00000000: 918b 053d 68c4 f1bd 0d6b 6ebd f39c d9bc
00000010: 9c61 a1bc 6ee8 1cbd dac3 d53d fbcc 0cbe
00000020: 80a5 6bbd 0e7e c0bd 4560 9cbd 123d ca3c
00000030: 52d2 533c 506a a2bb e7e2 8dbb c588 34bd
00000040: 16d7 a3bd 8ff0 82bd aa18 21bd 2908 b8bd
00000050: a757 f3bd 2832 19bd d896 a13c 2221 00bd
00000060: 1cfe 1cbd e038 433c 2c6e c63c 9b51 263e
00000070: b4e1 333d bb6b 87bd 93e3 6dbd 9ae0 35bd
00000080: 1dcb d7bd b61f e4ba c488 973c 21ec 86ba
00000090: 778f 78bb 3021 4e3c 1bd6 f7bd bf37 3abc
000000a0: 7af5 42bd 7d1e 63bd d716 79bd a2af 47bc
000000b0: fb3c 4bbd 643f 773d 5b89 7a3c 5119 1cbd
000000c0: 2668 983c 3904 3bbd 08ff b9bd 0059 32bc
000000d0: 1966 e8bd 3808 50bd eb81 a4bd 31c1 a7bc
000000e0: 00dc ac3a 78ef dfbc d75c 54bd 3918 7fbd
000000f0: af63 fabc 6709 823b 66a8 97b9 7444 a33c
00000100: 00f3 193a 526f 24bd 6b10 103d 5987 b03c
00000110: 2503 23bc 2b0f 84bc 0d26 babd 5d82 8abc
00000120: dc22 ad3d e80d fabc 09bc eabc 0644 84bd
00000130: c83f 25be 62e0 7cbd f08a 7fbd 1a4d 94bd
00000140: 951e 5abd 9e27 e5bd 2297 53bd 2c42 80bd
00000150: f5ba 793d 181a 54bd 8aec 2ebb de7b 0d3e
00000160: b7b7 fabd c39e 7ebd 0ea8 06bc baec e5bd
00000170: 72dc 16bd 3307 4cbd 7bb0 4ebd 8576 143b
00000180: 794b 82bd 78a8 6dbc 8668 c6bd 2a7d 1c3e
00000190: 431d 6fbd 6a11 c2bc cc8e 6cbd 86bd f3bd
000001a0: eaff f9bc 42b7 2fbd 30b8 5cbd 73fa 5ebd
000001b0: b7c1 b3bd a8aa 96bc d875 763d e894 393c
000001c0: 53b9 13bd 3dcf ed3c dd1e e43b f895 dfbc
000001d0: 6dd6 e4bd 0c05 76bd 9e88 43bd acd1 07be
000001e0: 0e46 793d 3ee4 0fbd 68fd 57bd 1deb 44bd
000001f0: 6f73 91bc 61d8 d9bd 27e2 aabd 455f a5bd
00000200: f871 84bd 1dc1 0ebc 34bc 23bd d3fb 71bd
00000210: 4cd2 c63d 295a fd3b 3927 f7bd 1b32 6dba
00000220: c45a 4fbd 8dd5 29bd 4573 9fbd c032 d2bd
00000230: 5189 f3bd 65e2 2ebd e168 adbc c651 413d
00000240: 6817 90bd fa37 093d 8359 68bd c4f4 803d
00000250: 2a46 45bd ba2b 46bc 8f7e efbc 2f04 e7bd
00000260: 453a e8bd e4cb 97bb 8ae7 fdbc ebef 83bd
00000270: 8a32 f0bc 1eb8 393d 1163 8abd a1b2 b4bd
00000280: 7055 87bd 84a7 f4bc f711 6c3c 6c03 d1bd
00000290: 50f3 22bc 96c1 cfbd 352c c2bd 9803 dfbc
000002a0: 8ee2 d1bd 2b11 63bd b2c9 b7bc ba5a a4bd
000002b0: ec6b 8ebc 9098 6bbd 7c9d 193c 1174 43bc
000002c0: 22ed 14bd 3a1e 07bd f1ea af3a 6044 d8bc
000002d0: 5ff4 f7bc 9007 14bd 31c0 60bb 8626 a63d
000002e0: 9006 af3d 28ad c8bd 48bc 293c 8800 ebbc
000002f0: ceb8 2dbc 3fc1 d2bb b7c2 88bd cc87 c0bc
00000300: fb3b b0bc 6056 313d 5063 3fbd b696 b0bd
00000310: 1280 15bd a730 b83c 3b4d a4bd 49d8 43bd
00000320: 96da 2e3a a681 00bd 1745 ccbc 9512 0fbd
00000330: 6774 953d a08b 86bd d177 3dbc 309f dcbd
00000340: f4f5 f9bc 970d 72bd feb2 963d 3fb2 763d
00000350: 435f acbc 5eac 9abd 7f1e 8bbb f038 733c
00000360: d6ee c3bd 1883 a23c 151c 75bd 671d a0bc
00000370: 3435 7e3c ee26 c6bb 101f bd3c 5405 79bd
00000380: 807a 70bd d9a2 efbd 603e 22bb 77a2 b43d
00000390: 20c0 f73d f064 2cbd f2c4 cebc 3030 9abd
000003a0: 7e24 17bc 2400 9cbd a11f 5b3b 1345 55bd
000003b0: 72f5 463a cbb4 cbbd 37fb febb 987a 6fbd
000003c0: b434 2fbd 12e1 9abd e382 45bc 229a e5bd
000003d0: f157 57bd 68f0 afbc 9c0c b0bd 667c 1b3e
000003e0: b064 15bc acbf 30bd f192 b6bd 7f6b a8bd
000003f0: ceac a7bb c68e debc 4031 033c 7d97 e8bd
0.032603804 -0.1180504 -0.05820756 -0.026564097 -0.019699864 -0.0383076 0.10437746 -0.13750069
-0.05753088 -0.09399043 -0.076355495 0.024687324 0.012928562 -0.004956521 -0.0043300274 -0.044075746
-0.08000009 -0.06393539 -0.039330162 -0.089859314 -0.11881953 -0.03740135 0.019725248 -0.031281598
-0.038328275 0.0119154155 0.024222456 0.16242068 0.04391642 -0.06612345 -0.05807836 -0.04440365
-0.10536788 -0.001740447 0.018497832 -0.001029376 -0.0037927309 0.012581155 -0.12101384 -0.01136583
-0.047597386 -0.055448998 -0.060812797 -0.01218787 -0.049618702 0.06036319 0.015291537 -0.03811008
0.01860435 -0.045658324 -0.090818465 -0.010885477 -0.113475986 -0.050789088 -0.080325924 -0.020477863
0.0013188124 -0.027335867 -0.05184635 -0.06227896 -0.030565111 0.003968406 -0.0002892643 0.019930102
0.00058726966 -0.040145226 0.035171907 0.021548914 -0.00994948 -0.016120514 -0.09089289 -0.016907865
0.084539145 -0.03052421 -0.028654115 -0.06458287 -0.16137612 -0.061737426 -0.06238836 -0.072412685
-0.05325182 -0.11189197 -0.051657803 -0.06262621 0.06096931 -0.051782697 -0.0026691281 0.13816783
-0.12242072 -0.062163126 -0.008218778 -0.11226793 -0.036831327 -0.049811553 -0.050461274 0.002265365
-0.063620515 -0.014505498 -0.09687905 0.15282121 -0.058377516 -0.023689944 -0.05775337 -0.11901383
-0.030517537 -0.042899378 -0.053886592 -0.054438066 -0.087771825 -0.018391922 0.06017098 0.011327006
-0.03606541 0.029029483 0.006961687 -0.02729319 -0.11173711 -0.060063407 -0.04773771 -0.13263577
0.060857825 -0.035129778 -0.0527319 -0.048075784 -0.017755238 -0.10636974 -0.083439164 -0.08074812
-0.0646705 -0.008713034 -0.039974406 -0.05907805 0.0970808 0.007731695 -0.12068028 -0.0009048299
-0.05062367 -0.041463424 -0.07785658 -0.10263586 -0.118914254 -0.042696375 -0.021168174 0.047197126
-0.070357144 0.03350065 -0.05672599 0.06296685 -0.048162617 -0.012095386 -0.029235153 -0.11280095
-0.11339239 -0.00463246 -0.030994195 -0.06442245 -0.029320974 0.045341603 -0.06757177 -0.08823133
-0.06608093 -0.029865034 0.01440858 -0.10205731 -0.0099457055 -0.101443455 -0.09481088 -0.027223393
-0.1024829 -0.055436295 -0.022435043 -0.08025117 -0.017385446 -0.05751854 0.009375926 -0.011929528
-0.03635896 -0.03298781 0.0013421458 -0.026399791 -0.030267892 -0.036140025 -0.0034294243 0.081128165
0.085461736 -0.09798652 0.010359831 -0.028686777 -0.010603143 -0.006431728 -0.06677764 -0.023502253
-0.021512976 0.043295264 -0.04672557 -0.08622496 -0.03649909 0.022484137 -0.08022543 -0.047813687
0.0006670145 -0.031373642 -0.024935288 -0.03492983 0.072975926 -0.065696 -0.011564211 -0.1077255
-0.030512787 -0.05909499 0.07358359 0.060228582 -0.021041518 -0.07552408 -0.004245579 0.014845118
-0.09567039 0.019837901 -0.059841234 -0.01954527 0.015515614 -0.0060471212 0.0230861 -0.060796097
-0.058710575 -0.117009826 -0.0024756417 0.0882005 0.12097192 -0.04208845 -0.025240395 -0.07528722
-0.009225009 -0.07617214 0.00334356 -0.052067827 0.0007589675 -0.09946593 -0.007781412 -0.058466524
-0.04277487 -0.0756246 -0.012055132 -0.11211039 -0.0525741 -0.02147694 -0.08596155 0.15184173
-0.009118244 -0.043151543 -0.089147456 -0.08223628 -0.0051170355 -0.027167689 0.008007348 -0.11357019

fc3.weight f4 [256, 256]
00000000: 256e 06bd fee9 d63d a05f d1bb febe 0abd
00000010: 084a 383d 88e8 13bd a1fd 0939 cba8 2a3c
00000020: 34ff 06bd c738 febc cd12 893c f220 3dbd
00000030: 0efa 9ebc 1428 35bd c3a5 b2bb d042 7bbc
00000040: ce8b 1d3d ff44 ddbc 1c44 b7bc 643d 17bc
00000050: 8676 16bd dca9 debc 4ca1 0b3d e03a b23b
00000060: 38c0 263c 39d4 80bd 6ead 35bd 5fea 03be
00000070: 742f 16bd 0044 86bb 734a 65bd ca21 adbd
00000080: 0033 9b3b 0026 01bd 481f 4d3c 103b 45bc
00000090: 5ee5 2e3d 2a65 123d 80da 533a a09b 0f3c
000000a0: dadd 43bd c0cf 043d a4bb 88bd 14cb 9dbd
000000b0: 1852 95bd c861 85bb 607b 20bc 902f bf3b
000000c0: f517 fa3c b01d abbb 5e93 09bd ec03 3c3d
000000d0: 626c 2ebd 80f0 e33a 745a 7d3d c0e3 b2bd
000000e0: 304d 603d e929 2abd 16f8 b8bc 8e15 613d
000000f0: 8732 acbd cc39 44bd 3eb8 b3bb e8cf 163c
00000100: 0ea3 5c3d 6267 103d b2f0 a7bd 561b debb
00000110: aef4 58bd 0c3d 973c a4f1 25bd f712 02bd
00000120: f2d5 91bc 4081 a73c 15ee afbd c214 6ebd
00000130: 5e6d 31bd 3816 59bd f80b a83c eae2 423d
00000140: be58 793c 60b4 17bb b600 62bd 8100 04be
00000150: 7886 19bd ec36 963b 8547 053b 7eea 87bd
00000160: 8877 773c 7812 943c 3ab2 12bd a878 073d
00000170: 60ab 0a3c 78fe 263d 8d9a d03b 0afe adbc
00000180: 02c4 eebd 2aeb 3fbd 0a7e 913c 6782 a9bc
00000190: 26da 04bd 1771 96bd 1b46 33bd 6046 c63c
000001a0: 94d0 b93c 807f 68bb a819 ae3c 8663 503d
000001b0: 607d 0ebd fc52 bfbc af65 d2bc 058f 04bd
000001c0: 5e8a adbd 077e 02bd 022f abbc a070 823c
000001d0: 7ef9 b53a e835 6f3c 7233 8ebd 38f9 01bd
000001e0: b00f f13b 12ef 5e3d c87f b23c b027 50bc
000001f0: 10b8 a2bb c84a 1f3c d41c 50bc 8875 5abc
00000200: 481f e03c 7c2c 093d 203b 33bb a895 73bc
00000210: 05f9 debd 1028 4bbd aa70 48bd b81e 70bd
00000220: abb9 13bd b07a 483c 8f4d c8bd dce2 8bbc
00000230: e600 76bd d25d ba3c 2788 dcbd 6cf5 68bd
00000240: 0aac a3bc 00de b83a 183c d5bc 6ac3 d9bd
00000250: cab2 093d 4712 cabd 980a 223d d83a 80bc
00000260: 1057 923b 00ec 23b9 207e 9ebd 40be 2a3d
00000270: 50c0 7c3c 945f a43c c50a 31bd 207f a8bc
00000280: ed9f 18bd 38ed db3c 0d97 56bd 8ac5 9abd
00000290: 8638 94bd 804c 76ba a16a 10bd 6c35 63bd
000002a0: 0039 1abc 532f 3fbc 1c1d 63bd d826 9b3c
000002b0: b813 fa3c 0053 48ba 666a 973d 3cd6 a9bc
000002c0: e80a 64bc 3a57 eebc c6fe 3fbd 70e1 5e3d
000002d0: 3a0f 103d 8015 853c 3c8c d3bc cf9b d5bd
000002e0: 3544 583c 23b7 633c e432 a43c 589e 953c
000002f0: 0a80 203d 6417 433d 81a0 a8bc 948f fd3b
00000300: 08a1 47bd 687a 793c c02b 45bb 2b41 18bd
00000310: 1552 4cbd 9124 9cbd 0a7e b6bd 5029 493c
00000320: e718 78bc c8e4 0bbc 0e0a 9ebd 3046 d6bd
00000330: aaa6 25bc e9ee b2bd 82d4 debd 7c33 54bd
00000340: 40f2 c93a 5dcd 7abc b9d3 6bbd b641 94bd
00000350: 10db 89bd 12ac 163c f3ae 56bd bcf9 27bd
00000360: 184f d4bd 17a4 67bd 8fe7 2abd 6076 4bbd
00000370: 8b4a cbbd 083a 06bc a07e 463b a891 16bd
00000380: 96b9 e13c 105a 9fbc 925b 79bd 190b 89bc
00000390: afa2 f5bd 02de 1bbd 19fc 983c f85e 593c
000003a0: d4d6 93bd 8b37 8fbd 97b4 69bc 9b26 cdbb
000003b0: b4dd 483d 1a63 1bbd 808d dfbc fcd8 033d
000003c0: 8de8 93bd 5efc 30bd f8be 07bd 436d b2bd
000003d0: 60a4 1ebd 46fa 86bb ecb1 693d 7f66 02be
000003e0: 80f7 bbbb 7249 1fbd 02b6 74bc 931d 68bd
000003f0: 08b2 143c b471 24bd a2db d83c 71f7 e6bd
-0.032819886 0.10493849 -0.006389573 -0.03387355 0.044992477 -0.03611043 0.00013159822 0.01041622
-0.032958224 -0.031032933 0.016732598 -0.046173997 -0.019406345 -0.044227675 -0.0054518892 -0.015335754
0.038463406 -0.027010439 -0.022371344 -0.009230945 -0.036734127 -0.027180605 0.03408937 0.0054391474
0.010177664 -0.06290478 -0.04435485 -0.12882374 -0.03666635 -0.0040974617 -0.055979203 -0.084537104
0.0047363043 -0.03153038 0.012519665 -0.012038007 0.04269921 0.03574101 0.000808157 0.008765131
-0.047818996 0.03242469 -0.066764146 -0.0770475 -0.07291049 -0.0040704943 -0.00979504 0.0058345273
0.030529002 -0.005222045 -0.033587806 0.045902178 -0.04258383 0.00173904 0.06185384 -0.08734846
0.05476111 -0.041543875 -0.022579234 0.054952197 -0.08408075 -0.047906682 -0.00548461 0.009204842
0.05386644 0.035254844 -0.08200206 -0.006778161 -0.05296772 0.018461727 -0.04051365 -0.031756368
-0.017802212 0.020447373 -0.085903324 -0.058125265 -0.04331719 -0.052999705 0.02051352 0.047579683
0.015218912 -0.0023148283 -0.05517646 -0.12890817 -0.037481755 0.004584184 0.0020336818 -0.06636523
0.015104182 0.018075213 -0.0358145 0.03307405 0.008463711 0.040770024 0.00636608 -0.0212393
-0.11658479 -0.04685513 0.017760295 -0.020692063 -0.032434605 -0.07345789 -0.04376803 0.02420348
0.022682466 -0.0035476387 0.021252468 0.050876163 -0.034787536 -0.023355 -0.025683252 -0.032362957
-0.08473657 -0.03185847 -0.020896439 0.015922844 0.0013883559 0.014600255 -0.06943406 -0.031731814
0.0073566064 0.054427214 0.021789446 -0.012704775 -0.0049657896 0.009722419 -0.012702186 -0.013333686
0.027358666 0.03348969 -0.0027348474 -0.014867224 -0.108873405 -0.049598753 -0.04893557 -0.058623046
-0.03606574 0.012236282 -0.09780418 -0.017075948 -0.06005945 0.022749815 -0.107681565 -0.056874678
-0.019979496 0.0014104247 -0.026029631 -0.106329754 0.033617772 -0.098667674 0.039560884 -0.015653059
0.004465945 -0.00015632808 -0.077389 0.041685343 0.01542671 0.020065106 -0.04322316 -0.02056843
-0.037261892 0.026846513 -0.052390147 -0.07557209 -0.072373435 -0.00093955547 -0.03525794 -0.05547087
-0.009413004 -0.011668998 -0.055447683 0.01893942 0.03052698 -0.00076417625 0.07393341 -0.020732038
-0.013918616 -0.029094327 -0.04687383 0.054414213 0.03517077 0.016245604 -0.025823705 -0.10430109
0.013199856 0.013898644 0.020043798 0.01826398 0.039184608 0.04762973 -0.020584347 0.007738063
-0.048737556 0.015226938 -0.0030085891 -0.037171524 -0.049882967 -0.07624162 -0.08910759 0.012277916
-0.015142656 -0.008538432 -0.077167615 -0.10462606 -0.010110537 -0.08736975 -0.108803764 -0.05180691
0.0015407279 -0.0153077515 -0.05757496 -0.07239096 -0.06731236 0.009196298 -0.05241294 -0.04100965
-0.103666484 -0.056552973 -0.041724738 -0.049673438 -0.09926327 -0.008192547 0.0030287877 -0.036760002
0.027554315 -0.019452125 -0.060878344 -0.016728925 -0.1199392 -0.03805352 0.018674897 0.013267271
-0.072187096 -0.06993016 -0.014264247 -0.0062607056 0.049039558 -0.037936307 -0.027289152 0.032189354
-0.0722209 -0.043209426 -0.033141106 -0.08712246 -0.03873098 -0.0041191904 0.057054445 -0.12734412
-0.0057362914 -0.038888402 -0.014935972 -0.05666883 0.009075649 -0.0401475 0.026471917 -0.112776645

fc3.bias f4 [256]
00000000: 1e07 acbd cc73 7b3e 2e93 d2bc d219 73bd
00000010: cb53 6f3e aebc 6dbd 7cba 76bd a699 86bc
00000020: 6ac2 0ebd fd85 efbd 42ff 3d3d b1c6 b5bd
00000030: 545a 8ebd fe8c b03d 2502 15bd 9752 18bd
00000040: 964d 1ebe 83f1 80bd 0771 61bd 6cd7 93bd
00000050: dda8 a73d 34f2 cabc 2c85 6abd 1e73 bfbd
00000060: 70e7 90bd 2eb1 2e3e e643 a23d ad71 8f3e
00000070: a334 cabd 95df 883d de60 64bd c6d6 ccbb
00000080: aa03 15bd 0ab8 6bbd 2a60 0abd 66f4 d8bd
00000090: f733 0fbd 49d9 443e 04e7 d1bd d155 25bd
000000a0: 5f1f dbbd 0446 8c3b 5660 37bd 9940 21bc
000000b0: 463b 46bd 1918 bcbd 7939 2abd 353d 26bd
000000c0: 035e 023d 6deb 9cbb ab8a b2bc ed12 bdbc
000000d0: eb99 5bbc 4699 32bd 176a 97bd 403a 21bd
000000e0: ddcd 5fbd 9dce abbd 3956 e2bd 607d 8fbd
000000f0: 0992 81bd 4205 79bd d9d6 82bd 2643 a7ba
00000100: cbcb 04bd 6320 8abd 59c6 73bd 424e 17bd
00000110: 30fd 1a3e 3584 43bd ae36 6bbd b98e 6dbb
00000120: afe0 ddbd 69fa 4fbd 55e2 1abd b578 c1bd
00000130: 5715 16bd 9976 eabd daf3 efbd e67a 4abc
00000140: 0b82 fa39 aa44 dbbd 38a8 a9bc 2cf5 42bd
00000150: 319e 85bd b2fb 81bd 5a19 73bd 0486 533e
00000160: 5881 9abd 418f 6fbd c7f0 88bd 1c93 b2bc
00000170: 6db6 a7bb a551 3f3e f711 30bc 8972 4c3e
00000180: ca39 1f3d 6512 0bbd bede 25bd 1303 cbbd
00000190: 9bf6 94bd 15c2 e3bd 06a5 0bbe f04d 5bbd
000001a0: 1ce2 e0bd 4f56 1fbd 05fe ea3d 3808 823c
000001b0: c3a3 99bd eeb1 aabd 0ef0 513c ab03 ebbd
000001c0: dffc 143d 676b 9fbd 5a3a 13bd 531a 23bd
000001d0: 977e e4bc a846 b7bd 4201 99bd 789f 43bc
000001e0: ae68 5f3e 4957 8cbd 5531 ad3c e4a3 99bd
000001f0: 52d3 43bd d189 58bd 7e11 c03d cdb0 d5bd
00000200: 5c33 07bd 7c1a d0bc e400 c4bd 9900 14bd
00000210: 1de5 6a3e 92c7 223e 1923 413d e69e e7bd
00000220: 2275 d7bd 5c3e 60bd c44a 423d d4fe d1bd
00000230: e490 e2bc 29f7 4dbd 2a9e 7bbd 561c 84bd
00000240: 9fad e0bc 7a9d b2bd 3e69 0fbd bd26 5ebd
00000250: ca48 013d a57a dfbb a338 fabc 8ded d33c
00000260: 100e cdbc 1678 92bd ec4b 38bd 7bf0 e6bd
00000270: 013f 1dbd c306 a2bd 1495 20bd e9f5 223e
00000280: 6999 81bd 91e4 4abd 6f57 c63d 9c24 78bd
00000290: 9024 503e 2e7d 043b 915c 0e3b ce3c b63c
000002a0: edf2 c8bd 0da2 00bd 3811 18bd 3e9f 90bd
000002b0: 59a4 783b 0078 7cbd ba03 1dbd 7980 a1bc
000002c0: 5d94 69bd 1b77 8d3c e36e 5ebc 5fb4 cabd
000002d0: e68f cfbd 5a8f c2bc 8951 d5bc 059a 74b9
000002e0: 98fa e63d 8450 52ba 449d 95bd 16ea 62bd
000002f0: 79c6 ffbc 4b72 8cbd c6fc e9bd ea93 5abd
00000300: 8b57 f1bd 4ef7 8a3d bc57 9ebc 259f d9bd
00000310: 3fd5 c7bd 09ce 13be f813 75bd bc31 95bc
00000320: 6599 76bd 17ef e03d deba a7bd 4741 84bc
00000330: 3852 07bd 4102 97bd 3f92 803d cc89 c6bc
00000340: 4156 9b3d 683d 3ebc 3c2f 30bd 4111 e3bd
00000350: 5e0d 213e 22dd f93b bfa9 a2bd 459c 24bd
00000360: aba5 5ebc 06b5 09be d9e5 973d a93a b9bd
00000370: 6241 93bd 791f f8bc 5ea2 7abc 137f 6cbc
00000380: dffc d2bc af89 30bd b70c 5b3c 070a c4bd
00000390: a28a 89bd f817 403d 4c62 1bbd d008 e3bd
000003a0: 239e 89bd 6fea 0cbc 9d54 71bd ac69 86bb
000003b0: c22f 06bc 62b3 0cbd a071 37bd 89ed a8bd
000003c0: c1df 96bd 6a55 3f3e 2b90 92bd 5164 8f3c
000003d0: 0b9a d63c 7198 20be a631 d2bd 400e af3d
000003e0: 08c2 83bd d96e c7bc 3273 1dbe 8ea9 97bd
000003f0: b09e fabc 0c38 a0bd 4de7 32bd ce1e 7d3c
-0.08399795 0.24555892 -0.025704946 -0.059350796 0.23371808 -0.058041267 -0.06023644 -0.016430687
-0.034853376 -0.11695478 0.04638601 -0.08875788 -0.069508225 0.08620642 -0.036379 -0.03718814
-0.15459284 -0.06296065 -0.055039432 -0.07218823 0.08186505 -0.024773695 -0.05725591 -0.09348129
-0.07075393 0.17059776 0.07923107 0.28016415 -0.09873321 0.0668327 -0.055756442 -0.006251189
-0.036380447 -0.05754856 -0.033783115 -0.1059349 -0.034961667 0.19223513 -0.10249141 -0.040365044
-0.10699343 0.0042808075 -0.044769607 -0.009842061 -0.04839637 -0.09184284 -0.041558716 -0.040585715
0.031827938 -0.004788807 -0.021794638 -0.023080314 -0.013403396 -0.043603204 -0.07393282 -0.039362192
-0.054639686 -0.08389018 -0.11051602 -0.07006335 -0.06326682 -0.06079603 -0.06388635 -0.0012761101
-0.032420915 -0.067444585 -0.05951533 -0.036939867 0.15135646 -0.047733504 -0.057425193 -0.00362484
-0.108338706 -0.05077592 -0.037813503 -0.09446851 -0.036641445 -0.11448402 -0.11716433 -0.012358403
0.00047780605 -0.10706456 -0.020710096 -0.047597095 -0.06524313 -0.06346835 -0.05935035 0.20656592
-0.075442016 -0.058486227 -0.0668655 -0.021798663 -0.0051181824 0.18683489 -0.010746471 0.19965567
0.03887347 -0.03395309 -0.040495627 -0.09912696 -0.07273599 -0.111210026 -0.1363717 -0.053541124
-0.10980627 -0.03890067 0.11474232 0.01587306 -0.07501938 -0.08334719 0.012813581 -0.11475309
0.03637397 -0.07784157 -0.03594432 -0.039820027 -0.027892394 -0.089490235 -0.07470943 -0.011939876
0.21817276 -0.06852586 0.021141687 -0.07501963 -0.047808953 -0.052865807 0.09378336 -0.10434113
-0.033007964 -0.025403254 -0.095704824 -0.036133382 0.22938962 0.15896443 0.047152612 -0.11309604
-0.10520388 -0.05474697 0.047434583 -0.10253683 -0.02765698 -0.05028454 -0.061430134 -0.06450717
-0.027426539 -0.087214425 -0.035012476 -0.054236162 0.031563558 -0.0068200403 -0.030544585 0.025870109
-0.02503112 -0.07151811 -0.04499428 -0.11276337 -0.038390163 -0.07911446 -0.039204672 0.1591412
-0.06328089 -0.049534384 0.096846454 -0.06058179 0.20326447 0.0020216214 0.0021722654 0.02224579
-0.098119594 -0.031404544 -0.037125796 -0.07061623 0.0037939756 -0.06163788 -0.038333632 -0.01971458
-0.057026256 0.017268708 -0.013576242 -0.09897684 -0.10134868 -0.023749996 -0.026039856 -0.0002332703
0.11278266 -0.0008022862 -0.07305387 -0.055399023 -0.031222569 -0.06857737 -0.11425166 -0.053363718
-0.117842756 0.06785451 -0.019328944 -0.106260575 -0.0975747 -0.14434065 -0.059833497 -0.018212192
-0.060204882 0.10983103 -0.08189939 -0.016144408 -0.033037394 -0.07373477 0.06277894 -0.024235629
0.07584811 -0.01161132 -0.043013796 -0.11087275 0.15727755 0.007625238 -0.07942533 -0.040188093
-0.013589303 -0.13447961 0.07416887 -0.09044392 -0.07190205 -0.030288445 -0.0152975 -0.014434594
-0.025755344 -0.043100055 0.013369731 -0.09572225 -0.06715895 0.04689786 -0.03793554 -0.11085665
-0.06719615 -0.008600815 -0.058918584 -0.0041019525 -0.008190097 -0.03435076 -0.044786096 -0.08248431
-0.073668964 0.18684927 -0.07156404 0.01750389 0.0261965 -0.15683152 -0.10263376 0.0854764
-0.06433493 -0.024344848 -0.15375975 -0.07405387 -0.030593246 -0.0782319 -0.043677617 0.015449239

classifier.weight f4 [16, 256]
00000000: cba0 e0bd 587c 4ebe c8fd cd3d 270d 5c3d
00000010: 3af1 91be cd93 24bd 9c42 863d c666 6a3d
00000020: 805d 85bb ea57 1839 2308 c13d a998 d8bb
00000030: 614b ce3c 240a 17be 166e bcbd ecb2 613d
00000040: fd5c d03d adf7 7cbd 9528 babd fb78 ca3c
00000050: 4bc9 7dbb 7479 9b3c 8070 663d e0c0 b33d
00000060: 0101 963d a31a 74be 8a97 29be 41e9 bcbe
00000070: e3e9 c63d de15 b3bd 3273 c6bd 34c6 233d
00000080: a6f7 25bd f6f8 063d 792f f93c e29c c53c
00000090: 25ea cabd 7c72 53be 28c4 c63d ee89 24bd
000000a0: 3b8b b63c 3074 983d 9b71 a0bd 7568 3b3c
000000b0: c0b7 1dbb f24b 1c3d 9e3b 023d 9ac6 53bd
000000c0: 8dc3 1439 c70d 013d 64ae 273d dbf5 9bbd
000000d0: 40dc 923c c0e0 1d3c a787 29be cd26 b3bd
000000e0: 374a c7bc 115c 50bd 0a79 9b3c 91ca e73d
000000f0: 4517 8b3d 7e19 933b af0a 81bd 79d0 94bd
00000100: 472e 5f3c a0c8 133c 483e 033d f47f 75bd
00000110: 6e80 5bbe 367c 523d 24ca ce3c faf9 743c
00000120: 70af 583d 6398 823d 171a bbbd 224c d93b
00000130: 32a0 293d 0443 cc3d 05ac 95bd 10b1 0dbd
00000140: ffd6 8c3c a95a 023d 6c28 673d 9f29 80bb
00000150: 9efb e43c 0c52 be3b 5697 8a3d 2eed b4be
00000160: ad20 313d 01cf 8fbd e375 d53d f2ec 4dbe
00000170: 1e61 ad3a 4a44 763d b6e9 3dbd ed47 44be
00000180: 2959 38bd 7ab5 a33d de28 9c3c 54de ae3c
00000190: 4e46 fcbc 5ffc d8bd 9952 973d a64f 9dbd
000001a0: 6fa7 d33c 5483 6ebd 7b86 8dbd a01d 9e3c
000001b0: 7234 683d 8a2e a8bd eeef d2bd 5219 323c
000001c0: de9d 9a3d b12e b73d 7e4e ed3d accf 763c
000001d0: 65f0 803c 5336 1abd 6eea a23d 3403 7fbd
000001e0: 4e40 f2be dac2 143d 8012 9abe 7c1f ecb9
000001f0: ec37 b9bc 9ba7 8cbd cadd 133b 14f3 ddbd
00000200: 693b 3d3c f80a e13c 473e 063c 9e15 8fbd
00000210: 5366 29bf 74d4 17bf 620c 57bd c003 963d
00000220: c44a 84bd bab1 163d baf1 5b3d 98ae e93c
00000230: a9cf 01bd cfe6 a03d a246 503d 47f9 0d3d
00000240: 6329 0ebd 7f4d 0d3d 43e8 4a3c 0884 223c
00000250: aeb7 2dbe 21e2 5d3d 8685 323c 115f 223c
00000260: a3bb 62be d7c2 713b a8e3 703b 7bfd a6bd
00000270: 595c 4cbd 20b9 43bd 924a 2b3d be1c d43a
00000280: 0719 133e 166a a83d 4802 8a3d 2275 b83d
00000290: 9a92 29be aadd abbb a1cd a3bd 12f2 863d
000002a0: c1fb 823a 6f58 f03a 782d cdbd dd1e 883d
000002b0: 11dd e4bc 33c6 48bc 199d 9a3d fbd5 6e3d
000002c0: 74d6 c53c 864d af3d 8236 133b 27fd edbc
000002d0: b32e 353d 29d3 43be 106d bbbc a999 bd3d
000002e0: a934 20be 061c 033d 1419 0ebd 477a cb3c
000002f0: 827f 04bb 17c5 983d 9b44 cd3c decb b0bd
00000300: f9f2 e3bd 5e5d 4dbe 4840 6c3b 225e a4bd
00000310: a16e 83bc ff55 f0bd e1d0 e13d 656d 8cbd
00000320: 6101 78bd dceb 4abe c6a5 0e3d 1b14 033d
00000330: 1ca2 7bbd 89fb 803d 921c 9abd 90ec e9bd
00000340: 1573 8fbd 18d4 36bd e92b 053d 24ad 49bd
00000350: dc35 97bd 4489 20bf 9af5 23bd e7ee 24be
00000360: 96bf c63d ffc1 7ebd 321a e8bd b4d2 1839
00000370: a05e ecbd 4bac 793d 2c12 713d 0172 143e
00000380: c9b9 39bd bc7b 14bb 0d11 883d 7629 ccbc
00000390: e4b6 183d 2fba c0bd 62d5 1f3d 8431 cebb
000003a0: 0464 983c c7ee d83d b81a b63d 6466 153d
000003b0: c103 1b39 976b c4bd 8c20 33bd e52f cebd
000003c0: 9443 a1bd 3e70 ccbe 08ba 56be dcaf 2cbe
000003d0: efe2 23be f2ab c1bd 4658 fc3c ddc4 0ebe
000003e0: 0308 d03d 679f e3bd d3bc 963d ca5f 743d
000003f0: b364 983d 52c6 a2bc 0efe 213d b324 32bd
-0.10968169 -0.20164621 0.100581706 0.05372348 -0.28504354 -0.040180016 0.065556735 0.05722692
-0.004069984 0.000145286 0.0942538 -0.0066099954 0.025182428 -0.14749962 -0.09200685 0.055102274
0.10173986 -0.06175964 -0.09089772 0.024715891 -0.0038724716 0.018978812 0.056259632 0.08777022
0.0732441 -0.23838286 -0.16561714 -0.3689671 0.09712579 -0.08744405 -0.096899405 0.039983943
-0.04051938 0.03295227 0.030418145 0.02412266 -0.09907941 -0.20649141 0.097053826 -0.040170603
0.022283187 0.07444036 -0.078341685 0.011438479 -0.0024065822 0.038158365 0.031795137 -0.051703073
0.00014187228 0.03150728 0.040937796 -0.076152526 0.017927289 0.009636104 -0.16555654 -0.08747635
-0.02432738 -0.05086905 0.018978614 0.11317933 0.06791548 0.004489123 -0.06300866 -0.072663255
0.013621873 0.009020001 0.032041818 -0.05993648 -0.21435711 0.051387988 0.025242873 0.014952177
0.052901685 0.06376722 -0.091358356 0.00663139 0.04141254 0.0997372 -0.07308201 -0.034592688
0.017192362 0.03182474 0.056435034 -0.0039112116 0.027952012 0.0058081206 0.06767146 -0.35337204
0.043244053 -0.07021905 0.10422876 -0.20109919 0.0013227796 0.06012372 -0.046365462 -0.19168063
-0.045006905 0.07993598 0.019062456 0.021346249 -0.030795243 -0.10595011 0.07388801 -0.07681207
0.025836674 -0.058230713 -0.06910416 0.019301236 0.05669064 -0.082120016 -0.10299669 0.010870295
0.07549642 0.089444526 0.11587237 0.015064161 0.015739629 -0.037649464 0.0795487 -0.062258914
-0.47314686 0.036318637 -0.3009224 -0.00045036885 -0.022609673 -0.06867906 0.0022562617 -0.10837379
0.011549809 0.02747105 0.008193559 -0.06986545 -0.6617176 -0.5930855 -0.052502044 0.07324934
-0.06459573 0.036790587 0.053697325 0.028525636 -0.03169218 0.07856523 0.05084861 0.034661558
-0.03470744 0.034497734 0.012384477 0.009919174 -0.169646 0.05417073 0.010896092 0.009910361
-0.2214189 0.0036889815 0.0036756787 -0.08153816 -0.049892757 -0.04778397 0.041819163 0.0016182882
0.14365016 0.08223359 0.06738716 0.09006716 -0.1655983 -0.0052449303 -0.07998205 0.0658914
0.0009993241 0.0018336902 -0.10018438 0.06646512 -0.027937444 -0.012254286 0.07549495 0.058309536
0.02415011 0.08559708 0.002246291 -0.029051377 0.04423399 -0.1912352 -0.022879153 0.09257824
-0.15645088 0.032009147 -0.034691885 0.02483858 -0.0020217602 0.07459467 0.025057128 -0.086326346
-0.11130328 -0.20055148 0.0036049057 -0.08025767 -0.016043963 -0.117351525 0.110261686 -0.06856803
-0.06054819 -0.19816536 0.034826063 0.032001596 -0.061433896 0.062979765 -0.075249806 -0.11422074
-0.07004372 -0.044635862 0.03251258 -0.049237385 -0.0738332 -0.6270945 -0.040029146 -0.16106759
0.09704511 -0.062196728 -0.11333121 0.00014574343 -0.11541486 0.060955327 0.05885522 0.14496614
-0.045343194 -0.002265676 0.06643877 -0.024922114 0.037283793 -0.09410512 0.039021857 -0.006292524
0.018602379 0.10592418 0.08891815 0.0364746 0.0001478335 -0.09590834 -0.04373221 -0.10067729
-0.07874218 -0.39929384 -0.20969403 -0.1686396 -0.16004537 -0.09456624 0.03080381 -0.13942285
0.10157778 -0.11114388 0.07360234 0.059661664 0.07441082 -0.019869957 0.039548926 -0.04349203

classifier.bias f4 [16]
00000000: 6d8a 0fbd 6be8 6bbd 2658 523d 17f0 993c
00000010: b6b3 633d 00ba d53c 446b 503d c2cc bf3d
00000020: 3c83 9fbc 780b e23d a148 353d 8963 de3d
00000030: bd91 fcbc 296f ebbc bb34 36bd 0928 06be
-0.035044122 -0.057594698 0.051353596 0.018791242 0.055591308 0.026089668 0.050883546 0.09365226
-0.019471757 0.11037344 0.044258717 0.108588286 -0.030831212 -0.028739529 -0.04448388 -0.1310121
