transfer17_21_55_22_10_12_FullyConnected.pth (torch, 550959 bytes, 8 tensors)

fc1.weight f4 [256, 4]
00000000: 8e7e c5be 44e4 8fbe b0b1 253e 044b 093e
00000010: 2488 393e db77 0d3f 85ee bd3e 75bd 5bbe
00000020: 454d 283e 72aa 2b3f ee5d 1e3e 4de8 f5bd
00000030: 1521 cbbe b333 f63e dccb 2a3f 744a c63e
00000040: 84cc d9be 4a66 88be 208e 483e 287f eabd
00000050: 4b58 adbe 9fdf a23e 30cc b2be 8174 843e
00000060: 6a3a ba3c 06a9 283e 2910 953e fcf4 823e
00000070: afff e93d 0189 d2be 4784 dfbe bc58 9cbd
00000080: c06c 90bd 2089 95be c88c 283e 7035 eebe
00000090: 333f cf3e c1c0 253e 177a 82be 21d7 863e
000000a0: 2961 2d3c a6e7 3d3f 830d 2b3f 6b0c a13e
000000b0: 8a56 9ebe 4ec7 93be a013 6fbd b072 04be
000000c0: e21e b4be 30fa 07be 38ef 963d b09e 7bbe
000000d0: f321 473e 3a07 f73d fbdc 0c3f f2b2 3d3d
000000e0: ff6b 9fbd 9553 7a3e 504c 0d3f 4e28 39bd
000000f0: 68c9 993d e05c 443d a898 f3be 385b 41be
00000100: d07b f63d 4fed 0ebf 1b37 f23a 40fc 6bbe
00000110: 693a 9c3d 0e18 17bf cd0f 3ebe efcf c73e
00000120: 552c a43e 1e63 1bbe 707b 073d 0889 65be
00000130: 5718 91bd 1369 eebc 9eb6 053f a2dd 953e
00000140: 266c e8be 988e aa3d bfea 223f 59e6 823e
00000150: b82f 59be 0c29 4f3e 98c3 c83e 44cd d3be
00000160: 1479 74be c0c1 1ebf c083 e6be 780b dabe
00000170: 0407 e43d 4eac 61be 3f57 bbbe c8e2 53be
00000180: be0e 13be 3bea e63e 9cc7 28be 26ea d2bd
00000190: 5cca 6bbe 2cbb 7dbe ea2d fabe 2616 d0be
000001a0: 98b3 c23e b225 42be f549 e0be 6cb8 5bbe
000001b0: 3157 9ebe 7fa7 913e c571 a33e 33a8 a73e
000001c0: 511a a73d b635 b1be a58d 0cbd b2e0 bd3d
000001d0: 8ce5 ccbe 1838 cdbe e0a4 93bd c0a3 503d
000001e0: bd76 5abe d912 133d b91d 273e debf d3be
000001f0: f1f0 a83e 7a5d 13be 13ec 363d b9d9 4bbe
00000200: 00ac 7f3a 940e 563e c00b ccbd fe3d f5be
00000210: 02e9 c2be d093 13bd 48c0 993d 2613 a53e
00000220: 1246 9fbe f623 d9bd 9a86 30bf 4a56 563e
00000230: d08a d63d b455 4d3e fcb9 5c3e d234 e6be
00000240: 9758 6e3e d744 f83e d6f8 d93e 552b e2be
00000250: 7bc3 6e3e b69f 253f f033 393f 7aa3 5a3c
00000260: 0dd4 fcbe 06f8 6c3e b9a3 093f 0aa1 f83e
00000270: aa3a 043d 540c 7abd 144e 0fbf a037 5f3e
00000280: 805d 2ebe 0859 333e 4079 543e 146c 3bbe
00000290: e85b ea3e da0b 95be ee46 e93e 44da 993d
000002a0: f26e 9bbe 2c63 f83e b014 4dbe 0c9a c1be
000002b0: a47d bb3e db5a 11bf 4085 eabc 72f2 e63b
000002c0: c82b b83e 8de9 b53e 3a77 c83e 11eb 9c3e
000002d0: fe86 c9be b051 a5be 44c4 00bf d15c 8a3e
000002e0: 9e04 ea3e 658d 033f 63e5 e63e 6b22 c53c
000002f0: 2d2f 66be e56d 053f dd3f 0b3e 8e1a efbd
00000300: a0ff 8c3d f008 cc3e d2ac 9cbe c47f e5be
00000310: ee85 663e 1178 733d 0ab3 c83d 2996 06bf
00000320: 84dd 3e3e 04fe 773e 0dd7 b43d 3b0d 0b3e
00000330: 9256 9d3d 60ce fe3e fe08 083f c6db bcbe
00000340: 6870 8bbe 2a42 29bf 96da 92be e694 a03e
00000350: 390e fabe 39a7 43bd c4b2 38bc e2f7 8ebe
00000360: 629c 813d 2f68 14bf 0eee e83d feff af3d
00000370: 40da 33bd 68a0 0bbe 4470 5ebe 10b9 653d
00000380: be6f 13be a92e 143f f7dc e03e 0a1a 2a3a
00000390: b2d1 7f3e e0d3 f83e 277d 023f 2d2a 833e
000003a0: 52ed 37bd eee5 3dbe 5fe5 1cbf 5943 c2be
000003b0: 90c5 863e 3074 99bd a2b7 cd3e 1c39 cdbe
000003c0: 2181 94bc bb23 df3e 0054 1ebe b296 b63a
000003d0: 11f8 913e 49d6 2ebf 3545 abbd 5b6c b53d
000003e0: 1289 e9be 14ff a2be e496 603e d4b3 e3be
000003f0: 10b0 4c3e 4c8a 8bbe 44de c2be 5474 cabe
-0.38573116 -0.2810384 0.16181064 0.13407522 0.1811834 0.5526101 0.37096038 -0.21458991
0.16435726 0.67056954 0.15465519 -0.120071985 -0.39673677 0.48086318 0.66717315 0.38728678
-0.42538846 -0.2664054 0.19585466 -0.114500344 -0.33856425 0.31811234 -0.34921408 0.25870135
0.022732932 0.16470727 0.29113892 0.25577533 0.11425721 -0.4112015 -0.43655607 -0.07634112
-0.070519924 -0.2920618 0.16459954 -0.46525145 0.40477905 0.16186811 -0.25483772 0.26336005
0.010582247 0.7418159 0.6681749 0.31454787 -0.309254 -0.28862995 -0.058368325 -0.12934375
-0.35179812 -0.13279033 0.07369846 -0.24572253 0.19446544 0.12061925 0.5502469 0.046313234
-0.077842705 0.24445947 0.5519457 -0.045204453 0.07509118 0.047940135 -0.47577405 -0.18882453
0.12035334 -0.55830854 0.0018479557 -0.23045444 0.07628328 -0.5902108 -0.18560715 0.39025828
0.32065073 -0.15174529 0.033076704 -0.22415555 -0.070847206 -0.029102838 0.52231777 0.29270655
-0.4539501 0.08327979 0.63639444 0.25566366 -0.2120961 0.20230502 0.39211726 -0.41367543
-0.23874313 -0.6201439 -0.45022392 -0.42586875 0.111341506 -0.22038385 -0.3659 -0.20691979
-0.14361092 0.4510058 -0.16482395 -0.102985665 -0.23026413 -0.24778432 -0.48863155 -0.40641898
0.38027644 -0.18959692 -0.43806425 -0.2145707 -0.30925897 0.28448102 0.31922737 0.32745513
0.08159316 -0.3461129 -0.03431477 0.09271373 -0.4001888 -0.4008186 -0.07209182 0.050937414
-0.21334358 0.035906646 0.16319932 -0.4135732 0.32996324 -0.14391127 0.04465873 -0.19907273
0.0009753108 0.20903999 -0.09963179 -0.4789886 -0.38068396 -0.036029637 0.07507378 0.32241172
-0.31108147 -0.10602562 -0.68955386 0.20931354 0.10475695 0.20052224 0.21555322 -0.44962174
0.23275982 0.4849002 0.4257266 -0.44173685 0.23316757 0.64696825 0.72344875 0.01334464
-0.49380532 0.23141488 0.53765446 0.48560363 0.03228251 -0.061046913 -0.5597851 0.21798563
-0.17027855 0.17514431 0.20749378 -0.18302947 0.45773244 -0.29110605 0.45561928 0.07512334
-0.30358082 0.48513162 -0.20027423 -0.3781284 0.36619294 -0.5677926 -0.028627992 0.0070479447
0.35970902 0.35529748 0.39153463 0.3064809 -0.39360803 -0.32288885 -0.5029948 0.27023938
0.45706648 0.51387626 0.45096883 0.024064263 -0.22478934 0.5212081 0.1359858 -0.11674987
0.06884694 0.3985057 -0.306006 -0.4482404 0.22512028 0.059440676 0.09799774 -0.52572876
0.18639189 0.24217993 0.0883008 0.13579266 0.076825276 0.49766827 0.5313872 -0.36886424
-0.27234197 -0.66116583 -0.28682393 0.313636 -0.48838976 -0.047766898 -0.01127309 -0.27923495
0.06328656 -0.5797147 0.1137353 0.085937485 -0.04390931 -0.13635409 -0.21722513 0.056084692
-0.14398095 0.578837 0.43918583 0.00064888655 0.24982336 0.48599148 0.5097222 0.25618115
-0.04490406 -0.18544742 -0.6128749 -0.37942007 0.26322603 -0.07492864 0.40179163 -0.40082633
-0.01812798 0.43581948 -0.15461731 0.0013930409 0.28509572 -0.68295723 -0.083628096 0.08858558
-0.4561239 -0.31835234 0.2193256 -0.44473135 0.19989038 -0.2725395 -0.380602 -0.39541876

fc1.bias f4 [256]
00000000: f41a 9cbe 3783 9dbc 4779 bd3e 6c09 c73e
00000010: 8005 cb3d 85ed 0cbb 6f9d 41be 56aa 993e
00000020: 9013 0bbe 6f8f b0be ba6e 983e 60e6 ec3c
00000030: d642 b8be edf7 4c3e 75ba 733e 0669 aebe
00000040: d0f9 c43e 10d4 a0be fabc 9c3d 3b1e f9bb
00000050: ce80 283e 4ae6 e5be 9b95 d53e 0a2d 8c3e
00000060: c475 b13d b8ad 863d a1f9 3d3e 8d13 123e
00000070: e567 3b3e ccb4 fdbe 53d8 553e c384 2d3d
00000080: 08df 003e 1032 eabe efce 733d f042 f4bd
00000090: bb99 fe3e 0390 883e 68ce 4a3b ad0d 4bbe
000000a0: 1618 e3be 0a79 60be 4e64 ebbe 2cbd 173e
000000b0: 4f6f 04be 73f3 033e b83b d63c 778a b03e
000000c0: 8623 e1be 3c6d 963e 36ce 543c 28e2 033e
000000d0: 7c45 8a3e dd22 8b3e 9078 34bc 06be eabe
000000e0: 9d13 863d bd71 033d e4ed 803e 9c1b 7fbe
000000f0: 6e22 2f3e 0762 8a3e 70c5 183d cc02 eabe
00000100: 16a8 febe f844 7dbe 3e3a 95bd 6307 67be
00000110: 5758 443e 90a7 21bd b82a 0a3e 44dc a5be
00000120: 322c 903d 4b9a e53e f057 4fbd 349e a43e
00000130: 34db b3be 8e33 c4be 136c 96bd 3547 f3bd
00000140: 12ee 643c 0a08 97be c799 7cbd 14c0 88bd
00000150: 2cb2 703e efbf 37be ee0a c5be dd95 5ebe
00000160: 7035 c6bd abd7 913e 7e97 393e 1dae 5cbc
00000170: 3c55 60be 5062 9ebe 5005 2bbd a871 cfbe
00000180: 74d2 1d3d b306 61be 19a7 363e ce99 9e3e
00000190: 7b31 afbe 2cfc 03be e403 eebd 1e7e 89be
000001a0: 1a75 abbe 766c 463e 2af8 ad3e fb6e 033e
000001b0: 2b79 c13e 23e1 b7bd 6800 8d3e 7479 283e
000001c0: f40f b53d 8d53 aa3d 3196 8c3e c33a babd
000001d0: 4624 043e 10f7 f13d 4360 d13e c46e d5be
000001e0: 29de bebd 60f1 dfbe b250 5f3e 126a c9be
000001f0: 836c 723e cf2b dabe 12d8 e5be 47a8 0c3e
00000200: 450a ae3d d292 353d 7155 cf3d ea13 25bd
00000210: 6871 b8be e8b0 be3e 0e69 b3be afee 43be
00000220: 38bf 3dbd 6973 ae3e 085d 1bbe 607d d1be
00000230: 4e7a f2be 350b 963e c6b5 e0be 60f4 0cbe
00000240: 6fb5 21bd 8218 233e 4fd0 dd3e e2f9 aabe
00000250: 3859 923d 3ef9 a63e d4fe c4be b86e 9bbe
00000260: 9bc8 933e 6dfd 91bd aae7 8dbe 7065 4fbe
00000270: 12b8 483e 6710 16be 1be6 333e 5a30 10bd
00000280: 3e87 9abe dbb4 bbbd b8d2 17be e16f 8c3e
00000290: 0eb7 f4be ad9b c3be d6f5 253e 3fbe 503e
000002a0: b45a 95be c7f8 f6be 03cb 58bc 6006 593e
000002b0: f08d dcbe 8435 b33e 9675 cbbe 2964 9e3d
000002c0: cbf1 0a3e eda3 383e bb9c 973e eb22 df3d
000002d0: f05b 883c 35b2 0fbe 7cdc acbe d2a1 d4be
000002e0: 86ae 85be 9490 6a3d a0a8 5e3e 0c60 4fbe
000002f0: 3079 333e be3e fc3a 840d cebe f650 4ebd
00000300: f1ba 68be fdcb 593b e0e3 3ebe 37d2 b0bd
00000310: af7f b3bd 2300 da3e c8bf 12be 19cf a73e
00000320: 2a9a f43e 7612 cf3a 188b 6e3e 4a59 d33e
00000330: 4e0c 5e3e 3bdb c03d bf39 efbc 50cd fdbe
00000340: 87d4 84bd 42c2 0a3d e80f 92bd 02e1 153e
00000350: c84a 67be cf01 3fbe 252b a93e 4699 d9be
00000360: e32a f83e 0e95 3c3e d86d e03d 54b7 c23e
00000370: 3ad5 123e ff54 283e 3847 bcbe 16c1 ffbe
00000380: 5aa7 673e fec0 a33d 4319 d23d 6b67 893d
00000390: 88b0 423e c480 c4be 3b9c b2bd 10b6 743e
000003a0: aeae d3be d6c4 dcbe 23fb 7b3c f21f c1be
000003b0: 580a afbe 734e 093e 741b 85be bc8c c8be
000003c0: a0f4 a5bd a87b ad3d 4ba4 753e 8e97 debe
000003d0: 4b33 043f 8c33 42be aa1a 8c3e 6622 babd
000003e0: 8382 16be d359 b63e bed9 f4be 1e87 f13e
000003f0: 120b f1be d06c 1abe f308 32be 6a5c d4bc
-0.30489314 -0.019227607 0.3700659 0.38874376 0.099131584 -0.0021503877 -0.18907712 0.30012769
-0.13581681 -0.3448443 0.29771978 0.028918445 -0.35988492 0.20016451 0.23801596 -0.34064502
0.38471842 -0.3141179 0.07653232 -0.0076024807 0.16455385 -0.4490226 0.41715702 0.27378112
0.0866504 0.06576103 0.18552257 0.1426527 0.18301351 -0.49552 0.20883302 0.04236294
0.1258508 -0.4574132 0.05952352 -0.1192683 0.49726662 0.26672372 0.0030945782 -0.19829436
-0.44354314 -0.21921173 -0.45974964 0.14818257 -0.12933086 0.12885837 0.026151523 0.3448064
-0.43972415 0.29380214 0.012988618 0.1287924 0.27006137 0.27175036 -0.011015072 -0.458481
0.0654671 0.03209089 0.25181496 -0.24912876 0.17102978 0.27027914 0.037297666 -0.4570526
-0.49737614 -0.2473334 -0.072864994 -0.22561412 0.19174324 -0.03946644 0.13492858 -0.32394612
0.070396796 0.4484428 -0.050620973 0.3215195 -0.35128176 -0.38320583 -0.07344832 -0.11878816
0.013972776 -0.2949832 -0.06167009 -0.06677261 0.23505467 -0.1794431 -0.384849 -0.21736856
-0.09678161 0.28484854 0.18124196 -0.013469246 -0.21907514 -0.3093438 -0.041753113 -0.405164
0.038530782 -0.21975212 0.1783718 0.3097672 -0.34217438 -0.12889165 -0.11621836 -0.26854032
-0.3348778 0.19377312 0.33978397 0.12835304 0.37787756 -0.08978488 0.27539372 0.1645258
0.088409334 0.08316717 0.27458337 -0.09093239 0.12904462 0.118147016 0.40893754 -0.4168607
-0.093197174 -0.43738842 0.21808127 -0.39338738 0.23674206 -0.42611548 -0.4489141 0.13736068
0.084980525 0.044329472 0.101237185 -0.040302195 -0.36024022 0.37244344 -0.35041088 -0.1913402
-0.04632494 0.34072426 -0.15172207 -0.40915966 -0.47358936 0.29305425 -0.43888682 -0.13765097
-0.03947967 0.15927318 0.4332299 -0.3339377 0.071459234 0.32612032 -0.38475668 -0.3035791
0.28863987 -0.07128415 -0.27715808 -0.20253539 0.19601467 -0.14654694 0.17568247 -0.03520236
-0.30181307 -0.09165355 -0.14826477 0.27429107 -0.4779591 -0.3820471 0.1620706 0.20385073
-0.29170763 -0.48236677 -0.0132319955 0.21193838 -0.4307704 0.35001767 -0.39738148 0.07733948
0.13568799 0.18031283 0.29611763 0.10895332 0.016645402 -0.14032824 -0.33761966 -0.4152971
-0.26109713 0.057266787 0.21744013 -0.20251483 0.17526698 0.0019244773 -0.40244687 -0.05037018
-0.22727562 0.0033233159 -0.18641615 -0.08633845 -0.08764588 0.4257823 -0.14330971 0.3277519
0.47773868 0.0015798348 0.23295248 0.4127906 0.21684381 0.09416815 -0.02920234 -0.49570704
-0.06485849 0.033876665 -0.0713194 0.14636615 -0.2258712 -0.18653034 0.3304073 -0.4249975
0.4847022 0.18416235 0.10958451 0.38030493 0.14339152 0.16438673 -0.36773086 -0.49952
0.22622433 0.07995795 0.102587245 0.067091785 0.19012654 -0.3837949 -0.08721205 0.23897576
-0.41344208 -0.43118924 0.0153797 -0.37719685 -0.3418758 0.13408832 -0.25997508 -0.39169872
-0.08103299 0.08470851 0.23988454 -0.43475002 0.51640767 -0.18964976 0.27364093 -0.09088592
-0.14698224 0.35615405 -0.47822374 0.471734 -0.47078758 -0.15080571 -0.17386226 -0.025922973

fc2.weight f4 [256, 256]
00000000: 8898 e33c 0971 db3b ee9f 71bd 23cd 38bc
00000010: ec86 e8bc 241a 6d3b 436e 8ebc 81c7 e9bd
00000020: bc0e f63c 2321 34bc 1863 0c3c 0418 b43c
00000030: 561c 37bd 8789 45bd dc18 6ebd 924d 6a3d
00000040: 2bd3 e13b 5f92 bebc c9c3 583b cd15 0ebb
00000050: 28d5 8dbd c42b 003d f528 43bd 852d cdbd
00000060: f965 4cbc 20b1 70bc 3f2f 08bb eeaa 60bc
00000070: 549c a7bd 002f 1d3d 16b9 36bd 66b3 aeba
00000080: 3836 74bc 20e3 58bd 9097 91bc f823 5bbc
00000090: 081a e1bc dded 9c3b 2a2d 77bb 991c 37bd
000000a0: c62b 4ebd b4d3 19bd 784d eb3c aa43 ddbc
000000b0: 60bc 80bd 7803 85bc ffb4 60bb 4d4a 5fbd
000000c0: 3875 bd3c e655 6abd 4b47 70bd dbac b5bd
000000d0: 36e7 cebd 452e 663c 73e4 44bd e088 4c3b
000000e0: 7c95 183b 9b76 b9bd bed2 27be a8dc 59bd
000000f0: d5b2 b9bc 7d75 b1bd 108f a1bc c2b5 07bd
00000100: e88d 1dbd 70a8 bc3c 55bb a9bd c94d 40bd
00000110: 1c5e da3b 3088 143c 3e36 a8bd 8c62 9fbc
00000120: f852 9dbd 627f d6bc a471 2abd 5221 bc3c
00000130: e4ce 193d 0c4b 6ebd 71fd a7bd 599b c33b
00000140: c2ec 343d 3ec6 90bd f92a 84bb 1d19 a9bd
00000150: b57c 98bc d0f9 bfbd c05d 44bb 7901 01bd
00000160: 801a 33bd 30b8 90bd 147e c9bd 4f4c 1cbd
00000170: a83f 4bbc 7c1b bf3c 3e12 453d 8a63 2d3d
00000180: ecd1 18bd 0426 863a be2b e2bd 0325 a5bd
00000190: 22b1 e9bd 381e 9a3c 4035 f53c fc1c 67bd
000001a0: c8b6 023c 479b 59bd 5315 d3bc ec24 093b
000001b0: 5537 7bbd d420 003c 0f17 0bbd 1898 093c
000001c0: 05be 813d 7d3e 1fbd 7e16 5fbd 57a7 c0bb
000001d0: 47aa 3bbc fb92 45bd 6e75 57bd 04b2 b63c
000001e0: 476f 25bd aa0a 743d 2e7b 7cbc 5825 24bd
000001f0: ec5a a7bd b3ce 8ebc 1ac0 34bd 469d a9bd
00000200: a1a8 d9bd f97e f33b 2b75 aebc 044f 83bc
00000210: 089d 4b3c 8682 cebd 68d0 7a3c 458b 0e3d
00000220: af11 2ebd 2753 38bd a4a2 863c 1808 fb3c
00000230: 586b e5bc a637 9bbc f40a ac3c 1c7c f93c
00000240: 321c cb3c 57cb 9cbd 5dc4 f3bc dce4 633d
00000250: 9049 2ebd 5fa0 3fbc a5f4 a43c 6d12 d4bd
00000260: e64b d5bd 7aea ddbc ce97 163d 5cff 463d
00000270: 9d81 10bd 2c3c 00bd 365d 41bd af5c 7dbd
00000280: 003a 4db9 0d7b adbc 966d 5ebd 3562 a93b
00000290: a4a0 5e3d 9f04 a4bd 4309 bebc 1384 87bd
000002a0: 40ae 92bc 4a69 a8bd 854a 873b eda2 92bd
000002b0: ba57 6b3d b4b4 5d3d 80f7 38bc 06ce b6bd
000002c0: 527d 7fbd c450 a3bc e3d6 a0bd 0185 013b
000002d0: 9831 1ebd 4573 bd3c 0b2e 0d3d d408 d6bc
000002e0: 5048 44bd 213d 673d 5cf8 d5bd c715 8ebd
000002f0: 9833 b8bb d38a 7a3c c863 b4bc d356 253d
00000300: 6b2c 43bc a32a a9bd 9075 e6bb 5047 7b3d
00000310: ee00 4d3c 34b8 a53c a0c7 c53c 7e73 1c3c
00000320: afe9 483c bbb3 813d 6a2f 813b aa8c c8bd
00000330: 7987 b8bd 938a d4bd ba08 06bd 004f e2bc
00000340: eaaa d1bc ece2 cbbd 7c04 ffbc 5156 a3bd
00000350: a09f 2bbd f046 993b 617f aebd e0bc 2abd
00000360: 8465 bebd d50d d6bc 1fa2 b33c 0e2f a2bd
00000370: c84d 0fbd d2a2 19bd cca1 2b3d 100f 44bc
00000380: 6f9f d9bd 0488 cbbd aa71 c3bd 1339 9f3d
00000390: 769c dfbc a0a9 703b 003b a8bd d1b2 16bc
000003a0: ce19 a33c fcd5 ddbc 49e8 58bb 9496 c73d
000003b0: c659 463d 7ed4 113c 80f1 78ba 2651 3c3d
000003c0: ae64 38bd 10ad ee3b 32c9 92bd 4914 993d
000003d0: 1a39 a0bd 50ba be3b a4d1 25bd 0e80 dfbc
000003e0: f520 9ebc b8c3 e73c 24a7 403d a9ed d2bd
000003f0: 0419 05bd 9efc 563d b146 cfba 360e 59bd
0.027782694 0.0066968245 -0.05899041 -0.011279377 -0.028384648 0.003617891 -0.017386561 -0.114150055
0.030036323 -0.010994229 0.008568548 0.021984108 -0.044704758 -0.04822686 -0.058129176 0.057202883
0.0068916283 -0.023263155 0.0033075681 -0.0021680475 -0.06925422 0.03129174 -0.04764648 -0.10018448
-0.012475484 -0.014690667 -0.0020780114 -0.013712628 -0.08184114 0.0383749 -0.044610105 -0.0013328611
-0.014905505 -0.05295098 -0.017772466 -0.013375275 -0.027478233 0.0047890977 -0.003771613 -0.044705007
-0.050334714 -0.03755541 0.028723463 -0.027009804 -0.0628593 -0.016237006 -0.003428757 -0.054514218
0.023127183 -0.057210825 -0.05866174 -0.0887086 -0.10102694 0.014049117 -0.04806943 0.0031209514
0.002328246 -0.09055825 -0.16388986 -0.05318895 -0.022668282 -0.08664987 -0.019721538 -0.033132322
-0.03846541 0.023029536 -0.08287684 -0.04694918 0.0066640507 0.009065673 -0.08213471 -0.01945617
-0.07681841 -0.026183788 -0.041612282 0.022965107 0.037550822 -0.05817704 -0.08202637 0.0059694466
0.044171102 -0.07069062 -0.004033443 -0.08256743 -0.018614152 -0.0937382 -0.0029963106 -0.031495545
-0.043726444 -0.07066381 -0.098385006 -0.03815871 -0.012405314 0.023328535 0.0481131 0.042331256
-0.037309572 0.0010234718 -0.110434994 -0.080637 -0.114107385 0.018813238 0.029932618 -0.056424126
0.007978149 -0.0531266 -0.025767004 0.0020926548 -0.061332066 0.007820327 -0.033957537 0.008398078
0.063350715 -0.038877953 -0.05446481 -0.0058793235 -0.0114541715 -0.048235875 -0.052602224 0.022301681
-0.040389325 0.059580483 -0.015410228 -0.040074676 -0.08171639 -0.017432546 -0.044128515 -0.08281951
-0.106278665 0.007430908 -0.021296104 -0.016028889 0.012427576 -0.10083489 0.015308477 0.034800787
-0.042497333 -0.045001175 0.016434975 0.030643508 -0.028005287 -0.018947434 0.021001317 0.030454688
0.024793718 -0.076559715 -0.02975672 0.05563818 -0.042550623 -0.01169595 0.020136187 -0.10355077
-0.10414867 -0.027089346 0.036765866 0.048583373 -0.03527986 -0.031307384 -0.047208034 -0.061855968
-0.0001957193 -0.02117684 -0.054303728 0.005169178 0.054352418 -0.08008694 -0.023197776 -0.06616988
-0.017905354 -0.08223207 0.0041287565 -0.07159982 0.05745671 0.05412741 -0.011289477 -0.089260146
-0.062375374 -0.019935973 -0.078534864 0.0019763114 -0.038621515 0.023126254 0.034467738 -0.026127256
-0.047920525 0.05645478 -0.104477614 -0.069377474 -0.005621385 0.015291887 -0.022020236 0.040366005
-0.011912446 -0.082600854 -0.0070330575 0.061347306 0.012512429 0.020229436 0.02414304 0.00954902
0.012262746 0.06333109 0.00394242 -0.097924545 -0.09010214 -0.103779934 -0.032723166 -0.02762556
-0.025594193 -0.09955391 -0.031130068 -0.07975448 -0.041900277 0.004677646 -0.08520389 -0.04168403
-0.09296706 -0.026129643 0.021927891 -0.07919131 -0.034986287 -0.037508793 0.04190235 -0.011966482
-0.10626113 -0.09938052 -0.09543164 0.07774558 -0.027296286 0.0036722198 -0.08214378 -0.009197907
0.019909766 -0.027079575 -0.0033097437 0.097455174 0.04842546 0.00890076 -0.00094964355 0.045975827
-0.04501789 0.0072838143 -0.07167281 0.07474572 -0.07823391 0.00582055 -0.040483132 -0.02728274
-0.019302825 0.028291568 0.047034398 -0.10299236 -0.03249456 0.05248701 -0.0015813914 -0.05299207

fc2.bias f4 [256]
00000000: 668c d6bc dc37 9abd 2736 bcbd 1b00 dabb
00000010: 923e ccbd 61e8 56bd 155f a2bc 52c3 70bb
00000020: c2c3 e1bd 2a0b b7bd d58c b1bd 30d2 23bd
00000030: 9164 1bbd f1eb 2dbd 5e99 573d 3b6a 6fbc
00000040: 83f2 89bd 62ff 81bd b51e 8cbd 089e ddbd
00000050: 2e9b 763d 8c4a 7abc f770 a2bc 174f 28bc
00000060: ec6a 06bd 4473 89bd 6f75 51bd 981e ac3c
00000070: 1624 2fbd 67b5 a2bd 2205 b4bc 38ac d8bd
00000080: 088b 4ebd 3a60 7dbd b8b4 f2bd f25b 9bbd
00000090: 10e3 8ebd 0ba3 11bd 0029 b8bb 5eeb c03d
000000a0: 483e 833c 16a9 ddbd 9335 4bbc 2b58 71bc
000000b0: 2986 05bd b73c 41bd 4234 b9bd de76 4ebd
000000c0: 6a88 063c 5419 fe3c 3e0e 14be 105c 27bc
000000d0: 85e8 4fbd 03f8 dfbd 8c27 c537 6205 9bbd
000000e0: f221 debc f341 fc3d 6644 0cbd 690f 95bd
000000f0: 1dfe a3bd d077 a8bc 3645 4cbb 84cd 393d
00000100: 3da4 40bd decf 44bd e455 49bd 572e 00bd
00000110: a79f 1fbe fa7d c7bd 8108 cd3d e7ee 66bd
00000120: ff13 86bd 03aa 9abd 69f6 6ebc c287 93bd
00000130: 0075 d4bd ab1d 993d 0545 8cbc 254f 7dbd
00000140: ec80 8fbd c023 cebb 8078 213c ea27 18bd
00000150: bddf 9bbb 7044 98bb 391a 6abd f211 e3bd
00000160: 0b42 45bd dff2 9b3c e6c1 86bd bbe2 35bd
00000170: 3ab8 90bd a98c 953d 32ac 53bd 075e a5bd
00000180: 90f3 38bc fb2e a63d f6ff 09bd d851 dd3b
00000190: 2133 92bd dae0 46bd f03f 24bd 1718 afbd
000001a0: 7240 97bd 7b84 4cbd 0c9d 00bd 49a2 6cbd
000001b0: 0bb3 33bd a8ad 2dbd a6e7 0fbd 9070 0a3d
000001c0: da41 03bd 8ae0 59bd 635d 4e3d a369 f9bd
000001d0: caad 13bd f9e6 85bd 3ba1 0abd da2a e0bd
000001e0: c60b 68bd a368 41bd 82cb b4bd 3ef9 39bd
000001f0: 5f2b 0dbe b174 6cbd e8b6 38bd 09a6 7abd
00000200: f665 6ebd 0092 19bc 5e04 4d3b d48e f3bc
00000210: b253 55bd f55b 89bc b392 babc c8e8 893d
00000220: 9112 ffbc 74ea 80bd ba1b 4bbd 2e05 babc
00000230: debc 0abc 988c 5dbc 5089 cc3b c852 8bbd
00000240: 5057 fe3d 5c9c de3c c824 7c3d 78b1 7abc
00000250: f26f 0ebd 04be de3d 8ebc 90bd 197d f1bd
00000260: cc98 0b3d d722 8cbd 9adc 8abc 3f61 b3bd
00000270: 8e44 74bd 28bb 223c 599d 66bd 763e a53c
00000280: 3467 f5bc 41bf 79bd 8cfa b7bd 48c5 c43c
00000290: 14d6 81bd 5d6d 7fbc 80ce 71bd 3cd1 31bd
000002a0: 28e5 98bd b524 c8bd 5c9d d0bc 4cf7 283e
000002b0: b392 debb ca7e 183e 5c98 adbc 0d2e 473a
000002c0: 84fe a33a 3d9a a63d 53b5 d3bd 9c97 65bc
000002d0: 5d0d e2bd 3f73 d7bc 782d 63b9 e078 0dbc
000002e0: 53b4 92bd c253 9ebb 206e 06bd 8b21 f3bd
000002f0: d6ab 0bbd f7bf aebd 1c5c b03d edcc 90bd
00000300: eb8c 0f3c 5bee 7abc 47e5 00bd 55ac ffbc
00000310: 71cc 6fbc d5a9 513d 2ee0 9bbd ab6a acb9
00000320: 8903 adbd 6dd5 bc3c c8c2 e5bc 80ac 56bd
00000330: 0a23 a0bd 88c6 7c3c 71db 4dbd fc02 f8bd
00000340: f5ec 9fbd a922 28bd b5f0 11bd 3c05 e3bb
00000350: fc3f 1e3d b8ef 2ebd 761d 89bd d82d 90bc
00000360: d531 b0bc e6a2 b2bd 539b 34bd c1d8 b0bd
00000370: 2865 5c3c 44a1 6dbd b694 cfbd 1194 3dbd
00000380: 58c2 63bd e064 13bc c014 2fbd c1e2 0fbd
00000390: 416a a9bc 0da9 89bd d050 b8bd 39aa f4bd
000003a0: f048 d6bc 808b 4b3b 8809 073d 58c2 ddbc
000003b0: b799 06be 8607 c9ba 1f73 a9bb 14fa 36bd
000003c0: c4b1 4abd a527 033e 60d1 1ebd a060 fdbb
000003d0: 6bc8 15bd 8df8 973a 84fc 8ebd d349 49bd
000003e0: 8d8b 97bd 00a4 96b9 a7f3 b738 1530 b1bd
000003f0: 32aa 68bd b7c6 183e 2b5c 92bd a754 aabb
-0.026189994 -0.075301856 -0.09190016 -0.0066528446 -0.09972872 -0.052467708 -0.01982073 -0.0036737514
-0.11023666 -0.08937676 -0.0866944 -0.039995372 -0.037937704 -0.04246134 0.052636497 -0.01461273
-0.067357086 -0.063475385 -0.068417944 -0.10821158 0.060206585 -0.015276562 -0.019829256 -0.010272763
-0.032816812 -0.06711438 -0.051137384 0.021010682 -0.042759024 -0.07944756 -0.021975104 -0.10579723
-0.05042556 -0.061859347 -0.118508756 -0.075858966 -0.069769025 -0.03555588 -0.005620122 0.09419893
0.016020909 -0.10823266 -0.01240291 -0.014730494 -0.03259865 -0.047177043 -0.090431705 -0.05040633
0.008211235 0.031017937 -0.14458558 -0.0102148205 -0.050758857 -0.10935976 2.3502645e-05 -0.07569386
-0.027115796 0.12317266 -0.034244917 -0.0727833 -0.08007453 -0.020564944 -0.0031169183 0.04536201
-0.04703163 -0.0480498 -0.049154177 -0.031294193 -0.15588246 -0.09740825 0.100113876 -0.05638018
-0.06546783 -0.075519584 -0.014585116 -0.07203628 -0.103738785 0.07476362 -0.017122755 -0.061843056
-0.07007012 -0.006290883 0.00985539 -0.03714744 -0.0047568963 -0.0046468303 -0.057153914 -0.11087407
-0.048158687 0.019036708 -0.06579952 -0.04440568 -0.070663884 0.073022194 -0.05167789 -0.08074575
-0.011288539 0.081144296 -0.03369137 0.0067541413 -0.07138658 -0.04855428 -0.040100038 -0.08549517
-0.07385339 -0.04993103 -0.03139977 -0.057771955 -0.04387192 -0.04240194 -0.035133027 0.033798754
-0.032045223 -0.053192653 0.05038203 -0.12178352 -0.03605441 -0.06538195 -0.033845168 -0.10945673
-0.056651853 -0.04721893 -0.088278785 -0.04540371 -0.13786076 -0.057728473 -0.045096308 -0.0611935
-0.058202706 -0.009373188 0.003128312 -0.029731192 -0.05208177 -0.016767481 -0.02277503 0.067338526
-0.031136783 -0.062947184 -0.04958699 -0.022707548 -0.008467881 -0.01352229 0.006241955 -0.06802899
0.12418997 0.027174167 0.061558515 -0.015301101 -0.034774728 0.10876086 -0.07067214 -0.117914386
0.034081265 -0.06842583 -0.016950894 -0.087587826 -0.05963569 0.009932317 -0.056302402 0.020171385
-0.029956438 -0.06097341 -0.08983335 0.024019852 -0.0633966 -0.015590039 -0.059034824 -0.043412432
-0.07465583 -0.09772626 -0.02546566 0.16500586 -0.0067923903 0.14892116 -0.021190815 0.00075981097
0.0012511765 0.08134887 -0.10337319 -0.014013197 -0.11037705 -0.02630007 -0.00021665345 -0.008634776
-0.071633 -0.004831762 -0.032819867 -0.11871632 -0.034099422 -0.08532708 0.086113185 -0.070703365
0.008761625 -0.015315617 -0.031468656 -0.031210104 -0.014636145 0.051187355 -0.07611118 -0.0003288587
-0.0844794 0.023050988 -0.02804698 -0.052410603 -0.07819183 0.015428193 -0.050258104 -0.12109944
-0.07808868 -0.04104868 -0.035629947 -0.006928114 0.03863524 -0.042709082 -0.06695072 -0.017599985
-0.021508137 -0.08722477 -0.04409344 -0.086350925 0.013451852 -0.058015123 -0.10135786 -0.046283785
-0.055605263 -0.008996218 -0.042744398 -0.03512836 -0.020680549 -0.06721697 -0.08999789 -0.1194653
-0.026157826 0.003105849 0.032968074 -0.02707021 -0.13144575 -0.0015337325 -0.005171194 -0.044672087
-0.049485937 0.12808092 -0.038773894 -0.007732466 -0.036568087 0.001159446 -0.06981757 -0.04914267
-0.07399664 -0.0002873242 8.771504e-05 -0.08651749 -0.056802936 0.14919554 -0.07146486 -0.0051980796

fc3.weight f4 [256, 256]
00000000: 3082 87bc d826 9a3c 682e 3e3c 2421 8abc
00000010: 684d db3c 4c4d ecbc f0ce edbb 5843 c83c
00000020: 8001 dfbb 14a3 bdbc e26c 293d 9c56 d53c
00000030: 084a 1dbc 3e50 323d e0cc 0a3c f8c4 fd3c
00000040: 3a5f 503d 88ad 693d 9834 173c 46ec 09bd
00000050: 88a9 ec3c 58e2 333c a230 0abd 88ce 2b3d
00000060: aa0c 38bd e478 173d 8870 bb3c d2af 053d
00000070: 8833 973c 103b 663d 2cc8 ecbc a060 34bc
00000080: bcac 9fbc 9086 ef3b decf 57bd bab3 65bd
00000090: f4dd 84bc 6880 253c e065 eb3c 2c8a 4a3d
000000a0: 74a0 21bd 226d 6dbd cc27 3a3d b0e0 c5bb
000000b0: 72b3 683d f461 42bd 80dc 7cbb 6cf9 96bc
000000c0: 2a5c 173d 3c5e 813c 34da ae3c 5cb9 db3c
000000d0: 9068 da3c aa97 1ebd b453 773d e0e9 4b3b
000000e0: 8ade 58bd 1029 3bbd 24f5 70bd b0e3 573c
000000f0: a0e7 693d 448e 23bd e045 603b 2aec 203d
00000100: a8f5 b1bc 6294 573d 1438 07bd 3694 6abd
00000110: 3479 70bd a0f4 8dbb 80ae 4c3a 82c6 483d
00000120: dc41 c5bc d038 02bc eeb9 1e3d a8ce c93c
00000130: 7c5d dcbc a044 81bb 006d ea3c 5c81 3b3d
00000140: 5e84 1bbd 34c4 5d3d 8a81 37bd 2c81 a63c
00000150: 480b 3bbc d0f8 78bd e019 41bb a8d0 d33c
00000160: 427c 01bd 9e1c 313d 4846 47bc 2c18 27bd
00000170: 60e5 43bc e089 713d 6861 293d 72f2 6bbd
00000180: 30fc d1bb d8e6 ae3c e0fa 0f3d 6a8b 0dbd
00000190: 2049 75bc 6c95 003d 5200 2e3d 160f 7bbd
000001a0: 0e1a 3d3d 68af 3cbc c669 3f3d 34cf d5bc
000001b0: 4093 bc3b dcd4 db3c 6454 cabc 0017 f5ba
000001c0: 8098 d7ba 6269 703d 000b 0e3c 204d 01bc
000001d0: 9421 ebbc ecfc d2bc 84da b83c 8cf9 0a3d
000001e0: 040a 88bc 0008 feba 3cb1 cdbc 4ca4 6fbd
000001f0: 88b0 043c 5a99 23bd e079 28bd 605a 013d
00000200: fc87 f43c 4ccd 91bc eab9 1e3d c80a 06bc
00000210: 3064 aa3b e091 223c d0ce e6bc a03f d4bc
00000220: ae70 4ebd 3809 8dbc c08a 143c 86c9 653d
00000230: 203a 60bb 3698 603d 8483 e4bc b053 c1bb
00000240: 58f5 473c 9ec0 413d 30f0 4a3d 2cac 523d
00000250: cc44 753d 6450 42bd 0cda 4dbd 8013 d0bb
00000260: ca7e 4fbd e036 dabc 4a6a 70bd 4036 d43a
00000270: fc8c 57bd 1eef 0abd 20af cfbc 547a 67bd
00000280: 904b 0dbd 28ad 193c 16ff 29bd 5cb6 8b3c
00000290: 4c8a 04bd 4074 b23b 68ba 6b3c 5885 5a3c
000002a0: 16d8 32bd d4d1 3dbd b45b a4bc 547e 1bbd
000002b0: b213 7b3d f0e0 c73b 5847 713c bc38 7d3d
000002c0: 9240 7abd 0889 63bc 7c8c a23c deea 2ebd
000002d0: 103d f33c 88d6 8fbc d47c 1a3d 8654 3c3d
000002e0: f4e1 773d caa8 303d 3a42 12bd 54f2 a3bc
000002f0: bacf 0ebd 805a 493d a092 5e3c 0812 603c
00000300: c057 14bc 0838 73bd be1c 043d b6f5 0f3d
00000310: ce40 4cbd 40a9 6a3d 90d8 bbbb d078 02bc
00000320: a00e 9a3c a88a 133c 54e5 813c bc8a a5bc
00000330: a8cc 9d3c c0e8 7cbb a23c 613d 5005 e9bc
00000340: 3ea5 39bd 600d a1bb 987c 5a3c a8f5 f5bc
00000350: 1214 4fbd 50e2 0e3c 5a09 743d 6828 0dbc
00000360: f0be 4dbd ae18 0d3d ccb6 bd3c 50ab c03b
00000370: cc7c bebc 7471 34bd b8f5 49bc 007e 1dbc
00000380: 664f 6dbd b0f3 533d 9ecb 2f3d 5800 54bc
00000390: 940a b7bc a2a5 79bd 8e5c 263d 5627 21bd
000003a0: d072 4a3d dc00 893c c8ad 43bd 78e4 ce3c
000003b0: c0b3 aebb 3af8 713d 5c20 fd3c 30c0 c1bc
000003c0: 9217 0dbd 4cc3 123d 68f3 033d 0068 83b9
000003d0: 78af 23bc 7e6e 7d3d 1076 7ebd 20f7 1ebb
000003e0: 4e0d 3cbd 00e8 ecb8 781e 32bc d680 36bd
000003f0: bcee 92bc bab4 44bd 703c 60bd 1a0a 03bd
-0.01654157 0.01881735 0.011607744 -0.016861506 0.026770309 -0.028845452 -0.007257335 0.024446175
-0.0068055987 -0.02314905 0.041363604 0.026042275 -0.00960017 0.043533556 0.008471698 0.030977711
0.050872065 0.057050258 0.009228848 -0.033672594 0.028889433 0.0109792575 -0.033737786 0.04194501
-0.044933952 0.036980525 0.022880808 0.03263838 0.01845719 0.05620867 -0.028904043 -0.011009365
-0.019491546 0.0073097423 -0.052688472 -0.056079604 -0.016219117 0.010101415 0.028735101 0.049448177
-0.03945966 -0.057965405 0.04544811 -0.0060387477 0.056811757 -0.047456697 -0.0038583577 -0.01842948
0.03695313 0.015792005 0.021344282 0.026821785 0.026661187 -0.038718857 0.06038256 0.0031114742
-0.052946605 -0.045693457 -0.058827534 0.0131768435 0.05710566 -0.039930597 0.0034221336 0.039287724
-0.021723583 0.052631743 -0.033012465 -0.05727025 -0.05870934 -0.00433214 0.0007807985 0.049017437
-0.024079256 -0.0079481155 0.038751535 0.024634674 -0.026900046 -0.0039449483 0.028616428 0.045777664
-0.037968032 0.054142192 -0.044801272 0.020325266 -0.011416264 -0.06078416 -0.0029464886 0.025856331
-0.031612642 0.043240182 -0.012162752 -0.040794536 -0.011956543 0.05896938 0.04135266 -0.05760426
-0.006408237 0.02135031 0.035151362 -0.034556784 -0.014971048 0.0313925 0.042480774 -0.061293684
0.046167426 -0.0115164295 0.046731733 -0.026099779 0.0057548583 0.026834898 -0.024698444 -0.0018698871
-0.0016448647 0.05869425 0.008669615 -0.007891923 -0.028702535 -0.025755368 0.022565134 0.033929393
-0.016606338 -0.0019381046 -0.025108926 -0.058506295 0.008098729 -0.03994117 -0.041131854 0.03158033
0.029849999 -0.017798088 0.03875152 -0.008181281 0.0051999316 0.009922475 -0.028174788 -0.025909245
-0.05040043 -0.01721631 0.009066284 0.05610039 -0.0034214333 0.05483266 -0.027894743 -0.005899869
0.012204491 0.047302835 0.049545467 0.051433727 0.059880063 -0.047439948 -0.050256774 -0.006349981
-0.050658025 -0.026637495 -0.058695115 0.0016190484 -0.052624688 -0.033919446 -0.02535206 -0.056513146
-0.03449589 0.009379663 -0.041503035 0.01705473 -0.032358453 0.005445987 0.014387704 0.013337456
-0.043663107 -0.046342686 -0.020063259 -0.037962273 0.06129808 0.0060998127 0.014726482 0.061821684
-0.061096735 -0.013887651 0.019842379 -0.042704456 0.029692203 -0.017558351 0.0377167 0.045979045
0.06051822 0.04312972 -0.03570769 -0.020013012 -0.034866072 0.049158573 0.013584763 0.013676174
-0.009054124 -0.059379607 0.032253973 0.035146438 -0.04986649 0.057290316 -0.0057326034 -0.007963374
0.018805802 0.009005226 0.015856422 -0.020207755 0.019262627 -0.0038590878 0.054989465 -0.028444916
-0.045323603 -0.0049149245 0.0133353695 -0.030024365 -0.05055625 0.008720949 0.05957923 -0.008615591
-0.05023092 0.034447365 0.023158453 0.005879797 -0.023252867 -0.04405351 -0.01232665 -0.00961256
-0.05793705 0.05174607 0.042918794 -0.012939535 -0.022343911 -0.060948975 0.04061561 -0.039344154
0.0494259 0.016724043 -0.047773153 0.025255427 -0.0053314865 0.059074618 0.03089922 -0.023651212
-0.034446307 0.03583078 0.032214552 -0.00025063753 -0.0099905655 0.06187295 -0.062124312 -0.0024256185
-0.045911126 -0.0001129657 -0.010871522 -0.04455646 -0.017936103 -0.048023917 -0.054745138 -0.031992055

fc3.bias f4 [256]
00000000: 6c5e e9bc 675e 0abe 9ccc 23bd 672c 84bd
00000010: 4791 a7bd f13e e23b 5995 c1bd b687 d2bd
00000020: 9e08 f23b 6ea2 d63d b7e2 54bc c36c 39bc
00000030: e00f 9e3d a4ce 2cbd a9ee e9bd 8450 8bbd
00000040: c8da b73d 1d36 31bd e3cd c7bd e77c bdbc
00000050: 86b2 3b3e bcb4 50bd 4a84 13be e741 303e
00000060: 46a4 dcbd 314a 983d 53bd 1c3c 9bca acbd
00000070: 3f1b c03c f953 15bc 41b7 57bb e1e2 b8bd
00000080: a735 393e 5b8b 12be a3ef 48bd ae76 b3bd
00000090: 2e14 b3bd 9d11 e73d ada5 99bd 8a39 d2bd
000000a0: ea46 4abd 2fe7 dfbb 62d2 1a3e eb59 ddbd
000000b0: 1551 52bd 1c53 eabd 268e 0e3d 8f9d c8bd
000000c0: 6ad7 04bd b1b2 14be 7dc2 d0bd 0a59 84bd
000000d0: cefd 44be 5f83 38bd 35c7 e5bd 74b6 c2bc
000000e0: bf74 11be f4fa 9f3e 30cf aabc 4a24 e0bd
000000f0: 9189 debd d736 5dbe 475c 873e dc2b 88bd
00000100: 20fa bdbd 44a7 04be 0d6a 0abe bde9 c73d
00000110: cad2 8fbd 090f aebd e77f ed3c a221 adbc
00000120: 3455 a13e a721 4b3a 8b29 d4bd 8145 3ebb
00000130: 61f5 e3bd 3c6f 85bd df44 57bd de55 b63e
00000140: bd24 5f3d d0c2 05be c619 bdbd 34af cdbd
00000150: 4831 14bd 4bfe 93bd a652 c2bc db01 a2bc
00000160: f198 39bd c365 c6bd a962 20be fc4f e6bd
00000170: 55df e8bd 1273 cdbd 516e f2bd 633a 24bc
00000180: a181 983e e18a 5bbd 3d23 a2bd 0a80 4dbd
00000190: c26f 9ebc b91a 3fbc 579f 8fbd 5cf0 9bbd
000001a0: 58f9 27bd 6904 843e a9f9 10bd ee20 98bd
000001b0: 3172 a03e d5aa 10be d078 a5bc 1291 2d3d
000001c0: 6e7c f6bc 9f80 e6bc 4540 06be 9610 103e
000001d0: 208f 7fbd 9810 e9bc bd84 ccbc c8f8 cdbd
000001e0: a8a6 c7bd b245 d7bd 2365 14bd 25f9 8bbd
000001f0: e89a c6bd c345 32bd 80ce e6bd f530 9fbd
00000200: 2a81 ad3e 5537 8f3d dddc b1bd 646b 383d
00000210: 2a85 00be 277c d3bd b2d4 28bc c943 053e
00000220: 5ce5 29bd 7b21 9c3e 89fa eebd 09b4 cabd
00000230: 81bf 8abc a4f4 f2bc 84f1 88bd 52ae 1ebc
00000240: 49ee 23bd 7c7c d8bd 44a5 513e 750b 81bd
00000250: 23a3 c8bd 0079 d1bc aedd 66bd b789 1a3e
00000260: 21ed 5bbd 24ea d6bd ce29 38be 1d87 dcbd
00000270: 1141 e8bd 85d2 19be 96d7 e13d 7f10 57bd
00000280: fa2e c63d b88f d1bd 1eb4 bc3d 7800 64bd
00000290: aa65 77bd 2a21 57bd d037 d63b 7182 75bd
000002a0: 0db7 c53c 0597 11bd 7b83 76bd 96bb 28bc
000002b0: 271b c73d 3ace 0bbe c904 53bd 2c87 a5bd
000002c0: 6f37 3f3e 39ee 61bc 67b1 b8bd 5d8c bcbc
000002d0: 8b2e ca3c ef20 79bd 50b3 93bb 4617 b2bd
000002e0: 79c0 813e d720 d2bd 99ac 17be 1861 f83b
000002f0: 2e55 ea3c eaae 88bd a058 09be a642 b63a
00000300: 73de 04be 01c4 663c fdc7 a53e 6177 68bc
00000310: 5a9f 97bd 6257 92bd 84c5 80bc 42ad 38bd
00000320: 4e56 c83c b985 1abd 24f9 dcbd f579 d5bc
00000330: 9f97 9fbd 34fd 1ebd adf8 cabb fc06 e6bd
00000340: 9a13 c7bd b0ed fbbb 21c8 79bd 40bb d4bd
00000350: 8635 9abd 0aba adbd 58e8 c7bd 5304 383d
00000360: 9411 c0bc 06cd 63bd f129 433d 5384 dabd
00000370: e852 e8bb b66f 94bd 14d3 07bd 15f3 99bd
00000380: 38fd 743e 40db 87bc 92ca 033e 1d95 a1bd
00000390: ffcf c3bc 1e34 0cbd 76c9 b1bc cb6c cfbc
000003a0: b1be 25bd bd87 45bd bb1d 06bc 384c 643c
000003b0: 8a09 013d a5c1 a63e d070 07be 7346 27be
000003c0: aee1 10be 93d4 90bb dd17 e2bc 9d63 efbd
000003d0: 1b2e 68bd 0a02 1dbd 0b6c ff3d c3a2 d5bd
000003e0: 1c41 11be f596 9d3d 41d7 f6bc 19d2 8bbd
000003f0: 2182 a6bd a7c8 28bd d2fe 98bd 8ca2 e4bd
-0.028487407 -0.13512574 -0.039990053 -0.064537816 -0.08182006 0.006904476 -0.09452314 -0.10279791
0.007386281 0.104802 -0.012993506 -0.011317435 0.07717872 -0.042189255 -0.11422474 -0.068024665
0.08977276 -0.043264497 -0.09756067 -0.023130847 0.1832982 -0.05095361 -0.14405933 0.1721264
-0.1077352 0.07436026 0.009566623 -0.084370814 0.023450492 -0.009114259 -0.0032915624 -0.09027649
0.18086873 -0.14310972 -0.04905666 -0.08762871 -0.08744083 0.11282656 -0.07502303 -0.10264881
-0.049384035 -0.006832979 0.15119317 -0.10808166 -0.051346857 -0.11441633 0.034803532 -0.09795677
-0.032431997 -0.1452129 -0.10193346 -0.06462295 -0.19237444 -0.04504716 -0.11219636 -0.023768641
-0.14204691 0.3124615 -0.020850748 -0.109444216 -0.108660825 -0.21602951 0.2643759 -0.066489905
-0.09276223 -0.12954432 -0.13517018 0.09761379 -0.07022627 -0.084989615 0.028991653 -0.021134201
0.31510317 0.000774885 -0.10359486 -0.0029033127 -0.11130787 -0.06515357 -0.052555915 0.35612386
0.054478396 -0.13062596 -0.092334315 -0.10043183 -0.03617981 -0.07226237 -0.02372105 -0.019776275
-0.045311872 -0.09687378 -0.15662636 -0.112457246 -0.11370722 -0.100317135 -0.118374474 -0.010023686
0.297864 -0.053599242 -0.079168774 -0.050170936 -0.0193404 -0.011664086 -0.070128135 -0.07614204
-0.041009277 0.25784615 -0.035394344 -0.07428156 0.3133712 -0.14127667 -0.02019921 0.042374678
-0.03008863 -0.028137503 -0.13110454 0.14068827 -0.062392354 -0.028450295 -0.024965638 -0.10057217
-0.09748584 -0.1051134 -0.036229264 -0.0683463 -0.09697515 -0.04352356 -0.112698555 -0.0777301
0.33887607 0.069929756 -0.086847045 0.04502429 -0.12550798 -0.103264146 -0.010304617 0.13014139
-0.0414785 0.30494294 -0.116688795 -0.0989762 -0.01693702 -0.02965767 -0.066866904 -0.009685116
-0.04002217 -0.105706185 0.204732 -0.063010134 -0.09796741 -0.025570393 -0.056363754 0.15091597
-0.05369294 -0.104938775 -0.17984697 -0.10767958 -0.113405354 -0.15021713 0.11027448 -0.052505966
0.09676929 -0.1023249 0.09214042 -0.05566451 -0.06039969 -0.052521862 0.006537415 -0.05993885
0.024135137 -0.035544414 -0.060183983 -0.01029863 0.09721976 -0.13652888 -0.051518235 -0.080824226
0.1867349 -0.013789707 -0.09018212 -0.02301615 0.024680397 -0.060822424 -0.0045074597 -0.08695845
0.25342157 -0.1026017 -0.14811935 0.007579934 0.02860507 -0.06673987 -0.13412714 0.0013905361
-0.12975483 0.014084817 0.3237914 -0.014188618 -0.07403441 -0.07145573 -0.015719183 -0.045087107
0.024455216 -0.037725184 -0.10789707 -0.02605913 -0.07792591 -0.038815692 -0.0061941952 -0.11231801
-0.097205356 -0.0076882467 -0.060981873 -0.103872776 -0.0752974 -0.0848275 -0.09761113 0.044926
-0.023445882 -0.055615447 0.04764742 -0.1066977 -0.0070899613 -0.0724787 -0.033160284 -0.07517067
0.2392472 -0.016584039 0.12870243 -0.07889769 -0.023902891 -0.03422939 -0.02170251 -0.025320431
-0.04046506 -0.048225153 -0.008185799 0.013934188 0.031503238 0.32569614 -0.13226628 -0.16335468
-0.1414859 -0.004419872 -0.02759927 -0.116889216 -0.056684595 -0.038332023 0.124717794 -0.10431435
-0.14184994 0.076948084 -0.030131938 -0.06827182 -0.08130289 -0.041206982 -0.07470478 -0.11163816

classifier.weight f4 [16, 256]
00000000: 0472 1fbd d544 1abd cfe9 5f3d cc5d abbc
00000010: c8ea a73b 0760 073d ac84 e0bc ef29 19bd
00000020: 2dfe c73b fd44 fe3c b15e b93d 26e8 11ba
00000030: f6ad 85bd 1dcc c53d e7b3 d2bd 9229 11bc
00000040: c162 30be 96e2 e13d fcc7 25bd a520 b23d
00000050: 0c91 bdbd f80d 553d 91e6 d53c e138 cf3c
00000060: 3f14 bbbd 3666 a23d f282 a33d 7fdf 26bc
00000070: 8702 953d 8c2b a03c ac44 a539 cb02 db3b
00000080: af49 5e3d aceb ae3d 8f2c 19bd 90db a7bd
00000090: 714f ca3d 5194 cfbd 8bcd ef3c 613a 223d
000000a0: 37c2 6f3c 227b c83c dc30 c0be cb2e 4dbd
000000b0: 1566 66bd d9fc f8bd a465 01be d93e 003d
000000c0: 5da1 e3bd 06ed 18bd 5160 04bc 5f61 3b3c
000000d0: 512b 383d 6330 5abc 51c8 c2bc 9e2b c03c
000000e0: 07bd d83d 19ae 01bf 5315 1f3c cbb0 833c
000000f0: 48f6 b7bd 0f2c 8abd 6ec1 02bf 4492 f6bc
00000100: af7d 903c 9f8c 83bb 98cb 523c 3bd8 74bd
00000110: 6654 a43d 78e3 97bd a0fd 903d 8db0 253c
00000120: 8a96 13bf 8afc 58be f42a a13d b42e be3d
00000130: 0fa3 60bd 2a64 133d d0d0 86bc f4e1 f6bd
00000140: 9a44 61be 4741 ed3d d3b0 dcb8 f432 a23d
00000150: 044b 8abc d2bc bb3c 7637 6a3c 749c 01bb
00000160: 0a6d b83d a08e b23c 6094 283d b824 90bd
00000170: a6d1 863b f571 e4bb 88da 933d e2ee ccbd
00000180: 4a28 74bf 15f2 be3d 143c 463d 2c0b 1c3d
00000190: 9e73 e73d 1b08 92bd 6d98 663b cafc 7a3c
000001a0: 8ef4 d9bb eca7 38be 5561 0d3d 422f 6cbd
000001b0: 5e59 acbe e53e adbd bde1 133d be16 953d
000001c0: 3e1b feb8 b572 33be 6a11 6f3d a626 913d
000001d0: ae68 943c 9691 b43c 6735 bc3d f82d b03c
000001e0: 61d8 28bd c763 4abd aff0 81bc 9612 9fbb
000001f0: 89a6 c43d 2ba9 cf3d 0399 bfbc 3ae4 f3bd
00000200: 1a67 e6be 65a1 c4bd 40f8 cc3c f777 8ebe
00000210: 95a2 29be e302 1dba e3bd 24bd 1b1e 8a3c
00000220: 909b b6bd 3b03 edbc 1aaa 79be 644e bd3c
00000230: fb35 493d f56a 29bd d420 993b 0f40 19be
00000240: 83e6 c23d a961 cc3b afca 02be 77a0 723d
00000250: 9350 c0bc fb4e 6dbd b32a 913d 3dad cdbd
00000260: 5b36 1b3d 8e9c 873d 81b0 cabd 9dc6 573d
00000270: 7e93 dfbc b280 8ebc 83b9 d4bd 7511 8bbc
00000280: feee 5ebe 1582 b9bc bdf2 023d f0df 61bd
00000290: b5c4 bd3d c6e8 093b 76ac 48bd 5c65 30bd
000002a0: 6d57 8f3d da35 5d3d 5b64 96bd c304 d2bd
000002b0: c3ef 593a ff21 443b 0f7c 803d c59d c63c
000002c0: 62db a6bd 96ec dbbd 8131 103d f0aa 9ebe
000002d0: 0f11 033e f30f 203d 44df 153d 0169 5e3d
000002e0: 2a7e b7be b14f 90bc 9293 a43d 7bb4 603d
000002f0: d173 3b3d 77a4 2b3d b809 5abe 402b 50bd
00000300: c1a3 ca3c 37e1 d43c babc 9fbe 8c63 9a3d
00000310: b866 373d 1ccb d83d 7cb4 3bbc 770c 09bd
00000320: 1cef 9ebd 1911 4f3d 7dea 4c3d 551c 113d
00000330: 1948 be3d 6529 da3c 9402 e7bd e51a b03d
00000340: 0b23 38bc a6fc 483c 67a9 723d ed3c 46bd
00000350: c6e0 283d 88c1 433b 921a 24bd d933 363d
00000360: 07f3 a4bc 2c8c 8ebe da17 893d 8880 adbc
00000370: a63b 4bbe f640 13be a227 843d 2752 883c
00000380: 99f5 c1be b12f 07bd 1c4e 3e3c 927c a73d
00000390: 01c2 8f3d 2e7e 283c 3c2f 99be 8428 193d
000003a0: ac13 c83c 8031 0f3d 9fc9 c63d 561a 0fbb
000003b0: 3497 ad3d ceae 87be 1abc 423d 4b82 36bd
000003c0: 23e3 063d ceaa af3d 8251 973d dfb1 883d
000003d0: 162a 9cbc 80ac f53c 0387 94bd ea67 04bb
000003e0: 8bb4 b63c 09a3 dc3d 992d 333d 0e19 fc3c
000003f0: 343d 27be 8b9f d4bd f138 703d 7798 febc
-0.038927093 -0.0376633 0.054666337 -0.02091875 0.0051244237 0.033050563 -0.027407013 -0.037393507
0.006103298 0.031038756 0.09051264 -0.0005565904 -0.06527321 0.09658072 -0.1028822 -0.008860009
-0.17225172 0.11029546 -0.040473923 0.08697633 -0.09256181 0.052015275 0.02611092 0.025295677
-0.09134721 0.079296514 0.0798396 -0.010185122 0.07275873 0.019552015 0.00031522417 0.0066836826
0.05426949 0.085410446 -0.03739601 -0.08196175 0.098784335 -0.10135711 0.029272815 0.039606456
0.014633707 0.024472777 -0.37537277 -0.050093453 -0.056249697 -0.12157602 -0.12636429 0.031309936
-0.11114762 -0.03733542 -0.008079604 0.011436789 0.044963185 -0.0133172 -0.023777159 0.023458298
0.10582929 -0.50656277 0.009709674 0.016075512 -0.08982521 -0.06746685 -0.510764 -0.030099042
0.017638056 -0.004014566 0.012865923 -0.059776526 0.0802391 -0.07416433 0.07079625 0.010112894
-0.5765158 -0.21190086 0.07869521 0.09286252 -0.054843005 0.035984196 -0.016456991 -0.12054816
-0.21998826 0.11584716 -0.000105233536 0.07919875 -0.016881473 0.022917185 0.0142954495 -0.0019777091
0.090051726 0.021796525 0.041157126 -0.070382535 0.0041143475 -0.0069715925 0.07219416 -0.10006501
-0.95373976 0.09323517 0.04839714 0.03809659 0.11301349 -0.07130452 0.0035186068 0.015319059
-0.0066514676 -0.18032807 0.03451665 -0.057662256 -0.33661932 -0.08459262 0.036103953 0.07279728
-0.00012116738 -0.17524226 0.058366217 0.0708745 0.018116321 0.022042077 0.09189873 0.021506295
-0.04122198 -0.04941156 -0.015861837 -0.0048545105 0.096020766 0.10139688 -0.023388391 -0.11908765
-0.45000535 -0.09601096 0.025020719 -0.278259 -0.16565926 -0.0005989505 -0.040220153 0.016860059
-0.0891639 -0.028932204 -0.24381295 0.023108669 0.049123745 -0.041361768 0.004673103 -0.14965843
0.09516623 0.006237228 -0.1277263 0.059235062 -0.02347592 -0.05793665 0.07088222 -0.10042808
0.037893634 0.06621657 -0.09896947 0.052679647 -0.02729201 -0.017395351 -0.10386946 -0.016976098
-0.21770856 -0.022645036 0.031969775 -0.055145204 0.092660345 0.0021043285 -0.048992597 -0.043065414
0.06999097 0.054006435 -0.0734336 -0.102548145 0.00083136203 0.002992749 0.06273662 0.024245152
-0.08147313 -0.107384846 0.03520346 -0.3098979 0.12799476 0.03907771 0.036589876 0.05429936
-0.35838443 -0.017616125 0.08035959 0.05485962 0.045764748 0.041904893 -0.2129277 -0.050822496
0.024736287 0.025986297 -0.31198674 0.07538518 0.044775695 0.10585615 -0.011456605 -0.033459153
-0.0776045 0.050553415 0.050028313 0.03542741 0.09291095 0.026631067 -0.112797886 0.0859888
-0.011238824 0.012267267 0.059243586 -0.048397947 0.041229986 0.0029869992 -0.040064402 0.04448304
-0.020135416 -0.27841318 0.066940024 -0.021179453 -0.19846973 -0.1438025 0.06452872 0.016640736
-0.3788269 -0.033004466 0.011615302 0.08178057 0.07019425 0.01028399 -0.2991885 0.037392154
0.024423443 0.034959316 0.09706425 -0.0021835766 0.08476105 -0.26500553 0.04754267 -0.04455785
0.03293146 0.085775 0.07388593 0.06674551 -0.019063037 0.029989481 -0.07252314 -0.002020354
0.022302886 0.10773284 0.043744657 0.030773666 -0.16331941 -0.10381993 0.058648054 -0.03107856

classifier.bias f4 [16]
00000000: b69d afbd bac0 47bd a1a5 06bc d9dd 9d3d
00000010: 8d1c 2a3e 70c0 e03c 44b4 de3d 4c08 c33d
00000020: 1616 913d c6c0 193d 52a7 7f3d 2eb3 443c
00000030: 4282 d3bd bf05 aabc ab0f 13be 19c1 4abe
-0.08575003 -0.048767783 -0.0082182 0.0770833 0.16612454 0.027435511 0.10874227 0.09523067
0.07084291 0.03753736 0.06241543 0.01200561 -0.10327579 -0.020754693 -0.14361446 -0.19800223
