transfer17_28_45_22_10_12_FullyConnected.pth (torch, 550959 bytes, 8 tensors)

fc1.weight f4 [256, 4]
0.43708313 0.3005948 -0.09420438 -0.53013563 -0.4668575 -0.36826545 -0.44476926 -0.48026085
0.36168867 0.4342581 -0.25764358 0.37624106 0.124979496 -0.5657957 0.28393984 0.06924605
-0.24780339 -0.19392836 0.36998475 -0.45343316 -0.38703203 -0.10444617 0.46485907 0.3874154
0.26040593 -0.7332867 -0.7010941 -0.053868126 0.3309751 -0.30746302 -0.42102286 0.086132
0.08985025 0.31755406 -0.3980859 -0.42098624 0.058273196 0.048059583 -0.30920374 -0.2573418
-0.036493253 -0.5416464 -0.6914873 0.25145242 0.1157707 -0.2847013 -0.10172424 0.31628954
-0.42951366 -0.60186684 -0.04080767 -0.12550625 -0.5685197 -0.43980777 0.25810975 0.19898084
-0.13452746 0.5781982 -0.29304272 -0.43260384 0.3123371 -0.30414897 -0.300248 -0.27641606
0.13409877 0.5187587 0.5456761 -0.095312655 -0.5243943 0.06985045 0.05780786 0.17644422
-0.35915357 -0.37735677 -0.042616248 -0.1977821 0.10859633 -0.2471973 0.1763232 0.14988409
-0.3826723 -0.02824837 -0.10190123 0.008021712 -0.25252163 -0.47870803 -0.20773542 0.035800695
0.32063496 -0.24655347 0.45538786 -0.2639432 0.0034791003 0.31664732 0.15728568 -0.056309022
-0.4450038 0.4919879 0.1445403 -0.26293284 -0.29918522 0.4887857 0.45587754 0.2026505
0.34375328 0.11795465 0.039822962 -0.1228436 0.11283934 0.3555637 -0.19972593 -0.38559246
-0.2544716 0.29070216 -0.30668914 -0.48363388 -0.2944249 -0.3865258 0.09050727 -0.46509272
-0.31359375 0.31911796 -0.4995336 -0.41239023 -0.22929668 0.27792734 -0.48709238 0.007464111
-0.44344568 -0.4037062 -0.64705646 0.20958489 0.15449795 -0.37147886 -0.2161222 0.2525491
-0.3159564 0.34863716 0.5609137 0.0059687234 0.08380735 -0.24687338 0.45337903 -0.12113911
-0.18773253 0.1448844 -0.05844846 -0.29957074 -0.018311381 0.42886394 -0.4760883 -0.34763432
0.0025287804 -0.37277922 -0.6704988 0.012105615 0.46182895 -0.36224416 -0.12601715 0.09222382
-0.41977608 -0.09492733 -0.110969536 -0.033254214 -0.45633084 -0.2627232 -0.27157086 -0.061291397
0.29604545 -0.59156346 -0.6079683 -0.014809844 -0.10887128 -0.005954325 0.00048792362 -0.00797224
-0.2652092 -0.2825327 0.050123632 0.19217068 -0.08384832 -0.47830117 -0.0970931 0.06879085
0.19631505 -0.3267063 0.27226585 -0.4953546 -0.4418714 0.12614465 -0.3746761 0.1129421
-0.32419306 0.049128473 0.3106417 -0.298419 -0.38657326 -0.19045231 -0.5440439 0.21306673
-0.29377186 0.11252284 -0.11101556 0.114965975 -0.32844603 0.09786602 0.3919996 -0.11355531
-0.3096637 -0.36858308 -0.06393021 -0.4788825 -0.05534369 0.6441051 0.005479296 0.291674
0.342282 0.2607115 0.2321579 0.008397941 -0.62950546 0.44298804 -0.36621305 0.054182973
-0.38757175 -0.17413843 0.12560171 -0.21377051 0.094362795 -0.6898617 0.02233687 -0.07997567
0.47396344 0.46849155 0.4077046 0.27335346 -0.21275753 0.35973275 0.21919495 -0.1158849
-0.31181595 0.09081821 0.53134525 0.26022497 -0.1780898 -0.4835723 -0.22578073 -0.46451914
0.25380582 0.072869465 -0.30595475 0.20614186 0.13204947 -0.7271208 -0.0007103813 0.17235316
00000000: 5cc9 df3e 90e7 993e 3aee c0bd f8b6 07bf
00000010: f207 efbe 4a8d bcbe ccb8 e3be c0e4 f5be
00000020: 422f b93e 1457 de3e dce9 83be aba2 c03e
00000030: 40f5 ff3d fdd7 10bf 9060 913e e0d0 8d3d
00000040: 2cc0 7dbe 2895 46be a46e bd3e 6428 e8be
00000050: 1029 c6be e0e7 d5bd 0202 ee3e 505b c63e
00000060: ed53 853e adb8 3bbf e77a 33bf d3a4 5cbd
00000070: 9175 a93e cb6b 9dbe 4f90 d7be f965 b03d
00000080: 6803 b83d 7296 a23e ead1 cbbe 828b d7be
00000090: e0af 6e3d 20da 443d f44f 9ebe 4ec2 83be
000000a0: f379 15bd 57a9 0abf 5005 31bf 5fbe 803e
000000b0: 3019 ed3d 5ec4 91be cc54 d0bd b4f0 a13e
000000c0: 37e9 dbbe f213 1abf f225 27bd b684 00be
000000d0: 828a 11bf 7c2e e1be f626 843e a2c1 4b3e
000000e0: 91c1 09be cc04 143f b209 96be 407e ddbe
000000f0: a6ea 9f3e 6ab9 9bbe 1bba 99be 6886 8dbe
00000100: 3051 093e 5fcd 043f 6eb1 0b3f 4833 c3bd
00000110: b43e 06bf c10d 8f3d efc7 6c3d cbad 343e
00000120: fae2 b7be e834 c1be 608e 2ebd 6487 4abe
00000130: c167 de3d 4a21 7dbe 128e 343e 377b 193e
00000140: a0ed c3be 2069 e7bc 98b1 d0bd 806d 033c
00000150: 844a 81be 3819 f5be 98b8 54be c0a3 123d
00000160: 442a a43e 8378 7cbe 9928 e93e 9023 87be
00000170: 9e01 643b 991f a23e 7f0f 213e 4aa4 66bd
00000180: 8ad7 e3be d7e5 fb3e 5f02 143e 229f 86be
00000190: ce2e 99be 1f42 fa3e c868 e93e 9d83 4f3e
000001a0: 6e00 b03e 3592 f13d 671d 233d 6d95 fbbd
000001b0: 5018 e73d 720c b63e f484 4cbe 606c c5be
000001c0: 1a4a 82be ead6 943e 5c06 9dbe dc9e f7be
000001d0: dcbe 96be b6e6 c5be e05b b93d a220 eebe
000001e0: 5c8f a0be 6e63 a33e dec2 ffbe d024 d3be
000001f0: c0cc 6abe 7e4c 8e3e 2c64 f9be 8095 f43b
00000200: 500b e3be 94b2 cebe 7ea5 25bf 6c9d 563e
00000210: b634 1e3e 7a32 bebe 234f 5dbe 1e4e 813e
00000220: 0ac5 a1be 9280 b23e 0a98 0f3f 4895 c33b
00000230: 30a3 ab3d 60cc 7cbe 4c21 e83e c817 f8bd
00000240: f53c 40be 935c 143e a767 6fbd 5661 99be
00000250: c001 96bc 0e94 db3e d8c1 f3be 20fd b1be
00000260: e5b9 253b ebdc bebe cfa5 2bbf a156 463c
00000270: d874 ec3e 1178 b9be a40a 01be d8df bc3d
00000280: e4ec d6be 4369 c2bd ff43 e3bd 9235 08bd
00000290: 32a4 e9be a883 86be 560b 8bbe b00c 7bbd
000002a0: 4593 973e b470 17bf cfa3 1bbf fda4 72bc
000002b0: e8f7 debd 801c c3bb 00d0 ff39 009e 02bc
000002c0: 80c9 87be 20a8 90be 704e 4d3d 64c8 443e
000002d0: abb8 abbd e4e3 f4be bfd8 c6bd 38e2 8c3d
000002e0: d006 493e 0c46 a7be 6e66 8b3e 1e9f fdbe
000002f0: f83c e2be 102c 013e 8cd5 bfbe 304e e73d
00000300: a2fc a5be f03a 493d 6e0c 9f3e 60ca 98be
00000310: eeec c5be ee05 43be 7646 0bbf 2a2e 5a3e
00000320: 4469 96be 6072 e63d 205c e3bd 4873 eb3d
00000330: 142a a8be fb6d c83d 2cb4 c83e b08f e8bd
00000340: 3e8c 9ebe ecb6 bcbe d8ed 82bd 1630 f5be
00000350: 11b0 62bd 12e4 243f ab8b b33b 4b56 953e
00000360: 963f af3e fa7b 853e cdba 6d3e 8497 093c
00000370: 4527 21bf 54cf e23e 4780 bbbe f7ee 5d3d
00000380: ce6f c6be 5851 32be bc9d 003e a8e6 5abe
00000390: 4841 c13d c79a 30bf d0fb b63c 49ca a3bd
000003a0: 56ab f23e 20de ef3e a8be d03e fcf4 8b3e
000003b0: 1cdd 59be e42e b83e a474 603e 1055 edbd
000003c0: 57a6 9fbe e6fe b93d 3e06 083f 353c 853e
000003d0: 2c5d 36be ca96 f7be 1033 67be 74d5 edbe
000003e0: d6f2 813e 963c 953d 1aa6 9cbe da16 533e
000003f0: fa37 073e 9724 3abf e238 3aba 597d 303e

fc1.bias f4 [256]
-0.23319268 0.05969876 -0.27265173 -0.31106555 -0.1835261 -0.46102154 0.09975889 -0.47812286
-0.2407518 -0.0003052354 0.34410816 -0.027754974 0.38850325 0.20054153 0.36178425 0.2593432
-0.21913835 -0.043142032 -0.39111733 0.24657848 -0.27383476 -0.31512988 0.12853475 -0.5215694
0.31225428 -0.045031942 -0.32885998 -0.44505715 0.14443225 0.047211766 -0.053104937 -0.17505807
0.23575005 0.020110188 0.3372348 -0.090978384 0.0981397 0.05565107 0.15123005 -0.061892267
0.025050648 -0.052711725 0.00034445827 -0.36605936 -0.18151009 0.41762447 0.061743617 -0.01986003
-0.19740492 0.33736652 -0.39405674 0.1680764 0.103577495 0.14674318 -0.039121166 0.24375013
0.04406774 -0.04101628 -0.14528976 -0.19568694 0.124230094 -0.061302125 0.32026425 -0.027310206
0.36472103 0.16474402 0.18616632 0.26506206 0.044124633 -0.38853294 0.0049205134 -0.30387628
-0.42327842 0.44860846 -0.34595796 -0.018229946 0.31804287 0.09354527 -0.009387791 0.2061247
-0.017120361 -0.285381 -0.27226317 0.16710407 -0.5347329 0.25826162 0.3412417 -0.43436605
0.16447742 -0.24719828 0.26486924 -0.047943193 -0.32577652 -0.13821164 0.09806331 -0.3538194
0.051777266 -0.09234522 -0.27223992 -0.06523174 0.21985634 0.1074844 -0.36308938 0.015232033
-0.12973551 -0.26558954 0.24898583 -0.16590148 0.27704397 0.27739072 -0.028848767 -0.16809687
-0.16742975 -0.075436234 -0.40460235 -0.08912857 0.15264234 -0.4463339 -0.012621777 -0.14282691
0.14930218 0.10098305 -0.0551264 -0.48832107 -0.48621213 -0.2925951 0.03494774 0.34602177
0.2746576 -0.33541134 0.1440151 -0.056698 0.19012268 0.3392248 0.32569376 -0.1269204
-0.43823755 0.15014628 -0.33368027 -0.10709864 0.08789001 -0.07236737 -0.28682613 0.22431079
-0.2794874 0.32535717 -0.16890351 0.4144301 -0.05449885 0.085720375 0.3285925 -0.05305449
-0.3670485 0.0064091147 -0.24603528 -0.27258164 0.25920504 -0.46125543 0.34479153 -0.12188023
-0.061158754 -0.3538516 0.24271193 0.092921376 -0.212633 0.01588589 0.40754986 0.11341248
0.38725474 0.17855294 0.32074526 -0.30370176 0.2616464 0.002189273 0.3844487 -0.4381519
-0.4765135 -0.043686856 0.05844735 -0.21567446 0.12469798 0.17414744 0.2764074 0.2140326
0.31196734 -0.4757229 0.4595239 0.17645772 0.14241193 0.044176877 -0.05985544 0.21504343
0.21763225 -0.34672308 0.32870734 0.39464 -0.36876726 0.5073862 -0.28688383 0.2364322
-0.41199696 0.28086585 -0.029029667 0.32266498 -0.26041728 0.23566976 -0.30926487 -0.04226352
0.33884305 0.29613626 0.40795112 -0.04942006 0.2747671 -0.28875387 -0.12419535 -0.41292566
-0.30937904 0.3443491 0.1751639 0.27850175 -0.0020886392 0.27366826 0.10411135 0.28027028
0.18793799 -0.00023841987 0.21722378 0.26767632 0.09673935 0.22962886 0.052294552 -0.10960669
0.17701875 -0.11818104 0.31214634 -0.41872942 0.11357339 0.30297887 -0.43740016 -0.30216968
0.23765606 -0.47090542 0.07210069 0.1274909 0.13340719 0.081689626 -0.02853334 -0.19483307
-0.3905324 -0.2899555 -0.01343298 0.18160878 -0.49040914 0.40048864 -0.026365323 0.1160134
00000000: 10ca 6ebe b086 743d 0299 8bbe fc43 9fbe
00000010: 44ee 3bbe 040b ecbe 644e cc3d 85cc f4be
00000020: a487 76be 0008 a0b9 f22e b03e 665e e3bc
00000030: e6e9 c63e c25a 4d3e c93b b93e a2c8 843e
00000040: ce65 60be b3b5 30bd 8840 c8be 127f 7c3e
00000050: 1234 8cbe b458 a1be 9d9e 033e 9285 05bf
00000060: cbdf 9f3e 6a73 38bd 5660 a8be 88de e3be
00000070: 0ce6 133e 2061 413d 9084 59bd 6c42 33be
00000080: 7668 713e 1fbe a43c 0aaa ac3e e052 babd
00000090: 78fd c83d 60f2 633d 0ddc 1a3e bf82 7dbd
000000a0: 0437 cd3c 40e8 57bd 6898 b439 226c bbbe
000000b0: c8dd 39be e0d2 d53e e0e6 7c3d 80b1 a2bc
000000c0: 8424 4abe 4ebb ac3e cec1 c9be 381c 2c3e
000000d0: 7020 d43d d843 163e 843d 20bd a299 793e
000000e0: 6080 343d b000 28bd d7c6 14be 2862 48be
000000f0: 596c fe3d f017 7bbd adf9 a33e a7b9 dfbc
00000100: b7bc ba3e a8b2 283e 62a2 3e3e 37b6 873e
00000110: 08bc 343d caed c6be 423c a13b ac95 9bbe
00000120: f3b7 d8be 02b0 e53e 6721 b1be f856 95bc
00000130: 84d6 a23e aa94 bf3d 40cf 19bc 5a12 533e
00000140: 0040 8cbc 751d 92be 1466 8bbe 541d 2b3e
00000150: 41e4 08bf de3a 843e 3bb7 ae3e 3a65 debe
00000160: c56c 283e 8c21 7dbe f19c 873e 1560 44bd
00000170: 2ecc a6be 5a87 0dbe 6bd5 c83d d127 b5be
00000180: 6614 543d 7e1f bdbd 0863 8bbe 3898 85bd
00000190: 0522 613e c820 dc3d dae6 b9be c78f 793c
000001a0: 63d9 04be 5afb 87be 24f6 7e3e 14e2 29be
000001b0: b5d8 8d3e 2806 8e3e 4054 ecbc 9621 2cbe
000001c0: b472 2bbe 507e 9abd 0a28 cfbe 0a89 b6bd
000001d0: 464e 1c3e e085 e4be 92cb 4ebc 3841 12be
000001e0: ace2 183e 34d0 ce3d 38cc 61bd 3805 fabe
000001f0: ccf0 f8be 06cf 95be 5d25 0f3d c429 b13e
00000200: ec9f 8c3e 09bb abbe b278 133e 293c 68bd
00000210: 85af 423e dfae ad3e 55c1 a63e 6cf7 01be
00000220: ac60 e0be f2bf 193e 24d8 aabe 8856 dbbd
00000230: adff b33d 5835 94bd e0da 92be bab1 653e
00000240: f918 8fbe 3795 a63e 0bf5 2cbe 2f30 d43e
00000250: 303a 5fbd 2a8e af3d 473d a83e aa4f 59bd
00000260: c8ed bbbe 8d03 d23b acf0 7bbe d28f 8bbe
00000270: 86b6 843e ac29 ecbe 8488 b03e 589c f9bd
00000280: 9a81 7abd 092c b5be 7a89 783e 904d be3d
00000290: 77bc 59be 2023 823c 60aa d03e cd44 e83d
000002a0: 4146 c63e 95d6 363e b938 a43e cc7e 9bbe
000002b0: 84f6 853e e879 0f3b 76d6 c43e 7255 e0be
000002c0: 94f9 f3be fdf0 32bd 7d66 6f3d c4d9 5cbe
000002d0: a861 ff3d b553 323e 4585 8d3e 5d2b 5b3e
000002e0: 2fba 9f3e f491 f3be b746 eb3e 55b1 343e
000002f0: 6fd4 113e d0f2 343d fa2a 75bd 5834 5c3e
00000300: fdda 5e3e b085 b1be 544c a83e 410e ca3e
00000310: 10cf bcbe 10e4 013f 70e2 92be 481b 723e
00000320: 44f1 d2be a6cd 8f3e a0cf edbc 5834 a53e
00000330: 6a55 85be 6a53 713e f757 9ebe 831c 2dbd
00000340: d67c ad3e 2c9f 973e f8de d03e b06c 4abd
00000350: 46ae 8c3e 8cd7 93be 225a febd fe6a d3be
00000360: ee66 9ebe 864e b03e 2a5e 333e c897 8e3e
00000370: 8de1 08bb 3f1e 8c3e 5538 d53d 967f 8f3e
00000380: d172 403e 5900 7ab9 e96f 5e3e df0c 893e
00000390: 481f c63d d423 6b3e d032 563d 7979 e0bd
000003a0: 6744 353e e708 f2bd a5d1 9f3e b463 d6be
000003b0: 2a99 e83d 0c20 9b3e eaf2 dfbe fcb5 9abe
000003c0: 1c5c 733e 841a f1be 87a9 933d f98c 023e
000003d0: e59b 083e e44c a73d c0be e9bc 5282 47be
000003e0: ddf3 c7be 0c75 94be 0016 5cbc a7f7 393e
000003f0: e816 fbbe d90c cd3e 17fc d7bc 6f98 ed3d

fc2.weight f4 [256, 256]
0.0036064475 0.016100682 0.02448807 0.118986376 -0.0338329 -0.011758581 -0.09165485 0.08635263
-0.052130267 0.018166788 -0.21048833 -0.07099302 -0.15712926 -0.033940036 0.07831134 -0.345303
0.24439776 0.06701358 -0.05000066 -0.059932455 -0.054841243 -0.061758883 -0.14967564 0.1259862
0.26726884 0.28457832 0.057759315 0.0042653084 -0.05080332 -0.011136085 0.03536275 -0.031176649
-0.06264845 -0.39578488 0.024274394 -0.045148425 -0.03809306 -0.044200607 -0.024057332 -0.33129656
-0.011871786 0.034923054 0.016235959 0.03763941 0.001435861 -0.1172438 -0.042899013 0.04919497
-0.033953868 0.05207667 -0.045960672 0.050477695 -0.041454017 0.06670037 0.03739899 0.18031627
-0.053812884 0.10072389 0.05394498 -0.035670698 0.007615934 0.0047675148 0.0042148354 0.05195749
-0.11286403 -0.005503248 -0.05766342 -0.024352206 0.04670073 0.06028887 0.008997668 0.011835575
0.024865676 0.12677146 0.06314825 0.16943058 -0.070651464 0.1647437 0.04988598 -0.011184941
-0.00014527887 0.14541335 -0.024716191 -0.080319084 0.05417429 0.24761434 -0.13761693 0.0011086613
0.064188994 0.06170926 -0.07127767 -0.028300378 -0.059323914 -0.26725942 -0.017912801 0.20255445
0.03277282 0.11985219 -0.049131 0.031234711 0.031664297 -0.052717417 -0.04957729 0.0010953641
0.17284559 0.033371538 -0.11843197 0.03130156 0.076348014 -0.04855118 -0.020194031 0.02718659
-0.042378984 -0.0158659 -0.046816126 0.1439658 0.19955875 -0.039522037 0.12075434 -0.046178065
-0.032478534 0.01647353 -0.3597331 -0.015787862 -0.060295448 -0.0502628 0.060206704 0.011890887
-0.038830575 0.117305495 -0.060173295 -0.049276385 -0.09673756 -0.01462908 -0.02761298 0.05806329
0.023558512 -0.035168745 -0.049971916 0.03153392 -0.057643827 -0.021702789 0.14658704 0.12208339
0.004107865 -0.16944836 0.04777156 -0.02099137 -0.022115419 0.24695475 0.22894107 0.24595125
-0.05124055 0.056520946 -0.029214613 0.08634562 -0.008581567 0.023943342 -0.11094342 -0.037360974
-0.12986548 0.038111705 -0.13884702 -0.13853034 0.11973801 0.061970472 0.040895775 0.24955261
-0.13810262 -0.086627565 -0.15016875 -0.059746772 -0.010836105 0.11328977 -0.087323494 -0.03576935
-0.054594345 -0.1252669 -0.031208558 -0.048889346 -0.004556723 -0.22122146 0.029418943 0.021401646
-0.006625068 -0.046343513 0.024562078 0.18076727 0.095859446 -0.038835727 -0.2229064 -0.15531503
0.056705587 0.062261023 -0.034592155 0.084088035 0.2498909 -0.13794382 0.08437937 -0.21225576
0.03956513 0.006165622 0.04656844 -0.048689034 0.058957644 0.08441355 -0.004597746 0.07459685
0.100944825 -0.14318933 -0.12606353 -0.05993288 -0.28050414 -0.023823954 0.10909148 0.025517002
-0.002769187 -0.052330308 -0.013264788 -0.05681968 0.015490369 -0.17502189 0.020741114 0.076006554
0.055963438 -0.25883302 -0.009160504 -0.074109666 0.046894144 0.18009466 -0.3806244 -0.35637504
0.24588527 0.03272886 0.12068754 -0.010877043 0.039091244 -0.045854542 -0.034329243 0.01990842
0.18695287 -0.010130554 -0.055383313 -0.2073518 0.03297021 0.09738293 -0.4211846 0.25957742
-0.09366818 0.03574591 0.007871315 -0.050075248 0.062117547 -0.05662475 0.026926145 0.11216673
00000000: 265a 6c3b 94e5 833c 349b c83c 21af f33d
00000010: 5e94 0abd 10a7 40bc 8ab5 bbbd a6d9 b03d
00000020: 8c86 55bd 84d2 943c 418a 57be ca64 91bd
00000030: 7ee6 20be b504 0bbd b261 a03d 8ecb b0be
00000040: 6843 7a3e 6a3e 893d 7ecd 4cbd bc7b 75bd
00000050: 36a1 60bd e2f6 7cbd 9244 19be 8702 013e
00000060: 76d7 883e 40b4 913e 0895 6c3d 00c4 8b3b
00000070: 2417 50bd 2074 36bc 88d8 103d 2c66 ffbc
00000080: d54d 80bd 51a4 cabe 18db c63c 8eed 38bd
00000090: 7807 1cbd b20b 35bd e213 c5bc b49f a9be
000000a0: e181 42bc 7a0b 0f3d 4601 853c c82b 1a3d
000000b0: 8033 bc3a 841d f0bd e0b6 2fbd aa80 493d
000000c0: 3613 0bbd 594e 553d 4241 3cbd b3c1 4e3d
000000d0: b0cb 29bd 349a 883d af2f 193d d4a4 383e
000000e0: e66a 5cbd 5448 ce3d 69f5 5c3d 701b 12bd
000000f0: 168f f93b d038 9c3b 9a1c 8a3b 61d1 543d
00000100: 4225 e7bd 9754 b4bb 7a30 6cbd 477e c7bc
00000110: 4449 3f3d 76f1 763d f46a 133c 00ea 413c
00000120: 1ab3 cb3c 61d0 013e df53 813d 367f 2d3e
00000130: b7b1 90bd 93b2 283e 3e55 4c3d 0b41 37bc
00000140: 0056 18b9 3de7 143e 9c79 cabc 557e a4bd
00000150: dce5 5d3d 9d8e 7d3e 74eb 0cbe 8050 913a
00000160: 8575 833d d9c2 7c3d 07fa 91bd 32d6 e7bc
00000170: a2fd 72bd 3ad6 88be debd 92bc 6f6a 4f3e
00000180: cb3c 063d 1175 f53d 963d 49bd f0df ff3c
00000190: 6cb2 013d 38ee 57bd 8e11 4bbd 5292 8f3a
000001a0: 6ffe 303e 98b0 083d 768c f2bd 1136 003d
000001b0: 595c 9c3d 9add 46bd f46d a5bc 69b6 de3c
000001c0: 9695 2dbd 34f9 81bc 44c2 3fbd c56b 133e
000001d0: 2159 4c3e dce1 21bd 0d4e f73d 3625 3dbd
000001e0: 3608 05bd 7ff3 863c f02e b8be 8c55 81bc
000001f0: 5cf8 76bd 5ee0 4dbd 4e9b 763d ffd1 423c
00000200: cf0c 1fbd dd3d f03d 4678 76bd 09d6 49bd
00000210: 581e c6bd cfae 6fbc 9e34 e2bc c6d3 6d3d
00000220: c8fd c03c 1a0d 10bd 5aaf 4cbd b629 013d
00000230: ef1b 6cbd 0cca b1bc ea1a 163e db06 fa3d
00000240: 459b 863b df83 2dbe 1cac 433d 18f6 abbc
00000250: 652b b5bc b5e1 7c3e 876f 6a3e a5da 7b3e
00000260: 9ce1 51bd 8282 673d 7c53 efbc f9d5 b03d
00000270: b399 0cbc d424 c43c 4e36 e3bd d207 19bd
00000280: 75fb 04be 051b 1c3d ea2d 0ebe e6da 0dbe
00000290: 3439 f53d c0d4 7d3d 5482 273d b88a 7f3e
000002a0: c66a 0dbe cb69 b1bd d6c5 19be 08b9 74bd
000002b0: eb89 31bc 7804 e83d a9d6 b2bd e282 12bd
000002c0: 529e 5fbd f745 00be 17a9 ffbc 3240 48bd
000002d0: 9050 95bb e187 62be ffff f03c 8152 af3c
000002e0: 1917 d9bb b2d2 3dbd 6936 c93c 0e1b 393e
000002f0: f551 c43d 3612 1fbd 9341 64be e70a 1fbe
00000300: 1e44 683d 6a05 7f3d 81b0 0dbd 5936 ac3d
00000310: 66e3 7f3e 2541 0dbe 17cf ac3d 9359 59be
00000320: 0c0f 223d fc08 ca3b 8cbe 3e3d 276e 47bd
00000330: 927d 713d 03e1 ac3d b0a8 96bb 3cc6 983d
00000340: 29bc ce3d 39a0 12be cc16 01be 2e7c 75bd
00000350: 3d9e 8fbe 742a c3bc 5b6b df3d 0809 d13c
00000360: 407b 35bb 4e58 56bd 8e54 59bc c1bb 68bd
00000370: 51cb 7d3c f038 33be 45e9 a93c 53a9 9b3d
00000380: eb39 653d c385 84be f015 16bc cfc6 97bd
00000390: 1314 403d bc6a 383e 34e1 c2be ca76 b6be
000003a0: 59c9 7b3e b20e 063d 072b f73d a035 32bc
000003b0: 241e 203d f9d1 3bbd d29c 0cbd fc16 a33c
000003c0: 9370 3f3e a0fa 25bc 9dd9 62bd 0854 54be
000003d0: c50b 073d b470 c73d 82a5 d7be 55e7 843e
000003e0: 1ad5 bfbd 4e6a 123d b0f6 003c b41b 4dbd
000003f0: f86e 7e3d 5bef 67bd 3894 dc3c acb7 e53d

fc2.bias f4 [256]
0.005138831 -0.056203995 -0.060631674 0.014384918 -0.01821757 -0.103404604 0.037007377 -0.10966082
-0.054284915 -0.050941296 -0.111018315 -0.044726744 0.17191656 0.046478942 -0.024125842 -0.029393755
-0.04731254 -0.10957209 -0.04668302 -0.10030522 -0.029945845 -0.05216531 -0.087575905 -0.012863837
-0.040803336 -0.040389355 -0.12209171 -0.054524127 -0.070644796 0.07832279 0.09820089 -0.04635369
0.014952131 -0.07732616 -0.044336326 0.029856017 -0.117238306 -0.10987425 -0.033156753 -0.042018443
-0.02258558 -0.0114345495 -0.006844918 0.013688123 -0.031546954 -0.030774677 -0.014756515 -0.010702896
-0.062522896 -0.022173222 -0.048671175 0.105874725 -0.048954554 0.116071686 -0.055203855 -0.06624381
-0.05479855 -0.0014903786 -0.040345557 0.013509222 -0.09616207 -0.0046535702 0.11899877 -0.033619978
-0.07622027 -0.112999134 -0.008541569 0.030862078 -0.09231726 -0.028999552 -0.058658022 0.033847228
-0.0065115453 -0.10418772 -0.06368244 0.02181424 -0.03621494 -0.054999825 -0.093489245 -0.043153785
-0.072988726 -0.04198552 0.015666269 -0.035473064 -0.07664682 -0.09483486 -0.075780794 -0.008955292
-0.040498845 -0.07423598 -0.060123425 -0.08691146 -0.019503571 -0.024549969 -0.049774498 0.000690373
-0.027911196 -0.14814238 -0.07119618 -0.037407942 -0.10360963 -0.027152866 -0.04618983 -0.025814945
-0.12682578 0.034627836 -0.112343684 -0.10962471 -0.07757624 0.0026534528 -0.016509734 -0.031374007
0.0008380567 -0.07237064 -0.09886026 -0.016319804 -0.022564942 -0.05689091 -0.045939937 -0.0077781905
0.023264728 -0.114716 -0.015002266 -0.010333271 0.0031068944 -0.07836776 -0.06615363 -0.07153227
-0.018864753 -0.029723816 -0.05837768 -0.059028 -0.019979086 -0.06303957 -0.06389599 -0.032213643
-0.07594716 0.036261395 -0.07227618 -0.07412306 -0.00076979416 -0.0427718 0.03780715 -0.040698715
-0.11303144 0.018269053 0.002763479 -7.8476965e-05 -0.013521516 -0.040562004 -0.086487845 -0.033261187
-0.027354285 0.041835375 -0.10485083 0.03475485 -0.122447096 -0.059716064 -0.04900982 0.04024356
-0.03274962 -0.053192228 0.0009501465 0.014573947 -0.061723236 -0.077494524 -0.024751548 -0.0067194323
-0.025908997 0.010715473 -0.08793789 -0.01605931 -0.024342574 0.17705412 -0.030274032 -0.09616196
-0.012535073 0.09090511 -0.044637814 -0.08159372 0.019846 -0.003901571 -0.033014208 -0.024964683
-0.11059988 -0.06492105 -0.09293668 -0.074528046 0.0013341084 -0.060603216 0.0039846995 -0.04764102
-0.026624545 -0.00233794 -0.03682317 -0.011377222 -0.028935473 -0.016101744 0.004069115 0.068045855
-0.04122023 -0.053806152 0.034364086 -0.08435086 -0.017183436 -0.11944532 0.029648855 0.22119668
-0.015467048 -0.10651691 -0.054994058 -0.057032727 -0.06640847 -0.027118057 -0.064079925 -0.104619965
-0.090325534 -0.044089064 -0.0045476537 -0.026204804 0.0055386596 0.19923419 -0.10273633 -0.12495541
-0.06937638 -0.12218191 -0.038974576 -0.025891004 -0.056916416 -0.007356614 -0.056440108 -0.057205927
-0.0152933635 0.06170334 -0.075057656 -0.03828794 0.0049147573 -0.036740586 -0.04327751 0.036864102
0.00524877 -0.12418873 0.17668004 -0.06327545 -0.011250623 0.030490758 -0.016463645 -0.05366344
-0.061023984 -0.087259285 -0.03071877 -0.05398757 -0.10576331 0.04239855 -0.0012746513 -0.0021412347
00000000: a463 a83b 2936 66bd eb58 78bd b8ae 6b3c
00000010: 033d 95bc cbc5 d3bd 0c95 173d da95 e0bd
00000020: dc59 5ebd d2a7 50bd 925d e3bd 6433 37bd
00000030: e50a 303e b460 3e3d 8fa3 c5bc 2ccb f0bc
00000040: cbca 41bd 5567 e0bd b236 3fbd d36c cdbd
00000050: fd50 f5bc 4bab 55bd ff5a b3bd d8c2 52bc
00000060: 6621 27bd 4f6f 25bd 380b fabd b154 5fbd
00000070: 38ae 90bd b367 a03d 8c1d c93d 5edd 3dbd
00000080: c8f9 743c 2e5d 9ebd 029a 35bd 9b94 f43c
00000090: a31a f0bd c005 e1bd 60cf 07bd 881b 2cbd
000000a0: 6505 b9bc fa57 3bbc 554b e0bb 2644 603c
000000b0: 6137 01bd 2d1b fcbc 4fc5 71bc 335b 2fbc
000000c0: 010c 80bd 9ea4 b5bc 6d5b 47bd d9d4 d83d
000000d0: 9284 48bd feb6 ed3d 701d 62bd d6aa 87bd
000000e0: 7274 60bd cf58 c3ba 6241 25bd c955 5d3c
000000f0: 9ff0 c4bd fa7c 98bb a1b5 f33d 1ab5 09bd
00000100: 5f19 9cbd 176c e7bd f0f1 0bbc 78d2 fc3c
00000110: d510 bdbd 7890 edbc 6543 70bd 64a3 0a3d
00000120: cd5e d5bb 5f60 d5bd f06b 82bd c7b3 b23c
00000130: 1e56 14bd 7f47 61bd 4a77 bfbd 06c2 30bd
00000140: 1d7b 95bd 02f9 2bbd 8c56 803c 344c 11bd
00000150: 02f9 9cbd c738 c2bd f632 9bbd 38b9 12bc
00000160: 1ee2 25bd 0909 98bd fb43 76bd a3fe b1bd
00000170: f4c5 9fbc 041d c9bc 58e0 4bbd 26fa 343a
00000180: 05a6 e4bc a3b2 17be 4ecf 91bd 1239 19bd
00000190: 4931 d4bd b06f debc 8c31 3dbd dd79 d3bc
000001a0: 9ede 01be ebd5 0d3d 7214 e6bd ec82 e0bd
000001b0: 4be0 9ebd 8de5 2d3b 6c3f 87bc 0882 00bd
000001c0: 08b1 5b3a 0f37 94bd 3f77 cabd 1cb1 85bc
000001d0: 1dda b8bc 7106 69bd 842b 3cbd 31e0 febb
000001e0: ac95 be3c 39f0 eabd 10cc 75bc e14c 29bc
000001f0: 0a9d 4b3b 477f a0bd 8e7b 87bd 837f 92bd
00000200: 418a 9abc 5c7f f3bc 6f1d 6fbd 58c7 71bd
00000210: 2eab a3bc e41a 81bd e7db 82bd 74f2 03bd
00000220: 2f8a 9bbd d486 143d 8905 94bd d5cd 97bd
00000230: 03cc 49ba 7c31 2fbd acdb 1a3d b2b3 26bd
00000240: 077d e7bd fba8 953c 7c1b 353b 0094 a4b8
00000250: 5989 5dbc 5824 26bd 8a20 b1bd e23c 08bd
00000260: 1816 e0bc 925b 2b3d 08bc d6bd 1a5b 0e3d
00000270: 8bc5 fabd d598 74bd 85be 48bd 6ed6 243d
00000280: 7724 06bd 18e0 59bd 4113 793a 90c7 6e3c
00000290: 81d1 7cbd 73b5 9ebd c2c3 cabc af2e dcbb
000002a0: 1b3f d4bc f48f 2f3c c818 b4bd d08e 83bc
000002b0: 146a c7bc ad4d 353e 3f01 f8bc 90f0 c4bd
000002c0: e85f 4dbc 752c ba3d 24d6 36bd 9c1a a7bd
000002d0: 1494 a23c 80b1 7fbb e839 07bd bc82 ccbc
000002e0: 3182 e2bd 54f5 84bd 9655 bebd 29a2 98bd
000002f0: 40dd ae3a 143b 78bd 1592 823b 3b23 43bd
00000300: b81b dabc 2038 19bb e4d3 16bd 8767 3abc
00000310: 160a edbc cee7 83bc 3656 853b a05b 8b3d
00000320: 8bd6 28bd d763 5cbd 5bc1 0c3d 25c0 acbd
00000330: 47c4 8cbc bf9f f4bd 28e2 f23c 6281 623e
00000340: 8069 7dbc 8a25 dabd 7341 61bd 269b 69bd
00000350: 2a01 88bd b026 debc 563c 83bd fe42 d6bd
00000360: 98fc b8bd bc96 34bd 7c04 95bb 75ab d6bc
00000370: a57d b53b 0c04 4c3e 6d67 d2bd 9fe8 ffbd
00000380: 3415 8ebd 823a fabd cea3 1fbd 5f19 d4bc
00000390: 3021 69bd c00f f1bb be2d 67bd c350 6abd
000003a0: 0491 7abc a4bc 7c3d d4b7 99bd d1d3 1cbd
000003b0: f90b a13b 4c7d 16bd c243 31bd d0fe 163d
000003c0: e0fd ab3b a956 febd 9deb 343e 8f96 81bd
000003d0: 8854 38bc c1c7 f93c c4de 86bc 32ce 5bbd
000003e0: 49f4 79bd ffb4 b2bd eea5 fbbc 1222 5dbd
000003f0: 6f9a d8bd 1aaa 2d3d 3312 a7ba f553 0cbb

fc3.weight f4 [256, 256]
-0.010302221 0.041529838 0.04187485 0.0080861915 -0.034695264 0.05605157 0.041073166 -0.032486916
0.024125688 0.046567336 -0.12081283 -0.044321947 0.11174197 0.001162909 0.007953736 -0.010390028
-0.04169934 -0.12788166 0.026848052 0.08070393 0.010676631 -0.03453573 0.09912251 0.04876723
0.0328217 -0.013016684 -0.006562668 0.012278558 0.0806189 -0.07249204 0.1372755 0.12136149
-0.0018031826 0.02266191 0.077096626 -0.099096745 0.063363805 0.03342166 0.05299694 0.031789303
0.06521479 -0.00573335 0.023686647 -0.08302378 -0.026343659 -0.023804624 0.03136996 0.02304359
-0.10897094 0.073232524 -0.09327877 -0.08385115 -0.049682535 -0.14179651 0.05758293 0.079356275
0.06219448 -0.095647804 -0.006812662 -0.0933643 0.19682857 -0.12214805 0.004599347 -0.035396405
-0.0033607844 0.02230148 0.03256769 0.05448453 -0.07056752 0.021031126 0.017714562 0.05139131
0.040231522 -0.06238167 0.01258419 -0.030785426 -0.108200185 0.07915993 0.010576321 0.022254959
-0.0029303895 0.0366132 0.007532969 0.102791116 -0.034309626 -0.014956121 0.047027092 0.020790648
-0.01790627 -0.014779323 -0.03362001 -0.052801766 0.0020999983 -0.15877181 -0.040085748 0.0080038
-0.011592752 0.017375166 -0.024477474 -0.07756268 0.100609496 0.030673712 0.06801497 0.014966431
0.038938917 -0.23533213 -0.011049147 -0.013500456 0.05908171 -0.20136634 -0.025034413 -0.03313095
0.076624244 -0.005007615 -0.012328531 0.013586663 0.04879108 -0.0840824 -0.15494195 -0.048395284
-0.09268053 0.051417444 0.051172808 0.08496449 0.078233324 -0.051460583 0.06419623 0.035137303
0.008284588 0.02091258 0.077747315 -0.003604507 0.071703345 0.007854213 -0.060283642 0.08937571
0.05255265 0.07831046 -0.07587147 0.049588963 0.09841348 -0.1857794 0.028068371 0.058210842
-0.08264457 -0.007775257 -0.052958123 0.008073434 0.085237764 0.06049499 -0.00047673186 -0.009111948
0.010927372 0.013115875 -0.026707467 -0.100739315 0.074144594 -0.042809065 0.03872065 0.014620237
-0.20717509 -0.11424557 -0.019485809 -0.03276693 -0.054432824 0.12173192 -0.110518076 -0.06834167
0.07884354 -0.07534811 -0.068473674 -0.036811396 0.047686443 -0.004503778 -0.07060954 -0.05769545
0.017282719 -0.14777438 0.08107946 0.09219514 -0.038344406 -0.0245623 -0.025917133 -0.06363366
-0.028284626 0.039560717 -0.0483419 0.06143278 -0.057828464 0.041397106 -0.03178261 0.04490269
-0.04419858 -0.041984744 -0.04334692 -0.07234405 -0.09740421 0.057430673 0.014969463 -0.34105235
0.17248656 0.08613867 0.011898765 0.017895207 -0.085222185 0.027589086 0.04006235 0.009815671
0.03617777 -0.045511294 -0.09874698 0.09369053 0.14374481 -0.01326945 -0.020036975 0.04804741
0.0028426854 0.03445048 -0.016817303 -0.028559674 -0.2213243 0.16336411 0.06164981 -0.03911299
-0.03761118 -0.05671394 0.04954424 -0.0594425 -0.07941769 0.03760688 0.023094056 0.118170336
0.013010537 0.1478549 0.028381983 -0.010414354 -0.27494523 -0.07793408 -0.037963666 -0.0075698015
0.011775807 0.11141465 0.092224054 -0.0310374 -0.052014217 0.12022888 0.02759252 0.04558359
0.07587868 0.0052338266 0.045044787 -0.061663635 0.017926008 -0.37002873 -0.013718758 0.021483772
00000000: a6ca 28bc 311b 2a3d f684 2b3d f27b 043c
00000010: 9f1c 0ebd 5596 653d 563c 283d 0011 05bd
00000020: 3ca3 c53c 64bd 3e3d b86c f7bd ee8a 35bd
00000030: f9d8 e43d c06c 983a 6350 023c f03a 2abc
00000040: edcc 2abd 69f3 02be 72f0 db3c 1a48 a53d
00000050: 09ed 2e3c 5675 0dbd be00 cb3d 26c0 473d
00000060: 0c70 063d ee43 55bc a60b d7bb 012c 493c
00000070: 861b a53d b576 94bd f391 0c3e 5f8c f83d
00000080: c558 ecba 78a5 b93c d6e4 9d3d 3cf3 cabd
00000090: e2c4 813d 27e5 083d 5213 593d 8035 023d
000000a0: 558f 853d d3de bbbb 800a c23c 5f08 aabd
000000b0: a8ce d7bc ea01 c3bc ca7d 003d e9c5 bc3c
000000c0: 282c dfbd effa 953d f108 bfbd 27ba abbd
000000d0: ea7f 4bbd 1b33 11be 14dc 6b3d 8b85 a23d
000000e0: a4bf 7e3d ffe2 c3bd c03c dfbb c835 bfbd
000000f0: 6e8d 493e c228 fabd 1eb6 963b d2fb 10bd
00000100: 9b40 5cbb 98b1 b63c b365 053d 2c2b 5f3d
00000110: b485 90bd 7849 ac3c 211e 913c b27f 523d
00000120: cfc9 243d ec83 7fbd eb2d 4e3c b831 fcbc
00000130: 0f98 ddbd 9a1e a23d 4e48 2d3c 0850 b63c
00000140: c70b 40bb b9f7 153d 20d7 f63b 2684 d23d
00000150: 4088 0cbd 850a 75bc 7b9f 403d 2651 aa3c
00000160: 2cb0 92bc f924 72bc 23b5 09bd aa46 58bd
00000170: 20a0 093b 1495 22be f430 24bd 5f22 033c
00000180: 87ef 3dbc 5d56 8e3c fc84 c8bc 2fd9 9ebd
00000190: 5a0c ce3d 7047 fb3c 6f4b 8b3d c335 753c
000001a0: 6a7e 1f3d e8fa 70be 7b07 35bc 0431 5dbc
000001b0: aaff 713d fa32 4ebe f814 cdbc 52b4 07bd
000001c0: 2ced 9c3d eb16 a4bb 9bfd 49bc 989a 5e3c
000001d0: 28d9 473d 6533 acbd 1aa9 1ebe 223a 46bd
000001e0: 4acf bdbd 199b 523d 949a 513d dd01 ae3d
000001f0: cb38 a03d 55c8 52bd 5079 833d 22ec 0f3d
00000200: 15bc 073c dc50 ab3c fc39 9f3d 9839 6cbb
00000210: 34d9 923d f5ae 003c fbeb 76bd 9d0a b73d
00000220: 7341 573d 3c61 a03d 8062 9bbd cc1d 4b3d
00000230: 028d c93d f43c 3ebe a4ef e53c 7e6e 6e3d
00000240: 8e41 a9bd 95c7 febb 9eea 58bd 7046 043c
00000250: 2391 ae3d 98c9 773d def1 f9b9 484a 15bc
00000260: b808 333c f8e3 563c 9ec9 dabc 6a50 cebd
00000270: 1fd9 973d 8f58 2fbd 8b99 1e3d b889 6f3c
00000280: b525 54be 95f9 e9bd b4a0 9fbc 9e36 06bd
00000290: f4f4 5ebd 964e f93d 4d57 e2bd b8f6 8bbd
000002a0: b978 a13d 1c50 9abd ed3b 8cbd 8cc7 16bd
000002b0: dc52 433d 6e94 93bb bc9b 90bd 1052 6cbd
000002c0: 7d94 8d3c 2b52 17be fd0c a63d ced0 bc3d
000002d0: 060f 1dbd e036 c9bc 2b50 d4bc 5d52 82bd
000002e0: 29b5 e7bc 6b0a 223d 2802 46bd f0a0 7b3d
000002f0: 8add 6cbd 0390 293d 7b2e 02bd e2eb 373d
00000300: 9209 35bd 32f8 2bbd 8a8c 31bd 1e29 94bd
00000310: dc7b c7bd 6d3c 6b3d 7b42 753c 6a9e aebe
00000320: 51a0 303e 7969 b03d 0af3 423c f898 923c
00000330: f888 aebd 8202 e23c 6b18 243d e8d1 203c
00000340: 242f 143d 0d6a 3abd db3b cabd d2e0 bf3d
00000350: d731 133e 1b68 59bc 9524 a4bc 5ccd 443d
00000360: 594c 3a3b f21b 0d3d 71c4 89bc faf5 e9bc
00000370: d6a2 62be ec48 273e 8384 7c3d f134 20bd
00000380: 2e0e 1abd e04c 68bd e7ee 4a3d fb79 73bd
00000390: bea5 a2bd ac09 1a3d bf2f bd3c 4a03 f23d
000003a0: 262a 553c 4667 173e 5581 e83c f7a0 2abc
000003b0: 9fc5 8cbe e79b 9fbd ca7f 1bbd 190c f8bb
000003c0: 50ef 403c 5d2d e43d f7df bc3d 2542 febc
000003d0: dc0c 55bd 8f3a f63d b509 e23c dcb5 3a3d
000003e0: 4866 9b3d 8580 ab3b e280 383d 0293 7cbd
000003f0: 90d9 923c 6874 bdbe a4c4 60bc bcfe af3c

fc3.bias f4 [256]
0.14655751 -0.08233072 0.0067975754 -0.0152124455 -0.0016755366 -0.14010993 -0.011684392 0.03298433
-0.06588952 -0.050698433 -0.064793244 -0.098307066 0.03921619 -0.0056651435 -2.0466745e-05 -0.11730119
-0.09332193 -0.020490266 -0.14931236 -0.09553972 -0.041368265 -0.015588681 -0.07327907 -0.023855824
-0.060586084 0.019225316 -0.0560295 0.035545304 -0.054930232 -0.048277922 0.10484165 -0.0955464
0.1452641 -0.0897948 0.2946952 -0.075431146 -0.011513628 -0.054342955 -0.11871155 -0.011212029
0.0013997961 -0.02402202 -0.110803224 0.26394436 0.05092033 -0.076766446 0.12149452 -0.046713553
-0.061221328 0.013171487 -0.10978175 0.025571851 -0.060263943 -0.13601825 -0.09774698 -0.12630619
0.2871806 -0.0002870458 0.17034128 -0.099495135 -0.027273938 -0.05137886 -0.061828915 -0.046298504
-0.06414077 -0.0076736603 -0.06884894 0.31359982 0.04392859 -0.08783425 0.022785114 0.013321517
-0.11219772 -0.023023797 -0.015750716 -0.1106409 -0.067166306 -0.09011681 -0.05349281 -0.07350115
-0.10330152 -0.041211486 -0.038800232 -0.034172714 0.3121781 -0.09793382 0.14545198 0.034036063
-0.06786982 0.00049676077 0.14414246 -0.09209422 0.01358459 -0.072512135 -0.052496158 0.027439294
-0.107430324 0.00091706275 0.18908134 -0.01315956 -0.006723557 0.011755888 -0.073829986 -0.00023156549
0.28564352 -0.20212518 0.14787632 -0.109453 -0.04773375 -0.040325046 0.092589825 -0.074014574
-0.0030456388 -0.053770248 -0.078786366 -0.037432216 -0.07557563 -0.06176543 -0.0029409933 0.14740133
-0.0015272102 -0.08045396 -0.013801975 -0.0063531464 -0.10751267 -0.0015112201 -0.012143801 0.004650304
-0.03074116 0.1915187 -0.08837296 -0.10769576 -0.07022572 0.13150862 -0.057979975 0.0047299536
-0.09218103 0.11601313 -0.10920716 0.03431904 -0.05159378 -0.07563898 -0.010347623 -0.118043765
-0.044953067 -0.1177417 -0.00051057583 -0.03737245 -0.013272629 -0.1316891 0.2778327 -0.0019877872
-0.07980248 -0.03989345 -0.078967564 -0.00065344275 -0.017010868 -0.105088845 -0.019931946 -0.04091223
-0.07402129 0.17657354 -0.019598335 -0.003889824 -0.098917365 -0.004269797 -0.003072779 -0.033352543
-0.07294131 0.07745019 0.13597809 -0.020460526 0.15317091 -0.05824897 0.028654912 -0.055719074
-0.09580879 -0.013299804 -0.044200983 0.04133203 -0.018469378 0.03383412 0.21922265 -0.051608734
-0.11128472 0.049360488 -0.034165088 -0.11345669 -0.08958783 0.10479847 0.0034215013 -0.03218411
-0.07444132 -0.08560626 -0.13709389 -0.096938394 -0.049566388 -0.04802558 -0.00880675 0.13699742
-0.004599153 -0.014408105 -0.021519091 -0.0111046005 -0.048346955 -0.08218594 -0.04442769 -0.10408741
-0.12174069 -0.01508315 -0.089815386 -0.08318997 -0.051910456 -0.08466213 -0.10607875 -0.06624014
0.04897284 0.09563354 -0.020093696 -0.026671581 0.009407252 -0.02216304 -0.06670704 0.062133897
0.050735038 -0.062636316 -0.05708779 -0.11786276 -0.077479765 -0.09386515 -0.0010800068 -0.022217399
-0.048366368 -0.017656736 0.16127943 -0.047002394 0.010349224 -0.020009134 -0.13864128 -0.0870047
-0.14985143 0.15599445 -0.012374791 -0.09789146 -0.045602147 -0.046171773 0.055383522 -0.04030109
-0.016117617 -0.061491895 -0.043797772 0.32877958 0.19267917 -0.07169956 0.26302353 -0.12251338
00000000: 2c13 163e 029d a8bd 32be de3b 9f3d 79bc
00000010: ae9d dbba fa78 0fbe e46f 3fbc 941a 073d
00000020: 16f1 86bd 29a9 4fbd 52b2 84bd 3755 c9bd
00000030: 28a1 203d aba2 b9bb 00b0 abb7 9b3b f0bd
00000040: 911f bfbd 34db a7bc 57e5 18be 54aa c3bd
00000050: c571 29bd ab67 7fbc 5613 96bd 4a6d c3bc
00000060: 1d29 78bd 697e 9d3c 307f 65bd f497 113d
00000070: 86fe 60bd 12bf 45bd 38b7 d63d d5ad c3bd
00000080: 1dc0 143e 56e6 b7bd 4ae2 963e a57b 9abd
00000090: a8a3 3cbc b896 5ebd 0b1f f3bd a8b2 37bc
000000a0: 5d79 b73a d4c9 c4bc cdec e2bd b723 873e
000000b0: d691 503d ba37 9dbd 1ed2 f83d b656 3fbd
000000c0: 37c3 7abd 38cd 573c 41d5 e0bd 0f7c d13c
000000d0: 53d7 76bd 5e48 0bbe 922f c8bd 6956 01be
000000e0: 5609 933e a37e 96b9 f26d 2e3e 1bc4 cbbd
000000f0: 986d dfbc a472 52bd 5140 7dbd 80a3 3dbd
00000100: 3c5c 83bd 5473 fbbb ac00 8dbd 2890 a03e
00000110: 77ee 333d 71e2 b3bd d9a7 ba3c 7e42 5a3c
00000120: ebc7 e5bd 679c bcbc a507 81bc b297 e2bd
00000130: 7d8e 89bd 298f b8bd 471b 5bbd c587 96bd
00000140: bf8f d3bd 60cd 28bd feec 1ebd b0f8 0bbd
00000150: cfd5 9f3e 8791 c8bd 5df1 143e 6669 0b3d
00000160: 55ff 8abd 0d39 023a 159a 133e e59b bcbd
00000170: e691 5e3c 3e81 94bd 3606 57bd 5fc8 e03c
00000180: 6e04 dcbd 0a67 703a 8a9e 413e 329b 57bc
00000190: 4951 dcbb c59b 403c 2d34 97bd 63d0 72b9
000001a0: de3f 923e e7f9 4ebe e46c 173e e528 e0bd
000001b0: 7784 43bd e02b 25bd bc9f bd3d f494 97bd
000001c0: 5799 47bb 313e 5cbd bf5a a1bd 8652 19bd
000001d0: 65c7 9abd bffd 7cbd aebd 40bb 60f0 163e
000001e0: ac2c c8ba 0cc5 a4bd ae21 62bc 0e2e d0bb
000001f0: 9a2f dcbd 2214 c6ba cbf6 46bc 9461 983b
00000200: e3d4 fbbc 7a1d 443e e2fc b4bd 988f dcbd
00000210: 81d2 8fbd 32aa 063e 697c 6dbd bafd 9a3b
00000220: 68c9 bcbd 4b98 ed3d 01a8 dfbd 1f92 0c3d
00000230: 0054 53bd 9ce8 9abd 1489 29bc eec0 f1bd
00000240: b520 38bd 8f22 f1bd 2ad8 05ba db13 19bd
00000250: 7175 59bc 82d9 06be 1640 8e3e 8945 02bb
00000260: 7c6f a3bd 5067 23bd bfb9 a1bd cd4b 2bba
00000270: 605a 8bbc d238 d7bd 5248 a3bc 9593 27bd
00000280: 7998 97bd b2cf 343e b08c a0bc 6bec 7ebb
00000290: 3095 cabd a7e9 8bbb ad60 49bb ad9c 08bd
000002a0: 4162 95bd 359e 9e3d d73d 0b3e d59c a7bc
000002b0: d6d8 1c3e 7996 6ebd b5bd ea3c af39 64bd
000002c0: 6637 c4bd 6ce7 59bc 170c 35bd c64b 293d
000002d0: 184d 97bc a595 0a3d e77b 603e ae63 53bd
000002e0: 3ee9 e3bd 392e 4a3d b1f0 0bbd fb5b e8bd
000002f0: d379 b7bd 95a0 d63d 443b 603b 7cd3 03bd
00000300: b174 98bd 5652 afbd 5762 0cbe a387 c6bd
00000310: 2006 4bbd 78b6 44bd 304a 10bc 0d49 0c3e
00000320: 7eb4 96bb f90f 6cbc ce48 b0bc 12f0 35bc
00000330: 7507 46bd 1a51 a8bd cff9 35bd c82b d5bd
00000340: 2f53 f9bd 511f 77bc 21f1 b7bd 815f aabd
00000350: 0fa0 54bd 5763 adbd d13f d9bd e9a8 87bd
00000360: bf97 483d 84db c33d 899b a4bc 5c7e dabc
00000370: e020 1a3c 438f b5bc b39d 88bd 1d80 7e3d
00000380: 8bcf 4f3d 7847 80bd e3d4 69bd 0862 f1bd
00000390: b6ad 9ebd 5f3c c0bd 048f 8dba 4301 b6bc
000003a0: d01b 46bd dca4 90bc 6f26 253e 9585 40bd
000003b0: cb8f 293c 32ea a3bc fbf7 0dbe 852f b2bd
000003c0: a772 19be 02bd 1f3e a3bf 4abc 517b c8bd
000003d0: 51c9 3abd 9d1e 3dbd d5d9 623d c112 25bd
000003e0: 1809 84bc edde 7bbd 4b65 33bd cc55 a83e
000003f0: b04d 453e 38d7 92bd 05ab 863e 4ce8 fabd

classifier.weight f4 [16, 256]
0.057093307 -0.099124625 -0.045520056 -0.15674074 0.059224445 -0.063398406 -0.19208562 0.022280592
0.020219222 -0.011360909 0.097788215 -0.009468033 -0.03623527 0.084204696 0.0138652995 -0.070234925
0.036559816 0.040308733 0.103562444 -0.055398457 0.015529965 0.006142726 -0.042742435 -0.23770168
-0.006070227 0.04968617 0.10554192 -0.099422745 -0.044062242 -0.13293038 -0.056782372 -0.008753406
0.065286025 0.027676199 -0.37495485 0.122626945 0.0646679 -0.18427685 0.04537259 0.016466135
0.107030205 -0.05751432 0.01411999 -0.5010603 0.112574264 -0.011555623 0.07874453 0.0577501
0.07475936 -0.20632005 0.02269972 0.030004412 -0.17345408 0.08997834 -0.25130463 0.027932279
-0.1283121 0.014393037 -0.20255163 -0.09305547 0.061034244 -0.05567293 0.026789851 -0.0038577819
0.07967311 0.010892963 -0.072320305 -0.78209037 -0.12905253 0.12164453 0.09512429 -0.1579948
0.032013074 0.087751344 -0.064406835 0.004615542 0.009823156 -0.16823769 0.015369138 0.04441138
-0.06386001 0.13764748 -0.2021174 -0.062430166 -0.5798124 -0.104240194 0.113633946 -0.05354099
-0.084641516 0.104042776 0.062079094 0.005621553 -0.014804339 -0.12154789 0.053583294 -0.071605794
-0.09305507 0.029354928 -0.07381785 0.030545702 0.09450412 0.09468641 0.09398996 -0.112589866
-0.32592267 -0.15933366 -0.25700003 -0.012414219 0.013941607 -0.051037893 -0.22064239 0.042662144
0.016694708 -0.18234678 0.08822986 0.099084646 -0.05737541 0.10361729 0.009697199 -0.2839429
-0.047656525 0.069389425 -0.08363103 -0.03507111 0.00501647 -0.115868405 0.019722579 0.03810361
0.012157275 -0.05115601 0.097215824 0.075497024 0.09192796 -0.03327799 0.12264791 0.056318834
-0.07698028 -0.3191409 0.10915617 0.10125663 -0.10935217 -0.023523392 0.040296238 0.083059795
0.07302759 -0.09319034 -0.07381818 -0.015591789 0.06308072 0.032502223 0.009003929 -0.084805414
0.088546604 -0.023367822 0.022098595 0.02006819 0.04056805 -0.0056611486 0.037480697 -0.12008844
-0.094750084 -0.16466005 -0.09657329 -0.0015878531 -0.05698923 0.053187076 -0.03941612 -0.22611
0.015819628 -0.15420833 -0.21813501 -0.051074896 0.06646414 0.03527176 0.052761815 -0.0320297
0.010378679 0.014650174 -0.12051934 0.079319015 0.007384598 0.012171349 -0.061546806 -0.04000538
0.09100589 0.052993495 -0.14028895 0.0010391352 0.08437616 -0.08631607 0.10928765 0.002044513
0.079206675 -0.070418276 -0.0066880416 -0.03198978 -0.0952747 -0.16894022 -0.08909647 -0.06075084
-0.09921852 0.018385375 0.022353401 -0.0034421633 0.022920925 -0.04199377 0.002406143 0.082907036
0.015880337 0.019235818 0.02496888 -0.0859445 0.0021416722 -0.027150355 0.017631114 0.0654677
0.05581425 -0.046634246 -0.03313099 0.09558414 -0.03099054 -0.037610337 0.007814826 -0.020285048
0.085331954 -0.03286174 -0.020139812 0.022601863 -0.028968222 -0.06642349 -0.08707785 0.04977797
0.030956611 -0.19357714 -0.10985005 0.044211596 -0.121848896 -0.024509817 -0.12542734 0.08196908
0.0031001957 0.01614503 -0.033208225 -0.028783262 0.10644078 0.037520777 -0.29791334 -0.052106958
-0.022870028 0.09293551 0.053845014 -0.7532843 0.022043243 -0.028266566 -0.2974388 -0.13945664
00000000: acda 693d da01 cbbd 3d73 3abd a580 20be
00000010: 5595 723d 06d7 81bd 18b2 44be ca85 b63c
00000020: c8a2 a53c 1b23 3abc 3045 c83d cf1f 1bbc
00000030: 6f6b 14bd 8373 ac3d 482b 633c 54d7 8fbd
00000040: bfbf 153d c51a 253d 8c18 d43d 7ee9 62bd
00000050: 6571 7e3c ec48 c93b b112 2fbd 1268 73be
00000060: c1e8 c6bb ba83 4b3d 5d26 d83d 279e cbbd
00000070: 9c7a 34bd e71e 08be a294 68bd 726a 0fbc
00000080: aeb4 853d 32b9 e23c 15fa bfbe d623 fb3d
00000090: 9b70 843d 12b3 3cbe 9cd8 393d fde3 863c
000000a0: a732 db3d 2394 6bbd 8857 673c 7d45 00bf
000000b0: 568d e63d cc53 3dbc d044 a13d 5e8b 6c3d
000000c0: 6f1b 993d 9045 53be c3f4 b93c d0cb f53c
000000d0: f29d 31be 9046 b83d 00ab 80be 3cd2 e43c
000000e0: 3f64 03be c6d0 6b3c b269 4fbe de93 bebd
000000f0: 0bff 793d 4c09 64bd 6476 db3c d7d2 7cbb
00000100: a82b a33d 6678 323c ab1c 94bd 1337 48bf
00000110: 5926 04be c420 f93d 86d0 c23d 64c9 21be
00000120: 2420 033d fab6 b33d bbe7 83bd f93d 973b
00000130: 4df1 203c 8046 2cbe d6ce 7b3c b5e8 353d
00000140: 09c9 82bd 76f3 0c3e ddf7 4ebe c6b6 7fbd
00000150: 966e 14bf e27b d5bd eab8 e83d cc4d 5bbd
00000160: 8858 adbd 6114 d53d a646 7e3d 0135 b83b
00000170: e68d 72bc 1aee f8bd 287a 5b3d 0fa6 92bd
00000180: a893 bebd bf79 f03c d02d 97bd fb3a fa3c
00000190: 608b c13d f3ea c13d cf7d c03d 8495 e6bd
000001a0: 56df a6be 5d28 23be 8295 83be 0265 4bbc
000001b0: 576b 643c 1c0d 51bd 14f0 61be 80be 2e3d
000001c0: 57c3 883c 1db9 3abe dbb1 b43d e4ec ca3d
000001d0: 7a02 6bbd 4d35 d43d 00e1 1e3c f760 91be
000001e0: 7d33 43bd 0b1c 8e3d bf46 abbd b9a6 0fbd
000001f0: 3361 a43b 6a4c edbd 3f91 a13c 8812 1c3d
00000200: 4f2f 473c f788 51bd 1719 c73d 2f9e 9a3d
00000210: ba44 bc3d 804e 08bd d42e fb3d 94ae 663d
00000220: d6a7 9dbd 7066 a3be 458d df3d a35f cf3d
00000230: 08f4 dfbd 21b4 c0bc ab0d 253d 411b aa3d
00000240: 7d8f 953d 94da bebd fc2d 97bd b474 7fbc
00000250: 7730 813d 0d21 053d 3785 133c 76ae adbd
00000260: ec57 b53d e06d bfbc 1d08 b53c 0b66 a43c
00000270: af2a 263d 2881 b9bb 5c85 193d eef0 f5bd
00000280: 550c c2bd a59c 28be 38c8 c5bd 821f d0ba
00000290: 8a6d 69bd b1da 593d cc72 21bd 6189 67be
000002a0: 2a98 813c cae8 1dbe c95e 5fbe e933 51bd
000002b0: 5a1e 883d 1f79 103d c61c 583d 9331 03bd
000002c0: 560b 2a3c 4907 703c d8d2 f6bd 0272 a23d
000002d0: 7ffa f13b 566a 473c 8118 7cbd aedc 23bd
000002e0: 4c61 ba3d b50f 593d e8a7 0fbe 9733 883a
000002f0: 68cd ac3d 7bc6 b0bd 34d2 df3d 3cfd 053b
00000300: 1c37 a23d 7537 90bd 5c27 dbbb b707 03bd
00000310: 621f c3bd aafe 2cbe 3678 b6bd dfd5 78bd
00000320: 1433 cbbd ed9c 963c 7b1e b73c eb95 61bb
00000330: aac4 bb3c a901 2cbd 61b0 1d3b 2acb a93d
00000340: 7b17 823c 6f94 9d3c 898b cc3c ac03 b0bd
00000350: 4c5b 0c3b 6c6a debc 206f 903c ee13 863d
00000360: 7c9d 643d 8d03 3fbd 5cb4 07bd 9ec1 c33d
00000370: dfdf fdbc 4c0d 1abd c209 003c d42c a6bc
00000380: 85c2 ae3d 089a 06bd 3ffc a4bc 8b27 b93c
00000390: c44e edbc 0a09 88bd df55 b2bd fce3 4b3d
000003a0: b898 fd3c 1639 46be 10f9 e0bd 3817 353d
000003b0: ea8b f9bd d0c8 c8bc 0670 00be 68df a73d
000003c0: a72c 4b3b 9542 843c 5905 08bd e0ca ebbc
000003d0: a0fd d93d 63af 193d 1988 98be 1b6e 55bd
000003e0: ed59 bbbc f954 be3d 978c 5c3d 3dd7 40bf
000003f0: 0894 b43c 498f e7bc e649 98be b9cd 0ebe

classifier.bias f4 [16]
-0.1268256 -0.020557258 0.035644308 0.029211799 0.084075056 0.0031873856 0.061573423 0.1175169
-0.031101055 0.15789331 0.057556994 0.049305785 0.016636698 0.019422427 -0.015809033 -0.1666801
00000000: 92de 01be b267 a8bc c4ff 113d 954d ef3c
00000010: 8b2f ac3d 75e3 503b 6a34 7c3d b3ac f03d
00000020: a4c7 febc c9ae 213e e2c0 6b3d ddf4 493d
00000030: af49 883c c81b 9f3c f281 81bc 30ae 2abe
