transfer17_38_04_22_10_12_FullyConnected.pth (torch, 550959 bytes, 8 tensors)

fc1.weight f4 [256, 4]
000000 9e f3 c8 3e b7 b0 ea 3e c7 ee cf 3c c6 78 da bd
       0.39248365 0.45837948 0.025382413 -0.10667567
000010 0c dd 17 be c9 e3 bd 3e db a1 d2 3e 71 83 ae 3d
       -0.14830416 0.3708785 0.4113911 0.08521164
000020 86 ca b1 3e 75 eb 44 bf e1 14 2a bf 24 77 85 3e
       0.34724826 -0.7692178 -0.6643811 0.2606746
000030 b8 c4 b1 be b8 11 60 be ea 69 b2 be 34 4c f1 be
       -0.34720397 -0.21881759 -0.3484643 -0.4712845
000040 a9 70 7f 3e c2 38 2d 3f da 32 1c 3f 2c 6d d5 bc
       0.2494532 0.6766473 0.61015093 -0.026053034
000050 11 8f 97 3d 0a a1 ea bd 69 59 71 3e c7 de db 3d
       0.074003346 -0.11456497 0.23569264 0.10735851
000060 d1 29 bd be 1c 08 b3 be d9 77 29 bf c6 57 c4 3d
       -0.36945966 -0.34967124 -0.661985 0.09587054
000070 13 dd d9 3e 25 4c c3 be 4e 91 84 3d 19 91 ac 3d
       0.4255148 -0.3814403 0.06473027 0.08426113
000080 70 21 5b 3d ee e0 f8 be d0 7f 5f 3d 58 25 b5 be
       0.053498685 -0.48609108 0.05456525 -0.35380054
000090 fe 42 d8 3e c0 58 03 3e e2 25 a8 be a2 ef 90 be
       0.4223861 0.12826824 -0.32841402 -0.28307825
0000a0 04 24 e3 bc 7e 81 1c bf 30 a9 20 bf e1 97 2c 3e
       -0.027727135 -0.6113509 -0.6275816 0.16854812
0000b0 5a d1 c2 be 07 03 2e 3f b6 3b 23 3f 03 12 18 bd
       -0.38050348 0.6797337 0.63762987 -0.037126552
0000c0 db 7b 91 3b e6 ec 02 3f e0 d0 52 be 44 df c9 3e
       0.0044398136 0.5114273 -0.20587492 0.3942815
0000d0 94 9e dd bd 47 a7 e9 3e d9 9a 28 3f b1 c3 99 3e
       -0.10821262 0.45635435 0.6586128 0.30032113
0000e0 a0 66 88 3e 81 29 0d be 71 98 d0 3e 9a 90 6c 3d
       0.26640797 -0.13785364 0.40741304 0.05775509
0000f0 c0 b3 da be 00 d3 f9 3b e6 76 f1 be 1e 2d ab 3e
       -0.42715263 0.00762403 -0.47161025 0.3343286
000100 ef a2 a7 3d d3 19 6c 3e 19 a2 e5 3e 5d 48 1b 3e
       0.08185374 0.23056726 0.44850233 0.15164323
000110 e8 b8 6a 3e af ad 97 be 20 12 14 bf c6 e1 4c bd
       0.22922099 -0.29624698 -0.57840157 -0.05002
000120 cc cf ec bd 4e 13 b8 3e cc 8a cc 3e 27 7a 79 bd
       -0.115630716 0.35952228 0.39949644 -0.06090751
000130 68 e2 a1 be 29 9e f8 3e f0 0c a8 3e 87 3e a7 3e
       -0.31618047 0.48558167 0.3282237 0.32664892
000140 19 96 a1 3d 7a 69 05 bf a0 4e bc 3d 9b 4a b3 3c
       0.07889957 -0.5211407 0.09194684 0.02188616
000150 10 f1 52 be be 77 ef 3e 0c 94 e7 be 20 3b 12 bd
       -0.2059977 0.46771044 -0.45230138 -0.035700917
000160 48 5c 99 be 4c b7 1f be 14 b7 e4 3e fc f0 ee 3e
       -0.29953218 -0.15597266 0.44670928 0.4666823
000170 df 11 00 be 81 5b 3b bc 82 79 f3 3d 79 46 7d bd
       -0.12506817 -0.01143539 0.1188841 -0.061834786
000180 fd 79 ee be 99 76 0e bf a5 38 3f 3d bf 3c 33 3e
       -0.46577445 -0.55649716 0.04668488 0.17503642
000190 a1 78 b4 3d 41 94 f9 3e 5e a0 e4 3d cc 80 c0 3e
       0.08812071 0.4874592 0.111634 0.37598264
0001a0 26 c7 6d 3d 5f 03 99 3e 2f ac bc 3e 2e 97 a1 bd
       0.05805125 0.29885384 0.36850116 -0.07890163
0001b0 45 a6 38 3e 72 95 27 3f 7c 27 55 be 55 f4 b9 bc
       0.18032177 0.6546241 -0.20815843 -0.022699514
0001c0 bb b4 d5 3c 82 4c 92 be 18 b4 a0 be 16 83 ac be
       0.026087156 -0.28573996 -0.313874 -0.3369376
0001d0 c0 4a 91 be 80 07 6b 3c 6c 81 da be 50 a1 27 be
       -0.28377342 0.01434505 -0.42676866 -0.1637013
0001e0 e0 f8 37 3e 8e b0 2a 3e 44 1a ee bd 63 1c cb bd
       0.17966032 0.16668913 -0.116261035 -0.09917524
0001f0 d0 7d a5 3d 8c 12 8d be 46 e6 a6 3e 46 50 b0 be
       0.080806375 -0.27553213 0.3259756 -0.34436244
000200 ec ff d5 3e b5 fb 86 be df 37 f6 bc 99 10 8f be
       0.41796815 -0.26363912 -0.030055938 -0.2794235
000210 44 52 4a be 78 98 e5 3d 2c d9 fe be 80 56 93 3d
       -0.19757944 0.11210722 -0.49775064 0.07194233
000220 73 fb bf 3e 3c ba f8 bd 09 89 0b bf be 77 a3 be
       0.37496528 -0.121448964 -0.54505974 -0.31927294
000230 9f 85 9a 3e 7e ca e7 be 9f c0 21 bf ed ad 22 3f
       0.3018007 -0.45271677 -0.6318454 0.6354664
000240 cd 1c 62 be cf b8 1a bf 6a 37 e5 be 59 ad 6d 3e
       -0.22081299 -0.60438246 -0.4476884 0.23210658
000250 4a 7e 52 be cf 68 25 bf 8c b5 f8 bd a6 13 c2 3e
       -0.20555988 -0.6461305 -0.12144002 0.37905616
000260 87 75 a5 3e 0d 51 2c bc 4e 3a 94 3e 3b 0e 81 3d
       0.3231623 -0.010517371 0.28950733 0.06301542
000270 21 6f e7 3e 8b df 13 3f 9e 22 a3 be f7 81 1d be
       0.45201972 0.57762975 -0.31862348 -0.15381609
000280 99 94 39 be 96 1a 6e 3e 31 e6 0a 3f d0 fb f5 3e
       -0.18123092 0.23252329 0.54257494 0.4804368
000290 a9 cc 61 3d a3 35 dd 3e 5f 89 ae be 4e 69 e5 3e
       0.05512682 0.43204984 -0.3408918 0.44806904
0002a0 bb e0 ad be 60 df 7c 3e ba 93 86 3e 9d 55 fe bd
       -0.33960518 0.24694586 0.2628458 -0.12418673
0002b0 c3 13 ef be 3d 0a 32 3f f5 d6 60 3e 21 08 b0 bd
       -0.46694764 0.6954687 0.21957 -0.085953005
0002c0 cb df b1 be e7 ae 9f 3d 18 84 88 3d ac 53 80 3d
       -0.34741053 0.07797032 0.0666582 0.06265959
0002d0 ac d4 2d 3e 32 c8 bc bd 12 22 29 bf e7 ff 8e 3d
       0.16975659 -0.09217872 -0.6606761 0.06982403
0002e0 f2 27 31 3e fb c8 f8 3e 50 c7 0e 3f b5 65 89 bc
       0.17300394 0.48590836 0.55772877 -0.01677213
0002f0 d8 60 2d be 92 e2 89 be 58 e3 fc 3e e0 19 b0 bc
       -0.16931474 -0.26930672 0.493922 -0.021496713
000300 14 2f 1b bd 5c 6e 7e 3d 19 0d 08 3f 92 1d 67 3d
       -0.037886694 0.062116966 0.53144985 0.056424685
000310 ae fb 9c be d2 3a c2 3e 0e c1 c8 be 92 e8 a4 be
       -0.30660766 0.379355 -0.3920979 -0.32208687
000320 62 76 ad be 20 b4 a7 be 00 b4 02 bd 46 75 d0 be
       -0.3387938 -0.32754612 -0.031909943 -0.40714473
000330 62 db bc be 74 83 7a be 68 6d 15 3e 00 56 da 3d
       -0.36886126 -0.24464208 0.14592516 0.106609344
000340 9a f5 38 3e 63 8a 7b 3e 82 c4 33 bd 3f 4d a6 3e
       0.1806244 0.24564509 -0.043888576 0.3248081
000350 60 c6 d0 3c f4 d4 dc be bc 2f b8 3e 48 fd 38 be
       0.025485218 -0.4313122 0.35973918 -0.18065369
000360 00 c7 70 be e8 75 b0 3e e8 a9 d5 bd c8 ab ee 3d
       -0.23513412 0.34464955 -0.10432798 0.116538584
000370 df ae 32 3e 83 11 a3 be 06 0a 71 3e 26 65 5a 3e
       0.1744952 -0.31849298 0.2353898 0.21327648
000380 76 46 36 3e 12 de 93 3e 33 7e 2e 3f f6 64 46 3a
       0.17800316 0.28880364 0.68161315 0.0007568145
000390 b8 85 b7 be ce 48 8f 3c 6d ac 02 be d0 6a 9e 3e
       -0.35844207 0.01749077 -0.12761088 0.30940866
0003a0 91 53 f0 3e 3a dc 2b be 53 f1 81 be 68 b0 56 3d
       0.46938756 -0.16783229 -0.25379428 0.052414328
0003b0 3b f7 a9 3e 1f ca 8c be 91 de b2 3e 3f 19 d0 3e
       0.33196434 -0.27497956 0.3493543 0.4064426
0003c0 a0 5a d9 3d 7c 26 23 3e 3d 11 1e be a4 6b 56 be
       0.106129885 0.1593265 -0.15436263 -0.20939499
0003d0 a1 f7 5f be de 6b 86 bc 62 20 37 be a7 c0 95 bd
       -0.21871807 -0.016408857 -0.17883447 -0.07312136
0003e0 11 26 8b be 8a 5a 2b 3f f3 d0 3a 3f 9b 92 ba 3d
       -0.2717748 0.66935027 0.7297508 0.09109994
0003f0 16 bd 6f 3e a0 71 80 be 08 40 31 bf f3 cc da bd
       0.23411974 -0.2508669 -0.6923833 -0.10683622

fc1.bias f4 [256]
000000 b9 db de 3c 42 88 8b 3e 3f 82 a3 be 00 78 7e bb
       0.027204381 0.27252394 -0.31935307 -0.003882885
000010 b2 b1 cd be 2b 2a 52 bd fe 35 42 3e 96 37 a0 be
       -0.40174633 -0.051309746 0.18965909 -0.3129241
000020 70 69 35 be 4a 77 d7 be 2f ce bd 3e b7 77 c6 3e
       -0.17716002 -0.42083198 0.37071368 0.3876321
000030 29 6b 53 be 1c e9 64 3e a4 68 32 3d 64 f9 4d be
       -0.20646347 0.22354549 0.043556824 -0.20114666
000040 27 05 98 3e 65 98 36 3d 4a ff 42 3c b5 14 22 bd
       0.2969143 0.04457893 0.011901686 -0.03957053
000050 9c db 10 be ec 8b 46 be 4a 84 b6 be d0 87 53 3d
       -0.14146274 -0.19389313 -0.35647804 0.051643193
000060 c5 b8 3c 3e 90 fa 8f bd 23 4e 50 3e c1 2a 70 3e
       0.18429859 -0.07030213 0.20342307 0.2345381
000070 a6 29 39 3e dc 35 1b be 60 8d be 3b 3c da 43 be
       0.18082294 -0.15157264 0.005815193 -0.19126219
000080 a8 e9 12 3e b0 6a e4 bd f9 52 64 3e 46 96 3e be
       0.14346945 -0.111531615 0.22297277 -0.18612012
000090 6d 7b 5e 3e 9b c9 b8 3d 96 30 af 3c 8d e5 3d 3c
       0.2172677 0.09022828 0.021385472 0.011590374
0000a0 96 57 1d bd 0e b8 04 bf de 3f 65 3e 8f 46 ec 3e
       -0.038413607 -0.51843345 0.22387645 0.46147582
0000b0 ed 34 36 3e 26 f9 bc 3d 72 c4 80 3e 4c e2 e7 be
       0.17793627 0.09227209 0.25149876 -0.45289838
0000c0 e2 a0 fc 3d 6c a4 55 be 58 70 f0 be 20 cc bb be
       0.123353735 -0.20863503 -0.4696071 -0.36679173
0000d0 32 34 78 be 60 21 dd be 10 81 f7 be b8 d6 ed 3d
       -0.24238661 -0.43189526 -0.48340654 0.1161322
0000e0 d0 9a 80 bd 03 4e 4a be 62 00 de bd cb 44 a0 be
       -0.06279528 -0.19756322 -0.10839917 -0.31302485
0000f0 23 ea b2 3d ab 05 90 3d 62 15 83 bd 59 07 90 3e
       0.08736064 0.07032331 -0.06400563 0.28130606
000100 c1 17 ae be e8 8b 86 3e f3 cf 28 3e 72 cd 97 3e
       -0.34002498 0.26278615 0.16485576 0.2964893
000110 0c ff 57 3e 4b 9e 23 3c ea 70 34 3d ee 9f 85 3d
       0.21093386 0.00998647 0.044052996 0.06524645
000120 da 36 53 be 91 f9 6a 3e 6c 2f 45 be 41 83 92 3d
       -0.20626393 0.22946765 -0.19256371 0.07153941
000130 80 06 ac bb 23 a7 a5 3d 26 6f 9b 3e 58 9a 9c 3e
       -0.0052497983 0.080885194 0.30358237 0.30586505
000140 16 35 a9 be fd c9 d9 3e 52 39 6e 3e c0 6d 19 be
       -0.33048314 0.42536917 0.23264053 -0.14983273
000150 70 a4 7f bd 5a ea b2 3e 58 59 2c be 10 da 20 3d
       -0.06241268 0.3494442 -0.16830957 0.03927046
000160 f6 ec 85 3e 78 4c 9c 3b 35 0b cb bc ed 24 39 3e
       0.2615735 0.004769858 -0.024785617 0.18080492
000170 92 40 4b 3d f8 f5 1a 3e 4d 72 99 3e 8a 99 fb be
       0.049622126 0.15132892 0.29970017 -0.49140579
000180 54 ca 26 3e 76 37 a8 be 22 ff 9a be 2e e3 e4 be
       0.1628812 -0.32854813 -0.30272776 -0.44704574
000190 8a 32 c1 be 5c 84 e5 be 84 a0 6c be 68 60 13 3e
       -0.3773387 -0.44827545 -0.23108107 0.14392245
0001a0 8b 90 80 3d f8 d5 89 bd f5 7f 0c bf 77 da 67 3e
       0.062775694 -0.067302644 -0.54882747 0.22641931
0001b0 eb 7c 5b bd d7 dd 8b 3e 09 f4 de 3e 0d 57 8e 3e
       -0.053585928 0.27317688 0.4354556 0.2780079
0001c0 19 09 8e 3e 48 f7 a2 be 53 5d b4 bd 1e b0 7c bd
       0.27741316 -0.31829286 -0.08806863 -0.061691396
0001d0 6a 54 00 be ee 10 30 3e 16 01 72 3e c0 f1 ee bc
       -0.12532201 0.17193958 0.23633227 -0.02916801
0001e0 b0 7c 95 be 58 2b bd 3e fc d8 bf be 78 e7 26 be
       -0.29196692 0.3694713 -0.37470233 -0.16299236
0001f0 dc 73 61 3e 18 97 e3 3d da 09 4b 3e fa 1c a2 3e
       0.22016853 0.11112803 0.19827977 0.31662732
000200 d0 36 07 be b0 e8 3b bd 09 45 29 bc c6 6d 93 be
       -0.13204503 -0.045876205 -0.010331401 -0.28794688
000210 f3 15 9f 3a a5 40 3f 3c f2 48 8e be c0 c3 eb 3d
       0.0012137279 0.011673127 -0.27790028 0.11511946
000220 86 21 e9 be 7b 6c 86 3c d2 6f 89 3e 18 80 ae 3e
       -0.4553339 0.01640915 0.26843125 0.34082103
000230 4e 58 bd be 43 87 d9 3e 6a 83 af be 0a 96 02 bf
       -0.36981434 0.4248601 -0.34279948 -0.5101019
000240 d2 eb 8c be d9 63 40 be 22 37 e3 3d 16 6c 4c be
       -0.27523667 -0.18788089 0.110945 -0.19963107
000250 93 b7 4e bd d8 ba 4f 3d 7e 74 c8 be f4 ed 57 be
       -0.05046804 0.050715297 -0.39151376 -0.21086866
000260 46 ee 0a 3e 6f da aa be fd b3 c6 3d e8 67 25 be
       0.13567457 -0.33369777 0.09702299 -0.16152918
000270 0c 01 b4 3e 44 ef a1 bd 92 a0 b1 be 80 2a 6d 3d
       0.3515705 -0.079069644 -0.34692818 0.05790186
000280 50 c1 87 3e 29 8e c3 3e 89 1f 5b bd 96 f1 a3 be
       0.26514673 0.38194397 -0.05349687 -0.32020253
000290 04 0b 48 be 6b 47 43 be a7 50 b1 be 0e 83 ba be
       -0.19535452 -0.19070213 -0.34631845 -0.36428112
0002a0 74 bc 7f be c4 7a e8 be 4a 57 51 be 4c 07 c4 be
       -0.24974233 -0.45406163 -0.20443454 -0.38286817
0002b0 1c 6e 27 3a 68 0a ae be 38 1d 36 be 78 7a 31 bd
       0.0006386952 -0.33992314 -0.17784584 -0.043329686
0002c0 b8 02 21 be 3c e6 06 bf 36 6b 0d bf 8d ec cd bd
       -0.15723693 -0.5269506 -0.55241716 -0.10054884
0002d0 1c db 46 be 86 e6 87 be 79 7c 06 3e 8e 48 9a 3e
       -0.19419521 -0.26543063 0.1313342 0.3013348
0002e0 40 5b bf be d6 6a af be d5 33 fe 3c 0a 08 19 3e
       -0.37374306 -0.34261197 0.031030575 0.14944473
0002f0 79 4d 59 3e 26 7e f2 be 08 d8 0d be e8 3f c1 3d
       0.2122096 -0.4736187 -0.1385194 0.09436017
000300 3a ba b7 3e 04 5c 13 3e c7 f4 97 3e ad d2 11 3e
       0.35884267 0.1439057 0.29678938 0.14240523
000310 ea 73 a1 be 58 1e 94 be 16 10 08 3e 05 1c 8b 3e
       -0.31533748 -0.289294 0.13287386 0.27169815
000320 64 e9 01 3f 80 8d 03 be bc af 76 be 64 5c 98 be
       0.5074675 -0.12846947 -0.24090475 -0.29757988
000330 72 a1 15 be a7 3c 8f 3e 84 35 49 be c4 61 a4 3e
       -0.14612368 0.27975962 -0.19649321 0.3210584
000340 06 ef 0c 3e a8 58 8d be c0 1f 1b be e3 2e bc bd
       0.13763055 -0.27606702 -0.1514883 -0.091886304
000350 b0 6d d4 be 5a d4 d4 3e 39 16 2d 3e 59 49 3b be
       -0.41489935 0.4156826 0.16903009 -0.18289699
000360 35 10 98 3e 0c a8 91 3e 36 36 0e 3e 84 1d 2b be
       0.29699865 0.28448522 0.13887867 -0.16710478
000370 aa 9d 94 3e c2 a4 e6 be c1 93 06 be 70 81 43 3d
       0.29026538 -0.45047575 -0.13142301 0.047730863
000380 a5 27 bf 3d 2c f3 5d be fa 98 a9 3e 72 26 82 bc
       0.093337335 -0.21674794 0.33124524 -0.015887473
000390 7d 9c ee 3e 92 fe e9 be f8 6d e4 bd 2f 23 55 3d
       0.46603766 -0.45702034 -0.111537874 0.052035507
0003a0 06 4c ed be aa 3d 22 3e 3a c6 d6 be 4e 3a df be
       -0.46347064 0.15843835 -0.4194811 -0.4359917
0003b0 ba e6 c6 3e 34 aa 4a 3d ac 75 9f be b8 02 06 be
       0.38847905 0.049478725 -0.31144464 -0.13086975
0003c0 06 8b 8f be 09 59 3e be d8 a1 74 be e0 5f 44 3d
       -0.28035754 -0.18588652 -0.23889863 0.047942996
0003d0 65 fe c9 3e 6c 22 e4 3d b4 35 2a 3e 3c 97 5e be
       0.394519 0.11139378 0.16622049 -0.21737379
0003e0 0f 58 7a 3e bc c2 04 3e fb c2 ab be a0 4c 56 3d
       0.24447654 0.1296491 -0.33547196 0.05231917
0003f0 3a d2 cc 3d 8e ea 80 3e 50 4a dd 3e 43 df fa 3e
       0.10001035 0.2517895 0.43220758 0.4899846

fc2.weight f4 [256, 256]
000000 ec 58 c2 bd 81 31 06 bd ca 57 3f bd 58 88 04 bc
       -0.09489617 -0.032762054 -0.04671458 -0.0080891475
000010 88 c0 d0 3c 69 70 c2 bc 74 45 ea 3c 8b 7e 5d bd
       0.025482431 -0.023735242 0.028597571 -0.05407576
000020 c2 db 53 3d f2 e2 14 bd ec fb b4 bc 80 4b 63 bc
       0.05172325 -0.036349244 -0.022092782 -0.013872981
000030 f7 5e f1 bd f4 13 1b bd ea 0b 98 bd 56 62 58 bd
       -0.11785691 -0.037860826 -0.074241474 -0.052828155
000040 29 be cb bd a9 05 bf bd c0 8e 34 bb 16 aa 28 3d
       -0.099483795 -0.093272515 -0.0027550906 0.04117783
000050 65 07 17 bb 10 8a 4e bc c0 80 3a bd 01 d2 b7 bd
       -0.002304518 -0.012606159 -0.04553294 -0.08975602
000060 26 d2 03 bd e5 60 b0 bb c3 a2 4f bd 23 b2 be bd
       -0.032182835 -0.0053826445 -0.05069233 -0.09311321
000070 a2 92 c1 bd b4 0f f0 bc a9 18 12 bd 76 1a 46 bd
       -0.09451796 -0.029304363 -0.03566805 -0.04836508
000080 4a b0 a7 bd 8c 01 63 bd 4e 43 c4 bd e0 8f 77 bd
       -0.08187921 -0.055421397 -0.0958315 -0.060439944
000090 78 51 1d bd bf 03 e3 bd e8 6d d3 bc 98 5c d7 bd
       -0.038407773 -0.11084699 -0.025809243 -0.10515708
0000a0 9e 1c 97 bd 00 bc 64 bd 94 87 b7 3d d0 33 16 bd
       -0.07378505 -0.055843353 0.08961406 -0.036670506
0000b0 95 cb 19 bd f3 ae 5a bd 06 66 e2 bd 50 24 f7 bc
       -0.037547667 -0.0533895 -0.11054616 -0.030168682
0000c0 e9 2f 0f bd 64 a1 51 3d ac 4f 76 bd d8 9e d7 3c
       -0.0349578 0.051179305 -0.060134575 0.02632086
0000d0 f4 7f f6 bd 60 c4 1f bc 1c 2b 84 3c 09 66 14 bd
       -0.12036124 -0.009751409 0.016133837 -0.03623012
0000e0 90 4c 2b bd 20 fa 37 bd 0a 72 1b bd 55 c8 72 bd
       -0.041821063 -0.044916272 -0.037950553 -0.059273083
0000f0 f6 8a 28 bd 05 59 92 bd 5e ad 2a 3d e5 0f c8 bd
       -0.04114815 -0.071458854 0.041669242 -0.09768657
000100 f8 b1 af bc 20 c4 db 3b 76 99 c6 bd 88 0f 0e bc
       -0.021447167 0.0067067295 -0.09697239 -0.008670695
000110 8a 5c 27 bd 24 46 44 bd 83 eb cf bd c8 24 19 bc
       -0.040859737 -0.047918454 -0.10152342 -0.009347148
000120 98 e4 5a 3c f8 fc 4c bd e8 0e 24 bd 8a 28 39 3a
       0.013360165 -0.050045937 -0.04005328 0.0007063231
000130 6e ec df bc c4 89 28 bd 65 ac 84 bd 25 84 e3 bd
       -0.027334418 -0.04114701 -0.06478194 -0.11109189
000140 e4 1c e0 3c ad bc 9e 3d 1e 01 78 bc c4 d5 16 bd
       0.027357526 0.07750831 -0.015136985 -0.036824957
000150 64 4f e8 bc 94 68 53 bb 64 8e 0a 3d fc f4 f8 3c
       -0.028358169 -0.0032258378 0.0338272 0.030390255
000160 bc 4c 15 bd 2e b8 84 bd 1f ba ac bd 6f 2b 0e 3a
       -0.036450133 -0.06480442 -0.08433937 0.0005423342
000170 55 2c a5 bd 50 0a d0 bd 66 6a d4 bd 46 19 59 3d
       -0.08065096 -0.10158217 -0.103718564 0.05300262
000180 70 0b 4a 3c 80 57 3d bd f0 46 fe bb ac 43 d2 bc
       0.0123318285 -0.046226025 -0.0077599213 -0.025667034
000190 28 1d 44 bc b4 70 43 bd 0a ca d1 bd ce 4c 6a 3d
       -0.011969842 -0.047714904 -0.10243614 0.057202153
0001a0 f9 af 3f bc 14 57 3a bd 47 e6 ab bd 3c c0 a8 bd
       -0.01169967 -0.0454932 -0.08393531 -0.08239791
0001b0 97 10 c9 bd 15 6e 93 bd 4c d2 f2 bc 6a 60 5b 3d
       -0.098176174 -0.07198731 -0.029641293 0.053558744
0001c0 72 38 50 bd d0 02 0f 3c 42 f2 8a bd d5 69 9e bd
       -0.05083508 0.008728698 -0.06784488 -0.077350296
0001d0 6e 6c ed bb 17 d6 f2 bd 73 00 2c bd 54 17 09 3d
       -0.007245592 -0.11857241 -0.041992616 0.033469513
0001e0 d8 ba fe bc 3c 1d 77 bd 99 9b e5 bc 4c ee 0a bd
       -0.031094953 -0.060330614 -0.028028296 -0.033918664
0001f0 20 08 32 bd d4 ee de bd 86 92 96 bd 20 e1 73 bc
       -0.04346478 -0.108853966 -0.07352166 -0.014885217
000200 78 c9 04 bc 06 0f 59 3d 20 c0 c9 bc 3a 3a 6a 3d
       -0.0081046745 0.052992843 -0.024627745 0.057184435
000210 37 e8 5b bd 10 d8 ea bb 60 51 45 bd e0 a5 7b bb
       -0.053688254 -0.00716687 -0.04817331 -0.003839843
000220 20 ec c6 3b 04 8b fb bc 20 04 77 bd 72 4c fc bc
       0.0060706288 -0.030705936 -0.06030667 -0.03079817
000230 40 b8 5e bb 7e c3 2b 3d b8 1c e3 bc 36 68 d7 bd
       -0.0033984333 0.041934483 -0.027723655 -0.105179235
000240 52 d1 59 3d f5 e5 00 bd 7a 9e 42 bd 4c cd 58 3d
       0.05317814 -0.031469304 -0.047514416 0.05293016
000250 77 bb e7 bd 4b 0a 68 bd f8 6a 32 bd a6 22 09 3d
       -0.11315053 -0.05665044 -0.043559045 0.03348031
000260 c1 28 b1 bc 3c 44 90 3c 64 63 a7 bd ee 50 26 bd
       -0.021625878 0.017610662 -0.08173254 -0.040604524
000270 55 cb 7f bd d0 ac 88 bb d8 37 74 bd 48 01 b7 3c
       -0.062449772 -0.0041709915 -0.05962357 0.022339478
000280 65 02 3c bd 44 46 56 bc e0 99 6a 3c 98 b5 05 bc
       -0.04590072 -0.013078276 0.014318913 -0.008160971
000290 b6 40 5e 3d 6e e7 e5 bd 8c 19 5b bb 00 cc 5d bc
       0.054260932 -0.11225782 -0.0033431975 -0.013537407
0002a0 00 e2 1e 3a 10 2a 8b 3b b1 72 87 bd ea 74 7a bd
       0.00060608983 0.0042469576 -0.066136725 -0.061146654
0002b0 18 f8 12 bd b8 7a 85 3c 04 b7 8d bc 4c ba f8 bc
       -0.035881132 0.016293868 -0.017299183 -0.03036227
0002c0 7a 59 7a bd 82 96 40 3d 0e 14 28 bd 9d fb 2f 3a
       -0.061120488 0.047018535 -0.04103475 0.00067132135
0002d0 00 46 b2 3c 00 93 4e 3a 52 e1 53 bd 84 12 9b bc
       0.021761894 0.0007880181 -0.051728554 -0.018929727
0002e0 9a 92 6a 3d 3c ed 66 bd b6 d9 bd bd fa 68 c2 bd
       0.057268716 -0.056378588 -0.09270041 -0.09492679
0002f0 c9 e0 f5 bd 00 91 39 3b 80 ca c5 3b 43 2a 33 bd
       -0.12005765 0.0028315187 0.006036103 -0.043741476
000300 b5 90 94 bd 87 72 7f bc 68 50 b1 bd ea e1 f0 bd
       -0.07254163 -0.01559127 -0.086579144 -0.1176184
000310 a0 67 37 3b fc f0 5b 3d 5d c1 b8 bd 1b b2 dd bc
       0.002798535 0.053696617 -0.09021256 -0.027062466
000320 33 85 20 bd 86 be 71 3d e8 5c 6e bd 10 11 2a bc
       -0.03918953 0.059019588 -0.05819407 -0.010380045
000330 38 2c 76 3d 90 6a 0d bd da bd 58 3d a0 ea eb bd
       0.060100764 -0.034525454 0.05291543 -0.115193605
000340 cb fe a3 bc 88 a1 52 bc e0 e1 01 3c 6a a3 ed bd
       -0.020018956 -0.012855895 0.007927388 -0.116034344
000350 b8 1d e3 3c b8 a7 12 3b 5c 6a 5d bd ac f8 a5 3c
       0.027724132 0.00223778 -0.05405651 0.020260178
000360 b0 a9 31 bc cd 45 d3 bd 2b 7a 11 bd ec 61 56 3d
       -0.010843679 -0.10316048 -0.0355169 0.05233948
000370 fa f3 55 bd 96 73 34 bd 59 09 d5 bc 68 fd c8 bc
       -0.052234627 -0.044055544 -0.026005434 -0.024534896
000380 4f f3 2f bd a0 2f 33 3b 86 50 59 3d 1c c7 9e bc
       -0.042956647 0.002734162 0.05305531 -0.019382052
000390 51 75 d6 bd 80 04 82 3c 7e 0d 25 3d 59 d3 a2 bd
       -0.10471595 0.015871286 0.04029607 -0.079504676
0003a0 34 af cb bc 5c 5c e4 bd 3c a4 bf 3c 8a 9c 7d bd
       -0.024863817 -0.11150429 0.023393743 -0.061916865
0003b0 ed 65 57 3d 89 f4 aa bb 68 54 30 bd 36 b4 71 bd
       0.05258744 -0.005217139 -0.043049246 -0.059009753
0003c0 48 2f f0 bc 43 fb 9d bd ae 5c 5b 3d 00 3e f4 3a
       -0.02931942 -0.0771394 0.053555183 0.00186342
0003d0 21 7b e0 bd 28 9e 6e bd 00 b3 41 3b 46 79 60 3d
       -0.10960985 -0.0582563 0.0029556155 0.054803155
0003e0 b5 fb f8 bc 40 08 e8 bd 6e 3d 6a 3d 2c fb dc 3c
       -0.03039346 -0.113296986 0.05718749 0.026975237
0003f0 80 f8 8d bc bf ba 6d bb 41 74 0f 3c 33 af 4d bd
       -0.017330408 -0.003627464 0.008755744 -0.05021591

fc2.bias f4 [256]
000000 91 8e 73 bd 9c 49 83 3c a1 b6 8a bb 1b 6d a1 bd
       -0.059462134 0.01602631 -0.004233197 -0.07882138
000010 48 06 7d bd f4 c7 1c 3d ff 5e 8c bd 04 3e e7 bc
       -0.06177357 0.038276628 -0.068540566 -0.028227814
000020 ad 7d 15 3e 11 dc 00 bd ec fe 6e bd 0f cf c3 bc
       0.14598723 -0.03145987 -0.05834858 -0.023902444
000030 7a b8 c2 bd b8 7a 9f bb 88 02 67 bd 90 ac 0e 3c
       -0.09507842 -0.004866924 -0.0563989 0.008708134
000040 49 ba eb bd ef e9 aa bd 40 0c 25 bd 2c 06 f1 bc
       -0.115101404 -0.083454005 -0.040294886 -0.029421888
000050 4e 37 9a bd ce d2 7a bd 47 ca 90 bd c5 21 dd bd
       -0.0753008 -0.061236195 -0.07069831 -0.10797457
000060 2d 04 c7 bd b9 a8 b7 bd a3 9c 92 bd 1f 95 d9 3c
       -0.09717593 -0.08967728 -0.07158782 0.026560364
000070 ae 18 22 ba 36 b5 20 bd a6 34 19 bd 5c 1d 29 bd
       -0.0006183487 -0.039235316 -0.037403725 -0.041287765
000080 f0 fb 89 bd 3e 03 50 3d f4 83 1e bc 30 46 87 bd
       -0.067375064 0.050784342 -0.009675015 -0.06605184
000090 60 b7 79 bd 6c 20 05 bd ed a1 4a 3d 90 81 23 bd
       -0.060965896 -0.032501623 0.04947083 -0.039918482
0000a0 7a 71 a0 bd 9e 51 7d bd 23 58 46 bc c2 a8 c9 bc
       -0.07834144 -0.061845414 -0.012105974 -0.024616603
0000b0 e2 26 ae bd e8 ff d6 bd e1 ac 8f bd af 30 c6 bd
       -0.0850351 -0.10498029 -0.07015396 -0.096772544
0000c0 0a b3 96 3d ae 0b 8e bd d1 06 a7 bd 7b 7e 0a bd
       0.07358368 -0.069358215 -0.08155597 -0.033812027
0000d0 f4 fd bc bc 3b 67 37 bd 39 ca 8d bd 6a 07 f9 bd
       -0.023070313 -0.044776183 -0.069233365 -0.12159617
0000e0 ff b5 ca bc 6e 86 2d bd db 6f c2 3c b4 37 17 bd
       -0.024744986 -0.04236453 0.023734977 -0.036918357
0000f0 dd 6a 4d bd 8c 60 4b 3e cb bb ba bd 69 b3 a5 bd
       -0.05015074 0.19861048 -0.0911785 -0.080908604
000100 54 40 b6 3c 55 61 6b 3e 9c 43 40 be 0c 8c d9 bd
       0.02224747 0.22986348 -0.18775791 -0.10622415
000110 e8 cd 22 bd 32 24 af 3c 70 72 80 bd 8d 01 e1 bd
       -0.03974715 0.021379564 -0.06271827 -0.10986624
000120 50 74 9d 3c 59 de f2 bc 6e d9 56 bd 7f 5a 3b 3d
       0.019220501 -0.02964704 -0.05245345 0.0457406
000130 72 8d 2f bd e3 a1 44 bd 2a 47 b9 bb c0 8c 03 be
       -0.042859502 -0.04800595 -0.0056542354 -0.1284666
000140 f1 f1 f8 bd b0 48 67 bc d0 2a ba 3c 60 b5 08 bd
       -0.12155522 -0.014116451 0.022725493 -0.033376098
000150 d4 13 f6 bc ef 45 48 bd 20 2b 83 bd 18 f8 da 3c
       -0.030038752 -0.04889482 -0.0640471 0.026729628
000160 3e 92 46 bc 35 91 d5 bd b0 b6 84 bc 98 fd ce bd
       -0.012119828 -0.10428087 -0.016200393 -0.10106963
000170 40 8c e1 ba 0e af 0d bd e3 dd 01 bd 12 d7 38 bd
       -0.0017207935 -0.034590773 -0.03170575 -0.045126982
000180 74 a8 5b bd b4 01 f9 bc d6 3f 45 3d 0e f2 de bd
       -0.053627446 -0.03039632 0.04815658 -0.10886012
000190 99 95 96 bd 87 73 c2 bd cb 9b 48 3d dc 25 00 3d
       -0.07352752 -0.09494691 0.0489767 0.031286106
0001a0 40 3e f5 ba a1 25 1d bd 52 f2 6c 3e 07 94 d7 bd
       -0.0018710569 -0.038365964 0.23139313 -0.10526281
0001b0 65 0c 03 3d 73 53 f3 bc 2c 36 4f bd b3 74 08 bd
       0.031994242 -0.029702878 -0.05058877 -0.033314418
0001c0 28 b9 b5 3c 8d 2c 4a bc 31 f3 0f bd 0c 9d 8b bd
       0.022183016 -0.012339723 -0.035144035 -0.06817064
0001d0 c7 ac 93 bd 0b 4b d9 bd 82 59 8e bd b1 d7 b6 3d
       -0.07210689 -0.106100164 -0.06950666 0.089278586
0001e0 c5 25 05 bd e4 73 96 bd 00 c9 56 bd 35 76 dc bd
       -0.032506723 -0.07346323 -0.052437782 -0.10764734
0001f0 18 6c ec bc 7c 61 f7 bc 98 44 fa 3c 4e 21 d6 39
       -0.028860137 -0.030197851 0.030550286 0.00040842075
000200 6e 40 77 bd 7e c7 7c bd 98 e1 6a bd 0b d4 4c bd
       -0.06036418 -0.061713688 -0.05734405 -0.050006907
000210 f2 a6 35 3e dc 20 24 3c 5b 8c 93 bb fe 19 b5 bd
       0.17739466 0.0100176 -0.0045028157 -0.08842848
000220 fe 32 0f bb 70 6e a9 bb 91 27 91 bd 5f d3 02 3d
       -0.0021850462 -0.005170636 -0.07087625 0.03193986
000230 ad e7 ac bd 11 a2 e5 bd 00 45 56 bd 4e 24 91 bd
       -0.08442626 -0.11212552 -0.052311897 -0.07087003
000240 44 80 24 bd b2 83 95 bd a6 08 35 bd 0b 6b bc bb
       -0.040161386 -0.073005095 -0.0441977 -0.005750065
000250 38 e9 47 bd fe 10 8c bc 5a e0 a4 bc 14 f5 56 bd
       -0.0488064 -0.017097946 -0.02012651 -0.05247982
000260 3c 97 97 bd 87 1f 13 3e b8 d8 a1 bc 0d fd 26 bd
       -0.074018925 0.14367495 -0.01975666 -0.04076867
000270 35 b5 81 3c c8 f7 22 bd d5 0e d5 3c d0 53 0b bc
       0.015833477 -0.039787084 0.026008049 -0.008503869
000280 78 52 80 bd 94 4b e5 3a d3 0c ca bd bc 41 77 bc
       -0.0626573 0.0017493838 -0.09865727 -0.015091356
000290 cf 11 0e bd 42 2f 46 bc 94 ea f9 bd d6 1c 78 3d
       -0.034684952 -0.012096228 -0.12202945 0.060574375
0002a0 94 92 84 bd 0c ac d0 bc 06 2f 5f bd fd 70 35 bd
       -0.0647327 -0.025472663 -0.054488204 -0.044297207
0002b0 51 5d 27 bc e9 f9 99 bd 8a e3 9d bd 60 d1 2c 3d
       -0.010215119 -0.0751837 -0.07709415 0.042191863
0002c0 46 f3 53 bd 3c 06 4c bd 66 20 80 bd cf e0 b2 bd
       -0.051745676 -0.049810633 -0.062561795 -0.08734285
0002d0 bd 8c be bd d0 b7 45 bc 69 3d 20 bb ab df b9 bd
       -0.093041874 -0.01206775 -0.0024450666 -0.090758644
0002e0 be 29 53 bc 65 9f 55 bc cc 35 37 bd 8b d3 14 3b
       -0.01288837 -0.013038491 -0.04472904 0.0022709097
0002f0 75 14 e7 bd 8d d3 16 3d 3b 66 dc bd 58 2f 18 3d
       -0.11283199 0.036822844 -0.107616864 0.037154526
000300 46 ed 0c 3c f7 11 45 3d e3 83 14 3c 71 d4 c8 bd
       0.008601492 0.048112836 0.009064647 -0.09806145
000310 b0 56 af bd b6 6f a0 bd 20 97 cc bd 97 80 ff bb
       -0.08561456 -0.07833807 -0.09989762 -0.0077973115
000320 b8 b2 34 bd f8 31 e3 bd 82 79 30 3c c7 53 93 bd
       -0.044115752 -0.11093515 0.010771157 -0.07193714
000330 60 1b 93 ba ea df dc bd 44 89 d7 bd 89 09 4d bd
       -0.0011223368 -0.10784896 -0.10524228 -0.05005792
000340 45 4b b4 bd cc 36 0a bd ab 9e 18 3c a0 b9 d0 bb
       -0.08803419 -0.033743665 0.009315173 -0.0063697845
000350 f5 74 c3 bd 54 c7 89 bc 2d e8 07 be 1c 77 2a bd
       -0.09543792 -0.01681868 -0.13272162 -0.041617498
000360 ea cd 08 bd 51 0b 98 3c 39 7e 12 bd 6f e4 8e bd
       -0.0333995 0.018560084 -0.035764907 -0.06977164
000370 2e 0b 83 bd 87 89 55 3c 82 c4 c1 bd dc 0b c2 3c
       -0.06398617 0.013033277 -0.09461309 0.023687296
000380 5e 58 14 bd 10 ed 6d 3e 60 9f 89 bb a0 ba 63 bd
       -0.036217086 0.23234963 -0.004199907 -0.0555979
000390 a8 fa e4 bb d6 a7 34 3c f4 d3 75 bd 61 e7 1f bd
       -0.0069878884 0.011026343 -0.060016587 -0.03903902
0003a0 a9 9c bd bc 69 69 6d bd db a6 ae bd ff 48 ba bc
       -0.02314599 -0.057961855 -0.08527919 -0.022739885
0003b0 dd d4 2f 3d d4 e1 b2 bd 27 b9 c7 bd 2a 65 15 bd
       0.04292761 -0.087344795 -0.09752112 -0.03647343
0003c0 84 65 87 bc 8e 60 87 bc 51 19 b3 bd ee c1 ca bc
       -0.016527899 -0.016525533 -0.08745063 -0.024750676
0003d0 c1 b1 3b bd 9e 47 07 be 5b bd e9 bd d5 6b b2 bd
       -0.045823816 -0.13210914 -0.1141307 -0.087119736
0003e0 e0 dd 95 bd d0 31 8a 3b f9 a9 0b bd 56 e3 4e 3a
       -0.0731771 0.004217364 -0.034097645 0.0007892152
0003f0 57 81 5a bd d2 af 0c be 40 4d 96 bd d7 07 e8 bd
       -0.053346004 -0.13738945 -0.07338953 -0.1132962

fc3.weight f4 [256, 256]
000000 c0 03 3e bc 38 44 2f 3d 09 a8 ae 3c 08 1f a8 3c
       -0.011597574 0.042789668 0.02132036 0.02052261
000010 00 59 81 3b 68 02 0f 3c 01 35 78 3d 90 39 f7 3b
       0.003947377 0.008728601 0.060597423 0.007544704
000020 62 fe 25 bd e0 81 eb bb 4c e8 74 3d 45 1b 0c 3e
       -0.0405258 -0.007187113 0.059791848 0.13682278
000030 0a e2 08 3d b8 a8 4b bd 39 3d 94 bc 78 bf 06 bc
       0.033418693 -0.04972145 -0.0180956 -0.008224361
000040 40 e3 c7 3c 46 7f d0 bc 9a 95 a1 bc 80 e3 29 ba
       0.024400353 -0.025451314 -0.019724656 -0.00064807385
000050 c6 d0 97 bd c0 fc 16 3b 3a 53 d1 bd a8 85 3f bc
       -0.07412867 0.0023038834 -0.10220952 -0.011689581
000060 c0 97 3d bd 54 bd 2e bd 74 81 81 bd 0e 96 14 bd
       -0.0462873 -0.042661026 -0.06323519 -0.036275916
000070 8a 2a 5b bd de 6e 62 bd cf 77 33 3c 00 a6 13 ba
       -0.053507365 -0.055281512 0.010953858 -0.0005632341
000080 1c ef 26 3d 56 e6 8e bd 3d d5 b2 bd 60 90 5b bd
       0.040755376 -0.06977527 -0.08732078 -0.053604484
000090 68 4a 99 bd d4 1b 2e bd ba cf 02 3e 28 a3 d1 bc
       -0.07484895 -0.042507008 0.12774554 -0.025590494
0000a0 18 d0 c8 3d 10 99 34 bd c8 9c be bc b8 f6 45 bd
       0.09805316 -0.044091284 -0.023268119 -0.048330992
0000b0 f8 01 73 bd 6c fb 08 3c 06 df 19 bd 40 43 6c 3c
       -0.05932805 0.008360725 -0.037566207 0.0144203305
0000c0 51 c9 c8 3b 6b 52 3e bd c2 85 04 3d ad 31 19 bd
       0.0061275144 -0.04646532 0.032354124 -0.03740089
0000d0 80 75 43 3b 20 3f b9 bb 84 81 71 bd b0 bf 5e 3c
       0.0029824674 -0.005653277 -0.058961406 0.013595507
0000e0 48 42 2d bc 0c 1f b8 3c 21 86 d1 bc f1 84 06 3e
       -0.010574885 0.022475742 -0.025576653 0.1313665
0000f0 18 73 3e 3c c8 9e 60 bd 31 42 75 bd 8e de 3c bd
       0.01162412 -0.054838926 -0.05987758 -0.046110682
000100 44 c7 8f bd ad ba d1 bd b8 aa 2d bc 0c 52 ca 3c
       -0.07020429 -0.10240684 -0.010599785 0.024697326
000110 20 a7 0c bd 02 7f 11 3b 80 1e 1e bd 8a 85 7f bc
       -0.03433907 0.0022200947 -0.038603306 -0.015595803
000120 80 53 d8 3b 5a 9a 3e bd e0 61 a5 bb 84 c8 6b bc
       0.006601751 -0.04653392 -0.005047068 -0.014391068
000130 f0 e8 84 bd d0 0a 5c bc 33 92 cf bd b2 0e 50 3d
       -0.06489742 -0.013430312 -0.10135307 0.050795265
000140 cc 81 70 bd e0 0e 29 3b 10 f0 1c bd 72 9b 12 3d
       -0.058717534 0.002579622 -0.03831488 0.035792775
000150 26 67 08 3d d3 ff 85 3c df 41 5d bd 00 46 a2 bc
       0.033301495 0.016357338 -0.054017898 -0.01980877
000160 a0 87 78 bd 35 91 10 3c a8 c5 a6 bc dc 37 d0 bc
       -0.060676217 0.008823683 -0.020357922 -0.02541726
000170 c2 89 04 3d 5c 49 61 3d 3a 43 07 3d 1c bf 83 bc
       0.03235794 0.0550016 0.033023097 -0.016082339
000180 e0 f9 51 3b 38 5c 49 3c 50 9d 0a bd f3 8e c9 bd
       0.0032039806 0.012290053 -0.03384143 -0.098417185
000190 30 76 fe 3b e6 2f 17 3d 94 00 bd bd 00 35 41 3a
       0.007765554 0.036910914 -0.09228626 0.00073702633
0001a0 80 79 72 bc 04 7d 40 bd 32 f4 19 3c de be 29 bd
       -0.014799476 -0.046994224 0.0093966 -0.04144179
0001b0 ee b8 cc bc b0 c6 1f 3c 40 41 40 bc 72 77 17 3d
       -0.024990525 0.009751961 -0.011734307 0.036979146
0001c0 fe 41 1c 3d 50 15 ec bb b0 26 9a bc b0 eb 88 bb
       0.038148873 -0.007204689 -0.018817276 -0.0041784868
0001d0 18 16 34 3c c4 0c 5f bd 1c 8e 39 3d 83 45 a0 bd
       0.010991596 -0.054455534 0.04530154 -0.07825758
0001e0 f8 ef 81 bd 6a 25 a2 bd b4 f9 b7 bd 80 89 7d bb
       -0.063445985 -0.079172924 -0.08983174 -0.0038686693
0001f0 ce b7 2b bd f0 11 6f 3c 2e 20 4f 3d a8 2c 10 3c
       -0.041923337 0.014591679 0.0505678 0.008799709
000200 74 8d 64 bc 7c 42 90 3c 48 e2 04 bc 6e 49 3f bd
       -0.013949741 0.017609827 -0.00811059 -0.046700887
000210 a0 b3 24 3c d0 93 b4 bd 10 bd d9 3b 20 15 03 3d
       0.010052592 -0.088172555 0.0066448525 0.03200257
000220 fc 58 52 bd 0c c4 1c bd 10 12 90 bc 00 a6 07 bd
       -0.051354393 -0.038272902 -0.017586738 -0.033117294
000230 e3 ab 07 bc dc 6e 63 3d 14 dc 01 bc 20 e4 60 bd
       -0.008280727 0.055525646 -0.007926006 -0.054905057
000240 ba 61 42 bd 3c 60 b7 bc 18 0c 78 bd ac 53 49 3c
       -0.04745648 -0.022384755 -0.06055841 0.012288015
000250 60 e9 71 bc 50 4f 44 3d 15 64 01 3d c4 15 ea 3c
       -0.014765114 0.0479272 0.031589586 0.028574832
000260 50 4a f1 3c 18 74 e9 bb 6e 32 45 3d e8 ec 0e bd
       0.02945438 -0.007124435 0.048143797 -0.0348939
000270 d5 91 4e bd 0c 4b bd bc 24 c9 c3 bc 17 c2 e3 3d
       -0.050432045 -0.023107074 -0.023899622 0.11121004
000280 5e ed 71 bd 7a cd 85 bd 88 29 b9 bc d9 64 c6 3b
       -0.05906426 -0.06533332 -0.022602811 0.0060545024
000290 cc 24 f1 3a a0 78 30 bb 5e ff 61 bd 7a c0 7e 3d
       0.0018397807 -0.0026927367 -0.055175178 0.06219528
0002a0 11 07 1f bd 48 b7 37 3c f9 c6 f5 bc b8 b4 7a bd
       -0.0388251 0.011213131 -0.030002104 -0.061207503
0002b0 85 38 ec 3a c0 0a ed 3a b4 b5 56 3d e9 47 82 bd
       0.0018022215 0.0018084869 0.05241938 -0.06361372
0002c0 2d 37 b1 bd e8 36 29 bc fc 65 b7 bc 36 61 21 3d
       -0.08653102 -0.010328032 -0.022387497 0.03939935
0002d0 44 24 35 3d 46 a1 55 3d 4b 36 8e 3d dd f3 1d 3a
       0.04422404 0.052155755 0.06943949 0.0006025413
0002e0 c8 31 9d bc 85 39 c6 bc 61 69 55 bd 08 61 7d 3c
       -0.019188777 -0.02419735 -0.05210245 0.015465029
0002f0 76 d0 09 bd 6e 25 06 bd 2e 50 06 bd 10 0b da 3b
       -0.03364607 -0.03275054 -0.03279131 0.006654151
000300 ad 97 27 3c 93 35 98 3d 20 d9 74 3d 9f ee 7b 3c
       0.010229033 0.074320935 0.05977738 0.015376716
000310 ec b3 75 3d 00 60 73 38 c9 d5 bd bc ce 44 16 bd
       0.05998604 5.802512e-05 -0.02317323 -0.03668671
000320 4c aa eb bc a8 5d d1 3c a5 13 4f bd 70 f9 14 bc
       -0.028767727 0.025557354 -0.050555844 -0.009092674
000330 5e f7 75 3d 00 4c b0 bd 20 a3 4b bb d0 de 1d bd
       0.06005036 -0.08608246 -0.0031072572 -0.03854257
000340 c0 c6 8c bb 68 34 74 3d 08 bb 2d bd 36 76 55 bd
       -0.004296154 0.05962029 -0.042414695 -0.052114688
000350 04 ee 85 3c 68 e0 dd 3c 80 36 c0 3c 3e fd 64 3d
       0.016348846 0.027084544 0.023463488 0.055905573
000360 d1 74 c7 bd 14 80 d3 bb 58 ac e3 bc 86 c4 0c bd
       -0.09739078 -0.006454477 -0.02779214 -0.034367107
000370 6c 48 ba 3c 98 0d 4a bd 24 82 56 3d 1c be 24 bd
       0.022739612 -0.04932937 0.052370206 -0.040220365
000380 88 e6 60 3c 07 9a b1 bd 70 4d 53 bd ea fc 3e 3d
       0.013726838 -0.086719565 -0.051587522 0.046627916
000390 38 01 c1 bc bc b5 dc 3d b8 49 00 bc f8 4c 22 bd
       -0.023560151 0.107768506 -0.007830076 -0.039624184
0003a0 24 56 74 3d 54 3a e7 bc 1b 13 89 bd 28 66 99 bc
       0.059652463 -0.028226055 -0.06693097 -0.01872547
0003b0 bd 5e b0 bd c4 a9 19 3c a8 61 a8 3c 11 06 8c 3c
       -0.0861182 0.009378854 0.020554379 0.017092736
0003c0 d4 26 10 bd 18 1d d9 bd 5d 11 a3 bb 8c 10 02 bd
       -0.03519328 -0.10601252 -0.004976435 -0.03175406
0003d0 e8 64 01 bc a0 07 09 bc d0 c5 08 bc 6c 33 bf 3d
       -0.007897593 -0.008363634 -0.008347943 0.0933598
0003e0 db a7 3a bc 20 91 af bb f8 14 7a 3d fa be 0d bd
       -0.011392559 -0.0053578764 0.061055154 -0.034605958
0003f0 92 09 79 3d d6 39 0d bd c0 4f c9 3b 58 d2 26 bc
       0.060800143 -0.034478985 0.00614354 -0.010181986

fc3.bias f4 [256]
000000 a6 fb ac bd 98 a9 26 3d ee bf 43 bc 01 ef ac bd
       -0.08446436 0.04068908 -0.011947615 -0.08444024
000010 19 b3 b2 bd 23 98 d6 bd 6a fd a0 bd 7e 56 00 be
       -0.087255664 -0.104782365 -0.07860835 -0.12532994
000020 5f f3 86 3e c3 73 8c bd f8 76 3a be 9b 15 dc bd
       0.26357552 -0.06858017 -0.18209445 -0.107463084
000030 a3 30 62 bd 87 8a ad bd 12 55 82 bd 67 a9 f5 bc
       -0.055222165 -0.084736876 -0.06363882 -0.029988004
000040 c7 fc 46 bd 97 e6 b5 3b 4c 76 d5 bc bc 4a 9b bd
       -0.04858091 0.00555117 -0.026057385 -0.07582614
000050 06 ff d0 bd 16 3a aa bd 87 1a 2c bd 93 d1 75 bd
       -0.10204892 -0.0831186 -0.042017486 -0.06001432
000060 02 e4 d4 bd 78 23 1d bd 74 38 d9 bc d5 97 c0 3d
       -0.103950515 -0.038363904 -0.026516177 0.0940396
000070 64 9d 87 bd 24 40 3f bd 1d 9f 88 3e a3 d4 78 bb
       -0.06621817 -0.04669203 0.26683894 -0.0037968538
000080 c3 25 44 bd 33 4e 01 be b2 8f eb bd 13 a7 0c be
       -0.047887575 -0.12627487 -0.11502017 -0.13735609
000090 fc c7 09 3d 91 c4 ad bc be 2d 6e bc c4 8f 9e bd
       0.033637986 -0.021211894 -0.014537273 -0.07742265
0000a0 f5 3c ce bd 5f 7c 67 3e 3d 2d f8 bd e0 9c cf bb
       -0.100702204 0.22606038 -0.121180035 -0.0063358396
0000b0 c3 d0 96 bd 25 e8 cb bd b5 d5 0b be 9b ba 94 bd
       -0.07364037 -0.099563874 -0.13655742 -0.07262155
0000c0 96 30 ec bc ad b9 27 bc 80 af fc 3b 21 9a 15 bd
       -0.028831761 -0.01023714 0.007711351 -0.036523942
0000d0 86 09 77 bd 27 f4 87 bd 3e e3 1d bd 57 43 b7 bd
       -0.060311817 -0.06638365 -0.038546793 -0.08948391
0000e0 12 3d 55 bd fe 76 e2 bd c9 c3 82 bd 25 b2 16 3d
       -0.052060194 -0.11057852 -0.06384999 0.036790986
0000f0 52 a9 40 3e 17 f2 ee bc 12 8d 79 bc d3 fe 2a bd
       0.1881459 -0.029168172 -0.015231388 -0.041746926
000100 3b 8a e2 bd 31 b1 f8 bc 3b 11 d2 bd 97 d6 eb bb
       -0.110615216 -0.030357929 -0.10257193 -0.007197212
000110 bf c1 1f bd 88 31 b1 bd b1 91 09 3e 37 f5 e7 bd
       -0.03900313 -0.086520255 0.13434483 -0.11326068
000120 1e d5 70 bc e8 16 ab bd 8c 01 cb bd e1 b6 23 3c
       -0.014699249 -0.083539784 -0.099124044 0.009992332
000130 e6 db be bc 92 e8 ea 3c 0f f8 14 bd 50 b5 69 3d
       -0.023298215 0.028675351 -0.03636938 0.05705768
000140 6d 22 87 3c ef f9 50 be 22 c5 4d bd 9f ab ea 3d
       0.016495908 -0.20407842 -0.05023683 0.114585154
000150 35 9d 30 bd 8b 21 d7 3d 56 6c e2 3d 96 b9 5f bd
       -0.043118674 0.10504445 0.1105582 -0.054620348
000160 b6 3d fd bc 15 cb 4c bd 1d ad 0a be 7f 57 bd bd
       -0.030913215 -0.04999836 -0.135426 -0.09245204
000170 32 d2 9f bd 63 27 d5 bd 2f 1e 6b bd c7 66 b2 bd
       -0.078037634 -0.10407903 -0.057401832 -0.087110095
000180 92 a1 6d bd 27 d5 1c bd b1 5c 92 bd 04 cc a3 bc
       -0.058015414 -0.038289215 -0.07146586 -0.019994743
000190 c7 fa 81 3a 62 11 56 bd ff 31 85 bd dc ae 8b bc
       0.0009916656 -0.05226267 -0.065036766 -0.017051153
0001a0 c5 f8 2a bc 99 24 e4 bd 0a 3b 92 3d 1d b4 1f be
       -0.010435288 -0.11139793 0.07140167 -0.15596052
0001b0 b7 e5 9d 3a e4 0b 94 bd ee dc 65 bd 07 07 0a bd
       0.001204661 -0.072288305 -0.056118898 -0.033698108
0001c0 12 4f 6e bc 9f 07 09 be 2d bc bf bd 88 ce 07 be
       -0.014545219 -0.13381813 -0.093620636 -0.13262379
0001d0 34 1f d4 bd 6c e5 8c bd d4 11 9d bd 4c 39 c1 3c
       -0.10357514 -0.06879696 -0.07669416 0.023586892
0001e0 a4 fd 82 bd 71 fb 83 bd 29 0a 81 3d 5d 0b 85 bd
       -0.06396034 -0.06444443 0.06300766 -0.06496308
0001f0 0d 82 24 be 4d 7c c5 bd 70 89 ac bd 38 67 1b be
       -0.16065235 -0.09642849 -0.084246516 -0.15176094
000200 ac e6 23 bd a1 82 4c ba 9b 29 21 bd 76 fc 24 bd
       -0.040014908 -0.00078014476 -0.03934632 -0.040279828
000210 90 6f 25 bd 18 75 d0 bd a1 2c d5 bd 97 7b f6 3d
       -0.040389597 -0.10178584 -0.10408903 0.12035292
000220 7d 6e ed bd c7 33 a5 bd 72 0d a5 bd dd c8 22 3a
       -0.115933396 -0.08066516 -0.08059205 0.00062097405
000230 dd 1e f1 bd 7c 90 c0 3e 45 09 e2 bd e7 4d 52 3d
       -0.11773465 0.37610233 -0.11036924 0.051343825
000240 3e 04 ac bd 40 80 f2 3c 13 88 80 3e 1b c1 5c 3d
       -0.08399247 0.02960217 0.25103816 0.053895097
000250 76 36 ce 3b 07 2a 8b 3b d0 67 46 bb 07 e1 0b bd
       0.0062931133 0.0042469534 -0.003027428 -0.03415015
000260 88 81 82 bd 09 56 33 bd 7b 8a 0d be 1c 5c 46 be
       -0.063723624 -0.04378322 -0.13822357 -0.19371074
000270 48 fe 18 be c0 86 cd bb 48 14 93 bd 73 fe 60 bd
       -0.1494075 -0.006272167 -0.07181603 -0.05493016
000280 a1 ae 15 be d3 31 d5 bd d6 bb f9 bd e9 33 0b be
       -0.14617397 -0.10409894 -0.1219403 -0.13594021
000290 01 b7 db bd 28 4f b8 bd 49 0e 5d bd b0 a1 b5 bd
       -0.107282646 -0.08999473 -0.0539687 -0.0886873
0002a0 17 48 2d 3d f4 a8 53 bd 1a a5 8e bd 0e 03 52 be
       0.04230508 -0.051674798 -0.069650844 -0.20508978
0002b0 da 09 0e bd fd 96 90 bc 3e 97 a3 bd 3c ce e3 3d
       -0.034677364 -0.017650122 -0.079878315 0.111233205
0002c0 bb 78 ca bd 58 4a 1e be 29 5a 9f bd 30 2b a8 bd
       -0.09886309 -0.15458047 -0.077808686 -0.08211362
0002d0 e0 01 0c bd 99 ca b2 bd b7 6b d1 3c b8 ef b0 3c
       -0.034181476 -0.08730049 0.025564058 0.021598682
0002e0 46 be 54 bd 79 6d db bd b1 0b 65 bd 45 41 e0 bc
       -0.05193927 -0.107142396 -0.055919353 -0.027374873
0002f0 54 2a b1 bd dc 65 81 bd f2 9b c0 bd 0e 7a ae bb
       -0.086506516 -0.06318256 -0.09404744 -0.0053246086
000300 ca 60 14 bd 81 11 b6 bc 80 34 4a bc cc ba 8c bb
       -0.036225118 -0.022225143 -0.012341619 -0.004294729
000310 ef ed dc 3d 06 aa e8 bd 84 de 28 bd 8a 43 8f bd
       0.1078757 -0.113605544 -0.041227832 -0.06995304
000320 0c 5b 45 bd ec 6f 4c bd 3a 30 80 bb 12 d5 72 bb
       -0.048182532 -0.049911425 -0.003911999 -0.003705327
000330 c0 1a 3f bd 89 86 c3 bd d6 5d 23 bd 23 40 8e bd
       -0.04665637 -0.09547145 -0.03988441 -0.06945827
000340 26 c3 ce bd 1a 49 96 3c 4f a7 ec bd a5 68 c1 bd
       -0.10095815 0.018345404 -0.11555349 -0.094437875
000350 b6 e4 ac bd 8c ad eb bd dc 2e 96 3d 79 f5 45 bd
       -0.08442061 -0.11507711 0.073331565 -0.048329804
000360 68 74 9b bd 6c 8e 8d bd ab ae e6 bd f8 df 23 bd
       -0.07590562 -0.069119304 -0.11263784 -0.040008515
000370 f8 79 f9 bc 2c a3 2f bd 5f 30 48 bb 01 81 58 bd
       -0.030453667 -0.042880222 -0.003054641 -0.052857403
000380 d5 9b e2 ba 6d 56 c9 3d 1c 07 95 bd a8 ee 5c bc
       -0.0017288873 0.098309375 -0.07276747 -0.013484634
000390 62 1b c0 bd 2b 72 a4 3d 0c 84 ea bc f8 7d 54 3c
       -0.09380223 0.08029588 -0.028627418 0.012969486
0003a0 1b aa 61 3b b2 62 0c bd cd 42 8b bd 92 5b 21 3e
       0.0034433666 -0.03427381 -0.067998506 0.15757588
0003b0 32 ac 4a bd 74 38 f9 bd ff 0c 55 3e c0 97 cf 3c
       -0.049480624 -0.12168971 0.20805739 0.025340915
0003c0 da e0 ce 3e db 71 13 bd 61 83 c2 bd fb 89 b4 3e
       0.40405923 -0.035997253 -0.09497715 0.3526152
0003d0 8c 17 ae bd 32 14 66 bb 4d 32 ec 3d 82 35 16 bd
       -0.08500585 -0.0035107252 0.115330316 -0.036672123
0003e0 af 1c 6c 3e 6d 6a ac 3b 40 66 1c bd 7b 92 06 be
       0.23057817 0.0052617104 -0.03818345 -0.13141815
0003f0 8c 1f ea 3d 69 44 8c 3e 2f b4 c6 3e c8 4c 00 be
       0.11431798 0.27395943 0.38809344 -0.1252929

classifier.weight f4 [16, 256]
000000 07 70 42 3d 1e 8d 38 be 18 55 4f 3d 3e dd 80 3d
       0.04747012 -0.18022582 0.05061826 0.062921986
000010 22 9c bc 3b 44 72 14 3d 8e 14 49 3a 00 ba f1 bd
       0.005755917 0.036241785 0.00076706044 -0.11803055
000020 3d 75 49 be 78 dd 74 3b 25 99 7c be 3b ad d1 3c
       -0.19673629 0.003736345 -0.24667795 0.025595298
000030 10 93 85 bd fd 8d 16 b9 1e 49 bd bd 3f 0c 3e 3d
       -0.065221906 -0.0001435801 -0.092424616 0.046398398
000040 eb 62 99 3d 34 93 6d be d4 df 3b 3d eb ea 6e bd
       0.0748957 -0.23200685 0.045867756 -0.058329504
000050 e4 b5 29 bd 03 dc 8b bc e5 55 73 3d 75 59 a1 bc
       -0.04143323 -0.017072683 0.059408087 -0.019695977
000060 ed 6f 32 3d e0 cd 16 bd 98 43 a0 3c 12 fa 6c be
       0.043563772 -0.03681743 0.019563481 -0.23142269
000070 59 0f a6 3c e0 0f c9 bb 0c 49 e7 3c 38 26 90 ba
       0.02027099 -0.0061359257 0.028233074 -0.0010997718
000080 c8 c0 db 3c 4c ec a6 3d e4 93 35 bb 3b 09 df bd
       0.026825324 0.08150539 -0.0027706558 -0.108904324
000090 50 b4 05 bd 7f 85 aa 3d 7c 54 ec 3c ae cb 8f 3d
       -0.032642663 0.083262436 0.028848879 0.07021271
0000a0 a4 a0 f9 bd 1a cb 12 be 43 c4 21 3d f8 dd 43 bc
       -0.12188843 -0.1433529 0.03949381 -0.011954777
0000b0 81 4a 42 3c df 44 c9 3d 9d f4 88 3d d2 e6 89 bb
       0.011858583 0.09827589 0.06687281 -0.004208424
0000c0 a9 5a e9 3d 4b e1 2d 3c 1c 70 05 be aa f9 c1 3d
       0.11394245 0.010612796 -0.13031048 0.09471448
0000d0 76 51 ea bc b6 0a 40 be 0b 34 a6 ba cb f7 56 3d
       -0.028603297 -0.18754086 -0.0012680305 0.052482408
0000e0 2a 0b dd 3d 14 8f b6 ba 60 12 94 3d 68 c4 3f bc
       0.10793145 -0.0013928139 0.07230067 -0.011704542
0000f0 94 0d 8a be a6 97 95 3c 17 1f a1 3d 81 b1 b6 3d
       -0.26963484 0.018260788 0.07867258 0.08920575
000100 fb 58 3e 3d 3a 3e 2b be 2e 49 f8 bd 98 15 ed bc
       0.046471577 -0.16722956 -0.12123333 -0.02894096
000110 81 fa 3b bc c9 57 b7 bd 60 3a f6 bd d8 1c 1c b9
       -0.011473299 -0.089522906 -0.12022853 -0.00014888064
000120 5a 23 4a 3c 44 d3 6f bc 1a a0 a3 bc a6 46 92 be
       0.01233753 -0.014637772 -0.019973803 -0.28569525
000130 33 fa 9c 3d 4f 4d ea bd 3f ff 45 3c 3d 4a 45 be
       0.07664909 -0.11440527 0.012084781 -0.19266601
000140 fd 65 b5 3d 07 4a 9e 3d 94 e6 a0 bd d1 e7 09 3d
       0.08857343 0.07728963 -0.07856479 0.033668343
000150 7b fe 91 3d 22 73 0d be 97 dc ae bd 6d ab f8 3d
       0.071286164 -0.13813451 -0.08538168 0.12142072
000160 26 0c 6d 3d 87 68 b5 bd c2 0f 30 3d 5b ec b8 3c
       0.057872914 -0.08857828 0.042983778 0.02257364
000170 db 9d 8d 3d fc 92 b8 3c f2 00 59 3d ea b8 b3 3a
       0.06914874 0.022531025 0.052979417 0.0013711725
000180 5e 56 99 3c 33 42 f4 3c 61 45 6f 3c e2 a3 e8 3d
       0.01871794 0.029816722 0.014603944 0.11359383
000190 52 33 b1 3d c0 c4 63 3d 1d e0 ff bc f3 33 ce 3d
       0.08652367 0.055607557 -0.031234795 0.10068502
0001a0 0d 84 77 3d e2 68 c9 3c d2 77 61 be 4f d8 ce bc
       0.060428668 0.024586145 -0.22018364 -0.025249628
0001b0 87 09 3c 3d cc c0 75 3d 8a 23 10 bd 04 fb 7e 3d
       0.045907523 0.05999832 -0.035190143 0.062251106
0001c0 c3 54 bc 3d 15 b6 ba 3d 4c d4 83 bd a4 14 81 bc
       0.091958545 0.09116761 -0.06436977 -0.015756913
0001d0 ae 58 97 3d eb 10 71 3a 6b 00 bd bc 74 23 32 3d
       0.07389961 0.00091959414 -0.023071488 0.043490842
0001e0 fd 0c 95 3c bf 57 8a 3d 05 f2 1f be ed 7a 5b bd
       0.01819467 0.067550175 -0.15619667 -0.053584028
0001f0 fe f8 d8 3c 79 b8 b1 3d b2 5e fd 3d 67 85 03 be
       0.026485916 0.086777635 0.12371577 -0.12843858
000200 3d 3b d0 bc 1e 6a f4 3c 4a de 0a bd 72 0c 69 bd
       -0.025418872 0.029835757 -0.033903398 -0.056896634
000210 27 02 a0 3d ac ca 09 be 77 22 a9 bd 45 0b a9 be
       0.078129105 -0.1345622 -0.08258527 -0.3301641
000220 f7 81 21 3d 73 61 dd ba c3 67 7d 3c cf 24 9c 3c
       0.039430585 -0.0016890004 0.015466633 0.01906052
000230 17 7f e0 3d 11 5e 9e be 74 8e 1f 3d 80 74 94 be
       0.109617405 -0.30931142 0.038954213 -0.28995132
000240 c3 44 bc 3d 40 bb fe 3c 30 ff 90 be e0 d8 8a bb
       0.09192803 0.031095147 -0.28319693 -0.0042372793
000250 ba 4c 65 bc 30 06 a1 3d 5e bb 8c bd 6d af a3 3c
       -0.013995344 0.07862508 -0.06871675 0.01998111
000260 ed 16 68 3d 8d 6d 99 3d be 60 2a 3c f5 8a 71 bc
       0.05666249 0.07491598 0.010399042 -0.014742603
000270 10 f5 a9 3d 5b 46 93 3d d7 e9 a2 bd 66 c7 20 3d
       0.08298695 0.071911536 -0.07954758 0.03925266
000280 9f eb 03 3d 08 9e c5 bc 4d e0 1c be 43 c3 7c 3d
       0.032207128 -0.024123207 -0.15319939 0.061709654
000290 aa 69 bd 3b 61 85 19 3d bc ab de 3d 91 14 73 bd
       0.0057804184 0.037480716 0.108725995 -0.059345786
0002a0 7a b7 75 3d 2b 4b 97 3d e0 9c d1 3d 8f b2 09 3d
       0.05998943 0.07387384 0.10235 0.033617552
0002b0 13 b0 27 3d 51 fe 59 bd ff e3 90 bd f5 0a 66 bd
       0.0409394 -0.05322105 -0.07074737 -0.056162793
0002c0 6a cd fb bb 34 8c b0 3a 94 f2 86 3d 05 f7 1f bc
       -0.0076843994 0.0013469518 0.06589237 -0.009763484
0002d0 ea e1 50 3d 89 62 19 bb 4c 17 2a be 22 b5 c4 bd
       0.0509967 -0.0023404679 -0.1661045 -0.09604861
0002e0 b0 8e 82 3b 28 ab 4e 3c b3 7d 76 bb af 85 38 be
       0.003984295 0.012614049 -0.0037611544 -0.18019746
0002f0 31 c1 9d bc 34 45 33 3d ab 47 a5 3c a2 7b 5f 3d
       -0.01925716 0.04376717 0.020175776 0.054561265
000300 4b 36 86 3d 49 8e 21 bd 6a 83 4c 3d 39 76 2a 3c
       0.06553324 -0.039442334 0.049930014 0.010404163
000310 90 b8 a4 be 9e 37 82 3d 30 c7 12 3d be 75 bc bc
       -0.3217206 0.063582644 0.03583449 -0.023005363
000320 87 e1 65 3d 83 94 d5 3b 3b a7 1c bd fa 13 9c 3d
       0.056123283 0.006517948 -0.03824542 0.07620998
000330 55 84 e1 3c 0e 3f 49 bc 00 77 d0 3b 00 24 30 3d
       0.027528921 -0.0122831 0.006361842 0.043003082
000340 b1 ac 16 3d 15 cc 0a 3d cd a2 5f 3c 24 99 31 3d
       0.036785785 0.033886034 0.013649655 0.043358937
000350 b8 dd ba 3d cf dd b5 3c 1b 47 1b bc 32 8e 4c 3d
       0.09124321 0.022200493 -0.009477402 0.049940296
000360 76 97 e8 3b 4a 5a 92 3d a2 4f 18 be 96 2e 40 bd
       0.0070981337 0.071461275 -0.14874128 -0.046919428
000370 a6 5c 9c 3d f8 c9 31 3c 7a 08 b4 ba 9e 0c 47 3d
       0.07634859 0.010851376 -0.0013735436 0.048596017
000380 8b bf 9f be 5e ba 87 be c1 85 f6 3c 6f 1d 3d 3d
       -0.31200823 -0.26509374 0.030093076 0.04617065
000390 13 6e e4 bd ce e4 7f bc d4 ab ff 3c 60 91 93 3b
       -0.111538075 -0.015618516 0.031209864 0.004503414
0003a0 a7 52 31 bb 58 47 97 3c 80 e7 67 3d 59 73 8f be
       -0.0027057321 0.018466637 0.05661726 -0.2801769
0003b0 a0 87 8d 3b 1c b7 91 3d 09 7f fd bd 1e 76 c5 bc
       0.0043191463 0.071150035 -0.12377746 -0.024104174
0003c0 9f cd c3 be 6a d6 0e 3d 42 89 ce 3c 68 2d 37 bf
       -0.38242814 0.03487245 0.025211934 -0.7155366
0003d0 d0 1b 80 3b 71 36 dd bd 98 14 a0 bc 73 ee a1 3d
       0.0039095655 -0.108013995 -0.01954107 0.07906809
0003e0 b2 a0 0c bf d4 d5 93 3b 88 81 9b 3d df bb 5b 3c
       -0.549327 0.0045115743 0.075930655 0.013411491
0003f0 6b cb 69 3d bb 87 d0 be 5c dc 4d be b6 3b e4 bc
       0.05707876 -0.40728554 -0.20103592 -0.027860504

classifier.bias f4 [16]
000000 fc 25 45 be 8a 86 9c bc 3d ac fa 3d f8 07 c3 3d
       -0.19252771 -0.019107122 0.12239883 0.09523004
000010 7b 96 a8 3d 87 0f ba 3d 07 78 29 bd 27 54 1c 3e
       0.08231827 0.09084993 -0.041374233 0.15266477
000020 34 2d 2d 3e 98 62 b4 3c ce 96 11 3e 38 f7 c6 3c
       0.16911775 0.02201967 0.14217684 0.024287805
000030 8e f5 1f bd d0 db ea 3c f2 46 a8 bc 22 e6 f1 bd
       -0.03905254 0.028669268 -0.020541642 -0.118114725
