transfer17_12_12_22_10_12_FullyConnected.pth (torch, 550959 bytes, 8 tensors)

fc1.weight f4 [256, 4]
00000000: 4623 89be 9084 b1bd 0092 c73c 128e b9be
00000010: d042 c2be 1e2c d13e e08b 773e 789b dfbd
00000020: 1518 ce3e 70ec ba3e 794b b93e 801f 92be
00000030: 23bb dd3e 1aad 183f 8174 023f 1b71 62be
00000040: f4e2 d13e b866 a63d 092f bd3e d2ae e6be
00000050: 565e 9abe 66e5 9f3e 5fa6 913e cb42 643e
00000060: 3b60 433c 8e76 283f ae1c 9c3e 6e86 ee3e
00000070: f4ed c0be 1aff d4be 40fd b9bd 88cb b8be
00000080: 68b2 b73d 84a8 19be b8a6 fe3d 0078 843e
00000090: 6244 013f 47fc 5d3e 5f0f 203f 9935 a5be
000000a0: b877 0f3f ad60 f5bd 14d4 54be 169a b4bc
000000b0: b02c 88bd a03a 11be a007 abbe 2c7f 3bbe
000000c0: 0dd4 383e 2640 92be 8cb9 903e 2447 b03e
000000d0: 8b56 e3be 22a4 d43e ac72 0e3f 8442 09be
000000e0: d685 663e 0302 023f 7ad2 0b3e a435 993e
000000f0: 4827 923d df7a 0d3f 2676 c93e 237b cc3e
00000100: 286f 7ebe fb83 873e 13e4 873e 7ad0 c0be
00000110: 6ebc afbe 3987 023f df62 bb3e 1106 cc3b
00000120: 50b5 09be 4095 7f3c 00e4 0a3b b472 fdbe
00000130: 50a7 66bd 80e7 553d 1674 c7be a691 a0be
00000140: d9b8 4a3d 1dd1 32bf bf7f 25bf ff9b a3bd
00000150: 70b4 95be 728f 15bf 4460 603e 3a66 c63e
00000160: 419f 593d 5782 abbd e38a c73e a71e b83e
00000170: 21af b73d 79d7 51be b319 6c3e af08 ed3d
00000180: 89b1 e33e b2b8 713e a5a9 76bd 57d4 11bf
00000190: 2020 133d d0ab db3d 44d5 d43e a0ff 5ebe
000001a0: 7c4e 86bd 8714 d13e 58bd 2b3e 62df 07be
000001b0: 4a64 d1be db26 9ebb 3a49 033f 2689 d03e
000001c0: 5bd7 763e 4d90 f83e 97b3 b53d 0252 e4be
000001d0: f0a8 623e 21ba 79be 871a 06bf 6e7b aabc
000001e0: a731 693d bd05 fabe 1c31 31bf 45d7 883d
000001f0: e39d c8be 3c27 f9be efc8 edbe a66e 8bbe
00000200: c0c8 5abc fa69 883e 42c7 a8be 48e9 eabd
00000210: e743 21be 83b1 eebe c489 003e dc27 0dbe
00000220: 485e cebe 09aa 8b3d b0d4 113f 9ea8 5d3e
00000230: bf02 f63e c7f5 05bf ce45 19be 4a0e 10be
00000240: baae ef3e 6171 03bf 20dd 11bc 402e ad3e
00000250: 0b4a c0be 2559 743e 04b8 953e 5c2d 3cbd
00000260: 5155 753e e893 be3c 1762 be3c 5625 a33d
00000270: a876 9b3e 3834 163f b663 143f 0d28 0abe
00000280: 0609 dfbe 690c 3dbf 8023 42bf c2ad d93c
00000290: 9f13 963e ed38 d2be 8bbb c93d 5305 ac3d
000002a0: b7e0 603c 03b0 cabe 97da 64be ae09 153e
000002b0: 8837 bcbe 0703 813e 7e50 cabc b1d6 aabe
000002c0: a95e aabe 4159 fa3e bab1 8cbe 26dd d13e
000002d0: bc8d 38be 70ed c53e 169d 0b3f e14b 073f
000002e0: 941b 8e3c b833 a83e b17f 263f f4bc d53d
000002f0: b6fd 14bd 637d 2dbf 8b6d a83a 1c52 c63e
00000300: a8fd c2be 9ffd a7be b095 6b3c 2b3c 413e
00000310: e6a3 873e 88d3 a5be 0e11 ddbe 09c4 953e
00000320: 2157 b0be e9a6 e5be 3c9b 3bbf 2114 953e
00000330: 7130 ff3e 2603 913e d617 153f 1eea f7bd
00000340: a58c 613e 850e dabe 5d2f 22bf 9d3c 82be
00000350: dcfb c8be cc06 90bd 1c7a 33be c271 81be
00000360: 407c 783d ba5e 97be 7aee c73e 9444 a6be
00000370: 5c02 fdbe f4ce a73e bc21 1c3e 18c9 d4bd
00000380: 27b5 633c eee0 eebe 3b58 423e 5dec 063e
00000390: d88a 4ebe c05c 203d 9a15 e83e cc22 1dbe
000003a0: a0e9 893e 88df f7be a0a4 603e 280e 17be
000003b0: 8307 de3d 07be 053f 3e64 a0be 5307 603e
000003c0: d7e9 923e 4c7d 0ebf d912 19be 5c3a ad3e
000003d0: f00a e4be f852 9d3e d689 fb3e 64db 77be
000003e0: 2868 abbe 706e e5bd 6c01 23be 46d6 ecbe
000003f0: ec42 aabe 7c7e 143e d835 883e a85e a4be
-0.26784724 -0.086678624 0.02436161 -0.36241204 -0.379416 0.4085397 0.24174452 -0.10918325
0.40252748 0.36508512 0.36190394 -0.28539658 0.43306836 0.5963913 0.5095902 -0.22113459
0.40993464 0.08125061 0.36949947 -0.45055252 -0.30150098 0.31229705 0.28447244 0.22291104
0.011924799 0.658059 0.3049063 0.46586937 -0.37681544 -0.41600877 -0.09081507 -0.36092782
0.08969575 -0.1500569 0.12434143 0.25872803 0.5049497 0.21678267 0.62523454 -0.32267454
0.5604205 -0.1198133 -0.20784026 -0.02204613 -0.066491485 -0.1418252 -0.33404255 -0.18310231
0.18049641 -0.28564566 0.2826656 0.34429276 -0.44401965 0.41531473 0.55643725 -0.1340428
0.22511992 0.5078432 0.13654509 0.29923737 0.071363986 0.5526561 0.39347953 0.39937696
-0.2484709 0.2646788 0.26541194 -0.37659055 -0.34323448 0.50987583 0.3659887 0.006226309
-0.13448071 0.015599549 0.0021193027 -0.49501574 -0.056311905 0.05222273 -0.38955754 -0.3136112
0.04949269 -0.6985033 -0.6464805 -0.07988738 -0.29239225 -0.58422005 0.21911722 0.38749868
0.053130392 -0.0837447 0.3897315 0.35960886 0.0896895 -0.20492353 0.23056678 0.11573922
0.44471386 0.23605612 -0.06022038 -0.5696463 0.03591931 0.1072613 0.4156896 -0.217772
-0.065579385 0.40835974 0.16771448 -0.13268808 -0.40896827 -0.0048264093 0.5128361 0.40729636
0.24105589 0.48547593 0.08872145 -0.44593817 0.22134757 -0.24387409 -0.5238423 -0.020810809
0.056932118 -0.48832503 -0.6921556 0.066816844 -0.39182958 -0.48662746 -0.46442363 -0.27232856
-0.013353527 0.26643354 -0.32964522 -0.11470276 -0.15748559 -0.46619806 0.12552553 -0.13784736
-0.40306306 0.06819541 0.5696516 0.21646354 0.4804897 -0.5232815 -0.14968035 -0.14067951
0.46812993 -0.5134488 -0.008902818 0.33824348 -0.3755649 0.23862131 0.29241955 -0.045941696
0.23958327 0.023263887 0.023240132 0.07966106 0.30363965 0.5867343 0.57964647 -0.1349184
-0.43561572 -0.7384706 -0.7583542 0.026572112 0.29311845 -0.41059056 0.09850224 0.08399453
0.013725451 -0.3958741 -0.2234901 0.14554474 -0.36761117 0.25197622 -0.024696585 -0.33366922
-0.33275345 0.4889622 -0.27479345 0.40989035 -0.18022817 0.38657713 0.5453657 0.5285016
0.017347135 0.32851958 0.6503859 0.104364306 -0.03637477 -0.6776945 0.0012850029 0.3873452
-0.3808415 -0.32810685 0.01437895 0.18870609 0.26492232 -0.32387948 -0.43177074 0.29251125
-0.34441474 -0.44853905 -0.73283744 0.2911692 0.49841645 0.28322715 0.58239496 -0.12105201
0.22026308 -0.42589203 -0.6335352 -0.2543687 -0.39254653 -0.070325464 -0.1752705 -0.25282103
0.06066537 -0.29564458 0.3904913 -0.32474196 -0.49415863 0.3277508 0.15247244 -0.10389918
0.013898171 -0.46655983 0.1897897 0.13176103 -0.20170152 0.039150953 0.4532898 -0.15345305
0.26936054 -0.48412728 0.219378 -0.14751494 0.108412765 0.52243084 -0.3132648 0.21877794
0.2869403 -0.5565994 -0.14948596 0.33833587 -0.44539595 0.30727363 0.49128598 -0.24204785
-0.33477902 -0.11202705 -0.15918511 -0.46257228 -0.33254182 0.14501375 0.2660358 -0.32103467

fc1.bias f4 [256]
00000000: 5c79 513e d01b 2bbe 509c 3b3e 7754 b7be
00000010: 8449 143e 6462 bc3d 0af6 2d3d e26e bdbe
00000020: 909c dfbe 4f96 d23d 31f7 52be a09c d5be
00000030: dec4 86be ba8d ee3e ed3d 463d 44e9 b9be
00000040: 4fe5 403c d276 2a3e 002d aa3c 38f9 8cbe
00000050: 08c5 943d 6291 5e3c a265 9dbe c2b8 fabd
00000060: 3fc6 5b3e 346f d2be c05a 023e 3e65 1ebc
00000070: 23a4 be3d a6b4 213e 4010 d33e 8bd2 d43e
00000080: 3c69 75be 785e b03d aa53 103e 96f0 343e
00000090: 0f3a 87be 24d8 7f3e 58fa 9fbd d8ac 73be
000000a0: 70c4 f93e 9a2d 233e 7816 a83c e809 813d
000000b0: 575a 59bd 1151 85be 1e1e 513e 0ecf 15bd
000000c0: 256c 893d 1ed8 e8bd 2362 a23e 74c3 0f3c
000000d0: c432 893c c601 cc3e dabb c8be 28a1 43be
000000e0: a27c 233d 4056 6fbd 7e07 bcbe f136 04bf
000000f0: 4133 61bc 54dc 56be 70a7 9d3d d425 56be
00000100: 12ac 31be e4d8 56be 101e 59bd ec27 4f3e
00000110: fee0 f5be cd51 b93d 809c d13c 69cf 923d
00000120: 8b45 723e 3a9c c2bd 0b0c e63b 8f57 373e
00000130: 77be 97be e741 353c 86ef a93e a828 3dbe
00000140: 8e55 4f3d 3acd 873b a4a1 d0be bc60 e1be
00000150: 4eda 81be d6d0 62be 2f06 463e d688 833e
00000160: c41a 9a3e 32b1 d7be 97f4 98bd 7f67 2ebe
00000170: f7dc 353e c596 c73e a4a8 d1be 320d e1be
00000180: 5787 8c3d b40b 37be aaee 90be c679 913d
00000190: a8e3 14be aa88 98be 45b7 673d a225 b33e
000001a0: 516a 6f3e b14c be3e efbf 4dbe 2631 a63e
000001b0: 5a4f 633e cd2c 193d 7a4e c9be 7727 70be
000001c0: 27a9 213e ecb9 b1be f78c a23e 4347 09be
000001d0: bddb f3be 069a 733e bb37 14be 6d0c 5d3e
000001e0: e0f6 9b3e b08a 16be a24f ca3e 023d f4bd
000001f0: 74fa 59be e50b 02bd e8cb 303e 705e 4d3d
00000200: ee5e f23d be58 983e 52ed 8bbe 6e5f 1a3e
00000210: 5216 b73e a419 a33c 78e5 493c e390 6d3e
00000220: 5051 75bd 1cf9 73be 4e84 043e dcb9 ac3d
00000230: 309a 3f3d b454 ebbe 51d9 733d eee4 aabe
00000240: 092e 62be 582a 2e3e 6f28 78be 31ab da3e
00000250: 9521 89bc e37b e73e 643b 573e c421 08be
00000260: 9c2a bbbe d8bc 0dbb c0c2 c8be 36ca 2cbc
00000270: c0e8 59bc c016 703e 78f9 3abe e480 a9be
00000280: 9c6f 7ebe 122c 8dbe 43ce 2c3d c831 8ebd
00000290: f36e 683e 1e16 bebe 12bf e53d 24e5 623e
000002a0: 4cf2 9cbe 1193 81bd c4e8 bc3e 6935 903e
000002b0: 35cc a23e 80f5 c2be d611 a03e 9adb f4be
000002c0: 8014 d0be 1485 a7bd 20c3 a3bd e2d5 ed3d
000002d0: b2e7 c2be 7274 f4be 0bd1 06be a6c2 52be
000002e0: 7ba6 043e b72f bc3d 7092 b6bd c6e7 36be
000002f0: 188f 27be 2773 953e de9f b4be 4d0c db3e
00000300: 8034 893e a3f9 633e b807 44be 022d febe
00000310: 8475 f93d 7a38 11be 1bfa 383d c60a ba3e
00000320: 60c4 53be 624a acbe 3265 eb3e b3b6 ba3d
00000330: 58fe 273e ac10 8fbe 96fe 96be 26bf 89be
00000340: c091 e0bc 3646 e7be 3504 9d3e d66c ffbd
00000350: 8015 cb3e bdb3 193e a12c 2abe e576 38be
00000360: 18f4 dbbe 95f6 5c3c 6035 ba3d 70de ce3e
00000370: 8400 6cbe 3766 b83e 0eaf 3d3e b5ef afbd
00000380: 1ef8 c6be ec78 abbe 3a6f 8abe c9d4 4d3e
00000390: ff8d 7f3e 22a8 433c 29e8 533d 8cdd bcbe
000003a0: b94e 803d 14b9 b83e 8eb4 1f3e e72e c03e
000003b0: 8b6c eebe 4a62 6b3e 1506 3a3e 9583 533e
000003c0: fe8c 6f3e 11f3 803e 7a6e 95be 4400 82bd
000003d0: a1ba 7abe 4a91 843e ddc9 313e fd2f 04bf
000003e0: 447a 4fbe 5e03 00bc c7a1 9c3c 258a 3ebe
000003f0: 6c5f 99be 4407 4cbe 98f1 b43d 3899 c53d
0.20456451 -0.16709828 0.18321347 -0.3580663 0.14481169 0.09198454 0.04247097 -0.3699866
-0.43674135 0.10282575 -0.20602109 -0.41721058 -0.26322073 0.46592504 0.0483989 -0.3631078
0.011773421 0.16646889 0.02077341 -0.2753389 0.07264143 0.013584467 -0.30741602 -0.12242271
0.21462344 -0.41100466 0.12729931 -0.009667693 0.0930865 0.15791568 0.41223335 0.41566882
-0.23965925 0.086117685 0.14094415 0.17669901 -0.26411483 0.24984795 -0.07811421 -0.23796403
0.48782682 0.15935364 0.020518526 0.063007176 -0.05306467 -0.2603841 0.20421645 -0.036574416
0.0671008 -0.11369346 0.31715497 0.008774627 0.01674784 0.39845103 -0.3920582 -0.19104445
0.03991378 -0.058431864 -0.36724466 -0.51646334 -0.01374513 -0.20982486 0.07697952 -0.20912868
-0.17350796 -0.20981175 -0.053007185 0.20230073 -0.48023218 0.090488054 0.02558732 0.071684666
0.23659341 -0.09502454 0.0070204786 0.17904495 -0.296375 0.011063076 0.33190554 -0.1847254
0.0506187 0.004144338 -0.40748322 -0.44019115 -0.25361866 -0.22149977 0.19338296 0.25690335
0.30098546 -0.42127377 -0.07468527 -0.17031668 0.17760073 0.38982216 -0.40948975 -0.4395538
0.068617515 -0.17875558 -0.28307086 0.071033046 -0.14539969 -0.29791766 0.056571264 0.3498965
0.233804 0.37167886 -0.20092748 0.32459372 0.22198239 0.03739624 -0.39317685 -0.23452555
0.15787183 -0.3471216 0.31748173 -0.1340609 -0.47628585 0.23789224 -0.14474384 0.21586771
0.30461788 -0.14701343 0.3951388 -0.11925699 -0.21286947 -0.031749625 0.17265284 0.05013889
0.11834513 0.29755205 -0.273295 0.15075466 0.35759217 0.019909687 0.012322776 0.23199801
-0.059892 -0.23825496 0.12941095 0.08433887 0.046777904 -0.4596306 0.05953342 -0.33377784
-0.22087874 0.1700834 -0.24234174 0.42708734 -0.016739646 0.45211706 0.2101875 -0.1329413
-0.36555946 -0.0021627452 -0.39211082 -0.010546258 -0.013300121 0.23446178 -0.18259227 -0.33106148
-0.24847263 -0.27572685 0.042188894 -0.06943089 0.22698574 -0.3712625 0.112180844 0.22157723
-0.30653608 -0.06326879 0.36896336 0.2816575 0.31796423 -0.38077927 0.31263608 -0.47823793
-0.4064064 -0.081796795 -0.079962015 0.116130605 -0.38067394 -0.4774509 -0.13165681 -0.20582065
0.12954132 0.091887884 -0.089146495 -0.17861852 -0.1636318 0.29189417 -0.3527822 0.42782822
0.26797867 0.22263198 -0.1914357 -0.49643713 0.121806175 -0.141817 0.045160394 0.36336344
-0.2068038 -0.336505 0.45975643 0.09116878 0.16405618 -0.27942407 -0.2949111 -0.26903647
-0.027413249 -0.45170754 0.30667272 -0.12471931 0.3966484 0.15009971 -0.16618587 -0.18014105
-0.42959666 0.013486524 0.09092212 0.4040408 -0.23047072 0.36015484 0.1852381 -0.08590642
-0.38861173 -0.33490694 -0.27037984 0.20100702 0.24956511 0.011941941 0.051735077 -0.36887777
0.06265015 0.36078703 0.1559622 0.37535784 -0.46567187 0.22986713 0.18166383 0.20655663
0.23393628 0.25185445 -0.2918585 -0.06347707 -0.24485256 0.25892097 0.17362161 -0.51635724
-0.20261484 -0.007813303 0.01912011 -0.18607385 -0.29955614 -0.19924647 0.08835143 0.09648365

fc2.weight f4 [256, 256]
00000000: c4cb c83c f052 d4bc 221c 83bd 0d23 c3bc
00000010: bd15 aebd 59b2 39bd 7c44 2bbd 4887 4e3c
00000020: 0864 213d b97c 17bd 48f5 5d3d b662 47bd
00000030: 3182 72bd d478 c8bb 91aa 60bd 8127 dfbd
00000040: fec8 edbd afae 04bc 402d 76bb 3429 db3c
00000050: 1ed0 523d 1886 45bd 2ed5 86bd 171e 77bd
00000060: 1580 c6bd c430 f03c 7954 aebc 38e3 a8bd
00000070: 1f43 6abd 1b09 dabd 0a9e cfbc 9051 b43c
00000080: a400 37bd 6275 e4bd 00ac adbd 6377 d0bd
00000090: 635f 00bd dcc3 22bd f950 7dbd a2a7 1bbd
000000a0: 04ee 943d cc0f 94bd 1197 253c 2c15 78bd
000000b0: 35b3 36bc d6f4 48bd eec1 b0bb c4c3 2abd
000000c0: 7886 42bd 8045 bcba 9b10 6cbd 8d91 8ebd
000000d0: 9cf6 cd3c d46a c8bc 3278 1fbd 78ce 18bd
000000e0: 6c8e 8cbc 9a66 0dbd 7013 ccbc 922b 43bd
000000f0: 4e4f d6bd 6a5b 57bd 8cb3 14bd 10b8 653c
00000100: 0314 e8bd 309c d53b 24f9 debc f022 313d
00000110: 7ebf 51bd f06c c2bb 2682 01bd 6cd0 9bbd
00000120: 5038 163c b55a d6bd bfdc 21bd 3a94 4dbc
00000130: b0b2 683c 7757 77bd 96b9 e3bd 5cd3 ea3c
00000140: 606e babd b16b 31bd d091 ca3c 4092 6abd
00000150: d874 05bc a439 b0bd 4269 b6bd db7c 84bd
00000160: 1ab1 aebd 064f 753d 71e2 6fbd 6c5d e53c
00000170: ad9a 9abd 6f8a 4f3d 7012 be3b 90be ed3c
00000180: 85da 3bbc 6584 adbc 409a b53c 81e3 cabd
00000190: f25d 5ebd b6ca 68bd 19d7 d7bd 1447 83bd
000001a0: e506 e4bd f3a2 78bd 8139 dabd 074c babd
000001b0: 403c a4bd 004b 31bd e6fc 0d3d ebb1 f7bd
000001c0: 69ca 743c 600f 81bb fcd2 dbbc 10aa 81bd
000001d0: 9397 6dbc 34ec e2bc 408f 4c3b ca1a bfbc
000001e0: 4a77 82bd 107f 49bd 4bc2 36bc fa8e 99bc
000001f0: e021 d13c fcdd 7bbd 0050 073d b024 a8bb
00000200: f17d 8cbd 48ba debc bfaa 94bd 21ee 21bc
00000210: 662c c33d f37f c2bd b32b 8fbc c474 c1bb
00000220: a06b 50bd 9469 9fbc ec57 1fbd bb0f a03c
00000230: 2389 f2bd a0e6 593b f103 d8bd f8fd d5bc
00000240: 2c0e bfbc 53e5 b7bd d013 13bd fb8b c4b9
00000250: c7c5 43bd 4d52 24bc 1054 bc3b da2d 28bd
00000260: 4447 f03c ae36 45bc 3cf9 d83c 10d2 36bd
00000270: e209 153d bbaa a2bc d866 cb3c 4c72 c33c
00000280: 76f4 143d b0dd 7abc 4cb1 28bd ec17 e93c
00000290: 936c 90bd f8dc 4bbc 740d 8abc 2c85 a33d
000002a0: 5485 c7bc 75e4 f1bc 9d83 d9bc d98a 71bd
000002b0: 503d dbbb 8a97 1f3d 4c6e 90bd bc43 883c
000002c0: 54a5 623d 742b cdbd 10ab 42bc ff44 18bc
000002d0: 9609 02bd 3063 8c3b 09b5 acbd 9a7b 473d
000002e0: 5551 d2bd 0068 8cbb 1491 f23c 3873 de3c
000002f0: b7d7 a6bd 5ffc 36bd a6e7 77bd 3476 47bd
00000300: 1c3b c2bb 1503 f5bd bcbd d03c 1088 1c3c
00000310: 2196 d6bd 3abf ddbd cc40 debd 5a81 78bd
00000320: c5f6 e5bd dd93 f4bd 0ec0 e43d 774f b2bd
00000330: 3adf 68bd 524a 6bbd 7086 cbbc 2e61 70bd
00000340: 10e1 babc 0003 5fbd 7baf e9bd ceb6 4a3d
00000350: de4e b9bc e43e a23c 0291 81bc 1882 bebd
00000360: 8272 e5bd 0465 90bd 709d 4d3c 14ec a7bd
00000370: 4444 8ebc f4fe 52bd 2a70 a3bb f35f 51bc
00000380: 9c14 a93c 9036 143c d83c 71bc 4e70 6bbd
00000390: 6fd5 b63d 5948 a2bd 42f9 35bd 289d 4fbc
000003a0: d294 143d 4bba a5bd f7e5 d2bd 881d 293c
000003b0: 2314 dbbd 71ba 8bbd 4663 e2bd d596 10bd
000003c0: 456d d2bc 893f 69bd aa54 32bd 9c48 9abb
000003d0: 695a 19bc 2224 1ebd fb3d c7bc c236 92bc
000003e0: f4d9 dd3c 8bd9 3c3a 7ea7 753d 307f 10bd
000003f0: 1066 0abc 201d 093d 40e8 75bd b8be e4bd
0.024511226 -0.025918454 -0.0640185 -0.023820424 -0.0850024 -0.0453361 -0.04181336 0.012605496
0.039402038 -0.03698418 0.054188997 -0.048678122 -0.05920619 -0.0061179195 -0.054850165 -0.10896207
-0.11610602 -0.008098288 -0.0037563592 0.026753046 0.051468007 -0.048223585 -0.065836295 -0.06033143
-0.096923985 0.029320128 -0.021280514 -0.082464635 -0.057192918 -0.10646268 -0.025343914 0.022011548
-0.044678345 -0.111552015 -0.08480072 -0.10179021 -0.031340968 -0.039737567 -0.0618448 -0.038001664
0.072719604 -0.072295755 0.010106818 -0.060567066 -0.011151125 -0.04906162 -0.005394212 -0.041690603
-0.04749152 -0.0014363974 -0.057633024 -0.06961355 0.025142007 -0.024465002 -0.038932987 -0.03730628
-0.017157756 -0.034521677 -0.024911612 -0.047648974 -0.10464345 -0.052577414 -0.03630404 0.014020935
-0.11331942 0.006518863 -0.027218409 0.04324621 -0.05120801 -0.0059333965 -0.03161826 -0.07608113
0.009168699 -0.1046652 -0.03951716 -0.012547547 0.014202759 -0.060386147 -0.11119382 0.028665237
-0.091030836 -0.043315593 0.024727732 -0.05726838 -0.0081455335 -0.08604744 -0.08906795 -0.06469127
-0.08529873 0.059889816 -0.05856556 0.027998649 -0.07549033 0.05066913 0.0058005378 0.029021531
-0.011465673 -0.021181295 0.022168279 -0.09906674 -0.054288812 -0.056833945 -0.105390735 -0.064100415
-0.111341275 -0.060702275 -0.10655499 -0.09096532 -0.08019304 -0.043284416 0.03466501 -0.12094482
0.0149408365 -0.0039386004 -0.026834004 -0.06331265 -0.01450147 -0.027700521 0.0031213313 -0.023328204
-0.06370409 -0.049193442 -0.0111547215 -0.018744934 0.025528848 -0.061490998 0.03303528 -0.0051313266
-0.06859959 -0.027188435 -0.0725913 -0.0098834345 0.09529953 -0.094970606 -0.017476892 -0.005903812
-0.05088389 -0.019459523 -0.03890221 0.01953875 -0.11842563 0.0033249035 -0.10547627 -0.026122078
-0.023322187 -0.08979287 -0.035907567 -0.00037488327 -0.047796037 -0.010029388 0.0057473257 -0.041059352
0.029330857 -0.012036962 0.026486032 -0.044633925 0.036386378 -0.019856801 0.024829313 0.023858212
0.03636595 -0.0153116435 -0.04118471 0.02845379 -0.07051959 -0.01244282 -0.016852118 0.07984385
-0.024355568 -0.029527882 -0.026552016 -0.058970306 -0.0066906586 0.03896288 -0.070522875 0.01663386
0.05533345 -0.10018054 -0.011881605 -0.009293794 -0.031747423 0.004284285 -0.08432967 0.04870186
-0.10269419 -0.0042848587 0.029610194 0.02715455 -0.08146613 -0.044674274 -0.06052365 -0.04869671
-0.0059274565 -0.119634785 0.025481097 0.009553924 -0.104778536 -0.10827489 -0.10852203 -0.060670234
-0.11228708 -0.11942265 0.11169444 -0.08706563 -0.05685351 -0.057443924 -0.024844378 -0.058686428
-0.022812396 -0.05444622 -0.11410423 0.049490742 -0.022620615 0.01980538 -0.015816215 -0.09302157
-0.11203481 -0.07050517 0.012549743 -0.08199325 -0.017366536 -0.051512673 -0.004987736 -0.012779224
0.02063971 0.009046212 -0.014723979 -0.05748015 0.08927428 -0.079239555 -0.044427164 -0.012671746
0.03627474 -0.08092173 -0.102977686 0.010321982 -0.106972 -0.0682267 -0.11054091 -0.035300095
-0.02568687 -0.056945357 -0.043537773 -0.0047083627 -0.009359934 -0.038608678 -0.024321547 -0.017848376
0.027081467 0.0007204047 0.059974186 -0.035277545 -0.008447185 0.03347504 -0.060035944 -0.11169189

fc2.bias f4 [256]
00000000: f09f d2bd 6e34 c0bd e8f0 c23d bc62 69bc
00000010: c187 20bd 2c29 47bd 31d6 92bd b428 fcbd
00000020: a09d d739 70ec 78bd 39b1 fabd 7131 fd3d
00000030: f975 6dbd a72d 43bd 99ad d5bc 87a4 a7bd
00000040: 4357 5dbd 710b 4abd 7d76 aabd b52d 55bd
00000050: 11c7 a7bd 473a c2bc fc8e 6cbc 16f1 acbd
00000060: 0923 85bc f036 7dbd 9068 6ebd 7dfa e0bd
00000070: 1d2d 89bd 81b0 83bd 520a f2bc bcd2 eb3c
00000080: c249 f9bc 2ed2 fabc b5a3 b6bd 36dc c5bd
00000090: d5df bfbc 3e55 47bd f4b9 3a3d 027c 073e
000000a0: 85bb 05bd a1ab ea3d 459c d7bc 9fbb c0bc
000000b0: a592 88bc 483f eebc ded6 d6bc b57d 36bd
000000c0: 94b4 bdbc 5db3 4ebd 89dd c3bd 3c26 1fbd
000000d0: 41b1 46bc 4ce8 8bbd 3042 14bb 420e e6bd
000000e0: 3515 a5bd 4f9d 98bd 819c 91bd 5890 a9bd
000000f0: 5a1a 63bd d8de c8bd 129b cabd 2849 f13c
00000100: 3545 853c 2426 4b3d 525e bdbd c243 b6bd
00000110: 08fa 52bc dd94 72ba 663b 68bd e355 263e
00000120: c456 e7bc 1354 66bd c8c1 d33c 80af 093b
00000130: e1b2 31bd b35a 8e3a 5051 d3bc 228f 6ebd
00000140: 5627 c6bd 721c 61bd c9a0 aabc 7a37 20bd
00000150: fa3e 3cbd 6de5 ecbd c27f 5cbd 1faf babd
00000160: 4c58 19bd 3dad b73c 7c48 acbc 8084 6b3a
00000170: 1806 bdbd c8ef 553e 63c7 26bd 96fe bebc
00000180: e9ad 71bd 570d 29bd a0f3 51bc c145 a7bd
00000190: 32a0 64bc 9de1 1abd 9a80 febb 674b 97bd
000001a0: cf8c 88bd 944d 42bd 9919 2bbd 5e7a 25bd
000001b0: d00c af3c 02bc 41bd 6f8c 4cbc f8d6 dd3c
000001c0: fd6c c9bc 219f 3bbd 9f22 8bbd e486 98bd
000001d0: 95e2 b3bd 6ad7 e43b 6ab0 fcbc 1c4a 72bd
000001e0: 8e4c 8bbd a124 9ebd 6a9e b9bd 2da1 8abc
000001f0: 892e 96bd c480 81bd 1274 9abd ae3f 77bd
00000200: 804f 32bd b9b5 e9bb be9c 0fbd 74d4 513d
00000210: 0088 44bc 56b8 0bbd 3b69 44bd 8b75 1abd
00000220: 60eb f9bc ff85 a1bd 9fd6 e43c 2983 e2bc
00000230: c73c 8a3d 1c70 96bc c181 10bd 80c4 99ba
00000240: a2da 113c 2d28 0d3c 0b57 d1bd 9511 ad3c
00000250: bd69 11bd 4d4c 9ebd c925 b33d 4e9b 1f3e
00000260: c702 e8bd ba0b a33c 43ac f0bd 07bb 8abd
00000270: 9668 643d 241f 16bd d8cc 38bd a76f bfbb
00000280: 5ed1 4abd 1b2c b1bd 0b4e 24bd 03bc dcbd
00000290: f1de 8a3b acb5 cfbc 6f5e c4bc 446c 60bd
000002a0: a8c5 9fbd 3a40 bebb c21d 69bd ca6b 463d
000002b0: cc36 78bd f05f dbbd f273 cfbd df79 52bd
000002c0: 5110 53bc 84a4 ed3a 2fbd b9bc e5e1 35bd
000002d0: a2e7 a1bd 167a e6bc 826d 98bd de0b b73c
000002e0: 3a88 e5bd d298 a8bc 9479 d7bd f740 e8bd
000002f0: 3c61 cbbc 8877 01bd d5f8 67bc 5891 2cbc
00000300: dae3 403c f0c1 24bc 081b 983d bccb 8f3e
00000310: 964b 66bd b416 c1bc a36f 67bd 10b2 9c3c
00000320: 5df6 0dbc 28dc 5bbd 0766 32bd 0a39 48bd
00000330: 57a8 10bd 0090 b038 af52 a3bd 1a33 12bc
00000340: 40a9 5b3c ccd6 5bbd f9be 05be c497 45bd
00000350: 0714 ccbd b42a f4bc e95a 85bd 1919 48bd
00000360: bd46 f8bd 97d4 65bc 511f d3bd a4f7 113d
00000370: 2ca2 a0bc 3be5 a2bd 9dec 15bc 1529 12bd
00000380: 72c5 c0bd a47b f8bd 0eb2 c63d 8495 963b
00000390: 7295 9bbd bdfa b3bd 344f e9bc d07c c2bd
000003a0: 2891 0ebc a008 f0bd da61 e5bd 5e6f cdbd
000003b0: 5c0c c0ba a459 4abd c267 59bd 9f09 e5bc
000003c0: 1f09 1b3d 04cf cebd e0b4 4f3b 83c5 aa3b
000003d0: d22c 73bd c4e5 aebd 99f4 78bd c6f8 b4bd
000003e0: 864b 9fbd b952 73bd 27b2 c5bd 9453 cebd
000003f0: 8f28 84bd 9f02 42bd 50b2 c1bb ea52 0f3d
-0.10284412 -0.09385 0.095186055 -0.0142447315 -0.039191965 -0.04862325 -0.0716976 -0.12312451
0.00041125435 -0.06077236 -0.12240834 0.12362946 -0.057973836 -0.04765096 -0.026083754 -0.08185678
-0.054038297 -0.049327318 -0.08323381 -0.052045543 -0.08192266 -0.02370943 -0.014438387 -0.08444421
-0.016252058 -0.06181997 -0.058205187 -0.10985277 -0.06698058 -0.0643015 -0.029545937 0.02878701
-0.030430678 -0.0306178 -0.089179434 -0.096611425 -0.023422161 -0.048665278 0.045587495 0.13230899
-0.032649536 0.11458517 -0.026319632 -0.023526965 -0.016671488 -0.02908291 -0.026225504 -0.044553477
-0.023157395 -0.050464023 -0.09563739 -0.038854823 -0.012127222 -0.068314165 -0.0022622459 -0.11233188
-0.080606855 -0.07451879 -0.07109929 -0.082794845 -0.055445053 -0.09808129 -0.098928586 0.029453829
0.016268352 0.04959692 -0.09246506 -0.088996425 -0.012876995 -0.000925375 -0.05669727 0.162437
-0.028239615 -0.056232523 0.025849238 0.0021009147 -0.043383483 0.0010860771 -0.025795609 -0.05824197
-0.096754715 -0.05495877 -0.020828621 -0.039115407 -0.045958497 -0.11567197 -0.053832777 -0.09115433
-0.037437722 0.022421474 -0.021030657 0.00089842826 -0.09229678 0.2089225 -0.040717494 -0.023314755
-0.059003744 -0.041272487 -0.012814432 -0.081676014 -0.013954209 -0.037812818 -0.0077667953 -0.07387429
-0.06667482 -0.047437266 -0.04177246 -0.0403999 0.021368414 -0.04729844 -0.012484654 0.027080044
-0.024588102 -0.045806054 -0.06793713 -0.07447603 -0.087834515 0.006983687 -0.03084584 -0.059152707
-0.06801711 -0.0772183 -0.09063418 -0.016922558 -0.073330946 -0.06323388 -0.0754167 -0.060363464
-0.04353285 -0.0071322587 -0.03506159 0.051228 -0.011995316 -0.034111343 -0.047951918 -0.037709754
-0.030507743 -0.07886886 0.02793437 -0.027650433 0.067498736 -0.018364005 -0.035279993 -0.0011731535
0.008902224 0.008615536 -0.1022168 0.021126548 -0.03550123 -0.07729397 0.08747441 0.15586588
-0.11328655 0.019903053 -0.11751606 -0.06773954 0.055763803 -0.03665079 -0.04511723 -0.0058421674
-0.049516074 -0.086509906 -0.04011349 -0.10778048 0.0042380025 -0.025355183 -0.02397081 -0.05479075
-0.07801372 -0.0058059962 -0.056913145 0.04844264 -0.060599133 -0.10711658 -0.10129537 -0.051385757
-0.012882308 0.0018130695 -0.022673218 -0.044404883 -0.079055086 -0.028134387 -0.07442762 0.022344526
-0.11207624 -0.020580683 -0.10521236 -0.11340516 -0.024826638 -0.031608135 -0.014158447 -0.0105326995
0.011773074 -0.010056004 0.07427031 0.28085124 -0.056224428 -0.023570396 -0.05650295 0.019127876
-0.008664695 -0.053676754 -0.043554332 -0.04888252 -0.03531679 8.419156e-05 -0.07974755 -0.008923316
0.013407052 -0.053671643 -0.13061132 -0.048240438 -0.099647574 -0.029805519 -0.0651148 -0.04885206
-0.12122867 -0.014027736 -0.103087075 0.03563656 -0.01960858 -0.079538785 -0.009150651 -0.03568371
-0.0941266 -0.121329576 0.0970193 0.0045954604 -0.07596864 -0.08788059 -0.02848015 -0.09496462
-0.0087016 -0.11720395 -0.11200304 -0.10031007 -0.0014652121 -0.049401894 -0.053077467 -0.02795869
0.037850495 -0.10098079 0.0031693503 0.0052115335 -0.059368916 -0.08539918 -0.06078014 -0.08836512
-0.07778077 -0.059405062 -0.096531205 -0.10074535 -0.064530484 -0.04736578 -0.005911149 0.034991182

fc3.weight f4 [256, 256]
00000000: 948b f03d e876 53be 685e e43c 5abd cb3d
00000010: 8399 6abb 74f2 b9bc 2074 16bc b4bc 2cbe
00000020: e6c9 c5bd 88b3 4f3d a2ec 463d 3578 5dbd
00000030: a23a 513d 24b0 d53d ebc1 9e3c 40a4 bd3d
00000040: f437 753d 8dc8 f2bd 094f 8abd 55b2 ebbd
00000050: 33bd 903d 908d fdbd ca5b c4bd 41ef 9cbc
00000060: 7728 aabd ec69 773d 098d a8bd 78cc 71bd
00000070: b4e8 413c b784 dd3d c534 d93d ccbb 5c3d
00000080: 2807 b0bd 2866 58bc 5ba2 1ebc ae61 5f3c
00000090: 4fa1 173d 78d9 703d c8fc 703d bbed 60bb
000000a0: 4c87 263c 50a8 2bbd c676 be3d 4221 ddbd
000000b0: b001 e63b ec2a dfbc b474 1abd 5731 f1bd
000000c0: 07b0 87bd 0091 b73b 8ec2 f5bd 95f0 ee3b
000000d0: 213d 3cbd 7c98 b33c 7213 21be e116 a93d
000000e0: d9d4 88bd 1ebc 7abd eb38 5c3c d9bb 5abd
000000f0: 1c4a dabd edf0 ae3d 1668 7cbd 7449 353d
00000100: fe24 cfbd a82a c5bc 8480 f63c 1ee3 cdbd
00000110: d622 66bd a616 eebc 882a 78bd 73df 34be
00000120: 0071 393a 58b1 f73d 609f 14bd 9417 ec3c
00000130: b443 aa3c 68bc 1e3d b9f4 2b3c 80d3 4e3c
00000140: b1ff 833c c05e cbbc 2275 2cbd ad70 26be
00000150: a4fc 743d 1399 8f3d 2ee1 0abc f552 cdbb
00000160: bff0 823d 7c45 25be 6bb7 973d e085 673b
00000170: 1c6a 4abd 7bc4 37be 7db8 e73d bfcd ecbd
00000180: 78ca acbd 6f9a 9a39 8493 f93c 6470 24bd
00000190: b370 ad3d e655 18bd 2803 d63d 8338 1c3a
000001a0: a086 a7bd 5607 49be c4ce 0d3c 9b69 343d
000001b0: 247b 78bd 8656 283d 6312 6c3c c865 6f3c
000001c0: 142d e9bd 0cdc e8bc 3a39 533d ff0e 7b3d
000001d0: f06a 13bd 709e 9f3b cd7c b33c 9cad bb3d
000001e0: 2c81 2f3c 3370 853c 80b5 d23c c281 943d
000001f0: f073 30bd 358a 963d e6cf c83d 349d 593b
00000200: 3681 a3bb 903c 40bd 0c70 ee3c 8e2b 6bbd
00000210: 5c06 3a3d 8c6d 203d dfbb c43d 7534 16be
00000220: 2cb9 b1bc f0bc 7e3c 1886 a9bd 8664 f5bc
00000230: ef6c 0d3d d86d 143d 5a14 313c 6a4a 3cbd
00000240: 4c76 e03c 05f3 8dbd fd3f ddbd 81a0 3bbd
00000250: 5e02 073c 635d 41bc a0a3 323d 5474 ebbd
00000260: 55b1 aabd 1867 cbbb 19fd 9d3d bd93 2f3d
00000270: 3aff 323d d8fd 87bc 3dc7 c23d b0c2 02be
00000280: 0c7e bbbc 888b 01bd 4a02 00bd 313e 8b3c
00000290: 873d 19be dd52 67bd 3546 b5bd d859 6bbc
000002a0: e140 64bd 1b39 dcbd 3d62 32be 839d 29bd
000002b0: ae91 10be 18e1 983d b9e8 383c bfbe a2bd
000002c0: 33ad d3bd 5e09 bcbd 8ac1 15bd 2c2e 2ebd
000002d0: 65de 0e3d 6ac4 0ebe 7e9d 3bbe 07ad 4f3d
000002e0: 5d68 ac3c b1f6 d3bd 1053 203c 39c9 313d
000002f0: ae79 b13d 9d63 923c e7d1 cfba 2034 dbbc
00000300: f252 c43d 2263 16bd 8738 01bd 3f9a 8dbd
00000310: 18b2 313c 938f efbc b69a 013d 886c b73c
00000320: 000b 58bd c161 aabd 29e5 15be 250c 17bd
00000330: 8d2c 8abd 2ca6 933c 48c6 91bd e8f9 5b3d
00000340: ac33 fe3c e4b4 57be ff18 8f3a 30ab bf3c
00000350: 9fe2 5b3d 7488 9d3c 1a9d a53c 38ab 963c
00000360: 3d83 6a3d a525 c2bd bd6d 17b8 1cc6 c7bc
00000370: e9e5 963c 014e 41bd f233 17be 46d4 d4bd
00000380: 3e60 81bd 4030 cd3d 55a0 e5bd 6db8 ae3c
00000390: 6b31 763a 188d 123d 6672 3d3d bf65 bd3d
000003a0: 70a1 b3bc 5334 33bd 9e18 da3d 0b75 f8bd
000003b0: 0566 41bd f44b b23c 1e74 58bd 6299 5ebe
000003c0: fd24 b1bd 2d4e d1bc d87d 76bd 5847 ae3d
000003d0: 8098 493a 4314 093c f226 32bd d95b debd
000003e0: 0a47 fb3c 89f5 d73d aa4f 393d f567 973d
000003f0: b730 303d 66fd 123d dcf0 6d3d a04f 513d
0.117453724 -0.20650828 0.027877048 0.09948225 -0.0035797067 -0.022698618 -0.00918296 -0.1686886
-0.0965765 0.050708324 0.048565514 -0.054069716 0.051081307 0.10433987 0.019379577 0.09259844
0.059867814 -0.11854658 -0.06753356 -0.115086235 0.07067337 -0.123805165 -0.0958782 -0.019157054
-0.08308499 0.06040375 -0.08230025 -0.059032887 0.011835266 0.10816329 0.10605768 0.053890035
-0.08595115 -0.01320795 -0.009682263 0.0136341285 0.03701907 0.058801144 0.05883482 -0.0034321386
0.010164093 -0.041908562 0.09299998 -0.10797359 0.007019244 -0.027242146 -0.037708953 -0.11776989
-0.066253714 0.005602002 -0.11999999 0.007291863 -0.045956735 0.021923296 -0.15730074 0.08256317
-0.066812225 -0.06121456 0.013441305 -0.0534018 -0.106586665 0.08542047 -0.0616227 0.044259503
-0.101144776 -0.024068192 0.030090578 -0.10053085 -0.056185566 -0.029063534 -0.060587436 -0.17663364
0.0007074028 0.120943725 -0.036284804 0.028819837 0.020784236 0.038753897 0.010495358 0.012623668
0.016113134 -0.024825454 -0.042103894 -0.1625392 0.05981125 0.070116185 -0.008476539 -0.0062659928
0.06393575 -0.16139787 0.07408031 0.0035327598 -0.0494176 -0.17946045 0.11314485 -0.115626805
-0.08437055 0.0002948823 0.030465849 -0.040146247 0.08468761 -0.037191294 0.10449821 0.00059593486
-0.081799746 -0.19631705 0.008655254 0.044046026 -0.06066431 0.04109814 0.014408681 0.014611669
-0.11385551 -0.028425239 0.051568247 0.0612936 -0.035990655 0.004871182 0.021910096 0.09163973
0.010711949 0.016288852 0.025721312 0.07251312 -0.043079317 0.0735058 0.098052785 0.0033205273
-0.0049897684 -0.046932757 0.029106162 -0.057414584 0.04541622 0.039166972 0.09606146 -0.14668448
-0.021694742 0.015547976 -0.082775295 -0.02995516 0.034527715 0.036237568 0.010808075 -0.045969404
0.027400158 -0.06931118 -0.108032204 -0.045807365 0.0082403105 -0.01180205 0.043613076 -0.11496797
-0.08334605 -0.006207358 0.0771429 0.042865504 0.043700434 -0.016600534 0.09510658 -0.1276958
-0.022887252 -0.031627208 -0.031252183 0.016997429 -0.14964877 -0.05647551 -0.088512816 -0.014364682
-0.055725936 -0.107530795 -0.17420287 -0.04140998 -0.14118072 0.07464808 0.011285954 -0.07946538
-0.103357695 -0.09181474 -0.036561526 -0.0425245 0.03488006 -0.13942114 -0.18321797 0.05070212
0.021045858 -0.10349787 0.009785429 0.04340479 0.08665787 0.017869765 -0.0015855402 -0.026758254
0.09586133 -0.036715634 -0.03154805 -0.06914186 0.0108456835 -0.029243266 0.031641684 0.022390619
-0.052744865 -0.08319426 -0.14638199 -0.036876816 -0.06746779 0.018023573 -0.07117897 0.053705126
0.031030498 -0.21065098 0.0010917484 0.023397058 0.05368292 0.019230105 0.020216513 0.01839219
0.057254065 -0.094798364 -3.6103407e-05 -0.024386458 0.018420177 -0.04719353 -0.1476591 -0.103920504
-0.06317185 0.100189686 -0.112122215 0.021328175 0.0009391519 0.03577909 0.046251677 0.09247922
-0.021927565 -0.043751072 0.106492266 -0.12131699 -0.047216434 0.021764733 -0.052845113 -0.21738198
-0.08649633 -0.025549972 -0.060178608 0.085097015 0.0007690266 0.008366647 -0.043494172 -0.10857362
0.030673523 0.10544879 0.04524199 0.07392875 0.043015208 0.03588619 0.05809103 0.051101327

fc3.bias f4 [256]
00000000: 4557 98bd 600d 9c3d dadb 22be 81d3 33be
00000010: 525d 88bd 6554 9cbd 632a 82bd e1b9 9bbd
00000020: 4d98 a5bd f561 d4bc 1bff 2d3c 714d 6bbd
00000030: c499 33bd 9882 c3bd 56f9 3abd 8f21 2e3d
00000040: a9e1 f2bd fb65 07be 3a2a 18bd 3a9a 0abd
00000050: 6a61 d3bd 352f 40be 927a efbd 4abd 843c
00000060: 12bb f1bd 7e4f 83bc caf8 84ba 69f2 2abd
00000070: afa0 87bd 5c7e b6bd de69 15bd f7d9 8abd
00000080: aad5 523c 2bb6 90bd f0ec 1ebe 9ecc f1bc
00000090: 1cab c7bd 7b35 b3bd 5bd8 133e a530 8b3d
000000a0: fe35 70bd a66d c6bd 1a1f e3bd ae5d 2bbe
000000b0: 2bbd f6bd 19a5 19be 88bf 133e 9384 7abd
000000c0: 5240 38be 63dd af3b e300 f03c b356 38bd
000000d0: 2b4e 62bd c5bc 4dbe b284 1dbe f054 7abd
000000e0: c043 b13d 9442 0a3c eaa4 883e 0ac7 79bd
000000f0: fff9 db3d 5735 f2bc 3aa5 06be 63af bdbc
00000100: 1121 23bd 5c26 d9bd e67d c5bd 2a7e edbc
00000110: d2bd 94bd f5e9 8abc ac7d 89bd acab 99bc
00000120: 17b5 c9bd c8d7 c2bd ba09 0bbc 6d5e 99bd
00000130: 0c16 6abd f29f 10be d982 74bd 02c1 bbbc
00000140: 616f 31be ae6c 983e a241 afbd 163a b53c
00000150: 3e7d a23e af62 e1bd 52de 19be ab93 bebd
00000160: afb2 ebbd bf07 79bd 40e4 cdbd 695f 87bd
00000170: e167 0e3e 24d2 04be 03d7 77bd c08d a3bc
00000180: 529c bebd e4fd b0bd 0a91 a03e c404 ed3d
00000190: 5257 a83b 24f6 29bd 69c0 813b 6330 4cbd
000001a0: 3bff 9a3e d450 8ebd a087 46be 26ac 96bc
000001b0: 8e56 8bbd f32d 95bd 057b 8fbd c5a9 ecbc
000001c0: ccf5 bbbd 94c4 26be 86c2 dfbd 1ed3 46bd
000001d0: 15a8 6fbd 599c 8f3e ba6e 43ba 8dc4 8ebd
000001e0: fbe7 1dbd 224a 7ebd 844a 1bbe 2cf7 4ebd
000001f0: ceae 0abc 11e1 9a3e 2e9a c2bd 1004 b8bd
00000200: 45d9 6fbd b2e4 e2bd aaef 85bd b9a5 213d
00000210: 7a4e 96bd 58bf 4e3e 71f2 d1bd 1f4a dcbd
00000220: 3ba0 f4bd ac06 6cbd 7744 ccb9 2a1d 15be
00000230: 0b09 1fbd 435b ca3e 5744 953e 898a 06bb
00000240: 362d 043e 2408 2dbd 9b05 0fbe faf3 eebd
00000250: 5d7c 0dbe 7893 5c3e 9228 43bd 2a63 16be
00000260: 1f89 4b3c 1499 79bd a16b 80bd ce44 993d
00000270: 90cf 3cbc 2126 15bc 203c f3bc 459d a0bd
00000280: c5a6 353d c48d 2bbe eef7 4c3e 011b 8ebd
00000290: 9e74 f33a ebf2 a1bd b614 9ebd 6cac e6bd
000002a0: d581 d13e b38a cdbd f23b 57bd 6b9a 22be
000002b0: 856f a1bd d05f 6b3e 8bd5 6dbd 24ee 5bbd
000002c0: 7e49 afbd 7dea 473e 3b62 debc 4ff4 a5bd
000002d0: e63b c9bd 27ad 93bd 97c2 d1bd a441 d2bd
000002e0: f700 0c3e 55de 50be f851 bebd 5c46 68bd
000002f0: 1a78 13be a1ed cd3d 2824 1ebe ccf4 13be
00000300: b725 bebd 28b4 de3e 6f4b 8abd 78b2 c2bd
00000310: 43e2 4dbd b65f b5bd e5f2 abbd 79f3 3abe
00000320: d441 283e 465b f6bd 863a db3e a2b6 c7bd
00000330: 6887 623e 6f76 903c f381 a4bd f8c4 82ba
00000340: 2d71 973e 5e21 7abc dc9a 96bd a905 1abd
00000350: fa62 66bd 3e37 ecbd 1e28 35be 6284 b1bc
00000360: fbd1 3fbd fefd dfbd ca35 dabc a8c8 e3bc
00000370: 27a9 8b3c 5437 1fbe eaed 0abe d546 f3bd
00000380: 396e d3bd f9b5 f6bd 387f 9ebd 7613 63bd
00000390: 6b3e dcbd 685c 72bd f7e5 babc 048d 03be
000003a0: 0e96 31be f387 103e abf7 5ebe d303 e7bc
000003b0: b19c f2bd e52b 3bbd fb2c f4bd ad55 aebd
000003c0: 433d 41be c15d 333e 44dd 1bbd 622b 213e
000003d0: 55fd 693d c82b 2abe 4409 e1bd b844 21be
000003e0: b117 94bd 5466 b9bd be13 9abc 7ef2 b23e
000003f0: fa78 17be e8cb 04be 86e2 b6bd b921 843d
-0.0743852 0.076197386 -0.15904179 -0.17561151 -0.066584244 -0.076332845 -0.06355741 -0.07603813
-0.0808569 -0.025925616 0.010619904 -0.0574469 -0.043847814 -0.09546393 -0.04564794 0.042512473
-0.118594475 -0.13222496 -0.037149645 -0.03383849 -0.10321315 -0.18768008 -0.116933 0.016203541
-0.11803259 -0.016029116 -0.0010144946 -0.041735087 -0.06622445 -0.0891082 -0.036477916 -0.06779855
0.012868324 -0.07065996 -0.15520072 -0.029516514 -0.097494334 -0.08750435 0.14438002 0.067963876
-0.05864524 -0.096888825 -0.110899165 -0.16734955 -0.120478 -0.15004386 0.14428532 -0.06116159
-0.17993286 0.0053669675 0.029297298 -0.045004558 -0.055250328 -0.20091541 -0.1538265 -0.06111616
0.086555004 0.008438725 0.2668832 -0.060980834 0.10741042 -0.02956645 -0.13148966 -0.02315492
-0.039826456 -0.106030196 -0.09643154 -0.028990824 -0.07262768 -0.016957263 -0.06713423 -0.018758617
-0.09848993 -0.09513813 -0.008486206 -0.074887134 -0.05714993 -0.14123514 -0.0596951 -0.022919182
-0.17327644 0.29770416 -0.0855744 0.022122424 0.31736177 -0.110051505 -0.15026215 -0.09305509
-0.115086906 -0.060798403 -0.10053301 -0.06609995 0.13906814 -0.12970787 -0.060507786 -0.019965053
-0.093071595 -0.08642176 0.31360656 0.115731746 0.0051373625 -0.041494504 0.0039597047 -0.049850833
0.3027285 -0.069490105 -0.19387674 -0.018392634 -0.06803618 -0.07284155 -0.07005886 -0.028889546
-0.091777414 -0.16285926 -0.10925774 -0.04854118 -0.058509905 0.2804897 -0.0007455159 -0.06971083
-0.038551312 -0.062082417 -0.15165144 -0.05052869 -0.008464528 0.30249837 -0.09502064 -0.0898515
-0.058556814 -0.110787764 -0.06539853 0.039464686 -0.07339187 0.2019018 -0.1025132 -0.10756325
-0.11944624 -0.05762355 -0.00038960922 -0.14561906 -0.038826983 0.39522752 0.29153702 -0.002052935
0.12907872 -0.04224409 -0.13966982 -0.116676286 -0.13816972 0.2154063 -0.047646113 -0.14686266
0.012422829 -0.060937002 -0.062705286 0.074838266 -0.011524096 -0.009103329 -0.029691756 -0.07842497
0.044348497 -0.16753298 0.20016453 -0.06938744 0.0018574183 -0.07907661 -0.07718794 -0.112633556
0.40919366 -0.100362204 -0.052547403 -0.15879218 -0.07882599 0.22985768 -0.05806498 -0.053693905
-0.085589394 0.19523044 -0.02714645 -0.08103239 -0.09825878 -0.072107606 -0.10242193 -0.10266426
0.13672243 -0.20397313 -0.09292978 -0.056707725 -0.14401284 0.1005509 -0.1544348 -0.14448851
-0.09284537 0.43496823 -0.06752669 -0.095066965 -0.050264608 -0.08856146 -0.08395938 -0.1825694
0.16431361 -0.12029128 0.42818087 -0.09751631 0.22121966 0.017634599 -0.08032598 -0.0009976914
0.29578534 -0.015266744 -0.07353756 -0.037603054 -0.056246735 -0.11533974 -0.17691085 -0.02166957
-0.046831112 -0.10937117 -0.026636977 -0.027805641 0.017048432 -0.1554845 -0.1356732 -0.118787445
-0.10323758 -0.12046427 -0.07739109 -0.05543848 -0.10754093 -0.059170157 -0.022814734 -0.12846762
-0.17342398 0.1411436 -0.21774165 -0.028200066 -0.11846293 -0.045696158 -0.11922642 -0.08512435
-0.18871026 0.17516233 -0.038052812 0.15739205 0.057126362 -0.16618264 -0.109880954 -0.1574887
-0.07231081 -0.09052721 -0.018808242 0.34950632 -0.14792243 -0.12968409 -0.08929925 0.064517446

classifier.weight f4 [16, 256]
00000000: 3c6c 813d 2b05 7b3b fe80 0e3d d93c 333c
00000010: 590e 97bd 3adf c6b9 f079 773d 0d12 833d
00000020: 3725 1a3c 0cc0 483d 7ebf 0c3e d585 d53c
00000030: 6647 db3d 56b3 8abc e2a0 80bc 6649 39be
00000040: c2ba 94bc 0526 16be be28 d83c 3155 a7bd
00000050: ca26 5abb 8e86 af3d 09f2 e8bc fe28 30be
00000060: b67f 143c 9881 153c 0d00 2b3d da9e 103c
00000070: a885 573c 7345 963b 0b0d d4bd 9291 583d
00000080: 1a34 513d fae3 183d a5be 4abe 816e cebd
00000090: 73c3 653d c4d3 623d f2b9 e4bc 1c88 60be
000000a0: dfdc 38bc 3a4e e73b 5fea b43d 687c 083d
000000b0: f2dc 1abd 13fd d63d 64af e5bd 7b84 5ebc
000000c0: fd5b c13d 7f05 ebbd 86e9 33be b526 863d
000000d0: 5f1f ec3d 580a 17be 188b ad3a 69d7 533d
000000e0: e26b 243d 8a7e ecbd 6ac8 54be e15a 5a3d
000000f0: 98df 393d b424 27bd 1536 df3d 0f2a d83d
00000100: 1c77 a8bd 450d f1ba f1e0 0ebd 1273 c33d
00000110: 50a1 203c 1d0e 923c 21e5 813c 61d1 11bd
00000120: 541e c4bc 7d66 62bd 4ff7 fe3d 3111 28bd
00000130: ae0f 053d 692e 54be 090f 8f3d 63ab 993a
00000140: 2ebb f23d 90ac babe 5286 e3bc 45ca bd3d
00000150: 8c89 373d 4dfc d83c 6ae6 3cbb 0cf5 c93c
00000160: 070a 5a3d bb97 823c cb96 9e3d 0469 73bd
00000170: 3c6c b5be d816 34be edda 203d 50cd aebc
00000180: 839f b63d 55f0 5c3d 4156 bcbe 2dbe 2cbe
00000190: 3c13 293d 4e94 a6bd 49d3 a13d 1ad0 90bd
000001a0: b06e c3be 8e88 a73d 219a 173e ae7e 123c
000001b0: 7f2f 553d 1d7f 3a3d 93a4 8b3d 8120 d43d
000001c0: 83bc 92bd 016b bc3d 572c 9abd 7096 a43b
000001d0: 6913 113d acf0 eebe b3c2 223d b182 6f3c
000001e0: 4ed1 ad3d da2a 7c3c c203 7a3d 8a92 e0bc
000001f0: 9cf5 aa3c f96e 92bd b4f2 463d 5009 be3d
00000200: adb6 9c3c bae1 86bc 8efb 10bd 7c5c c03d
00000210: 3309 ae3d 5877 2bbf d3c0 153d f318 833d
00000220: a738 9dbd d699 a1bd 8f46 163d bd00 16bd
00000230: a692 973d 7653 66be 432e a9bc e872 15bd
00000240: f7a3 b03d 896c c03d cd7b a53d 7813 913d
00000250: ca15 a13d 8fcf 59be 4294 153d 5b1b c0bd
00000260: 2d5f e73a 601d 433d c169 0fbe 666f a53d
00000270: a10b 27bd 0749 7c3c fc76 54bd a652 35be
00000280: c11b bf3d e8ca 6abd ad91 73be 40a0 e93d
00000290: a9ca ce3d 9fe4 25bc cbe3 18bc d070 95bd
000002a0: 6b4e bfbe 15c9 8b3d e8d3 23bc b5d4 52be
000002b0: 1af7 b43d 6500 40be 2efd 873d 4dbc 53bd
000002c0: 803d 123d 5a54 1fbe cfc1 b8bc 685b c23c
000002d0: 215e dabd 9ce6 393c 909c 83bd 1a05 193d
000002e0: 741a b13d a1c6 803c 79d6 893d d0e5 2fbd
000002f0: 9a2c 5f3d 762a 73bd 55b6 24bd e0fa 443d
00000300: 00ec 10bd 03c3 31bf bc9b 29bd 5468 fb3c
00000310: 60fb c7bc 6831 44be dfbb 6a3b 5232 6b3d
00000320: cad1 14be a2da 2a3d a48d 2cbf d790 983d
00000330: b6d8 363d 26e7 2d3d 7bff d4bd e9ce bebd
00000340: 1969 d8be 1158 f73c c428 243c bb40 9c3b
00000350: 00dc a8b8 221e 953d 4eba c9bd 344e 85bb
00000360: 5685 67bb b645 c7bd d31f 89bc 13d4 903d
00000370: d374 ef3d 2032 70bc 99a8 a23d 9489 013d
00000380: 5131 2e3d b67a e13d 11b5 45bc c6bb 14bc
00000390: 3feb 0dbb 0169 5fbe fab0 8c3d 07c5 293d
000003a0: 2e40 d8ba 8662 babe d408 733d 3a54 253d
000003b0: 7e7f b63d 6a09 e43c 5333 3b3d cf68 103d
000003c0: 1eaa 643d 499d 99be 4280 573d 5602 ffbd
000003d0: 336d ae3d e7ef e43d 465a d53b 01c0 e93c
000003e0: 5f4a 943d 3593 36bd 716d 953d 34dc bbbe
000003f0: ed59 363c dfd5 a33d cd91 6b3d 710a 16be
0.06319472 0.003830264 0.034790985 0.0109398 -0.073757835 -0.0003793182 0.060419023 0.06399927
0.009408287 0.049011275 0.13744923 0.026064793 0.107069775 -0.016931217 -0.015701715 -0.18094406
-0.01815546 -0.14662941 0.026386615 -0.08170546 -0.003328728 0.08570586 -0.028435724 -0.17203137
0.009063652 0.009125136 0.041748095 0.008826936 0.013154425 0.0045859157 -0.1035405 0.0528732
0.05107508 0.03732679 -0.19799288 -0.10079671 0.056094598 0.055377737 -0.027920697 -0.21926922
-0.0112831285 0.007058886 0.08833765 0.033321768 -0.037808366 0.10497489 -0.11215094 -0.0135813905
0.094413735 -0.11475658 -0.17569551 0.065503515 0.11529421 -0.1475004 0.0013240306 0.051719103
0.040141948 -0.11547573 -0.20779577 0.053309325 0.04537925 -0.040806487 0.10898987 0.10554897
-0.08225843 -0.0018390795 -0.03488249 0.09543432 0.009804085 0.017828995 0.015856327 -0.03560007
-0.023940243 -0.05527352 0.12449514 -0.04103202 0.032485656 -0.20720829 0.069852896 0.0011724051
0.11852108 -0.3645978 -0.02777401 0.092670955 0.04480891 0.026487494 -0.002882386 0.02465298
0.05323222 0.015941491 0.07743605 -0.059426323 -0.3543414 -0.17586839 0.039271284 -0.021338135
0.08917143 0.053940136 -0.36784557 -0.16869421 0.04127811 -0.081337556 0.079016276 -0.07070942
-0.38170385 0.081803426 0.1480489 0.008941336 0.05204725 0.04553138 0.068184994 0.10357762
-0.07164862 0.09200097 -0.075279884 0.0050228164 0.0354189 -0.46667993 0.03973646 0.014618562
0.08487187 0.015391076 0.06103874 -0.027413625 0.020869069 -0.071500726 0.048571303 0.0927912
0.019130075 -0.016465057 -0.03539615 0.0939264 0.08497848 -0.6697898 0.036560845 0.06401243
-0.07676821 -0.0789067 0.036688384 -0.036621798 0.07401018 -0.22492775 -0.020651942 -0.036486536
0.08625024 0.093957014 0.08080254 0.070837915 0.07865484 -0.21270584 0.036518343 -0.09380218
0.0017652266 0.047635436 -0.14005186 0.08077888 -0.040782575 0.01539827 -0.051871285 -0.17707309
0.093314655 -0.057322413 -0.2378604 0.114075184 0.10097248 -0.010125308 -0.009331654 -0.07296908
-0.37364516 0.06825463 -0.009999253 -0.20588954 0.088361934 -0.1875015 0.06640087 -0.05169325
0.035703182 -0.15559521 -0.022553353 0.023725227 -0.10662485 0.0113464855 -0.06426346 0.03735838
0.08647624 0.015719714 0.067303605 -0.042943776 0.054485895 -0.059366666 -0.040212948 0.048090816
-0.035381317 -0.6943819 -0.041408285 0.030689396 -0.024411857 -0.19159472 0.0035817546 0.057421036
-0.14533153 0.04171241 -0.67403626 0.07449501 0.044640265 0.04245677 -0.104002915 -0.09316809
-0.42267683 0.03019336 0.010019485 0.0047684587 -8.0518425e-05 0.07281138 -0.09849988 -0.0040681604
-0.0035327277 -0.09730093 -0.016738808 0.070717 0.11692204 -0.014660388 0.07942314 0.031625345
0.0425275 0.110097334 -0.012067095 -0.009077972 -0.002165511 -0.218174 0.06869693 0.041447666
-0.0016498619 -0.36403292 0.05933459 0.040363528 0.08911036 0.02783652 0.045703243 0.035256203
0.0558263 -0.30002812 0.05261255 -0.124516174 0.08516922 0.1117857 0.0065110056 0.028533937
0.07240748 -0.04457398 0.07296265 -0.3669144 0.011129838 0.07999777 0.057512093 -0.1465242

classifier.bias f4 [16]
00000000: 2e28 2fbe e4a1 e3bd 69e8 4e3b 4793 303e
00000010: bc9e 223c 2725 293c 8143 c63c e268 af3a
00000020: afa6 aa3d 768e 683e 8f7b 7b3e a133 e2bd
00000030: 78ec 89bc 4fee ed3b 7861 adbd b439 debd
-0.17105171 -0.111148626 0.0031571633 0.17243682 0.009925541 0.010323799 0.02420211 0.0013382698
0.083325736 0.22710595 0.24558853 -0.11045004 -0.01683639 0.0072610746 -0.08465856 -0.1085085
