transfer18_37_55_22_10_10_FullyConnected.pth (torch, 550959 bytes, 8 tensors)

fc1.weight f4 [256, 4]
-0.5612714 0.033534136 -0.10396309 0.045528978 0.2340367 -0.22090627 -0.3017674 0.06565384
0.018027723 0.4746033 -0.33508408 -0.2785812 0.37359473 -0.4036386 -0.12715667 0.28587267
-0.44160214 0.24464044 0.5291049 0.40042034 0.23972486 -0.22273211 -0.67177624 -0.15967976
0.1672583 0.42224798 0.26966545 0.27190727 0.25597304 -0.352231 -0.522312 0.06792296
0.23937936 0.58587414 0.5405398 -0.035159193 -0.0148822935 -0.1497731 -0.61749023 0.28178388
0.41102323 -0.41614676 0.45446527 -0.4004615 -0.1387738 -0.38792968 0.16784453 -0.1460867
0.27357054 0.17019272 -0.34357837 -0.07216802 0.07620877 -0.22698498 -0.29405683 -0.038885295
0.025647089 -0.4345712 -0.60825276 0.5468434 -0.17663157 -0.5093752 0.071308404 0.2732524
-0.056375515 -0.3148526 -0.5719234 0.19519535 -0.23526233 0.10838932 0.013587058 0.10131544
0.034722354 -0.4318838 -0.7062018 0.5021418 0.19553383 0.33034334 -0.14124747 -0.3836652
0.080860116 0.5314193 0.33447176 0.13591501 0.049699914 0.40048367 -0.35758883 0.45493177
0.0748021 -0.17541659 0.267201 -0.023619413 0.34565535 0.015198116 0.24935398 -0.052879285
0.1770365 0.2567722 -0.35474905 -0.28246137 -0.3010012 -0.56708115 -0.6337655 0.38373348
0.05157008 -0.52352303 -0.72415656 0.26036203 -0.46198082 -0.27627468 -0.034923136 -0.34981102
0.27866793 -0.51203364 0.0501621 0.1774002 0.18438964 -0.40714335 -0.07416337 0.04703576
-0.37907615 0.3956179 0.59659505 -0.17967753 0.50264525 -0.4264149 0.088011 0.4233955
-0.5695952 -0.6148673 -0.40753838 0.32135028 0.23010898 -0.3565446 0.47210145 -0.4602806
0.13540433 -0.41044047 -0.35013005 -0.42726645 0.34923232 0.30283618 0.6205758 -0.16795808
0.3607598 0.24716648 0.09213505 0.055810828 0.03323543 -0.059196174 -0.09697193 -0.3550557
-0.24466342 0.29416 0.2362175 -0.47575605 0.105590165 0.11801481 0.12662524 -0.36555368
0.039712165 0.13688643 -0.14790072 -0.017604997 -0.08951081 -0.57417035 -0.24599022 0.17935936
0.0038275123 -0.34113586 0.3077427 -0.10189563 -0.30911505 -0.3543597 0.11607331 0.38104248
-0.066295676 0.6457974 -0.021857115 -0.45508334 -0.2773738 0.26008064 0.1565088 -0.35170156
0.34888458 -0.29388744 0.28414518 -0.110243715 0.059760954 -0.1429304 0.17272007 -0.23537321
-0.31987298 0.56147635 -0.119130045 0.17590009 0.40156794 0.24818534 -0.42568177 -0.4348669
-0.47956488 0.54404366 -0.02313245 0.3999963 -0.026116788 -0.13583243 -0.12290448 -0.28809404
0.4540858 -0.6012087 -0.37943515 0.42108828 -0.26605827 0.3942026 0.57533 0.022813974
0.29019296 -0.17159897 0.09937614 -0.1967187 0.4617119 -0.092929505 0.21115042 -0.35679662
0.04962429 0.16002949 0.29978284 -0.21470107 0.13430792 -0.3393739 -0.2496435 -0.31497806
-0.07124963 -0.03514791 0.1306021 0.3160561 -0.27342737 -0.37225747 -0.43254 -0.24824452
-0.34956166 -0.55922186 -0.32292464 0.49031913 0.30368537 0.18651041 -0.40370244 -0.4160877
0.3257077 0.13123348 -0.4970687 0.3653739 -0.0054486394 -0.314161 -0.42129308 0.0036594272
00000000: 7caf 0fbf 175b 093d 9aea d4bd 987c 3a3d
00000010: 51a7 6f3e 4135 62be 4281 9abe 8575 863d
00000020: e0ae 933c 34ff f23e 2490 abbe 32a2 8ebe
00000030: cf47 bf3e b8a9 cebe 5c35 02be e75d 923e
00000040: ad19 e2be 0683 7a3e 6b73 073f e503 cd3e
00000050: 6f7a 753e e313 64be 87f9 2bbf 1783 23be
00000060: c345 2b3e e330 d83e 9711 8a3e 6e37 8b3e
00000070: e60e 833e 9f57 b4be 3db6 05bf 311b 8b3d
00000080: dd1f 753e d9fb 153f d160 0a3f 1603 10bd
00000090: ddd4 73bc 1f5e 19be d713 1ebf fa45 903e
000000a0: a371 d23e 3011 d5be acaf e83e 4a09 cdbe
000000b0: b81a 0ebe b89e c6be 70df 2b3e c097 15be
000000c0: 7011 8c3e 0047 2e3e 81e9 afbe d4cc 93bd
000000d0: 5813 9c3d c06e 68be 9e8e 96be 3046 1fbd
000000e0: d819 d23c 1e80 debe 74b6 1bbf eefd 0b3f
000000f0: e8de 34be 6a66 02bf 240a 923d bde7 8b3e
00000100: 03ea 66bd 5c34 a1be 9269 12bf 4ae1 473e
00000110: 9ce8 70be 38fb dd3d 409c 5e3c 787e cf3d
00000120: 0739 0e3d e01f ddbe a4c9 34bf 5d8c 003f
00000130: 053a 483e c322 a93e 2da3 10be c46f c4be
00000140: fd99 a53d 180b 083f e23f ab3e 4e2d 0b3e
00000150: 2392 4b3d 320c cd3e e215 b7be d1ec e83e
00000160: d831 993d 68a0 33be 92ce 883e 807d c1bc
00000170: bdf9 b03e 8501 793c a656 7f3e f397 58bd
00000180: 0e49 353e a577 833e aba1 b5be c79e 90be
00000190: d41c 9abe 3b2c 11bf 753e 22bf b778 c43e
000001a0: 263b 533d 9b05 06bf 5362 39bf 2c4e 853e
000001b0: c088 ecbe e073 8dbe 900b 0fbd 6e1a b3be
000001c0: 90ad 8e3e a314 03bf c676 4d3d 66a8 353e
000001d0: a3d0 3c3e 1875 d0be f7e2 97bd 92a8 403d
000001e0: 4516 c2be 6e8e ca3e 74ba 183f 63fd 37be
000001f0: 5cad 003f 0e53 dabe 1c3f b43d 4cc7 d83e
00000200: fed0 11bf f267 1dbf dfa8 d0be 0688 a43e
00000210: b0a1 6b3e 048d b6be 48b7 f13e e6a9 ebbe
00000220: 6fa7 0a3e 4125 d2be 3f44 b3be abc2 dabe
00000230: 94ce b23e 580d 9b3e 0ede 1e3f 34fd 2bbe
00000240: 82b5 b83e 3619 7d3e 4db1 bc3d e599 643d
00000250: e021 083d b077 72bd 3899 c6bd dcc9 b5be
00000260: 0c89 7abe 249c 963e 00e3 713e 4c96 f3be
00000270: a83f d83d c0b1 f13d 0caa 013e da29 bbbe
00000280: 39a9 223d f52b 0c3e 4973 17be 5b38 90bc
00000290: 7251 b7bd d4fc 12bf dce4 7bbe fba9 373e
000002a0: 00d7 7a3b 5ca9 aebe 7490 9d3e a8ae d0bd
000002b0: 5444 9ebe a26e b5be d8b7 ed3d 0018 c33e
000002c0: 07c6 87bd fa52 253f b10d b3bc af00 e9be
000002d0: f003 8ebe 4a29 853e d843 203e 3a12 b4be
000002e0: 00a1 b23e 6a78 96be 7a7b 913e 75c7 e1bd
000002f0: e7c7 743d 595c 12be 88dd 303e ad05 71be
00000300: 64c6 a3be eabc 0f3f 74fa f3bd 271f 343e
00000310: 509a cd3e 4c24 7e3e f6f2 d9be e0a6 debe
00000320: 8789 f5be 7246 0b3f 4480 bdbc 51cc cc3e
00000330: e0f2 d5bc a817 0bbe 58b5 fbbd 1081 93be
00000340: ef7d e83e d0e8 19bf 5345 c2be e298 d73e
00000350: ca38 88be ecd4 c93e d448 133f 5fe4 ba3c
00000360: 2c94 943e a4b7 2fbe b885 cb3d a070 49be
00000370: 8165 ec3e d351 bebd d137 583e 0cae b6be
00000380: d742 4b3d c5de 233e 237d 993e 99da 5bbe
00000390: 0488 093e 6ac2 adbe 8ca2 7fbe ce44 a1be
000003a0: 53eb 91bd 41f7 0fbd 8fbc 053e 1bd2 a13e
000003b0: acfe 8bbe 8898 bebe e275 ddbe d033 7ebe
000003c0: bff9 b2be 2a29 0fbf 6156 a5be 1c0b fb3e
000003d0: a67c 9b3e 96fc 3e3e 16b2 cebe 7209 d5be
000003e0: 29c3 a63e 1262 063e ca7f febe 4a12 bb3e
000003f0: 808a b2bb b6d9 a0be bab3 d7be 00d3 6f3b

fc1.bias f4 [256]
0.029433472 0.04590668 -0.24636036 -0.1138811 0.09717526 0.31240806 -0.3294122 0.16265786
-0.07964012 -0.10595597 0.07354706 -0.24732429 -0.07484703 -0.22678208 -0.24600889 0.2385613
0.26931456 -0.13787663 -0.3630654 -0.29452705 0.1733281 -0.52442956 -0.27973527 -0.097115085
0.17483245 -0.03717422 -0.266516 0.2022646 0.16469711 0.16164887 0.1753223 -0.27498484
0.322547 -0.2358253 0.082784444 0.1393553 0.28264764 -0.0665884 -0.37541467 -0.000679791
0.11526057 -0.11431369 -0.3688256 -0.41537285 0.37833562 -0.20183384 0.14777122 -0.041060828
0.15681739 -0.33910722 0.14286886 -0.26408553 -0.06896297 0.0041995156 -0.47088802 0.04127285
0.26488504 -0.43985128 -0.49229038 -0.06164545 0.032706227 0.14169505 0.28847083 -0.43946302
-0.05735169 0.07856488 0.2849993 -0.4619621 0.20746946 -0.1068951 0.16332711 0.055118795
-0.11826193 0.32115787 0.24029374 -0.29205823 0.18321688 0.080628015 0.25979337 -0.08488585
0.05118233 -0.20596397 -0.13195924 -0.15340793 0.32625318 -0.29828674 0.01760387 0.015341473
-0.36255884 0.11255288 -0.40492147 0.17702937 0.16447037 -0.387999 -0.21521538 0.20439151
-0.21321552 -0.4492638 -0.30430532 0.19667047 0.12392847 0.1144929 0.10387392 0.36267164
0.3667893 -0.11280251 0.0811027 -0.20373249 0.066115566 -0.11301876 -0.031228626 -0.423419
0.046185788 0.47203842 -0.3883426 -0.31195998 -0.024502866 -0.08956692 -0.17243055 0.17545432
-0.48886335 0.100251116 -0.2072618 -0.29702753 -0.43717337 0.06946824 -0.47232336 -0.03299843
-0.17070645 0.04091061 0.031310692 0.21459304 0.08438921 -0.4245882 -0.32285112 -0.512623
0.124972284 -0.48238516 -0.24344873 0.4974176 0.032232378 -0.029913409 -0.40563446 0.33880535
0.22044006 0.06444199 0.18742497 -0.35856342 0.23583929 -0.059824437 -0.25076097 0.054884706
0.08222598 -0.26656342 0.38601956 0.025840938 0.17064562 -0.04902 -0.209759 0.14194758
0.43794465 0.022087201 -0.23527533 0.28111607 -0.026309252 0.004050774 -0.33519545 0.16716145
-0.23859045 0.10917068 -0.14668915 -0.2587219 -0.26740128 0.26905614 -0.039071433 -0.49498165
-0.3873235 -0.104585044 0.27072474 -0.30176824 -0.2853049 -0.060575534 -0.28073794 0.2549143
0.033915818 0.4581619 0.27330342 -0.1818437 -0.007842721 -0.46297756 0.19736753 0.45257455
0.38213703 -0.08664917 -0.32957512 0.020287633 0.20013335 -0.31139714 0.3381338 -0.3745227
0.21555175 -0.35903823 -0.36293513 -0.24163896 0.23920152 0.06218025 0.34241602 0.19193718
-0.09669109 0.1369475 -0.06923923 -0.3493011 0.19346069 0.060548898 -0.24896675 -0.32732284
-0.24590343 -0.041965425 -0.049500458 0.18672265 0.3960322 -0.08563226 0.4448951 0.23784943
-0.018649021 0.17384657 0.107537925 -0.39920008 0.22836095 -0.30436853 0.018875988 0.30551836
0.25226215 0.1321291 0.15980929 0.20381466 0.07532308 -0.2067365 -0.113892436 -0.3366034
0.3173772 -0.0726288 0.3950054 -0.084402494 0.053759083 0.11381966 0.20239744 0.20861143
-0.3812297 -0.239568 -0.12446672 -0.43092316 0.32161158 0.3307911 -0.33517307 -0.54540294
00000000: 771e f13c a508 3c3d e445 7cbe 7f3a e9bd
00000010: d303 c73d f3f3 9f3e b7a8 a8be c88f 263e
00000020: 5c1a a3bd 72ff d8bd d79f 963d 9442 7dbe
00000030: 6649 99bd 9039 68be c1e9 7bbe 6a49 743e
00000040: 99e3 893e 882f 0dbe b5e3 b9be 40cc 96be
00000050: ec7c 313e 0441 06bf 7639 8fbe 46e4 c6bd
00000060: 4707 333e ff43 18bd c974 88be 741e 4f3e
00000070: 5ca6 283e 4887 253e b087 333e d0ca 8cbe
00000080: e124 a53e 307c 71be e48a a93d 28b3 0e3e
00000090: 31b7 903e 805f 88bd 5a36 c0be 0034 32ba
000000a0: bc0d ec3d 4c1d eabd b6d6 bcbe c0ab d4be
000000b0: 35b5 c13e 88ad 4ebe 5751 173e 662f 28bd
000000c0: bd94 203e 769f adbe 374c 123e 3836 87be
000000d0: 753c 8dbd 179c 893b 3c18 f1be b80d 293d
000000e0: 039f 873e 3034 e1be 7c0d fcbe f07f 7cbd
000000f0: f7f6 053d 8218 113e 73b2 933e 4c01 e1be
00000100: 9be9 6abd a0e6 a03d 6eeb 913e 4c86 ecbe
00000110: e072 543e d1eb dabd 393f 273e 3fc4 613d
00000120: 5033 f2bd ce6e a43e 900f 763e a888 95be
00000130: 359d 3b3e 4d20 a53d a303 853e a2d8 adbd
00000140: 90a4 513d 38e8 52be 5320 07be f816 1dbe
00000150: a80a a73e 0ab9 98be fe35 903c cd5a 7b3c
00000160: 50a1 b9be 2082 e63d de51 cfbe 3047 353e
00000170: ec6a 283e cea7 c6be 6c61 5cbe 024c 513e
00000180: 2b55 5abe e805 e6be e8cd 9bbe fc63 493e
00000190: 36ce fd3d 417b ea3d dabb d43d 19b0 b93e
000001a0: cfcb bb3e 0105 e7bd 2c19 a63d 409f 50be
000001b0: 9967 873d 6176 e7bd 2dd3 ffbc 60ca d8be
000001c0: 4f2d 3d3d 05af f13e d7d4 c6be 38b9 9fbe
000001d0: 3cba c8bc dd6e b7bd a291 30be 4caa 333e
000001e0: 4c4c fabe 7550 cd3d 703c 54be fe13 98be
000001f0: 30d5 dfbe 5d45 8e3d 5ed4 f1be 5d29 07bd
00000200: accd 2ebe e291 273d a43f 003d 47be 5b3e
00000210: 40d4 ac3d a063 d9be be4c a5be 433b 03bf
00000220: 78f1 ff3d 30fb f6be a04a 79be 85ad fe3e
00000230: 1906 043d f70c f5bc 52af cfbe e577 ad3e
00000240: 0abb 613e 29fa 833d 55ec 3f3e a095 b7be
00000250: db7f 713e 780a 75bd be63 80be c9ce 603d
00000260: 1866 a83d 007b 88be 5ba4 c53e 60b0 d33c
00000270: babd 2e3e 32c9 48bd 10cb 56be b55a 113e
00000280: 483a e03e 38f0 b43c 04ec 70be 72ee 8f3e
00000290: 8086 d7bc 5bbc 843b bd9e abbe 5f2c 2b3e
000002a0: 0e51 74be e194 df3d ae35 16be 3277 84be
000002b0: d2e8 88be bac1 893e 5e09 20bd 3c6e fdbe
000002c0: 444f c6be af30 d6bd 6f9c 8a3e 5e81 9abe
000002d0: 7c13 92be 0d1e 78bd e2bc 8fbe 2184 823e
000002e0: 50eb 0a3d 3294 ea3e 6dee 8b3e 3c35 3abe
000002f0: c27e 00bc 650b edbe b71a 4a3e dab7 e73e
00000300: 77a7 c33e 1f75 b1bd 12be a8be 4032 a63c
00000310: c2ef 4c3e 726f 9fbe e01f ad3e 70c1 bfbe
00000320: 99b9 5c3e dcd3 b7be a2d2 b9be 3470 77be
00000330: 3ef1 743e b8b0 7e3d 2751 af3e 2e8b 443e
00000340: fa05 c6bd f73b 0c3e 4ccd 8dbd 98d7 b2be
00000350: 8f1a 463e 1f02 783d 24f1 7ebe dc96 a7be
00000360: 1cce 7bbe f0e3 2bbd fec0 4abd 3934 3f3e
00000370: bcc4 ca3e f75f afbd 4ac9 e33e cd8e 733e
00000380: d5c5 98bc d604 323e d83c dc3d f463 ccbe
00000390: 74d7 693e 31d6 9bbe d1a1 9a3c e76c 9c3e
000003a0: 8128 813e da4c 073e 0ca5 233e cab4 503e
000003b0: fd42 9a3d bcb2 53be 7040 e9bd 4857 acbe
000003c0: 447f a23e 69be 94bd 263e ca3e 37db acbd
000003d0: 7c32 5c3d 481a e93d 4641 4f3e 3c9e 553e
000003e0: 8a30 c3be 5051 75be 68e8 febd f6a1 dcbe
000003f0: 46aa a43e 735d a93e ce9b abbe 879f 0bbf

fc2.weight f4 [256, 256]
-0.0652735 -0.1754157 0.021299042 -0.14933328 0.108843856 -0.12827545 0.00011868058 -0.10610715
-0.0597569 -0.08790697 -0.052194063 -0.007944465 -0.084423386 -0.00894092 -0.029832695 -0.09966982
-0.12500101 0.028888553 -0.036671642 -0.062303293 -0.07983331 0.107070126 -0.056988135 -0.101643085
-0.138621 0.034263246 -0.008175659 -0.003505528 -0.14369234 -0.11831956 0.171991 -0.09771102
-0.13177046 -0.022324853 -0.030828718 -0.047426738 -0.041807577 0.036648296 0.006932743 0.019402333
-0.11493059 0.0015490054 -0.059647545 -0.022393644 -0.0901899 0.059495933 -0.10699655 -0.03161184
0.0032660533 0.054438993 -0.06246621 0.042566925 -0.20863877 0.09468978 0.01159437 -0.09770094
-0.04266507 -0.023287706 -0.05332359 -0.044641674 -0.020671476 -0.11106207 -0.036496498 -0.02509527
-0.20856668 0.007921751 -0.04674993 0.011771381 -0.12757093 -0.09612228 -0.067619264 -0.084287114
0.009707019 -0.03583734 0.0046149986 0.022821195 -0.032946672 -0.109438 -0.025365887 0.08274947
-0.036486425 -0.059667908 -0.015685588 0.039906047 -0.07943469 -0.030972466 -0.09017313 -0.026967037
0.053775452 -0.02824121 0.061587475 -0.12959157 -0.039515197 0.03991566 0.031177782 -0.08159976
-0.021690145 0.047257118 -0.035356432 -0.06969266 -0.056704182 -0.09654489 -0.08538578 -0.11478789
-0.07255731 -0.002862622 -0.062121823 0.031627417 -0.0356361 -0.18250966 -0.058005985 0.022714704
-0.088852644 -0.14335811 0.0019093528 0.042562127 -0.02828735 0.09877979 0.12554279 -0.024111621
-0.031978615 -0.1191724 0.104352765 0.018713959 0.045341954 -0.1517412 -0.023828588 0.062051978
0.04593227 0.052400026 0.02269234 -0.16853446 -0.0043751523 0.010056998 0.036203973 0.0071463524
0.023771182 -0.048577636 -0.0012819096 0.04316453 -0.010562439 -0.012149508 0.049583387 -0.16565874
-0.07997186 -0.09317627 -0.060735766 0.10414009 -0.032356072 -0.08153052 -0.0055108094 -0.015625257
-0.041622616 0.04638976 -0.09405208 -0.06067291 0.046533577 -0.018596046 0.06086807 -0.01573645
-0.10861187 -0.07666456 0.05862353 -0.0853862 -0.0171839 -0.10738912 -0.04814689 0.025937323
-0.117553316 -0.019480996 -0.113625124 0.023049233 -0.04006415 -0.051690087 -0.041419223 -0.05535546
-0.025648527 -0.15569046 -0.09521762 -0.085285984 -0.034471296 -0.14322881 -0.009989515 -0.105773866
-0.011413291 -0.11742142 -0.02968924 -0.119185165 -0.01431197 0.012779258 -0.04115704 -0.118546054
-0.06408501 -0.17361957 0.02065646 0.028759338 -0.022919687 -0.061175674 -0.08336172 0.048214562
-0.0025285105 0.07595257 -0.022310823 0.031303562 -0.09061211 0.15659465 -0.05182083 -0.16203006
-0.0032944765 -0.08552805 -0.06263788 -0.024778359 -0.009894937 -0.16717057 -0.021652184 -0.014159299
-0.026990376 0.040666096 -0.032726645 -0.032996062 -0.012042576 -0.12746441 -0.103516474 0.100356594
0.12520246 -0.040237535 -0.042856045 0.050815567 -0.05889955 -0.25653747 -0.07034391 -0.0870831
-0.1379596 0.11658192 -0.02112003 -0.10656278 -0.12149132 -0.04314187 0.036614154 0.01402425
-0.06089533 -0.043065842 -0.1155266 0.0023268762 -0.12479552 0.04416465 -0.10465213 0.044877216
0.061340153 -0.044588313 0.019151717 0.047903523 -0.06937715 -0.13363416 -0.05564926 0.07572906
00000000: 1dae 85bd 2ca0 33be 547b ae3c d3ea 18be
00000010: 87e9 de3d a45a 03be 27e4 f838 b54e d9bd
00000020: a7c3 74bd 9208 b4bd 71c9 55bd 8029 02bc
00000030: 2be6 acbd f07c 12bc b263 f4bc b11f ccbd
00000040: 4400 00be b0a7 ec3c 0135 16bd bd31 7fbd
00000050: a57f a3bd 9547 db3d 646c 69bd 402a d0bd
00000060: aaf2 0dbe 9e57 0c3d 33f3 05bc 00bd 65bb
00000070: 1624 13be 8751 f2bd 691e 303e b71c c8bd
00000080: d6ee 06be 9ce2 b6bc 828c fcbc 8a42 42bd
00000090: 6c3e 2bbd 861c 163d 102c e33b a4f1 9e3c
000000a0: bb60 ebbd ff07 cb3a fc50 74bd e072 b7bc
000000b0: 7bb5 b8bd 02b2 733d 0221 dbbd 6b7b 01bd
000000c0: 480b 563b 6cfb 5e3d 92dc 7fbd a85a 2e3d
000000d0: 67a5 55be b7ec c13d 50f6 3d3c 6e17 c8bd
000000e0: 92c1 2ebd dcc5 bebc d669 5abd 30da 36bd
000000f0: 3a57 a9bc 8374 e3bd 5a7d 15bd 9894 cdbc
00000100: 8192 55be 3bca 013c db7c 3fbd c0dc 403c
00000110: f4a1 02be c2db c4bd f87b 8abd b99e acbd
00000120: 300a 1f3c 2dca 12bd 6a39 973b 84f3 ba3c
00000130: 17f3 06bd 0821 e0bd 1fcc cfbc 8e78 a93d
00000140: ca72 15bd 5666 74bd 107f 80bc 8674 233d
00000150: a8ae a2bd f8b9 fdbc b1ac b8bd fae9 dcbc
00000160: a643 5c3d 1c5a e7bc 2643 7c3d a7b3 04be
00000170: b0da 21bd 9a7e 233d 8c68 ff3c c61d a7bd
00000180: 88af b1bc ae90 413d e8d1 10bd 06bb 8ebd
00000190: a542 68bd 54b9 c5bd bdde aebd ea15 ebbd
000001a0: ed98 94bd d49a 3bbb 7473 7ebd c08b 013d
000001b0: 29f7 11bd d0e3 3abe af97 6dbd 3014 ba3c
000001c0: 60f8 b5bd 78cc 12be 4043 fa3a a055 2e3d
000001d0: dfba e7bc 0f4d ca3d 4a8e 003e bc85 c5bc
000001e0: 02fc 02bd a910 f4bd e7b6 d53d 044e 993c
000001f0: 7cb8 393d 0c62 1bbe 2c34 c3bc 372a 7e3d
00000200: 7a23 3c3d 69a1 563d 49e5 b93c 4c94 2cbe
00000210: 705d 8fbb 1bc6 243c 9e4a 143d f32b ea3b
00000220: c8bb c23c 58f9 46bd c005 a8ba 4acd 303d
00000230: 150e 2dbc bb0e 47bc f317 4b3d 72a2 29be
00000240: 49c8 a3bd 33d3 bebd 11c6 78bd 6647 d53d
00000250: cd87 04bd 79f9 a6bd 0594 b4bb 8a00 80bc
00000260: 7a7c 2abd 3003 3e3d 609e c0bd 2884 78bd
00000270: fe99 3e3d bc56 98bc cc50 793d bae9 80bc
00000280: e66f debd 4f02 9dbd 3a1f 703d f6de aebd
00000290: 40c5 8cbc d4ee dbbd ac35 45bd 827a d43c
000002a0: cbbf f0bd 9c96 9fbc 4ab4 e8bd bfd1 bc3c
000002b0: 4e1a 24bd fcb8 53bd 34a7 29bd 68bc 62bd
000002c0: dc1c d2bc 526d 1fbe 7501 c3bd 6baa aebd
000002d0: c631 0dbd 93aa 12be 10ab 23bc f89f d8bd
000002e0: d0fe 3abc a47a f0bd d936 f3bc 5a17 f4bd
000002f0: c17c 6abc 1860 513c 4994 28bd 46c8 f2bd
00000300: 003f 83bd 54c9 31be bd37 a93c b498 eb3c
00000310: 11c2 bbbc 5893 7abd 8db9 aabd a27c 453d
00000320: 5eb5 25bb 058d 9b3d 30c5 b6bc 2a38 003d
00000330: d892 b9bd 595a 203e 1442 54bd 35eb 25be
00000340: 25e8 57bb 5529 afbd 4a48 80bd fcfb cabc
00000350: 601e 22bc c32e 2bbe ec5f b1bc 68fc 67bc
00000360: ec1a ddbc 7e91 263d 600c 06bd e126 07bd
00000370: 3a4e 45bc 0886 02be 7200 d4bd c287 cd3d
00000380: 1335 003e 1dd0 24bd d289 2fbd fc23 503d
00000390: a840 71bd e158 83be 7810 90bd a058 b2bd
000003a0: 4845 0dbe 80c2 ee3d ea03 adbc 963d dabd
000003b0: 71d0 f8bd 88b5 30bd b9f8 153d f8c5 653c
000003c0: 626d 79bd cf65 30bd 3699 ecbd 817e 183b
000003d0: cb94 ffbd fee5 343d db53 d6bd 2cd1 373d
000003e0: d03f 7b3d 3ca2 36bd 10e4 9c3c 7c36 443d
000003f0: 9b15 8ebd 65d7 08be 7af0 63bd d617 9b3d

fc2.bias f4 [256]
-0.08423443 -0.073206194 0.16848965 -0.083096385 -0.08368854 -0.047462616 -0.02286405 -0.055415493
-0.081996426 -0.0093373805 -0.010683313 0.060896717 0.007681878 -0.09070858 -0.11371644 -0.018764138
-0.061353326 -0.072641626 -0.044150494 0.0618093 -0.09539885 -0.06326691 -0.016058905 -0.030475996
-0.07860851 0.07637617 -0.044734664 -0.06850246 -0.039298333 -0.002038991 -0.04549674 -0.07789464
0.002048156 0.012945899 -0.030123767 -0.03286086 0.008008155 -0.06326147 0.01279062 0.08203077
-0.06747113 -0.027656725 0.025038876 0.04379219 0.015325226 -0.037770756 -0.10114224 -0.066052854
-0.041258827 0.020938465 0.07212869 -0.014527358 -0.05631075 0.046603717 0.015661154 -0.08763858
-0.047277622 -0.04002829 -0.037465144 -0.01755029 -0.03021325 -0.038870465 0.014462084 -0.043425735
0.049159296 -0.0623497 -0.11976375 -0.05583515 -0.044967666 -0.07169949 -0.05835457 -0.03839464
-0.05089661 0.021708444 -0.07013051 -0.0939423 -0.032879785 0.0039795935 0.16895966 -0.14181896
0.14283969 -0.074326314 -0.03504478 -0.010359974 -0.00091645867 -0.096097484 -0.10690318 0.0034073666
-0.078501455 -0.043986194 0.016178042 -0.07553145 -0.11708634 -0.018429726 0.14683358 0.00041728467
0.014127444 -0.0071644043 0.03186038 -0.060043156 -0.025548404 -0.034148246 -0.0158795 -0.09859428
-0.014106517 -0.012345346 -0.055004735 0.042518087 -0.11667128 -0.103713445 -0.078120925 -0.05251576
-0.0021934523 -0.061716974 -0.034570854 -0.016658885 -0.035044875 -0.0042414754 0.21048316 -0.060869936
-0.11067775 -0.061638787 0.003811829 0.0020851048 -0.058839742 0.08069387 -0.07464356 -0.08653753
-0.009384424 -0.020410568 -0.10224065 0.009240264 0.009995232 0.02249583 -0.092094935 -0.00880859
-0.118343346 -0.093826644 0.011967033 -0.00045425 0.002392464 -0.0792126 -0.118782 -0.03305367
0.017139465 -0.043637864 -0.010518626 -0.049714014 -0.075209014 -0.0063071065 -0.038054302 -0.098727725
0.00095127866 -0.058828376 -0.08330318 0.0048023253 -0.07931687 -0.11739698 -0.049066354 -0.058049
0.02010779 -0.104351364 -5.0871313e-05 -0.081902266 -0.080843166 -0.09169031 -0.046555202 -0.06680676
-0.050516855 -0.02130436 -0.06322714 -0.0224704 0.11605027 -0.08661361 -0.048281983 -0.016845644
0.011188589 0.038576826 -0.0941548 -0.0020650995 0.031203106 -0.082659036 -0.09713301 -0.044251896
0.06763272 0.033640325 -0.03941664 -0.052492883 0.0026785284 -0.03427787 -0.041834466 -0.030028554
-0.067960344 -0.024167312 -0.006838225 0.013808196 -0.03652905 -0.016442906 -0.11206701 -0.09559176
-0.029238656 -0.054502744 -0.0416923 -0.057936475 -0.05014461 -0.00047328157 -0.020180285 0.039147984
0.006220897 -0.05771701 -0.0073953196 -0.07731167 0.03160391 -0.03067419 -0.029200675 -0.10541856
-0.051818535 -0.0011299475 -0.1101646 0.0409801 -0.02107807 -0.008143187 -0.043353103 -0.07845833
-0.036373712 -0.11984484 -0.058576018 -0.049098503 -0.12004416 0.08996557 0.04111654 0.070469
-0.054443263 0.15223737 -0.04677814 -0.017476734 -0.09048384 0.013269007 -0.02567059 -0.04256878
-0.0725191 -0.038271908 -0.021784639 0.06387526 -0.08241319 0.013871215 -0.07971997 -0.025880493
0.018823875 -0.08550697 -0.037077494 0.16591427 -0.01462831 -0.06988256 -0.002044417 0.0294962
00000000: 1a83 acbd 21ed 95bd 8d88 2c3e 702e aabd
00000010: e664 abbd 2968 42bd 634d bbbc 5bfb 62bd
00000020: beed a7bd d0fb 18bc 1009 2fbc d66e 793d
00000030: 43b8 fb3b 6cc5 b9bd 2ae4 e8bd 40b7 99bc
00000040: a04d 7bbd 22c5 94bd 26d7 34bd c02b 7d3d
00000050: 7960 c3bd 1592 81bd f78d 83bc cca8 f9bc
00000060: 80fd a0bd 1c6b 9c3d b23b 37bd 054b 8cbd
00000070: 4af7 20bd 98a0 05bb ca5a 3abd 3a87 9fbd
00000080: 5b3a 063b 091b 543c 1ec6 f6bc 1c99 06bd
00000090: a334 033c 3b8f 81bd c08f 513c c0ff a73d
000000a0: 4e2e 8abd 5b90 e2bc 541e cd3c 705f 333d
000000b0: a816 7b3c 82b5 1abd aa23 cfbd b846 87bd
000000c0: 04ff 28bd 2587 ab3c 35b8 933d 2804 6ebc
000000d0: 1aa6 66bd 8ae3 3e3d d24b 803c db7b b3bd
000000e0: 2ea6 41bd b4f4 23bd 0d75 19bd a0c5 8fbc
000000f0: c781 f7bc a336 1fbd 60f2 6c3c 2fdf 31bd
00000100: 425b 493d 6662 7fbd b246 f5bd 66b3 64bd
00000110: 0430 38bd 2fd7 92bd 3405 6fbd b343 1dbd
00000120: f778 50bd e8d5 b13c 96a0 8fbd d264 c0bd
00000130: f4ac 06bd 4067 823b c303 2d3e fd38 11be
00000140: 9144 123e 6538 98bd 1d8b 0fbd e1bc 29bc
00000150: 803e 70ba c2ce c4bd 0ef0 dabd 204e 5f3b
00000160: 5fc5 a0bd de2a 34bd d087 843c 3cb0 9abd
00000170: f7ca efbd f0f9 96bc 8b5b 163e 00c7 da39
00000180: cb76 673c 61c3 eabb 0880 023d d0ef 75bd
00000190: e34a d1bc 08df 0bbd ba15 82bc cceb c9bd
000001a0: 051f 67bc 2244 4abc a54c 61bd 7227 2e3d
000001b0: 5af1 eebd b767 d4bd ddfd 9fbd c41a 57bd
000001c0: 06c0 0fbb f0ca 7cbd 2b9a 0dbd 3778 88bc
000001d0: 378b 0fbd 13fc 8abb e688 573e c152 79bd
000001e0: 04ab e2bd f478 7cbd e1cf 793b 41a6 083b
000001f0: f101 71bd d442 a53d b9de 98bd 973a b1bd
00000200: 21c1 19bc 1034 a7bc 8c63 d1bd 7a64 173c
00000210: 0bc3 233c 2d49 b83c 459c bcbd e751 10bc
00000220: ff5d f2bd 2f28 c0bd 6011 443c 6728 eeb9
00000230: e3ca 1c3b 373a a2bd fa43 f3bd 4963 07bd
00000240: 1068 8c3c 9ebd 32bd 5156 2cbc eca0 4bbd
00000250: 2f07 9abd d8ab cebb d4de 1bbd c331 cabd
00000260: 3b5f 793a 06f6 70bd dc9a aabd d35c 9d3b
00000270: e270 a2bd d46d f0bd cdf9 48bd cac4 6dbd
00000280: 18b9 a43c 2bb6 d5bd a85e 55b8 60bc a7bd
00000290: 1a91 a5bd 21c8 bbbd abb0 3ebd fcd1 88bd
000002a0: c3ea 4ebd 7b86 aebc 3b7d 81bd d813 b8bc
000002b0: c4ab ed3d 7a62 b1bd 54c3 45bd e0ff 89bc
000002c0: 5850 373c bc02 1e3d 3bd4 c0bd 9f56 07bb
000002d0: a89d ff3c 2449 a9bd aced c6bd 7a41 35bd
000002e0: 0683 8a3d 70ca 093d 5873 21bd c702 57bd
000002f0: 408a 2f3b f466 0cbd 9e5a 2bbd 71fe f5bc
00000300: cb2e 8bbd 87fa c5bc 3013 e0bb c63b 623c
00000310: 7c9f 15bd 46b3 86bc 6383 e5bd 9dc5 c3bd
00000320: e885 efbc 453e 5fbd 8cc5 2abd cc4e 6dbd
00000330: 6f64 4dbd c722 f8b9 2051 a5bc a359 203d
00000340: abd8 cb3b ac68 6cbd 7054 f2bb 9555 9ebd
00000350: 1a73 013d 7048 fbbc 4136 efbc b0e5 d7bd
00000360: ac3f 54bd bf1a 94ba fa9d e1bd c0da 273d
00000370: ebab acbc 006b 05bc 0693 31bd c3ae a0bd
00000380: 9afc 14bd 3671 f5bd 68ed 6fbd 831b 49bd
00000390: b6d9 f5bd de3f b83d d169 283d 0d52 903d
000003a0: e6ff 5ebd 1de4 1b3e 6f9a 3fbd 5e2b 8fbc
000003b0: 974f b9bd 4066 593c 214b d2bc 9a5c 2ebd
000003c0: e584 94bd 01c3 1cbd b375 b2bc 08d1 823d
000003d0: 3fc8 a8bd 1844 633c 3944 a3bd 5403 d4bc
000003e0: 8734 9a3c 471e afbd 92de 17bd 6ee5 293e
000003f0: 94ab 6fbc 961e 8fbd a0fb 05bb 04a2 f13c

fc3.weight f4 [256, 256]
-0.042401675 -0.09162979 -0.001827818 -0.032301817 -0.029016506 -0.036900684 -0.078283064 -0.05771677
-0.021268353 0.055955514 0.003881812 -0.044987954 0.040970605 0.047785863 0.014038794 0.011547958
0.010955143 -0.124148384 0.001846455 0.06303291 0.03804517 0.061677817 -0.088570714 0.03673815
-0.08144948 -0.0152902985 -0.096400164 0.01226599 -0.055702835 -0.015549794 -0.030279145 -0.013015515
0.089249365 0.017740158 0.24738824 -0.05818758 -0.0029791254 -0.13012595 -0.11176858 0.0028349252
-0.0074776686 0.06443653 0.0332957 0.046532758 -0.014905237 -0.06063527 0.06188339 0.020548994
0.046382613 -0.039731737 -0.015222322 -0.018237442 0.11331541 0.03919681 -0.019418217 0.023165684
-0.015927728 -0.013783562 0.026785905 -0.027228938 0.011673351 0.12249734 -0.035848625 0.10267469
-0.023218624 0.095863275 0.03387274 0.044637397 0.06409146 -0.05104489 -0.11989507 0.0066725984
0.07970902 0.08283777 0.027687795 -0.0044648177 0.10305262 0.010058165 -0.44663993 -0.059495926
0.021752626 -0.031666894 0.029324144 0.13840806 -0.004155718 -0.0348823 -0.11406242 -0.054294877
0.09043647 -0.02777391 -0.10143838 -0.07001521 -0.05339963 0.043699875 -0.034619354 0.043986
-0.05518742 0.037323833 0.129379 -0.022573113 -0.09751094 0.10803527 -0.10041439 0.0014838983
-0.008774586 -0.026082532 0.07368453 0.02432032 -0.040166557 -0.023040572 -0.02566079 0.04245069
0.02185609 -0.027320445 -0.008521705 -0.073310785 0.20353499 -0.06767757 -0.13323982 -0.0024098565
0.100893095 0.092379645 0.12993056 -0.053807784 0.04794077 -0.09908367 0.027803538 -0.045316014
-0.05509059 0.04920759 0.009033854 0.17693333 0.054204173 -0.051729485 -0.057219815 0.023807026
-0.11987534 0.08130683 0.014858834 -0.114838764 0.053710297 -0.11664832 0.14748248 0.22622947
0.055715047 0.06392301 0.1655205 -0.01934924 -0.09256868 0.0927394 -0.1066212 -0.086462855
-0.10246257 0.062473685 -0.06309897 0.002930361 0.03941918 0.03950565 0.10640124 0.024864612
0.048917167 -0.04627856 0.060377624 0.065741844 0.0409829 -0.009819377 -0.015775995 0.15240803
0.24487345 0.07496545 -0.0069382857 -0.0473314 0.03504394 -0.07942177 -0.05882457 -0.06657911
-0.06111017 -0.04512625 0.08571044 0.104064606 -0.13259551 0.0046157343 0.18841033 0.02030281
-0.08563438 -0.059653483 -0.10381509 0.021915615 -0.057399295 -0.052810624 0.14254455 -0.085741416
-0.044957943 0.068865076 0.00887458 0.018182011 0.02534821 0.033797268 0.02489952 -0.0015486107
-0.00393229 -0.061384123 0.09482195 0.05421196 0.11902605 -0.058057126 -0.051315024 -0.028325694
0.016995477 -0.011037439 -0.04893268 0.034063607 -0.046616234 -0.0029851925 0.07824303 -0.1046191
-0.0403023 -0.086194836 0.00041671642 -0.0033681616 -0.056449015 0.04296335 -0.018535167 0.19668142
0.0064711887 -0.03950813 -0.028114514 -0.11954871 0.03731535 -0.096383825 0.079078205 -0.046357226
-0.034724317 -0.027689874 -0.11451232 0.062153116 -0.026972985 -0.06286433 0.123608515 -0.015400901
0.03842052 0.046547104 0.11793357 0.059807193 0.20625328 -0.10893485 -0.072065 0.06018737
0.20386413 0.08789057 0.061707027 -0.32100806 0.0071060257 0.11134333 0.03721641 -0.029024921
00000000: 61ad 2dbd 66a8 bbbd 6593 efba e94e 04bd
00000010: 06b4 edbc 2c25 17bd df52 a0bd 6b68 6cbd
00000020: f83a aebc 9c31 653d 0066 7e3b 4a45 38bd
00000030: cbd0 273d 1cbb 433d f802 663c a533 3d3c
00000040: 337d 333c 8241 febd c004 f23a 6617 813d
00000050: 41d5 1b3d e1a1 7c3d 9064 b5bd be7a 163d
00000060: fcce a6bd 2984 7abc 736d c5bd 4af7 483c
00000070: a828 64bd 90c4 7ebc f80b f8bc 073f 55bc
00000080: 5fc8 b63d cf53 913c 5853 7d3e 1a56 6ebd
00000090: 6e3d 43bb bd3f 05be ede6 e4bd 27ca 393b
000000a0: 3b07 f5bb 4df7 833d 1261 083d 2299 3e3d
000000b0: 1835 74bc b05c 78bd 7079 7d3d 5d56 a83c
000000c0: b2fb 3d3d bfbd 22bd 0c67 79bc b066 95bc
000000d0: e911 e83d d68c 203d f412 9fbc f6c5 bd3c
000000e0: de7a 82bc 73d4 61bc 1d6e db3c 390f dfbc
000000f0: 9541 3f3c e3df fa3d 02d6 12bd 1c47 d23d
00000100: fc34 bebc f753 c43d 24be 0a3d b4d5 363d
00000110: 6242 833d 7214 51bd 8c8b f5bd d0a5 da3b
00000120: 7c3e a33d d9a6 a93d 84d1 e23c 9b4d 92bb
00000130: 410d d33d 00cb 243c fdad e4be 00b2 73bd
00000140: 9032 b23c 25b5 01bd 3039 f03c d8ba 0d3e
00000150: b02c 88bb bee0 0ebd 8f99 e9bd 4e64 5ebd
00000160: c236 b93d 1c86 e3bc edbe cfbd 2264 8fbd
00000170: 92b9 5abd a4fe 323d 06cd 0dbd aa2a 343d
00000180: 340c 62bd e0e0 183d ee7b 043e 40eb b8bc
00000190: d1b3 c7bd 9841 dd3d 0fa6 cdbd 5d7f c23a
000001a0: 48c3 0fbc 09ab d5bc eae7 963d 683b c73c
000001b0: b085 24bd 95bf bcbc 9436 d2bc c6e0 2d3d
000001c0: 8b0b b33c 20cf dfbc 9f9e 0bbc f723 96bd
000001d0: 7a6b 503e 8a9a 8abd 0570 08be afee 1dbb
000001e0: 0aa1 ce3d 8a31 bd3d 840c 053e 8d65 5cbd
000001f0: 8a5d 443d 61ec cabd 3fc4 e33c 499d 39bd
00000200: aca6 61bd e68d 493d bb02 143c 032e 353e
00000210: 3205 5e3d 4ce2 53bd 535f 6abd f406 c33c
00000220: 3481 f5bd 3284 a63d 7872 733c 9630 ebbd
00000230: 54ff 5b3d 50e5 eebd a605 173e b3a8 673e
00000240: 7635 643d 11ea 823d 357e 293e 4c82 9ebc
00000250: a694 bdbd 28ee bd3d 375c dabd 7013 b1bd
00000260: e5d7 d1bd 68e4 7f3d 083a 81bd 4d0b 403b
00000270: 0276 213d add0 213d e5e8 d93d dfb0 cb3c
00000280: 5e5d 483d 968e 3dbd 874e 773d a9a3 863d
00000290: afdd 273d 74e1 20bc a93c 81bc da10 1c3e
000002a0: 1bc0 7a3e 7c87 993d 8f5a e3bb 92de 41bd
000002b0: 3c8a 0f3d e2a7 a2bd 08f2 70bd a15a 88bd
000002c0: a84e 7abd 4dd6 38bd f588 af3d d31f d53d
000002d0: 1ec7 07be 963f 973b a3ee 403e 1452 a63c
000002e0: 1461 afbd 3657 74bd 029d d4bd 6088 b33c
000002f0: 861b 6bbd f44f 58bd 33f7 113e 3299 afbd
00000300: d225 38bd 2209 8d3d b066 113c 71f2 943c
00000310: 0da7 cf3c 016f 0a3d 14fa cb3c c1fa caba
00000320: 70da 80bb eb6d 7bbd 0332 c23d 5c0d 5e3d
00000330: eec3 f33d 4fcd 6dbd b42f 52bd 490b e8bc
00000340: 193a 8b3c 60d6 34bc a26d 48bd 4886 0b3d
00000350: aaf0 3ebd 38a3 43bb e23d a03d 8a42 d6bd
00000360: 0614 25bd eb86 b0bd bb7a da39 60bc 5cbb
00000370: 1537 67bd 56fa 2f3d 10d7 97bc db66 493e
00000380: 440c d43b 47d3 21bd 6950 e6bc f4d5 f4bd
00000390: fbd7 183d e264 c5bd c1f3 a13d 13e1 3dbd
000003a0: 163b 0ebd e0d5 e2bc 6f85 eabd 4494 7e3d
000003b0: 73f6 dcbc 04bf 80bd 7626 fd3d 1054 7cbc
000003c0: d65e 1d3d 2da8 3e3d 2887 f13d 63f8 743d
000003d0: 0f34 533e 3c19 dfbd d196 93bd 0887 763d
000003e0: c2c1 503e f9ff b33d 82c0 7c3d 2b5b a4be
000003f0: aad9 e83b f907 e43d 3c70 183d acc5 edbc

fc3.bias f4 [256]
-0.04152384 -0.028690511 -0.08857733 -0.011534129 -0.07194765 0.21847543 -0.04127296 0.08384176
-0.04121048 -0.059111867 -0.07844663 -0.08279784 -0.0041489177 -0.10300701 -0.10023534 0.21125296
0.064255044 0.043869067 0.16376173 -0.048845906 0.13354328 -0.086659886 0.15459466 -0.028840857
-0.03173193 0.17215297 0.24904563 0.010302444 0.06560104 -0.005426529 -0.01660247 -0.07000591
-0.11781634 0.117561415 -0.16094546 -0.07241636 -0.0054280595 -0.021356193 -0.004504144 0.16710243
-0.025023539 -0.104566395 -0.07876631 -0.10352047 0.14336807 -0.07143107 -0.04874381 -0.08481604
-0.051289715 -0.044181317 -0.042754322 0.034729242 -0.03852426 -0.073927365 0.023447137 -0.08236731
-0.023073662 -0.064622596 -0.11700011 0.016227115 0.03888724 -0.05152707 -0.090529785 -0.026538568
-0.083892845 0.0523316 -0.09608836 -0.08303078 0.08958104 -0.072132066 -0.07238335 0.018095328
-0.0057622716 -0.0692007 -0.13406752 -0.0066427425 0.14633162 -0.08344863 -0.100242764 0.025621636
-0.02123862 -0.18164097 -0.124378376 -0.006146961 -0.029971594 -0.07209582 -0.08027408 -0.07969312
-0.080071464 -0.008199863 -0.032051258 0.0014799725 -0.067923404 -0.0086590275 -0.09865182 -0.058997497
0.07460988 -0.0018645438 -0.07242456 -0.10505298 -0.010750327 0.012424517 0.16745867 0.16811582
-0.04793446 0.0043794457 0.077480145 -0.034720905 -0.102563664 -0.08988826 -0.11178386 0.119728565
-0.14960457 -0.03457013 -0.0666599 0.11259036 -0.103671625 -0.06094019 0.055566072 -0.09872977
-0.061232336 -0.048516057 -0.039820813 -0.09788928 -0.03724792 0.110925555 -0.030130202 -0.070952766
0.0065835784 0.075100586 -0.019862585 0.09144298 -0.031687215 -0.09846183 -0.09272124 -0.12205446
-0.09616911 0.026398033 -0.059576478 -0.047942124 0.0022825573 -0.13564588 -0.06201826 -0.048225924
-0.06831687 -0.08286036 -0.0337645 -0.052155502 -0.05389472 -0.13175178 -0.03779177 0.05592198
-0.117361866 0.21052311 0.28582314 -0.075102724 -0.15375014 0.023492873 -0.10738548 -0.023194723
0.023640804 -0.1521007 -0.005187576 0.094523296 -0.13525161 -0.026215265 -0.03089765 -0.104885176
0.12528056 -0.083382554 0.013819577 0.21140164 -0.010207508 -0.024250202 0.2290165 0.013324791
-0.1153163 -0.00063841196 -0.10212611 0.23435037 -0.098035276 -0.05042461 0.17093474 0.22893877
-0.021918662 -0.04262976 0.26571226 -0.077315174 -0.006327889 -0.07760624 -0.033524502 0.10134991
-0.08108587 -0.05028297 -0.0044340063 -0.07374253 -0.055137984 -0.010859201 -0.07707204 -0.11509808
-9.00561e-05 -0.14262052 -0.08992096 0.054479025 -0.02429539 -0.08923683 -0.026158648 -0.02900173
0.0513999 -0.08598803 -0.06049711 0.18501808 -0.041619133 -0.07381988 -0.15547758 0.027049882
0.025519533 -0.09254632 -0.06720015 0.03270425 -0.06511105 -0.11533575 0.0951513 -0.08226534
0.11511741 -0.078265525 -0.09051902 -0.050324116 -0.05235171 -0.094554015 0.019552337 -0.022825532
0.050503258 0.0026297695 0.06145559 -0.024598213 -0.06573569 -0.06861013 -0.13055167 -0.041018877
0.0058514858 -0.08178604 0.11046992 -0.028351478 -0.12625536 -0.10007833 -0.1072959 -0.034532983
0.06997202 -0.06141536 -0.08147074 -0.06658554 -0.055504996 -0.016658835 0.3584448 -0.12071749
00000000: e714 2abd 5d08 ebbc 0868 b5bd a5f9 3cbc
00000010: 4a59 93bd 06b8 5f3e d60d 29bd 3bb5 ab3d
00000020: 52cc 28bd 491f 72bd a0a8 a0bd ea91 a9bd
00000030: a5f3 87bb 57f5 d2bd 3048 cdbd b252 583e
00000040: 2698 833d 0db0 333d 28b1 273e a512 48bd
00000050: 92bf 083e bd7a b1bd 104e 1e3e a943 ecbc
00000060: 57f9 01bd de48 303e d105 7f3e 95cb 283c
00000070: d759 863d 06d1 b1bb e701 88bc 425f 8fbd
00000080: b149 f1bd 0ac4 f03d e3ce 24be 074f 94bd
00000090: dddd b1bb 2ff3 aebc 8097 93bb e61c 2b3e
000000a0: 2afe ccbc e826 d6bd 3b50 a1bd 8a02 d4bd
000000b0: 14cf 123e 744a 92bd 97a7 47bd 08b4 adbd
000000c0: 2a15 52bd 78f7 34bd 281f 2fbd 4040 0e3d
000000d0: 9dcb 1dbd 3b67 97bd 3614 c03c 31b0 a8bd
000000e0: fa04 bdbc da58 84bd c19d efbd baee 843c
000000f0: 3a48 1f3d 0d0e 53bd ae67 b9bd 6967 d9bc
00000100: 03d0 abbd a959 563d f9c9 c4bd 0b0c aabd
00000110: 4476 b73d fab9 93bd b93d 94bd a73c 943c
00000120: 70d1 bcbb 19b9 8dbd ff48 09be 5dab d9bb
00000130: f5d7 153e 1ee7 aabd 144c cdbd 77e4 d13c
00000140: 9dfc adbc 1700 3abe 17ba febd 726c c9bb
00000150: fd86 f5bc f9a6 93bd bd66 a4bd 2636 a3bd
00000160: 82fc a3bd b858 06bc 2e48 03bd a3fb c13a
00000170: 6d1b 8bbd 98de 0dbc f709 cabd 5ca7 71bd
00000180: 11cd 983d b563 f4ba 5453 94bd 0426 d7bd
00000190: 2422 30bc 3490 4b3c 497a 2b3e 8e26 2c3e
000001a0: ed56 44bd 7481 8f3b e9ad 9e3d 8237 0ebd
000001b0: e60c d2bd 5617 b8bd f0ee e4bd 4034 f53d
000001c0: f131 19be 6999 0dbd fc84 88bd c695 e63d
000001d0: ca51 d4bd 6c9c 79bd 4099 633d d532 cabd
000001e0: c2ce 7abd c6b8 46bd 261b 23bd 2d7a c8bd
000001f0: 4691 18bd f02c e33d 9dd3 f6bc af4f 91bd
00000200: 0fbb d73b 56ce 993d dcb6 a2bc 7546 bb3d
00000210: 74ca 01bd 5ba6 c9bd a2e4 bdbd b0f7 f9bd
00000220: 4ff4 c4bd b040 d83c 7706 74bd f65e 44bd
00000230: f596 153b c1e6 0abe dc06 7ebd 8c88 45bd
00000240: b7e9 8bbd b1b2 a9bd a54c 0abd 02a1 55bd
00000250: b6c0 5cbd f0e9 06be 8bcb 1abd 720e 653d
00000260: 6b5b f0bd 5f93 573e 6957 923e 75cf 99bd
00000270: ad70 1dbe 2074 c03c ebec dbbd dc02 bebc
00000280: 5caa c13c 49c0 1bbe 8bfc a9bb 6e95 c13d
00000290: 667f 0abe 65c1 d6bc 121d fdbc 0ace d6bd
000002a0: 8c49 003e 79c4 aabd 826b 623c ac79 583e
000002b0: 643d 27bc 5ca8 c6bc 4d83 6a3e 3950 5a3c
000002c0: f42a ecbd 1a5b 27ba 7e27 d1bd 8bf9 6f3e
000002d0: b8c6 c8bd 098a 4ebd 8409 2f3e ed6e 6a3e
000002e0: c48e b3bc 8b9c 2ebd 700b 883e 6b57 9ebd
000002f0: 2e5a cfbb 05f0 9ebd fd50 09bd 8b90 cf3d
00000300: 5910 a6bd 84f5 4dbd 244b 91bb 5306 97bd
00000310: 5ed8 61bd caea 31bc f2d7 9dbd 8bb8 ebbd
00000320: 80dc bcb8 1d0b 12be 7b28 b8bd 6625 5f3d
00000330: 2007 c7bc cdc1 b6bd a94a d6bc 0995 edbc
00000340: b488 523d 7e1a b0bd d1cb 77bd 6175 3d3e
00000350: d378 2abd e12e 97bd 8435 1fbe b797 dd3c
00000360: 570e d13c ed88 bdbd 3ba0 89bd e4f4 053d
00000370: f158 85bd 2635 ecbd afde c23d bb7a a8bd
00000380: adc2 eb3d ad49 a0bd 0962 b9bd a920 4ebd
00000390: bf6e 56bd 89a5 c1bd 392c a03c 9cfc babc
000003a0: 81dc 4e3d 3658 2c3b dbb8 7b3d 3182 c9bc
000003b0: 6fa0 86bd 7883 8cbd 56af 05be 6903 28bd
000003c0: d2bd bf3b 707f a7bd 0e3e e23d 5c41 e8bc
000003d0: 1649 01be def5 ccbd f4bd dbbd 7572 0dbd
000003e0: 7e4d 8f3d ac8e 7bbd 22da a6bd 005e 88bd
000003f0: 3559 63bd 1c78 88bc 1486 b73e bb3a f7bd

classifier.weight f4 [16, 256]
-0.104360916 -0.039188884 -0.097020775 0.112032354 -0.09556591 -0.0538439 0.052518748 -0.26349568
0.077807225 -0.07418491 0.055735983 0.013600598 0.04756098 -0.12982312 0.03389429 -0.08621242
-0.0330338 0.06544788 -0.3096857 0.089435 -0.16647819 0.014380061 -0.048989292 -0.059179038
0.051925894 -0.086265646 -0.5205765 0.03837971 0.033160895 -0.013333221 -0.00061797525 -0.019224197
0.022848815 0.08743938 0.08373145 0.07519521 0.034985434 0.106091395 -0.07879044 -0.36385354
0.021773245 -0.10519489 0.0030446462 -0.075099185 -0.23472589 0.058005415 0.07283214 -0.04532116
-0.05671192 -0.040757306 0.07040374 -0.17087868 0.04002939 0.053502582 0.02230376 0.08819804
0.06636576 -0.15485609 0.108211026 0.055506844 0.053703234 0.03099575 -0.09286956 0.06948733
0.112379976 -0.050587684 0.009808123 0.03153187 -0.32474276 -0.047844913 -0.050402805 -0.07047091
-0.023782998 -0.064831614 0.028623488 -0.0065252776 -0.12081437 -0.07386684 0.07516188 -0.06776887
0.021979418 0.022036063 0.09524155 -0.07256777 -0.055216704 0.08134242 0.052663963 0.0928122
-0.049128946 0.09111609 -0.03631092 0.04124352 -0.07991988 0.04545318 0.078228235 0.11115099
-0.08739101 0.05273441 0.08872353 0.025393702 -0.122417204 -0.18087558 0.028055454 -0.33202964
-0.054912537 -0.11587449 -0.12350496 0.010645063 -0.106041856 -0.12279607 0.06740143 -0.24670735
0.07592527 0.021351965 -0.03692653 0.024180176 0.13055423 -0.00035427036 -0.11576522 0.120527945
0.004245907 0.06104713 -0.00566842 0.041309662 -0.100583486 0.06167613 -0.07189607 -0.05788542
-0.022822412 -0.004182893 0.0021192038 -0.13311033 -0.17190525 0.09234057 0.07107846 0.051304825
0.073293835 0.036056504 0.050939556 -0.25838578 0.05843146 -0.08244124 -0.029536694 0.09972766
-0.016619807 0.0073277513 -0.10683884 0.088883355 -0.018228756 0.10963666 -0.17393632 -0.19523065
0.1400052 -0.07363164 -0.446148 0.017927242 0.09216274 0.0335768 0.0041805967 -0.11432173
-0.16425966 -0.1437147 0.07339389 -0.31746113 -0.0064324616 0.041288413 -0.04107565 0.061778635
0.056798134 0.104565464 0.033929083 -0.25390688 0.08694549 0.010879638 -0.3115535 0.031675078
0.040012706 0.06525631 0.054482915 0.02950651 0.07535292 -0.16479155 -0.17408742 -0.456389
-0.008174527 -0.010514296 -0.2351705 0.03882525 -0.021053478 -0.12908563 0.05729403 0.09083183
0.00942122 0.016622188 0.054190822 -0.12484891 -0.13899975 -0.039388828 -0.18075275 0.0049605034
0.013697529 0.0025582532 0.0850769 -0.20697264 -0.01997929 -0.036114026 0.017242622 -0.14717725
0.06558714 -0.023163207 0.10682228 0.0392949 -0.062419556 -0.004335425 -0.07359398 0.021169716
0.094253205 0.0587736 0.014500777 0.06081507 0.08754139 -0.117695704 0.06637246 0.044583496
-0.028718298 -0.07993766 -0.082230166 0.04486222 -0.06566463 0.05196345 -0.08044394 -0.049046624
-0.07350779 0.0019527907 -0.23918332 0.1277099 -0.08321144 -0.08652355 0.07356305 -0.040906783
0.050978728 -0.19231264 -0.11440288 0.00093359855 0.0139842825 0.09308542 -0.07831829 0.09994943
0.051479578 -0.05283273 0.0051832194 0.051551428 -0.21025509 0.0071859285 -0.649214 0.08321003
00000000: 2dbb d5bd 8684 20bd d4b2 c6bd 3871 e53d
00000010: 0fb8 c3bd 6c8b 5cbd e61d 573d e8e8 86be
00000020: 6559 9f3d 42ee 97bd 6a4b 643d 0bd5 5e3c
00000030: 4dcf 423d 5af0 04be bdd4 0a3d 2390 b0bd
00000040: 734e 07bd 8a09 863d 208f 9ebe b329 b73d
00000050: 4279 2abe 599a 6b3c ffa8 48bd b865 72bd
00000060: 3fb0 543d 0bac b0bd 8044 05bf 0b34 1d3d
00000070: b8d3 073d 9573 5abc 9eff 21ba 107c 9dbc
00000080: 702d bb3c 6b13 b33d 657b ab3d f2ff 993d
00000090: e34c 0f3d 7246 d93d e25c a1bd 034b babe
000000a0: ce5d b23c 6b70 d7bd b088 473b 9acd 99bd
000000b0: fc5b 70be 1697 6d3d 0429 953d aea2 39bd
000000c0: c24a 68bd 22f1 26bd d62f 903d d2fa 2ebe
000000d0: dcf5 233d 8625 5b3d 60b6 b63c 2da1 b43d
000000e0: c6ea 873d 9892 1ebe be9d dd3d 255b 633d
000000f0: ecf7 5b3d cdea fd3c 6532 bebd 604f 8e3d
00000100: 7927 e63d 0835 4fbd 40b2 203c 9027 013d
00000110: af44 a6be 07f9 43bd 2c73 4ebd 0d53 90bd
00000120: 90d4 c2bc 70c6 84bd ce7b ea3c ffd1 d5bb
00000130: 866d f7bd 7f47 97bd 79ee 993d 68ca 8abd
00000140: 2e0e b43c f984 b43c 000e c33d 699e 94bd
00000150: e92a 62bd db96 a63d 2bb6 573d 5314 be3d
00000160: 6f3b 49bd 139b ba3d c2ba 14bd f7ee 283d
00000170: 09ad a3bd 1d2d 3a3d 2036 a03d 21a3 e33d
00000180: 0ffa b2bd 0900 583d afb4 b53d 7406 d03c
00000190: dfb5 fabd 7337 39be 8dd4 e53c caff a9be
000001a0: f8eb 60bd 9b4f edbd 2bf0 fcbd a168 2e3c
000001b0: 792c d9bd 827c fbbd c309 8a3d daa0 7cbe
000001c0: b57e 9b3d 51ea ae3c 4640 17bd 8115 c63c
000001d0: 02b0 053e 5dbd b9b9 5116 edbd 5bd7 f63d
000001e0: 4021 8b3b 8e0c 7a3d 27be b9bb 5234 293d
000001f0: b7fe cdbd 1ca0 7c3d 3f3e 93bd 4319 6dbd
00000200: 11f6 babc a610 89bb 57e2 0a3b 134e 08be
00000210: ee07 30be 0e1d bd3d 9591 913d 0225 523d
00000220: 141b 963d fcaf 133d ffa5 503d 244b 84be
00000230: d455 6f3d f4d6 a8bd f0f6 f1bc 043e cc3d
00000240: 4326 88bc a21d f03b 52ce dabd 7a08 b63d
00000250: 7954 95bc 2f89 e03d 5d1c 32be 8bea 47be
00000260: 865d 0f3e 2fcc 96bd 836d e4be 27dc 923c
00000270: d2bf bc3d d487 093d 63fd 883b 8321 eabd
00000280: af33 28be f229 13be 894f 963d 448a a2be
00000290: 66c7 d2bb 0a1e 293d f13e 28bd 980b 7d3d
000002a0: 29a5 683d 6b26 d63d 39f9 0a3d 1500 82be
000002b0: 7a10 b23d 8240 323c f183 9fbe babd 013d
000002c0: 5de4 233d 1aa5 853d 7a29 5f3d a3b7 f13c
000002d0: a252 9a3d 1ebf 28be f943 32be d2ab e9be
000002e0: 74ee 05bc 2744 2cbc 89d0 70be 3a07 1f3d
000002f0: 5878 acbc 062f 04be 25ad 6a3d 0a06 ba3d
00000300: 765b 1a3c 412b 883c 32f7 5d3d c9b0 ffbd
00000310: f355 0ebe 2e56 21bd 4017 39be b88b a23b
00000320: 9a6b 603c 5ea8 273b cc3c ae3d a3f0 53be
00000330: 9cab a3bc 4dec 13bd 6640 8d3c a2b5 16be
00000340: 8d52 863d c4c0 bdbc a4c5 da3d b0f3 203d
00000350: a6ab 7fbd 2e10 8ebb 71b8 96bd 1d6c ad3c
00000360: d307 c13d 96bc 703d ab94 6d3c 3919 793d
00000370: e648 b33d 720a f1bd 49ee 873d 2f9d 363d
00000380: a342 ebbc 5bb6 a3bd 4a68 a8bd 72c1 373d
00000390: 2d7b 86bd a0d7 543d cbbf a4bd 1de5 48bd
000003a0: 418b 96bd c8f4 ff3a 79ec 74be 62c6 023e
000003b0: c26a aabd 4233 b1bd 39a8 963d df8d 27bd
000003c0: 12cf 503d 9bed 44be 0f4c eabd bdbc 743a
000003d0: 551e 653c 92a3 be3d 5765 a0bd 49b2 cc3d
000003e0: 40dc 523d 2267 58bd ffd7 a93b 9727 533d
000003f0: 1c4d 57be f077 eb3b e432 26bf 056a aa3d

classifier.bias f4 [16]
-0.15359408 0.06539502 -0.02495901 0.031120174 0.06578174 0.07797187 -0.083824284 -0.027353682
0.08798748 0.037635088 0.07793267 0.004964278 0.06537004 0.08259821 -0.0844309 -0.046331447
00000000: c447 1dbe d3ed 853d d676 ccbc bcef fe3c
00000010: 94b8 863d b7af 9f3d 11ac abbd d414 e0bc
00000020: c832 b43d 4027 1a3d 2a9b 9f3d 62ab a23b
00000030: bae0 853d 4029 a93d 1cea acbd 0bc6 3dbd
