transfer04_23_49_22_10_12_FullyConnected.pth (torch, 550959 bytes, 8 tensors)

fc1.weight f4 [256, 4]
-0.5213826 0.5737993 -0.15143555 0.42127967 -0.07561853 -0.65492725 -0.5656053 0.2981141
-0.3085639 -0.3250888 0.1380915 -0.3619935 -0.17831561 0.48597318 0.35955968 0.06543329
0.008982761 0.41572204 0.37811506 -0.025348403 -0.1294131 0.26495692 0.11143552 0.19899872
0.14557408 -0.6258505 -0.65600765 0.18311992 0.31821275 -0.010716379 0.2819842 0.007056415
0.22636402 0.5844384 0.39377218 -0.05672726 0.10895873 -0.059141256 -0.34241787 0.3015161
0.0982621 -0.59998924 -0.6881751 0.5608857 -0.5402515 -0.39361775 -0.28805593 -0.06156943
-0.3841051 -0.4628725 0.43481034 -0.44548094 0.29087755 -0.3641127 -0.58166707 0.069062345
0.39940232 0.032291595 0.37090966 -0.020808032 0.03288084 -0.43131617 0.38921672 0.38198975
-0.45318687 -0.25031054 -0.54976857 0.36846566 0.20398185 0.24526936 -0.2154211 -0.24429154
0.31861007 0.23060411 -0.20067947 0.2887228 -0.26686046 0.4329641 0.5451304 0.11442177
-0.021033341 0.52183247 -0.10142731 -0.48539248 0.13629216 0.08746904 -0.2727803 0.009245396
0.07782459 0.32094032 -0.10814333 -0.3886004 0.004641831 0.06279904 0.2840399 -0.10635799
-0.43552148 -0.37896436 -0.27268112 -0.2780478 -0.22845858 0.49311703 -0.29285043 -0.3894813
-0.13595498 0.34860575 -0.2208165 -0.4191702 -0.39804766 0.41969076 0.12845866 -0.24943855
-0.14135796 -0.65148747 -0.4955714 -0.16321526 -0.5006388 -0.3087111 -0.5782663 0.4798592
-0.41858414 -0.35493675 -0.33372062 -0.329982 -0.08123229 0.15782598 0.68493986 -0.26748762
-0.43839577 -0.6915673 -0.16157527 0.42544347 -0.30230623 -0.36630106 0.22167164 0.18408448
-0.06916216 -0.24946351 -0.0044038 0.36938775 -0.3294103 0.08937454 -0.10993439 -0.4547695
-0.27547735 0.28093457 0.012349665 -0.057025254 -0.10148294 0.592666 0.44596532 0.13515504
-0.40706 0.5278692 0.50920844 0.39522758 0.13888684 0.37513834 0.117254175 -0.23137183
0.41205335 -0.34624138 0.33217776 -0.086348824 -0.2986552 0.39543694 -0.32227975 -0.4494385
0.06192222 -0.66525847 -0.5401715 -0.29738617 -0.34180555 0.38281313 -0.2638442 0.18101527
-0.2927295 -0.114218175 -0.36781436 -0.31543303 0.044083487 -0.514465 -0.4639901 -0.04811595
0.013831198 -0.39729428 0.057293594 -0.46737617 0.47764084 -0.10146826 -0.11525997 -0.37140667
0.24256672 -0.030402282 -0.68814296 0.3026197 0.098823965 -0.07135217 0.29920268 -0.02724755
0.01142934 -0.13356856 -0.6099553 -0.3164828 0.4582213 0.1892006 -0.33676454 -0.13185741
-0.06682211 -0.1884399 0.41906953 -0.43450534 0.14820464 0.013257797 0.44698367 0.064359576
-0.14449948 -0.09333724 -0.3925292 -0.10712665 -0.26964292 0.34444338 0.5715912 -0.062614806
0.35743448 0.1511692 -0.15088373 -0.29482833 0.0026413251 -0.048428196 0.6465009 -0.3402971
-0.07830188 -0.23574553 -0.511413 0.03352228 -0.3191402 0.044101834 -0.20934331 -0.086527646
0.47239682 -0.5181869 0.09293314 -0.35545793 0.4079842 -0.008125603 -0.2342025 -0.31880558
-0.13561791 0.11767428 -0.2543344 -0.18501455 -0.3672192 -0.59801006 0.20482159 -0.39491564
00000000: 5479 05bf 83e4 123f ec11 1bbe f8b1 d73e
00000010: e3dd 9abd 50a9 27bf 82cb 10bf 69a2 983e
00000020: 16fc 9dbe 0a72 a6be dc67 0d3e 3657 b9be
00000030: 5e98 36be 7ad1 f83e 3518 b83e e401 863d
00000040: 6e2c 133c 85d9 d43e 4c98 c13e 74a7 cfbc
00000050: de84 04be 6fa8 873e 4e38 e43d 52c6 4b3e
00000060: 5f11 153e bd37 20bf 1ef0 27bf ca83 3b3e
00000070: c8ec a23e c093 2fbc 3c60 903e 8039 e73b
00000080: f8cb 673e c19d 153f 829c c93e d85a 68bd
00000090: c125 df3d 1a3e 72bd 6551 afbe 5160 9a3e
000000a0: a43d c93d e598 19bf 3e2c 30bf 3596 0f3f
000000b0: ec4d 0abf 4488 c9be 117c 93be 3a30 7cbd
000000c0: 6ca9 c4be a0fd ecbe 769f de3e 1416 e4be
000000d0: e7ed 943e fb6c babe 22e8 14bf 8f70 8d3d
000000e0: 767e cc3e 3144 043d dfe7 bd3e 9b75 aabc
000000f0: 0fae 063d 79d5 dcbe 6a47 c73e 2994 c33e
00000100: 1c08 e8be b428 80be a2bd 0cbf 88a7 bc3e
00000110: 9ee0 503e e427 7b3e 5997 5cbe 9027 7abe
00000120: dc20 a33e 7c23 6c3e eb7e 4dbe 7ad3 933e
00000130: efa1 88be 78ad dd3e aa8d 0b3f f655 ea3d
00000140: 1d4e acbc d096 053f 1fb9 cfbd 5d85 f8be
00000150: 2c90 0b3e f822 b33d dca9 8bbe 007a 173c
00000160: 8062 9f3d 4a52 a43e 407a ddbd a2f6 c6be
00000170: 801a 983b c89c 803d ae6d 913e 38d2 d9bd
00000180: acfc debe 9e07 c2be dc9c 8bbe 485c 8ebe
00000190: 0cf1 69be d679 fc3e 7ef0 95be 186a c7be
000001a0: c837 0bbe 747c b23e b81d 62be 7a9d d6be
000001b0: e7cc cbbe b5e1 d63e ab8a 033e d26c 7fbe
000001c0: 24c0 10be e2c7 26bf 89bb fdbe e721 27be
000001d0: dd29 00bf 620f 9ebe 4309 14bf 1bb0 f53e
000001e0: a950 d6be 45ba b5be 6edd aabe 67f3 a8be
000001f0: 1d5d a6bd 229d 213e 3858 2f3f 23f4 88be
00000200: 6975 e0be 8e0a 31bf fd73 25be bad3 d93e
00000210: e2c7 9abe d08b bbbe e4fd 623e a480 3c3e
00000220: e4a4 8dbd 5d73 7fbe c04d 90bb 6420 bd3e
00000230: 78a8 a8be 000a b73d 4825 e1bd 8cd7 e8be
00000240: 5e0b 8dbe a8d6 8f3e 4056 4a3c 5093 69bd
00000250: 4ad6 cfbd f5b8 173f 9155 e43e 1566 0a3e
00000260: 2b6a d0be 7022 073f 7c5b 023f 455b ca3e
00000270: 5a38 0e3e 2212 c03e f522 f03d bdec 6cbe
00000280: a8f8 d23e 8d46 b1be 3413 aa3e a7d7 b0bd
00000290: 56e9 98be b676 ca3e da01 a5be ce1c e6be
000002a0: 27a2 7d3d 614e 2abf ae48 0abf 0043 98be
000002b0: 2301 afbe 1500 c43e 9616 87be 115c 393e
000002c0: a4e0 95be 38eb e9bd 2a52 bcbe 7080 a1be
000002d0: e390 343d fab3 03bf 1c90 edbe 3b15 45bd
000002e0: 409c 623c 286a cbbe b0ac 6a3d ee4b efbe
000002f0: 578d f43e 97ce cfbd 6b0d ecbd 0429 bebe
00000300: 6963 783e 350e f9bc 232a 30bf f8f0 9a3e
00000310: 3864 ca3d 1621 92bd 1831 993e 4136 dfbc
00000320: 2042 3b3c 32c6 08be 0826 1cbf 090a a2be
00000330: fb9b ea3e cdbd 413e 676c acbe a105 07be
00000340: 08da 88bd 64f6 40be 4890 d63e 7c77 debe
00000350: f5c2 173e 3b37 593c 0bdb e43e f4ce 833d
00000360: acf7 13be 9827 bfbd 96f9 c8be 3865 dbbd
00000370: a30e 8abe e25a b03e cd53 123f 313c 80bd
00000380: a701 b73e 19cc 1a3e 4481 1abe bdf3 96be
00000390: 151a 2d3b a55c 46bd 1581 253f 6c3b aebe
000003a0: bc5c a0bd 4767 71be f6eb 02bf a94e 093d
000003b0: 5866 a3be 20a4 343d 185e 56be 6835 b1bd
000003c0: ffdd f13e e6a7 04bf bb53 be3d 95fe b5be
000003d0: 4ee3 d03e 4021 05bc c8d2 6fbe 7c3a a3be
000003e0: 6cdf 0abe 37ff f03d 1e38 82be 7474 3dbe
000003f0: 2804 bcbe 3017 19bf c0bc 513e 6232 cabe

fc1.bias f4 [256]
-0.014552203 -0.02738931 -0.13746947 0.25907478 0.3650368 -0.035629217 0.07842041 -0.35822386
-0.42826918 -0.37628877 -0.34960908 0.31160074 0.14086598 -0.22380592 -0.23317875 -0.42732826
0.0808399 -0.10992821 0.27904403 -0.061984394 0.46227685 -0.32668972 0.027714014 -0.16909057
0.09688181 -0.12378448 -0.09124273 0.4360544 0.17361966 0.08906098 0.37272203 0.1431386
0.027843101 -0.3889854 -0.3311212 0.06278056 -0.47216076 -0.24440448 -0.18459517 -0.27899265
-0.53006655 -0.24549943 0.09185769 0.053486906 -0.22481221 -0.087715566 -0.43950582 0.14913693
0.29054412 0.08020035 0.23288865 0.008471867 -0.45930028 0.0435056 -0.13679624 0.22181027
-0.15794908 0.28314197 0.010476392 0.115507364 0.3986291 -0.39648563 0.19978088 0.3705204
0.20273587 -0.2174002 0.39001116 -0.47617576 0.07146378 0.37178776 0.2584592 0.32900104
0.24641028 0.40598017 0.08029002 -0.36804757 -0.1963861 0.37257853 0.113683276 -0.32427704
0.23503584 -0.5357173 -0.17030221 -0.29242846 -0.51787245 0.033031486 0.33272663 -0.26046306
0.18086392 0.24168962 -0.338689 -0.17769966 0.27859768 0.08126274 0.15755762 0.011689365
-0.48568052 -0.09270596 0.07074445 0.24741475 -0.08221611 -0.41938508 -0.07436719 0.021538401
-0.2102948 0.21874088 0.14318736 -0.11179094 0.25613546 0.39017034 0.22591157 0.109399565
0.05782147 0.14053571 -0.25896907 0.12585483 -0.4041322 -0.2449336 0.4041503 -0.134639
-0.48512822 -0.15133202 -0.4935727 0.1275751 0.16485 -0.01886418 0.22877201 -0.2504595
0.003036538 -0.1872791 0.120861486 0.10054394 -0.3847912 -0.20862901 0.32467467 -0.18719025
-0.08647729 -0.056093957 -0.28384924 0.057147108 0.17835054 0.09199832 0.40867764 -0.421171
0.20845984 0.0060797334 -0.22833124 -0.110784054 0.08616063 0.25520402 0.2723549 -0.029191544
0.49941114 -0.030154712 0.12652631 0.16434243 -0.38911045 0.28760332 -0.21433133 0.3521991
0.35952735 0.23398067 -0.23133262 0.021109626 0.0242535 -0.47465128 0.08021078 0.36439225
0.18622154 -0.051494293 -0.39180106 -0.012154084 0.27861077 0.1209557 -0.19575867 -0.18945146
-0.33079857 -0.27617437 -0.4101591 -0.19292635 -0.008562503 0.316013 0.10589818 -0.40533036
0.36971924 -0.40651304 0.1913649 -0.4209239 -0.018662412 0.3160996 0.020604312 0.48147658
-0.002250472 -0.00811559 0.1792708 0.46998745 -0.38201576 -0.037338957 0.006755007 -0.25399023
0.23794255 0.06628402 0.05129323 0.27363697 0.31531766 -0.22941566 -0.08378756 -0.3541082
-0.27133828 -0.12894166 -0.30604464 -0.24691227 -0.076446116 -0.46825188 -0.23916137 -0.051901318
0.060562175 0.059710175 0.095452964 0.2528836 -0.4752823 0.109131075 -0.28917348 -0.00076873717
0.3532046 -0.33729613 0.08671835 0.07644522 -0.0026579506 0.40067935 -0.17917381 0.24341604
-0.021891125 -0.28686303 0.18145387 0.08197895 -0.39443493 0.26675108 -0.22625977 0.09164264
-0.06408135 0.41311267 -0.37637526 -0.32874095 -0.4360919 0.06697637 -0.3223163 0.06325084
0.039363325 -0.13206051 0.018681943 -0.19912404 -0.391137 -0.06543177 0.1395213 0.017366122
00000000: 5d6c 6ebc 8c5f e0bc ccc4 0cbe 73a5 843e
00000010: 1ae6 ba3e f1ef 11bd e19a a03d 1e69 b7be
00000020: 1946 dbbe eca8 c0be f6ff b2be 228a 9f3e
00000030: 2c3f 103e 612d 65be 69c6 6ebe c5ca dabe
00000040: 648f a53d 0b22 e1bd dcde 8e3e 59e3 7dbd
00000050: 8daf ec3e e043 a7be 8008 e33c 1426 2dbe
00000060: f869 c63d b882 fdbd 78dd babd 8642 df3e
00000070: 5ac9 313e 9a65 b63d 6cd5 be3e ed92 123e
00000080: 3717 e43c 1829 c7be b888 a9be 1893 803d
00000090: 0ebf f1be 2b45 7abe 8406 3dbe 20d8 8ebe
000000a0: 71b2 07bf 3464 7bbe e21f bc3d 1615 5b3d
000000b0: 2c35 66be 38a4 b3bd e806 e1be 5ab7 183e
000000c0: 33c2 943e 1540 a43d 5d7a 6e3e 96cd 0a3c
000000d0: 6829 ebbe ee32 323d 5014 0cbe 3b22 633e
000000e0: 67bd 21be fcf7 903e 2ca5 2b3c 208f ec3d
000000f0: 1d19 cc3e 2a00 cbbe 5c93 4c3e dab4 bd3e
00000100: fe99 4f3e 289e 5ebe 8baf c73e 4fcd f3be
00000110: 9a5b 923d f75a be3e c454 843e d372 a83e
00000120: fa52 7c3e a2dc cf3e 186f a43d bb70 bcbe
00000130: 7019 49be 9dc2 be3e c7d2 e83d a407 a6be
00000140: 3cad 703e c524 09bf b463 2ebe 2fb9 95be
00000150: 4a93 04bf 064c 073d 255b aa3e 6a5b 85be
00000160: 6434 393e 7c7d 773e a568 adbe e6f6 35be
00000170: 5ba4 8e3e 146d a63d c956 213e c084 3f3c
00000180: 1eab f8be 9fdc bdbd 77e2 903d 4b5a 7d3e
00000190: eb60 a8bd a4b9 d6be d34d 98bd 4d71 b03c
000001a0: 8557 57be 9cfd 5f3e b59f 123e a6f2 e4bd
000001b0: 3024 833e 68c4 c73e 5d55 673e e10c e03d
000001c0: 35d6 6c3d 98e8 0f3e 9897 84be 17e0 003e
000001d0: 6aea cebe e0cf 7abe caec ce3e cede 09be
000001e0: ba62 f8be c8f6 1abe 90b5 fcbe 0ca3 023e
000001f0: 70ce 283e 0e89 9abc 3643 6a3e 3a3c 80be
00000200: a700 473b 18c6 3fbe 3a86 f73d fbe9 cd3d
00000210: 5a03 c5be d8a2 55be c23b a63e cdae 3fbe
00000220: 011b b1bd c7c2 65bd b054 91be 1613 6a3d
00000230: 86a1 363e 9d69 bc3d 323e d13e baa3 d7be
00000240: 7f76 553e 8038 c73b aacf 69be c0e2 e2bd
00000250: fc74 b03d 1aaa 823e 1a72 8b3e 1b23 efbc
00000260: d1b2 ff3e 0407 f7bc 1d90 013e 6249 283e
00000270: 7c39 c7be be40 933e ac79 5bbe 7153 b43e
00000280: f813 b83e a198 6f3e 75e2 6cbe 18ee ac3c
00000290: 47af c63c 7e05 f3be 8d45 a43d 9f91 ba3e
000002a0: dcb0 3e3e aeeb 52bd 269a c8be ec21 47bc
000002b0: 12a6 8e3e 9fb7 f73d f674 48be 90ff 41be
000002c0: 6e5e a9be ba66 8dbe 6000 d2be 7c8e 45be
000002d0: be49 0cbc 75cc a13e 25e1 d83d 7687 cfbe
000002e0: d74b bd3e 7a22 d0be 29f5 433e 5683 d7be
000002f0: eae1 98bc cfd7 a13e 60ca a83c 1984 f63e
00000300: a87c 13bb 40f7 04bc c492 373e 32a2 f03e
00000310: 9297 c3be bcf0 18bd 1b59 dd3b 020b 82be
00000320: 36a7 733e ebbf 873d da18 523d 251a 8c3e
00000330: 5171 a13e f0eb 6abe d098 abbd ac4d b5be
00000340: daec 8abe 4809 04be e2b1 9cbe 92d6 7cbe
00000350: c88f 9cbd b6be efbe b8e6 74be 7a96 54bd
00000360: 0b10 783d a892 743d d87c c33d f679 813e
00000370: 3458 f3be 1d80 df3d 8c0e 94be 1485 49ba
00000380: 3cd7 b43e 14b2 acbe 6499 b13d 508f 9c3d
00000390: 0331 2ebb d825 cd3e 5779 37be 0e42 793e
000003a0: 0455 b3bc b6df 92be 0bcf 393e 94e4 a73d
000003b0: 60f3 c9be 9993 883e a4b0 67be 23af bb3d
000003c0: 153d 83bd 8183 d33e 42b4 c0be bc50 a8be
000003d0: 7047 dfbe e82a 893d a406 a5be a889 813d
000003e0: 703b 213d df3a 07be e00a 993c 2ce7 4bbe
000003f0: 1c43 c8be 1801 86bd acde 0e3e 6643 8e3c

fc2.weight f4 [256, 256]
0.20025407 -0.15748672 0.017562091 0.1210361 -0.020325845 0.09124092 -0.16561031 0.038413003
0.092945084 -0.12373148 -0.073286854 -0.045513984 0.0332015 -0.021791846 -0.01202446 -0.113035455
-0.0726073 0.034049496 -0.0023394707 0.24297325 0.049278904 0.02121158 0.01704564 -0.023470625
-0.026749723 0.051334985 -0.0041900724 0.107186794 -0.045169793 -0.06619846 -0.19251728 0.30507043
-0.09186998 -0.053152703 -0.052415017 -0.018319584 0.03516926 0.17529283 0.29657313 0.09398665
0.0048308168 -0.05229637 -0.11853219 0.14843777 -0.051542617 -0.119134426 0.045666344 -0.082393065
-0.07643573 -0.05447326 -0.14134282 -0.04008698 0.034194306 0.017373836 0.03972859 0.24891125
0.0050276956 0.014038991 -0.1507545 -0.007306941 -0.08576447 0.062357552 -0.04864964 -0.12770943
0.20662493 -0.04875899 -0.07835313 -0.040987298 -0.045808673 -0.2710449 -0.10494191 -0.0090653235
-0.066246726 0.047675654 0.021273606 -0.31867242 0.008899339 -0.19163811 -0.21807264 0.0820584
-0.27148136 0.040224332 -0.055483833 0.077397585 0.024882197 0.17150381 -0.047422487 0.010549031
-0.046326708 0.07493564 -0.0717474 0.11721767 -0.18546069 -0.060626186 -0.157975 -0.0011634827
-0.016897775 0.007912496 0.06705989 -0.13676183 -0.12387541 -0.004621833 -0.032770276 0.087313704
0.04861833 0.02983479 0.33255377 -0.046308912 -0.10369311 -0.12572998 0.37758937 -0.0064768805
-0.22911835 -0.10182722 -0.0624106 -0.096125275 -0.01225063 0.051212206 -0.24881686 -0.10532463
-0.0638834 0.033326067 0.0025382563 0.013440063 -0.039030455 0.004564928 -0.07467881 -0.057111233
-0.004193338 -0.05472432 0.0016743469 0.045441855 -0.004098512 0.047608517 0.33439627 -0.13977413
-0.26083907 -0.10916942 -0.017526343 0.021504512 -0.14805909 -0.08442203 -0.07485953 -0.020643145
-0.061024427 -0.036644816 -0.053161558 -0.058320858 -0.13465478 -0.008146902 -0.117960505 0.21721719
-0.2286682 0.023481391 0.22194836 -0.03517509 -0.050792996 -0.083053894 0.004040958 -0.23290841
0.06720312 0.04917843 -0.07132085 -0.03311403 0.042331357 0.05517669 -0.11540622 -0.0288233
-0.167565 0.20270605 -0.02164506 -0.13965583 0.1370595 -0.098064795 -0.13300589 -0.019525476
-0.104960345 0.046386503 -0.040879257 0.11687979 0.04935429 -0.18441667 0.29288676 -0.008258216
-0.1065309 -0.017673187 -0.091420144 0.0069071054 0.049750764 -0.08828162 -0.03506258 -0.15393837
0.07766619 -0.028145097 0.09449868 -0.19731854 0.052681386 -0.04296713 -0.11577326 -0.043616932
0.09941362 -0.021240272 -0.124747396 -0.07653821 -0.0375676 -0.09496986 -0.035135165 -0.017715134
0.028150141 -0.014051714 0.067135766 0.2392386 0.012191124 0.047782812 -0.047120072 0.034380004
-0.121311605 0.0647209 0.07922954 -0.107712254 0.027862474 0.16720465 -0.026870131 0.21899666
-0.093949094 0.00416255 -0.084520735 -0.016216949 -0.20622814 -0.022628093 0.14221266 -0.17190216
0.108360894 0.03604389 0.20969509 -0.020091409 0.006144814 -0.13514066 0.043153368 0.15334035
-0.11837845 0.118385725 -0.042956024 0.048359938 0.021346927 -0.048695743 0.040316537 -0.03255537
0.10416808 -0.05668558 -0.007002391 -0.0949204 0.031825803 0.03552834 0.11334371 0.04420181
00000000: 670f 4d3e 3344 21be 60de 8f3c c6e1 f73d
00000010: 6382 a6bc 85dc ba3d c095 29be f456 1d3d
00000020: fe59 be3d ee66 fdbd 6b17 96bd df6c 3abd
00000030: 4cfe 073d d084 b2bc 3e02 45bc 227f e7bd
00000040: 23b3 94bd 7c77 0b3d ce51 19bb fbcd 783e
00000050: add8 493d e8c3 ad3c 4ca3 8b3c 7845 c0bc
00000060: 3c22 dbbc a244 523d e04c 89bb c084 db3d
00000070: f603 39bd 0f93 87bd 4023 45be 3132 9c3e
00000080: 5426 bcbd a6b6 59bd 21b1 56bd f412 96bc
00000090: a40d 103d f77f 333e 6fd8 973e 137c c03d
000000a0: d44b 9e3b b834 56bd 01c1 f2bd 1200 183e
000000b0: 5a1e 53bd c0fc f3bd a20c 3b3d b2bd a8bd
000000c0: 568a 9cbd 5a1f 5fbd 2cbc 10be 3f32 24bd
000000d0: 540f 0c3d 9353 8e3c 72ba 223d 97e2 7e3e
000000e0: 5ebf a43b cc03 663c 635f 1abe 106f efbb
000000f0: 48a5 afbd a26a 7f3d d844 47bd 43c6 02be
00000100: 7c95 533e 82b7 47bd 9b77 a0bd 4ce2 27bd
00000110: e0a1 3bbd 66c6 8abe c9eb d6bd b986 14bc
00000120: 5dac 87bd 8c47 433d fc45 ae3c 0829 a3be
00000130: 88ce 113c c83c 44be 6f4e 5fbe 3c0e a83d
00000140: 9bff 8abe 45c2 243d 0443 63bd a082 9e3d
00000150: c0d5 cb3c b29e 2f3e 153e 42bd d8d5 2c3c
00000160: 13c1 3dbd db77 993d 4df0 92bd d10f f03d
00000170: 68e9 3dbe 2a53 78bd 33c4 21be 0080 98ba
00000180: 346d 8abc 6aa3 013c b256 893d 4b0b 0cbe
00000190: 64b2 fdbd bf72 97bb 203a 06bd 87d1 b23d
000001a0: 0424 473d 1768 f43c 7d44 aa3e 6aae 3dbd
000001b0: 0e5d d4bd 5cbf 00be 6553 c13e 033c d4bb
000001c0: 009e 6abe ca8a d0bd 42a2 7fbd 54dd c4bd
000001d0: deb6 48bc e4c3 513d d9c9 7ebe 71b4 d7bd
000001e0: 4dd5 82bd ea80 083d e058 263b b633 5c3c
000001f0: 66de 1fbd 6495 953b 34f1 98bd 78ed 69bd
00000200: 4568 89bb 9c26 60bd c275 db3a 3d21 3a3d
00000210: d04c 86bb 2601 433d fd35 ab3e f320 0fbe
00000220: b38c 85be 3894 dfbd 6893 8fbc 3b2a b03c
00000230: cd9c 17be 75e5 acbd f44f 99bd d01b a9bc
00000240: c0f4 79bd e018 16bd efbf 59bd dae1 6ebd
00000250: f1e2 09be 957a 05bc 4795 f1bd 2f6e 5e3e
00000260: ff27 6abe 0c5c c03c 6e46 633e c113 10bd
00000270: 510c 50bd 2918 aabd 036a 843b 8b7f 6ebe
00000280: caa1 893d 526f 493d aa10 92bd 94a2 07bd
00000290: a563 2d3d f400 623d 195a ecbd d71e ecbc
000002a0: 2996 2bbe 2d92 4f3e fb50 b1bc f001 0fbe
000002b0: 5359 0c3e 32d6 c8bd b232 08be e4f3 9fbc
000002c0: 73f5 d6bd c6ff 3d3d 0271 27bd ac5e ef3d
000002d0: b927 4a3d b9d7 3cbe 41f5 953e 784d 07bc
000002e0: df2c dabd 5cc7 90bc 7c3a bbbd 0055 e23b
000002f0: 75c7 4b3d fecc b4bd c89d 0fbd 05a2 1dbe
00000300: 740f 9f3d 8c90 e6bc 8688 c13d df0d 4abe
00000310: 70c8 573d 4dfe 2fbd 881a edbd aba7 32bd
00000320: 5e99 cb3d 1400 aebc 907b ffbd 11c0 9cbd
00000330: 7ce0 19bd 8f7f c2bd e4e9 0fbd 541f 91bc
00000340: 209b e63c 2939 66bc 7a7e 893d f7fa 743e
00000350: 48bd 473c e9b7 433d fa00 41bd 0cd2 0c3d
00000360: 3872 f8bd 648c 843d 1943 a23d 3e98 dcbd
00000370: d83f e43c b237 2b3e c01e dcbc a940 603e
00000380: 6268 c0bd 0066 883b 3519 adbd 68d9 84bc
00000390: 782d 53be 8d5e b9bc 32a0 113e 1f07 30be
000003a0: 51ec dd3d c2a2 133d 4fba 563e bd96 a4bc
000003b0: 705a c93b 5062 0abe 96c1 303d 4105 1d3e
000003c0: 6770 f2bd 3774 f23d a8f2 2fbd 1215 463d
000003d0: c0df ae3c 3075 47bd f422 253d c858 05bd
000003e0: 1356 d53d 242f 68bd 5074 e5bb a065 c2bd
000003f0: c65b 023d 2a86 113d bf20 e83d f50c 353d

fc2.bias f4 [256]
-0.041557983 0.001584284 -0.059559025 -0.050417587 0.009155615 -0.038028423 -0.089869544 -0.12138588
-9.0992355e-05 -0.028148107 -0.043557063 -0.13906091 -0.047540497 -0.03786427 -0.082338 -0.026941288
-0.1251422 -0.039038226 -0.10071302 -0.018793967 -0.06169215 -0.09828708 -0.07476281 -0.0018538088
-0.06297584 -0.09977636 0.00406529 -0.054342754 -0.16221935 0.18654992 -0.06179063 -0.041333195
-0.07704055 0.0008718315 -0.06360773 -0.12998755 -0.046956178 0.030087885 -0.04580248 0.030894466
-0.03153552 -0.079211876 -0.027948976 -0.17049746 0.0992293 -0.050487988 -0.03231802 -0.04183185
0.04680268 -0.1030916 -0.01977434 0.25717995 -0.12193704 -0.028408732 -0.0017998471 -0.07730693
-0.009048679 -0.12276369 -0.08418493 0.02903101 -0.029528907 0.00071620196 0.014326677 -0.014717063
0.04925499 0.0036903513 -0.018660238 -0.03155366 0.029110312 -0.12664057 -0.10276919 -0.044637833
0.013801313 -0.10339013 0.08896351 0.022231294 -0.053502478 0.0073244264 -0.07629834 -0.016957253
-0.11690046 0.07704978 0.045325965 -0.06744155 -0.008364352 -0.036959015 -0.03912302 -0.0052331313
-0.039645143 -0.023653114 -0.05775629 0.008799642 -0.035321895 -0.004287377 -0.13298956 0.10082681
0.0005648881 0.01295597 -0.08852029 0.10674538 -0.08180384 -0.054824647 0.015520848 -0.008037425
-0.08115466 -0.028907381 0.09546519 -0.07584447 -0.025213817 -0.048289694 -0.053303093 -0.00037805736
-0.0561239 -0.022706283 -0.073951155 -0.08531264 0.026117884 -0.024308078 -0.019565098 -0.08819256
-0.04308341 0.016110731 -0.0053355843 -0.019537881 0.057567686 -0.03582953 -0.0071790474 -0.12003501
-0.056234077 -0.008378986 -0.013887971 -0.013078714 0.018930605 0.01799018 -0.11412167 0.0057651326
-0.031792432 0.04386042 -0.0208077 -0.06047886 -0.117068626 0.013600225 -0.096530505 -0.15959758
-0.029096749 -0.05848044 -0.02870946 0.00034417957 -0.03783601 -0.07954233 -0.014482525 -0.02389131
-0.043700434 -0.051456362 -0.0034566224 -0.04859097 -0.03219235 -0.06591261 -0.10642906 -0.06608708
-0.060787976 -0.1047578 -0.029431332 -0.014965859 -0.082561225 0.12197361 -0.10634163 -0.14959033
-0.09951213 0.046295054 -0.08974386 -0.10085227 0.03281561 -0.01484252 -0.108771674 -0.06012822
-0.060992442 -0.0578518 -0.031843036 -0.059872385 0.0046413913 -0.122655876 -0.038355052 -0.049563915
-0.010328904 -0.11880637 -0.009582767 0.022690237 -0.05456721 0.019494152 0.14352232 -0.10673019
0.04172247 -0.04611002 0.02110491 -0.071894936 -0.0005506178 -0.077737905 -0.035903968 -0.0108919535
-0.08923133 -0.011528738 -0.094961606 0.086818784 -0.038811743 0.00879404 -0.034128048 -0.09623035
-0.089454085 -0.066277094 0.0045676343 -0.028536037 0.055865705 -0.07140624 -0.05350781 -0.0161062
-0.106746025 -0.04133705 -0.03127167 -0.018102264 -0.025016606 0.020857636 -0.08369012 -0.051436316
0.011060411 -0.09949284 -0.10232099 -0.04168552 -0.03910856 -0.10312864 -0.056385227 0.043961212
-0.065257005 0.030499276 -0.01303864 -0.033583872 -0.0572165 -0.03979844 -0.03606759 -0.016653046
0.05115787 -0.08677263 -0.016793333 -0.032897785 -0.011939868 -0.11030074 -0.036145143 -0.051960655
0.056932807 -0.054092776 -0.0024522718 -0.06058728 -0.068000816 -0.03093143 0.013003217 -0.018301133
00000000: b438 2abd c0a7 cf3a 2af4 73bd ac82 4ebd
00000010: 6f01 163c b1c3 1bbd 860d b8bd 2999 f8bd
00000020: 26d3 beb8 dc96 e6bc e468 32bd fc65 0ebe
00000030: d3b9 42bd 9117 1bbd d3a0 a8bd fab3 dcbc
00000040: 4725 00be 8ce6 1fbd a142 cebd cef5 99bc
00000050: e8b0 7cbd bd4a c9bd 3e1d 99bd 80fb f2ba
00000060: 7af9 80bd 8c57 ccbd 2036 853b 8296 5ebd
00000070: d41c 26be f106 3f3e 2c18 7dbd ff4c 29bd
00000080: 70c7 9dbd 9f8b 643a c544 82bd 751b 05be
00000090: 1f55 40bd de7a f63c 629b 3bbd 6416 fd3c
000000a0: 642b 01bd d639 a2bd 40f5 e4bc e396 2ebe
000000b0: bb38 cb3d 7ecc 4ebd e65f 04bd e057 2bbd
000000c0: 2bb4 3f3d b021 d3bd ccfd a1bc 17ad 833e
000000d0: 20ba f9bd 6eb9 e8bc d9e8 ebba 1953 9ebd
000000e0: e940 14bc 886b fbbd 2669 acbd 71d2 ed3c
000000f0: 9be6 f1bc 80bf 3b3a 70ba 6a3c d61f 71bc
00000100: 9abf 493d d2d9 713b 5bdd 98bc 693e 01bd
00000110: c078 ee3c 11ae 01be a778 d2bd 29d6 36bd
00000120: e71e 623c 34be d3bd 8032 b63d 671e b63c
00000130: 6a25 5bbd be01 f03b 4e42 9cbd f0e9 8abc
00000140: 8269 efbd 46cc 9d3d b8a7 393d cc1e 8abd
00000150: a30a 09bc 5662 17bd 763f 20bd b07a abbb
00000160: f262 22bd 2dc4 c1bc dc91 6cbd 602c 103c
00000170: b1ad 10bd 207d 8cbb 6a2e 08be 497e ce3d
00000180: 0015 143a 4745 543c 204a b5bd 529d da3d
00000190: c688 a7bd cf8f 60bd 284b 7e3c 67af 03bc
000001a0: 6a34 a6bd 2ccf ecbc 4183 c33d 5854 9bbd
000001b0: 358d cebc 6acb 45bd 5854 5abd 0036 c6b9
000001c0: 2de2 65bd 8702 babc b473 97bd 65b8 aebd
000001d0: 2cf5 d53c bc21 c7bc fc46 a0bc 4d9e b4bd
000001e0: 3b78 30bd a7fa 833c 20d6 aebb e80d a0bc
000001f0: 18cc 6b3d fcc1 12bd 373e ebbb ead4 f5bd
00000200: b455 66bd 0448 09bc 5f8a 63bc 1a48 56bc
00000210: 5b14 9b3c 2460 933c 9fb8 e9bd 70e9 bc3b
00000220: c838 02bd fca6 333d e974 aabc aeb8 77bd
00000230: adc1 efbd 7ad3 5e3c c9b1 c5bd 8c6d 23be
00000240: 4e5c eebc 3089 6fbd 1a30 ebbc 0073 b439
00000250: eff9 1abd 17e7 a2bd 1d48 6dbc b5b7 c3bc
00000260: 3aff 32bd e8c3 52bd 8088 62bb 5307 47bd
00000270: 20dc 03bd 31fd 86bd 7bf7 d9bd aa58 87bd
00000280: d0fc 78bd 428b d6bd fa19 f1bc 5d33 75bc
00000290: dc15 a9bd 4dcd f93d a4c9 d9bd 352e 19be
000002a0: 04cd cbbd e29f 3d3d a1cb b7bd a38b cebd
000002b0: a969 063d 0a2e 73bc afc3 debd 0249 76bd
000002c0: 36d3 79bd 02f6 6cbd d86d 02bd bf3c 75bd
000002d0: d016 983b 0133 fbbd 301a 1dbd 8803 4bbd
000002e0: 903a 29bc c150 f3bd 0a01 1dbc e0e0 b93c
000002f0: de81 5fbd 33b2 9f3c 84f7 123e 5c95 dabd
00000300: 2ee5 2a3d dcdd 3cbd 34e4 ac3c a73d 93bd
00000310: 5657 10ba 0d35 9fbd 0a10 13bd 2a74 32bc
00000320: eabe b6bd 08e3 3cbc 3b7b c2bd 0cce b13d
00000330: 10f9 1ebd e114 103c dac9 0bbd 6b14 c5bd
00000340: b433 b7bd 49bc 87bd 18ac 953b 68c4 e9bc
00000350: 70d3 643d 6f3d 92bd 012b 5bbd 26f1 83bc
00000360: a99d dabd 0a51 29bd b916 00bd 334b 94bc
00000370: a0ef ccbc a2dd aa3c ba65 abbd e3ae 52bd
00000380: ba36 353c e7c2 cbbd ab8d d1bd 70be 2abd
00000390: 4c30 20bd 1c35 d3bd 32f4 66bd ac10 343d
000003a0: 77a5 85bd 9ed9 f93c 05a0 55bc 3e8f 09bd
000003b0: d95b 6abd b003 23bd 9cbb 13bd f86b 88bc
000003c0: ea8a 513d d9b5 b1bd 2c92 89bc d4bf 06bd
000003d0: 709f 43bc 5be5 e1bd ee0c 14bd b2d4 54bd
000003e0: 6032 693d 6390 5dbd 4bb6 20bb 5e2a 78bd
000003f0: 0344 8bbd e963 fdbc 720b 553c 42ec 95bc

fc3.weight f4 [256, 256]
-0.080265276 -0.0105930045 -0.060694914 -0.01221048 -0.1128306 -0.047529414 -0.09754872 0.043487426
-0.06644404 -0.056271885 -0.02373448 -0.015909806 0.024565043 -0.023690196 -0.10551467 -0.038726114
0.0339849 0.06905764 -0.09848082 -0.07074553 0.02154354 -0.010219077 0.05701615 0.041738376
-0.035600606 -0.09588546 0.052899845 -0.060811587 0.008354433 -0.07315434 0.071104616 -0.05642335
0.056246087 0.07636745 -0.076250225 -0.105209075 -0.10433255 -0.01280106 0.031604342 0.012129433
0.060367018 0.08147239 0.008120637 0.001422748 -0.06356226 -0.045332726 -0.056606293 0.03986405
-0.030404612 0.053978927 0.0016703084 -0.08156142 -0.04995764 0.073370405 -0.046031825 -0.035489354
0.007128266 0.036651425 -0.019637799 -0.042379458 0.015370642 -0.00450252 0.016142704 -0.12351225
0.036010645 -0.088284254 0.11916565 -0.021663377 0.047404334 -0.044315733 -0.11093502 -0.01943812
-0.009669544 -0.10920523 -0.08707485 -0.046093784 0.106361926 -0.041865624 -0.067977294 -0.07688315
0.047176704 -0.026646284 -0.046408474 -0.017118938 -0.0649158 -0.025361381 -0.010778145 0.030739345
-0.05151526 -0.040314548 -0.11555949 0.04060997 -0.03339003 -0.029447146 -0.011692449 0.004292673
0.012848079 -0.006518076 0.016111076 -0.009664722 0.002827044 -0.08430635 -0.027614526 -0.075093165
-0.00017124647 -0.11947726 -0.022349322 0.048898824 -0.05545433 -0.06855449 0.030829936 -0.055618867
-0.09422725 -0.06094339 0.10796525 0.069361955 0.027486123 -0.029592007 -0.03484736 -0.005764325
-0.11490277 -0.13183874 0.03262595 0.104586385 0.048789427 0.016942851 -0.0006708428 0.11476122
-0.011363241 -0.07794434 -0.030395241 0.006987777 -0.06747529 -0.075405106 -0.013812897 -0.079752535
-0.058946997 -0.13624716 -0.096943304 0.024334624 -0.09701362 -0.090985484 -0.0014555212 0.03500332
-0.01216726 -0.07019333 -0.1455654 -0.01859603 -0.021881595 -0.050619945 -0.06158382 -0.048746146
0.08646941 -0.031914607 -0.05008126 -0.014207482 -0.0970533 -0.020318113 0.035780393 0.025433293
-0.006765403 -0.017872378 0.011597699 -0.00036223562 -0.013771341 0.029377148 0.08944396 0.046654887
0.05529056 -0.016217269 0.080082536 -0.0559481 -0.037566647 -0.08023853 -0.058389172 0.01657445
-0.075894386 0.0058204383 0.015785322 -0.071336634 -0.030879334 0.007518403 0.01662635 0.061564557
0.051320888 -0.06874247 -0.14728768 -0.046287302 -0.03634359 -0.09691357 0.026902257 -0.04444754
-0.015491471 -0.05214311 0.005537808 0.035852775 -0.12380386 -0.038608402 -0.0012751967 -0.08540627
-0.045609295 -0.0451269 -0.019068876 -0.03421607 0.01914741 -0.021916116 -0.086557716 0.040051457
0.024896994 -0.044494536 -0.102843165 0.0033194125 -0.05739799 0.028690664 0.01113809 -0.0933021
-0.03312787 -0.026053147 -0.08929046 0.07730591 0.0020225262 -0.124106385 -0.05975649 -0.048254807
-0.0063974573 0.005871837 0.0007051185 -0.00428997 -0.0007059089 -0.00640776 -0.04325272 -0.016445227
-0.07839804 -0.049247034 -0.015273615 -0.09034077 -0.07631574 0.051947594 0.020384058 -0.074454725
2.631545e-05 0.08760423 0.04872669 0.039526343 0.058638416 0.024982348 0.05840352 -0.07749339
-0.055859648 -0.04746277 -0.07872504 0.059656702 -0.06589204 -0.06384873 -0.0013021022 -0.100263014
00000000: 1f62 a4bd 488e 2dbc 3b9b 78bd 770e 48bc
00000010: bb13 e7bd 34ae 42bd a0c7 c7bd df1f 323d
00000020: d013 88bd 597d 66bd d06e c2bc 4855 82bc
00000030: a13c c93c f111 c2bc 1318 d8bd 469f 1ebd
00000040: c033 0b3d 186e 8d3d 50b0 c9bd 08e3 90bd
00000050: 147c b03c ea6d 27bc c489 693d dcf5 2a3d
00000060: f1d1 11bd 995f c4bd 82ad 583d 9215 79bd
00000070: 08e1 083c f1d1 95bd 4c9f 913d 2c1c 67bd
00000080: 4c62 663d 8a66 9c3d 1429 9cbd db77 d7bd
00000090: 4eac d5bd 8abb 51bc 8e73 013d 88ba 463c
000000a0: 6843 773d ffda a63d 6c0c 053c 807b ba3a
000000b0: ee2c 82bd cfae 39bd 00dc 67bd 7c48 233d
000000c0: 1813 f9bc 0219 5d3d 40ee da3a ac09 a7bd
000000d0: 62a0 4cbd 3943 963d de8b 3cbd 495d 11bd
000000e0: 3b94 e93b ce1f 163d 73df a0bc 1596 2dbd
000000f0: 25d5 7b3c e089 93bb b43d 843c fef3 fcbd
00000100: e67f 133d 60ce b4bd 1f0d f43d 6577 b1bc
00000110: 0c2b 423d 6a84 35bd e631 e3bd b13c 9fbc
00000120: 026d 1ebc fea6 dfbd 4d54 b2bd d6cc 3cbd
00000130: 48d4 d93d 4a7b 2bbd ae37 8bbd ea74 9dbd
00000140: 5c3c 413d 4f49 dabc d016 3ebd 043d 8cbc
00000150: 93f2 84bd acc2 cfbc d196 30bc 14d1 fb3c
00000160: aa01 53bd de20 25bd 74aa ecbd a456 263d
00000170: fcc3 08bd 243b f1bc b091 3fbc 8da9 8c3b
00000180: c080 523c 9695 d5bb 60fb 833c c858 1ebc
00000190: ee45 393b cfa8 acbd dc37 e2bc 72ca 99bd
000001a0: a090 33b9 7eb0 f4bd ed15 b7bc 224a 483d
000001b0: 1424 63bd 4c66 8cbd 108f fc3c 9cd0 63bd
000001c0: 37fa c0bd c79f 79bd e31c dd3d a40d 8e3d
000001d0: 942a e13c f06a f2bc 1bbc 0ebd aae2 bcbb
000001e0: 2552 ebbd bc00 07be caa2 053d 6331 d63d
000001f0: 6cd7 473d bccb 8a3c 80db 2fba ee07 eb3d
00000200: e32c 3abc 48a1 9fbd 71ff f8bc b9f9 e43b
00000210: 7c30 8abd fe6d 9abd 7d4f 62bc 4c55 a3bd
00000220: 6872 71bd 6084 0bbe 368a c6bd 6859 c73c
00000230: 14af c6bd 9956 babd 30c7 beba a45f 0f3d
00000240: 3059 47bc 85c1 8fbd 190f 15be b456 98bc
00000250: 0841 b3bc dc56 4fbd 513f 7cbd 0aaa 47bd
00000260: e016 b13d e4b8 02bd 0222 4dbd 80c6 68bc
00000270: e1c3 c6bd 2c72 a6bc 768e 123d 7b59 d03c
00000280: 50b0 ddbb 1869 92bc 4604 3e3c 71ea bdb9
00000290: 31a1 61bc 58a8 f03c 652e b73d 3219 3f3d
000002a0: 5b78 623d 14da 84bc 5002 a43d d629 65bd
000002b0: 7cdf 19bd 1954 a4bd 7c29 6fbd 24c7 873c
000002c0: 846e 9bbd 60b9 be3b 3850 813c f118 92bd
000002d0: a8f6 fcbc f05c f63b fc33 883c 1e2b 7c3d
000002e0: da35 523d dac8 8cbd 95d2 16be c197 3dbd
000002f0: 04dd 14bd 9f7a c6bd 1f62 dc3c a00e 36bd
00000300: f0cf 7dbc 0494 55bd 8076 b53b 5cda 123d
00000310: e18c fdbd d823 1ebd 8024 a7ba 7ce9 aebd
00000320: d0d0 3abd fcd6 38bd 5536 9cbc 2626 0cbd
00000330: 07db 9c3c 6d89 b3bc 2c45 b1bd ff0c 243d
00000340: c8f4 cb3c e73f 36bd 709f d2bd 808a 593b
00000350: 281a 6bbd af08 eb3c 897c 363c 2c15 bfbd
00000360: 17b1 07bd 696d d5bc ebdd b6bd 9052 9e3d
00000370: 5c8c 043b 7d2b febd 39c3 74bd d5a6 45bd
00000380: c3a1 d1bb 8a68 c03b b4d7 383a e092 8cbb
00000390: bf0c 39ba 30f8 d1bb c429 31bd 24b8 86bc
000003a0: 278f a0bd 42b7 49bd 2f3e 7abc 9504 b9bd
000003b0: 6d4b 9cbd 00c7 543d 78fc a63c b87b 98bd
000003c0: 00c0 dc37 d969 b33d a395 473d 60e6 213d
000003d0: d62e 703d c8a7 cc3c 8838 6f3d dbb4 9ebd
000003e0: 16cd 64bd 5268 42bd 983a a1bd 965a 743d
000003f0: 68f2 86bd 1fc3 82bd 4dab aaba b256 cdbd

fc3.bias f4 [256]
-0.075120986 -0.07113376 -0.015986709 -0.05849197 -0.008927484 0.26072437 -0.101577334 -0.038969394
-0.09751808 -0.094682254 -0.07804855 0.28432503 -0.09108784 -0.13778631 -0.000984538 -0.0626321
0.11571617 0.004658124 -0.10393663 -0.06791551 -0.05303915 -0.06839108 -0.07776123 -0.035014898
-0.05588604 -0.09499134 -0.012015698 0.23242977 -0.023394376 -0.10318211 -0.06461206 0.33890554
0.0077342917 0.0017834444 -0.01321539 0.1236677 0.21919346 -0.111594185 0.0026311579 -0.019036563
-0.070322454 0.026738992 -0.13765597 -0.019203253 -0.15004952 -0.04467705 0.07670742 -0.06174837
-0.015237719 -0.11335652 0.034697305 -0.0005469784 0.14625439 0.03276699 0.011056472 -0.01689367
-0.06828469 0.23468716 -0.044499937 -0.08161429 -0.082139045 -0.081410214 -0.09100437 -0.053382758
-0.0350515 0.00086895743 -0.013309895 -0.05627231 -0.049362034 -0.062419012 -0.05327722 -0.058888245
-0.005434746 0.031962063 -0.07184671 -0.040927652 -0.075103424 -0.020595957 -0.04284659 0.017025659
-0.04657947 -0.017259646 -0.088097885 -0.062294457 -0.04034691 -0.09587992 -0.111578226 -0.05438932
0.00015537399 -0.088986024 -0.041133594 -0.12906402 -0.019865435 -0.08056516 -0.010029693 -0.11933237
-0.11453443 0.08712257 -0.038430717 0.059887666 -0.022217333 -0.067563124 0.021685714 0.29373425
-0.03486269 0.039991487 0.07126032 -0.09487711 -0.06302977 0.00097446685 -0.12157395 0.0187974
-0.07854509 0.21677601 0.24840909 0.060419317 -0.046411905 -0.022672828 -0.0822336 0.06555381
-0.030210158 -0.03745524 -0.08778913 -0.112486735 -0.13889466 0.07473343 0.115299344 0.19732612
0.0146561 -0.021953182 -0.090217486 -0.025609076 0.084711894 -0.027419884 -0.13756071 0.020149916
-0.022809591 -0.0045682816 -0.09897992 -0.081028335 0.08944737 -0.07711244 -0.08221443 -0.12411667
0.032841284 -0.048263833 -0.06436098 -0.040216412 -0.033670463 0.0009875448 0.1756307 -0.07848831
0.2533901 -0.033480603 -0.017954864 -0.09323906 -0.009955567 0.08390034 0.08460726 -0.09946233
0.067096554 -0.020900495 -0.08794672 -0.034390718 0.118526116 0.041854378 0.18322755 -0.076676555
0.019992728 -0.05572544 -0.07197611 -0.0513044 -0.045622233 -0.13730587 0.24423452 0.05265721
0.011790623 0.02830615 -0.03575722 -0.019725766 0.118053965 -0.052946728 -0.098940454 -0.10986781
0.04552941 -0.083180375 -0.10979125 -0.03942208 0.27780163 -0.035527185 -0.06693779 0.10983028
-0.017432991 -0.049497303 0.11519991 -0.13922863 -0.02169035 -0.08177442 0.0466098 -0.017187005
0.004688425 0.15466073 -0.04876318 0.09619606 -0.00520703 -0.0444088 0.08910797 -0.08321929
-0.026472699 0.005195312 -0.044121668 0.15431619 0.2658327 -0.08478491 0.15412918 -0.05179678
-0.038999174 -0.07084563 -0.0014727954 -0.08435866 -0.07890854 -0.02439505 -0.09025508 -0.11720613
-0.10243859 0.079424076 -0.04066071 -0.14741085 0.05438292 -0.08471864 -0.026192863 -0.0031846885
0.034430128 -0.06573726 -0.055185556 -0.046329238 -0.020893002 -0.026847867 -0.124561645 -0.050839312
0.016291713 -0.07085514 -0.02862422 -0.06336248 -0.04664275 0.043991726 -0.043818187 0.024045147
-0.024225116 0.20142974 -0.09695009 0.08003585 0.0187417 0.1307999 0.19799341 -0.032415643
00000000: 08d9 99bd 94ae 91bd 8ff6 82bc 4795 6fbd
00000010: 9544 12bc aa7d 853e c707 d0bd 5f9e 1fbd
00000020: 8fb7 c7bd c5e8 c1bd ebd7 9fbd 0d93 913e
00000030: 438c babd db17 0dbe 9d0b 81ba 4245 80bd
00000040: 99fc ec3d 2da3 983b badc d4bd 4917 8bbd
00000050: 943f 59bd 9f10 8cbd 4841 9fbd c86b 0fbd
00000060: c3e8 64bd d28a c2bd 7ddd 44bc 1202 6e3e
00000070: 90a5 bfbc 2451 d3bd 5453 84bd 0785 ad3e
00000080: f16f fd3b 77c2 e93a 5d85 58bc 7e45 fd3d
00000090: 4074 603e 7e8b e4bd 816f 2c3b 91f2 9bbc
000000a0: 3805 90bd bb0b db3c b0f5 0cbe 2450 9dbc
000000b0: 95a6 19be 48ff 36bd c818 9d3d dceb 7cbd
000000c0: a0a7 79bc 7727 e8bd c31e 0e3d 1963 0fba
000000d0: b6c3 153e ae36 063d 3426 353c 9864 8abc
000000e0: d8d8 8bbd d551 703e 9145 36bd 6525 a7bd
000000f0: 8438 a8bd 66ba a6bd 8060 babd e1a7 5abd
00000100: 2992 0fbd bfca 633a bf11 5abc cb7d 66bd
00000110: d82f 4abd 14ab 7fbd 3739 5abd cd34 71bd
00000120: f415 b2bb a7ea 023d 5e24 93bd c1a3 27bd
00000130: d3cf 99bd dab8 a8bc e87f 2fbd 6579 8b3c
00000140: 1dca 3ebd 1a64 8dbc aa6c b4bd 7928 7fbd
00000150: cd42 25bd b15c c4bd 2083 e4bd 56c7 5ebd
00000160: e3eb 2239 4e3e b6bd b37b 28bd 5c29 04be
00000170: d6bc a2bc 59ff a4bd 9553 24bc 8864 f4bd
00000180: 0791 eabd 516d b23d 8769 1dbd c54c 753d
00000190: 2001 b6bc 895e 8abd 3da6 b13c 5664 963e
000001a0: 2ecc 0ebd 1dce 233d eef0 913d ee4e c2bd
000001b0: c115 81bd 5d73 7f3a c3fb f8bd 01fd 993c
000001c0: 40dc a0bd 88fa 5d3e f45e 7e3e 3f7a 773d
000001d0: 691a 3ebd 5ebc b9bc 176a a8bd 1341 863d
000001e0: 4b7b f7bc aa6a 19bd caca b3bd 725f e6bd
000001f0: 673a 0ebe d70d 993d 1022 ec3d dc0f 4a3e
00000200: 2420 703c 29d7 b3bc f2c3 b8bd 20ca d1bc
00000210: 6e7d ad3d aa9f e0bc b7dc 0cbe 7011 a53c
00000220: 2edb babc 86b1 95bb fcb5 cabd 2ff2 a5bd
00000230: 2f30 b73d 20ed 9dbd 0a60 a8bd e130 febd
00000240: 9584 063d 4cb0 45bd b1cf 83bd f7b9 24bd
00000250: 0aea 09bd 8170 813a 89d8 333e 7bbe a0bd
00000260: 59bc 813e f522 09bd 1416 93bc 1ff4 bebd
00000270: ad1c 23bc f1d3 ab3d 9246 ad3d e8b2 cbbd
00000280: eb69 893d 8437 abbc 691d b4bd 48dd 0cbd
00000290: d2bd f23d 7f6f 2b3d 01a0 3b3e 9908 9dbd
000002a0: cac7 a33c 5c40 64bd 3668 93bd 9024 52bd
000002b0: 61de 3abd e999 0cbe 9d18 7a3e 16af 573d
000002c0: 752d 413c 4de2 e73c 2a76 12bd ee97 a1bc
000002d0: 47c6 f13d abde 58bd 4ba1 cabd 6002 e1bd
000002e0: 0c7d 3a3d 795a aabd 3cda e0bd 0c79 21bd
000002f0: 043c 8e3e f484 11bd ae16 89bd b3ee e03d
00000300: a2cf 8ebc afbd 4abd eeed eb3d f391 0ebe
00000310: f6af b1bc 5979 a7bd ebe9 3e3d c3cb 8cbc
00000320: 5ca1 993b 625f 1e3e e6bb 47bd 7102 c53d
00000330: bc9f aabb 00e6 35bd 3d7e b63d e06e aabd
00000340: 46dd d8bc 703d aa3b ecb8 34bd 1005 1e3e
00000350: 391b 883e b6a3 adbd 0ad4 1d3e dc28 54bd
00000360: 99bd 1fbd 8317 91bd d00a c1ba 3cc4 acbd
00000370: cd9a a1bd 21d8 c7bc a8d7 b8bd c409 f0bd
00000380: 53cb d1bd 17a9 a23d d88b 26bd dff2 16be
00000390: a0c0 5e3d f780 adbd 6a92 d6bc 35b6 50bb
000003a0: 9b06 0d3d 42a1 86bd 400a 62bd bac3 3dbd
000003b0: cd27 abbc 0ff0 dbbc 2d1a ffbd e23c 50bd
000003c0: 3376 853c 801c 91bd 577d eabc 30c4 81bd
000003d0: 780c 3fbd ab30 343d b37a 33bd 54fa c43c
000003e0: c073 c6bc 9943 4e3e c58d c6bd d6e9 a33d
000003f0: 3288 993c 69f0 053e c9be 4a3e 44c6 04bd

classifier.weight f4 [16, 256]
0.09147849 0.056961805 -0.073998176 0.116083905 0.0039030476 -0.49292514 -0.060325533 0.019711493
-0.06810026 -0.018569501 -0.012363199 -0.49404302 -0.022545515 0.11952952 -0.17583463 -0.04319237
0.07886415 -0.09188398 0.03225032 0.1295696 -0.01730143 -0.012577394 -0.08911626 0.12477865
0.014527902 -0.027778141 0.09635534 -0.1618238 0.005221233 -0.007589657 -0.005841511 -0.4102238
0.053640828 -0.0060672523 0.06678653 0.06295105 -0.65394944 0.0994872 -0.1204557 0.09046718
-0.105045184 -0.07970869 -0.018823888 -0.11987008 0.026209453 -0.0006743468 -0.17631845 -0.09651879
0.0057482794 -0.078732505 0.05385655 -0.0012567079 -0.1705896 -0.02706584 0.021770805 0.10076049
-0.0023695386 -0.4912247 -0.06504323 0.0066187615 0.06029395 0.15202978 -0.046778798 0.034238793
-0.056562148 -0.060952738 -0.092159554 -0.017588131 -0.10041609 0.03433875 0.049504638 0.01810188
0.058772095 0.14012519 0.0026341924 -8.0277074e-05 -0.012621086 -0.026791813 -0.08434742 0.12828818
0.060782265 -0.028952697 0.092616856 -0.058489263 -0.0706558 -0.04306532 0.011993088 0.017931998
-0.06295164 0.0060295486 -0.009153551 0.09398381 -0.026283296 -0.10472446 0.0015892816 -0.04747866
-0.13094035 -0.14595369 0.0124943415 -0.094547436 -0.0016108678 -0.054625846 0.016925348 -0.28801033
-0.0016319711 0.10176047 -0.08747282 0.083172314 -0.009492641 -0.14118358 -0.06706962 -0.04522362
-0.05643369 -0.19242473 -0.15536396 -0.09781676 0.024412483 0.009957627 0.0118531715 -0.13642204
0.015414397 0.0097319605 -0.0035106295 0.097598016 0.02173937 -0.014384496 0.006311383 -0.06676547
-0.033917572 -0.05197493 -0.0045497 0.065582395 0.036538642 -0.0019687975 0.062198684 -0.080749415
-0.008496163 0.10077481 -0.04031206 0.02054994 0.11069561 -0.056346625 -0.08633499 0.020520275
0.025154103 0.029364845 -0.12243916 0.06760966 0.015497349 -0.114008665 -0.19803695 0.018278118
-0.40364584 0.046267528 -0.050888702 -0.075916804 0.030513788 0.0010747436 0.06428102 -0.047819775
-0.06651506 -0.13757293 -0.07779153 0.011174791 -0.15674564 0.074813806 0.042684656 -0.032777842
-0.069964215 0.05760073 -0.08958409 -0.025004387 0.068079725 0.14854059 -0.1143756 0.04991159
-0.13882127 -0.114367716 0.032540668 0.027103288 -0.042628996 -0.039739814 -0.1463321 -0.0028296665
0.047475956 0.143628 -0.006463674 -0.031214617 -0.22899574 0.013500495 -0.062753774 0.038017765
0.1001697 -0.024812339 0.09692472 -0.02031089 0.077979766 -0.007718637 -0.15624535 -0.0023622424
-0.061199486 -0.2691418 0.077390544 -0.09705498 0.055732824 -0.07303573 -0.14341989 -0.10495063
0.0437961 -0.009763204 -0.06686119 -0.16140021 -0.43734032 -0.08874535 -0.2655658 0.033241812
-0.06536149 -0.09318672 -0.13994773 0.0068299044 -0.029512066 -0.036679145 -0.06363183 -0.048294414
0.10786626 0.05977767 -0.074689545 0.13166444 -0.16592175 -0.074692234 -0.09369948 0.09596259
-0.045165032 0.053122606 0.0036929892 0.046493582 -0.07388922 0.0075888243 0.09959869 0.118041225
-0.123845495 -0.044200238 0.088138685 -0.0890909 0.044121224 -0.13739853 0.027097184 0.03339708
-0.056304555 -0.48684087 -0.068910465 -0.58453506 -0.087298326 -0.1551794 -0.19719498 0.023027143
00000000: 1359 bb3d c850 693d 5b8c 97bd 66bd ed3d
00000010: 46ca 7f3b af60 fcbe e817 77bd ff79 a13c
00000020: 2678 8bbd 111f 98bc 048f 4abc 35f3 fcbe
00000030: 5fb1 b8bc e5cb f43d fe0d 34be 7cea 30bd
00000040: 8783 a13d ab2d bcbd e918 043d e5ad 043e
00000050: bbbb 8dbc 6a11 4ebc 9682 b6bd f38b ff3d
00000060: 7006 6e3c fc8e e3bc f355 c53d 23b5 25be
00000070: e016 ab3b a8b2 f8bb 256a bfbb db08 d2be
00000080: 7cb6 5b3d cdcf c6bb 60c7 883d 7bec 803d
00000090: 3b69 27bf f2bf cb3d 7ab1 f6bd db46 b93d
000000a0: ee21 d7bd 4f3e a3bd 8e34 9abc 727e f5bd
000000b0: 35b5 d63c a6c6 30ba d38c 34be a5ab c5bd
000000c0: 105c bc3b 823e a1bd b098 5c3d 1fb8 a4ba
000000d0: 0aaf 2ebe 2eb9 ddbc b058 b23c 845b ce3d
000000e0: 434a 1bbb ce81 fbbe 6335 85bd 32e2 d83b
000000f0: caf6 763d b2ad 1b3e 209b 3fbd fa3d 0c3d
00000100: b6ad 67bd 94a9 79bd 26be bcbd fc14 90bc
00000110: f3a6 cdbd caa6 0c3d 60c5 4a3d 654a 943c
00000120: 02bb 703d fa7c 0f3e 6aa2 2c3b 6d5a a8b8
00000130: acc8 4ebc 817a dbbc 57be acbd fa5d 033e
00000140: d3f6 783d 352e edbc e8ad bd3d 7092 6fbd
00000150: fdb3 90bd 4365 30bd a87e 443c 20e6 923c
00000160: caec 80bd 8593 c53b c7f8 15bc 957a c03d
00000170: 1150 d7bc c779 d6bd 714f d03a fc78 42bd
00000180: 3a15 06be e274 15be 11b5 4c3c 16a2 c1bd
00000190: c123 d3ba 5abf 5fbd 07a7 8a3c 1776 93be
000001a0: dde7 d5ba cb67 d03d f324 b3bd 3f56 aa3d
000001b0: 0687 1bbc 6e92 10be cc5b 89bd 673c 39bd
000001c0: 0327 67bd fd0a 45be bb17 1fbe 2754 c8bd
000001d0: b0fc c73c 5125 233c ce33 423c 38b2 0bbe
000001e0: ab8c 7c3c cd72 1f3c 9712 66bb 78e1 c73d
000001f0: c316 b23c f3ac 6bbc b8cf ce3b 56bc 88bd
00000200: 27ed 0abd aae3 54bd a615 95bb 1050 863d
00000210: 8ba9 153d f106 01bb 0cc4 7e3d f35f a5bd
00000220: 7e33 0bbc 0663 ce3d 421e 25bd 5958 a83c
00000230: 61b4 e23d b8cb 66bd 66d0 b0bd 231a a83c
00000240: fa0f ce3c 8b8e f03c 62c1 fabd ef76 8a3d
00000250: 98e8 7d3c 607d e9bd 33ca 4abe febb 953c
00000260: abaa cebe 0583 3d3d ac70 50bd 457a 9bbd
00000270: 0df8 f93c 69de 8c3a c4a5 833d abde 43bd
00000280: 0c39 88bd ebdf 0cbe 2a51 9fbd 7816 373c
00000290: ee81 20be fb37 993d 1bd6 2e3d 0f42 06bd
000002a0: 6649 8fbd beee 6b3d dd77 b7bd 00d6 ccbc
000002b0: 626d 8b3d 061b 183e c13d eabd 1870 4c3d
000002c0: 2a27 0ebe 9f39 eabd 5d49 053d b707 de3c
000002d0: be9b 2ebd 37c6 22bd 15d8 15be ed71 39bb
000002e0: 2676 423d 3813 133e 3acd d3bb ccb5 ffbc
000002f0: dc7d 6abe 2e31 5d3c 0d85 80bd 84b8 1b3d
00000300: c625 cd3d 3f43 cbbc 7880 c63d 0663 a6bc
00000310: dbb3 9f3d 9fec fcbb c8fe 1fbe dacf 1abb
00000320: 50ac 7abd f4cc 89be ef7e 9e3d c3c4 c6bd
00000330: 1a48 643d c293 95bd aadc 12be 5bf0 d6bd
00000340: 8a63 333d d8f5 1fbc 85ee 88bd 1946 25be
00000350: 12eb dfbe 1fc0 b5bd 3ef8 87be 9128 083d
00000360: 3fdc 85bd aed8 bebd 754e 0fbe 64cd df3b
00000370: 4ac3 f1bc df3c 16bd 6851 82bd 5dd0 45bd
00000380: fce8 dc3d 6ed9 743d d5f6 98bd 0bd3 063e
00000390: 64e7 29be 3ef8 98bd 83e5 bfbd 0988 c43d
000003a0: f8fe 38bd 1797 593d 1406 723b 0e70 3e3d
000003b0: 3b53 97bd acab f83b 66fa cb3d 99bf f13d
000003c0: b5a2 fdbd 4f0b 35bd 0e82 b43d 4a75 b6bd
000003d0: 75b8 343d 33b2 0cbe eafa dd3c 60cb 083d
000003e0: 9b9f 66bd 3543 f9be ee20 8dbd 17a4 15bf
000003f0: 77c9 b2bd 59e7 1ebe 7bed 49be 6ba3 bc3c

classifier.bias f4 [16]
-0.11255667 -0.12012972 0.050161187 0.022502782 0.07877043 0.0072128903 0.058938913 0.060709596
0.08966896 0.009027704 0.086021006 -0.010737989 0.07087218 -0.03156857 -0.038199723 -0.050532967
00000000: 1d84 e6bd 9206 f6bd d175 4d3d c157 b83c
00000010: 6452 a13d 1c5a ec3b ee69 713d a0aa 783d
00000020: 5ca4 b73d efe8 133c c82b b03d 64ee 2fbc
00000030: 6f25 913d 0b4e 01bd 5077 1cbd a8fb 4ebd
