transfer18_34_04_22_10_10_FullyConnected.pth (torch, 550959 bytes, 8 tensors)

fc1.weight f4 [256, 4]
00000000: 4623 89be 9084 b1bd 0092 c73c 128e b9be
00000010: d042 c2be 1e2c d13e e08b 773e 789b dfbd
00000020: e451 c83e 5e8d ab3e 51da 973e fe2d a0be
00000030: e833 cc3e 604f 1b3f 31f5 fe3e adf6 6dbe
00000040: 53e4 cf3e c665 263d 0e8c a93e 2255 f2be
00000050: cc03 aabe 3b43 a43e 413e 903e 2733 653e
00000060: c502 e2bc d158 133f 987b 5c3e f5c8 e43e
00000070: f4ed c0be 1aff d4be 40fd b9bd 88cb b8be
00000080: 68b2 b73d 84a8 19be b8a6 fe3d 0078 843e
00000090: 9eb9 fe3e fee7 3f3e c974 193f 2c86 acbe
000000a0: 0c17 133f 593d adbd 0f85 0abe 86ba 1fbc
000000b0: b02c 88bd a03a 11be a007 abbe 2c7f 3bbe
000000c0: 7424 463e 57e3 68be c453 b73e e44a a63e
000000d0: 0104 e4be 5d34 c43e 678e 063f 7fd3 f4bd
000000e0: 3c4e 6d3e b954 033f 0387 0b3e 169f 993e
000000f0: 4195 5b3d 62b2 193f 7507 e43e 6d32 d13e
00000100: d3c4 50be 9c38 e33e 32ff ed3e f9c0 90be
00000110: 869c cebe 4369 043f cee4 bb3e f591 d9bc
00000120: 50b5 09be 4095 7f3c 00e4 0a3b b472 fdbe
00000130: 50a7 66bd 80e7 553d 1674 c7be a691 a0be
00000140: c493 693d a420 33bf 1444 24bf 19f1 94bd
00000150: f1e9 97be b9d7 15bf 702d 5e3e 363f c63e
00000160: 23ed 56bc 64b4 5fbd 44be cb3e 4901 b33e
00000170: 114e dc3d 6c48 44be a6cf 853e 5f77 e93d
00000180: 8d93 eb3e 40b7 9b3e d69c a7bc ca3f 11bf
00000190: 2020 133d d0ab db3d 44d5 d43e a0ff 5ebe
000001a0: d94f cfbd 3def d53e 5105 2c3e 5247 16be
000001b0: be5e ddbe b497 be3b 8744 033f 2886 cc3e
000001c0: e100 653e 953a f53e 6687 8d3d 62a5 e1be
000001d0: a1e5 753e c6bc 7abe 6729 02bf 68a5 82bc
000001e0: 242b 6f3d 55f5 f8be 671c 29bf 6d4b 803d
000001f0: 7b4d cebe 83f4 f0be 19f4 e1be ef93 87be
00000200: c0c8 5abc fa69 883e 42c7 a8be 48e9 eabd
00000210: 187c d0bd fb3b ebbe 4c3a 123e 737a b8bd
00000220: 5d13 eebe a044 963d f062 133f 64d6 3b3e
00000230: 24e7 f43e e203 00bf ef03 d3bd ec3f 10be
00000240: a8b7 013f f035 fbbe 95f7 313d d0ac b93e
00000250: 48e2 d9be 9b09 5b3e f17b 7e3e 2046 4fbd
00000260: 1cd3 983e 3cb0 cfbd 8451 dbbd 3e51 d83d
00000270: 0342 963e d3a6 1c3f 1157 1c3f 624b 03be
00000280: bb5a ddbe 3eb2 36bf fd18 3abf a36f ea3c
00000290: bb6b 933e 747b d0be 617e ef3d 6de3 6a3d
000002a0: 771c 49bc 4851 d3be c083 6ebe 259b fe3d
000002b0: 83bd bcbe b585 803e 56d7 d2bc 1558 abbe
000002c0: b804 c3be 62d3 fa3e 163a 8ebe d1c7 c33e
000002d0: b1e0 83be 2026 c43e 9c95 0a3f 6f6a f73e
000002e0: 5d31 a1bd faa6 933e 8fbc 0d3f fe58 2d3d
000002f0: 717d 1ebd 3c51 29bf b13c 7d3c 9e51 c53e
00000300: 1962 bebe 1206 ccbe 761e 69bd 96cb 523e
00000310: d368 543e 968c f2be 0dae 06bf 6234 7d3e
00000320: 0f4a 9fbe 9404 cfbe d3cf 35bf 1f80 a93e
00000330: eb45 fd3e 6a55 833e 7c82 093f 2baf 0cbe
00000340: e693 553e 16fd d1be 7fd3 1dbf a613 8bbe
00000350: cc3b c8be 04ee bfbd d9d7 68be 7d5d 79be
00000360: 407c 783d ba5e 97be 7aee c73e 9444 a6be
00000370: 5c02 fdbe f4ce a73e bc21 1c3e 18c9 d4bd
00000380: 6a65 00bc 3b3d eebe 53d2 533e 5d7a f03d
00000390: d88a 4ebe c05c 203d 9a15 e83e cc22 1dbe
000003a0: a0e9 893e 88df f7be a0a4 603e 280e 17be
000003b0: 7db0 aa3d 70fb 073f 76c9 70be 3ce8 5b3e
000003c0: e13f 953e 8499 10bf f975 19be 342c ae3e
000003d0: f00a e4be f852 9d3e d689 fb3e 64db 77be
000003e0: 2868 abbe 706e e5bd 6c01 23be 46d6 ecbe
000003f0: ec42 aabe 7c7e 143e d835 883e a85e a4be
-0.26784724 -0.086678624 0.02436161 -0.36241204 -0.379416 0.4085397 0.24174452 -0.10918325
0.39124978 0.33506292 0.2965875 -0.3128509 0.3988335 0.6066799 0.4979644 -0.2323863
0.40603885 0.040624402 0.33114666 -0.47330576 -0.33206022 0.32082543 0.28172496 0.22382794
-0.027589211 0.575574 0.21531522 0.44684568 -0.37681544 -0.41600877 -0.09081507 -0.36092782
0.08969575 -0.1500569 0.12434143 0.25872803 0.4975099 0.18740842 0.59943825 -0.33696115
0.5745704 -0.08458967 -0.1352732 -0.0097490605 -0.066491485 -0.1418252 -0.33404255 -0.18310231
0.19349843 -0.22742973 0.35806096 0.32479012 -0.44534305 0.383212 0.5256104 -0.11954402
0.23174375 0.5130115 0.13625722 0.30004185 0.053609136 0.60037816 0.4453694 0.40858784
-0.20387582 0.44379127 0.4648376 -0.28272226 -0.40353793 0.51723117 0.36698002 -0.026558856
-0.13448071 0.015599549 0.0021193027 -0.49501574 -0.056311905 0.05222273 -0.38955754 -0.3136112
0.057025686 -0.6997168 -0.6416638 -0.07272548 -0.2967067 -0.5853229 0.2169702 0.387201
-0.013118061 -0.054615393 0.397936 0.34961918 0.107570775 -0.19168252 0.26134986 0.11399721
0.4601101 0.30413246 -0.020460527 -0.5673796 0.03591931 0.1072613 0.4156896 -0.217772
-0.101226516 0.41784087 0.16798903 -0.14675644 -0.43236345 0.0058164243 0.5127644 0.39946103
0.22363617 0.47896257 0.06910591 -0.4407149 0.24013378 -0.24486074 -0.50844425 -0.015948012
0.05839075 -0.48624673 -0.66058964 0.06264386 -0.40293488 -0.47061548 -0.44131544 -0.26480052
-0.013353527 0.26643354 -0.32964522 -0.11470276 -0.10179919 -0.459442 0.14280051 -0.0900773
-0.46499148 0.07337308 0.5757284 0.18343502 0.47832596 -0.50005925 -0.10303485 -0.14086884
0.5067086 -0.4906459 0.043449003 0.36264658 -0.4255545 0.21390383 0.24851967 -0.050603986
0.29848564 -0.10141036 -0.10708907 0.10562371 0.29347238 0.61192054 0.6107035 -0.12821725
-0.43233284 -0.71365726 -0.7269438 0.028617686 0.2879313 -0.40719187 0.11694027 0.057345796
-0.012274853 -0.4127295 -0.23292446 0.12431935 -0.36863336 0.2510201 -0.025737446 -0.3346564
-0.38089538 0.48989397 -0.2777869 0.38238385 -0.25757363 0.38310337 0.54134536 0.4832339
-0.078707434 0.2883833 0.5536584 0.042321198 -0.03869385 -0.6613958 0.0154563645 0.3853883
-0.37184218 -0.3984838 -0.056913815 0.20585474 0.20743112 -0.47372884 -0.5260933 0.24727014
-0.3111119 -0.4043318 -0.7102024 0.3310556 0.49467406 0.25651103 0.5371473 -0.13738696
0.208572 -0.41013402 -0.6165084 -0.27163428 -0.3910812 -0.0937157 -0.2273859 -0.24352069
0.06066537 -0.29564458 0.3904913 -0.32474196 -0.49415863 0.3277508 0.15247244 -0.10389918
-0.007836679 -0.4653109 0.20685701 0.11742089 -0.20170152 0.039150953 0.4532898 -0.15345305
0.26936054 -0.48412728 0.219378 -0.14751494 0.08334444 0.5311804 -0.23514351 0.21475309
0.29150298 -0.56484246 -0.14986409 0.340181 -0.44539595 0.30727363 0.49128598 -0.24204785
-0.33477902 -0.11202705 -0.15918511 -0.46257228 -0.33254182 0.14501375 0.2660358 -0.32103467

fc1.bias f4 [256]
00000000: 5c79 513e d01b 2bbe 988d 3f3e 952a cebe
00000010: 1f58 1b3e 8493 9e3d f862 e03c e26e bdbe
00000020: 909c dfbe 3353 d43d 0ef7 39be a09c d5be
00000030: 4e4c 89be d64a f53e 8ee8 6e3d e35b bbbe
00000040: 1fd0 df3d 9f34 d13d 002d aa3c 38f9 8cbe
00000050: ebe0 763d d27a 61ba c24b b4be a285 ffbd
00000060: 327f 8c3e 346f d2be 8475 bd3d cea3 20bd
00000070: f838 8d3d 656c 323e ee51 d63e 59e7 d43e
00000080: 3c69 75be cee1 fd3d 45a1 b93d c0d4 3a3e
00000090: fd91 58be c6d8 5e3e c4ad b9bc d809 69be
000000a0: 8edf f53e b60f 163e 814d 90bc 85c1 7d3d
000000b0: 3abd c3bd 3e78 a4be 9125 3d3e f1c4 87bd
000000c0: 0694 d93d 9fc9 f9bd 287f a23e f587 573c
000000d0: 9e14 05bc 6034 be3e dabb c8be 28a1 43be
000000e0: a20e 003d 4056 6fbd 7e07 bcbe 286a efbe
000000f0: b0a4 38bc 54dc 56be 70a7 9d3d d425 56be
00000100: 9923 b0bd e4d8 56be 101e 59bd 8c08 373e
00000110: fee0 f5be 0453 9b3d 809c d13c ecd3 843d
00000120: 0856 6f3e ac66 c4bd e5f7 413c a9fb 4e3e
00000130: 1c33 89be cc4a 9a3c 7632 b53e a828 3dbe
00000140: 4528 973c acb9 1a3c a4a1 d0be bc60 e1be
00000150: 4eda 81be ecea 62be 4081 683e 1ac4 663e
00000160: 3b84 a73e 32b1 d7be 2f9c 6fbd 8c3a 3abe
00000170: b4d9 143e 2564 c33e a4a8 d1be 320d e1be
00000180: fdd2 983d 23b7 0ebe aaee 90be 1918 ba3a
00000190: a8e3 14be aa88 98be f03e 813c 4704 c83e
000001a0: 1ba1 8a3e bc7e c93e 64a1 80be 79f4 ad3e
000001b0: 8101 3b3e f532 c23c 7a4e c9be aaf9 6fbe
000001c0: 49ae 2d3e ecb9 b1be f425 a13e f977 02be
000001d0: 2a42 bcbe a289 223e b0bd b5bd 24b4 a13e
000001e0: 4883 863e b08a 16be 25a1 c93e a3ef a9bd
000001f0: 74fa 59be 69b6 00bc ee79 283e 705e 4d3d
00000200: 1648 143e 3c50 a33e 39df 73be eb57 f83d
00000210: 480e a03e f62a 40bd 5cec b33c 7fcd 733e
00000220: 5051 75bd 1cf9 73be 191f 413e 76e0 aa3d
00000230: 113c 503d b454 ebbe d80c a03c eee4 aabe
00000240: 2956 4abe e839 f83d 15f1 48be 6da4 d73e
00000250: 4838 8ebd 4dbd c73e 643b 573e cdf3 92bd
00000260: 9c2a bbbe c6c2 a6bd c0c2 c8be 700f 3eba
00000270: c0e8 59bc bdbe 5d3e 78f9 3abe e480 a9be
00000280: 9c6f 7ebe 122c 8dbe f90a 4b3d c831 8ebd
00000290: 487c 733e 1e16 bebe 1d58 e83d 10e0 203e
000002a0: 4cf2 9cbe c8dd 0cbc 1f9f ca3e e8b3 703e
000002b0: 312f 753e 80f5 c2be 40d5 ba3e 9adb f4be
000002c0: 8014 d0be f41e adbd 20c3 a3bd 6f0c 9f3d
000002d0: b2e7 c2be 7274 f4be c49d 08be 2f09 25be
000002e0: f42e ce3d aaad bc3d 7092 b6bd 4a01 0abe
000002f0: 32b3 25be 09b0 9b3e de9f b4be 271f dd3e
00000300: 45a5 863e ba0e 7b3e b807 44be 022d febe
00000310: e0d1 c43d 19d3 06be df2f 913d 9830 af3e
00000320: 17b3 4cbe b795 a8be 87c1 f73e ff4b ba3d
00000330: 2675 163e 9706 83be 3a66 92be 26bf 89be
00000340: c091 e0bc 3646 e7be 7dde 903e 61e2 5fbd
00000350: 97ec cd3e 5ceb 0f3e 9514 a0bd 041d 5cbe
00000360: 7c6e cfbe c008 c03c 6035 ba3d 8b59 d43e
00000370: 8400 6cbe a47d 803e 0051 403e 484b 3abd
00000380: 1ef8 c6be ec78 abbe 3a6f 8abe 5d75 3e3e
00000390: abaf 783e 7525 e23c f6e3 493d 8cdd bcbe
000003a0: 1015 823d b115 c93e b5e6 373e 664f 773e
000003b0: 80b8 f2be 6143 753e 6642 553e 4e4e a73e
000003c0: 2f58 763e 19ab 893e 7a6e 95be 04a6 92bd
000003d0: ab3f 5bbe ff57 8a3e 4be7 3c3e bdfb 01bf
000003e0: 447a 4fbe fb1b 1bbd 333a f63b 0d09 51be
000003f0: 6c5f 99be 4407 4cbe 98f1 b43d a70b 113e
0.20456451 -0.16709828 0.18706357 -0.40266863 0.15170334 0.0774298 0.027390942 -0.3699866
-0.43674135 0.103674315 -0.1816065 -0.41721058 -0.26816028 0.47908658 0.05832725 -0.36593542
0.10928368 0.10215115 0.02077341 -0.2753389 0.060273092 -0.00086013705 -0.3521405 -0.1247666
0.27440792 -0.41100466 0.0925093 -0.039218716 0.068956316 0.17424162 0.41859382 0.41582754
-0.23965925 0.123965845 0.09063963 0.1824522 -0.2114944 0.2176238 -0.022665866 -0.22757661
0.4802212 0.14654431 -0.017615082 0.061952133 -0.095575765 -0.32122988 0.18471362 -0.066293605
0.10623936 -0.12196659 0.31737638 0.013154973 -0.008122591 0.37149334 -0.3920582 -0.19104445
0.031263955 -0.058431864 -0.36724466 -0.46760678 -0.011269733 -0.20982486 0.07697952 -0.20912868
-0.0860054 -0.20981175 -0.053007185 0.17874354 -0.48023218 0.07584193 0.02558732 0.064857334
0.23372662 -0.095898956 0.011838888 0.20213188 -0.26796806 0.018834494 0.3539006 -0.1847254
0.01845182 0.009443682 -0.40748322 -0.44019115 -0.25361866 -0.22159928 0.22705555 0.22535744
0.3271807 -0.42127377 -0.058498558 -0.18186396 0.14536172 0.38162342 -0.40948975 -0.4395538
0.07462118 -0.13937049 -0.28307086 0.0014197855 -0.14539969 -0.29791766 0.015777081 0.39065763
0.2707604 0.39354503 -0.2512313 0.3397558 0.18262292 0.023705939 -0.39317685 -0.23435083
0.16961016 -0.3471216 0.31474268 -0.12741078 -0.3676923 0.15872815 -0.08874071 0.3158275
0.26272035 -0.14701343 0.39380756 -0.0829766 -0.21286947 -0.00785599 0.16452762 0.05013889
0.14480624 0.3189715 -0.23815621 0.12126144 0.31260896 -0.04691597 0.02196329 0.2380886
-0.059892 -0.23825496 0.18859519 0.08343594 0.050838534 -0.4596306 0.019537374 -0.33377784
-0.1975943 0.1212042 -0.19623215 0.42117634 -0.069443285 0.39011613 0.2101875 -0.071754076
-0.36555946 -0.08142619 -0.39211082 -0.0007250225 -0.013300121 0.21654792 -0.18259227 -0.33106148
-0.24847263 -0.27572685 0.04957101 -0.06943089 0.23777878 -0.3712625 0.11344931 0.15710473
-0.30653608 -0.008597799 0.39574525 0.23506129 0.23943783 -0.38077927 0.36490822 -0.47823793
-0.4064064 -0.084531695 -0.079962015 0.077660434 -0.38067394 -0.4774509 -0.13341433 -0.16116785
0.10067549 0.09212811 -0.089146495 -0.13477054 -0.16181639 0.30407742 -0.3527822 0.4318783
0.26297966 0.24517336 -0.1914357 -0.49643713 0.09610343 -0.13166465 0.07089209 0.34216762
-0.19990192 -0.32926723 0.48389837 0.09096526 0.14693126 -0.25590965 -0.28593618 -0.26903647
-0.027413249 -0.45170754 0.28294745 -0.05465925 0.40219566 0.14054626 -0.07816426 -0.21495444
-0.4051398 0.023441672 0.09092212 0.41474566 -0.23047072 0.25095856 0.18780899 -0.04548195
-0.38861173 -0.33490694 -0.27037984 0.18599458 0.24285762 0.027605752 0.049289666 -0.36887777
0.063516736 0.39274362 0.17959101 0.24151382 -0.47406387 0.23951484 0.2082611 0.3267693
0.24057077 0.2688835 -0.2918585 -0.07160571 -0.21411006 0.2702026 0.18447606 -0.5077475
-0.20261484 -0.03786848 0.007514262 -0.20413609 -0.29955614 -0.19924647 0.08835143 0.14164601

fc2.weight f4 [256, 256]
00000000: c4cb c83c f052 d4bc 221c 83bd 0d23 c3bc
00000010: bd15 aebd 59b2 39bd 7c44 2bbd 4887 4e3c
00000020: 0864 213d b97c 17bd 48f5 5d3d b662 47bd
00000030: 3182 72bd d478 c8bb 91aa 60bd 8127 dfbd
00000040: fec8 edbd afae 04bc 402d 76bb 3429 db3c
00000050: 1ed0 523d 1886 45bd 2ed5 86bd 171e 77bd
00000060: 1580 c6bd c430 f03c 7954 aebc 38e3 a8bd
00000070: 1f43 6abd 1b09 dabd 0a9e cfbc 9051 b43c
00000080: a400 37bd 6275 e4bd 00ac adbd 6377 d0bd
00000090: 635f 00bd dcc3 22bd f950 7dbd a2a7 1bbd
000000a0: 04ee 943d cc0f 94bd 1197 253c 2c15 78bd
000000b0: 35b3 36bc d6f4 48bd eec1 b0bb c4c3 2abd
000000c0: 7886 42bd 8045 bcba 9b10 6cbd 8d91 8ebd
000000d0: 9cf6 cd3c d46a c8bc 3278 1fbd 78ce 18bd
000000e0: 6c8e 8cbc 9a66 0dbd 7013 ccbc 922b 43bd
000000f0: 4e4f d6bd 6a5b 57bd 8cb3 14bd 10b8 653c
00000100: 0314 e8bd 309c d53b 24f9 debc f022 313d
00000110: 7ebf 51bd f06c c2bb 2682 01bd 6cd0 9bbd
00000120: 5038 163c b55a d6bd bfdc 21bd 3a94 4dbc
00000130: b0b2 683c 7757 77bd 96b9 e3bd 5cd3 ea3c
00000140: 606e babd b16b 31bd d091 ca3c 4092 6abd
00000150: d874 05bc a439 b0bd 4269 b6bd db7c 84bd
00000160: 1ab1 aebd 064f 753d 71e2 6fbd 6c5d e53c
00000170: ad9a 9abd 6f8a 4f3d 7012 be3b 90be ed3c
00000180: 85da 3bbc 6584 adbc 409a b53c 81e3 cabd
00000190: f25d 5ebd b6ca 68bd 19d7 d7bd 1447 83bd
000001a0: e506 e4bd f3a2 78bd 8139 dabd 074c babd
000001b0: 403c a4bd 004b 31bd e6fc 0d3d ebb1 f7bd
000001c0: 69ca 743c 600f 81bb fcd2 dbbc 10aa 81bd
000001d0: 9397 6dbc 34ec e2bc 408f 4c3b ca1a bfbc
000001e0: 4a77 82bd 107f 49bd 4bc2 36bc fa8e 99bc
000001f0: e021 d13c fcdd 7bbd 0050 073d b024 a8bb
00000200: f17d 8cbd 48ba debc bfaa 94bd 21ee 21bc
00000210: 662c c33d f37f c2bd b32b 8fbc c474 c1bb
00000220: a06b 50bd 9469 9fbc ec57 1fbd bb0f a03c
00000230: 2389 f2bd a0e6 593b f103 d8bd f8fd d5bc
00000240: 2c0e bfbc 53e5 b7bd d013 13bd fb8b c4b9
00000250: c7c5 43bd 4d52 24bc 1054 bc3b da2d 28bd
00000260: 4447 f03c ae36 45bc 3cf9 d83c 10d2 36bd
00000270: e209 153d bbaa a2bc d866 cb3c 4c72 c33c
00000280: 76f4 143d b0dd 7abc 4cb1 28bd ec17 e93c
00000290: 936c 90bd f8dc 4bbc 740d 8abc 2c85 a33d
000002a0: 5485 c7bc 75e4 f1bc 9d83 d9bc d98a 71bd
000002b0: 503d dbbb 8a97 1f3d 4c6e 90bd bc43 883c
000002c0: 54a5 623d 742b cdbd 10ab 42bc ff44 18bc
000002d0: 9609 02bd 3063 8c3b 09b5 acbd 9a7b 473d
000002e0: 5551 d2bd 0068 8cbb 1491 f23c 3873 de3c
000002f0: b7d7 a6bd 5ffc 36bd a6e7 77bd 3476 47bd
00000300: 1c3b c2bb 1503 f5bd bcbd d03c 1088 1c3c
00000310: 2196 d6bd 3abf ddbd cc40 debd 5a81 78bd
00000320: c5f6 e5bd dd93 f4bd 0ec0 e43d 774f b2bd
00000330: 3adf 68bd 524a 6bbd 7086 cbbc 2e61 70bd
00000340: 10e1 babc 0003 5fbd 7baf e9bd ceb6 4a3d
00000350: de4e b9bc e43e a23c 0291 81bc 1882 bebd
00000360: 8272 e5bd 0465 90bd 709d 4d3c 14ec a7bd
00000370: 4444 8ebc f4fe 52bd 2a70 a3bb f35f 51bc
00000380: 9c14 a93c 9036 143c d83c 71bc 4e70 6bbd
00000390: 6fd5 b63d 5948 a2bd 42f9 35bd 289d 4fbc
000003a0: d294 143d 4bba a5bd f7e5 d2bd 881d 293c
000003b0: 2314 dbbd 71ba 8bbd 4663 e2bd d596 10bd
000003c0: 456d d2bc 893f 69bd aa54 32bd 9c48 9abb
000003d0: 695a 19bc 2224 1ebd fb3d c7bc c236 92bc
000003e0: f4d9 dd3c 8bd9 3c3a 7ea7 753d 307f 10bd
000003f0: 1066 0abc 201d 093d 40e8 75bd b8be e4bd
0.024511226 -0.025918454 -0.0640185 -0.023820424 -0.0850024 -0.0453361 -0.04181336 0.012605496
0.039402038 -0.03698418 0.054188997 -0.048678122 -0.05920619 -0.0061179195 -0.054850165 -0.10896207
-0.11610602 -0.008098288 -0.0037563592 0.026753046 0.051468007 -0.048223585 -0.065836295 -0.06033143
-0.096923985 0.029320128 -0.021280514 -0.082464635 -0.057192918 -0.10646268 -0.025343914 0.022011548
-0.044678345 -0.111552015 -0.08480072 -0.10179021 -0.031340968 -0.039737567 -0.0618448 -0.038001664
0.072719604 -0.072295755 0.010106818 -0.060567066 -0.011151125 -0.04906162 -0.005394212 -0.041690603
-0.04749152 -0.0014363974 -0.057633024 -0.06961355 0.025142007 -0.024465002 -0.038932987 -0.03730628
-0.017157756 -0.034521677 -0.024911612 -0.047648974 -0.10464345 -0.052577414 -0.03630404 0.014020935
-0.11331942 0.006518863 -0.027218409 0.04324621 -0.05120801 -0.0059333965 -0.03161826 -0.07608113
0.009168699 -0.1046652 -0.03951716 -0.012547547 0.014202759 -0.060386147 -0.11119382 0.028665237
-0.091030836 -0.043315593 0.024727732 -0.05726838 -0.0081455335 -0.08604744 -0.08906795 -0.06469127
-0.08529873 0.059889816 -0.05856556 0.027998649 -0.07549033 0.05066913 0.0058005378 0.029021531
-0.011465673 -0.021181295 0.022168279 -0.09906674 -0.054288812 -0.056833945 -0.105390735 -0.064100415
-0.111341275 -0.060702275 -0.10655499 -0.09096532 -0.08019304 -0.043284416 0.03466501 -0.12094482
0.0149408365 -0.0039386004 -0.026834004 -0.06331265 -0.01450147 -0.027700521 0.0031213313 -0.023328204
-0.06370409 -0.049193442 -0.0111547215 -0.018744934 0.025528848 -0.061490998 0.03303528 -0.0051313266
-0.06859959 -0.027188435 -0.0725913 -0.0098834345 0.09529953 -0.094970606 -0.017476892 -0.005903812
-0.05088389 -0.019459523 -0.03890221 0.01953875 -0.11842563 0.0033249035 -0.10547627 -0.026122078
-0.023322187 -0.08979287 -0.035907567 -0.00037488327 -0.047796037 -0.010029388 0.0057473257 -0.041059352
0.029330857 -0.012036962 0.026486032 -0.044633925 0.036386378 -0.019856801 0.024829313 0.023858212
0.03636595 -0.0153116435 -0.04118471 0.02845379 -0.07051959 -0.01244282 -0.016852118 0.07984385
-0.024355568 -0.029527882 -0.026552016 -0.058970306 -0.0066906586 0.03896288 -0.070522875 0.01663386
0.05533345 -0.10018054 -0.011881605 -0.009293794 -0.031747423 0.004284285 -0.08432967 0.04870186
-0.10269419 -0.0042848587 0.029610194 0.02715455 -0.08146613 -0.044674274 -0.06052365 -0.04869671
-0.0059274565 -0.119634785 0.025481097 0.009553924 -0.104778536 -0.10827489 -0.10852203 -0.060670234
-0.11228708 -0.11942265 0.11169444 -0.08706563 -0.05685351 -0.057443924 -0.024844378 -0.058686428
-0.022812396 -0.05444622 -0.11410423 0.049490742 -0.022620615 0.01980538 -0.015816215 -0.09302157
-0.11203481 -0.07050517 0.012549743 -0.08199325 -0.017366536 -0.051512673 -0.004987736 -0.012779224
0.02063971 0.009046212 -0.014723979 -0.05748015 0.08927428 -0.079239555 -0.044427164 -0.012671746
0.03627474 -0.08092173 -0.102977686 0.010321982 -0.106972 -0.0682267 -0.11054091 -0.035300095
-0.02568687 -0.056945357 -0.043537773 -0.0047083627 -0.009359934 -0.038608678 -0.024321547 -0.017848376
0.027081467 0.0007204047 0.059974186 -0.035277545 -0.008447185 0.03347504 -0.060035944 -0.11169189

fc2.bias f4 [256]
00000000: f09f d2bd 1b29 3fba 9cca ccbc ded9 69bc
00000010: c187 20bd 2c29 47bd 6135 58bd 7ee7 efbd
00000020: 0781 d739 70ec 78bd f5f5 cbbd 897a bfbc
00000030: e3f7 b5bc b9f2 4cbd 78ad d5bc 85b1 bdbd
00000040: 4357 5dbd 800b 4abd bffb 0dbd 00e1 5abd
00000050: 6f5a c3bd 61b6 c83c 9148 a9bc 8d0f bfbd
00000060: d619 3d3d f036 7dbd 6768 6ebd 7ffa e0bd
00000070: 3a2d 89bd 8cb0 83bd 494c 96bd bcd2 eb3c
00000080: 4b6b a6bc 2ed2 fabc 47ae b6bd 918e 70bd
00000090: 85e1 bfbc ae28 c8bd f4b9 3a3d dc9c fd3d
000000a0: 2aa7 5cbd 223a a6bc a57d 2dbd 00bc c0bc
000000b0: d08f 4ebc 483f eebc 7d4c b63a 187b 36bd
000000c0: 94b4 bdbc b4da 1bbd 89dd c3bd ef9e 80bd
000000d0: 48dd 5b3c 9f79 96bd f101 0d3d 99d5 d9bd
000000e0: d5d2 05be 4f9d 98bd f1fc 57bd 5090 a9bd
000000f0: 4434 3d3d 96df c8bd 05b9 c8bd 2849 f13c
00000100: 4d93 a9bc 2426 4b3d 74c5 b8bd b44f 88bc
00000110: 08fa 52bc a3f0 72ba 663b 68bd 62ab a5bc
00000120: c456 e7bc 0279 24bd c8c1 d33c 80af 093b
00000130: 4539 22bd 08d2 55bc 3ea3 a63b 228f 6ebd
00000140: 80dc fdbc 721c 61bd 1624 1bbc 3fc5 d0bc
00000150: 5bfe 0dbe 6de5 ecbd 2ebe edbc 1580 d3bd
00000160: 8558 19bd 048e 8cbc edda adbd 8084 6b3a
00000170: 1806 bdbd a7cf f83d 77c7 26bd fb88 96bd
00000180: 6d82 843d 8a6b 52bd a0f3 51bc 1d5f 4dbd
00000190: 9566 89bc 12d2 953b 0a03 10bc 283c 97bd
000001a0: 65b9 1cbd ee98 b8bd 9919 2bbd 23b5 5dbd
000001b0: d00c af3c 8384 bebd b18c 4cbc f8d6 dd3c
000001c0: 4614 f7bc db07 39bd 21de 94bd 400d 61bd
000001d0: 6ae1 b3bd e4ed 3fba 394c d8bc e249 72bd
000001e0: ed17 74bd ad32 b3bc c0ce 1f3c 6979 f8bb
000001f0: a077 db3d 6c60 a5bd f078 e3bc 7449 82bb
00000200: ed4e 32bd 26b5 e9bb be9c 0fbd 74d4 513d
00000210: 0088 44bc 56b8 0bbd 5356 afbc 7fb3 82bd
00000220: 60eb f9bc ff85 a1bd 1368 3e3c 4f81 e2bc
00000230: 7cdb 5a3d 1c70 96bc db48 c4bd 80c4 99ba
00000240: a787 193c 626f 973d 1257 d1bd 42ce b03b
00000250: 7e6b 11bd 524c 9ebd 4ef6 2f3d 4a33 593a
00000260: eb53 e2bd 92a1 9fbb 26b8 50bd 07bb 8abd
00000270: 12fa 12be 241f 16bd 9acc 38bd 2c59 14bc
00000280: 5ed1 4abd 7c45 58bc 2fad 79bc faf5 cabd
00000290: 5abd 3abd 57ed 77bd f519 763e 446c 60bd
000002a0: d49e 3abd 143f 80bd b3ec 27bd a148 c53c
000002b0: 9049 2d3c f05f dbbd 38f3 b1bd eca2 b7bd
000002c0: 41ae 54ba 556d 3fbd 1808 743d 0a78 183e
000002d0: 9fe7 a1bd b3bb 5cbd 69f0 81bd 69a6 063d
000002e0: 3688 e5bd c956 abbc d442 ffbd 0f90 cdbd
000002f0: b060 cbbc dbd8 6dbc d5f8 67bc 5891 2cbc
00000300: 3301 c9bc f0c1 24bc 3666 92bc 6487 74bc
00000310: 964b 66bd b416 c1bc ed62 83bd 10b2 9c3c
00000320: d5fb 1bbc 0bdd 5bbd 2310 1cbd 80f9 30bd
00000330: 9c53 10be 0090 b038 3406 afbd c039 12bc
00000340: 40a9 5b3c 080f 72bd 95cb 0abe c497 45bd
00000350: 9aad 11be b42a f4bc f95a 85bd baa5 80bd
00000360: 6f6c e63d 97d4 65bc 1f1f d3bd a4f7 113d
00000370: b9a2 a0bc dfe5 bcbd c171 93bc 041d 70bd
00000380: a1f7 c9bd 2c7b f8bd 376a 5cbd 1be6 5d3b
00000390: 7295 9bbd 7359 b7bd 344f e9bc 7c7c c2bd
000003a0: 2891 0ebc 487a 07be d161 e5bd 6d6f cdbd
000003b0: 5a67 21bd a459 4abd c267 59bd 474f e8bd
000003c0: 14d2 893d 0163 ae3d b9d9 c2bd 18e8 dd3b
000003d0: d22c 73bd 6c71 8bbd f6aa f9bd 9023 f5bd
000003e0: 4957 71bd af31 6cbd 6144 b7bd 203d d6bd
000003f0: a91b 6bbd 2ed0 1a3c 50b2 c1bb ea52 0f3d
-0.10284412 -0.0007292197 -0.024998955 -0.014273135 -0.039191965 -0.04862325 -0.05278528 -0.117140755
0.00041104128 -0.06077236 -0.09959022 -0.023373859 -0.022212928 -0.050036166 -0.026083693 -0.09262375
-0.054038297 -0.049327374 -0.034663912 -0.053437233 -0.09538733 0.024501028 -0.020664485 -0.09329138
0.046167217 -0.06181997 -0.058205035 -0.10985278 -0.066980794 -0.06430158 -0.07338769 0.02878701
-0.020314833 -0.0306178 -0.089199595 -0.058729712 -0.023422966 -0.09773384 0.045587495 0.12383434
-0.053870358 -0.020291392 -0.042356152 -0.023527145 -0.01260753 -0.02908291 0.0013908293 -0.044550985
-0.023157395 -0.03805037 -0.09563739 -0.06280314 0.013419457 -0.07347416 0.03442568 -0.10636444
-0.13068707 -0.07451879 -0.052731458 -0.082794785 0.046192423 -0.09808271 -0.09800915 0.029453829
-0.020700121 0.04959692 -0.09022036 -0.016639568 -0.012876995 -0.0009267425 -0.05669727 -0.020223323
-0.028239615 -0.040154465 0.025849238 0.0021009147 -0.039605398 -0.013050564 0.005085378 -0.05824197
-0.030988932 -0.05495877 -0.009469053 -0.02548468 -0.1386656 -0.11567197 -0.029021349 -0.10327164
-0.037437934 -0.017157562 -0.084890224 0.00089842826 -0.09229678 0.121489815 -0.04071757 -0.07350346
0.06470189 -0.05137209 -0.012814432 -0.050139535 -0.016772548 0.0045721615 -0.008789787 -0.07384521
-0.038262744 -0.09013544 -0.04177246 -0.054127824 0.021368414 -0.09302618 -0.012484715 0.027080044
-0.030161034 -0.045173507 -0.0726893 -0.054944277 -0.08783229 -0.000732152 -0.026403533 -0.05915249
-0.05959313 -0.02187475 0.009753883 -0.0075828326 0.10716176 -0.08075032 -0.027767628 -0.0039760415
-0.0435323 -0.0071321903 -0.03506159 0.051228 -0.011995316 -0.034111343 -0.021403467 -0.063818924
-0.030507743 -0.07886886 0.011621493 -0.02764955 0.053431973 -0.018364005 -0.095842086 -0.0011731535
0.009370721 0.073942915 -0.102216855 0.0053956816 -0.035502903 -0.07729401 0.042959504 0.0008285536
-0.11051162 -0.0048715556 -0.050956868 -0.06773954 -0.14353207 -0.03665079 -0.045117 -0.009054463
-0.049516074 -0.01320016 -0.015239044 -0.099101976 -0.045590736 -0.06052908 0.2403334 -0.05479075
-0.045561627 -0.06262031 -0.04099722 0.024082484 0.010576621 -0.10711658 -0.086889684 -0.08966622
-0.0008113124 -0.046735127 0.05957803 0.14889541 -0.07905506 -0.05388994 -0.06344683 0.032873545
-0.11207621 -0.020915406 -0.12463918 -0.100372426 -0.024826378 -0.014517034 -0.014158447 -0.0105326995
-0.024536705 -0.010056004 -0.017871004 -0.014924858 -0.056224428 -0.023570396 -0.06415353 0.019127876
-0.009520491 -0.0536776 -0.038101327 -0.04320669 -0.14094394 8.419156e-05 -0.08546105 -0.0089249015
0.013407052 -0.059096366 -0.13554223 -0.048240438 -0.1422638 -0.029805519 -0.06511492 -0.0628161
0.11251151 -0.014027736 -0.1030867 0.03563656 -0.019608842 -0.09223532 -0.017998578 -0.05862142
-0.098616846 -0.12132868 -0.053812232 0.0033859077 -0.07596864 -0.08952608 -0.02848015 -0.094964
-0.0087016 -0.1323024 -0.112002976 -0.100310184 -0.039405204 -0.049401894 -0.053077467 -0.11343246
0.06729522 0.08514977 -0.095141836 0.0067720525 -0.059368916 -0.06808743 -0.12190811 -0.11969674
-0.058921132 -0.05766457 -0.08948589 -0.104608774 -0.057399426 0.009449048 -0.005911149 0.034991182

fc3.weight f4 [256, 256]
00000000: 948b f03d fc17 173e f578 4a3d 895b a2bb
00000010: 8399 6abb 74f2 b9bc 94ba cb3d a39d 23bc
00000020: f296 c03c 88b3 4f3d 7e5c cd3d 1ff9 6bbe
00000030: ea46 87bc ec57 c43d 60ce 9e3c 9817 f23d
00000040: f437 753d e4cc cb3a 5fba 3bbd 0b5e 443d
00000050: 5979 0d3d 6abe 623e 3c68 03be f848 bfbc
00000060: 9e6c 55bd ec69 773d 888b a8bd 4dbe 71bd
00000070: 50f3 413c b584 dd3d 45d2 873d ccbb 5c3d
00000080: d838 933c 2866 58bc 461f 1ebc 70c5 6fbc
00000090: 25be 173d 5025 04bb c8fc 703d 6216 3d3e
000000a0: 110c 3abd 3a8d 96ba 3c5a 933d c11e ddbd
000000b0: ce4b 2b3c ec2a dfbc bece eebc 9ecd 173b
000000c0: 07b0 87bd 0091 b73b 8ec2 f5bd c87e 873d
000000d0: 2d5b ec3c c373 463b fa58 a6bd 41df 193b
000000e0: da3b a9bd 1ebc 7abd 9297 453d 75b4 5abd
000000f0: 05c4 b1be 2cf1 ae3d 1dca cf3d 7449 353d
00000100: 8921 91bd a82a c5bc 16c4 b63d 69a5 62be
00000110: d622 66bd 42cc eebc 882a 78bd 9fef c4bd
00000120: 0071 393a f59b fa3d 609f 14bd 9417 ec3c
00000130: a6d6 06bc 68bc 1e3d 0d15 8abe 80d3 4e3c
00000140: e68b 83be c05e cbbc b2ff 723d 5100 49bc
00000150: a4fc 743d 1399 8f3d 9974 3fbe b164 8fbc
00000160: 3df4 823d 7571 93bb acbd 143d e085 673b
00000170: 1c6a 4abd 9349 47be deb8 e73d b45f ecbd
00000180: 68f0 31be b23e f53d 8493 f93c 89b7 54bd
00000190: 2cc3 ac3d c136 cabe ac03 d63d 0ce4 263d
000001a0: 3dd6 9bbd f9e3 c1bc c4ce 0d3c a565 98bb
000001b0: 247b 78bd 6f1c d33b 4d12 6c3c c865 6f3c
000001c0: ddf9 65be af1f ebbd 3a39 533d d960 50ba
000001d0: cb68 13bd a6a4 643d 94b8 de3d 9cad bb3d
000001e0: ccdb 1e3b 6610 10bd 80b5 d23c 0299 223d
000001f0: f8ff d7bc 7f9d ba3c 6589 8f3d 3892 933d
00000200: 4763 c5bc bd38 40bd 0c70 ee3c 8e2b 6bbd
00000210: 5c06 3a3d 8c6d 203d d7ee 6c3d fc40 ffba
00000220: 2cb9 b1bc f0bc 7e3c dc0b adbc 879f b83d
00000230: a198 8f3e d86d 143d 6acf ee3c 6a4a 3cbd
00000240: 35b2 823d dae0 873e 9b37 ddbd fb02 3bbd
00000250: f002 073c 6f41 41bc a0a3 323d 83b3 ccbc
00000260: 6878 00bd 6440 9a3d b8cc e23c bd93 2f3d
00000270: 267c 7c3d d8fd 87bc 5ac7 c23d 1544 d0bd
00000280: 0c7e bbbc fa82 563e 97a9 a0bb 9321 4dbd
00000290: d97d 063d c428 e13b 8697 353c d859 6bbc
000002a0: d2e0 8fbd 047a 8e3c 6a5a 39be 0c98 2fbd
000002b0: 8599 c7be 18e1 983d 73f4 3638 9e20 bc3c
000002c0: 8b05 0d3d a0e0 bebd b2c6 cebe dc36 f13b
000002d0: 24df 0e3d 6b42 d3bd 5e41 33be f554 67be
000002e0: 5968 ac3c 9599 4abe 6d71 cabd e000 073d
000002f0: 1b85 b13d c997 083d e7d1 cfba 2034 dbbc
00000300: 16e5 813d 2263 16bd ada1 03bd 982d a23d
00000310: 18b2 313c 938f efbc b1a6 2f3d 886c b73c
00000320: dd7d 9ebd 3761 aabd 4a49 57be 4fd6 0e3c
00000330: 112a 8abd 2ca6 933c 7dcb d1bd 87fe 5b3d
00000340: ac33 fe3c 2a2e 52be 4d19 8f3a 30ab bf3c
00000350: 6e29 c23d 7488 9d3c 52a3 a53c e04f 8d3b
00000360: 8478 553e a525 c2bd 4237 fab7 1cc6 c7bc
00000370: 5507 973c d826 41bd c0c0 c2bd f849 07bd
00000380: 4b31 49bc e433 cd3d a459 6fbd e079 053d
00000390: 6b31 763a 188d 123d 6672 3d3d 136a bd3d
000003a0: 70a1 b3bc 8517 2e3d 2d1e da3d 6c63 a9ba
000003b0: 8918 10bd f44b b23c 1e74 58bd 8bb2 dc3c
000003c0: 527b cdbe cd74 ae3d fb40 a93b 15a1 b93d
000003d0: 8098 493a 241b 83bc 48c0 6d3d cb19 08be
000003e0: 7eae 953c cc8a 6c3d 2695 973c 6f7d 513d
000003f0: 599f 2a3d 1966 61be dcf0 6d3d a04f 513d
0.117453724 0.14755243 0.04943176 -0.0049547595 -0.0035797067 -0.022698618 0.09947696 -0.009986314
0.023509476 0.050708324 0.10027407 -0.23044251 -0.016513307 0.09587082 0.019385517 0.118209064
0.059867814 0.0015548733 -0.045832034 0.04794125 0.034539554 0.2214295 -0.12832731 -0.023350224
-0.05210554 0.06040375 -0.082297385 -0.059019376 0.011837795 0.108163275 0.066319026 0.053890035
0.017971441 -0.01320795 -0.009651011 -0.014634475 0.03704657 -0.0020163842 0.05883482 0.1846557
-0.045421664 -0.0011486181 0.07194945 -0.107968815 0.010455085 -0.027242146 -0.029151317 0.002316333
-0.066253714 0.005602002 -0.11999999 0.066159785 0.02885207 0.0030281402 -0.0812244 0.0023479017
-0.08263369 -0.06121456 0.04824025 -0.053394753 -0.34719864 0.08542094 0.10145972 0.044259503
-0.070864744 -0.024068192 0.08924119 -0.22133411 -0.056185566 -0.029150132 -0.060587436 -0.096160166
0.0007074028 0.12236778 -0.036284804 0.028819837 -0.008229887 0.038753897 -0.26969185 0.012623668
-0.25692672 -0.024825454 0.05932588 -0.012268142 0.05981125 0.070116185 -0.18696822 -0.017504068
0.06394241 -0.004499609 0.036313698 0.0035327598 -0.0494176 -0.1946166 0.113145575 -0.115416914
-0.17376864 0.11974849 0.030465849 -0.051932845 0.084356636 -0.394949 0.10449919 0.040744826
-0.07609222 -0.023668276 0.008655254 -0.004650789 -0.06066431 0.0064425985 0.01440866 0.014611669
-0.22458597 -0.114806525 0.051568247 -0.0007949002 -0.03598861 0.055821083 0.10875049 0.09163973
0.0024239896 -0.03517189 0.025721312 0.0396967 -0.026367173 0.022780178 0.07008628 0.072056234
-0.02409519 -0.04692911 0.029106162 -0.057414584 0.04541622 0.039166972 0.057844963 -0.0019474323
-0.021694742 0.015547976 -0.021123819 0.090148024 0.28046134 0.036237568 0.029151637 -0.045969404
0.063816465 0.26538736 -0.108016215 -0.04565714 0.008240446 -0.011795386 0.043613076 -0.024987942
-0.03136483 0.07531813 0.027685508 0.042865504 0.061641835 -0.016600534 0.095106795 -0.101692356
-0.022887252 0.20948401 -0.004903029 -0.050080847 0.03283486 0.0068713147 0.011083489 -0.014364682
-0.07025303 0.017392166 -0.18100896 -0.042869613 -0.38984314 0.07464808 4.3619842e-05 0.022964772
0.034429114 -0.093201876 -0.40385967 0.007361276 0.034880772 -0.103154026 -0.17505404 -0.22591002
0.02104585 -0.1978515 -0.098849155 0.03295982 0.08667966 0.03334788 -0.0015855402 -0.026758254
0.06342523 -0.036715634 -0.032136608 0.079188526 0.0108456835 -0.029243266 0.04288358 0.022390619
-0.0773885 -0.083193235 -0.21024051 0.008718087 -0.06746305 0.018023573 -0.102438904 0.053709533
0.031030498 -0.20525423 0.0010917574 0.023397058 0.09480558 0.019230105 0.020219479 0.0043125004
0.20846754 -0.094798364 -2.9828054e-05 -0.024386458 0.018436113 -0.047156185 -0.095094204 -0.033029526
-0.012279819 0.10019663 -0.058435097 0.032586932 0.0009391519 0.03577909 0.046251677 0.09248748
-0.021927565 0.0425029 0.10650287 -0.0012923307 -0.03517965 0.021764733 -0.052845113 0.026940605
-0.40133148 0.08518372 0.005165217 0.09063927 0.0007690266 -0.016004153 0.0580447 -0.13291089
0.01827168 0.057749555 0.018503737 0.051145013 0.041655872 -0.22011603 0.05809103 0.051101327

fc3.bias f4 [256]
00000000: 70d6 163e ad6a 8ebd eab3 303e 21a6 11be
00000010: 7845 a13a 5c37 5cbc 105c 67bd 48e2 8bbd
00000020: 70f5 0ebd 9614 ee3d 55ec 923c fbf3 9abd
00000030: c6ff e6bd 4daf ddbd 640c 3dbd 7e52 92bd
00000040: 1408 92bd c90a 39bd 6001 67bd 2057 ff3c
00000050: 7348 d8bd f7ab 323c 97c1 dbbd 5f15 263b
00000060: 08bb f1bd 15f3 653d 9c43 bebc c8f3 663d
00000070: b3a0 87bd d010 5fbb f0c6 953c 985a 09bc
00000080: 399c 6e3d 7ed5 db3c d24f d1bd 5937 bdbd
00000090: 5bac d9bd 3c4b 68bd 0ab7 01bc 8836 24ba
000000a0: a0c5 83bd 0fe7 05be bb72 83bd c841 e9bd
000000b0: 2bbd f6bd da35 4f3c 5a14 afbd 9e46 ccbd
000000c0: 4454 24be 1c27 e7bd 0ff4 f93d d240 3cbc
000000d0: e30c 72bd 1fc4 e6bd 4c2d b9bd 8766 e4bc
000000e0: a1ec 093e 5a13 44bb ea6a d2bb e0d5 c4bc
000000f0: 717b 8c3d e783 533e d86b 5cbd cb97 01bc
00000100: 0a21 23bd 82c6 14be 760d f0bd 9924 a6bc
00000110: e4a1 aebc 1dc7 463e ca7d 89bd caab 99bc
00000120: 852e f5bd a381 9cbd ccf8 6ebd 3ff7 2e3e
00000130: 36ca 17bd 3811 06bd 4322 233d 0b66 11bc
00000140: 1bc5 dabd 8589 2b3e c39e aebd 2730 8e3d
00000150: fcba 973d 993f eabd e138 06be 7285 513d
00000160: b6b2 ebbd 8db0 08bd a7e0 33bd 4e5a 2b3e
00000170: 5287 8a3e 3559 06be 6d30 2bbd 04bf 95bd
00000180: 599c bebd e4fd b0bd acd0 bebb b1a3 443e
00000190: c4d1 ad3e 0de1 1b3d c55c ed3b 2c5b 8bbd
000001a0: 2b26 39bc 5b03 2cbd 75fa 0dbe dc8d 97bc
000001b0: c7a9 abbc 192e 95bd 0d7b 8fbd 5c67 41bc
000001c0: d1c9 c9bd 61b3 f0bd 84c2 dfbd 1ed3 46bd
000001d0: 5b4d 47bd 0878 98bb 9eda b63a 91c4 8ebd
000001e0: 94af cebd b81c 4cbd 623e 0bbd 243e d53d
000001f0: 4a96 51bc ec0e b03e 309a c2bd 6b84 96bd
00000200: 45d9 6fbd f50b c4bd 9eef 85bd b1a8 a33d
00000210: c4a0 83bd 9f23 19bd 06bc 4dbd 6961 bdbd
00000220: 9593 bc3d 99ff 313e c445 f13b b1f3 cdbd
00000230: b4df 40bc 76fa 593e cc2d c0bd 08e2 1dbd
00000240: 9360 2c3d fdad 0c3e 63e5 cc3d ab3c 63bd
00000250: 961c 8fbd f518 4b3e f128 43bd e09b 32be
00000260: e6b3 a93a ee83 48bd 1ea4 1bbe 40d3 e73d
00000270: 291d 403e 0026 15bc 203c f3bc f784 9ebd
00000280: 72ae a83c ccc4 b7bd 560c 003e e593 84bd
00000290: 56d7 3f3e aebf 6cbd 134c 25bd e863 0a3e
000002a0: 607f 763e 388b cdbd 9f98 2cbe ef9d b8bd
000002b0: ec1c 28be dd17 443e 490a b53e bedb 223d
000002c0: 7c49 afbd feb2 81bc 3b62 debc c49d a1bd
000002d0: 64c3 0abe de0a cabd 911a b6bd a141 d2bd
000002e0: 54ae 0b3d 5671 cebd 2a15 54be 0721 be3d
000002f0: fcd8 05be 3941 2dbd 9ecb c3bd fdad eebd
00000300: 8c25 bebd 83b6 903e ebeb 0c3e 8cb2 c2bd
00000310: bf0d 65bd 33f5 673c cd53 a4bd 7c80 d6bd
00000320: c0a9 1f3e 6535 6cbd 2a1c 413e 6a8c 58bc
00000330: f874 2c3e 1b2a 493d d281 a4bd 9edd 82ba
00000340: 38a8 3e3e f050 36bd 8d53 25bc 1f91 c43d
00000350: fa62 66bd 72ea 13be bc41 30be 50aa 8abd
00000360: effa bebc bb85 aabd b355 89bd 51d7 393d
00000370: c791 233e 4c5a dfbd b6cd 3dbe d546 f3bd
00000380: 396e d3bd 08e4 34bd f1b8 a6bd 1c66 5abd
00000390: 6512 a6bd 5eed 8abd bfc9 7b3e a045 8f3c
000003a0: 2dfc 80bd 288d 0bbe fd73 33be 4422 363d
000003b0: c847 903e ea2b 3bbd 29f8 763d fd42 afbd
000003c0: 1f1c e9bd 6ed3 f23d cd33 8a3d 0ba5 a63e
000003d0: 7b77 dd3c a997 0fbe b53b 9cbd a8f8 3dbd
000003e0: ac93 37bd 92e2 08be 6906 a2bc 48e9 8abc
000003f0: 4856 dcbd 02fc febd f409 a13d 5310 38bd
0.14730239 -0.069539405 0.17256132 -0.1422353 0.0012304028 -0.013440933 -0.056484282 -0.06830269
-0.034902036 0.1162502 0.017934958 -0.07566067 -0.11279254 -0.108244516 -0.046154395 -0.071446404
-0.07130447 -0.0451763 -0.056397796 0.031169474 -0.105606936 0.010905257 -0.10730284 0.0025342328
-0.118032515 0.056140024 -0.023225598 0.05638483 -0.06622448 -0.003403712 0.018283337 -0.008383416
0.058254454 0.0268352 -0.10220303 -0.09239072 -0.10628577 -0.056712374 -0.007917175 -0.00062642293
-0.06434178 -0.13076423 -0.064183675 -0.113895 -0.120478 0.012647117 -0.08548804 -0.09974407
-0.1604777 -0.112867564 0.122047536 -0.011490064 -0.05909432 -0.11267876 -0.09041843 -0.02788092
0.13469173 -0.002991876 -0.0064214366 -0.024027765 0.06859482 0.20655786 -0.053813785 -0.007909725
-0.03982643 -0.1452885 -0.117213175 -0.020281123 -0.02131743 0.19411893 -0.067134455 -0.018758673
-0.119717635 -0.07641914 -0.05834274 0.17086504 -0.037058078 -0.032731265 0.039827596 -0.008874427
-0.10682126 0.16751678 -0.08526375 0.06942778 0.07408711 -0.114379115 -0.13107635 0.051152654
-0.11508696 -0.033371497 -0.043915417 0.16733667 0.27056366 -0.13119967 -0.04179423 -0.07311824
-0.09307165 -0.08642176 -0.0058232155 0.19203068 0.339491 0.038056422 0.007243725 -0.06804499
-0.011300604 -0.041995388 -0.13865073 -0.018500261 -0.02095498 -0.07284183 -0.07005892 -0.011804428
-0.098529465 -0.11752964 -0.10925773 -0.04854118 -0.048657756 -0.0046529807 0.0013950651 -0.06971086
-0.100920826 -0.049832076 -0.03399504 0.10412243 -0.012792179 0.34386384 -0.09502065 -0.073494755
-0.058556814 -0.09572593 -0.06539844 0.0799116 -0.06427148 -0.037387487 -0.05022814 -0.09247095
0.092078365 0.17382659 0.007363053 -0.10056246 -0.011772085 0.2128695 -0.09383735 -0.03854564
0.042084288 0.13738246 0.100046895 -0.05547778 -0.06987874 0.19833739 -0.047646467 -0.17442274
0.0012947291 -0.048953943 -0.15199324 0.113195896 0.18761124 -0.009103298 -0.029691756 -0.07740205
0.020590995 -0.08973083 0.12504706 -0.06473521 0.18734488 -0.057799987 -0.040355753 0.13514674
0.24072027 -0.100363195 -0.16855095 -0.090144984 -0.16417283 0.19149728 0.3535941 0.039760344
-0.08558938 -0.01583242 -0.02714645 -0.078914195 -0.13551098 -0.09865354 -0.08891786 -0.10266424
0.0341018 -0.10080211 -0.20711198 0.09283643 -0.13071054 -0.04229853 -0.09560321 -0.116542794
-0.09284505 0.28264245 0.1376187 -0.09506711 -0.055921312 0.014157581 -0.08023796 -0.10473725
0.15592098 -0.05766811 0.188584 -0.013217071 0.16841495 0.04911242 -0.08032574 -0.000998426
0.18618858 -0.04451078 -0.010090721 0.09597992 -0.056246735 -0.14444903 -0.17212576 -0.06770766
-0.023313014 -0.08326288 -0.06705799 0.045371357 0.15973578 -0.10905895 -0.18535504 -0.118787445
-0.10323758 -0.04416278 -0.081407435 -0.053320035 -0.08108977 -0.067835554 0.24588679 0.017489254
-0.06298099 -0.13628066 -0.17524715 0.044466272 0.28179765 -0.045696177 0.060295258 -0.08557699
-0.11382317 0.11856733 0.067481615 0.32547793 0.027034512 -0.14022698 -0.07628576 -0.046379715
-0.044818565 -0.1336768 -0.019778447 -0.01695694 -0.10758644 -0.124504104 0.078632265 -0.044937443

classifier.weight f4 [16, 256]
00000000: e457 0ebd 07ca bc3d 5898 82be df01 903b
00000010: 4856 21be f7a8 0ebd 8fcc 323d 9da7 563d
00000020: 9841 06bd 6a25 fe3c 7b95 643d 36dc ce3c
00000030: 5954 243d 06e5 883d 2256 84bc d971 a8bd
00000040: 3b0e 9abd e292 c33b 2d27 dabd c602 68be
00000050: 7866 ddbd b01a f83d ade7 e8bc 0a5c 5bbe
00000060: a820 d1bd d29c 71bd 5a38 85bb d429 083c
00000070: a885 573c ffbf 14bd 6e79 4dbd 2c42 5b3d
00000080: 06bf c1bb 4b1b 6b3d 1981 13be fa1e 04bd
00000090: e0d8 203d 43e4 c83d 3981 c33c f43a 38be
000000a0: 95cb ad3d f534 0fbd 7656 0c3d 47f3 9b3d
000000b0: f2dc 1abd e3b1 cb3d f3f1 ef3c 7626 113d
000000c0: 9c02 66ba dca2 77bb bec0 9abe 7e82 393c
000000d0: a5e4 f13d 4966 82bd 1cca e9ba a1b9 b93c
000000e0: e965 dd3b ecc0 e3bd 3935 1cbe 971b 5d3d
000000f0: 9744 df3c 779f 00be f1ec eb3d cb5a 0b3d
00000100: 1c77 a8bd 608e 62bb 9d81 2fbd 09b0 3a3d
00000110: 80de 793d e604 78bc 21e5 813c 61d1 11bd
00000120: 0e25 6a3d a6c7 13be 4567 1d3d 1fc3 a1be
00000130: b041 b4b9 6890 65bd c41c a33c 0636 9abc
00000140: ebd7 073e 9c78 64be bef0 e0bc 576b af3d
00000150: 8ff3 b93d 307f fc3c 0d73 81bd 91c3 d9bc
00000160: 070a 5a3d cb56 e5bd 4672 993d cac2 81be
00000170: e97d 29be 9fa3 3bbe be97 443d a948 98bd
00000180: c144 b4bc 55f0 5c3d d813 9ebd 7ebb 61be
00000190: c1cd ddbe 93de 32be 596d ea3c 58e8 acbd
000001a0: cbb7 21bd 516d 0d3e 3b8b 183e cbba 113c
000001b0: 08e1 e0ba 1d7f 3a3d 93a4 8b3d 766b a03d
000001c0: 067d 413d d1c9 bc3d 802c 9abd 7096 a43b
000001d0: 941d 2a3d 8167 da3c 7106 d03c b182 6f3c
000001e0: 1de8 6c3d 4a5d 7c3c 6581 873d 0cea 2dbe
000001f0: 0169 ce3c e49e 9abe b4f2 463d 8acb 823d
00000200: adb6 9c3c afd9 c63c 8efb 10bd 404e d23d
00000210: 9d49 8b3d a931 4d3d 9ccd 80bc e7e4 9c3d
00000220: 397f 7fbe ceed 63be 13bc 453c f5f0 da3b
00000230: 0288 2bbc 0fcd 39be 62c8 073d b927 20bd
00000240: dbf4 b13d 458a 80bc 016e 19be ca4a e23c
00000250: a39b a23d a21e 03bd 4294 153d 84e6 e0bd
00000260: 3733 853d 6b2f 333d db5e d23c 42dc 103d
00000270: aeb6 99be 0749 7c3c fc76 54bd d1a6 173d
00000280: 161d d33d 6fbd 01be a392 c8be 11bb 053d
00000290: 31d5 74be ad6c 8f3d 973c 96bd 658b 8fbe
000002a0: 5048 8fbe 15c9 8b3d 20fb b9bc 9efd c1bd
000002b0: 24d6 123d 3d9b 5bbe 9417 c2be f3e8 cebd
000002c0: 308f 9abd b884 273c 45f5 b8bc 6e07 b13c
000002d0: e6cd f0bd beca 373c 19da 38bd 1a05 193d
000002e0: 58df 963d e992 84bc e113 343d bae2 57bd
000002f0: d288 54bd 0741 c8bc d7fa c6bc 0ea5 453d
00000300: 6fb4 8d3d d889 70bd 896d 26be 5468 fb3c
00000310: 0be9 b9bd 1b46 a0be 975e 2dbd 4814 993d
00000320: fd38 5ebe c681 383d 3214 5ebe 1775 e23d
00000330: 8ee5 62bd 3bed f5bd 7bff d4bd e9ce bebd
00000340: 239c 5abe e560 dd3c 2a05 cebc d291 1cbd
00000350: 00dc a8b8 f919 f83c 70f0 bdbd 34c1 6f3d
00000360: 48b3 37bc e182 aebd 58da d0bc e3b3 12be
00000370: fda4 c4bd 1953 c5ba 1ea5 393d 9489 013d
00000380: 5131 2e3d 2674 a63d b46a 723c e33d e4bb
00000390: 4594 0dbb a0dc 27be a6c9 13bd 672d 11be
000003a0: e2db 62bd c8fd cd3d 73f3 b33c fa7b f8bc
000003b0: 7a22 88be 6a09 e43c b62f 493d 476e 89bd
000003c0: a9af 053d 671f 73be f948 92bc e0cb 2abf
000003d0: b58c e23d b567 803d 19ee 16be a9c3 e539
000003e0: 9caf 3e3d 039a 6b3d ab32 783d 65d5 593b
000003f0: 3cb6 8dbc 2c45 693c 50f8 2ebe bdfd adbd
-0.034751788 0.09218221 -0.25506854 0.0043947543 -0.1575557 -0.034829106 0.043652114 0.052405942
-0.0327774 0.0310237 0.05580662 0.02525149 0.040119503 0.06684308 -0.016154353 -0.0822484
-0.075222455 0.0059684375 -0.106520034 -0.22657308 -0.1081056 0.12114465 -0.028430784 -0.21421829
-0.10211307 -0.058987446 -0.0040655555 0.008310754 0.013154425 -0.036315914 -0.050164632 0.053529903
-0.0059126643 0.057399075 -0.14404716 -0.032256104 0.039269328 0.098091625 0.02386533 -0.17991239
0.08486096 -0.034962613 0.034262143 0.07614761 -0.037808366 0.099460386 0.029290175 0.03543707
-0.00087741925 -0.003778628 -0.30225176 0.011322616 0.118111886 -0.063671656 -0.0017836723 0.022671523
0.0067565334 -0.11120781 -0.15254678 0.05398139 0.027254386 -0.12560831 0.11519802 0.034022134
-0.08225843 -0.0034569725 -0.04284822 0.045578036 0.06100321 -0.015137887 0.015856327 -0.03560007
0.057164244 -0.14431629 0.038428564 -0.31594178 -0.00034381216 -0.05604592 0.019911177 -0.018824589
0.1326596 -0.22311634 -0.027458545 0.08565395 0.09079658 0.030822366 -0.06320772 -0.026582511
0.05323222 -0.11198195 0.07492499 -0.25343925 -0.16551937 -0.18324135 0.047996275 -0.07435734
-0.02200544 0.053940136 -0.07718629 -0.22044179 -0.4332104 -0.17467718 0.028616594 -0.084427536
-0.03948192 0.13811232 0.14896862 0.008894633 -0.0017156908 0.04553138 0.068184994 0.078329965
0.047238372 0.09218181 -0.07528019 0.0050228164 0.041532114 0.026660683 0.025393697 0.014618562
0.057838548 0.015403101 0.06616477 -0.16983813 0.025196554 -0.3019935 0.048571303 0.06386478
0.019130075 0.024273722 -0.03539615 0.10268831 0.0680115 0.050096188 -0.015723042 0.07660847
-0.24950875 -0.22258684 0.012068766 0.0066815563 -0.0104694385 -0.1814463 0.033150084 -0.039100382
0.086892806 -0.015690932 -0.1498337 0.027623553 0.079398416 -0.032011636 0.036518343 -0.10981467
0.06503909 0.043746393 0.025679996 0.035366304 -0.30022186 0.01539827 -0.051871285 0.037024323
0.10308282 -0.1266992 -0.39174375 0.032649104 -0.23909451 0.0700315 -0.07335775 -0.28036037
-0.27984858 0.06825463 -0.022702754 -0.09472202 0.03584875 -0.21445937 -0.37908614 -0.10103025
-0.07546842 0.010224514 -0.022577891 0.021609988 -0.11758022 0.011217771 -0.04512987 0.03735838
0.07366818 -0.016183333 0.04396427 -0.052706458 -0.051888295 -0.02444507 -0.024289532 0.04825311
0.069191806 -0.058725208 -0.16252722 0.030689396 -0.090776525 -0.31303486 -0.042326536 0.074745715
-0.21701427 0.045045637 -0.21687391 0.11057489 -0.0553947 -0.12008139 -0.104002915 -0.09316809
-0.21348624 0.027023742 -0.025148947 -0.038225003 -8.0518425e-05 0.030285822 -0.092743754 0.058533862
-0.011212178 -0.08521057 -0.02549474 -0.14326434 -0.096017815 -0.0015054672 0.045323484 0.031625345
0.0425275 0.08127622 0.014795948 -0.0069653853 -0.0021603268 -0.16392756 -0.03608098 -0.14177476
-0.055385478 0.100581706 0.021966672 -0.030332554 -0.26588804 0.02783652 0.049117766 -0.06710487
0.032638226 -0.23742448 -0.017857062 -0.6671734 0.11061994 0.062697805 -0.14739265 0.00043824062
0.046554193 0.057519924 0.060595196 0.0033238765 -0.01729881 0.014237683 -0.17086911 -0.08495662

classifier.bias f4 [16]
00000000: 4952 20be 7798 8fbd 4642 303d acfe 9fbc
00000010: 41be dc3d e2b8 f13b e315 3f3d 3a91 3b3c
00000020: 047f 50bb b407 333e d8c0 363e 3e73 c7bd
00000030: bfa5 883d d859 2bbd 52b8 fdbd 988e 3abd
-0.1565639 -0.07011502 0.043031953 -0.019530617 0.107784756 0.007376776 0.046651732 0.011448199
-0.0031813988 0.17483407 0.17847002 -0.097387776 0.066722386 -0.04183373 -0.12388672 -0.045546144
