transfer02_19_30_22_10_10_FullyConnected.pth (torch, 550959 bytes, 8 tensors)

fc1.weight f4 [256, 4]
0	0x3ee68ac5	0.45027748
1	0x3eb556e8	0.35417867
2	0x3d4ef87a	0.050529934
3	0xbefc794b	-0.4931129
4	0xbe10003c	-0.1406259
5	0x3e9631e0	0.29334927
6	0x3e8fe76e	0.28106254
7	0xbd120a80	-0.035654545
8	0xbcf6c9c5	-0.030125508
9	0x3e5de549	0.21669497
10	0xbe4438fc	-0.19162363
11	0x3db3cc99	0.08779258
12	0x3e064957	0.13113914
13	0x3ecd12b7	0.4005334
14	0x3e849073	0.25891456
15	0xbcbd4641	-0.023104789
16	0x3e89a06a	0.268802
17	0x3dcc01e3	0.09961297
18	0xbec8c950	-0.3921609
19	0x3e870c2e	0.2637648
20	0xbe939c6a	-0.28830272
21	0x3eb70060	0.35742474
22	0xbd92fb68	-0.07176858
23	0xbdd43ad0	-0.1036278
24	0xbeb64970	-0.35602903
25	0xbefe48e4	-0.49664986
26	0x3ee696ba	0.4503687
27	0xbe8fade0	-0.28062344
28	0xbe4e2d12	-0.2013438
29	0x3eac651d	0.33670893
30	0x3e3d2c50	0.18473935
31	0x3ef67a2b	0.48140082
32	0xbe5dde7c	-0.21666902
33	0x3d975c10	0.073906064
34	0xbe82e060	-0.2556181
35	0xbe813c16	-0.25241154
36	0xbec20be2	-0.3789969
37	0x3e3f5a5c	0.18686813
38	0x3e259f94	0.16174155
39	0x3c898a20	0.016789496
40	0x3ed3a4f4	0.41336787
41	0x3f052ade	0.52018535
42	0x3eaffca2	0.3437243
43	0x3bae7c04	0.0053248424
44	0xbebf5090	-0.37366152
45	0x3e0867c8	0.1332084
46	0xbc83d0c0	-0.01609075
47	0x3e8e4af4	0.2779156
48	0x3ebd5454	0.369784
49	0xbefaf554	-0.49015296
50	0x3ed54a31	0.41658166
51	0xbe6b9bba	-0.23008624
52	0x3e668168	0.22510302
53	0x3d3344c0	0.043766737
54	0x3e760e38	0.24028862
55	0xbe372e80	-0.17888832
56	0x3ae751b5	0.0017648252
57	0x3e9b6870	0.30353117
58	0x3f29ec44	0.6637614
59	0x3d222978	0.03959033
60	0x3eb93255	0.36171213
61	0x3da17359	0.07883329
62	0x3e6b6d3d	0.2299089
63	0x3e6dfaa7	0.23240148
64	0x3f046e99	0.5173126
65	0x3e3e10e2	0.18561128
66	0x3e451920	0.19247866
67	0xbe401151	-0.18756606
68	0xbe8f0786	-0.27935427
69	0x3df18dc0	0.11794615
70	0x3e23c7fc	0.15994257
71	0xbcade6a0	-0.021228135
72	0xbed263a8	-0.41091657
73	0xbf14dff7	-0.58154243
74	0xbed48144	-0.41504872
75	0xbb813572	-0.0039431388
76	0x3d42367e	0.04741525
77	0xbf43f3cf	-0.765439
78	0xbed489d1	-0.41511396
79	0x3ed12e5b	0.4085568
80	0x3e816987	0.25275823
81	0x3e9082de	0.28224844
82	0xbeb36a40	-0.35042
83	0x3e8c83fd	0.2744445
84	0xbe1fd07f	-0.15606879
85	0xbf283cfd	-0.6571806
86	0xbf192f19	-0.5983749
87	0x3ce71680	0.028208971
88	0xbe5a242c	-0.21302861
89	0xbeb7e94a	-0.35920173
90	0xbe871a3c	-0.26387203
91	0xbdd8caf8	-0.10585588
92	0xbd8c8b18	-0.068624675
93	0xbd2cfe90	-0.042234957
94	0xbebf56a2	-0.37370783
95	0x3e06c5c8	0.13161385
96	0xbedc8bdd	-0.43075457
97	0x3f212a39	0.6295505
98	0x3f25dda8	0.64791346
99	0x3ec95d40	0.39328957
100	0x3ebf3b8c	0.37350118
101	0xbe8436a2	-0.25822932
102	0x3ec6f1cc	0.3885635
103	0xbded8308	-0.11597258
104	0xbcd469df	-0.02592939
105	0x3d5572ce	0.05211144
106	0x3f202fd8	0.62573004
107	0x3d8fed94	0.07027736
108	0xbf02f4a6	-0.51154554
109	0xbe97f27d	-0.2967719
110	0x3ec4c7f5	0.38433805
111	0x3d6c500a	0.05769352
112	0x3d89af48	0.06722885
113	0xbed70d38	-0.42002273
114	0xbef11d4a	-0.47092658
115	0xbe57ed80	-0.21086693
116	0xbefaec68	-0.4900849
117	0x3ec7c3f8	0.390167
118	0xbeb3c2f8	-0.35109687
119	0xbe63d430	-0.22248912
120	0xbefb8712	-0.49126488
121	0x3d98e770	0.07466018
122	0x3e01cba0	0.12675333
123	0xbcce9520	-0.025217593
124	0xbeb806c8	-0.35942674
125	0x3f1e5fea	0.61865103
126	0x3e20ac8a	0.15690818
127	0x3e7699e7	0.24082147
128	0x3eddea53	0.43342838
129	0xbe1051ba	-0.14093676
130	0xbd4f4161	-0.05059946
131	0xbec54be6	-0.38534468
132	0x3eb02d92	0.34409767
133	0x3e458976	0.19290718
134	0x3d4ea043	0.050445806
135	0xbe60a8c2	-0.21939376
136	0xbea3ee38	-0.32017684
137	0x3f0625ea	0.524016
138	0xbe1f95cb	-0.15584485
139	0x3e1ee3da	0.15516606
140	0x3e4d2544	0.20033747
141	0x3e07b056	0.1325086
142	0xbeca86d3	-0.39555988
143	0x3db70923	0.089372896
144	0x3e84e691	0.25957158
145	0xbe486173	-0.19568424
146	0xbeae5e65	-0.34056392
147	0xbd443ef3	-0.047911596
148	0xbe06c05c	-0.13159317
149	0x3f073414	0.5281384
150	0xbe3566c8	-0.17714989
151	0x3eb800e9	0.35938194
152	0xbdd97250	-0.106175065
153	0x3e243e0c	0.16039294
154	0x3d1eecc0	0.0388
155	0xbe266a24	-0.16251427
156	0x3d92aca8	0.07161838
157	0xb9d5e800	-0.0004079938
158	0x3ef2b116	0.4740073
159	0xbee5d724	-0.44890702
160	0xbe9b2ba6	-0.3030674
161	0x3df01618	0.11722964
162	0xbcacfa80	-0.021115541
163	0x3e60574c	0.21908301
164	0x3e69095e	0.2275748
165	0xbc5a90d5	-0.013340195
166	0xbdd59a64	-0.10429838
167	0xbef1e96a	-0.47248393
168	0x3efc1346	0.49233454
169	0xbcae52c0	-0.021279693
170	0x3ea33d96	0.31882924
171	0xbe05299c	-0.13004154
172	0x3ef8cd17	0.4859397
173	0xbeebe288	-0.46071267
174	0xbf073b36	-0.52824724
175	0xbe4ed42e	-0.20198128
176	0x3d78a5e8	0.060705096
177	0xbe5e54e0	-0.21712065
178	0xbf15d681	-0.5853043
179	0x3ebf6034	0.37378085
180	0xbee7f3ba	-0.45303136
181	0x3ec804d9	0.39066198
182	0x3e23727d	0.15961643
183	0x3edaca71	0.42732576
184	0xbecd88bc	-0.40143383
185	0xbefe7460	-0.49698162
186	0x3ea9301c	0.33044517
187	0xbe91f074	-0.28503764
188	0xbd8752d5	-0.06607596
189	0x3ecb8e9a	0.39757234
190	0x3dadeb4f	0.08492147
191	0x3e0a325e	0.13495776
192	0xbef522e4	-0.47878182
193	0xbee1cee0	-0.44103146
194	0x3ee6b038	0.4505632
195	0xbee030ee	-0.4378733
196	0x3cb363c2	0.021898154
197	0x3c54a370	0.01297842
198	0x3e6f0c44	0.23344523
199	0x3ece6aed	0.40315953
200	0xbe057264	-0.13031918
201	0xbd35eac0	-0.04441333
202	0xbe19a2ac	-0.1500346
203	0xbe696df8	-0.22795856
204	0xbe161148	-0.1465503
205	0x3ed31b4e	0.4123177
206	0xbefdf460	-0.49600506
207	0xbee1daac	-0.44112146
208	0xbe9c153e	-0.30484957
209	0xbecf3a7c	-0.40474308
210	0xbedce743	-0.4314519
211	0x3e2d663e	0.16933534
212	0xbdd7d394	-0.10538402
213	0xbeb85705	-0.3600389
214	0x3e0df9a5	0.13864763
215	0x3e8878ef	0.26654765
216	0xbebeb5df	-0.37248132
217	0xbdd402cb	-0.10352095
218	0x3ef68784	0.48150265
219	0xbe27cc1a	-0.16386452
220	0xbe7c454e	-0.24635813
221	0xbe179a4f	-0.14804958
222	0xbec150e9	-0.37757042
223	0xbe3409f8	-0.17581928
224	0x3eb9d431	0.36294702
225	0xbeaeb64f	-0.34123465
226	0xbe73e025	-0.23815973
227	0xbcf9ef1a	-0.03050952
228	0xbec12590	-0.3772397
229	0xbe62f3ec	-0.22163361
230	0x3e8f803e	0.2802753
231	0x3e84c9fe	0.25935358
232	0xbefd9474	-0.49527323
233	0xbdac9448	-0.0842672
234	0x3d1e3040	0.038620234
235	0xbe10eb9c	-0.14152378
236	0x3f18e021	0.59716994
237	0xbf00d759	-0.50328594
238	0xbf185caf	-0.59516424
239	0x3e677028	0.22601378
240	0xbf021888	-0.5081868
241	0xbf185bf4	-0.5951531
242	0x3ddc77f5	0.107650675
243	0x3e800d1c	0.25010002
244	0xbeaa7891	-0.3329511
245	0xbe0a30f5	-0.13495238
246	0x3ddf4105	0.10901073
247	0x3eb82b46	0.35970515
248	0xbe88184e	-0.26581043
249	0x3db31c48	0.087456286
250	0x3efd7e7a	0.49510556
251	0x3de99bf0	0.11406696
252	0xbed6462c	-0.41850412
253	0xbf2ef49f	-0.6834201
254	0xbebfca3a	-0.37458974
255	0x3ea329e7	0.31867906

fc1.bias f4 [256]
0	0x3e399564	0.18123394
1	0xbed392de	-0.41322988
2	0x3e17f8e2	0.14841035
3	0x3e8f2097	0.27954552
4	0xbf0a81f8	-0.54104567
5	0xbe96b25c	-0.29432952
6	0xbedde0b2	-0.4333549
7	0xbe5c2245	-0.21497448
8	0xbe0227c8	-0.12710488
9	0xbe2639c0	-0.16232967
10	0xbe9eb980	-0.310009
11	0xbea76a24	-0.32698166
12	0xbea3c214	-0.31984007
13	0xbea44310	-0.32082415
14	0x3e711f04	0.23546988
15	0xbe4a7b9a	-0.19773713
16	0xbd4abe9a	-0.049498178
17	0xbe1e08a4	-0.15432984
18	0x3eb7b8f1	0.35883287
19	0xbe27eddd	-0.16399331
20	0xbf26f151	-0.6521197
21	0x3e876806	0.2644655
22	0xbe2a2a60	-0.16617727
23	0xbeda6e30	-0.4266219
24	0xbe50acbe	-0.20378396
25	0xbeebd7d6	-0.46063107
26	0x3c2420fd	0.010017631
27	0x3e1addc4	0.1512366
28	0xbeac84ac	-0.3369497
29	0xbe9f8c54	-0.3116175
30	0xbe90596c	-0.28193223
31	0x3eafe67c	0.34355533
32	0x3e2550a2	0.1614404
33	0x3eaef580	0.34171677
34	0x3e41facc	0.18943328
35	0x3e014a51	0.12626006
36	0x3dfdf0e5	0.123994626
37	0xbe371af9	-0.17881383
38	0xbde0b438	-0.10971874
39	0xbebf1dd8	-0.37327456
40	0xbed14774	-0.40874827
41	0x3e9395e6	0.288253
42	0xbedae8b2	-0.42755657
43	0x3eaec3cb	0.34133753
44	0xbdec3644	-0.11533788
45	0xbb839557	-0.0040156054
46	0xbe8215fe	-0.25407404
47	0x3e0bca9c	0.13651508
48	0x3e6fbe58	0.23412454
49	0xbf0877c5	-0.53307754
50	0x3d6c1600	0.05763817
51	0xbcf2da60	-0.029645145
52	0x3dc7ab8b	0.09749516
53	0x3e75b2b9	0.23993959
54	0x3e2c0768	0.167997
55	0x3e34f173	0.1767023
56	0x3e00dcc8	0.12584221
57	0xbd2ec760	-0.042670608
58	0x3e6c5874	0.23080617
59	0xbbf882ea	-0.0075839655
60	0x3e1823e8	0.14857447
61	0xbe7e19f0	-0.24814582
62	0xbece7184	-0.4032098
63	0x3e7e5542	0.24837211
64	0xbeb64895	-0.3560225
65	0xbb112ace	-0.0022150758
66	0x3dfcbe9e	0.12341045
67	0x3eaaaacd	0.33333436
68	0x3d9071be	0.070529446
69	0xbe3753c8	-0.17903054
70	0x3ddaed00	0.106897354
71	0xbd8d650d	-0.069040395
72	0xbe7a99dc	-0.24472755
73	0xbec8ffc4	-0.39257634
74	0x3ed233a9	0.4105504
75	0x3ccf176a	0.02527972
76	0x3ee91d7a	0.455303
77	0x3df8e150	0.1215235
78	0x3e98c92a	0.29840976
79	0x3e9c61c8	0.3054335
80	0xbe4325c8	-0.19057381
81	0x3e5877e6	0.21139488
82	0xbf01eba1	-0.50750166
83	0xbe8bdb08	-0.27315545
84	0x3ea61986	0.32441348
85	0x3ea38fe6	0.31945723
86	0x3d6a9550	0.0572713
87	0xbed0b83c	-0.4076556
88	0xbdf43ac8	-0.11925274
89	0x3e971330	0.29506826
90	0xbe00413a	-0.12524882
91	0x3daf0558	0.08545941
92	0x3eccacb7	0.3997552
93	0x3e8cdc88	0.27512002
94	0x3ef64edd	0.48107043
95	0x3e65bf86	0.22436342
96	0xbd9a8bf2	-0.07546224
97	0xbee4c56e	-0.44681877
98	0x3e23237f	0.1593151
99	0x3e8c5d00	0.27414703
100	0xbd794a00	-0.060861588
101	0x3e2ad445	0.16682537
102	0x3ed5f156	0.41785687
103	0x3e956335	0.2917725
104	0xbe19e35e	-0.1502814
105	0x3b2eed01	0.0026691558
106	0xbc87f46e	-0.016596045
107	0xbefd2335	-0.49440923
108	0xbe87f1e8	-0.26551747
109	0x3e9f32cb	0.3109344
110	0x3c30a0b6	0.010780504
111	0x3add08a6	0.0016863539
112	0xbeb3c74d	-0.35112992
113	0x3b027799	0.0019907712
114	0xbe9b80e6	-0.3037178
115	0x3cbbcab1	0.0229238
116	0x3e447152	0.19183853
117	0xbe03c008	-0.12866223
118	0xbe606634	-0.21913987
119	0xbeae4d86	-0.3404352
120	0xbe8e597a	-0.2780264
121	0xbebc481a	-0.3677376
122	0xbbe8c07b	-0.0071030236
123	0x3eb97e56	0.362292
124	0x3dfe4a27	0.12416487
125	0x3eae1620	0.34001255
126	0x3c9d3b1a	0.01919322
127	0x3e408a13	0.18802671
128	0x3e0b2744	0.13589197
129	0xbedee650	-0.4353509
130	0x3d90da72	0.07072915
131	0xbdefa638	-0.117016256
132	0x3e65c6d6	0.22439131
133	0x3e4b95af	0.19881319
134	0x3e0dd195	0.1384948
135	0x3e808d5d	0.25107852
136	0xbee949a8	-0.45564008
137	0x3d9ea559	0.07746381
138	0xbd7c14dd	-0.061543334
139	0xbee9e39b	-0.45681462
140	0xbd68434d	-0.056704808
141	0xbd3fee98	-0.0468584
142	0x3d321560	0.043477416
143	0xbe040c39	-0.12895288
144	0x3e376e8c	0.17913264
145	0xbeb707a0	-0.35748005
146	0xbe753d91	-0.23949267
147	0x3e829b8d	0.255093
148	0x3e35e3d3	0.1776269
149	0xbbce87c6	-0.0063028065
150	0xbd138c43	-0.036022436
151	0xbed36754	-0.4128977
152	0xbed9c9b0	-0.42536688
153	0xbed6a322	-0.41921335
154	0xbeaf87be	-0.3428325
155	0xbe793744	-0.24337488
156	0xbdb1c904	-0.08680919
157	0xbeae182d	-0.3400282
158	0xbe9ab396	-0.30215138
159	0x3e2975fa	0.1654891
160	0xbeed67f2	-0.46368366
161	0x3e34b3ff	0.17646788
162	0xbdc0aec0	-0.09408331
163	0xbec913ba	-0.39272863
164	0xbed799b2	-0.42109448
165	0x3ea16b6e	0.31527275
166	0xbe4e6bc6	-0.201583
167	0xbedb072b	-0.42778906
168	0xbe5ea057	-0.21740852
169	0x3e8d1264	0.27553093
170	0x3ef2af9b	0.473996
171	0xbe8d7454	-0.27627814
172	0xbe33dba3	-0.17564254
173	0x3e171d14	0.14757186
174	0x3e8de310	0.27712297
175	0xbde5d3bb	-0.11222025
176	0xbe0a2954	-0.13492328
177	0xbe27a537	-0.16371618
178	0x3e1d3947	0.15353881
179	0x3f0811ed	0.5315235
180	0x3db5df5a	0.088804916
181	0x3ce3f665	0.027827451
182	0x3ea6b04b	0.32556376
183	0xbcccdac0	-0.025006652
184	0x3dc356c8	0.095380366
185	0x3d1aaecb	0.03776435
186	0x3e0eab54	0.13932544
187	0xbec91b76	-0.39278764
188	0xbef95c77	-0.48703358
189	0xbf075e4d	-0.52878267
190	0x3e656db4	0.2240513
191	0x3e8d2b70	0.27572203
192	0x3e1c56ef	0.15267538
193	0x3da310b9	0.07962174
194	0x3cc56b53	0.024099028
195	0x3e7f7770	0.24947906
196	0xbe22b54f	-0.15889476
197	0x3e8842b1	0.26613382
198	0x3ecbe380	0.39822006
199	0xbe955022	-0.291627
200	0x3e8fb8d0	0.28070688
201	0xbe8e22d0	-0.27760935
202	0x3ebf12fd	0.37319174
203	0x3e125646	0.14290723
204	0x3e4b001e	0.19824263
205	0xbf0d5112	-0.5520183
206	0xbe075720	-0.1321683
207	0x3ebb1a9a	0.36543733
208	0x3ec70975	0.38874403
209	0x3ea28cc5	0.31748024
210	0x3c5b5e52	0.013389187
211	0xbe61df51	-0.22057845
212	0x3e463b49	0.19358553
213	0x3e7003ff	0.23439024
214	0xbe87647e	-0.26443857
215	0x3d923704	0.071394
216	0xbe6b7d94	-0.22997123
217	0x3e98e77f	0.29864118
218	0xbe2eeaf0	-0.17081809
219	0xbd96f7f8	-0.07371515
220	0xbedfd37e	-0.43716043
221	0xbddad0a0	-0.10684323
222	0xbd36a820	-0.04459393
223	0xbe964366	-0.29348296
224	0xbdf23148	-0.11825806
225	0x3e62bac6	0.22141561
226	0x3ba89386	0.0051445393
227	0xbe2b2097	-0.16711651
228	0x3d0305e1	0.03198803
229	0xbcef98ad	-0.029247606
230	0xbdb5b444	-0.088722736
231	0xbe79bdaa	-0.24388757
232	0xbe238362	-0.15968087
233	0xbaf60c7c	-0.0018772031
234	0x3e8aa36a	0.270778
235	0xbdbdf97f	-0.09276103
236	0xbe9b3380	-0.3031273
237	0xbe12e156	-0.14343771
238	0xbe8e1225	-0.27748218
239	0xbefea7e0	-0.49737453
240	0x3e826f99	0.25475767
241	0xbd80ebcd	-0.062949754
242	0xbed29138	-0.41126418
243	0xbef318a4	-0.47479737
244	0x3d0e8c4e	0.034801774
245	0x3d9d690a	0.0768605
246	0xbe75e6b4	-0.24013788
247	0x3dca0f70	0.09866226
248	0xbe65204d	-0.22375603
249	0x3eb63ca8	0.35593152
250	0x3e413fef	0.18872045
251	0x3e0a0d1a	0.1348156
252	0xbe4c4450	-0.19947934
253	0xbe39ccf3	-0.18144588
254	0x3eaf060b	0.34184298
255	0x3d0733a0	0.033008218

fc2.weight f4 [256, 256]
0	0xbd7fc0d2	-0.062439747
1	0xbcc34d4c	-0.023840569
2	0xb9ab5bbc	-0.0003268401
3	0xbd3fc360	-0.046817183
4	0xbd8c9933	-0.06865158
5	0xbd57e8e6	-0.052712344
6	0xbd385c8e	-0.045010142
7	0xbd411520	-0.047139287
8	0xbd515c00	-0.05111313
9	0xbd32d79a	-0.043662645
10	0xbdb3da8b	-0.08781918
11	0x3cd54200	0.026032448
12	0xbda2b33a	-0.07944341
13	0xbd729838	-0.0592272
14	0xbc82abe2	-0.0159511
15	0xbdd95bb9	-0.10613198
16	0xbbfb9c49	-0.0076785428
17	0x3d6e5aba	0.058191992
18	0xbdc1d4ad	-0.09464393
19	0xbd0224a1	-0.031773213
20	0xbda015b4	-0.078166395
21	0xbab77ee1	-0.0013999605
22	0xbd44bec4	-0.04803349
23	0x3cb887a0	0.022525609
24	0xbdbcd940	-0.09221125
25	0xbd7975d2	-0.060903378
26	0xbde1edb0	-0.110316634
27	0xbd58cea0	-0.052931428
28	0x3d67fe52	0.056639023
29	0x3ce1bcb8	0.027555808
30	0x3cc42828	0.02394493
31	0xbdee990b	-0.116502844
32	0xbc6d73d9	-0.014492952
33	0xbd40bbab	-0.047053974
34	0xbd0b5404	-0.03401567
35	0xbd59cc9d	-0.05317365
36	0xbd236239	-0.039888594
37	0xbd99ce94	-0.07510105
38	0xbd4e7784	-0.050406948
39	0x3c89a518	0.016802356
40	0xbcaf0838	-0.021366224
41	0xbd871fbe	-0.06597851
42	0x3c114ee8	0.00886891
43	0xbdbeac19	-0.09310169
44	0x39380448	0.00017549202
45	0xbbf08aa5	-0.0073407465
46	0xbcb57d50	-0.02215448
47	0xbcd062f6	-0.025437813
48	0x3ba184f0	0.0049291775
49	0xbd2afec5	-0.041746873
50	0x3cfec474	0.031099536
51	0xbc90ed90	-0.017691404
52	0xbd43d5a1	-0.047811154
53	0xbdac446a	-0.084114864
54	0xbb0c9452	-0.002145071
55	0xbdcb2317	-0.09918802
56	0xbcd2631c	-0.025682025
57	0xbd6de4d0	-0.05807954
58	0xbd2e3808	-0.042533904
59	0xbc4cb78c	-0.012494933
60	0xba5cc1d8	-0.0008421219
61	0x3d37813e	0.04480099
62	0xbd6a71dc	-0.05723749
63	0xb8cfecda	-9.914646e-05
64	0xbdcd8188	-0.10034472
65	0xbde10612	-0.10987486
66	0xbd80c981	-0.06288434
67	0xbd3b740a	-0.04576496
68	0xbcf91f98	-0.030410573
69	0xbd28b668	-0.04118958
70	0xbc96fc58	-0.018430874
71	0xbdcf7828	-0.1013034
72	0x3d52fb1a	0.051509
73	0x3ccd01a4	0.025025196
74	0xbcc176dd	-0.023616249
75	0xba3492da	-0.00068883377
76	0xbc33ff4b	-0.01098616
77	0xbd4439fe	-0.04790687
78	0xbd3f6146	-0.046723627
79	0xbddcccd0	-0.107812524
80	0xbc36d5c0	-0.01115936
81	0xbd4c0bb5	-0.049815852
82	0xbd5db24c	-0.054125115
83	0xbd355273	-0.044268083
84	0xbd97b98b	-0.074084364
85	0xbde4b908	-0.111681044
86	0x3d423ee6	0.047423266
87	0x3d200702	0.039069183
88	0xbacd57aa	-0.0015666385
89	0xbd11161e	-0.035421483
90	0xbddc1b39	-0.1074738
91	0xbd48a927	-0.04898944
92	0xbbd960eb	-0.006633868
93	0xbdc0c35f	-0.09412264
94	0xbd8b3a59	-0.06798238
95	0xbdebe04c	-0.115173906
96	0xbdd80cd6	-0.10549323
97	0xbde4d21b	-0.11172887
98	0xbc72c590	-0.01481761
99	0xbc2ee260	-0.010674089
100	0x3d48407a	0.048889615
101	0xbcc58a4f	-0.024113802
102	0xbd91fd35	-0.071283735
103	0xbd422ce9	-0.04740611
104	0xbde3f558	-0.1113078
105	0xbd267db8	-0.04064724
106	0xbd1bb041	-0.038009886
107	0xbd498a5a	-0.049204208
108	0xbce227d8	-0.02760689
109	0xbd94d3dc	-0.072669715
110	0xbad37d8e	-0.0016135441
111	0xbd962b8d	-0.073325254
112	0xbd19ea1b	-0.037576776
113	0x3d6d9966	0.05800762
114	0x3c809850	0.015697628
115	0xbdddd9fe	-0.10832594
116	0xbcb1da1f	-0.021710454
117	0x3d4b5fc6	0.049651884
118	0xbdb9147a	-0.09037109
119	0xbb8e8ff0	-0.004350655
120	0x3d798c56	0.06092485
121	0xbccd0944	-0.025028832
122	0xbd163c9b	-0.03667889
123	0xbd05259c	-0.03250657
124	0xbdca2cab	-0.09871801
125	0xbc5745ed	-0.01313923
126	0xbd60cbf9	-0.054882023
127	0xbc4403b4	-0.0119637735
128	0x3d37ef34	0.044905856
129	0xbd028d6c	-0.03187315
130	0xbdcc8633	-0.09986534
131	0xbce402dc	-0.027833395
132	0xbde8c325	-0.11365346
133	0xbd9d0b8b	-0.07668217
134	0x3d98d615	0.07462708
135	0xbd8a37d2	-0.06748928
136	0x3d4803bc	0.048831686
137	0xbd75a4cf	-0.059971627
138	0xbb8c9fc9	-0.004291509
139	0xbd846575	-0.06464664
140	0xbcdaaff5	-0.026695231
141	0xbd700b6b	-0.05860464
142	0xbd152120	-0.036408544
143	0xbda8316d	-0.08212552
144	0xbdc30a6c	-0.09523472
145	0x3d59ea36	0.053201877
146	0xbbdb1e39	-0.0066869524
147	0xbdd8ec07	-0.10591894
148	0xbde60cf2	-0.11232938
149	0xbdde5494	-0.10855976
150	0xbd8006bd	-0.06251285
151	0xbd741c14	-0.05959709
152	0xbcca0e00	-0.024664879
153	0xbd5a9d2e	-0.053372554
154	0xbdaabd67	-0.08336907
155	0x3d31d9e4	0.043420687
156	0x3cd53588	0.026026502
157	0xbd978637	-0.07398646
158	0xbdddefcd	-0.10836754
159	0xbd2a7079	-0.04161117
160	0x3c875ba0	0.016523182
161	0xbd82ac00	-0.06380463
162	0xbd4521c2	-0.048127897
163	0xbd136ee4	-0.035994425
164	0xbc7502eb	-0.014954309
165	0xbdf4ab61	-0.119467504
166	0xbce20755	-0.027591387
167	0xbdb94e31	-0.09048117
168	0xbdbf20bd	-0.09332416
169	0xbb497945	-0.0030742448
170	0xbdd39080	-0.103302956
171	0x3adce48e	0.0016852783
172	0xbdbf40ad	-0.09338508
173	0xbc3e1300	-0.01160121
174	0xbca2165d	-0.019786054
175	0xbb01c354	-0.0019800263
176	0x3ca1f554	0.019770302
177	0xbc19d623	-0.009389433
178	0xbdcbf6a7	-0.099591546
179	0xbcb1f298	-0.021722123
180	0xbd9c3949	-0.07628114
181	0xbcd4eb99	-0.025991248
182	0xbc31ecd3	-0.010859686
183	0xbce37ad0	-0.027768523
184	0x3c6e22a8	0.01453463
185	0xbdf58527	-0.119882874
186	0xbca48984	-0.020085104
187	0x3c2e5ce8	0.010642268
188	0xbd7eadfe	-0.06217765
189	0xbda24a94	-0.07924381
190	0xbd04886c	-0.032356665
191	0xbd5a0303	-0.05322553
192	0xbdc9675b	-0.098341666
193	0xbda39391	-0.079871304
194	0x3bb18dc0	0.0054185092
195	0x3d692af6	0.056925736
196	0xbddcbfe4	-0.10778788
197	0x3aa26499	0.00123896
198	0xbde6ff41	-0.112791546
199	0xbc8eece0	-0.017446935
200	0xbd197c62	-0.037472136
201	0xbd6aca30	-0.057321727
202	0xbde71380	-0.11283016
203	0xbdc31bf2	-0.095268145
204	0xbd4db5c3	-0.05022217
205	0xbd44e6a4	-0.04807152
206	0x3d46632e	0.04843443
207	0xbce9417c	-0.028473608
208	0xbdd67fc2	-0.104735866
209	0xbd406503	-0.046971332
210	0xbd084d36	-0.03327676
211	0xbca4ab13	-0.020101106
212	0xbc2cc78c	-0.010545623
213	0xbd854968	-0.06508142
214	0xbd47f4c5	-0.048817415
215	0x3a749370	0.0009329831
216	0xbd52570e	-0.051352553
217	0xbd818e43	-0.063259624
218	0xbdb3abc3	-0.08772995
219	0xbdd25796	-0.10270612
220	0xbacfce40	-0.0015854314
221	0xbdf72f36	-0.12069552
222	0xbd1f6d6e	-0.03892272
223	0xbd4e3936	-0.05034753
224	0xbd54a518	-0.05191526
225	0xbdb12d56	-0.08651225
226	0xbd9e20f1	-0.07721127
227	0xbdd9e8c1	-0.106400974
228	0xbcc40db2	-0.023932312
229	0xbd366542	-0.04453016
230	0xbdf193d8	-0.11795777
231	0xbdf69da3	-0.120417856
232	0xbc382e0d	-0.011241448
233	0xbd12931e	-0.035784833
234	0xbd9cc3aa	-0.076545075
235	0xbc0d68ca	-0.008630941
236	0xbdcfd594	-0.10148159
237	0xbdb13b55	-0.08653895
238	0xbdadc760	-0.084852934
239	0xbd077a56	-0.033075653
240	0xbbf7bc53	-0.007560292
241	0xbd6b8cc8	-0.057507306
242	0xbbe714b0	-0.0070520267
243	0xbd541124	-0.05177416
244	0xbd846aae	-0.0646566
245	0xbd717bd9	-0.058956
246	0x3d23f62e	0.040029697
247	0xbcbfab24	-0.023397036
248	0xbcb83bfe	-0.022489544
249	0xbd894022	-0.067016855
250	0xbd86a1af	-0.065738074
251	0xbc03372f	-0.008008762
252	0xbc82a860	-0.015949428
253	0xbdbf3aae	-0.09337364
254	0xbdcfdc0b	-0.10149392
255	0xbba53e40	-0.005042821

fc2.bias f4 [256]
0	0xba3ac475	-0.00071246113
1	0x3caca610	0.021075279
2	0x3e096769	0.13418354
3	0xbc969a2c	-0.018384062
4	0x3cc6af84	0.024253614
5	0x3c18cb18	0.009325765
6	0xba806cc0	-0.0009798035
7	0xbd523453	-0.05131943
8	0xbcc69420	-0.024240553
9	0xbba19930	-0.0049315915
10	0x3e3e3842	0.18576148
11	0xbdab68fa	-0.08369632
12	0xbd9b2eba	-0.07577272
13	0xbe04aa9b	-0.12955706
14	0xbd14f110	-0.036362708
15	0x3cb64a4c	0.022252224
16	0x3cad5dd9	0.021162914
17	0xbd442c2e	-0.047893696
18	0xbccf684c	-0.025318287
19	0xbde642bb	-0.112431966
20	0x3d95a074	0.07305995
21	0xbd79b079	-0.060959313
22	0x3c3ea07d	0.011634943
23	0xbdae292d	-0.085039474
24	0xbd89d38c	-0.067298025
25	0xbd9b829b	-0.075932704
26	0xbd99ea93	-0.075154446
27	0xbd8f4a78	-0.06996626
28	0xbd26e42c	-0.040744945
29	0xbde68255	-0.112553276
30	0xbd896872	-0.067093745
31	0xbc285008	-0.010272987
32	0xbd11d9ec	-0.035608217
33	0xbd20cf7c	-0.039260373
34	0xbd397000	-0.045272827
35	0xbe0a262c	-0.13491124
36	0xbbd00b1c	-0.0063489806
37	0xbda9cc74	-0.082909495
38	0xbc694212	-0.014236944
39	0xbd567e1b	-0.052366357
40	0xbd7db547	-0.061940458
41	0x3d564f8a	0.052321948
42	0xbddeca0e	-0.108783826
43	0xbc036f45	-0.008022134
44	0xbd46549a	-0.048420526
45	0xbd2022b5	-0.0390956
46	0xbdddc6d8	-0.10828942
47	0x3cab4d9c	0.02091103
48	0xbb575f9c	-0.0032863384
49	0x3e03669d	0.12832113
50	0x3d14c3a7	0.0363194
51	0xbd9f5bcc	-0.07781181
52	0xbd9b814c	-0.07593021
53	0xbc74c306	-0.014939075
54	0xbd85e3c3	-0.06537583
55	0xbdcecc63	-0.100975774
56	0xbdb7274c	-0.08943042
57	0xbcb51a32	-0.022107217
58	0xbd8f9b8e	-0.070120916
59	0xbd5b7e47	-0.053587224
60	0xbd257976	-0.040399037
61	0xbcc89d1c	-0.024488978
62	0xbe502a0a	-0.20328537
63	0x3d7b3162	0.061326392
64	0xbd046b1d	-0.032328714
65	0xbce85c9c	-0.028364472
66	0xbd0a6e6b	-0.03379671
67	0xbba6f9b8	-0.0050956868
68	0xbd79ffa4	-0.061034814
69	0xbd69853d	-0.05701183
70	0xbd8c5405	-0.06851963
71	0xbd61d9e5	-0.05513944
72	0x3d68e49e	0.05685865
73	0x3c1ad5d8	0.009450398
74	0xbda5323c	-0.08066222
75	0xbdc7e938	-0.0976128
76	0x3d37d861	0.04488409
77	0xbd23b4d4	-0.039967373
78	0xbd9a0f19	-0.07522411
79	0xbc6a85d4	-0.014314134
80	0xbd2ae2d9	-0.041720245
81	0xbb4ea75c	-0.003153286
82	0xbd002023	-0.031280648
83	0xbd491d9d	-0.049100507
84	0x3c60c7b8	0.013719492
85	0xbdc0207d	-0.09381197
86	0xbd66fc62	-0.056393035
87	0x3dceea88	0.10103327
88	0xbddfc1c5	-0.109256305
89	0xbdb64d62	-0.08901478
90	0xbdd257f0	-0.10270679
91	0xbdec264f	-0.11530744
92	0xbd530904	-0.05152227
93	0x3caa97e5	0.020824382
94	0xbd7c6b0d	-0.06162553
95	0xbdbbcefc	-0.091703385
96	0xbd2d624a	-0.042330064
97	0xbca0c167	-0.019623471
98	0xbd4ad912	-0.04952342
99	0xbc7329dc	-0.014841523
100	0xbdd2d8b0	-0.10295236
101	0xbce48a3c	-0.027897947
102	0xbcf32d10	-0.029684573
103	0x3bec972e	0.0072201705
104	0xbd7c3fe6	-0.061584376
105	0x3d276aa0	0.04087317
106	0xbbdc0c90	-0.0067153648
107	0xbd0a0a75	-0.03370138
108	0xbce26321	-0.027635159
109	0xbd91b164	-0.07113913
110	0xbd6ec099	-0.058289144
111	0xbde971b7	-0.113986425
112	0xbd144840	-0.036201715
113	0x3ded3613	0.115825795
114	0x3a1764ee	0.00057752326
115	0xbd8963d6	-0.06708495
116	0xbd4a5506	-0.04939749
117	0xbd237cad	-0.039913822
118	0xbdd9cdc1	-0.106349476
119	0xbd94f707	-0.07273679
120	0xbcc65f44	-0.024215348
121	0xbcb94e90	-0.02262047
122	0xbde0a9e4	-0.10969904
123	0xbd8b9ce7	-0.06817036
124	0xbda89baa	-0.082328156
125	0xbd31ffdd	-0.0434569
126	0xbd8c8b74	-0.06862536
127	0xbde6bd2b	-0.1126655
128	0xbda1aa54	-0.07893816
129	0xbd1c7f0e	-0.038207106
130	0xbd023186	-0.03178551
131	0xbd755101	-0.059891704
132	0xbd2f7898	-0.042839617
133	0xbcc0978c	-0.023509763
134	0xbd83611d	-0.06415007
135	0x3be3e180	0.006954372
136	0xbbf2f771	-0.007414751
137	0xbba5d2a0	-0.005060509
138	0xbd8dbce1	-0.069207914
139	0xbdc3006f	-0.09521567
140	0x3d6a3282	0.057177074
141	0xbba478b0	-0.00501927
142	0xbc1fd388	-0.009755023
143	0x3c990b14	0.01868204
144	0xbb231736	-0.002488566
145	0xbd879f92	-0.066222325
146	0xbde96fb6	-0.1139826
147	0xbdd0894b	-0.101824366
148	0xbdc990d2	-0.098420754
149	0xbcf09eda	-0.029372621
150	0xbca1b043	-0.019737368
151	0x3d222b82	0.039592274
152	0xbddb5391	-0.107092984
153	0xbe0e8059	-0.13916148
154	0xbd79aab4	-0.06095381
155	0xbd5383b6	-0.05163928
156	0xbdf546fd	-0.119764306
157	0xbc026f38	-0.007961087
158	0xbd83a18e	-0.064272985
159	0xbe026734	-0.12734681
160	0xbdb7e003	-0.08978274
161	0xbc945dec	-0.018111192
162	0xbb449f08	-0.0030002017
163	0x3d930b07	0.07179838
164	0xbd87299b	-0.065997325
165	0xbd691a78	-0.05691001
166	0xbb324302	-0.0027200584
167	0xbdacced3	-0.08437886
168	0xbdc6fea1	-0.09716535
169	0xbc459a78	-0.012060754
170	0xbe0579ee	-0.13034794
171	0xbd82dee5	-0.0639017
172	0xbd4cf9d1	-0.05004293
173	0xbdb0943c	-0.086220235
174	0xbd09665a	-0.033544876
175	0xbdcf827c	-0.1013231
176	0xbde00c92	-0.109398976
177	0xbdc35ea0	-0.09539533
178	0xbc8578f2	-0.016293023
179	0xbd54401e	-0.05181896
180	0xbc38d8d0	-0.011282161
181	0xbc850872	-0.016239379
182	0xbdabd71f	-0.083906405
183	0x3d3ba470	0.045811117
184	0xbc7fa963	-0.01560435
185	0x3e13c156	0.1442922
186	0x3d3275c0	0.043569326
187	0xbd82a1d1	-0.0637852
188	0xbb1c3443	-0.0023834861
189	0xbccf6118	-0.025314853
190	0xbd1fd0d8	-0.03901753
191	0xbd1aeb5e	-0.03782212
192	0xbc8af04c	-0.016960286
193	0xbda0fe49	-0.07861001
194	0xbd62f9c2	-0.05541397
195	0xbd808dbc	-0.06277034
196	0xbd63f5ac	-0.055654213
197	0xbd4174d8	-0.04723057
198	0xbdc0e7dd	-0.094192244
199	0xbc3444a6	-0.011002695
200	0x3e07a4d0	0.13246465
201	0xbcf97524	-0.030451365
202	0xbe23be12	-0.15990475
203	0x3d87d917	0.066332035
204	0xbc5ddbc7	-0.0135411685
205	0x3d03f6a2	0.03221763
206	0xbdbb099a	-0.09132691
207	0xbc52504f	-0.01283653
208	0xbce70af0	-0.028203458
209	0xbc967787	-0.018367542
210	0xbddd6662	-0.108105436
211	0x3d202eee	0.039107256
212	0xbdb8f025	-0.09030179
213	0x3c8264cc	0.015917204
214	0xbd385928	-0.0450069
215	0xbd6078ea	-0.054802813
216	0x3c484a88	0.012224801
217	0xbd2a4f9a	-0.04157982
218	0xbda4fec0	-0.08056402
219	0x3c1a7f4c	0.009429764
220	0xbde93d3d	-0.113886334
221	0xbe092af7	-0.13395296
222	0xbb5aeec0	-0.0033406466
223	0xbdb31b3b	-0.08745428
224	0xbd093f1a	-0.033507444
225	0xbd9eb7e7	-0.0774992
226	0xbd0c74c6	-0.03429105
227	0xbd9630af	-0.073335044
228	0xbd5b5814	-0.053550795
229	0xbc09cdbb	-0.008410866
230	0x3e50d1b3	0.20392494
231	0xbd59ee1c	-0.053205594
232	0xbcd9fa73	-0.026608681
233	0xbcd4310c	-0.025902294
234	0xbd96ad7d	-0.07357309
235	0xbd803c37	-0.06261485
236	0x3c49c18b	0.012314211
237	0x3e61e35a	0.22059384
238	0xbd3fddc8	-0.046842366
239	0xbcab38f4	-0.02090118
240	0xbcec4898	-0.02884321
241	0xbde84cf4	-0.11342803
242	0xbca0eb07	-0.01964332
243	0xbd12dd7f	-0.035855766
244	0xbacfed38	-0.0015863543
245	0xbdc9d93f	-0.098558895
246	0xbdc532fd	-0.09628866
247	0xbcb2c048	-0.021820202
248	0xbdd37336	-0.10324709
249	0x3d6be9dd	0.057596076
250	0xbc12a289	-0.008949884
251	0xbd129b6d	-0.035792757
252	0xbd5142be	-0.05108904
253	0xbc7e56f4	-0.015523661
254	0xbcd304cc	-0.025759123
255	0xbc95aa9c	-0.01826983

fc3.weight f4 [256, 256]
0	0xbcb0da3c	-0.021588437
1	0xbd27403c	-0.040832743
2	0x3b9a1d70	0.0047032163
3	0x3b65f900	0.0035091043
4	0xba513600	-0.0007980764
5	0x3d05fb18	0.032710165
6	0xbc059d28	-0.008155145
7	0xbe2a8bf1	-0.16654946
8	0xbcaaeb64	-0.020864196
9	0x3c569db8	0.0130991265
10	0x3cccb928	0.024990633
11	0xbdbbcb30	-0.09169614
12	0x3ce4b24c	0.02791705
13	0xbd197ff8	-0.037475556
14	0x3d0c1a4a	0.03420476
15	0xbd270875	-0.04077955
16	0xbdd688c0	-0.10475302
17	0x3d74b280	0.059740543
18	0x3c43e39e	0.011956124
19	0xbdd09f33	-0.10186615
20	0xbd9b959b	-0.07596894
21	0x3afd4e80	0.0019325763
22	0xbdf3f73a	-0.11912389
23	0xbbd2698a	-0.0064212726
24	0xbd910f2e	-0.070829734
25	0xbde3a508	-0.111154616
26	0xbd967969	-0.07347376
27	0xbcb17847	-0.021663798
28	0xbc800318	-0.015626475
29	0xbd43b055	-0.047775585
30	0xbd872c4d	-0.066002466
31	0x3d01f824	0.031730786
32	0x3c64ac78	0.013957135
33	0xbc187b38	-0.009306721
34	0xbd480ca6	-0.048840187
35	0x3d2e8bb8	0.042613715
36	0xbd712fc4	-0.058883443
37	0xbc791d39	-0.015204721
38	0xbc6c51b0	-0.014423773
39	0x3d434bbc	0.047679648
40	0x3a06df19	0.00051449385
41	0xbd46b3fa	-0.048511483
42	0x3d3f4228	0.04669395
43	0xba9fb0ec	-0.0012183464
44	0xbb9c056f	-0.00476139
45	0x3d70af08	0.058760673
46	0xbd15dec4	-0.0365894
47	0x3d10a750	0.03531581
48	0x3d2ded76	0.04246279
49	0xbd3e9b45	-0.046534795
50	0xbdacbb4b	-0.08434161
51	0xbde37531	-0.11106337
52	0xbcadf5d5	-0.021235386
53	0xbcd78f31	-0.026313396
54	0x3bca2970	0.0061694905
55	0xba3c4a80	-0.0007182732
56	0x3dc0763f	0.09397554
57	0xbd814fed	-0.06314073
58	0x3da5e7e2	0.08100869
59	0xbe005d11	-0.12535502
60	0xbc957c2c	-0.018247686
61	0x3d087b4c	0.03332071
62	0x3b56ff40	0.003280595
63	0x3c519e40	0.012794077
64	0x3cd0ab8c	0.025472425
65	0x3d3be2aa	0.04587046
66	0x3d455856	0.048179947
67	0x3ceef748	0.029170647
68	0x3d76da2c	0.06026666
69	0x3bd81130	0.006593846
70	0xbac31480	-0.0014883429
71	0xbcdeb4fc	-0.02718591
72	0xbc8d719c	-0.017266087
73	0x3d02745a	0.031849243
74	0xbb796680	-0.003805548
75	0xbd54e402	-0.051975258
76	0xbd148594	-0.036260203
77	0xbc43a789	-0.011941799
78	0x3cbb1ec0	0.022841811
79	0x3c82e420	0.01597792
80	0xbd876a77	-0.066121034
81	0x3d090f7e	0.03346204
82	0xbd25ebeb	-0.040508192
83	0xbbbbcbf3	-0.0057310998
84	0xbb1c02e0	-0.0023805425
85	0x3d01e9ae	0.031716995
86	0xbdd29a8e	-0.10283385
87	0xbca40a45	-0.020024428
88	0xbd5e0d96	-0.054212175
89	0xbcd695a4	-0.026194401
90	0x3b231500	0.0024884343
91	0xbd7f5249	-0.062334333
92	0xbe2124a5	-0.15736635
93	0xbd225612	-0.039632864
94	0xbdd555ca	-0.104167536
95	0xbd49b848	-0.04924801
96	0xbd0a0168	-0.033692747
97	0xbdaa28d0	-0.083085656
98	0xbd00df0a	-0.031462707
99	0xbd3d103c	-0.04615806
100	0xbd4ed520	-0.05049622
101	0xbd05d8c0	-0.032677412
102	0x3ae88180	0.0017738789
103	0xbcdf6e9c	-0.027274422
104	0x3dc90def	0.09817111
105	0xbd2abe2c	-0.04168527
106	0xbe2936fb	-0.1652488
107	0xbe20ea12	-0.1571429
108	0x3d157a57	0.036493625
109	0xbc8baf85	-0.017051468
110	0xbd5801d2	-0.05273611
111	0x3d0b933a	0.034075953
112	0x3ca096e4	0.0196032
113	0x3c4fa5fe	0.012673853
114	0xbd3ce84e	-0.04611998
115	0xbdd08dec	-0.101833194
116	0xbcce244c	-0.025163792
117	0xbd239f42	-0.039946802
118	0xbe22fa51	-0.159158
119	0x3c7d7a00	0.015470982
120	0xbcbb51a5	-0.02286608
121	0x3cb81af4	0.02247379
122	0x3d57cc82	0.05268527
123	0x3d43e44a	0.047825135
124	0xbd73bfe2	-0.059509166
125	0xbcaf9fa8	-0.021438435
126	0xbd63a14d	-0.05557375
127	0xb9db9700	-0.0004188344
128	0xbad0a61f	-0.0015918649
129	0xbb2c86e0	-0.002632551
130	0x3c95eac8	0.018300429
131	0xbd689642	-0.056783922
132	0xbd358e8a	-0.04432539
133	0x3c2152a8	0.009846367
134	0xbe0c617c	-0.13709062
135	0x3a8c3d40	0.0010699406
136	0xbd589bb4	-0.052882865
137	0x3d4b8082	0.0496831
138	0x3d1e4194	0.03863676
139	0x3d02ecde	0.031964175
140	0x3c002c28	0.007823028
141	0x3ca909a0	0.020634472
142	0xba99ca80	-0.0011733323
143	0x3b077220	0.002066739
144	0xbd641bc5	-0.055690546
145	0x38ebd000	0.00011244416
146	0xbdd7156c	-0.10502133
147	0xbd256946	-0.0403836
148	0xbd204e46	-0.039137147
149	0x3c68ead0	0.01421614
150	0x3d39927c	0.045305714
151	0x3d1b6e0a	0.03794674
152	0xbd9a7766	-0.07542305
153	0x3d1038b8	0.03521034
154	0x3d1c059a	0.03809128
155	0x3d07b87c	0.033134922
156	0xbc6ab9d8	-0.014326535
157	0xbce5d4b4	-0.028055526
158	0x3cd8af90	0.026450902
159	0xbd27a294	-0.04092653
160	0xbd1313d5	-0.035907585
161	0xbd42bdd6	-0.047544323
162	0xbc332d28	-0.010936059
163	0xbda880c3	-0.08227684
164	0xbd405488	-0.046955615
165	0x3d4d0f82	0.050063618
166	0x3cba005c	0.02270525
167	0x3d6b08e4	0.057381526
168	0xbdb192fd	-0.08670614
169	0xbc2e57e8	-0.010641076
170	0x3d2d21ac	0.04226844
171	0xbd8d4d79	-0.06899542
172	0xbc919a68	-0.017773822
173	0xbd20b38e	-0.039233737
174	0x3bfb24e1	0.0076643084
175	0x3d1a29c0	0.037637472
176	0xbdbe2945	-0.09285215
177	0xbc43e388	-0.011956103
178	0xbb2163c0	-0.0024626106
179	0xbc65e0b8	-0.014030628
180	0x3d6d95e4	0.058004275
181	0xbd17b8ca	-0.037041463
182	0x3b9f5370	0.0048622414
183	0x3d69d432	0.05708713
184	0xbd0b433a	-0.03399966
185	0xbcd8fabe	-0.02648675
186	0xbd4d72fc	-0.050158486
187	0x3d1ea55a	0.03873191
188	0xbd45441e	-0.048160665
189	0xbd1285b8	-0.035772055
190	0xbb9997c0	-0.0046872795
191	0xbd15d166	-0.03657665
192	0xbc8f5330	-0.017495722
193	0x3d09ca4e	0.0336402
194	0xbd067f26	-0.032836102
195	0xbc91c513	-0.017794168
196	0x3bdbe700	0.006710887
197	0xbd256ece	-0.040388875
198	0x3b96b0b0	0.0045986995
199	0x3c1cb9d0	0.0095657855
200	0xbd846537	-0.06464618
201	0x3bc419f0	0.0059845373
202	0xbd4be13c	-0.049775347
203	0xbc0e99e0	-0.008703679
204	0xbca64220	-0.020295203
205	0x3c8d5044	0.017250188
206	0xbbe7015d	-0.007049723
207	0xbd3dea37	-0.046365943
208	0xbd55cb1e	-0.05219566
209	0xbaf24c40	-0.0018485859
210	0x3c11e5c1	0.008904875
211	0x3d4ff702	0.050772674
212	0xbdccc162	-0.09997822
213	0xbcf1a6b4	-0.029498436
214	0x3cc4f1a8	0.024041012
215	0xbd1c8b7c	-0.03821896
216	0xbd00f798	-0.031486124
217	0xbd109df0	-0.03530687
218	0xbd0811c6	-0.033220075
219	0xbceaed07	-0.028677477
220	0xbd4fd8c6	-0.05074384
221	0xbc89bb18	-0.016812846
222	0xbcb2dd0c	-0.021833919
223	0x3d4de77f	0.0502696
224	0xbacbdfc0	-0.0015554354
225	0xbd103e7a	-0.035215832
226	0x395cc73c	0.00021055056
227	0x3c7a99f0	0.015295491
228	0x3c6a8a4d	0.0143152
229	0xbd2e5ba0	-0.04256785
230	0x3c8dab78	0.017293677
231	0xbc95c4bc	-0.018282287
232	0x3c0fb8f0	0.00877212
233	0xbd3b145a	-0.045673706
234	0x3d132fe8	0.03593436
235	0xbccccc4c	-0.02499976
236	0xbcd3037b	-0.025758496
237	0xbdf98035	-0.12182657
238	0xbe201510	-0.15633035
239	0xbdb9cf98	-0.090727985
240	0xbc1ad2a8	-0.009449638
241	0xbe016d7b	-0.1263942
242	0xbd58e60d	-0.05295377
243	0xbca3488d	-0.019932056
244	0x3c404750	0.011735752
245	0x3c3e3dc0	0.011611402
246	0xbc4e0d80	-0.012576461
247	0x3d75bf40	0.059996843
248	0x3d17e7b8	0.03708622
249	0xbcfb7f09	-0.030700224
250	0x3d12629c	0.035738572
251	0xbd6548a7	-0.05597749
252	0xbdc56e02	-0.09640123
253	0xbd4a2a36	-0.04935666
254	0xbd135064	-0.03596534
255	0xbb3cfad8	-0.0028836038

fc3.bias f4 [256]
0	0xbe19ad52	-0.15007523
1	0xbdad517b	-0.08462807
2	0xbdbb1367	-0.0913456
3	0xbcc54bad	-0.024083937
4	0xbdd386b9	-0.10328431
5	0x3c750ebd	0.014957127
6	0xbcb6a1d8	-0.02229397
7	0xbc8f49e6	-0.017491292
8	0xbdb330c6	-0.08749537
9	0x3e1711b9	0.14752854
10	0x3d9dabb7	0.07698768
11	0xbcff8407	-0.031190885
12	0xbd796d98	-0.060895532
13	0x3d07d152	0.033158608
14	0xbcbe197f	-0.023205517
15	0xbd824f78	-0.06362814
16	0xbda6b536	-0.08140032
17	0x3d1a8ddb	0.03773294
18	0xbdfd0504	-0.12354472
19	0xbd07c69a	-0.033148386
20	0x3e2ac2ff	0.16675948
21	0xbd66756b	-0.056264322
22	0xbdb1c58e	-0.08680259
23	0xbd014362	-0.031558402
24	0xbc7f0dc8	-0.015567251
25	0xbe0c4e9a	-0.13701859
26	0xbdaa4e6e	-0.083157405
27	0xbd78959c	-0.060689554
28	0xbe861362	-0.26186663
29	0xbce1da04	-0.027569778
30	0x3e401d72	0.18761232
31	0xbc0908ff	-0.008363961
32	0x3dc8e6cd	0.09809647
33	0xbdb3d2d9	-0.087804504
34	0xbd6fdfb1	-0.058562938
35	0xbe54c3b0	-0.20777774
36	0xbb5c8b29	-0.0033652282
37	0xbd0cdacd	-0.034388352
38	0xb8ce1cf0	-9.8282355e-05
39	0xbdafe4dd	-0.08588574
40	0xbdc94afa	-0.09828754
41	0xbdda0912	-0.10646261
42	0xbd0bb0f6	-0.03410431
43	0x3dc679a3	0.09691169
44	0xbd74bc0f	-0.05974966
45	0xbe17c7c7	-0.14822303
46	0xbd8d4cd4	-0.068994194
47	0xbe29917f	-0.16559409
48	0xbe2485cd	-0.16066666
49	0xbdd60eca	-0.104520395
50	0xbdbb421b	-0.09143468
51	0xbd05ece6	-0.032696627
52	0xbdf5977d	-0.11991785
53	0x3d1e7315	0.03868397
54	0xbdfb67ac	-0.12275633
55	0x3ecd49c9	0.40095356
56	0xbe1225f5	-0.14272292
57	0xbe08f2db	-0.13373892
58	0xbda2ac8c	-0.07943067
59	0xbd86d581	-0.065836914
60	0xbd3d792b	-0.046258133
61	0xbdc8dfa2	-0.098082796
62	0xbdb1a83d	-0.08674667
63	0xbde4d70c	-0.111738294
64	0xbdafe8de	-0.08589338
65	0x3d59147b	0.052998047
66	0xbe6d3cf5	-0.23167785
67	0xbdbef2c5	-0.09323648
68	0xbc4644a8	-0.01210133
69	0xbdad850e	-0.08472644
70	0xbe162cee	-0.14665577
71	0xbe397cba	-0.18113986
72	0xbe07a19c	-0.13245243
73	0x3e14c63c	0.14528745
74	0xbc230ff5	-0.009952535
75	0x3dc5cc8c	0.09658155
76	0xbd0bf1d6	-0.03416618
77	0xbe20762b	-0.15670078
78	0xbd20aaca	-0.039225377
79	0xbd67775f	-0.056510326
80	0xbdaf11b3	-0.08548298
81	0x3b1a9d9f	0.0023592485
82	0xbe274acb	-0.16337125
83	0xbce09112	-0.027412925
84	0xbd2a04bc	-0.04150842
85	0xbc5f734b	-0.013638328
86	0xbc3f3d2c	-0.011672299
87	0xbd9c8a5e	-0.07643579
88	0xbd8f437e	-0.06995295
89	0xbe477716	-0.19479021
90	0xbe4ef2bf	-0.20209788
91	0x3e8d4c6c	0.27597368
92	0xbdf98c49	-0.121849604
93	0xbd714ebd	-0.05891298
94	0xbe874ae6	-0.2642433
95	0xbd8e6c53	-0.06954255
96	0xbdcf3d2a	-0.10119088
97	0x3dd98d6b	0.106226765
98	0xbcb7e2d9	-0.022447037
99	0xbdf9d57d	-0.12198923
100	0xbe3e6d13	-0.18596296
101	0xbe0f2ea5	-0.13982637
102	0xbdb75080	-0.08950901
103	0xbd39bceb	-0.04534618
104	0xbe060ada	-0.13090077
105	0xbde779e3	-0.11302545
106	0xbdd73905	-0.105089225
107	0xbdf0e47c	-0.1176233
108	0xbcab97ac	-0.020946346
109	0xbde97d29	-0.114008255
110	0xbda58c8e	-0.08083449
111	0xbdd4b677	-0.10386365
112	0xbdc01377	-0.093787126
113	0x3d5eb771	0.054374162
114	0x3d87413d	0.0660424
115	0xbe02a4b2	-0.12758139
116	0x3ec665a9	0.38749436
117	0xbdd0c28d	-0.101933576
118	0xbe13453a	-0.14381877
119	0xbe223151	-0.15839125
120	0x3cd61159	0.026131319
121	0x3d15f1db	0.036607604
122	0xbd776cfe	-0.060406677
123	0x3c926f7e	0.01787543
124	0xbd8e832c	-0.06958613
125	0xbd64e810	-0.055885375
126	0x3ddec848	0.10878044
127	0xba52f42c	-0.00080472487
128	0x3e92736f	0.28603694
129	0xbd73b26e	-0.059496336
130	0xbe27a7ab	-0.16372554
131	0xbc5fae26	-0.01365236
132	0xbd9f3f0e	-0.077756986
133	0xbdf622c1	-0.120183475
134	0x3e9dd934	0.30829775
135	0xbdd45a15	-0.10368744
136	0xbd9df98c	-0.07713613
137	0x3d5ff590	0.054677546
138	0xbe4cc4c6	-0.19996938
139	0x3e179a99	0.14805068
140	0x3ca2a3a0	0.019853413
141	0xbd955096	-0.07290761
142	0xbcd1ba01	-0.025601389
143	0xbd8e19b3	-0.069384955
144	0x3b178677	0.0023120919
145	0xbd1043f1	-0.035221044
146	0xbda1e1a5	-0.079043664
147	0xbd4a5964	-0.049401656
148	0xbe23ed19	-0.16008414
149	0x3e72f4ad	0.23726149
150	0xbd6bafb9	-0.05754063
151	0xbd7a88f8	-0.06116578
152	0xbe583a49	-0.21115984
153	0x3ecb959f	0.3976259
154	0xbe419f19	-0.18908347
155	0x3d2747ab	0.040839832
156	0xbdf8f3d2	-0.1215588
157	0xbd9615d1	-0.0732838
158	0xbd64d945	-0.055871267
159	0x3e762ec8	0.24041283
160	0xbddaf8a6	-0.10691957
161	0xbcef7947	-0.029232634
162	0xbdf06e84	-0.11739829
163	0x3e3b72d9	0.1830553
164	0xbd2e382f	-0.04253405
165	0x3e25d817	0.16195713
166	0xbdaba7d4	-0.0838162
167	0xbe0b7c23	-0.13621573
168	0xbdbda16c	-0.092593044
169	0xbd264119	-0.040589426
170	0xbd21ecda	-0.03953252
171	0xbd077bd9	-0.033077095
172	0xbe3d1464	-0.1846481
173	0x3e6f673b	0.23379223
174	0xbd4bcc2c	-0.04975526
175	0xba5673b9	-0.0008180696
176	0xbde2b9e9	-0.11070616
177	0xbcfe092d	-0.031010235
178	0xbd8ded01	-0.069299705
179	0xbd150185	-0.036378402
180	0xbdd91ce1	-0.10601211
181	0xbdb27426	-0.0871356
182	0x3ca04c45	0.019567618
183	0xbdbee8a2	-0.09321715
184	0xbe386d25	-0.18010385
185	0xbd55acda	-0.052166797
186	0x3c33c70c	0.010972749
187	0x3ddbc061	0.10730053
188	0x3dddd87b	0.10832306
189	0xbc8cb755	-0.017177263
190	0xbe196d4a	-0.14983097
191	0xbdc609e7	-0.096698575
192	0xbc11fe63	-0.008910748
193	0xbdd34d2b	-0.10317453
194	0xbdf3a565	-0.11896781
195	0xbde66d5f	-0.1125133
196	0x3e84a4f0	0.25907087
197	0xbdd6ff78	-0.104979455
198	0xbe449cf7	-0.19200502
199	0xbd9ff077	-0.07809537
200	0xbd975e83	-0.073910736
201	0xbe1f0752	-0.15530136
202	0xbd89cd2b	-0.06728586
203	0xbdacf77e	-0.08445643
204	0xbd670000	-0.056396484
205	0xbe0ea4ff	-0.13930129
206	0xbd4c1230	-0.049822032
207	0xbc2d912d	-0.010593695
208	0xbc8bd0d8	-0.017067358
209	0xbdcaa877	-0.09895413
210	0x3e0c52ac	0.13703412
211	0xbe095ad4	-0.13413554
212	0xbd6f0766	-0.058356665
213	0xbd8db599	-0.06919403
214	0xbded2ef2	-0.1158122
215	0xbd5f3e8c	-0.05450301
216	0xbd5e9cae	-0.05434864
217	0xbd47d820	-0.048790097
218	0x3d039e49	0.032133374
219	0xbd8af95f	-0.06785845
220	0xbca26bc3	-0.019826775
221	0xbd3f552d	-0.04671209
222	0xbe38acf3	-0.18034725
223	0xbdf181e9	-0.117923565
224	0xbcdbf468	-0.02684994
225	0xbd43f20f	-0.047838267
226	0xbd5662eb	-0.05234043
227	0xbd89ce02	-0.06728746
228	0xbdb049b3	-0.08607807
229	0xbda9a95d	-0.082842566
230	0xbe10a166	-0.14124069
231	0xbdbead43	-0.09310391
232	0xbd75a288	-0.059969455
233	0xbe2d0f51	-0.16900374
234	0xbe142966	-0.14468917
235	0xbe581199	-0.21100463
236	0xbd85b94e	-0.06529485
237	0xbce6ac7b	-0.028158417
238	0xbe302264	-0.17200619
239	0xbc775a03	-0.015097144
240	0xbdbeecb1	-0.09322489
241	0xbe435180	-0.19074059
242	0xbe01e4f1	-0.1268499
243	0xbdb5345a	-0.08847876
244	0xbd1abcc6	-0.037777685
245	0xbda09342	-0.07840587
246	0xbe19e2fb	-0.15027992
247	0xbdf8022b	-0.121097885
248	0xbe073931	-0.1320541
249	0xbe167cb5	-0.1469601
250	0xbd222bf9	-0.039592717
251	0xbd66c34c	-0.056338593
252	0xbc9087a2	-0.0176428
253	0xbc0ecc8e	-0.008715762
254	0xbd75b092	-0.059982844
255	0xbb8dd022	-0.00432779

classifier.weight f4 [16, 256]
0	0x3ba8c747	0.005150709
1	0x3d53c1f3	0.051698636
2	0x3c76eb40	0.015070736
3	0x3d79eda0	0.061017632
4	0xbd46bee9	-0.04852191
5	0x3d1e0ca0	0.03858626
6	0x3d0fe2d8	0.035128444
7	0x3d8a9e78	0.06768507
8	0x3d8e7f4e	0.06957875
9	0x3b76f1a5	0.0037680652
10	0x3d85c980	0.06532574
11	0xbdfa13be	-0.12210797
12	0x3dae0578	0.08497137
13	0x3b9fe6a7	0.004879791
14	0xb9f2d1bf	-0.0004631411
15	0x3cb3a021	0.021926941
16	0x3cb417d8	0.021984026
17	0xbe66c3d1	-0.22535636
18	0x3db6e6bc	0.08930728
19	0xbad1215e	-0.0015955379
20	0xbf0e3108	-0.55543566
21	0x3da5b153	0.080904625
22	0x3dc08c1d	0.094017245
23	0xbc86105f	-0.016365228
24	0x3c2cfb01	0.010557891
25	0x3bc59e5f	0.006030842
26	0x3c123583	0.008923891
27	0xbc73ca25	-0.014879738
28	0x3e182652	0.14858368
29	0xbd3da008	-0.046295196
30	0xbd373f28	-0.044737965
31	0xbe5309cc	-0.20609206
32	0xbc90aebb	-0.017661443
33	0xbd4550b4	-0.048172668
34	0x3d130a72	0.035898633
35	0xbee08537	-0.43851635
36	0x3da1e158	0.07904309
37	0x3caf1b58	0.021375343
38	0x3d1e7abb	0.038691264
39	0x3d563580	0.052297115
40	0x3cd7f86f	0.02636358
41	0xbd68c156	-0.056825005
42	0x3d49b567	0.049245264
43	0x3cbafed8	0.022826597
44	0x3ce00e3a	0.027350534
45	0x3d37009c	0.044678316
46	0x3c60d0f9	0.013721698
47	0xbd3bec1c	-0.04587947
48	0x3da41d2f	0.08013379
49	0xbdb969c1	-0.09053374
50	0x3cc60cf9	0.024176108
51	0x3d0afcc0	0.033932447
52	0xbb103458	-0.0022003856
53	0xbdc5e5f6	-0.09663002
54	0xbe19a460	-0.1500411
55	0xbf3762ff	-0.7163543
56	0x3d662361	0.056186084
57	0xbed42ae5	-0.41438976
58	0xbd77b0c8	-0.060471326
59	0x3da5ff34	0.08105317
60	0x3d8ea509	0.06965072
61	0xbe849f03	-0.25902566
62	0xbf0b3eee	-0.543929
63	0x3d5eab2b	0.054362457
64	0x3ccfee29	0.025382118
65	0x3d86f74c	0.06590137
66	0x3d0de951	0.034646336
67	0x3d4f4518	0.050603002
68	0xbe39905c	-0.18121475
69	0x3d52a79b	0.051429372
70	0x3cf7da52	0.03025547
71	0x3d969e95	0.07354466
72	0xbe38cd6e	-0.18047115
73	0x3c4b9bac	0.012427252
74	0xbeb68c82	-0.35654074
75	0x3ce0de86	0.027449857
76	0xbd9d5a59	-0.07683248
77	0x3d68f22d	0.05687158
78	0xbb532cb0	-0.003222268
79	0x3d192de4	0.03739728
80	0x3d0edbf8	0.034877747
81	0xbf0d0b0c	-0.5509498
82	0xbe1f51b8	-0.15558517
83	0x3d0660da	0.03280721
84	0x3d5855ea	0.05281631
85	0xbdcdae5d	-0.10043023
86	0xbd132e66	-0.03593292
87	0xbd0f856e	-0.035039358
88	0x3dd3a683	0.10334494
89	0xbe8129b9	-0.25227144
90	0x3e0e6dac	0.13909024
91	0xbde4dd83	-0.111750625
92	0x3c7038c5	0.014661972
93	0xbd812708	-0.06306273
94	0x3d1f59fb	0.03890417
95	0xbdcace15	-0.09902588
96	0x3c76674e	0.015039278
97	0x3daf0259	0.0854537
98	0xbdb2aab0	-0.08723962
99	0xbe281f9a	-0.16418305
100	0x3ddd9d5c	0.108210295
101	0xbd0e9813	-0.034812998
102	0x3d308750	0.043097794
103	0xbe4b56b0	-0.19857287
104	0x3dc40182	0.095706
105	0xbd27b319	-0.040942285
106	0xbdc732f6	-0.09726517
107	0xbcce3985	-0.025173912
108	0x3c8643ca	0.016389746
109	0xbc3d1550	-0.011540726
110	0xbc799893	-0.01523413
111	0x3d8c486a	0.068497494
112	0x3da4d424	0.08048275
113	0xbe92918c	-0.28626668
114	0x3d079662	0.0331024
115	0xbd034f31	-0.032057945
116	0xbf7d8ec9	-0.99046
117	0xbd7f2c63	-0.06229819
118	0xbd06f655	-0.032949764
119	0xbe036867	-0.12832795
120	0x3da0ee4d	0.07857952
121	0x3d7b2a7e	0.06131982
122	0x3cbb2b1f	0.02284771
123	0x3ddc7457	0.107643776
124	0xbd19ecb5	-0.037579257
125	0x3ca024fc	0.019548886
126	0xbef20eba	-0.4727686
127	0x3d1f33a8	0.038867623
128	0xbf0a0bcf	-0.5392427
129	0xbdf3d2a1	-0.11905409
130	0xbe85c8c5	-0.26129737
131	0x3cd03483	0.025415665
132	0x3d4deef0	0.050276697
133	0xbda332f3	-0.07968702
134	0xbefb2942	-0.49054915
135	0xbdbb0660	-0.09132075
136	0xbde25113	-0.1105062
137	0xbd46b65d	-0.04851376
138	0xbc33ec11	-0.010981576
139	0x3d2a3a02	0.041559227
140	0x3d5c7074	0.05381818
141	0xbefe00b1	-0.49609903
142	0x3d551301	0.052020077
143	0xbce31798	-0.027721211
144	0xbce004e9	-0.027346091
145	0x3ac236af	0.0014817322
146	0x3d5c26ba	0.05374787
147	0x3d391e46	0.045194887
148	0xbbe841e1	-0.0070879315
149	0xbc08ac37	-0.0083418405
150	0x3d921ffe	0.07135008
151	0xb9d9609f	-0.00041461454
152	0x3d157e8f	0.03649765
153	0xbf4ea850	-0.80725574
154	0xbddbb7ff	-0.10728454
155	0xbd28e51e	-0.04123413
156	0x3d015b34	0.03158112
157	0x3d92220e	0.07135402
158	0xbcdf9d92	-0.027296815
159	0x3d73ad14	0.059491232
160	0xbd9aa0f0	-0.07550228
161	0x3d69455f	0.056950923
162	0xbd0c2a20	-0.03421986
163	0xbd966146	-0.07342772
164	0xbca1548b	-0.019693634
165	0xbe99ab66	-0.3001358
166	0x3d7b4fbc	0.061355338
167	0x3d2c9eee	0.042143755
168	0x3db00d41	0.08596278
169	0x3d798bf9	0.060924504
170	0x3ce01d20	0.027357638
171	0x3d8ce8fe	0.06880377
172	0xbed0299a	-0.4065674
173	0xbf132def	-0.57491964
174	0x3d7e3175	0.062058885
175	0x3d4cb13c	0.04997371
176	0x3c82d684	0.01597143
177	0xbd409ff5	-0.047027547
178	0xbb28a1b3	-0.0025731146
179	0x3cf498d9	0.02985804
180	0xbd7e3a88	-0.06206754
181	0xbdcb679d	-0.09931872
182	0x3c808c15	0.015691796
183	0x3d772a81	0.06034327
184	0x3dc90a67	0.09816437
185	0xbc04dd30	-0.008109376
186	0xbe4e659a	-0.20155945
187	0xbe8ee114	-0.27906096
188	0xbe8aeffe	-0.27136225
189	0x3d6dc009	0.058044467
190	0x3b38b88f	0.0028186177
191	0xbbcda836	-0.006276156
192	0xbe0c65a0	-0.13710642
193	0x3ca005fd	0.019534105
194	0x3c919c3c	0.017774694
195	0xbb6e65b3	-0.0036376535
196	0xbf238dbc	-0.63888144
197	0x3d8a2faf	0.06747376
198	0xbd017942	-0.03160978
199	0xbbc658f5	-0.006053085
200	0x3dba6729	0.091017075
201	0x3d3eb474	0.046558812
202	0x3d258a40	0.04041505
203	0x3be916aa	0.0071132975
204	0x3d5b8454	0.053592995
205	0x3d87cb8b	0.066306196
206	0x3d6aea47	0.05735233
207	0x3c814cf3	0.015783763
208	0x3c4349b6	0.0119194295
209	0xbe93de7c	-0.2888068
210	0x3daa4bc5	0.08315233
211	0xbc04b13e	-0.008098898
212	0xbd164a05	-0.036691684
213	0xbd7fffac	-0.062499687
214	0x3c682a7e	0.014170287
215	0x3d6ff954	0.058587387
216	0xbe089715	-0.13338883
217	0x3cf8643f	0.030321239
218	0xbe94b8f4	-0.29047358
219	0xbe965a56	-0.29365796
220	0xbe016925	-0.12637766
221	0xbd96c818	-0.073623836
222	0xbdab43d0	-0.083625436
223	0xbdb021aa	-0.08600171
224	0x3d48b1bc	0.048997626
225	0xbceb3fc8	-0.028716937
226	0x3cc8433f	0.024446128
227	0xbde4e7de	-0.11177038
228	0xbdce6f4e	-0.100798234
229	0x3d1774bf	0.036976572
230	0x3da61f14	0.081113964
231	0x3d1e7348	0.03868416
232	0xbc5f979c	-0.013646986
233	0x3d9c97bd	0.07646129
234	0x3d701eeb	0.058623236
235	0xbd42d8e9	-0.047570143
236	0xbc22101e	-0.009891538
237	0x3c8778df	0.016537128
238	0xbd03108c	-0.031998202
239	0xbdda6b40	-0.106649876
240	0x3e2f5bca	0.17124858
241	0x3dbd9051	0.09256042
242	0x3d49d288	0.049273044
243	0xbe38cd22	-0.18047002
244	0x3b7d0d5d	0.0038612701
245	0x3c1ee4af	0.009698077
246	0x3d9c5cd9	0.07634897
247	0xbed0095a	-0.40632135
248	0xbe0bc39d	-0.1364884
249	0xbd9cc5cd	-0.07654915
250	0x3c757295	0.014980932
251	0x3a1b2500	0.0005918294
252	0xbc11e06d	-0.008903605
253	0xbe8a5a11	-0.2702184
254	0x3b16645f	0.002294801
255	0xbc9aa960	-0.018879592

classifier.bias f4 [16]
0	0xbe0f191a	-0.13974419
1	0xbd209534	-0.03920479
2	0x3d682191	0.056672636
3	0x3dfb1d53	0.122614525
4	0x3e25deec	0.16198319
5	0x3e1208c5	0.14261158
6	0x3e22bc6c	0.1589219
7	0x3c9015d4	0.017588533
8	0x3d1a2324	0.03763117
9	0x3e2a0d57	0.16606651
10	0xbdce5d56	-0.10076396
11	0xb927695f	-0.00015965615
12	0xbd76d845	-0.060264844
13	0xbc6cda78	-0.014456384
14	0x3baea70e	0.005329973
15	0xbe88f147	-0.2674658
