transfer00_28_27_22_10_11_FullyConnected.pth (torch, 550959 bytes, 8 tensors)

fc1.weight f4 [256, 4]
-0.28797102 -0.36948574 0.2294864 -0.17772347 0.36984006 0.10822975 0.2099971 -0.06478456
-0.023529649 -0.034390867 -0.24501878 -0.2078644 -0.16488254 -0.23184347 0.059574246 -0.33823276
0.40824524 0.034685902 -0.547087 -0.38817883 0.2670579 0.46477312 -0.09942067 -0.47223884
0.34120706 0.3371953 -0.35143983 -0.06555681 -0.406651 0.34178582 -0.38944733 0.4147381
-0.08269518 0.5536137 -0.10382401 -0.19774358 -0.32894093 0.54926115 0.46501034 -0.05753581
0.2893539 0.32538417 0.12380763 -0.023696156 0.19808435 -0.32706892 -0.39019337 0.5556375
0.43588212 0.53203154 0.46163404 0.018289767 -0.35464245 0.5666652 0.6528972 0.018380536
-0.053068567 0.3395736 0.4397163 -0.084795624 0.20301192 -0.7225794 -0.56679404 -0.3535513
-0.24382623 0.09725398 0.49491477 -0.0751444 -0.49412876 0.32960308 -0.46254975 0.25478673
-0.12073487 0.33478832 -0.04174298 -0.24956036 -0.33988744 0.25639886 0.13448435 0.29985547
-0.21751636 0.008006215 -0.041306555 0.13602489 0.3207127 -0.13640812 -0.29231948 0.09774635
0.1812653 0.17168903 -0.061442733 -0.31997418 -0.12617278 -0.02082182 -0.036335945 -0.28109738
0.20161104 -0.7342902 -0.18704931 0.237106 -0.28332078 -0.2082499 -0.7112365 -0.46146148
-0.20566213 0.055770278 -0.12521303 -0.25311053 0.12141101 -0.5202259 -0.6241031 0.16968954
0.262083 0.1404997 0.35216585 0.25099993 -0.5723763 0.35782462 -0.22193018 -0.21827361
-0.100790575 -0.48050842 0.1193424 -0.09694814 0.43861955 -0.4571491 0.20465004 0.1648671
-0.32944804 -0.21684813 -0.46289456 -0.0777753 0.04451547 -0.48320356 0.042843413 0.4966917
0.21121573 -0.03540349 0.37059122 -0.2895831 0.024137883 0.5596654 0.075777 -0.028913599
-0.30609703 0.28524953 -0.16261643 0.066057086 0.21221407 -0.22728719 -0.13203602 0.055032708
-0.31307054 -0.10033524 -0.25792903 -0.40693694 0.17715728 0.2985912 0.12100563 0.2503997
-0.0038323684 0.23561122 0.3006967 0.46935406 0.23218302 -0.468477 0.28711456 -0.059962545
-0.11307657 0.0760954 0.15759975 -0.4611584 0.39807937 -0.26839998 -0.37164006 0.095218964
0.21151604 -0.35292208 -0.5670859 0.12732315 0.4232243 -0.13914719 -0.18238442 -0.18366411
-0.3811022 0.38273352 0.10256812 0.5084023 0.14586194 0.49564207 0.28474277 0.34593537
0.3819664 0.37546206 0.30515906 -0.048343208 -0.37434947 -0.51933557 0.12439354 0.098913915
0.46469352 -0.38025245 -0.6998961 -0.0076024304 -0.3109358 0.32499558 0.051127195 -0.4620509
-0.22788353 0.40306187 -0.24172285 0.1286773 -0.119485706 0.022290071 -0.13389824 0.4039352
-0.40979582 0.24617013 0.52564806 0.30575353 -0.0049982853 -0.16943903 0.24062285 -0.068677776
-0.5090057 -0.24879137 0.4448365 -0.079724126 -0.23039424 0.07970023 -0.47871345 -0.45068794
-0.36951667 0.3433931 -0.24656242 -0.18350989 -0.02110515 -0.2317773 0.43335432 0.20171113
-0.20052245 -0.7188916 -0.56816566 0.2117256 -0.073178604 0.00622119 0.09475448 0.092713155
0.22111839 -0.17988567 0.34009823 0.11471775 -0.23079295 0.44999805 0.40401188 0.30040658
00000000: f070 93be 3c2d bdbe 7cfe 6a3e 24fd 35be
00000010: ad5b bd3e 8fa7 dd3d 7b09 573e c4ad 84bd
00000020: 40c1 c0bc 70dd 0cbd 34e6 7abe 68da 54be
00000030: f8d6 28be 6068 6dbe 2004 743d d82c adbe
00000040: 8505 d13e ce12 0e3d e50d 0cbf 60bf c6be
00000050: d0bb 883e bef6 ed3e 109d cbbd 4ac9 f1be
00000060: b1b2 ae3e dda4 ac3e ecef b3be a642 86bd
00000070: 8f34 d0be 8dfe ae3e a465 c7be 8d58 d43e
00000080: 175c a9bd a1b9 0d3f afa1 d4bd 4b7d 4abe
00000090: f26a a8be 619c 0c3f d615 ee3e abaa 6bbd
000000a0: 3226 943e c198 a63e db8e fd3d 711e c2bc
000000b0: a0d6 4a3e 9475 a7be 6dc7 c7be 423e 0e3f
000000c0: f12b df3e 3833 083f 4c5b ec3e 6cd4 953c
000000d0: b293 b5be f810 113f 4524 273f c792 963c
000000e0: 6d5e 59bd 97dc ad3e 7f22 e13e 54a9 adbd
000000f0: 5be2 4f3e f7fa 38bf 6a19 11bf ad04 b5be
00000100: 95ad 79be 182d c73d 7865 fd3e 4fe5 99bd
00000110: 72fe fcbe bcc1 a83e 52d3 ecbe 6873 823e
00000120: d843 f7bd 6069 ab3e b0fa 2abd c08c 7fbe
00000130: ba05 aebe b646 833e 44b6 093e a886 993e
00000140: 9cbc 5ebe 802c 033c 1031 29bd 1c4a 0b3e
00000150: 7434 a43e 92ae 0bbe e6aa 95be 3d2f c83d
00000160: 9c9d 393e 40cf 2f3e 60ab 7bbd a8d3 a3be
00000170: 7033 01be 8592 aabc 00d5 14bd ffeb 8fbe
00000180: 2073 4e3e 71fa 3bbf db89 3fbe eacb 723e
00000190: 6c0f 91be 763f 55be 9813 36bf ae44 ecbe
000001a0: 1899 52be 606f 643d d837 00be b497 81be
000001b0: 56a6 f83d 862d 05bf 39c5 1fbf 18c3 2d3e
000001c0: be2f 863e 27df 0f3e 154f b43e 1083 803e
000001d0: 4187 12bf ca34 b73e aa41 63be 1e83 5fbe
000001e0: 4a6b cebd 3305 f6be ca69 f43d bf8c c6bd
000001f0: be92 e03e 720f eabe c88f 513e ecd2 283e
00000200: 6aad a8be 700d 5ebe 8400 edbe a848 9fbd
00000210: da55 363d 7566 f7be 937c 2f3d 604e fe3e
00000220: f048 583e 4003 11bd 22be bd3e 3c44 94be
00000230: cfbc c53c 3b46 0f3f f930 9b3d 36dc ecbc
00000240: c0b8 9cbe 3a0c 923e ec84 26be f048 873d
00000250: a54e 593e f9bd 68be 7334 07be fa69 613d
00000260: c84a a0be 907c cdbd 460f 84be 0a5a d0be
00000270: b868 353e f2e0 983e cdd1 f73d 6434 803e
00000280: 7928 7bbb 1144 713e ebf4 993e 2d4f f03e
00000290: 63c1 6d3e 38dc efbe ae00 933e 499b 75bd
000002a0: b094 e7bd e8d7 9b3d d461 213e f41c ecbe
000002b0: 0fd1 cb3e b96b 89be 9b47 bebe 2902 c33d
000002c0: a997 583e 34b2 b4be 8b2c 11bf 0061 023e
000002d0: dbb0 d83e 9a7c 0ebe fbc2 3abe 7212 3cbe
000002e0: d41f c3be a6f5 c33e 3c0f d23d a726 023f
000002f0: d55c 153e ccc4 fd3e cec9 913e 711e b13e
00000300: 1a91 c33e 903c c03e cf3d 9c3e 8703 46bd
00000310: bcaa bfbe 2df3 04bf 0ac2 fe3d 6193 ca3d
00000320: 4fec ed3e 73b0 c2be 642c 33bf cf1d f9bb
00000330: fa32 9fbe d265 a63e c06a 513d f091 ecbe
00000340: 4d5a 69be 205e ce3e 3286 77be fbc3 033e
00000350: ecb4 f4bd ab99 b63c 9f1c 09be 98d0 ce3e
00000360: c2d0 d1be 0614 7c3e df90 063f ba8b 9c3e
00000370: a8c8 a3bb 6d81 2dbe d665 763e efa6 8cbd
00000380: 334e 02bf 2ac3 7ebe 9cc1 e33e 6746 a3bd
00000390: 78ec 6bbe e039 a33d ee19 f5be 92c0 e6be
000003a0: 4a31 bdbe 38d1 af3e dc7a 7cbe 04ea 3bbe
000003b0: b5e4 acbc 0757 6dbe 9ee0 dd3e 5d8d 4e3e
000003c0: c255 4dbe 4809 38bf 4e73 11bf 98ce 583e
000003d0: aade 95bd 20db cb3b a30e c23d 65e0 bd3d
000003e0: dc6c 623e f333 38be 5b21 ae3e 24f1 ea3d
000003f0: fd54 6cbe 2566 e63e a5da ce3e e4ce 993e

fc1.bias f4 [256]
-0.1581958 -0.06764595 -0.20102566 0.11983335 0.21374165 -0.48238373 -0.0848434 -0.010606982
0.101141766 0.15710947 0.010349382 -0.13934532 0.055408526 0.11547626 0.38511544 -0.022590764
0.39210308 -0.21100026 -0.14335585 -0.44599903 -0.100473166 -0.06325091 -0.33305168 0.2302687
-0.017241037 0.32671544 -0.255803 0.02146107 -0.13236992 0.4312124 0.1602369 0.059391856
-0.08301866 -0.5341906 -0.38738137 -0.08923767 -0.45963603 0.031281717 0.14625967 -0.082260445
-0.209 0.18110739 -0.019851565 -0.003998819 -0.23527181 0.14645334 -0.22175103 -0.013145248
0.030360822 0.124825895 0.24289925 -0.18986952 0.25346366 -0.43391 0.3124717 -0.14197692
0.23857228 -0.16620201 -0.40496194 0.19509712 0.29208922 -0.07475015 0.22328602 0.25483096
0.1516715 0.23368114 -0.018538142 0.24364288 0.25463712 0.15167612 -0.24600391 -0.47266102
-0.14085911 -0.3453688 -0.26126462 0.10317408 0.35161805 0.32850593 -0.23746641 -0.10746014
0.34184134 -0.40052152 -0.09026791 0.21950032 0.290827 -0.20506787 -0.0422301 -0.47883576
0.14985406 0.38194457 0.104541905 0.15606748 -0.45344257 0.07459167 0.09767533 0.26673692
-0.39583153 0.019375026 -0.28285384 -0.4892137 -0.069435805 0.20624635 -0.3781158 0.08215779
-0.25843084 0.09720329 -0.23930699 0.34161404 0.27507216 0.16174792 -0.50486577 -0.41337737
0.15093818 0.15855175 0.24329145 -0.28664726 0.4942162 0.005186771 -0.1163885 -0.39688146
0.2743292 -0.066270895 -0.089361586 0.29186457 -0.23798382 0.27223212 -0.36808848 0.06885939
0.41252667 0.07871794 -0.07793275 -0.4255479 -0.45737135 0.031324387 0.43851626 -0.29269236
0.03772544 -0.106485486 -0.41185397 -0.2858624 -0.42106444 -0.43021148 -0.050361063 -0.0713925
-0.20807427 0.41536152 0.3257314 0.4323191 0.3257433 -0.20292063 0.49597472 -0.5440305
-0.28327435 -0.10484626 -0.03241016 0.02268377 -0.084595956 -0.32177877 0.11726699 0.4404889
-0.014648359 -0.0037948543 0.092671774 0.031164885 -0.47085094 0.01324059 -0.1053876 0.048290588
0.22044763 0.30578932 0.015298903 -0.27791 -0.3583144 0.16459243 0.26055458 -0.44682884
0.31336552 -0.18758029 -0.028402627 -0.18402085 0.43747836 0.13902324 -0.1833901 0.45982444
0.3043427 -0.32957935 -0.3576265 -0.48143452 0.4232058 -0.42998046 -0.19516519 -0.46874472
-0.04591471 0.17431098 0.24228792 -3.20673e-05 0.13221134 -0.018599361 -0.48183888 0.37196255
-0.025121808 0.3951426 -0.5000771 0.19038123 0.17128323 -0.37577808 0.2973905 0.31583023
0.39247087 -0.096564375 0.16758269 0.04782288 0.23422651 0.07603442 0.19320183 0.16090831
0.19043097 -0.48763943 0.014075451 0.3444412 -0.008437977 -0.29719645 0.10440163 0.19286169
0.32061416 -0.3095641 0.012617904 0.45651534 0.26205513 -0.20240127 -0.11087891 -0.41825116
-0.075800106 0.23767808 -0.20548578 -0.14882922 0.17912117 -0.32198548 0.2217503 0.24564876
0.022180414 -0.2939553 -0.37706146 0.083667375 -0.4681648 0.39142314 0.2275461 -0.39852178
0.26701266 0.057259683 -0.46136993 0.3401485 -0.28604263 -0.3271888 -0.19340448 0.0684533
00000000: 14fe 21be f689 8abd acd9 4dbe 306b f53d
00000010: 17df 5a3e 00fb f6be 60c2 adbd e8c8 2dbc
00000020: 6a23 cf3d 4ee1 203e 7490 293c 8ab0 0ebe
00000030: 0df4 623d d17e ec3d da2d c53e 4410 b9bc
00000040: bcc1 c83e 7410 58be e0cb 12be fc59 e4be
00000050: e0c4 cdbd b189 81bd c085 aabe 8fcb 6b3e
00000060: 133d 8dbc 3f47 a73e 9cf8 82be 20cf af3c
00000070: fb8b 07be dfc7 dc3e 2415 243e e044 733d
00000080: b005 aabd b7c0 08bf da56 c6be 3dc2 b6bd
00000090: 6a55 ebbe 4221 003d 18c5 153e 2a78 a8bd
000000a0: 1904 56be 3774 393e c09f a2bc 8608 83bb
000000b0: 18eb 70be ddf7 153e b412 63be 2b5f 57bc
000000c0: 42b7 f83c b8a4 ff3d 95ba 783e 286d 42be
000000d0: fdc5 813e 7429 debe 4afc 9f3e 6662 11be
000000e0: 4b4c 743e dc30 2abe 2c57 cfbe 8ac7 473e
000000f0: b88c 953e 9b16 99bd 17a5 643e 3479 823e
00000100: c64f 1b3e 1c4a 6f3e 4ddd 97bc 857d 793e
00000110: cc5f 823e fc50 1b3e 73e8 7bbe a000 f2be
00000120: 5f3d 10be 2ed4 b0be 7ac4 85be ef4c d33d
00000130: 4807 b43e ee31 a83e 652a 73be 1014 dcbd
00000140: d405 af3e 2811 cdbe 62de b8bd b1c4 603e
00000150: 47e7 943e 50fd 51be 78f9 2cbd f629 f5be
00000160: 5873 193e 3d8e c33e 111a d63d 27d0 1f3e
00000170: a029 e8be 84c3 983d 010a c83d be91 883e
00000180: 6eaa cabe 60b8 9e3c 38d2 90be 387a fabe
00000190: 5c34 8ebd 3e32 533e 6598 c1be 5842 a83d
000001a0: 0c51 84be 8512 c73d e40c 75be 09e8 ae3e
000001b0: 42d6 8c3e 3fa1 253e e23e 01bf 33a6 d3be
000001c0: 8a8f 1a3e 645b 223e 6521 793e 6ec3 92be
000001d0: e809 fd3e caf5 a93b 185d eebd 0c34 cbbe
000001e0: e074 8c3e 09b9 87bd 3503 b7bd 466f 953e
000001f0: 08b2 73be 0262 8b3e 1876 bcbe 2706 8d3d
00000200: b236 d33e df36 a13d 359b 9fbd 6ae1 d9be
00000210: 942c eabe 004e 003d 3485 e03e c6db 95be
00000220: fe85 1a3d 1015 dabd 86de d2be 8e5c 92be
00000230: c295 d7be ae44 dcbe 6747 4ebd 3b36 92bd
00000240: 6c11 55be 44aa d43e 44c6 a63e ee58 dd3e
00000250: d3c7 a63e 6dca 4fbe 66f0 fd3e 9545 0bbf
00000260: 5609 91be a3b9 d6bd 84c0 04bd 50d3 b93c
00000270: a540 adbd 30c0 a4be ad29 f03d c387 e13e
00000280: acff 6fbc 17b3 78bb b3ca bd3d 804d ff3c
00000290: 6013 f1be 0fef 583c 74d5 d7bd 5acc 453d
000002a0: 06bd 613e 6b90 9c3e 40a8 7a3c 384a 8ebe
000002b0: fc74 b7be eb8a 283e 6967 853e c0c6 e4be
000002c0: 7271 a03e 0c15 40be a0ac e8bc f66f 3cbe
000002d0: 2afd df3e 1c5c 0e3e 9dca 3bbe 1c6e eb3e
000002e0: ced2 9b3e a0be a8be d21a b7be 967e f6be
000002f0: 6eae d83e 6626 dcbe 62d9 47be 4fff efbe
00000300: 1011 3cbd 947e 323e 531a 783e 0080 06b8
00000310: 6962 073e b05d 98bc 96b3 f6be e071 be3e
00000320: 40cc cdbc 2250 ca3e 0e05 00bf 4cf3 423e
00000330: df64 2f3e fc65 c0be 9143 983e 80b4 a13e
00000340: f1f1 c83e 8bc3 c5bd cc9a 2b3e ede1 433d
00000350: 13d9 6f3e efb7 9b3d b3d6 453e 26c5 243e
00000360: 5600 433e e0ab f9be b89c 663c 995a b03e
00000370: 713f 0abc 222a 98be 86d0 d53d 897d 453e
00000380: 8a27 a43e 307f 9ebe 53bb 4e3c 61bc e93e
00000390: 172c 863e 4742 4fbe 7b14 e3bd 0425 d6be
000003a0: 163d 9bbd e261 733e dd6a 52be b066 18be
000003b0: 8a6b 373e 48db a4be 8312 633e 598b 7b3e
000003c0: b3b3 b53c 4f81 96be 330e c1be cd59 ab3d
000003d0: 4cb3 efbe 9d68 c83e d801 693e 0c0b ccbe
000003e0: e2b5 883e 2189 6a3d ae38 ecbe f227 ae3e
000003f0: 2e74 92be 4a85 a7be d30b 46be 3e31 8c3d

fc2.weight f4 [256, 256]
-0.056121506 -0.06454362 0.044221863 -0.04944186 -0.021410393 -0.050832875 -0.19455564 -0.059307445
0.03506221 -0.07477644 -0.18430117 0.06743362 -0.2431111 0.003133782 -0.267856 0.30779815
-0.14941199 -0.045322068 -0.057634957 0.0075129718 -0.05635058 0.06451457 -0.05195932 -0.0352006
0.09014685 0.2297802 -0.008308075 0.17988865 -0.09548583 -0.099567525 0.11507491 0.009550684
0.0076081753 0.5220406 -0.031298928 0.039285365 0.039683014 -0.0059002372 -0.05348078 -0.22158234
-0.00643384 0.07384808 0.007877141 0.045091156 0.21547878 -0.06259797 -0.021716043 -0.22400224
-0.24553977 0.16570432 -0.010862739 -0.05121126 -0.04850171 0.0776146 -0.16743869 0.05598544
0.021029465 0.04987272 0.010485455 -0.0044811857 0.08548064 0.021454217 -0.0084718475 -0.14973113
0.1333672 -0.037790608 -0.006405711 -0.1947888 -0.0016641977 -0.12484003 -0.02647892 0.036944628
0.36884004 -0.033699848 -0.041248314 -0.15340023 0.109041445 -0.006444268 -0.039498016 0.054848157
-0.0071902233 -0.002771318 -0.0427718 0.01660175 -0.26599717 0.056451492 -0.054791663 0.036833853
0.021704005 -0.24319424 0.24357018 0.037065957 0.062063992 -0.26448786 0.024511978 -0.061966367
-0.060250655 0.036258794 0.053080738 0.061443217 -0.027720563 0.038861904 -0.081945784 -0.025993844
-0.057226308 0.0047333227 -0.046715967 0.08356048 -0.06149559 -0.108897656 0.060478084 -0.02033665
-0.24032828 0.22863634 0.06354322 0.0387128 0.10488249 0.02215269 -0.027122304 -0.050789267
-0.21488759 -0.07514045 0.049012646 -0.12508862 -0.003358923 0.046167515 -0.03015954 -0.080727346
0.08072348 -0.17754725 -0.036707237 0.019102246 -0.050498597 0.10546768 -0.19328049 -0.047580026
0.14117464 0.011296421 0.062363647 -0.045169357 0.017463595 -0.010837585 0.017737376 0.06152964
-0.05181601 0.09599752 0.118035406 0.120279245 0.02804108 -0.07877323 0.21496965 -0.021898791
-0.049327165 0.082872406 -0.06663463 -0.02432826 -0.01748513 0.062060073 -0.19057514 0.06821619
-0.13512258 7.871856e-06 0.113322325 -0.041847773 0.04613477 -0.011465033 0.04792974 0.038654458
0.09068677 -0.0073279655 0.04890345 -0.057404242 -0.037193142 -0.24515754 -0.09761775 0.020240873
0.04087887 0.015468597 -0.035250023 0.00027894974 -0.20070285 0.15921733 0.079260744 -0.011113452
0.07246296 0.016925337 -0.021468729 -0.055017717 0.011839915 0.011356744 0.113492005 0.0077008847
-0.0016254634 0.019833535 -0.032539118 -0.035080023 0.20753707 0.1357187 -0.05475864 -0.2406018
0.037218265 0.0785922 0.3223621 -0.32706788 -0.087323695 -0.014411867 0.0209256 -0.117608935
0.09076393 -0.121870436 0.09775145 -0.028037263 0.14728385 0.03319694 -0.11389886 0.01984289
-0.1681855 0.032930534 0.01218869 0.09048513 0.21706615 -0.031934306 0.28788388 -0.23710997
0.07873292 -0.0110891685 -0.024058256 -0.1807221 0.039498024 0.13790554 -0.21460201 -0.030624554
-0.19724083 0.07532063 0.15363778 -0.022952415 0.025739126 0.031898126 -0.0738612 -0.0002545901
0.011476483 -0.060620494 0.03942216 0.029421732 -0.05859364 0.07605676 0.018930236 -0.060306057
0.0972313 0.037470058 0.015074685 -0.23080556 0.194185 -0.0056514964 0.043312542 -0.06751092
00000000: aadf 65bd 722f 84bd fc21 353d 8c83 4abd
00000010: d964 afbc 2236 50bd 9839 47be 5dec 72bd
00000020: 649d 0f3d 6424 99bd 72b9 3cbe a31a 8a3d
00000030: 1ef2 78be 2360 4d3b 6c24 89be b897 9d3e
00000040: 75ff 18be a2a3 39bd a212 6cbd 602f f63b
00000050: decf 66bd 3720 843d 4cd3 54bd 812e 10bd
00000060: e99e b83d 804b 6b3e 981e 08bc bb34 383e
00000070: 138e c3bd 0fea cbbd 65ac eb3d 797a 1c3c
00000080: 004e f93b 74a4 053f 4e33 00bd b1e9 203d
00000090: a88a 223d c756 c1bb aa0e 5bbd 7be6 62be
000000a0: f6d2 d2bb aa3d 973d 200f 013c 81b1 383d
000000b0: 78a6 5c3e 5d33 80bd d8e5 b1bc d860 65be
000000c0: c76e 7bbe 65ae 293e a1f9 31bc e6c2 51bd
000000d0: bba9 46bd 67f4 9e3d 0c75 2bbe fd50 653d
000000e0: fc45 ac3c 5647 4c3d 30cb 2b3c e9d6 92bb
000000f0: 7910 af3d c1c0 af3c 81cd 0abc 1e53 19be
00000100: 6991 083e 53ca 1abd 00e7 d1bb b776 47be
00000110: 3521 daba 21ac ffbd 52ea d8bc 4053 173d
00000120: 9ad8 bc3e da08 0abd fef3 28bd f314 1dbe
00000130: 1f51 df3d 702a d3bb acc8 21bd 76a8 603d
00000140: f79b ebbb 009f 35bb 7c31 2fbd 6500 883c
00000150: c830 88be ae39 673d 396d 60bd 18df 163d
00000160: 99cc b13c e907 79be 766a 793e 79d2 173d
00000170: d036 7e3d f46a 87be 58cd c83c 72d0 7dbd
00000180: 64c9 76bd 1a84 143d 306b 593d e2ab 7b3d
00000190: 3c16 e3bc a92d 1f3d 31d3 a7bd 0bf1 d4bc
000001a0: 2266 6abd fd19 9b3b 3e59 3fbd c221 ab3d
000001b0: cde2 7bbd bc05 dfbd deb7 773d 0c99 a6bc
000001c0: 9e18 76be a51f 6a3e f322 823d 5091 1e3d
000001d0: a2cc d63d 8f79 b53c 982f debc 6808 50bd
000001e0: 7e0b 5cbe 3ce3 99bd 7cc1 483d 3b17 00be
000001f0: 6021 5cbb 261a 3d3d 2411 f7bc 6154 a5bd
00000200: 5a52 a53d f2ce 35be 545a 16bd 507c 9c3c
00000210: 9ed7 4ebd 70ff d73d 52eb 45be 46e3 42bd
00000220: 1690 103e a014 393c 0671 7f3d 8103 39bd
00000230: d00f 8f3c 2090 31bc f94d 913c 8106 7c3d
00000240: 063d 54bd 599a c43d 8cbc f13d f754 f63d
00000250: 68b6 e53c dc53 a1bd 0121 5c3e 1865 b3bc
00000260: 480b 4abd 02b9 a93d bd77 88bd 0f4c c7bc
00000270: fa3c 8fbc b432 7e3d 2126 43be eeb4 8b3d
00000280: 935d 0abe 5d11 0437 8915 e83d 9268 2bbd
00000290: d0f7 3c3d d5d7 3bbc fa51 443d 2354 1e3d
000002a0: fcb9 b93d 6e1f f0bb fc4e 483d b620 6bbd
000002b0: d657 18bd 940a 7bbe d1eb c7bd 30d0 a53c
000002c0: 9a70 273d 0070 7d3c 5462 10bd 0040 9239
000002d0: 0c85 4dbe de09 233e 7553 a23d 3215 36bc
000002e0: 7667 943d 01a7 8a3c 30df afbc 425a 61bd
000002f0: 34fc 413c a311 3a3c 7f6e e83d b457 fc3b
00000300: 800d d5ba f079 a23c bd47 05bd 12b0 0fbd
00000310: 9984 543e d8f9 0a3e 984a 60bd 5160 76be
00000320: 2e72 183d f3f4 a03d a50c a53e 7175 a7be
00000330: c4d6 b2bd c01f 6cbc 2a6c ab3c f4dc f0bd
00000340: 70e2 b93d 3597 f9bd ea31 c83d 67ae e5bc
00000350: 94d1 163e 84f9 073d ce43 e9bd 8e8d a23c
00000360: d238 2cbe 2be2 063d 12b3 473c 4550 b93d
00000370: 9746 5e3e 8ccd 02bd 8465 933e f5cc 72be
00000380: ba3e a13d 58af 35bc d215 c5bc 370f 39be
00000390: aec8 213d 1c37 0d3e a1c0 5bbe 58e0 fabc
000003a0: 80f9 49be b441 9a3d 3953 1d3e b406 bcbc
000003b0: dcda d23c 9ca7 023d 8a44 97bd 817a 85b9
000003c0: dc07 3c3c 324d 78bd 2179 213d d805 f13c
000003d0: e2ff 6fbd a6c3 9b3d 9513 9b3c 7c03 77bd
000003e0: 3421 c73d 347a 193d d0fb 763c 4b58 6cbe
000003f0: 6fd8 463e 3030 b9bb 7e68 313d 2a43 8abd

fc2.bias f4 [256]
-0.07983913 0.033238523 0.050734475 -0.12117241 -0.07888366 -0.064563215 -0.066348374 -0.046921335
-0.055399325 -0.0045196046 -0.13040766 -0.07627356 0.026734458 -0.052842967 0.029309057 -0.01602982
-0.00930783 -0.022789128 0.1514273 -0.052431613 -0.15186307 -0.066141695 -0.003765562 -0.10375032
-0.017873444 -0.00055407133 -0.042887017 -0.0278635 -0.0115769375 -0.070806645 -0.077094615 -0.06486216
-0.06898894 -0.07868788 0.005864598 -0.009020429 0.009388499 0.10215572 -0.0807322 -0.14920099
-0.02421933 -0.09404551 -0.0025295604 -0.11751489 -0.049701 0.00055743044 -0.056023695 -0.10756693
-0.052419852 -0.044420548 -0.028033417 -0.09104965 -0.0493327 -0.1524287 -0.08782076 -0.08775661
-0.064091474 0.03595166 -0.042503722 0.0042406246 -0.1259355 -0.16566639 -0.05607748 -0.07438064
-0.0005437508 -0.020198353 -0.08138752 -0.026788972 -0.11017981 -0.012308705 -0.017003627 -0.0021102547
-0.031938873 -0.048164833 -0.055541754 -0.040426042 -0.10018045 -0.019978441 -0.050415754 -0.04872053
-0.07279526 0.053121597 -0.020739004 -0.015742268 -0.023736615 0.0071904436 0.04022584 -0.07364538
0.01162928 -0.10626089 -0.0970741 -0.09817207 -0.028438069 -0.09538475 0.0018614961 -0.047043223
-0.053819325 -0.00029236655 0.03340614 -0.02712889 -0.033166297 0.00646922 0.0018989907 -0.0009520238
0.17252722 -0.051711984 -0.029380366 -0.08274716 -0.07166134 -0.08221487 -0.09066453 0.0012904614
-0.11230538 -0.06513352 -0.0021656565 -0.05613226 -0.091320425 -0.09314558 -0.1140689 0.017400838
-0.058659114 0.012760148 -0.075151175 -0.04296585 -0.0137490425 -0.044307243 -0.0054747956 0.039084643
-0.071643345 -0.028673159 -0.032992534 -0.050439004 0.07525955 -0.068586275 -0.011406921 -0.0008368251
0.22525723 0.024934031 -0.023469426 0.059728228 -0.081304155 -0.055500638 -0.038953405 -0.021846242
-0.031531516 -0.0427531 -0.08328041 -0.061765898 -0.12045025 -0.026610142 -0.0048250714 -0.057188064
-0.022081964 -0.015863087 -0.10804317 -0.13798828 0.05225531 -0.072968185 0.061628908 -0.041720048
0.092163496 -0.01770701 0.032134242 -0.032940045 -0.07741558 -0.007535676 -0.006882306 -0.0130684925
-0.014768334 0.11521332 -0.052980807 0.05187752 0.004535633 -0.12194751 0.0143318605 0.18715848
-0.05531098 -0.017269343 0.015875919 -0.03662126 -0.027716624 0.040991828 0.08041024 -0.057826377
-0.030875646 -0.06396975 0.08579844 -0.06451428 -0.022806443 0.15053451 -0.059849553 -0.10303828
-0.029133987 -0.08721692 -0.061962232 -0.0098791355 -0.10283198 -0.04456241 -0.0044744844 -0.010414435
-0.10246438 -0.029694311 -0.0042910553 -0.045695268 -0.10456981 -0.017960377 -0.058097407 -0.04285695
-0.026018627 -0.00917535 0.12098415 0.027242357 -0.046588354 -0.030482627 -0.10674482 -0.13409416
-0.03182588 -0.12309896 -0.028561492 0.032762755 0.03699978 -0.047329217 0.13765614 0.0038958811
-0.0153765995 0.02528035 -0.055327654 -0.06515571 -0.04630911 -0.087333426 0.029631503 -0.11681053
-0.046581373 -0.12312542 -0.01711309 -0.09539277 -0.09351953 0.046887636 -0.09919106 -0.023412965
0.035461172 -0.07904253 -0.01722198 -0.094097316 -0.082994975 -0.050532907 -0.033069782 -0.029842705
-0.07163116 0.002866323 -0.011480349 -0.006941763 -0.047335364 -0.08211345 -0.020560607 -0.05580917
00000000: b382 a3bd 1e25 083d f4ce 4f3d 3e29 f8bd
00000010: c28d a1bd b839 84bd a8e1 87bd 9630 40bd
00000020: 67ea 62bd 3119 94bb 9689 05be 5035 9cbd
00000030: 3902 db3c de71 58bd 8c19 f03c f850 83bc
00000040: de7f 18bc 44b0 babc c20f 1b3e 88c2 56bd
00000050: fe81 1bbe 4c75 87bd a6c7 76bb 0c7b d4bd
00000060: 546b 92bc 193f 11ba 4caa 2fbd ff41 e4bc
00000070: 32ad 3dbc 1303 91bd c8e3 9dbd 74d6 84bd
00000080: 134a 8dbd 1c27 a1bd d02b c03b 6cca 13bc
00000090: 38d2 193c 0537 d13d ec56 a5bd 25c8 18be
000000a0: 9e67 c6bc ef9a c0bd fbc6 25bb a6ab f0bd
000000b0: 4793 4bbd 8620 123a 1a79 65bd 0d4c dcbd
000000c0: 33b6 56bd 52f2 35bd 56a6 e5bc 3d78 babd
000000d0: 1611 4abd 4516 1cbe 5fdb b3bd bdb9 b3bd
000000e0: 6442 83bd 0c42 133d 6218 2ebd f0f4 8a3b
000000f0: 3cf5 00be 73a4 29be 80b1 65bd e154 98bd
00000100: 808a 0eba 0477 a5bc 80ae a6bd 8c74 dbbc
00000110: f4a5 e1bd 73aa 49bc 314b 8bbc 334c 0abb
00000120: 56d2 02bd 7d48 45bd c07f 63bd c795 25bd
00000130: 682b cdbd d4a9 a3bc c080 4ebd 2e8f 47bd
00000140: ae15 95bd 0896 593d d8e4 a9bc eef5 80bc
00000150: 4a73 c2bc d09d eb3b dac3 243d 64d3 96bd
00000160: bc88 3e3c 4f9f d9bd c9ce c6bd 700e c9bd
00000170: f4f6 e8bc 1459 c3bd 72fd f33a 65b0 40bd
00000180: a771 5cbd c648 99b9 e0d4 083d 683d debc
00000190: 62d9 07bd c0fb d33b 8ee7 f83a 3c91 79ba
000001a0: faaa 303e f2cf 53bd 18af f0bc 5877 a9bd
000001b0: 2ec3 92bd 4560 a8bd 53ae b9bd b324 a93a
000001c0: 5d00 e6bd b964 85bd b0ed 0dbb f1ea 65bd
000001d0: 3406 bbbd 1cc3 bebd f59c e9bd 348c 8e3c
000001e0: 8a44 70bd f10f 513c dce8 99bd f6fc 2fbd
000001f0: aa43 61bc 837b 35bd ea65 b3bb 3817 203d
00000200: bfb9 92bd f9e3 eabc 2e23 07bd 2199 4ebd
00000210: ae21 9a3d f676 8cbd 18e4 3abc 625e 5bba
00000220: d5a9 663e 7442 cc3c f442 c0bc 96a5 743d
00000230: cb82 a6bd a354 63bd 9b8d 1fbd e4f6 b2bc
00000240: 3127 01bd e01d 2fbd eb8e aabd 3dfe 7cbd
00000250: 9fae f6bd 83fd d9bc a21b 9ebb 083e 6abd
00000260: 3ce5 b4bc 4ef3 81bc bd45 ddbd cd4c 0dbe
00000270: aa09 563d 5870 95bd 986e 7c3d a4e2 2abd
00000280: 37c0 bc3d 4b0e 91bc 329f 033d 24ec 06bd
00000290: 0f8c 9ebd d5ed f6bb f884 e1bb 3b1d 56bc
000002a0: e2f6 71bc f6f4 eb3d 6702 59bd 867d 543d
000002b0: a69f 943b 9ebf f9bd 2ed0 6a3c 79a6 3f3e
000002c0: c48d 62bd 7078 8dbc 370e 823c 2d00 16bd
000002d0: f90d e3bc 0ce7 273d 20ae a43d 5adb 6cbd
000002e0: ecee fcbc 9302 83bd 18b7 af3d 1020 84bd
000002f0: 94d4 babc b825 1a3e ce24 75bd bc05 d3bd
00000300: 66aa eebc c99e b2bd 1ccc 7dbd 19dc 21bc
00000310: 9399 d2bd 1387 36bd b29e 92bb 4ea1 2abc
00000320: d8d8 d1bd 7c41 f3bc fb9b 8cbb f62a 3bbd
00000330: b228 d6bd a421 93bc 8cf7 6dbd c58a 2fbd
00000340: 0425 d5bc 3554 16bc 8ac6 f73d 5d2b df3c
00000350: 6ed3 3ebd b4b6 f9bc 079d dabd fb4f 09be
00000360: db5b 02bd 4f1b fcbd caf9 e9bc 3d32 063d
00000370: 158d 173d 48dc 41bd bbf5 0c3e 0a52 7f3b
00000380: 22ee 7bbc bd18 cf3c 409f 62bd 5b70 85bd
00000390: 9fae 3dbd dedb b2bd c4bd f23c 5c3a efbd
000003a0: 1ccc 3ebd 2e29 fcbd c030 8cbc 495d c3bd
000003b0: 2b87 bfbd 400d 403d af24 cbbd 8ccc bfbc
000003c0: bc3f 113d 0de1 a1bd 1c15 8dbc 18b6 c0bd
000003d0: 45f9 a9bd 98fb 4ebd 2e74 07bd b078 f4bc
000003e0: 5cb3 92bd ecd8 3b3b 1318 3cbc bb77 e3bb
000003f0: bae2 41bd 192b a8bd b86e a8bc 2898 64bd

fc3.weight f4 [256, 256]
-0.024734542 -0.028563842 0.038257174 -0.08211087 -0.11907875 -0.0111414045 -0.1034214 -0.042861827
-0.048392743 -0.0362891 -0.07918228 -0.057300612 -0.05419087 0.055123203 -0.009481274 -0.040972106
-0.040624432 0.002710238 -0.11584539 -0.06958475 -0.10967915 -0.09481093 -0.078783974 -0.060360484
0.0003124252 -0.12135329 0.10904546 0.049933784 -0.041111734 -0.052609093 -0.07072375 -0.04299341
-0.08827079 -0.02229772 -0.0029765218 0.0073110927 -0.117189296 -0.09468556 0.056103423 -0.115411125
-0.04081389 0.03311515 0.0386975 -0.06404299 -0.029847613 0.0006891379 -0.004542701 -0.030004447
0.011696763 -0.07283943 -0.035426047 0.009679548 0.035311647 -0.03154946 0.00018885727 0.0920224
-0.035802387 -0.047003113 -0.051149815 -0.02838549 -0.027070671 -0.10800334 -0.10721123 -0.012921115
-0.031367555 -0.011336148 0.018792018 -0.025888592 0.03458272 -0.056300204 0.03562676 -0.038730707
-0.01861298 -0.11080007 -0.046353273 -0.026202125 -0.055953905 -0.051072426 -0.02620317 -0.08360693
-0.038493574 -0.015919283 -0.010996893 -0.112161964 -0.050887786 -0.015592441 0.032932036 -0.0027296692
-0.07860764 -0.03332137 0.05572538 0.03060618 -0.08778562 -0.0206053 -0.047593705 -0.094454944
-0.057414822 -0.04860972 0.0075761904 0.023624405 0.030038498 0.05201064 -0.014152475 -0.0069724694
0.059879214 -0.09608407 0.03611256 -0.012242727 -0.067422695 -0.01201907 -0.046854813 -0.006257224
0.04112924 0.040350035 -0.009770664 -0.12178742 0.049373932 -0.10479493 0.050768845 0.03255678
-0.0044146627 -0.057930045 -0.023835354 -0.09514235 -0.0015002862 -0.024031525 -0.048152626 -0.024139479
-0.02686607 -0.0046854513 -0.0788487 0.032877922 -0.0030722842 -0.05679309 0.0463335 -0.040704783
-0.021480486 0.11558951 -0.03291174 0.046902202 -0.036638565 -0.122160435 -0.10027851 -0.004029952
-0.11348563 0.005437061 0.10700121 -0.027481385 -0.11432992 -0.007840966 -0.080691166 0.014489748
-0.032670937 -0.11353311 0.016122162 0.023382343 0.057642452 0.051722966 0.005241923 -0.05930209
-0.009146363 0.05426033 0.08215198 -0.051384635 -0.05538505 0.0074870884 -0.057368398 -0.036818124
-0.11456233 -0.0065862895 -0.016383098 -0.008959152 -0.027117243 -0.018290112 -0.04889302 -0.105304874
-0.07528258 0.0076863766 0.032483093 0.1055796 0.02508238 0.0023097247 -0.062090397 0.019098133
0.006669387 -0.05352802 -0.004838299 -0.007760045 -0.073211454 -0.07176678 -0.037936084 0.029782593
-0.10431359 -0.06520084 0.023220517 -0.025667734 -0.03327933 -0.073057406 -0.09205089 -0.113135144
0.05884971 0.0018839389 -0.039716456 -0.05904155 0.00706695 -0.05186911 -0.04337012 0.061312124
-0.07884306 0.012660377 -0.003375195 -0.056245495 -0.0102446005 -0.06546311 -0.0069887713 -0.004139185
-0.004621282 0.011833414 -0.034441102 -0.09778588 0.0022864414 0.037143245 0.05958575 -0.021391336
-0.021913812 -0.021061508 0.04565774 -0.063609414 -0.028494837 -0.043569874 0.039794378 -0.08871887
-0.034513175 -0.01848355 0.051201947 -0.090072 -0.04206027 -0.010474481 -0.0056740413 0.05830527
-0.009145342 0.0991155 0.033808872 0.04755915 0.04598643 0.0020923226 0.04828632 -0.04799495
-0.01837869 0.026675932 -0.11925981 -0.049202114 0.005172305 0.020556279 0.0011166737 -0.11398196
00000000: 18a0 cabc b8fe e9bc 8eb3 1c3d be29 a8bd
00000010: 8fdf f3bd 708a 36bc 99ce d3bd e28f 2fbd
00000020: 7837 46bd e1a3 14bd 522a a2bd 0cb4 6abd
00000030: 3ff7 5dbd dec8 613d 5857 1bbc 5ed2 27bd
00000040: ce65 26bd 409e 313b 5940 edbd 7382 8ebd
00000050: 769f e0bd 3c2c c2bd 7e59 a1bd 8e3c 77bd
00000060: 00cd a339 1388 f8bd 3a53 df3d 5e87 4c3d
00000070: c764 28bd a27c 57bd 9dd7 90bd dc19 30bd
00000080: 51c7 b4bd b5a9 b6bc c011 43bb e491 ef3b
00000090: f100 f0bd 81ea c1bd b4cc 653d ab5c ecbd
000000a0: 772c 27bd c0a3 073d 4581 1e3d f928 83bd
000000b0: fb82 f4bc 43a7 343a f0da 94bb e3cb f5bc
000000c0: c8a3 3f3c d72c 95bd e71a 11bd f896 1e3c
000000d0: f2a2 103d 023a 01bd fd07 4639 3d76 bc3d
000000e0: 86a5 12bd 5686 40bd 7882 51bd b088 e8bc
000000f0: 50c3 ddbc db30 ddbd 9091 dbbd 16b3 53bc
00000100: 447b 00bd 40bb 39bc b8f1 993c 5014 d4bc
00000110: 9ca6 0d3d 0b9b 66bd 5eed 113d 17a4 1ebd
00000120: 407a 98bc 26eb e2bd eedc 3dbd d7a5 d6bc
00000130: ec2f 65bd 5231 51bd 08a8 d6bc 1c3a abbd
00000140: 70ab 1dbd 2869 82bc 502c 34bc 2cb5 e5bd
00000150: b66f 50bd 7077 7fbc bee3 063d 40e4 32bb
00000160: 0bfd a0bd fd7b 08bd 4c40 643d d0b9 fa3c
00000170: f2c8 b3bd 72cc a8bc 9ef1 42bd 9871 c1bd
00000180: ce2b 6bbd fc1a 47bd b141 f83b f887 c13c
00000190: 4c13 f63c 1c09 553d c8df 67bc 5079 e4bb
000001a0: e843 753d bac7 c4bd c4ea 133d b895 48bc
000001b0: e914 8abd a2eb 44bc d5ea 3fbd 6609 cdbb
000001c0: 2277 283d 1446 253d 2315 20bc af6b f9bd
000001d0: 523c 4a3d b99e d6bd fef2 4f3d 425a 053d
000001e0: e0a8 90bb 0e48 6dbd 5c42 c3bc fed9 c2bd
000001f0: 40a5 c4ba c3dd c4bc b03b 45bd 28c0 c5bc
00000200: 3c16 dcbc 6a88 99bb 6d7b a1bd 00ab 063d
00000210: 6058 49bb df9f 68bd 32c8 3d3d 0fba 26bd
00000220: d8f7 afbc 31ba ec3d 76ce 06bd 861c 403d
00000230: 5212 16bd 402f fabd d25e cdbd b00d 84bb
00000240: 276b e8bd 6029 b23b 7323 db3d a420 e1bc
00000250: ce25 eabd 6577 00bc 6941 a5bd 6866 6d3c
00000260: f6d1 05bd 0c84 e8bd a012 843c 548c bf3c
00000270: 7e1a 6c3d 76db 533d 70c4 ab3b c0e6 72bd
00000280: a0da 15bc 1440 5e3d 4c3f a83d b278 52bd
00000290: 6fdb 62bd 4056 f53b 20fb 6abd 9ace 16bd
000002a0: a89f eabd cdd1 d7bb d935 86bc 68c9 12bc
000002b0: fb24 debc 25d5 95bc 0c44 48bd 15aa d7bd
000002c0: c12d 9abd 00de fb3b fe0c 053d 1e3a d83d
000002d0: 9079 cd3c c05e 173b 8052 7ebd b073 9c3c
000002e0: e08a da3b 3240 5bbd 988a 9ebb fa47 febb
000002f0: e3ef 95bd 76fa 92bd de62 1bbd a0fa f33c
00000300: 5da2 d5bd 0588 85bd f438 be3c 2445 d2bc
00000310: e84f 08bd 1f9f 95bd 2d85 bcbd 66b3 e7bd
00000320: 650c 713d 80ee f63a b9ad 22bd 8dd5 71bd
00000330: e091 e73b b474 54bd dea4 31bd 6c22 7b3d
00000340: 7878 a1bd 786d 4f3c 6032 5dbb ad61 66bd
00000350: f8d8 27bc 8611 86bd 1002 e5bb 00a2 87bb
00000360: 206e 97bb f0e0 413c 1d12 0dbd f743 c8bd
00000370: 1fd8 153b 8423 183d 3010 743d e23c afbc
00000380: 9884 b3bc 2f89 acbc 9c03 3b3d a745 82bd
00000390: 016e e9bc 5376 32bd 6eff 223d 3db2 b5bd
000003a0: b05d 0dbd d06a 97bc 22b9 513d ab77 b8bd
000003b0: 6447 2cbd 289d 2bbc 4fed b9bb 82d1 6e3d
000003c0: 58d6 15bc 11fd ca3d 2c7b 0a3d 62cd 423d
000003d0: 445c 3c3d 591f 093b e0c7 453d 5a96 44bd
000003e0: e88e 96bc 7c87 da3c 7d3e f4bd 2888 49bd
000003f0: 707c a93b a465 a83c 5a5d 923a 606f e9bd

fc3.bias f4 [256]
-0.09748387 -0.030129816 -0.049520187 -0.114022374 -0.16255963 0.0863172 -0.05292903 -0.13197805
-0.053853326 -0.07680612 0.00075586967 -0.13869497 -0.0146829765 0.096718304 -0.033866312 -0.12816145
-0.08603075 -0.06379035 -0.069079414 -0.05414228 0.068170965 -0.03454565 0.21057762 0.16460893
-0.097109854 -0.112201855 0.024454813 0.29817727 -0.037560143 0.04185478 -0.03309967 0.18852304
-0.019961355 -0.012579991 0.118944205 0.15098985 -0.08866346 -0.10418481 -0.032905657 -0.1405301
-0.011743234 -0.051670387 -0.18334137 -0.051838044 0.19861925 -0.017622031 -0.05354856 0.022929527
-0.01825908 0.057462443 0.15588535 -0.03829977 -0.082989864 -0.051905494 0.17581289 -0.07902958
0.054131057 -0.011191844 -0.07964219 0.004073148 -0.11423702 -0.059370372 -0.04755573 -0.11701942
-0.120649956 0.1551008 -0.049763877 -0.019561162 -0.10665405 -0.0721722 0.23677698 -0.029112665
-0.037158005 -0.09811756 0.0027015102 0.12356203 -0.019588904 -0.03273131 -0.106937066 -0.0559129
0.009234629 -0.06654565 -0.024402289 -0.09328706 -0.067928426 -0.037655342 -0.10105053 -0.1282008
-0.03332559 0.02158682 -0.042822175 0.04770591 -0.03804813 -0.09081326 -0.04259842 0.058331396
-0.085709535 -0.033876713 0.07475327 0.11637601 -0.038228855 -0.054057848 -0.03715833 0.28532892
-0.040652387 -0.09923994 -0.027018424 0.021069676 0.06123606 -0.075670764 -0.030924711 -0.09679642
0.05675559 -0.026268741 -0.16096611 0.36902204 -0.04886263 -0.012946752 -0.13741045 0.01845371
-0.061596047 -0.076247275 -0.047444746 -0.027645603 -0.02772661 -0.035141226 -0.032093704 -0.07009383
-0.12423785 -0.07999298 -0.0050252313 -0.10513672 -0.09726495 -0.08859443 -0.01579303 -0.03741236
-0.10440863 -0.09264503 -0.079659455 -0.07302987 -0.033914454 -0.0039940006 -0.03903413 -0.0390553
-0.0026006363 -0.058106914 -0.045118652 -0.077954695 -0.057464983 -0.08198091 -0.02377797 -0.03755799
-0.063823916 -0.053849827 -0.048074063 0.06884173 -0.007730739 -0.08529441 0.15495446 -0.036369704
-0.11503704 -0.110398665 -0.006752773 0.26887456 -0.032261364 -0.023236148 0.0010871859 -0.018359967
-0.03190825 0.03739456 -0.022843298 -0.10371934 -0.05089248 -0.044384275 -0.10460057 -0.107602805
0.19359124 0.102019764 -0.020900445 0.0048223734 0.012748876 -0.017719932 -0.028906131 -0.06926554
0.11870454 -0.036817875 0.0104583725 -0.07578394 -0.034467727 -0.13177565 0.12913689 -0.060850274
0.09727163 -0.051203582 -0.12430246 -0.10559268 0.07091414 -0.029277766 -0.07719132 -0.08560753
-0.09612286 -0.039733157 -0.049499247 -0.008591849 -0.042541113 0.15307945 0.039722085 -0.040607944
-0.039122608 0.15733665 -0.084436335 0.011171758 -0.0014131133 -0.061710507 -0.06700661 0.09717169
-0.020820022 0.019068226 -0.11589624 -0.032718647 -0.03997857 -0.030143093 -0.045751385 -0.040533733
-0.00053244946 -0.06317595 -0.062274005 0.007888124 -0.10924085 -0.08262255 -0.029215636 -0.074235596
-0.09624551 -0.10291773 -0.08227173 -0.075569786 -0.08654191 -0.090055004 -0.113763124 0.03758506
-0.06384604 -0.11135872 0.025985919 -0.017437555 -0.11576173 -0.09088013 -0.036799178 -0.038503326
-0.011091701 0.12476617 -0.14488506 -0.029050406 -0.07880508 -0.051207673 0.127085 -0.1367487
00000000: a0a5 c7bd ced2 f6bc aed5 4abd 9084 e9bd
00000010: 0876 26be 12c7 b03d 1ccc 58bd 4125 07be
00000020: 4e95 5cbd 874c 9dbd 8e25 463a 0e06 0ebe
00000030: de90 70bc 3f14 c63d 67b7 0abd c13c 03be
00000040: e430 b0bd 84a4 82bd 8279 8dbd 4cc4 5dbd
00000050: 389d 8b3d bd7f 0dbd a9a1 573e 3e8f 283e
00000060: 88e1 c6bd 16ca e5bd 7655 c83c b1aa 983e
00000070: aad8 19bd eb6f 2b3d 8593 07bd 2f0c 413e
00000080: ff85 a3bc 4e1c 4ebc 0599 f33d 159d 1a3e
00000090: 3095 b5bd d85e d5bd 15c8 06bd 1fe7 0fbe
000000a0: b166 40bc 54a4 53bd d7bd 3bbe 2154 54bd
000000b0: d862 4b3e 145c 90bc bc55 5bbd b4d6 bb3c
000000c0: 1194 95bc bd5d 6b3d 69a0 1f3e 38e0 1cbd
000000d0: 97f6 a9bd db9a 54bd 4b08 343e 43da a1bd
000000e0: 87b8 5d3d ff5d 37bc 721b a3bd 0b78 853b
000000f0: 19f5 e9bd 592e 73bd ccc9 42bd e1a7 efbd
00000100: 5317 f7bd bed2 1e3e 35d5 4bbd bb3e a0bc
00000110: 706d dabd 05cf 93bd aa75 723e af7d eebc
00000120: fe32 18bd dcf1 c8bd d20b 313b 170e fd3d
00000130: e978 a0bc 4411 06bd d201 dbbd ed04 65bd
00000140: d74c 173c 1649 88bd 4fe7 c7bc 490d bfbd
00000150: 0f1e 8bbd 7d3c 1abd 95f3 cebd 1247 03be
00000160: 6a80 08bd d8d6 b03c 4e66 2fbd 4667 433d
00000170: 5bd8 1bbd 4dfc b9bd ae7b 2ebd e7ec 6e3d
00000180: 7b88 afbd 4fc2 0abd 3e18 993d 8c56 ee3d
00000190: dc95 1cbd c36b 5dbd 5533 18bd a216 923e
000001a0: 1e83 26bd 4f3e cbbd be55 ddbc 509a ac3c
000001b0: aad2 7a3d 46f9 9abd d255 fdbc 343d c6bd
000001c0: 8d78 683d 8b31 d7bc 4dd4 24be 75f0 bc3e
000001d0: 2e24 48bd 9d1e 54bc 53b5 0cbe 3c2c 973c
000001e0: 234c 7cbd 8827 9cbd 6c55 42bd 0879 e2bc
000001f0: ea22 e3bc 3ff0 0fbd b074 03bd 5b8d 8fbd
00000200: 6a70 febd 5cd3 a3bd b2aa a4bb ec51 d7bd
00000210: d932 c7bd ff70 b5bd 6260 81bc b43d 19bd
00000220: 31d4 d5bd adbc bdbd 7f24 a3bd af90 95bd
00000230: e2e9 0abd 1be0 82bb 40e2 1fbd 73f8 1fbd
00000240: 706f 2abb 8401 6ebd 56ce 38bd b6a6 9fbd
00000250: 6760 6bbd 9be5 a7bd 04ca c2bc 68d6 19bd
00000260: 1db6 82bd a391 5cbd 4fe9 44bd e5fc 8c3d
00000270: 2452 fdbb d6ae aebd 62ac 1e3e 66f8 14bd
00000280: 8a98 ebbd b218 e2bd 5e46 ddbb eda9 893e
00000290: 7e24 04bd bc59 bebc e87f 8e3a a467 96bc
000002a0: 3ab2 02bd 0a2b 193d de21 bbbc ce6a d4bd
000002b0: a274 50bd 49cc 35bd d338 d6bd dc5e dcbd
000002c0: c83c 463e bdef d03d 6937 abbc 0005 9e3b
000002d0: a9e0 503c 6429 91bc 8dcc ecbc 17db 8dbd
000002e0: 5e1b f33d 57ce 16bd 9859 2b3c 9c34 9bbd
000002f0: 082e 0dbd 32f0 06be 763c 043e 233e 79bd
00000300: 5936 c73d d9ba 51bd 4a92 febd fa40 d8bd
00000310: 6f3b 913d edd7 efbc 7c16 9ebd 0053 afbd
00000320: 10dc c4bd 3cbf 22bd b9bf 4abd d4c4 0cbc
00000330: 973f 2ebd dcc0 1c3e a0b3 223d 8454 26bd
00000340: 073f 20bd dc1c 213e f5ec acbd c009 373c
00000350: 3738 b9ba 28c4 7cbd c33a 89bd f301 c73d
00000360: c08e aabc f834 9c3c 025b edbd fd03 06bd
00000370: 92c0 23bd a6ee f6bc ce65 3bbd b306 26bd
00000380: 1494 0bba 6462 81bd 0713 7fbd 313d 013c
00000390: abb9 dfbd 0336 a9bd a155 efbc d508 98bd
000003a0: 5e1c c5bd 88c6 d2bd 157e a8bd 55c4 9abd
000003b0: e33c b1bd c26e b8bd a4fc e8bd cbf2 193d
000003c0: b6c1 82bd 0a10 e4bd 6ce0 d43c 34d9 8ebc
000003d0: 7c14 edbd 5d1f babd bcba 16bd aab5 1dbd
000003e0: f7b9 35bc 6885 ff3d c05c 14be 1efb edbc
000003f0: 8f64 a1bd 23bf 51bd 9222 023e da07 0cbe

classifier.weight f4 [16, 256]
-0.0062651546 0.008779854 0.061079703 0.08265683 0.06198884 0.049739633 0.0036604793 0.017187275
0.04121623 0.025571825 0.0072439476 0.15668593 0.028443115 -0.16071482 -0.20088841 -0.05493913
0.05190761 -0.10256314 -0.116069645 0.008785399 -0.1161662 0.014005582 0.023842223 -0.33746782
-0.01753307 -0.043744516 -0.065768175 -0.33441305 0.078374356 0.0684555 -0.035947733 -0.03163137
0.108626194 -0.071907185 -0.23572254 -0.27140164 -0.18104684 0.034167215 0.046982974 -0.104716554
0.034775063 0.08303653 0.068705186 0.0015841152 -0.20104201 0.08114069 0.08924607 -0.004489675
0.038466346 -0.1605273 -0.38695824 0.07222177 -0.06616916 -0.08415576 -0.31804815 0.0011658559
0.12433452 -0.16516118 -0.036895912 -0.25727916 0.074397944 0.018569091 -0.09020569 0.07061635
0.0294468 0.033117134 0.008882203 0.0121719865 0.07013423 0.10585817 -0.4585069 0.0009301704
0.03161173 -0.028072603 0.0994285 -0.09944872 0.12595557 -0.12690444 0.077901155 -0.18136612
-0.28440747 -0.093652345 -0.099137425 0.051602267 0.008511558 0.08966856 -0.073252946 0.028195346
-0.044212073 -0.032636195 -0.19350065 -0.06083051 0.0727468 0.003395378 -0.113741785 -0.07715129
-0.091767475 -0.1988825 0.025157692 0.089976 0.033358708 -0.04116718 0.02141497 -0.11864124
0.010020263 -0.0008519246 0.13822117 0.093285106 0.03175257 0.022927575 0.065624386 -0.025859144
0.05932189 -0.14439347 0.14989112 -0.4996979 0.05334822 -0.11049324 -0.017357958 -0.2623458
4.0410607e-05 -0.03892367 0.11514743 0.094453014 -0.066838175 -0.063317806 0.024801271 -0.077387914
0.14576864 -0.007962547 -0.10123589 -0.15273851 -0.06495056 -0.048692744 0.07186818 0.08396393
-0.001051845 0.040649157 0.1153053 0.024730457 0.024890011 0.024358157 0.061489474 -0.032134112
0.0289169 0.007939871 -0.019260244 -0.13194661 -0.10693654 0.106624596 0.0409849 0.011551954
0.04532365 -0.0766835 0.08081397 -0.06593279 0.049212176 0.04574669 -0.513465 -0.039544247
-0.16498834 -0.08580584 0.035888933 -0.43565014 0.08384919 0.05903343 0.060655657 -0.013126136
0.04861861 0.11182107 -0.09551661 -0.10940222 0.022858605 -0.00985083 -0.003976504 -0.041233778
0.03435687 -0.26414895 -0.049530752 -0.052413307 0.09127401 -0.009450983 0.11292816 -0.10114448
0.04757233 0.010470263 -0.03568723 -0.05122771 0.1515415 -0.040888585 -0.42346478 0.13174395
0.026821194 0.03057525 0.02801864 -0.04709005 0.090464436 0.076513045 0.057480946 -0.07694531
0.005336074 -0.050939098 0.11815477 0.040865224 0.10949383 -0.07990609 -0.24700406 -0.041684557
0.022679616 0.11375747 -0.067839935 -0.034613285 0.086263575 0.01129186 0.120311424 0.07016245
0.010451904 0.03443398 0.039608262 0.017803827 0.06612111 0.09869484 -0.057594433 -0.10795024
0.028923752 -0.06478699 0.04898622 0.03571475 -0.0696167 0.11739644 -0.07715216 0.03649442
-0.15073319 -0.117709376 0.03366837 0.032954503 0.10638721 0.05145062 0.033927497 0.07589545
9.400425e-05 0.048353232 0.033668958 0.016482573 0.053232335 -0.09113136 0.068344146 -0.0550242
-0.26596296 -0.00185715 -0.1046971 -0.028501555 0.064239025 0.097013175 -0.11530856 0.0629865
00000000: ed4b cdbb 60d9 0f3c b62e 7a3d fc47 a93d
00000010: 03e8 7d3d c9bb 4b3d a7e4 6f3b 54cc 8c3c
00000020: 59d2 283d 017c d13c a35e ed3b 4772 203e
00000030: 8901 e93c 6d92 24be b1b5 4dbe da07 61bd
00000040: 139d 543d a00c d2bd ecb5 edbd a2f0 0f3c
00000050: 8be8 edbd ab77 653c c450 c33c 95c8 acbe
00000060: 83a1 8fbc 732d 33bd 77b1 86bd 3038 abbe
00000070: bc82 a03d 6632 8c3d ee3d 13bd e58f 01bd
00000080: 6977 de3d 1344 93bd 4061 71be 28f5 8abe
00000090: 5864 39be ecf2 0b3d 3871 403d a275 d6bd
000000a0: 4c70 0e3d 0e0f aa3d 4eb5 8c3d 16a2 cf3a
000000b0: f5dd 4dbe 172d a63d a5c6 b63d 201e 93bb
000000c0: e38e 1d3d 4561 24be 641f c6be 02e9 933d
000000d0: b283 87bd db59 acbd 35d7 a2be a2cf 983a
000000e0: 19a3 fe3d 0320 29be 2b20 17bd 18ba 83be
000000f0: f35d 983d 351e 983c c3bd b8bd 4e9f 903d
00000100: 6a3a f13c d5a5 073d a986 113c 036d 473c
00000110: 89a2 8f3d 2bcc d83d 6bc1 eabe aed6 733a
00000120: 4d7b 013d 84f8 e5bc 2ba1 cb3d c5ab cbbd
00000130: 7ffa 003e 3df3 01be a48a 9f3d 0ab8 39be
00000140: db9d 91be cdcc bfbd 9008 cbbd e65c 533d
00000150: 1074 0b3c 26a4 b73d a405 96bd edf9 e63c
00000160: b817 35bd 88ad 05bd 0925 46be 6a29 79bd
00000170: 46fc 943d fd84 5e3b 74f1 e8bd 7f01 9ebd
00000180: 96f0 bbbd dba7 4bbe 8117 ce3c 5645 b83d
00000190: 24a3 083d eb9e 28bd 726e af3c 2efa f2bd
000001a0: 072c 243c b153 5fba da89 0d3e 430c bf3d
000001b0: fc0e 023d 9cd2 bb3c 1466 863d 8ed6 d3bc
000001c0: 83fb 723d e2db 13be 0f7d 193e 67d8 ffbe
000001d0: aa83 5a3d 484a e2bd 4732 8ebc 3052 86be
000001e0: 8f7e 2938 6d6e 1fbd 6ad2 eb3d 9570 c13d
000001f0: 74e2 88bd c4ac 81bd 092c cb3c 8e7d 9ebd
00000200: 6044 153e 5875 02bc c354 cfbd 7c67 1cbe
00000210: cd04 85bd 0b72 47bd a02f 933d 48f5 ab3d
00000220: 10de 89ba bb7f 263d 2f25 ec3d 8797 ca3c
00000230: 23e6 cb3c c28a c73c 63dc 7b3d 0f9f 03bd
00000240: 22e3 ec3c 3c16 023c a9c7 9dbc 031d 07be
00000250: 8b01 dbbd ff5d da3d c8df 273d 6844 3d3c
00000260: 4ba5 393d 3d0c 9dbd cb81 a53d c507 87bd
00000270: b592 493d e260 3b3d 7172 03bf 26f9 21bd
00000280: b4f2 28be f9ba afbd 4600 133d 890d dfbe
00000290: 20b9 ab3d 0acd 713d 1172 783d 010f 57bc
000002a0: 4f24 473d 7202 e53d 369e c3bd 450e e0bd
000002b0: f841 bb3c 6065 21bc 554d 82bb c0e4 28bd
000002c0: cab9 0c3d 883e 87be c2e0 4abd 56af 56bd
000002d0: deed ba3d 4cd8 1abc e146 e73d d624 cfbd
000002e0: 34db 423d 778b 2b3c c62c 12bd 26d4 51bd
000002f0: b22d 1b3e ca7a 27bd 60d0 d8be e3e7 063e
00000300: 1fb8 db3c f278 fa3c 5987 e53c 7fe1 40bd
00000310: 6b45 b93d dfb2 9c3d 2471 6b3d 8195 9dbd
00000320: 3cda ae3b 84a5 50bd 21fb f13d 4b62 273d
00000330: 4d3e e03d cea5 a3bd a2ee 7cbe 6dbd 2abd
00000340: 9aca b93c adf9 e83d aaef 8abd a9c6 0dbd
00000350: f5aa b03d 7e01 393c d665 f63d 55b1 8f3d
00000360: 763e 2b3c a50a 0d3d 463c 223d 55d9 913c
00000370: 816a 873d 8520 ca3d 24e8 6bbd 0415 ddbd
00000380: 81f1 ec3c 0baf 84bd c6a5 483d a149 123d
00000390: 3393 8ebd 8b6d f03d f401 9ebd 2c7b 153d
000003a0: cd59 1abe 9d11 f1bd d8e7 093d 4dfb 063d
000003b0: 8ae1 d93d e3bd 523d 8ff7 0a3d 136f 9b3d
000003c0: 2624 c538 0a0e 463d 76e8 093d 7606 873c
000003d0: 260a 5a3d 14a3 babd 04f8 8b3d 0e61 61bd
000003e0: 4c2c 88be 9d6b f3ba 6f6b d6bd 187c e9bc
000003f0: c08f 833d d8ae c63d e526 ecbd 11ff 803d

classifier.bias f4 [16]
-0.17087741 0.024571797 -0.124670275 -0.01099097 0.12939908 0.06414901 0.014739576 0.10679064
-0.061239827 0.107619256 0.07653638 0.021477347 0.03762765 0.037510835 -0.104513936 -0.15832795
00000000: 7dfa 2ebe cb4a c93c 2153 ffbd 7813 34bc
00000010: 3181 043e 8e60 833d 437e 713c 0db5 da3d
00000020: 9dd6 7abd 7c67 dc3d 1bbf 9c3d 43f1 af3c
00000030: 731f 1a3d f6a4 193d 670b d6bd b920 22be
