transfer14_01_47_22_10_12_FullyConnected.pth (torch, 550959 bytes, 8 tensors)

fc1.weight f4 [256, 4]
-0.38573116 -0.2810384 0.16181064 0.13407522 0.2565427 0.4546428 0.2896348 -0.19294634
0.15086482 0.5678779 0.051032834 -0.18254477 -0.43624118 0.4104206 0.5952027 0.3530397
-0.42538846 -0.2664054 0.19585466 -0.114500344 -0.3246203 0.32053784 -0.33651716 0.27212203
0.04262571 0.15241298 0.2952622 0.27335483 0.12942076 -0.28121227 -0.27257305 -0.07280239
-0.070519924 -0.2920618 0.16459954 -0.46525145 0.47174257 0.2962884 -0.10212562 0.3219897
-0.03248239 0.5965761 0.51768935 0.25308293 -0.309254 -0.28862995 -0.058368325 -0.12934375
-0.35179812 -0.13279033 0.07369846 -0.24572253 0.2423805 0.117322795 0.5520528 0.056970563
-0.026938343 0.2598516 0.54848397 -0.0143962195 0.07509118 0.047940135 -0.47577405 -0.18882453
0.19950496 -0.5184327 0.08326661 -0.18922685 0.17013486 -0.56096953 -0.15179446 0.4527739
0.2761379 -0.094330356 0.15526046 -0.25978488 -0.06502136 -0.16975495 0.36865667 0.25049382
-0.4728601 -0.08896022 0.46066588 0.21562916 -0.2120961 0.20230502 0.39211726 -0.41367543
-0.1510479 -0.5698958 -0.3883841 -0.3614066 0.17978421 -0.21086892 -0.31092674 -0.18557258
-0.118571326 0.41811585 -0.18088357 -0.095094316 -0.23026413 -0.24778432 -0.48863155 -0.40641898
0.4800515 -0.113208726 -0.32559365 -0.16672152 -0.3824488 0.16017711 0.1835375 0.24454726
0.12801167 -0.34833333 -0.037070986 0.1315916 -0.4001888 -0.4008186 -0.07209182 0.050937414
-0.12570603 0.04496872 0.16775961 -0.37995556 0.3114814 -0.11873329 0.11088223 -0.21225251
0.0009753108 0.20903999 -0.09963179 -0.4789886 -0.38068396 -0.036029637 0.07507378 0.32241172
-0.31711185 -0.05117664 -0.6447549 0.18695591 0.10475695 0.20052224 0.21555322 -0.44962174
0.23933458 0.47224125 0.42329016 -0.47097912 0.24583396 0.56509566 0.6431895 0.0073531233
-0.4866126 0.22665995 0.5407805 0.49490848 0.14052144 0.17362049 -0.28674838 0.24902557
-0.17027855 0.17514431 0.20749378 -0.18302947 0.5019429 -0.3471979 0.38499033 0.12255263
-0.30358082 0.48513162 -0.20027423 -0.3781284 0.20723015 -0.64955 -0.050785642 -0.13567618
0.3302681 0.2512717 0.29906285 0.29307705 -0.35056704 -0.23046337 -0.39959756 0.26041952
0.4586442 0.43269992 0.37392762 -0.007874727 -0.30562052 0.4885969 0.10688276 -0.18674035
0.06884694 0.3985057 -0.306006 -0.4482404 0.25975016 0.1804587 0.23852646 -0.53182846
0.15271886 0.26603356 0.1254304 0.10419095 0.11069347 0.46824768 0.49243963 -0.35473517
-0.3019989 -0.61136097 -0.19293842 0.30674458 -0.40829775 -0.1525658 -0.111954436 -0.23653033
0.021668917 -0.46550983 0.24262619 0.033632778 -0.04390931 -0.13635409 -0.21722513 0.056084692
-0.2611417 0.57890207 0.43362594 -0.03796589 0.25516793 0.47544336 0.50026804 0.24926774
-0.0123921195 -0.12257608 -0.5635106 -0.37453735 0.26322603 -0.07492864 0.40179163 -0.40082633
-0.048752014 0.2831669 -0.32912964 -0.0810797 0.3404336 -0.61000985 0.014079034 0.10074331
-0.4561239 -0.31835234 0.2193256 -0.44473135 0.19989038 -0.2725395 -0.380602 -0.39541876
00000000: 8e7e c5be 44e4 8fbe b0b1 253e 044b 093e
00000010: 9159 833e f1c6 e83e 034b 943e ba93 45be
00000020: 4f7c 1a3e 7260 113f ce07 513d 04ed 3abe
00000030: 015b dfbe a622 d23e 345f 183f 9fc1 b43e
00000040: 84cc d9be 4a66 88be 208e 483e 287f eabd
00000050: a234 a6be 891d a43e fa4b acbe 9453 8b3e
00000060: 4c98 2e3d 2612 1c3e 9b2c 973e 2af5 8b3e
00000070: e086 043e 0efb 8fbe b28e 8bbe 6b19 95bd
00000080: c06c 90bd 2089 95be c88c 283e 7035 eebe
00000090: 3e88 f13e 1db3 973e 3d27 d1bd d5db a43e
000000a0: 410c 05bd 36b9 183f 4a87 043f 1694 813e
000000b0: 8a56 9ebe 4ec7 93be a013 6fbd b072 04be
000000c0: e21e b4be 30fa 07be 38ef 963d b09e 7bbe
000000d0: 9832 783e ef46 f03d 5553 0d3f f759 693d
000000e0: cdad dcbc 450b 853e 7269 0c3f 1fde 6bbc
000000f0: 68c9 993d e05c 443d a898 f3be 385b 41be
00000100: 074b 4c3e 01b8 04bf af87 aa3d afc4 41be
00000110: d537 2e3e b39b 0fbf 0270 1bbe fbd1 e73e
00000120: f261 8d3e 4630 c1bd 99fc 1e3e 8602 85be
00000130: eb29 85bd 3ed4 2dbe 91c0 bc3e ba40 803e
00000140: b81a f2be c730 b6bd 66dc eb3e e4cd 5c3e
00000150: b82f 59be 0c29 4f3e 98c3 c83e 44cd d3be
00000160: 4dac 1abe b1e4 11bf 48da c6be 490a b9be
00000170: 5a19 383e 06ee 57be ca31 9fbe bd06 3ebe
00000180: 86d5 f2bd 4813 d63e 8b39 39be cfc0 c2bd
00000190: 5cca 6bbe 2cbb 7dbe ea2d fabe 2616 d0be
000001a0: 4fc9 f53e fad9 e7bd 36b4 a6be 0cb9 2abe
000001b0: 54d0 c3be 7805 243e 41f1 3b3e 996a 7a3e
000001c0: 7e15 033e bf58 b2be bfd7 17bd f3bf 063e
000001d0: 8ce5 ccbe 1838 cdbe e0a4 93bd c0a3 503d
000001e0: 15b9 00be 1f31 383d 2dc9 2b3e 8989 c2be
000001f0: 7d7a 9f3e 702a f3bd 3916 e33d b958 59be
00000200: 00ac 7f3a 940e 563e c00b ccbd fe3d f5be
00000210: 02e9 c2be d093 13bd 48c0 993d 2613 a53e
00000220: 7c5c a2be 999e 51bd a80e 25bf 5f71 3f3e
00000230: d08a d63d b455 4d3e fcb9 5c3e d234 e6be
00000240: 2014 753e 9bc9 f13e 7db9 d83e 2d24 f1be
00000250: e6bb 7b3e 1caa 103f 11a8 243f 78f2 f03b
00000260: 4925 f9be 8c19 683e 9770 0a3f a564 fd3e
00000270: dae4 0f3e 92c9 313e afd0 92be 8f00 7f3e
00000280: 805d 2ebe 0859 333e 4079 543e 146c 3bbe
00000290: 547f 003f ecc3 b1be 741d c53e e0fc fa3d
000002a0: f26e 9bbe 2c63 f83e b014 4dbe 0c9a c1be
000002b0: 2434 543e e948 26bf 9b04 50bd b2ee 0abe
000002c0: e718 a93e afa6 803e c41e 993e 320e 963e
000002d0: 867d b3be 97fe 6bbe 0d98 ccbe b555 853e
000002e0: 6ad3 ea3e d88a dd3e 7173 bf3e 0005 01bc
000002f0: 4b7a 9cbe 5f29 fa3e 59e5 da3d dd38 3fbe
00000300: a0ff 8c3d f008 cc3e d2ac 9cbe c47f e5be
00000310: f9fd 843e 2aca 383e 4840 743e e925 08bf
00000320: 5562 1c3e 8d35 883e d470 003e 1162 d53d
00000330: 42b3 e23d 29be ef3e 0c21 fc3e d99f b5be
00000340: 9a9f 9abe 2782 1cbf a691 45be a00d 9d3e
00000350: 670c d1be 363a 1cbe 5e48 e5bd 0235 72be
00000360: 0383 b13c 4e57 eebe 0073 783e 86c2 093d
00000370: 40da 33bd 68a0 0bbe 4470 5ebe 10b9 653d
00000380: 5db4 85be ed32 143f 3804 de3e 1f82 1bbd
00000390: 5fa5 823e 506d f33e 9111 003f 0b40 7f3e
000003a0: 5108 4bbc 2b09 fbbd 3b42 10bf 5cc3 bfbe
000003b0: 90c5 863e 3074 99bd a2b7 cd3e 1c39 cdbe
000003c0: 31b0 47bd 40fb 903e ae83 a8be 1d0d a6bd
000003d0: 504d ae3e 9b29 1cbf c0ab 663c 8252 ce3d
000003e0: 1289 e9be 14ff a2be e496 603e d4b3 e3be
000003f0: 10b0 4c3e 4c8a 8bbe 44de c2be 5474 cabe

fc1.bias f4 [256]
-0.30489314 0.026419668 0.3368916 0.36438173 0.099131584 0.013183876 -0.16097564 0.30781034
-0.13581681 -0.27080187 0.2590219 0.028918445 -0.35988492 0.2199273 0.28350157 -0.34064502
0.44385654 -0.23753777 0.09095019 -0.038876135 0.1542551 -0.4490226 0.4677684 0.32583532
0.10600743 0.06576103 0.27000818 0.088444404 0.22999033 -0.49552 0.2597859 0.07634049
0.1258508 -0.4574132 0.033058405 -0.1192683 0.5102137 0.26834562 -0.00079271063 -0.15014207
-0.44354314 -0.16384785 -0.45974964 0.050235197 -0.14880161 0.12083102 0.007600368 0.28684095
-0.43972415 0.3436274 -0.0050783353 0.16098939 0.27553457 0.34953165 -0.07031708 -0.458481
-0.008689242 0.037550148 0.2556142 -0.24912876 0.1187368 0.30156684 0.037297666 -0.4570526
-0.49737614 -0.2473334 -0.09009602 -0.3449781 0.19118749 -0.03946644 0.14961205 -0.32394612
0.19667159 0.30758104 -0.050620973 0.40627074 -0.35128176 -0.38320583 -0.07848064 -0.11179287
0.03861257 -0.31732568 -0.07421806 -0.051313087 0.20732221 -0.13804136 -0.384849 -0.15544124
-0.09678161 0.3393459 0.2462653 0.045660634 -0.21907514 -0.3093438 -0.041753113 -0.405164
0.02630932 -0.18710424 0.19096388 0.30374914 -0.32711628 -0.12889165 -0.11622473 -0.23519528
-0.3348778 0.18872324 0.3397884 0.20281519 0.30364513 -0.15892746 0.293094 0.19842272
-0.07694738 0.104474336 0.3556889 -0.15873404 0.10484869 0.14109223 0.33764026 -0.4168607
0.022727996 -0.43738842 0.16752581 -0.39338738 0.23640911 -0.4315219 -0.4489141 0.04985557
0.027684622 0.01861074 0.14809835 -0.030198386 -0.36024022 0.38362888 -0.35041088 -0.24328661
-0.050327588 0.360304 -0.15172207 -0.40915966 -0.47358936 0.3403951 -0.43888682 -0.13765097
-0.06350518 0.12788743 0.45170167 -0.3339377 0.071459234 0.29731262 -0.4933734 -0.1826549
0.18944804 -0.11554526 -0.27715808 -0.20253539 0.18287355 -0.021359468 0.22860676 -0.042670507
-0.30181307 -0.034275655 -0.14826477 0.26877692 -0.4779591 -0.32043907 0.13694315 0.18538527
-0.29170763 -0.3401713 0.07803324 0.23796605 -0.4307704 0.36746618 -0.39738148 0.06831091
0.13407153 0.20258643 0.30873019 0.104678154 -0.06436571 -0.11804903 -0.49457178 -0.4152971
-0.26109713 0.026384994 0.26866335 -0.18669145 0.19530864 0.01418343 -0.39254022 0.058449544
-0.32556215 0.03229138 -0.18641615 -0.1513231 -0.026680646 0.43547383 -0.14330971 0.33619127
0.49877447 0.028793924 0.2131269 0.4109164 0.21963793 0.1493385 -0.014579032 -0.49570704
-0.09047715 0.025974315 -0.0713194 0.093503356 -0.2258712 -0.20512185 0.33697912 -0.4249975
0.40881386 0.19335867 0.1172297 0.36652017 0.12972009 0.23543404 -0.36773086 -0.49952
0.22473441 0.09954897 0.079620376 0.06707217 0.23042218 -0.3837949 -0.090139285 0.21704507
-0.46064338 -0.43118924 0.021622121 -0.39804873 -0.3418758 0.1459081 -0.25997508 -0.39169872
-0.11075605 0.08470851 0.25941795 -0.27792212 0.5176649 -0.18964976 0.2268532 -0.04567652
-0.080014706 0.38097298 -0.47822374 0.45684597 -0.47078758 -0.15080571 -0.21024792 -0.12981477
00000000: f41a 9cbe 0f6e d83c 0e7d ac3e 3e90 ba3e
00000010: 8005 cb3d 2f01 583c ccd6 24be 5199 9d3e
00000020: 9013 0bbe 8ba6 8abe 859e 843e 60e6 ec3c
00000030: d642 b8be 9f34 613e 1e27 913e 0669 aebe
00000040: 2a41 e33e 1a3d 73be 1844 ba3d 953c 1fbd
00000050: 0df5 1d3e 4ae6 e5be 577f ef3e e3d3 a63e
00000060: 6c1a d93d b8ad 863d 833e 8a3e 5722 b53d
00000070: 9682 6b3e ccb4 fdbe a802 853e 6758 9c3d
00000080: 08df 003e 1032 eabe 4068 073d f042 f4bd
00000090: 5d9d 023f 9964 893e e9cd 4fba d8be 19be
000000a0: 1618 e3be bbc7 27be 4e64 ebbe 6cc3 4d3d
000000b0: 735f 18be 4176 f73d 820c f93b d1dc 923e
000000c0: 8623 e1be eeef af3e 2a68 a6bb 67da 243e
000000d0: de12 8d3e d0f5 b23e 6702 90bd 06be eabe
000000e0: 535d 0ebc 2fce 193d dddf 823e 9c1b 7fbe
000000f0: 482c f33d f866 9a3e 70c5 183d cc02 eabe
00000100: 16a8 febe f844 7dbe 4384 b8bd f8a0 b0be
00000110: a7c6 433e 90a7 21bd e733 193e 44dc a5be
00000120: 4764 493e 437b 9d3e f057 4fbd b802 d03e
00000130: 34db b3be 8e33 c4be 75ba a0bd a9f3 e4bd
00000140: 3728 1e3d 8378 a2be a3ff 97bd ac2d 52bd
00000150: 464c 543e b75a 0dbe ee0a c5be fd2b 1fbe
00000160: 7035 c6bd bfbe ad3e f92c 7c3e a506 3b3d
00000170: 3c55 60be 5062 9ebe 5005 2bbd a871 cfbe
00000180: a586 d73c 4198 3fbe 098c 433e 0285 9b3e
00000190: c97b a7be 2cfc 03be 3b07 eebd 08d7 70be
000001a0: 1a75 abbe aa40 413e bff8 ad3e c9ae 4f3e
000001b0: 6077 9b3e e1bd 22be 6b10 963e 532f 4b3e
000001c0: 9796 9dbd a4f6 d53d db1c b63e 2d8b 22be
000001d0: e9ba d63d 7b7a 103e 2fdf ac3e c46e d5be
000001e0: 1030 ba3c 60f1 dfbe e38b 2b3e 126a c9be
000001f0: 3b15 723e 70f0 dcbe 12d8 e5be 5b35 4c3d
00000200: dcca e23c 8d75 983c 18a7 173e 9b62 f7bc
00000210: 6871 b8be 016b c43e 0e69 b3be 2020 79be
00000220: 4d24 4ebd c479 b83e 085d 1bbe 607d d1be
00000230: 4e7a f2be 4448 ae3e c6b5 e0be 60f4 0cbe
00000240: 010f 82bd ecf4 023e 7145 e73e e2f9 aabe
00000250: 3859 923d 5c39 983e 709b fcbe e309 3bbe
00000260: abfe 413e fea2 ecbd aae7 8dbe 7065 4fbe
00000270: 3443 3b3e 0dfa aebc e417 6a3e 45c7 2ebd
00000280: 3e87 9abe a164 0cbd b8d2 17be 219d 893e
00000290: 0eb7 f4be 9710 a4be d33a 0c3e a3d5 3d3e
000002a0: b45a 95be ef2a aebe e4cf 9f3d 5fad 733e
000002b0: f08d dcbe 8724 bc3e 9675 cbbe 97e6 8b3d
000002c0: 0c4a 093e d172 4f3e e211 9e3e 8061 d63d
000002d0: 2bd2 83bd b1c3 f1bd 8338 fdbe d2a1 d4be
000002e0: 86ae 85be 5825 d83c 3e8e 893e 0b2c 3fbe
000002f0: fdfe 473e 9e61 683c 08fb c8be ca68 6f3d
00000300: 15b0 a6be f743 043d e0e3 3ebe 71f4 1abe
00000310: 5f91 dabc 6df6 de3e c8bf 12be 4321 ac3e
00000320: 5e5f ff3e 3ce1 eb3c f03d 5a3e a263 d23e
00000330: c4e8 603e 31ec 183e e4dc 6ebc 50cd fdbe
00000340: 164c b9bd 16c8 d43c e80f 92bd b07e bf3d
00000350: c84a 67be 760b 52be 8788 ac3e 4699 d9be
00000360: 0d50 d13e d1ff 453e 2016 f03d 88a8 bb3e
00000370: 58d5 043e 9f15 713e 3847 bcbe 16c1 ffbe
00000380: c720 663e 55e0 cb3d 0210 a33d 225d 893d
00000390: cbf3 6b3e c480 c4be f29a b8bd 1041 5e3e
000003a0: 73d9 ebbe d6c4 dcbe e020 b13c 0bcd cbbe
000003b0: 580a afbe ef68 153e 741b 85be bc8c c8be
000003c0: 11d4 e2bd a87b ad3d 6ed2 843e cf4b 8ebe
000003d0: b085 043f 8c33 42be 354c 683e 4d17 3bbd
000003e0: c0de a3bd e40e c33e bed9 f4be b7e7 e93e
000003f0: 120b f1be d06c 1abe 3b4b 57be 2aee 04be

fc2.weight f4 [256, 256]
0.027782694 0.122066095 0.048442796 0.08961742 -0.028384648 -0.085143656 0.042014632 -0.052201137
0.030036323 0.055385657 0.11323754 0.021984108 -0.044704758 0.039615836 0.04649905 0.057202883
0.05882002 -0.098048024 0.0856313 0.061657906 -0.0017803521 0.03129174 -0.09620804 -0.03773195
0.05364391 -0.014690667 0.0648348 0.048784688 -0.017621325 0.0383749 0.051935766 0.07204875
-0.014905505 -0.05295098 0.032433797 -0.013375275 0.09574497 0.11883847 0.020278424 0.010220271
-0.050334714 0.023255194 0.028723463 -0.10473339 0.01836315 0.023178428 0.13039517 0.058103018
0.023127183 0.06240015 0.015429976 0.03986453 -0.09948879 0.13616018 -0.033321377 0.0031209514
-0.15363605 0.007907307 -0.07088055 -0.05318895 0.04782826 -0.03203984 -0.019721538 -0.033132322
-0.03846541 0.023029536 -0.0032344777 -0.12813824 -0.013702277 0.009065673 -0.04804139 -0.01945617
0.03914061 0.101456195 -0.041612282 0.14666781 0.037550822 -0.05817704 -0.1947058 0.110464156
-0.036164775 -0.25953326 0.09358577 -0.012521003 -0.03513348 -0.034253117 -0.0029963106 0.0314125
-0.043726444 0.018994642 -0.051407706 0.027653273 -0.012405314 0.023328535 0.0481131 0.042331256
0.021101456 0.05529269 -0.023606637 0.032418057 -0.04943079 0.018813238 0.054057498 -0.028179629
0.007978149 -0.0041590473 0.08985428 0.07712588 0.02737312 -0.11703944 0.041407496 0.14760214
0.07167546 0.06416308 -0.004281727 -0.1159039 0.118407704 -0.10893858 -0.073856995 0.022301681
0.08202316 0.059580483 0.0760871 -0.040074676 -0.06662193 0.023581158 -0.044128515 -0.019524653
-0.026124187 -0.14027902 0.01947775 0.06774348 0.012427576 -0.07855965 0.015308477 -0.11168125
-0.019407235 0.0462669 0.016434975 0.030643508 -0.028005287 0.08353802 0.021001317 0.030454688
-0.17277995 0.0063443403 0.006626886 0.05563818 -0.042550623 0.08853564 -0.051089145 -0.062292136
-0.028064324 0.0529333 0.036765866 0.048583373 0.012253305 0.06939496 -0.008570326 0.02087896
-0.0001957193 0.12570356 -0.054303728 -0.118228115 0.054352418 -0.26381844 0.061527044 -0.04699815
-0.017905354 -0.04065036 0.08265516 0.0396032 0.05745671 0.124631844 -0.011289477 -0.03251767
0.047488734 0.07377392 0.007252203 0.02681845 0.041236494 0.12524714 0.06695408 -0.026127256
-0.047920525 -0.06309494 -0.02936133 -0.017672163 -0.024663495 0.07128618 -0.14580522 0.06598475
0.02370629 -0.019882414 -0.0070330575 -0.016272163 0.037371267 0.14053573 0.02414304 0.08674741
0.13068043 0.052604567 0.13133161 -0.10409104 -0.05063346 -0.015479107 -0.049455874 -0.02762556
0.04650944 -0.07203112 -0.031130068 -0.05889187 -0.041900277 0.06890559 -0.08851642 -0.04168403
-0.048237193 -0.0074587977 0.058540225 0.050066333 0.06603217 0.0209222 0.04190235 -0.011966482
0.0027108355 0.01151404 -0.00650837 0.0777252 0.056161452 0.0036722198 0.029481536 -0.012676734
0.045664955 -0.027079575 0.01269218 -0.1787792 0.04842546 0.10325109 -0.00094964355 0.045975827
0.038516358 0.0072838143 0.008836812 -0.17725006 -0.09703149 0.00582055 0.092426844 0.041198757
0.03379206 0.14100897 0.047034398 -0.121965334 -0.03249456 0.05248701 0.047508024 -0.051993378
00000000: 8898 e33c cafd f93d f46b 463d 5789 b73d
00000010: ec86 e8bc cc5f aebd 8917 2c3d dcd0 55bd
00000020: bc0e f63c 12dc 623d 15e9 e73d 0418 b43c
00000030: 561c 37bd 3744 223d ca75 3e3d 924d 6a3d
00000040: 43ed 703d 67cd c8bd 775f af3d 008d 7c3d
00000050: b45a e9ba c42b 003d b908 c5bd d18c 1abd
00000060: b7b9 5b3d 20b1 70bc 1cc8 843d 74d2 473d
00000070: 995a 90bc 002f 1d3d 99ba 543d 4c8e 933d
00000080: 3836 74bc 20e3 58bd 4dd9 043d f823 5bbc
00000090: f015 c43d 9561 f33d f01e a63c ec72 273c
000000a0: c62b 4ebd ad81 be3c 784d eb3c 767e d6bd
000000b0: 516e 963c b0e0 bd3c 5086 053e 6efd 6d3d
000000c0: 3875 bd3c 4d97 7f3d 03ce 7c3c fd48 233d
000000d0: c7c0 cbbd 936d 0b3e ff7b 08bd e088 4c3b
000000e0: c552 1dbe a68d 013c d229 91bd a8dc 59bd
000000f0: 91e7 433d 353c 03bd 108f a1bc c2b5 07bd
00000100: e88d 1dbd 70a8 bc3c 88f9 53bb ac36 03be
00000110: 847f 60bc 3088 143c 0cc7 44bd 8c62 9fbc
00000120: e751 203d 44c8 cf3d a471 2abd 1630 163e
00000130: e4ce 193d 0c4b 6ebd f560 47be 083b e23d
00000140: 8421 14bd 8be1 84be e5a9 bf3d e524 4dbc
00000150: 20e8 0fbd ff4c 0cbd c05d 44bb 65aa 003d
00000160: 801a 33bd a79a 9b3c e390 52bd 1e89 e23c
00000170: a83f 4bbc 7c1b bf3c 3e12 453d 8a63 2d3d
00000180: f6dc ac3c 967a 623d b562 c1bc ccc8 043d
00000190: f177 4abd 381e 9a3c 656b 5d3d f7d8 e6bc
000001a0: c8b6 023c 9e48 88bb 8505 b83d 2cf4 9d3d
000001b0: 983d e03c 60b2 efbd e89a 293d 0425 173e
000001c0: 95ca 923d ef67 833d bb4d 8cbb 065f edbd
000001d0: bd7f f23d 311b dfbd 5642 97bd 04b2 b63c
000001e0: c2fb a73d aa0a 743d 8ed3 9b3d 5825 24bd
000001f0: 1471 88bd 462d c13c 1ac0 34bd 2af2 9fbc
00000200: 6402 d6bc 4ea5 0fbe cd8f 9f3c 18bd 8a3d
00000210: 089d 4b3c e2e3 a0bd 68d0 7a3c 24b9 e4bd
00000220: ecfb 9ebc 5c82 3d3d a4a2 863c 1808 fb3c
00000230: 586b e5bc fb15 ab3d f40a ac3c 1c7c f93c
00000240: 3aed 30be 2fe4 cf3b 5926 d93b dce4 633d
00000250: 9049 2ebd 2c52 b53d da42 51bd 0a26 7fbd
00000260: 27e7 e5bc 97d0 583d ce97 163d 5cff 463d
00000270: 16c2 483c f21e 8e3d 8d6a 0cbc 5a0a ab3c
00000280: 003a 4db9 6fb8 003e 966d 5ebd 9521 f2bd
00000290: a4a0 5e3d 3613 87be c803 7c3d 2281 40bd
000002a0: 40ae 92bc fe80 26bd 1c47 a93d f736 223d
000002b0: ba57 6b3d fb3e ff3d 80f7 38bc 4031 05bd
000002c0: 8c83 423d c816 973d e3a3 ed3b 5eb2 db3c
000002d0: 99e7 283d c940 003e 381f 893d d408 d6bc
000002e0: 5048 44bd eb37 81bd 2c87 f0bc 36c5 90bc
000002f0: 190b cabc 7dfe 913d f74d 15be 0323 873d
00000300: b233 c23c 72e0 a2bc 9075 e6bb 334d 85bc
00000310: 9d12 193d 99e8 0f3e a0c7 c53c a0a8 b13d
00000320: 17d1 053e e377 573d cb7b 063e af2d d5bd
00000330: 0865 4fbd 159c 7dbc 3e92 4abd 004f e2bc
00000340: af80 3e3d 0d85 93bd 7c04 ffbc 9a38 71bd
00000350: a09f 2bbd 601e 8d3d 1948 b5bd e0bc 2abd
00000360: 5d94 45bd ee68 f4bb e0c7 6f3d 5b12 4d3d
00000370: e03b 873d 0965 ab3c cca1 2b3d 100f 44bc
00000380: 46a8 313b 62a5 3c3c 2a44 d5bb 642e 9f3d
00000390: 8d09 663d a0a9 703b 4383 f13c 13b2 4fbc
000003a0: 2d0b 3b3d fcd5 ddbc ddf2 4f3c e511 37be
000003b0: c659 463d 4f75 d33d 80f1 78ba 2651 3c3d
000003c0: 54c3 1d3d 10ad ee3b 47c8 103c 0a81 35be
000003d0: 72b8 c6bd 50ba be3b 494a bd3d 07c0 283d
000003e0: 8b69 0a3d a864 103e 24a7 403d f6c8 f9bd
000003f0: 0419 05bd 9efc 563d c697 423d 02f7 54bd

fc2.bias f4 [256]
0.053664956 0.04500597 -0.10305734 -0.025136882 -0.09955116 -0.05000397 -0.012664492 -0.010089589
-0.14406 -0.01266909 -0.009955564 -0.0491676 0.0072676796 -0.05669085 0.052636497 -0.05281212
0.009717413 -0.07286553 -0.08367149 -0.123435035 -0.03652098 -0.0435319 0.02405252 0.0109453155
-0.032816812 -0.067114234 -0.05113763 0.021010682 -0.042751472 -0.114536345 -0.029452845 -0.06878891
-0.11431705 -0.061860412 -0.11986924 -0.076173864 -0.10478442 -0.034876626 -0.005620122 0.13594563
0.07977318 -0.04639076 -0.018949293 0.12307289 -0.016005578 0.0075263903 -0.046595853 -0.02275005
0.03382013 0.031017937 -0.11315756 -0.0025867494 -0.0020126507 -0.0011374431 0.004645494 -0.080089554
0.033062577 -0.08552781 -0.05798715 -0.08736163 -0.080075376 -0.020564944 0.024889108 0.04536201
-0.029288512 -0.043347303 0.07298178 0.0015892971 -0.11067195 0.14529118 -0.09196634 0.11871631
-0.06536635 -0.05028373 0.11228196 -0.072036155 -0.10373866 -0.016584693 -0.10047091 -0.067669086
-0.08420211 -0.006290883 -0.04360858 -0.03714744 0.020084213 -0.0046468303 -0.057155967 -0.11560659
-0.011304923 -0.0021055222 0.02179592 -0.045041226 -0.08134282 0.0112912245 0.015413309 -0.071714
-0.02022677 -0.060741358 -0.03369137 -0.02726137 -0.06795481 -0.02995982 -0.018262362 0.09064882
-0.0026571623 -0.049931895 0.0040704785 -0.09419006 0.06541393 -0.05175029 -0.02692806 0.033798754
-0.032045223 -0.06608074 0.018740604 -0.055650495 0.038540203 -0.05472491 0.013003453 -0.11954795
0.0051316256 0.06074635 -0.070936024 -0.027844032 -0.1566805 -0.042410348 -0.045096308 -0.0440512
-0.088876516 -0.009373188 -0.0073450436 -0.029731192 -0.05208177 -0.014112205 -0.03112241 -0.07354408
-0.03566622 0.027307468 -0.04958699 0.12228302 -0.008468331 -0.009463729 -0.060698964 -0.0015985789
-0.104254924 0.027174167 0.061558515 -0.015301101 -0.07499017 -0.041597232 -0.05993605 -0.08355159
-0.0008651538 -0.08246068 -0.016950635 -0.035241593 -0.05963567 0.009932317 -0.020891175 -0.002581721
-0.029956438 -0.067362934 -0.08947101 0.024019852 -0.06395735 -0.08472081 -0.059034824 -0.04341236
-0.02454212 0.048934292 -0.024931023 0.12121459 -0.0218533 -0.05594719 -0.025191762 0.06856048
0.14829445 0.07888359 -0.11023323 0.046075244 -0.15621257 -0.032332137 -0.014063335 -0.008634776
-0.020762019 0.03410927 -0.032819867 -0.08446661 -0.034099422 -0.035075977 0.07817833 -0.0029044265
0.090536386 -0.06354771 -0.03650707 -0.04693656 -0.040937684 -0.023727024 -0.025328161 -0.056143913
-0.07291103 0.1006995 -0.07880233 -0.06416076 0.07344502 0.015428193 -0.05025854 -0.12110005
-0.11309985 -0.04492807 -0.04327681 -0.0025643008 -0.022521188 -0.082727484 -0.06695038 -0.05744203
0.027612975 -0.08786919 -0.060623508 -0.0997484 0.013451852 -0.058015123 -0.10090303 -0.021572322
-0.055605263 -0.008996218 -0.042744398 -0.050846234 -0.023583945 -0.02821442 -0.085721076 -0.043703534
-0.026157826 0.003105849 0.032968074 -0.015656693 -0.109587535 0.03441077 -0.010932226 -0.044672087
-0.049485937 -0.007585887 -0.012235271 -0.007732466 -0.07312588 -0.040111035 -0.049037438 -0.062799
0.024443103 -0.0002873242 0.00045290482 -0.10060454 -0.15178402 0.011925239 -0.078524895 -0.0051979735
00000000: c9cf 5b3d 2e58 383d ba0f d3bd ddeb cdbc
00000010: 7be1 cbbd f6d0 4cbd bb7e 4fbc ce4e 25bc
00000020: 7784 13be 0492 4fbc a91c 23bc f763 49bd
00000030: b725 ee3b aa34 68bd 5e99 573d 8651 58bd
00000040: c935 1f3c 863a 95bd f55b abbd 82cb fcbd
00000050: 0697 15bd 814e 32bd ca09 c53c fb53 333c
00000060: ec6a 06bd 3073 89bd b175 51bd 981e ac3c
00000070: 2b1c 2fbd 0892 eabd 1847 f1bc 33e1 8cbd
00000080: 0f1f eabd 5861 7dbd 017e f5bd 0b01 9cbd
00000090: 3799 d6bd cbda 0ebd 0029 b8bb 5535 0b3e
000000a0: 1f60 a33d 3d04 3ebd 8c3b 9bbc a40d fc3d
000000b0: 211e 83bc f09f f63b 4bdb 3ebd 505e babc
000000c0: fa86 0a3d 5419 fe3c 27bf e7bd 7486 29bb
000000d0: ade6 03bb 4216 95ba 3a39 983b fe05 a4bd
000000e0: a06c 073d 3429 afbd ef83 6dbd a7ea b2bd
000000f0: 8ffe a3bd d077 a8bc 3ee4 cb3c 84cd 393d
00000100: 76ee efbc f18c 31bd 7977 953d f64f d03a
00000110: faa7 e2bd 36c7 143e d958 bcbd 8921 f33d
00000120: cbde 85bd 50f6 4dbd 16f4 e53d b187 93bd
00000130: ef74 d4bd 9fdc 87bc b1c3 cdbd 1796 8abd
00000140: 2872 acbd c023 cebb e99e 32bd ea27 18bd
00000150: a687 a43c 7044 98bb 601c 6abd 26c3 ecbd
00000160: 4938 39bc cdfc 09bb 5b8d b23c 267d 38bd
00000170: 1097 a6bd d4fe 383c 1b88 7c3c cade 92bd
00000180: 9cb2 a5bc eecb 78bd f6ff 09bd 3d53 dfbc
00000190: e42b 8bbd 4c6e f5bc f39a 95bc 17a6 b93d
000001a0: c923 2ebb 6385 4cbd a661 853b b8e6 c0bd
000001b0: bdf7 853d 1df8 53bd 3c98 dcbc 9070 0a3d
000001c0: da41 03bd 5755 87bd e585 993c c6f1 63bd
000001d0: 55dc 1d3d 3a27 60bd 6f0c 553c 8ed5 f4bd
000001e0: 3227 a83b 2ad1 783d e846 91bd 2b19 e4bc
000001f0: da70 20be 79b6 2dbd e8b6 38bd 086f 34bd
00000200: e404 b6bd 0092 19bc b1ae f0bb d48e f3bc
00000210: b253 55bd e136 67bc 6df4 febc 479e 96bd
00000220: be16 12bd e9b3 df3c ba1b 4bbd 856f fa3d
00000230: c1be 0abc c20d 1bbc 7a9f 78bd 6887 d1ba
00000240: 9b83 d5bd 5c9c de3c c824 7c3d 78b1 7abc
00000250: 7294 99bd dc61 2abd 817f 75bd 191d abbd
00000260: 7dcb 62ba 25e1 a8bd 0fdc 8abc 7d59 10bd
00000270: 8844 74bd 28bb 223c f823 abbc 1732 29bb
00000280: 3467 f5bc 94f5 89bd 943c b7bd 48c5 c43c
00000290: 12fc 82bd 1b82 adbd 80ce 71bd 29d1 31bd
000002a0: 8e0c c9bc 536f 483d 253c ccbc 5b3f f83d
000002b0: b105 b3bc e128 65bd f45e cebc 7069 8c3d
000002c0: 80da 173e b88d a13d f6c1 e1bd 65b9 3c3d
000002d0: 30f6 1fbe b46e 04bd e769 66bc e078 0dbc
000002e0: 1c15 aabc 29b6 0b3d 206e 06bd d4fc acbd
000002f0: d6ab 0bbd d4ab 0fbd f61b a03d 3158 3ebb
00000300: 246b b93d 4d25 82bd 7088 15bd 8d40 40bd
00000310: 46ae 27bd 2d5f c2bc 017d cfbc 29f7 65bd
00000320: 6152 95bd 8a3b ce3d 1e63 a1bd b766 83bd
00000330: 586a 963d 88c6 7c3c e6db 4dbd 4e03 f8bd
00000340: e5a0 e7bd 7f06 38bd 0643 31bd d40d 28bb
00000350: 5b7e b8bc 076d a9bd 481d 89bd 5648 6bbd
00000360: 9b34 e23c c3f4 b3bd 5b50 78bd e448 ccbd
00000370: 2865 5c3c 44a1 6dbd 3fa6 cebd 70b8 b0bc
00000380: 58c2 63bd e064 13bc c014 2fbd 2444 50bd
00000390: 1e33 c1bc ed21 e7bc 888e afbd 7a02 33bd
000003a0: f048 d6bc 808b 4b3b 8809 073d 7742 80bc
000003b0: 6e6f e0bd 4ff2 0c3d 141d 33bc 14fa 36bd
000003c0: c4b1 4abd 0893 f8bb 7276 48bc a060 fdbb
000003d0: 05c3 95bd 784b 24bd 7bdb 48bd c39c 80bd
000003e0: e73c c83c 00a4 96b9 db73 ed39 c109 cebd
000003f0: 456d 1bbe 1462 433c a9d1 a0bd c353 aabb

fc3.weight f4 [256, 256]
-0.01654157 -0.032485303 0.011607744 -0.016861506 0.026770309 -0.028845452 -0.007257335 0.024446175
-0.0068055987 -0.02314905 0.041363604 0.026042275 -0.00960017 0.043533556 0.008471698 0.030977711
0.050872065 0.057050258 0.009228848 -0.033672594 0.028889433 0.0109792575 -0.08503772 -0.009349114
-0.044933952 0.036980525 0.022880808 0.03263838 0.01845719 0.05620867 -0.028904043 -0.011009365
-0.019491546 0.0073097423 -0.052688472 -0.056079604 -0.016219117 0.010101415 0.028735101 -0.0018476625
0.008796454 -0.057965405 0.04544811 -0.057343837 0.056811757 -0.047456697 -0.05516211 -0.01842948
0.03695313 0.015792005 0.021344282 0.026821785 0.026661187 0.0118405465 0.06038256 0.0031114742
-0.052946605 -0.045693457 -0.058827534 0.0131768435 0.05710566 -0.039930597 -0.04787898 0.039287724
-0.07301941 0.052631743 -0.08432072 -0.10856614 -0.05870934 -0.055640925 0.0007807985 -0.002288853
-0.024079256 -0.059254047 -0.012542121 0.024634674 -0.026900046 -0.0039449483 -0.022686753 0.045777664
-0.037968032 0.054142192 -0.044801272 0.020325266 -0.062722884 -0.06078416 -0.0029464886 -0.025444193
-0.031612642 0.043240182 -0.012162752 -0.040794536 -0.011956543 0.05896938 -0.009856316 -0.05760426
-0.006408237 0.02135031 0.035151362 -0.034556784 -0.014971048 -0.019705813 0.042480774 -0.061293684
-0.005137881 -0.0115164295 0.046731733 -0.026099779 -0.045552168 0.026834898 -0.024698444 -0.0018698871
-0.0016448647 0.05869425 0.008669615 -0.007891923 -0.08000803 -0.025755368 -0.028736342 0.033929393
-0.016606338 -0.053243525 -0.025108926 -0.058506295 0.008098729 -0.03994117 -0.041131854 0.03158033
0.029849999 -0.017798088 0.03875152 -0.008181281 0.0051999316 0.009922475 -0.07948032 -0.025909245
-0.10170714 -0.01721631 0.009066284 0.004792751 -0.0034214333 0.0047664894 -0.027894743 -0.005899869
0.012204491 0.047302835 0.049545467 0.051433727 0.059880063 -0.047439948 -0.101534426 -0.006349981
-0.050658025 -0.026637495 -0.058695115 0.0016190484 -0.052624688 -0.033919446 -0.02535206 -0.107808046
-0.03449589 -0.04192037 -0.041503035 0.01705473 -0.08363345 0.005445987 0.014387704 0.013337456
-0.043663107 -0.097616956 -0.020063259 -0.08924907 0.06129808 0.0060998127 0.014726482 0.061821684
-0.061096735 -0.013887651 0.019842379 -0.042704456 0.029692203 -0.017558351 0.0377167 0.045979045
0.06051822 -0.008175005 -0.03570769 -0.071318306 -0.034866072 -0.0021477558 -0.037722204 0.013676174
-0.06036238 -0.059379607 0.032253973 0.035146438 -0.04986649 0.057290316 -0.057032708 -0.007963374
-0.032499738 -0.042303078 0.015856422 -0.020207755 -0.03200564 -0.0038590878 0.054989465 -0.028444916
-0.045323603 -0.0049149245 0.0133353695 -0.030024365 -0.05055625 0.008720949 0.05957923 -0.008615591
-0.05023092 0.034447365 0.023158453 0.005879797 -0.023252867 -0.04405351 -0.01232665 -0.00961256
-0.05793705 0.05174607 0.042918794 -0.012939535 -0.022343911 -0.060948975 0.04061561 -0.090649895
0.0494259 0.016724043 -0.047773153 0.025255427 -0.0053314865 0.0077717616 0.03089922 -0.023651212
-0.034446307 0.03583078 0.032214552 -0.00025063753 -0.0099905655 0.06187295 -0.11343058 -0.0024256185
-0.045911126 -0.0001129657 -0.010871522 -0.04455646 -0.017936103 -0.048023917 -0.054745138 -0.031992055
00000000: 3082 87bc 4f0f 05bd 682e 3e3c 2421 8abc
00000010: 684d db3c 4c4d ecbc f0ce edbb 5843 c83c
00000020: 8001 dfbb 14a3 bdbc e26c 293d 9c56 d53c
00000030: 084a 1dbc 3e50 323d e0cc 0a3c f8c4 fd3c
00000040: 3a5f 503d 88ad 693d 9834 173c 46ec 09bd
00000050: 88a9 ec3c 58e2 333c 4228 aebd 072d 19bc
00000060: aa0c 38bd e478 173d 8870 bb3c d2af 053d
00000070: 8833 973c 103b 663d 2cc8 ecbc a060 34bc
00000080: bcac 9fbc 9086 ef3b decf 57bd bab3 65bd
00000090: f4dd 84bc 6880 253c e065 eb3c 442d f2ba
000000a0: 011f 103c 226d 6dbd cc27 3a3d 5fe1 6abd
000000b0: 72b3 683d f461 42bd aaf1 61bd 6cf9 96bc
000000c0: 2a5c 173d 3c5e 813c 34da ae3c 5cb9 db3c
000000d0: 9068 da3c dafe 413c b453 773d e0e9 4b3b
000000e0: 8ade 58bd 1029 3bbd 24f5 70bd b0e3 573c
000000f0: a0e7 693d 448e 23bd c01c 44bd 2aec 203d
00000100: 338b 95bd 6294 573d 57b0 acbd ed57 debd
00000110: 3479 70bd bde7 63bd 80ae 4c3a 9500 16bb
00000120: dc41 c5bc 5fb4 72bd 787d 4dbc a8ce c93c
00000130: 7c5d dcbc a044 81bb 92d9 b9bc 5c81 3b3d
00000140: 5e84 1bbd 34c4 5d3d 8a81 37bd 2c81 a63c
00000150: db74 80bd d0f8 78bd e019 41bb 5770 d0bc
00000160: 427c 01bd 9e1c 313d 4846 47bc 2c18 27bd
00000170: 60e5 43bc e089 713d 637c 21bc 72f2 6bbd
00000180: 30fc d1bb d8e6 ae3c e0fa 0f3d 6a8b 0dbd
00000190: 2049 75bc 166e a1bc 5200 2e3d 160f 7bbd
000001a0: ab5b a8bb 68af 3cbc c669 3f3d 34cf d5bc
000001b0: e994 3abd dcd4 db3c 6454 cabc 0017 f5ba
000001c0: 8098 d7ba 6269 703d 000b 0e3c 204d 01bc
000001d0: 40db a3bd ecfc d2bc 7a68 ebbc 8cf9 0a3d
000001e0: 040a 88bc e215 5abd 3cb1 cdbc 4ca4 6fbd
000001f0: 88b0 043c 5a99 23bd e079 28bd 605a 013d
00000200: fc87 f43c 4ccd 91bc eab9 1e3d c80a 06bc
00000210: 3064 aa3b e091 223c 94c6 a2bd a03f d4bc
00000220: d54b d0bd 3809 8dbc c08a 143c 820c 9d3b
00000230: 203a 60bb 3630 9c3b 8483 e4bc b053 c1bb
00000240: 58f5 473c 9ec0 413d 30f0 4a3d 2cac 523d
00000250: cc44 753d 6450 42bd 48f1 cfbd 8013 d0bb
00000260: ca7e 4fbd e036 dabc 4a6a 70bd 4036 d43a
00000270: fc8c 57bd 1eef 0abd 20af cfbc 77ca dcbd
00000280: 904b 0dbd b2b4 2bbd 16ff 29bd 5cb6 8b3c
00000290: 0448 abbd 4074 b23b 68ba 6b3c 5885 5a3c
000002a0: 16d8 32bd 66eb c7bd b45b a4bc 37c8 b6bd
000002b0: b213 7b3d f0e0 c73b 5847 713c bc38 7d3d
000002c0: 9240 7abd 0889 63bc 7c8c a23c deea 2ebd
000002d0: 103d f33c 88d6 8fbc d47c 1a3d 8654 3c3d
000002e0: f4e1 773d 75f0 05bc 3a42 12bd 550f 92bd
000002f0: bacf 0ebd 5dc1 0cbb 9982 1abd 0812 603c
00000300: 8b3e 77bd 0838 73bd be1c 043d b6f5 0f3d
00000310: ce40 4cbd 40a9 6a3d 219b 69bd d078 02bc
00000320: 721e 05bd fe45 2dbd 54e5 813c bc8a a5bc
00000330: 5918 03bd c0e8 7cbb a23c 613d 5005 e9bc
00000340: 3ea5 39bd 600d a1bb 987c 5a3c a8f5 f5bc
00000350: 1214 4fbd 50e2 0e3c 5a09 743d 6828 0dbc
00000360: f0be 4dbd ae18 0d3d ccb6 bd3c 50ab c03b
00000370: cc7c bebc 7471 34bd b8f5 49bc 007e 1dbc
00000380: 664f 6dbd b0f3 533d 9ecb 2f3d 5800 54bc
00000390: 940a b7bc a2a5 79bd 8e5c 263d a7a6 b9bd
000003a0: d072 4a3d dc00 893c c8ad 43bd 78e4 ce3c
000003b0: c0b3 aebb 43aa fe3b 5c20 fd3c 30c0 c1bc
000003c0: 9217 0dbd 4cc3 123d 68f3 033d 0068 83b9
000003d0: 78af 23bc 7e6e 7d3d 4b4e e8bd 20f7 1ebb
000003e0: 4e0d 3cbd 00e8 ecb8 781e 32bc d680 36bd
000003f0: bcee 92bc bab4 44bd 703c 60bd 1a0a 03bd

fc3.bias f4 [256]
-0.07979114 -0.0007160823 0.22180109 0.03425024 -0.08180323 -0.09367466 -0.006022758 -0.08989466
0.004078128 0.019078786 0.011370989 -0.011317328 -0.119153224 -0.12000594 -0.04514791 -0.059921715
0.038045406 -0.045986116 -0.09643269 -0.11990775 -0.039128453 -0.024952851 0.16770995 -0.032800928
-0.10773551 0.021181352 0.17432652 -0.113563694 -0.028040437 -0.029459687 0.20935835 0.04910426
0.25590512 -0.10042842 0.099548556 -0.08766038 0.017251529 0.12563309 -0.002278378 -0.09692403
0.1561071 0.005858432 0.015253417 -0.037966475 -0.051345464 -0.11441621 -0.05404814 0.021063663
-0.032431908 -0.08473246 -0.13877898 -0.0074439347 -0.093905605 0.027443282 -0.05660794 0.21963382
-0.11770218 0.02282489 -0.07574551 0.16655974 -0.08774261 -0.108083054 -0.07367786 -0.082596496
0.06301473 -0.0682856 -0.0005576866 -0.04123659 -0.08784109 -0.08415431 -0.009689312 -0.120527774
-0.03730485 0.012857289 -0.013284412 -0.000108338376 -0.08442398 -0.03662158 -0.020997426 0.09856387
0.029647892 -0.10049617 0.06450477 0.012371664 -0.13173234 -0.04358054 -0.023721036 0.0012345699
0.100357376 -0.1147343 -0.12338879 -0.07703023 -0.055595435 -0.06580718 -0.118374504 0.13683803
0.07763629 -0.08262849 -0.07917202 -0.06829975 -0.0011660226 0.09665357 -0.019964952 -0.029957378
-0.0590186 0.023017421 -0.03327652 -0.03777133 -0.011501263 -0.08471431 -0.020199297 0.018208057
-0.029272772 -0.05619604 -0.040979836 -0.0035345855 -0.060083218 0.19390863 -0.061551347 0.023731917
-0.097485244 -0.110177524 -0.044029623 -0.09357268 -0.09697504 -0.039427873 -0.106926516 -0.10305009
-0.0048302123 -0.010934572 -0.08251917 -0.10968778 -0.025251625 -0.107962124 0.07569995 0.058067024
0.009295685 0.06263465 0.035939317 -0.04303232 0.05220975 0.116868034 -0.10521722 -0.054263424
-0.110757805 0.035821345 0.012570775 0.046410423 -0.106762536 0.043773826 0.08932276 -0.029763162
0.041772414 -0.12031303 -0.100344785 -0.040575106 -0.04897371 -0.10900015 -0.03629043 -0.07893679
-0.11417044 -0.07056418 0.04437768 -0.1074663 -0.030363608 -0.044910606 -0.04905121 -0.047497272
-0.035653327 0.038043033 -0.0067145824 0.1254043 -0.058863573 -0.057921905 -0.024238432 -0.10544241
-0.057202138 0.24776487 -0.09018275 0.017492732 -0.039292157 0.0052850572 0.0017494214 0.116381995
0.13787842 -0.049913928 -0.12068824 0.0020977291 0.19711892 -0.09412243 0.12068176 0.001390529
-0.05678959 0.21402135 -0.05197657 0.12116987 0.14821507 -0.049498837 -0.04459733 -0.0755026
-0.014919511 0.030488703 -0.08233025 0.086181015 -0.03741662 -0.007694348 -0.006193382 -0.09192792
-0.047363948 -0.08956221 -0.0020283586 -0.10175413 -0.08607322 0.022946525 -0.054635778 -0.006161744
-0.0030278934 -0.09657365 0.04483543 0.033146303 -0.0106829265 -0.0006534404 -0.033160195 -0.105901726
0.20429605 0.1723839 0.012285294 -0.11564119 0.008107877 0.06973289 -0.11759745 0.017601041
0.049516983 -0.08709431 -0.00029733495 0.14510003 -0.04190415 0.22851032 -0.0886977 -0.065800495
0.004046668 -0.09589864 0.15559074 -0.10743154 -0.017973801 -0.008126455 0.17300974 -0.01594928
0.10321234 -0.08781763 0.034194168 -0.14706351 -0.021210857 -0.09672403 0.036278527 -0.045839224
00000000: 8a69 a3bd 78b7 3bba d31f 633e fb49 0c3d
00000010: 7488 a7bd 80d8 bfbd 8e5a c5bb b11a b8bd
00000020: d1a1 853b 1d4b 9c3c 624d 3a3c 506c 39bc
00000030: 9b06 f4bd adc5 f5bd 04ed 38bd 7970 75bd
00000040: 80d5 1b3d f05b 3cbd 817e c5bd 3292 f5bd
00000050: 2845 20bd ec69 ccbc 28bc 2b3e 445a 06bd
00000060: 6fa4 dcbd 8484 ad3c a782 323e 1594 e8bd
00000070: 0fb5 e5bc 7155 f1bc 0962 563e 8c21 493d
00000080: ff05 833e 6aad cdbd 1de0 cb3d 4987 b3bd
00000090: 1453 8d3c f6a5 003e d750 15bb 1b80 c6bd
000000a0: 8ada 1f3e 17f8 bf3b 78e9 793c bc82 1bbd
000000b0: 9f4f 52bd 0c53 eabd 9561 5dbd b48d ac3c
000000c0: 52d7 04bd 3688 adbd 141c 0ebe 40ec f3bb
000000d0: 9551 c0bd bcd0 e03c badd 67bd b0e7 603e
000000e0: d70d f1bd 44fb ba3c 7620 9bbd a38e 2a3e
000000f0: 66b2 b3bd a65a ddbd 6be4 96bd 5a28 a9bd
00000100: de0d 813d 52d9 8bbd b731 12ba b3e7 28bd
00000110: 08e6 b3bd 1859 acbd ecbf 1ebc 44d7 f6bd
00000120: f8cc 18bd 61a7 523c dda6 59bc b933 e3b8
00000130: 7be6 acbd 8300 16bd cb02 acbc dbdb c93d
00000140: 23e0 f23c f0d0 cdbd 141b 843d 85b2 4a3c
00000150: d8e4 06be 8281 32bd 9e52 c2bc 4bd1 a13a
00000160: 2b88 cd3d d1f9 eabd 43b3 fcbd 06c2 9dbd
00000170: 0ab8 63bd eac5 86bd 556e f2bd 451f 0c3e
00000180: c6ff 9e3d 2039 a9bd f124 a2bd bde0 8bbd
00000190: 3ad5 98ba 4ff2 c53d 8a8d a3bc 2d69 f5bc
000001a0: 7dbd 71bd 088f bc3c f64c 08bd 1cb6 1abd
000001b0: cb6f 3cbc b27e adbd ff78 a5bc 1029 953c
000001c0: 74cd efbc d22d 66bd 79da 27bd 81a4 67bb
000001d0: d219 76bd fc8f 463e 441d 7cbd 7069 c23c
000001e0: 58a6 c7bd c1a4 e1bd 6858 34bd 09a3 bfbd
000001f0: da9a c6bd 1f7f 21bd 4afc dabd ed0b d3bd
00000200: c246 9ebb eb26 33bc d0ff a8bd fda3 e0bd
00000210: 7fdc cebc 3f1b ddbd 9308 9b3d b0d7 6d3d
00000220: ee4c 183c 9846 803d 1b35 133d a842 30bd
00000230: e4d9 553d 8258 ef3d 207c d7bd 5343 5ebd
00000240: fdd4 e2bd 67b9 123d a7f5 4d3c db18 3e3d
00000250: 51a6 dabd 2f4c 333d daee b63d e0d1 f3bc
00000260: 8d19 2b3d ae66 f6bd 9181 cdbd 1532 26bd
00000270: a898 48bd 783b dfbd 46a5 14bd 9da9 a1bd
00000280: 31d2 e9bd f483 90bd 5fc5 353d 4b17 dcbd
00000290: 1abd f8bc 2ff4 37bd ece9 48bd 808c 42bd
000002a0: 3909 12bd 03d3 1b3d 0006 dcbb fc69 003e
000002b0: ee1a 71bd 853f 6dbd ad8f c6bc 31f2 d7bd
000002c0: ca4c 6abd 13b6 7d3e bcb1 b8bd eb4c 8f3c
000002d0: d0f0 20bd 462e ad3b d74c e53a af59 ee3d
000002e0: 0030 0d3e 8c72 4cbd 652b f7bd 0e7a 093b
000002f0: 8bd9 493e 43c3 c0bd 0028 f73d 6942 b63a
00000300: 339c 68bd 6a28 5b3e 62e5 54bd e927 f83d
00000310: b1c5 173e 4bbf 4abd b1ab 36bd 1ba1 9abd
00000320: f770 74bc 72c3 f93c c39c a8bd ac7f b03d
00000330: 2b42 19bd df20 fcbb dbf1 cabb b544 bcbd
00000340: b300 42bd 646c b7bd 36ee 04bb 7864 d0bd
00000350: 2847 b0bd 5afa bb3c c4c9 5fbd 74e8 c9bb
00000360: 9f6f 46bb 68c8 c5bd 5ba5 373d 6bc4 073d
00000370: 7107 2fbc a54b 2bba fcd2 07bd 01e3 d8bd
00000380: fc32 513e 6885 303e 4248 493c 4ad5 ecbd
00000390: e7d6 043c 1ed0 8e3d efd6 f0bd 0f30 903c
000003a0: 52d2 4a3d 805e b2bd 9fe3 9bb9 1a95 143e
000003b0: b0a3 2bbd 9cfe 693e 24a7 b5bd 69c2 86bd
000003c0: e999 843b 8266 c4bd 2e53 1f3e 1105 dcbd
000003d0: cb3d 93bc d324 05bc 7729 313e 10a8 82bc
000003e0: fe60 d33d bbd9 b3bd 2f0f 0c3d d197 16be
000003f0: 64c2 adbc 4017 c6bd cb98 143d e9c1 3bbd

classifier.weight f4 [16, 256]
-0.044235468 -0.18733531 -0.179078 -0.17722811 -0.114975974 -0.06365174 -0.057561178 -0.12234617
-0.1824736 -0.080544524 -0.053257532 -0.00055674976 -0.11461889 -0.008531694 -0.15540686 -0.07659898
-0.12866691 0.0014448575 -0.037996713 -0.07601028 -0.090783626 -0.1625535 -0.10620358 -0.07391591
-0.09134721 -0.103294924 -0.11520018 -0.058893856 -0.1013695 -0.10710415 -0.2306697 -0.20588274
-0.09185534 -0.060744178 -0.07890497 -0.08224685 -0.05988159 -0.120338745 -0.053558275 -0.09202314
-0.22028749 -0.17069565 -0.09562787 0.0018087626 -0.056249697 -0.12157602 -0.10645687 -0.13238698
-0.11114762 -0.086988695 -0.1461094 -0.045733616 -0.065929204 -0.06637409 0.03179071 -0.11251529
0.04452381 -0.0089131445 -0.073544376 -0.12251851 -0.12744121 -0.06928406 -0.04390609 -0.17132604
-0.14525856 -0.045097604 -0.058382645 -0.08554821 -0.016610958 -0.07150917 -0.030479275 -0.12073437
-0.061090734 -0.13263884 -0.07727978 -0.0006823343 -0.17246196 -0.05320025 -0.15755922 -0.22469875
-0.13764487 -0.0040255156 -0.21410362 -0.057636917 -0.07323108 -0.07083736 -0.105807915 -0.17569035
-0.07134477 -0.10392334 -0.08985799 -0.018441012 -0.17453088 -0.049825713 -0.047913972 -0.15302943
-0.1767508 -0.06022536 -0.06950076 -0.0122317355 0.00041422516 -0.13030076 -0.076404184 -0.167876
-0.1122393 0.052175283 -0.07453298 -0.14153115 0.037203666 -0.06365195 -0.0840037 -0.06352704
-0.17479791 -0.108665295 -0.14586978 -0.054933198 -0.0852072 -0.20108806 -0.018899351 0.014048666
-0.04122216 -0.007694954 -0.12058706 -0.0036789156 -0.024087675 -0.020800563 -0.015531266 -0.21004677
-0.012690507 -0.07634943 -0.08142365 -0.06623487 -0.0358991 -0.037909728 -0.10700181 -0.16552283
-0.14778131 -0.092041336 -0.20193923 -0.042738218 -0.18057545 -0.1691293 -0.12164867 -0.08501653
-0.0055023534 -0.18691245 -0.122640945 -0.13154428 -0.032933097 -0.13306701 -0.14266811 -0.006783314
-0.08184877 -0.059261303 -0.061319906 -0.028276773 0.03446176 -0.18372226 -0.047243692 -0.14356504
-0.14280005 -0.115390435 -0.07644792 -0.060102373 -0.05803719 -0.18290259 -0.10458099 -0.048975147
-0.041792456 -0.11248536 -0.019965783 -0.16932775 -0.13723893 -0.18308748 -0.008627299 -0.17486086
-0.07262511 -0.2388763 -0.075971544 -0.11592876 0.00077471515 -0.17181785 -0.09955434 -0.03898167
-0.12270572 0.03502634 -0.098932005 -0.07301726 -0.18548264 -0.12636939 -0.24168928 -0.05084049
-0.14800745 -0.18098027 -0.0343445 -0.11400742 -0.16565216 -0.009305706 -0.004348886 -0.15316494
-0.059184697 -0.09811189 -0.041607127 -0.22988516 -0.03540807 -0.08767268 -0.112797886 -0.064261355
-0.11620236 -0.14080982 -0.05857186 -0.046054643 -0.15361372 -0.18851261 0.042205922 -0.1066558
-0.121583246 -0.1917465 -0.08774351 -0.07962156 -0.09386502 -0.06876354 -0.055579558 -0.007975202
-0.16065444 -0.1499958 -0.15049745 -0.04942208 -0.1341858 -0.15164183 -0.11600643 -0.05331111
-0.14674637 -0.060320806 -0.028395936 -0.15868528 -0.10575012 -0.24325572 -0.028285502 -0.032539032
-0.06641399 -0.050478417 -0.16452557 -0.067637935 -0.07751815 -0.19566506 -0.13716428 -0.1766223
-0.14082398 -0.097562835 -0.15467021 -0.04555218 -0.024860427 -0.1038208 -0.14933513 -0.18641834
00000000: 4030 35bd d4d4 3fbe 3960 37be 497b 35be
00000010: 8678 ebbd d85b 82bd 45c5 6bbd a190 fabd
00000020: 5cda 3abe 87f4 a4bd 9224 5abd d8f2 11ba
00000030: 4fbd eabd 85c8 0bbc fa22 1fbe eddf 9cbd
00000040: 42c1 03be 5f61 bd3a 71a2 1bbd 47ab 9bbd
00000050: c4ec b9bd 6d74 26be 4381 d9bd 3a61 97bd
00000060: 3f14 bbbd 4a8c d3bd 12ee ebbd af3a 71bd
00000070: d09a cfbd 6c59 dbbd ae34 6cbe edd2 52be
00000080: a71e bcbd e3ce 78bd ee98 a1bd 0971 a8bd
00000090: 6646 75bd 2974 f6bd ec5f 5bbd a176 bcbd
000000a0: 0b93 61be d7ca 2ebe 8bd8 c3bd 0014 ed3a
000000b0: 1566 66bd d9fc f8bd 0f06 dabd 7490 07be
000000c0: 5da1 e3bd 2127 b2bd b49d 15be 2c53 3bbd
000000d0: e405 87bd 24ef 87bd fa36 023d 6b6e e6bd
000000e0: 995e 363d 7008 12bc 6f9e 96bd fcea fabd
000000f0: f37f 02be cde4 8dbd dfd6 33bd 1870 2fbe
00000100: a9be 14be 44b8 38bd a422 6fbd e633 afbd
00000110: b413 88bc 6673 92bd acaf f9bc 9543 f7bd
00000120: 473a 7abd 7ad2 07be dc44 9ebd aede 32ba
00000130: de99 30be 81e8 59bd 3457 21be 6e17 66be
00000140: c7f2 0cbe 79e8 83bb fb3d 5bbe b014 6cbd
00000150: 2dfa 95bd 2e13 91bd d2b1 d8bd 2ce8 33be
00000160: 351d 92bd c3d5 d4bd 7707 b8bd 9b11 97bc
00000170: 39b8 32be 0c16 4cbd 7141 44bd bfb3 1cbe
00000180: 29fe 34be deae 76bd 6a56 8ebd 9e67 48bc
00000190: 5c2c d939 906d 05be cc79 9cbd b0e7 2bbe
000001a0: b8dd e5bd c0b5 553d bfa4 98bd 8bed 10be
000001b0: df62 183d f45b 82bd 220a acbd 771a 82bd
000001c0: 39fe 32be e98b debd e35e 15be a201 61bd
000001d0: 1d81 aebd 07ea 4dbe d0d2 9abc 602c 663c
000001e0: 91d8 28bd f425 fcbb 59f6 f6bd f619 71bb
000001f0: 8453 c5bc f165 aabc da76 7ebc 8016 57be
00000200: d8eb 4fbc 175d 9cbd 71c1 a6bd 26a6 87bd
00000210: ef0a 13bd 3b47 1bbd c423 dbbd d17e 29be
00000220: fc53 17be 2b80 bcbd 28c9 4ebe 450e 2fbd
00000230: c5e8 38be 3b30 2dbe f022 f9bd 251d aebd
00000240: 164d b4bb fa65 3fbe 2d2b fbbd 8bb3 06be
00000250: dbe4 06bd b842 08be 9717 12be 9046 debb
00000260: 54a0 a7bd fbbb 72bd 952a 7bbd b1a4 e7bc
00000270: c627 0d3d b021 3cbe 9a82 41bd b702 13be
00000280: 2d3a 12be d251 ecbd ba90 9cbd e82d 76bd
00000290: 68b8 6dbd d14a 3bbe 8f2e d6bd 2a9a 48bd
000002a0: 912e 2bbd b95e e6bd 488f a3bc 4164 2dbe
000002b0: 5d88 0cbe 497b 3bbe 8459 0dbc ba0e 33be
000002c0: 79bc 94bd fd9b 74be f896 9bbd 0f6c edbd
000002d0: 4116 4b3a 05f1 2fbe 25e3 cbbd 3eab 1fbd
000002e0: 234d fbbd c877 0f3d dd9c cabd 138a 95bd
000002f0: 29ef 3dbe fa66 01be 657d 77be 1e3e 50bd
00000300: 448f 17be e452 39be d2ac 0cbd b97c e9bd
00000310: b8a0 29be f676 18bc 1a81 8ebb 45d7 1cbe
00000320: a76b 72bd e3ee c8bd 3c6c 2abd 0467 6bbe
00000330: 0d08 11bd bc8d b3bd 9402 e7bd 759b 83bd
00000340: 81fb edbd 7330 10be 0ce9 6fbd cba3 3cbd
00000350: ea4c 1dbe 7309 41be 1ee0 2c3d 5b6e dabd
00000360: a300 f9bd 3259 44be dfb2 b3bd a110 a3bd
00000370: 4e3c c0bd e6d3 8cbd 64a7 63bd 6caa 02bc
00000380: 9982 24be 8098 19be 011c 1abe cf6e 4abd
00000390: 0168 09be ff47 1bbe c794 edbd c05c 5abd
000003a0: ae44 16be f312 77bd 989e e8bc 657e 22be
000003b0: 8593 d8bd 0718 79be ffb6 e7bc a647 05bd
000003c0: 0f04 88bd 75c2 4ebd 6479 28be c285 8abd
000003d0: d6c1 9ebd 6c5c 48be cb74 0cbe 7adc 34be
000003e0: 2934 10be 06cf c7bd de61 1ebe ec94 3abd
000003f0: 18a8 cbbc 00a0 d4bd 4feb 18be 73e4 3ebe

classifier.bias f4 [16]
-0.1105563 -0.14834513 -0.08482355 -0.15697539 0.0005422198 0.0051749786 0.118676454 0.03726469
0.14125508 0.06703747 0.10396486 0.043488055 -0.16388936 -0.10160723 -0.17588742 -0.11221146
00000000: 576b e2bd c9e7 17be f8b7 adbd 28be 20be
00000010: c123 0e3a de92 a93b a40c f33d dca2 183d
00000020: 2ca5 103e f14a 893d 87eb d43d 8820 323d
00000030: 9dd2 27be 7417 d0bd d51b 34be 1fcf e5bd
