transfer17_40_36_22_10_12_FullyConnected.pth (torch, 550959 bytes, 8 tensors)

fc1.weight f4 [256, 4]
00000000: 68ce 7cbe 9e74 aabe 2e64 84be 8055 2b3d
00000010: 3c71 1b3e b4a3 243e bc53 22be e41f 06be
00000020: ac81 243d bf57 bebe e915 d0bd 11c2 c73e
00000030: 8c67 803d 6d9a edbe b3e7 2a3e 64d2 d83e
00000040: 11ac e5be 68d1 13bf e0ff babe 6afe 4e3e
00000050: 18e9 b63e a8b3 233f b55f b23c 6278 973e
00000060: e0d0 c53d f0af dfbd d09a a43e fe43 ebbe
00000070: 7840 ff3e dec7 9c3d 05b5 66bd 1701 d03e
00000080: f233 593e fa75 abbe e132 163e 6055 f8bd
00000090: 8c89 0d3e c26d b1be 4c66 1d3e f073 2e3d
000000a0: 4420 0e3e a6f1 f43e dc20 40be 5029 7abe
000000b0: 8074 bc3d ac61 fa3e 607a 04be c02a a1be
000000c0: 0ed9 94be f27c acbe 9178 87be ea8a 493e
000000d0: 4078 c23e 6ca6 68be bd2c d33e bdc4 b43e
000000e0: e017 7a3e 685f 17be 9466 953e 882f babe
000000f0: 30ca 123e 48b8 a43e 246d 933e 8cbc 39be
00000100: c2a0 b4be f4ff 9d3e 06e7 b7be 18ba 83be
00000110: 90a0 0f3e c4ed 333e f4c3 b7be 4aec d0be
00000120: de6a 9fbe dca0 c43e bd70 1abe d50d e03d
00000130: 267b ef3e e369 8fbe 333d 75be e300 cabe
00000140: b425 11be a63c 98be 64bd 693e 50ed a53e
00000150: 95a5 623e fc04 fabe df60 b1be d578 813e
00000160: 465e 93be b04a c5bd 7cbe 83be 3669 fc3e
00000170: 77d3 1b3e f2db 173f 443d e83e a233 67be
00000180: 50bf 80be 4051 5cbe 48d6 90bd 3046 bcbd
00000190: e85b 45be e225 a5be f857 993e 10be 72be
000001a0: 28a7 9a3e f867 123f 907f a7bd d2c2 92be
000001b0: 6a77 903e aa7e d9be 6944 0a3e 27e7 633e
000001c0: 008a c73e 9df2 39be d8d8 c4be 93e5 74be
000001d0: decf c7be 6c68 b23e 180b b03d e0c2 26be
000001e0: 368c 0e3e 52a4 263e 874a 0cbe f022 7a3e
000001f0: b71c 1fbe ff27 ee3e dec3 cc3e a946 d93e
00000200: 92f4 ce3e c035 173f a8c7 113f 9512 bebc
00000210: e5d5 2e3e c25d 143f 3b44 b63e ebfc a6be
00000220: 584c 2e3c 39ef b33e b58f 9d3e abc9 34be
00000230: 35c8 57be f51a 063f 98ec 813e 9b4d 373e
00000240: 50d7 a5be 50d9 29bd 6e1f adbe ec46 243e
00000250: 2d4e 04bf 6fb5 2bbf b584 00bf 8f8c 9b3e
00000260: 2d90 b33d f05f 393d 5dd9 a1be 56ea af3e
00000270: fbaa 463e 1d4d 613e 06fa 03bf 907f 0f3e
00000280: 6074 e13d aa53 833e ccf5 c53e 676f 763e
00000290: 6c0f cd3d 4eca d73e d8bd ba3e 93ac 333e
000002a0: 838f c93e 0032 0b3e ab4d 0f3f 7095 cd3d
000002b0: 9f40 9b3b c03b b03e 1e5b cfbe 1917 8dbd
000002c0: 8c8d afbe 3051 76be c050 6c3d a07a 81be
000002d0: 5365 84bd 8762 e3bd 3eb5 16bf 5620 91be
000002e0: a06a b4bd d05e d23d e4dd 21be acb5 71be
000002f0: b71b fdbe 3399 753e 6d0b 89bd 2521 993e
00000300: 0e76 cc3c 0f40 ce3e d912 04be 2cd5 c33e
00000310: 77d0 ad3d 3e94 0bbe 8a82 fd3d 8259 ef3d
00000320: 789c 58be ee7f f03e 386b 8fbd 3812 ec3d
00000330: 06b4 8cbe 38e3 eb3e bde9 253d b457 903e
00000340: 1c04 443e c820 da3e 6ab6 923e 4122 59be
00000350: a5bb 353c f0ae 0a3f d87a 59be 0e3c 503c
00000360: 0c09 f4be 9497 853e 5673 1d3e cc5d cc3e
00000370: 9ecd e4be b0fe d6bd 2ccc c13e 40c2 2b3c
00000380: ff2d 90bd 60ff ed3e 6b4b f63d c419 103d
00000390: ec53 ce3e 10e0 c43e b51a ed3e 1228 463b
000003a0: a659 c5be dce1 34be 2840 ad3d 9c7b 7abe
000003b0: d8f7 383e f8d0 9dbd 5863 213e 0810 fcbd
000003c0: 9bad 82be c93c d33d 5691 0a3f 6dde 33be
000003d0: d2d7 fcbe b409 fabe 2a34 bb3e 0420 45be
000003e0: 0b38 d33e e273 35be b1be 87be 593d 0ebf
000003f0: 1be9 053f 1b8f dcbe 3996 3b3d 9844 d3be
-0.24688113 -0.33292097 -0.2585768 0.041829586 0.15179914 0.16078073 -0.15852255 -0.13098103
0.040162727 -0.3717632 -0.10160429 0.39015248 0.0626975 -0.4640688 0.16689949 0.42348015
-0.4485784 -0.57741404 -0.36523342 0.20214239 0.3572471 0.6394601 0.021774152 0.29584032
0.0965898 -0.10922229 0.32149363 -0.4595031 0.49853873 0.07655309 -0.056324977 0.4062583
0.21211222 -0.33488446 0.14667846 -0.12125659 0.13822001 -0.3465405 0.15371054 0.042591035
0.13879496 0.47840613 -0.18762535 -0.24429822 0.09201908 0.48902643 -0.12937307 -0.31477928
-0.2907185 -0.33689076 -0.26459172 0.19681898 0.37982368 -0.22719735 0.4124507 0.3530635
0.2442317 -0.14782488 0.29179823 -0.36364388 0.14334941 0.32171845 0.28794205 -0.18138331
-0.35278898 0.3085934 -0.35918444 -0.25727916 0.14026093 0.17571169 -0.35891688 -0.40805274
-0.3113622 0.38403976 -0.15082069 0.10940138 0.46773642 -0.28010473 -0.23949127 -0.39453802
-0.14174539 -0.2973377 0.22826153 0.32407618 0.22133477 -0.48831928 -0.3464422 0.252875
-0.28782862 -0.09633386 -0.25731266 0.4929902 0.15217386 0.59319985 0.45359242 -0.2257829
-0.2514596 -0.2151537 -0.07072121 -0.09193075 -0.1927334 -0.32255465 0.29949927 -0.23705316
0.30205655 0.57189894 -0.081786275 -0.2866426 0.28216106 -0.4247945 0.13502659 0.22256146
0.38972473 -0.18158956 -0.3844669 -0.239157 -0.39025778 0.34845293 0.08595866 -0.16285276
0.13920674 0.1627362 -0.13700305 0.2442739 -0.15538298 0.4651489 0.39993185 0.42436722
0.40420967 0.5906639 0.56945276 -0.02320222 0.17073782 0.57955563 0.3559893 -0.32614836
0.010638319 0.3514345 0.30773702 -0.17655055 -0.21072467 0.52384883 0.2537582 0.17900698
-0.32390833 -0.04146701 -0.3381304 0.1604268 -0.51681787 -0.6707372 -0.50202495 0.30380675
0.08767734 0.04525751 -0.31611148 0.34358472 0.19401161 0.22002073 -0.5155338 0.14013505
0.11008525 0.25649768 0.3866409 0.24065934 0.10012707 0.42146534 0.36472964 0.175463
0.39367303 0.13593292 0.55977887 0.100382686 0.004737928 0.34420586 -0.40499204 -0.06889171
-0.3428768 -0.24054408 0.057694197 -0.25288868 -0.064646386 -0.11102777 -0.58870304 -0.28344983
-0.088093996 0.1027199 -0.15807301 -0.23604459 -0.49435207 0.23984222 -0.066916324 0.299081
0.024958637 0.40283248 -0.12897815 0.38248575 0.08487027 -0.13630769 0.12378414 0.11686994
-0.21153438 0.46972603 -0.07002872 0.115269125 -0.27481097 0.46071792 0.040506113 0.28191912
0.19142193 0.42603135 0.28654796 -0.21204473 0.011092101 0.54173183 -0.21238267 0.012709631
-0.47663152 0.26092207 0.15376028 0.3991531 -0.44688123 -0.104977965 0.37851083 0.0104833245
-0.07040023 0.46483898 0.120261036 0.035180822 0.40298402 0.38452196 0.46309438 0.0030236286
-0.3854496 -0.17664284 0.084595025 -0.24461216 0.18063295 -0.07705873 0.15760553 -0.12307745
-0.25523075 0.10314328 0.54128015 -0.17565317 -0.49383408 -0.48835528 0.36563236 -0.19250494
0.41253695 -0.17719987 -0.26512673 -0.5556236 0.52308816 -0.4307793 0.04579756 -0.4126327

fc1.bias f4 [256]
00000000: 1089 18be b2d3 ffbe c41e 11be d7e4 f5be
00000010: dae4 2c3e bc11 c2bd b2f1 dabe 4c86 eebe
00000020: 2079 fe3d fe0c b8be 6eb0 c2be 1afe acbe
00000030: e6c0 aa3e 851d b8be 66b9 b3be 906b d5be
00000040: 8a1b a1be c012 56bc f7c9 c6be c644 853e
00000050: cec5 babe e445 893e cc2b c0be 4197 2cbe
00000060: 5ec6 cfbe d020 35be f947 943e edf7 afbd
00000070: fb2e 163e 80f2 c0bb b217 473e d980 f6bc
00000080: 7ff7 0d3e e197 fc3e a6b2 603e 7c44 a33c
00000090: 5431 8cbe a2e5 24bd 04b7 00bf 6d35 f6bd
000000a0: 872c 10be 0857 82be 6f60 c8bd 4651 99be
000000b0: e087 b83d 6bc7 bd3e e043 dabc bac6 013e
000000c0: a907 bfbd 365e bc3c 5f72 113d a3ad febd
000000d0: 69f8 943e 173c b93d a050 06bf ca8f a0be
000000e0: 0c95 143c 918e 39be 60f7 20bd 9eb1 ecbe
000000f0: b8ca 793e 80ed bfbb 3cc4 6fbe c381 8a3e
00000100: a2e8 a1be 1e5f dfbe d14a 6e3d a82a 9abe
00000110: 587f d6be e7fb 9a3e 0416 4fbd dd2c 763d
00000120: 347f 3f3e 588b cbbe df1a 65be 1c56 07be
00000130: 9428 30be aa6e a5be 0bb9 d1bd 2eb9 d3be
00000140: 27e6 efbd 933d 0d3e 4113 e93e bd11 0f3a
00000150: c0f8 fbbc 3e16 d1be ff60 253e 62a4 d43d
00000160: 4057 843d c6aa b2be 9cce 9b3e 9dab 093e
00000170: 07f0 813d 8034 ca3d d70b 173e 085c b2bd
00000180: 22b6 d5be 1a83 8c3e 5e95 c1be 22e7 5b3e
00000190: e83c aebe 8cdb 49be 12de 813d 25bf f7bd
000001a0: c8c1 83be 3045 1d3d a732 4f3e cb3a e8bb
000001b0: efd8 b43d b4d1 4dbe 6cec c1be d07e 893d
000001c0: 7c34 ff3d 28d7 b5be 4e88 ecbe 5936 05bc
000001d0: 1cab 05be 3ea1 8f3d 68cc c8be 3aa9 d1be
000001e0: 9248 87be 6979 233e c9f3 933e 31c7 ad3e
000001f0: cddd 8e3d a3c8 eebe 7845 80bd 39b6 883e
00000200: 4049 78be 8f16 3dbd 78c5 e6be d86d afbe
00000210: e0de c2be 9738 ef3d b302 d83e b554 1a3e
00000220: e245 d2be 809e e9be 8033 d73d 125f f4be
00000230: b48c 71be 678f 1b3e 643b 9ebe 59fe 1ebd
00000240: a619 e43e a6c0 4abe 91c2 a33d c583 173e
00000250: 942e fbbe 530e 303e 1a16 8cbe f58c 7b3e
00000260: 8e90 e23d 7228 c73e ada0 9b3d 4065 503c
00000270: e58a b8bc 5443 5e3e 0740 3ebe 4a16 cbbe
00000280: 305e 733d 4249 273e 1648 cabe bbd9 b3bd
00000290: c2ff 3e3e 7e22 e3be e64b 363e 8011 e23e
000002a0: 396e 4f3e e04e f43c b6b0 fdbe b923 fa3e
000002b0: e022 60be cda4 933e 1e39 eebe 72b6 393e
000002c0: 54ce cebe 1064 243e a072 babd 43d0 1fbd
000002d0: 7196 863e 038f f33e 2ed9 1e3e 7403 1cbf
000002e0: 2431 41be 09d5 183e 5ce7 24be c4d4 ab3e
000002f0: 2894 11be 4bb9 653b 68a0 bfbd 2a26 e2be
00000300: 2888 c2bd 1139 bcbe c486 0a3e 0466 2ebe
00000310: 5c40 523e 61f5 a03e 1e06 a43e f4b6 a13d
00000320: 4d84 3cbe 4019 f6be 4253 853e 4c48 b53e
00000330: 408e d93e 527a cfbe a7c0 3fbe 3121 203c
00000340: c258 a63e 6b6b 9b3e 7e4e abbe 1ba1 273e
00000350: 1c1d 81be 2399 d23e c062 c13e 1860 963e
00000360: df5f a13e bcd9 0cbe a712 b23e 9db8 443e
00000370: ea32 c8bd 5099 b9be ef8d 703e 50d0 183e
00000380: 4265 b4be 03cd 9e3e b867 313e c6af afbe
00000390: f813 9abe 120c 91be 5fca 453e ac9a 0cbe
000003a0: 04fb d43d bfcf ac3e f8bf 333e 38c8 c3bd
000003b0: a007 5f3e 8d39 a8be 5002 283d 6a2b f5be
000003c0: 22ab b6be 6f43 9d3e feb5 383d 585d 073e
000003d0: d468 c4be 3014 68be 3cd3 cf3d 3075 a03e
000003e0: 68ac c8bd 19ec ad3e 4d32 8a3e d420 563e
000003f0: b862 dfbe 0032 87bb bd29 4d3d ec8c 7bbe
-0.14896035 -0.49966198 -0.14171892 -0.48026153 0.16884175 -0.09476039 -0.42762524 -0.46586835
0.124254465 -0.35947412 -0.3802523 -0.33787614 0.33350295 -0.35960022 -0.35102385 -0.41683626
-0.31466323 -0.013065994 -0.38825962 0.26029032 -0.36479038 0.26811135 -0.37533414 -0.16854574
-0.4058103 -0.17688298 0.2896116 -0.0859221 0.14666359 -0.0058882833 0.19442633 -0.030090736
0.13863944 0.49334624 0.21943149 0.019930117 -0.27381384 -0.040258057 -0.5027926 -0.12021909
-0.14079486 -0.25457025 -0.09784018 -0.2994482 0.09010291 0.37066206 -0.026643693 0.12673464
-0.09327633 0.022994142 0.035509463 -0.12435462 0.29095772 0.09044664 -0.52466774 -0.31359702
0.009068739 -0.18120791 -0.039298415 -0.4622926 0.24393737 -0.0058571696 -0.23414701 0.27052125
-0.31622797 -0.43627256 0.05817682 -0.3011067 -0.4189403 0.3027031 -0.050558105 0.06010138
0.18700868 -0.39754748 -0.22373532 -0.13216442 -0.1720298 -0.32310992 -0.10240372 -0.41352218
-0.1171382 0.1379302 0.45522502 0.00054576603 -0.030758262 -0.40837282 0.16150282 0.10382916
0.06461954 -0.34895915 0.30431068 0.13444372 0.0634461 0.09873295 0.1475061 -0.0870896
-0.4174052 0.27443773 -0.3780927 0.21474889 -0.34030843 -0.19712657 0.06341185 -0.12097005
-0.2573378 0.03839606 0.20234166 -0.007087087 0.08830439 -0.20099527 -0.37875688 0.06713641
0.124611825 -0.35515714 -0.46197742 -0.008130633 -0.13053554 0.070131764 -0.3921845 -0.40949422
-0.26422554 0.15964283 0.2889693 0.33941033 0.06975899 -0.4663745 -0.0626325 0.26701525
-0.24246693 -0.04616409 -0.45072532 -0.34263492 -0.38060665 0.116807155 0.4218956 0.15071376
-0.4106894 -0.45628738 0.1050787 -0.47728783 -0.2358883 0.15191422 -0.30904686 -0.038816784
0.44550818 -0.19800052 0.07996095 0.1479636 -0.49058974 0.17192964 -0.27360612 0.2456549
0.11062728 0.38898045 0.07599006 0.012719452 -0.022527168 0.21705371 -0.18579112 -0.39665443
0.059415996 0.1633654 -0.39508122 -0.08781763 0.18652251 -0.44362253 0.1780239 0.44153976
0.2025689 0.029822767 -0.49548882 0.4885538 -0.21888304 0.2883667 -0.46527952 0.18136004
-0.4039179 0.16053796 -0.09103894 -0.039016973 0.26286653 0.47570047 0.15512535 -0.6094277
-0.18866402 0.14925016 -0.16103882 0.33560765 -0.14216673 0.003505307 -0.09356767 -0.44169742
-0.09498626 -0.36762288 0.13527972 -0.17031103 0.20532364 0.3143721 0.32035917 0.07896224
-0.18409844 -0.4806614 0.26040083 0.3540672 0.4249134 -0.4052301 -0.18725835 0.009773538
0.32489592 0.3035539 -0.33458322 0.1637005 -0.2521752 0.4113246 0.37770653 0.2937019
0.31518456 -0.13754934 0.34779856 0.1921105 -0.09775336 -0.3624978 0.23491643 0.14923215
-0.35233504 0.31015787 0.17324722 -0.34313792 -0.3009336 -0.2832952 0.1931548 -0.13730878
0.1039944 0.33752248 0.17553699 -0.09559673 0.21780252 -0.32856408 0.04101783 -0.47884685
-0.3567744 0.3071551 0.045095436 0.13219202 -0.38361228 -0.22663951 0.10147712 0.31339407
-0.09798509 0.3396919 0.269915 0.2091096 -0.43630004 -0.0041258335 0.050088633 -0.24565476

fc2.weight f4 [256, 256]
00000000: 225c 3b3d 7a7a 1abd 2e33 0a3e 4df5 c33e
00000010: b0f9 663e f242 47be 1cff 613d 755c 69bd
00000020: 0540 4b3a 5027 0e3d 7663 7b3d b27c 263d
00000030: 8e4c 553c 8c6d bdbd 4c7b 2ebd f039 1e3c
00000040: 182a 7a3c 408e 4d3d 40cf e33b 6edb 48ba
00000050: a4dd b03c 88dc 3abb a0bc 903b a7ad 87bc
00000060: 3a99 53bd 84df f03c 8bce 58be 3614 7abd
00000070: b7db c7bd 18ac 503d db5f 78bd a57c 12be
00000080: 9371 dcbe 3dc3 4cbe 0b93 20be 9cbb 83bd
00000090: 3c2e bf3c 7053 c13e 57d1 32bd 6af6 dabd
000000a0: 9a25 febc 3373 91bd e686 8ebe 5822 cfbb
000000b0: ce7a 33bd 03ca da3c 089b a4bc 1008 c1bb
000000c0: 3160 8cbe 8723 8d3b 3970 04ba bdc5 16be
000000d0: 94e8 52be 4adb 14be f3a0 e2bd 6cf2 3e3d
000000e0: 78a9 09be 5abe cabd 1c3b cb3c 7ce5 27bd
000000f0: 8f25 f6bd c4bd 5f3d 2983 903c 08ba a4bd
00000100: b830 28bd ec4c 313d 4d84 d4be 58a5 073c
00000110: 60c7 1abb d7b9 a6be 9ae0 2dbe e403 6fbe
00000120: e744 1ebe 000f 9cb9 bca6 cbbc bc05 04bd
00000130: 32bf 48bd 10a4 993d 9eac 0b3e 02f4 47bd
00000140: 4e3f d0bd 86aa b8be f46c 343e 1569 4dbd
00000150: 7c6a e73c 1cdf bc3c 7daf a8bd 6403 5c3e
00000160: 9c65 d73c 5047 54bc d0d8 7c3e 92e0 093e
00000170: 12cf adbe de4b 283d 778d 61be 04a4 bdbc
00000180: 0aa2 01bd f931 88bd 2c50 0d3d a8cf 6e3d
00000190: b654 36bd 0003 ca39 7b27 d7bc b347 e1bd
000001a0: 80e6 483c 1034 713d aec9 d1bd 3dc2 c93e
000001b0: 3442 113c cc91 703d e092 293b 9175 b8bd
000001c0: 5273 48be 90a0 2bbd 4e01 0ebd e4a0 e9be
000001d0: 8ab6 51bd a8f8 983d 2710 e63b 1f5b 093d
000001e0: 5034 73bd 5b0c 033d a9eb 6ebd 31d8 03be
000001f0: cf9e d4bd b064 f2bd 60f1 863b 699a ba3d
00000200: 641f e83c c305 7e3e 5cdf 9dbc ee5d 39bd
00000210: e026 cebb a35d c6bd 0c8d 513e 2658 e23d
00000220: 2483 52bd 7878 e5bc 846a b9bc 785a 603c
00000230: d81e 79bc 2969 3ebe 0caa cc3c af9c 17bd
00000240: c4bc d63d 9ac2 3e3d e906 c2bd 48a8 4a3e
00000250: 14c3 7c3d 78cd a4be b8e6 39bd 47a0 3abe
00000260: 2f01 ffbd c542 27be 4f73 61bc 608e 56bd
00000270: 199d 65bd 7c06 873c d09d ad3c fe09 20bd
00000280: d2ae 80be 6dbf d5be 8cad 3dbd abd4 863d
00000290: cb45 19be d513 9abc 070b 06be 9d73 183e
000002a0: 258c 933e 4ed3 243d 947a 373d 7b06 ca3d
000002b0: d886 9bbc dbf9 ccbd fc08 5dbd 792f 88bd
000002c0: dc1f 00bd f042 50bd 6285 52bd be5f 513e
000002d0: c508 2dbd df61 163e 0e94 963c 3e4f e5bc
000002e0: b8ea c93d 037a cbbc f452 45ba f4ff f4bd
000002f0: e29d 2dbd 2285 bbbd 2a92 423d 02b0 0fbd
00000300: 880f 07bd 2444 eebd 707b 08bd 897a f6bb
00000310: b244 543d f861 893d 3633 12be bee8 be3d
00000320: 0096 dfbd 2051 30bb e1cd 2cbd e6b3 0dbe
00000330: 6541 12be a0fd 31bd 366e f4bd cf4f 88bc
00000340: 48ca 1fba 5dfd d13b 572d d83d e5fc 9abd
00000350: 5863 eb3c 5daf 393e 6dc6 b5bd aec0 543d
00000360: 325a 543e 40bc 073d b611 07be 20e2 fabd
00000370: bd23 273e 96b4 1c3d d389 3fbd f7e6 a43e
00000380: b088 423d 1041 13bd 6d1d 013e 383b 433c
00000390: 8856 8f3d e0e2 403c 4d70 0cbe 804a 4b3b
000003a0: 802b a2bd e2fd 85bc a567 bdbc cef7 d0be
000003b0: 8aef 193c 7eda f43c 40be 373b 186d 903c
000003c0: 5121 2bbd d380 06bd 762b 673e 0d8d 613e
000003d0: 565d 613d 8a63 7abd 986d 1abe 716e 9b3c
000003e0: 2fc1 81bd 1589 5f3e 42ec f3bd 3341 07bc
000003f0: fae1 4abd 626f 47bd c4fa d8bd 3c57 6dbd
0.04574216 -0.03771446 0.13496086 0.38273087 0.22556186 -0.19459131 0.055174932 -0.05697294
0.0007753375 0.03470546 0.06137415 0.040646262 0.01301874 -0.0924941 -0.042598054 0.009657368
0.015268825 0.05018449 0.0069521964 -0.0007662092 0.021590061 -0.0028512795 0.004417017 -0.016562296
-0.0516598 0.029403456 -0.2117254 -0.06105443 -0.09758704 0.05094537 -0.06063829 -0.1430536
-0.430554 -0.19996352 -0.15681092 -0.06432268 0.023337476 0.3775897 -0.043656673 -0.10691531
-0.03102379 -0.07102051 -0.27837294 -0.0063212328 -0.043818288 0.026707655 -0.020093456 -0.0058908537
-0.27417138 0.0043072137 -0.0005052123 -0.14723869 -0.20596534 -0.14536777 -0.11065855 0.04661791
-0.13443553 -0.09899588 0.024808459 -0.040990338 -0.120188825 0.054624334 0.017640667 -0.08043295
-0.041062087 0.04328625 -0.41507187 0.008279167 -0.0023617372 -0.3256366 -0.1698021 -0.23341328
-0.15455972 -0.00029765815 -0.024859779 -0.03223203 -0.049010463 0.075019956 0.13640067 -0.04881669
-0.101683244 -0.360676 0.17619687 -0.050149042 0.028249018 0.023055606 -0.08236597 0.21485668
0.026293568 -0.012956455 0.24692082 0.13464573 -0.33947045 0.041087978 -0.22026621 -0.023149498
-0.031648673 -0.066501565 0.034500286 0.058303505 -0.04451438 0.00038530678 -0.026263943 -0.11000004
0.012261987 0.05888754 -0.102435455 0.39406005 0.008865882 0.058732793 0.0025874898 -0.09006799
-0.19575241 -0.04190117 -0.034669213 -0.45630562 -0.051199473 0.074693024 0.0070209685 0.033534165
-0.05937606 0.031994205 -0.05833021 -0.12875439 -0.10381853 -0.11835611 0.0041181296 0.09111483
0.02833528 0.24806885 -0.019271545 -0.045255594 -0.0062912554 -0.096858285 0.20463961 0.11051969
-0.051394597 -0.028011546 -0.022633798 0.013693444 -0.015205108 -0.18594803 0.024983428 -0.03701466
0.10485223 0.046572305 -0.09473974 0.19790757 0.06170948 -0.3218801 -0.045386046 -0.18225203
-0.12451398 -0.16334064 -0.013760402 -0.052381873 -0.056058023 0.016482584 0.021193415 -0.03907203
-0.25133377 -0.4174761 -0.046308085 0.06583532 -0.1496803 -0.018808285 -0.13090144 0.14887853
0.2881786 0.04024058 0.044794634 0.09864517 -0.018985197 -0.10008594 -0.053963646 -0.0664968
-0.031280383 -0.050845087 -0.051396735 0.20446679 -0.04224469 0.14685772 0.018381145 -0.027991887
0.09859222 -0.024838453 -0.00075273146 -0.11962882 -0.042386897 -0.091562524 0.047502674 -0.035079964
-0.032973796 -0.116340905 -0.033320844 -0.0075219315 0.051823325 0.06708139 -0.14277348 0.09321736
-0.10917282 -0.0026903823 -0.04218853 -0.13838157 -0.14282759 -0.043454766 -0.119350836 -0.016639618
-0.0006095511 0.006408377 0.10555523 -0.07567767 0.028733894 0.18133302 -0.08875737 0.051941566
0.20737532 0.033138514 -0.1319035 -0.12250161 0.16322227 0.038258158 -0.0467623 0.32207462
0.047493637 -0.03595072 0.12608881 0.011915974 0.069989264 0.011772841 -0.13714714 0.0031019747
-0.07918453 -0.016356412 -0.02312071 -0.4081406 0.0093954895 0.029889341 0.0028036982 0.017630145
-0.04177982 -0.0328377 0.22575173 0.22026463 0.055020653 -0.061130084 -0.15080869 0.018973561
-0.06335675 0.21829636 -0.11910297 -0.008255291 -0.049531914 -0.048690207 -0.10594705 -0.05794452

fc2.bias f4 [256]
00000000: abcf 13bd cc4e 1cbd 110d cbbd 8587 31bd
00000010: 06be b1bd 1838 61bb 0107 a93d f049 d3bc
00000020: c067 05be 6262 6ebd 3a2a 95bc dc35 d23c
00000030: 5062 fdbd b383 87bd 8365 cebb bc4a a3bd
00000040: 8474 15bd d7de cdbd 43ae 1ebd 8dec 0ebd
00000050: 5ed6 b13c 86e7 c3bd bde9 adbd d298 3abd
00000060: 76fa 833c 7855 aabc 6b74 5dbd 3bb4 b2bc
00000070: e1a6 20bd 8886 83bc e437 a1bd 68f8 4bbc
00000080: e8ca 7e3c f26c f6bd d066 78bd 24d8 e4bc
00000090: e2a6 90bd a75d 4d3c cf9f 16bd 9bc0 a23d
000000a0: b6b7 1cbd b12f e9bd 054e dc3d 6346 05be
000000b0: e48a 9dbd 1cb1 adbc ddb7 7ebd a047 72bd
000000c0: e66d 5fbd 0eee 15bd 00bf 5cba 390a 01bd
000000d0: b21f 1abd 4b48 90bd 1fe2 57bd ef46 04bd
000000e0: 19db 9d3c d596 0e3c 6d91 67bd 7100 88bd
000000f0: c8a2 49bd 7003 7dbd 3e14 123d add9 16be
00000100: 0d20 203c 4f8b 1abd 35cd b33c 4d54 14bd
00000110: 36a0 4cbd 9837 a1bd b304 a3bc 485a 843b
00000120: 218a 923c 8811 a1bc 1a84 843d 55be 76bd
00000130: fe3f a0bd d915 b1bd af2c f3bd 4902 06bb
00000140: 9090 0cbc c16b c6bc 54e8 67bd c0d4 2e3e
00000150: 5760 c9bd f00d 8f3b 8aa9 7bbc 72bc 61bd
00000160: d845 2c3c ec84 0dbd 7572 bebd 7839 d2bc
00000170: 02e4 a6bd 251d b3bd 4e95 e0bd 183e 01b9
00000180: 8eeb 40bc d1fe a63d 28c3 6dbc 8ceb 6ebd
00000190: 30ad 7fbd a86e 57bd f4ff 803c 0664 b4bc
000001a0: 07f7 d2bd 57f1 833d e47c ddbd ec5a f139
000001b0: 5630 093a e249 34bd e653 e43c ee28 e1bd
000001c0: 28fa 94bd f8e4 303e de01 86bd f4e8 a33d
000001d0: 2bd5 50bd fac5 b3bc 5d73 f4bc adf8 55bd
000001e0: 1cad b13c a8d0 aabd 8daf d1bc 1fd3 6d3c
000001f0: af39 cdbd 74e1 42bd 8f7e 97bd 3d94 21be
00000200: f036 f7bc 0ab8 16bd 94ae 5dbc 123f 403d
00000210: 5f91 41bd 9ef8 41bd 8b6f 5c3c 2162 d0bc
00000220: 1d9b a33c 8f79 29bc 4d9f 0dbe ac07 d5bc
00000230: e2c2 d3bc bf48 d7bc 3548 2bbc 9c27 61bc
00000240: a9d1 50bd 539e 9cbc 1af6 1d3e 37ff e9bd
00000250: 22e5 f1bd db2f c83b 5406 e4bc 0e48 3cbd
00000260: 6e22 aabd 23a2 aebc 550d e4bc 8e07 d7bd
00000270: 5eff f5bd 727e 77bc 8508 be3d 4a42 57bd
00000280: 60e6 d7bd 8ccb c0bc ee7e 45bd 7df5 bebd
00000290: d506 ccbd 8dae 51bc 3605 d23c d2eb 4dbd
000002a0: a6f4 a4bd 38b8 e1bc be7b 06bc d224 37bd
000002b0: f71e 89bc dd13 33bd ccde bdbd a0dd abbb
000002c0: 0b0a af3d d413 3dbd 2c52 5fbd f44e 8fbb
000002d0: 6cdb 61bc d3af 013e 1c84 723d ac4d 57bc
000002e0: fc3c f6bc 594c 21bc a807 0ebd 9c27 76ba
000002f0: 2669 9b3c 755b 30bd 0647 cfbc 05c1 38bd
00000300: 562b 54be 3f7f 91bd f6bb 21bd 0070 76bd
00000310: 187d 2fbc 5c94 bebc 1f72 cebd 1550 eebd
00000320: 7e09 fbbc 54b0 b7bd a04f 3bbb 3833 18bd
00000330: 292c 82bc 9e9c 0fbe 7e44 d9bd ab44 a5bd
00000340: 2f39 e2bd acab b2bd 9447 663c 19e1 05bd
00000350: 252e 053d 10f3 8abd 4393 8e3c d1ce acbd
00000360: d7a9 1f3c eb02 abbd 50ca 3bbd 14f4 88bc
00000370: c8f0 aebd 81e1 9abd 7edf 6bbd 0531 eabc
00000380: 086b 95bc d995 3bbd 907b 3abc 0b70 82bd
00000390: 6a98 abbd c16b 94bd b605 00bd f983 77bd
000003a0: a008 14bb ee96 31bd 1a2a c8bc a0e3 ed3b
000003b0: b2cc 45bc 1ffc f8bd 85a7 15bd 0a56 abbd
000003c0: 90c7 57bc 006c 71bd 33f9 bebc e001 63bc
000003d0: 6df0 d53b c790 8fbd 5cac f4bc b426 c8bc
000003e0: 70b4 463c 8474 91bd 6022 4cbd 8e70 59bd
000003f0: 7237 58bd 4079 273e 28e2 833a 9b3d 88bc
-0.03608672 -0.038161084 -0.099146016 -0.043342132 -0.08678822 -0.003436571 0.08253289 -0.025792092
-0.13027859 -0.058199294 -0.018208612 0.025660448 -0.12372267 -0.066169165 -0.0062987222 -0.07973239
-0.03648807 -0.10052269 -0.038740408 -0.03489356 0.021708664 -0.09565644 -0.08491848 -0.045555897
0.01611064 -0.020792708 -0.054066103 -0.021814456 -0.039221648 -0.01605536 -0.078719884 -0.012449361
0.015551306 -0.120324984 -0.060644925 -0.027935095 -0.0706308 0.0125345355 -0.0367735 0.07946893
-0.038261138 -0.113860495 0.107570685 -0.13015132 -0.07692507 -0.021202616 -0.062187064 -0.05915034
-0.054548167 -0.03660398 -0.0008420795 -0.03150389 -0.037627883 -0.07045039 -0.05270588 -0.03229421
0.019269513 0.008702953 -0.056535173 -0.06640709 -0.049227506 -0.061770856 0.035663836 -0.14731474
0.0097732665 -0.03773051 0.021948436 -0.036213208 -0.049957477 -0.07871932 -0.019899702 0.0040390827
0.01788813 -0.01966168 0.06470509 -0.06024011 -0.078247055 -0.08646745 -0.11873757 -0.002044814
-0.008579388 -0.024221303 -0.05661805 0.17073345 -0.098328285 0.004365675 -0.0153602455 -0.055111356
0.010514699 -0.034550592 -0.09299175 -0.025662169 -0.08148958 -0.08745793 -0.109659776 -0.0001232553
-0.011774911 0.08154071 -0.014511861 -0.058330104 -0.062421024 -0.052595764 0.015747048 -0.022020351
-0.10301023 0.06442516 -0.108148366 0.00046034844 0.0005233338 -0.044015773 0.027872037 -0.10994135
-0.07274276 0.17274845 -0.06543325 0.08003417 -0.050984543 -0.021944989 -0.029840166 -0.05223911
0.02168899 -0.08340579 -0.025596404 0.014515667 -0.10020768 -0.04757829 -0.07397186 -0.15779205
-0.030177563 -0.036796607 -0.013530392 0.04693515 -0.047257777 -0.04735624 0.013454328 -0.025437417
0.019971425 -0.010343923 -0.138303 -0.026004635 -0.025849763 -0.026279805 -0.010454227 -0.013742354
-0.050981198 -0.019118464 0.15425912 -0.114256315 -0.11811282 0.0061092204 -0.027835049 -0.045967154
-0.08307348 -0.021317547 -0.027838388 -0.10499488 -0.12011598 -0.0151058305 0.09278969 -0.052553453
-0.105419874 -0.023534559 -0.048216753 -0.09324167 -0.099622406 -0.012797964 0.02563725 -0.050273724
-0.080544755 -0.027553663 -0.008208213 -0.04471285 -0.016738398 -0.043720115 -0.09271011 -0.0052449256
0.085468374 -0.046161488 -0.054521725 -0.0043734256 -0.013785224 0.12664728 0.05920802 -0.013141077
-0.030058376 -0.009844863 -0.03467527 -0.00093900575 0.018971037 -0.04305597 -0.025302421 -0.045105953
-0.20719656 -0.071043484 -0.039485894 -0.060165405 -0.010710977 -0.023264103 -0.100803606 -0.11636368
-0.030644175 -0.08969179 -0.0028581396 -0.03715822 -0.015890198 -0.14024588 -0.10608767 -0.08069738
-0.11046063 -0.0872415 0.0140551515 -0.032685373 0.03251471 -0.06784642 0.017404204 -0.084378846
0.009745083 -0.08350166 -0.045847237 -0.016717948 -0.08542019 -0.07562543 -0.057586186 -0.028587827
-0.018239513 -0.045797203 -0.011381999 -0.06369027 -0.0837868 -0.07247115 -0.031255446 -0.060428593
-0.0022588149 -0.04335683 -0.024434138 0.007259801 -0.012072729 -0.12157463 -0.036536712 -0.0836602
-0.013170138 -0.058940887 -0.023312187 -0.0138554275 0.006528905 -0.07010036 -0.029867344 -0.024432518
0.012127981 -0.07102302 -0.04983747 -0.053085856 -0.05278725 0.16354847 0.0010061907 -0.016630938

fc3.weight f4 [256, 256]
00000000: 8e98 b3bd 372d 1ebd c35f 19bd 0bdf 82bc
00000010: 3c23 2dbd e9cc 20ba 5c0d 8ebd 4332 c4bd
00000020: 9d9d 99ba 18e9 3abc ba26 b63d 9c6f 51bd
00000030: 0044 7a3b a4db af3c 4a21 b8bd 4c26 0fbd
00000040: 4eff 463d 5ae7 5abd 1f96 97bd 0153 4dbd
00000050: d5f7 6bbc e083 d03c 6eb9 a0bd ca41 953d
00000060: bcc7 23bd 605b b3bd 5bd8 ccbd 9fff 8bbd
00000070: e5d0 f7bd 20ba 1e3d 3cbc f9bd 5893 1fbd
00000080: c079 7a3b 6bb4 1bbd ee96 6bbd 9508 0fbc
00000090: aea4 df3d 4736 34bd b2ce e0bd 7c77 e0bd
000000a0: 10b5 cfbc bc78 98bd 10a7 67bd 507c 4f3d
000000b0: d99c d3bd f0da 89bc 7c79 27bd c8a7 aabd
000000c0: 361b 71bd 105f 623c c63e 063d 341b 53bd
000000d0: a66c 23bd 71c6 09bd 970d df3a 1271 37bd
000000e0: a02f 2abd 7428 0a3d c78d fabd ce48 35bc
000000f0: 982e 053c c280 40bd 8bd9 b2bb e4e1 d03c
00000100: 35f4 a3bd 5591 afbd 2d18 a33d f8e5 3dbc
00000110: a039 c23b c691 47bd 7b24 62bd 1ebf 0e3b
00000120: 3425 b03c 2054 42bb 448b e5bd e81c babd
00000130: 22e5 703d 8860 143c 7400 bb3c 81d4 a1bc
00000140: e013 613b 3020 fdbc d807 d43c e00d 8c3c
00000150: 1114 e2bc 60f0 0cbb bf79 a2bd 43e3 72bb
00000160: 7937 e6bd d900 bbbd e04c f0bc 5cc2 283d
00000170: 0edc e7bd 1198 dfbd d0f8 2cbc 4f3a 5dbc
00000180: 52dd 9fbd 210a 8bbc 7c88 36bd 4bd5 bfbd
00000190: 3b37 b3bd 78bc 043c fcb4 193d 7fce 68bd
000001a0: 5aba e5bd ca48 e73d 8c70 3ebd 08d7 ffbc
000001b0: afd5 57bc 58ee cebd 6cf0 d5bd 71f6 7dbd
000001c0: 2ec7 df3d 2064 50bd cbcf 9dbd f8bc 6ebc
000001d0: 4f0f 4fbd e25f a4bd 1e6c 07bd 0af4 573d
000001e0: de4b 713d daa0 79bd 24a9 f6bd 3365 52bd
000001f0: c8cb d4bd 5002 f33c 6de6 14bd 6030 4ebd
00000200: bc7b 39bd 98c2 a43c 34e1 87bc 180c 733d
00000210: ba7d dabd 52cb 4cbc 918a 99bd 3362 babd
00000220: 14b0 f9bb a87e c9bd f87b 943a 417c 95bd
00000230: a3ba 85bd aab2 73bd 29b7 573d a1f2 56bd
00000240: c05b debc f982 0fbd 186a 18bd c615 fcbc
00000250: bc47 b9bc f6e6 53bd dd83 9bbd 2a6f 4dbd
00000260: 0280 7b3d 64b4 b3bd d447 d1bd 2a67 02bd
00000270: 69e1 b3bd 6685 e8bd d0a7 98bd 246f bbbd
00000280: a009 0dbc 3422 dabc 7e28 85bd d289 e4bd
00000290: c0fc 7abc 8f60 6abd 18eb 40bd 488f 743d
000002a0: f6fc 303d 51ab dfbc 3839 0abd 1d2f aabd
000002b0: 2c2c 08bc e899 91bc d86f 483d e346 25bd
000002c0: 6cab c2bd c9d0 9fbd 26d5 f0bc 881c f2bd
000002d0: 3d82 c6bd 3a7d 2c3d 4cbf 5cbd a9a0 11bc
000002e0: 2c82 50bc 8eca 1ebd 2235 f6bc 9013 25bd
000002f0: eb69 3bbd 922b babd fa3d bbbd b341 93bd
00000300: acf6 1ebd d739 9ebd a451 cebc 3df1 dfbd
00000310: 5b0f c0bd 600c 343b 6ba7 7bbd 88a4 bebc
00000320: 7372 253d 55ff b5bb 1d84 12bd 7a8b 10bd
00000330: 0de0 d8bd b666 2ebd 33b2 f03d 1e70 96bd
00000340: 220b 72bc 4272 6dbb 21c8 62bc 5548 a6bd
00000350: f015 80bc 3407 f8bc 4d7a 77bc c6ff cfbd
00000360: 3663 b7bd a5f8 14bd 2a42 9ebd 9682 233d
00000370: 08ba 08bd 00eb 26bd c421 d53c 0a4e f2bd
00000380: 04c3 4ebd f677 93bc 88b9 a43c 1015 f6bb
00000390: c614 d4bd d4ef 50bb 64d9 e73c c026 94bc
000003a0: f8f5 163d 1061 703d 6071 a8bb e09e d43b
000003b0: 3b43 68bd 9458 5d3d 2665 f8bc 60ad c3bb
000003c0: c084 b93a b1e1 7ebc 62ac 74bd d00a 7ebd
000003d0: 0041 4bbc e416 41bd 4203 67bb 8eda 423d
000003e0: 806b 9a3b e66f 2abd 865c 783d 3349 67bd
000003f0: dc14 44bd 1413 89bc 2eb6 98bd 28dd 25bd
-0.08769332 -0.03861734 -0.03744484 -0.015975496 -0.04226993 -0.00061340496 -0.06936142 -0.09579899
-0.0011719946 -0.011408113 0.08894105 -0.05113183 0.0038187504 0.021467037 -0.089907244 -0.034948632
0.04858332 -0.05344329 -0.0740168 -0.050127987 -0.0144023495 0.025453508 -0.07847868 0.07287939
-0.039985403 -0.08757663 -0.10002204 -0.06835865 -0.1210039 0.03875172 -0.12194106 -0.038958877
0.0038219541 -0.038013857 -0.057516985 -0.008730073 0.10920082 -0.043997075 -0.10976924 -0.1096029
-0.025354892 -0.07444903 -0.056555808 0.050655663 -0.10332651 -0.01682803 -0.04088734 -0.08332783
-0.05886384 0.01381661 0.03277471 -0.051539615 -0.039898537 -0.033636514 0.00170176 -0.044785567
-0.041549325 0.033729985 -0.12234073 -0.011064721 0.008128785 -0.046997793 -0.005458062 0.025498338
-0.08005563 -0.08572642 0.079635955 -0.011590473 0.0059272796 -0.048723005 -0.05521057 0.0021781395
0.021502115 -0.0029652193 -0.112082034 -0.09087545 0.058812268 0.009056218 0.022827365 -0.01975465
0.0034344122 -0.030899137 0.025882646 0.01709646 -0.027597459 -0.002150558 -0.079333775 -0.0037061728
-0.11241049 -0.09131021 -0.029333532 0.04120098 -0.11321269 -0.10917676 -0.010557368 -0.013502671
-0.078058854 -0.016972603 -0.044563755 -0.09366854 -0.08750769 0.008101575 0.037526116 -0.056837555
-0.11217184 0.1129318 -0.04649405 -0.031230465 -0.013173505 -0.10104054 -0.104462475 -0.062002603
0.109266624 -0.050876737 -0.07705649 -0.014571421 -0.05055171 -0.08026101 -0.033062093 0.05272297
0.058910243 -0.060944416 -0.1204398 -0.051366042 -0.10390431 0.029664189 -0.036352564 -0.050339103
-0.045284018 0.02011232 -0.016586877 0.059337705 -0.10668512 -0.012499647 -0.074971326 -0.09100761
-0.007619867 -0.09838611 0.001132845 -0.0729909 -0.06529739 -0.05949656 0.05266491 -0.052477483
-0.02714336 -0.035037015 -0.037210554 -0.030772101 -0.022617213 -0.051733933 -0.0759351 -0.050154842
0.061401375 -0.08774641 -0.10218778 -0.031836666 -0.08783228 -0.11353569 -0.07453883 -0.09152058
-0.008608252 -0.026627637 -0.06501864 -0.111591 -0.015319049 -0.05722099 -0.047099203 0.059706956
0.043209992 -0.02730337 -0.033745974 -0.083097674 -0.008311313 -0.017773584 0.048934788 -0.040350806
-0.095053524 -0.078034945 -0.029398512 -0.11821848 -0.0969281 0.042111613 -0.053893372 -0.008888402
-0.012726348 -0.03876739 -0.030054633 -0.04030186 -0.045755308 -0.09090342 -0.091426805 -0.071902655
-0.038809463 -0.07725876 -0.025185414 -0.109346844 -0.09377929 0.0027473196 -0.06143896 -0.023271814
0.04039235 -0.0055541196 -0.035770524 -0.035289265 -0.10589609 -0.04257842 0.11752739 -0.073456034
-0.014773162 -0.0036231433 -0.01384166 -0.08119265 -0.01563546 -0.030276872 -0.015104842 -0.10156207
-0.0895447 -0.03636994 -0.077274635 0.03991946 -0.03338054 -0.040751457 0.026017077 -0.11831291
-0.05047895 -0.018001538 0.020108 -0.007509835 -0.10355525 -0.003188123 0.028301902 -0.018084884
0.036855668 0.058686316 -0.0051404685 0.006488666 -0.05670474 0.054039553 -0.030321669 -0.0059715956
0.0014153942 -0.015556739 -0.05973471 -0.06202203 -0.012405634 -0.04714097 -0.0035249745 0.04757171
0.004712522 -0.04161062 0.060635112 -0.056466293 -0.047871456 -0.01673273 -0.07456623 -0.040494114

fc3.bias f4 [256]
00000000: b55b 0bb6 2ec8 edbd 2a46 0aba b12f abbd
00000010: c82b 9dbc 235c bbbd ac34 d2bd 91d1 d2bd
00000020: 609e abbd 5469 853d 6ab2 c7bd 611f c3bd
00000030: b5b5 29bd 8971 25bd f0c8 0bbd 2ff0 b23d
00000040: 2fa4 3dbd e642 a93d 68f1 93bd bd2d 12bd
00000050: fa43 c9bd daa2 1ebc 21ef bebc 66a6 75bd
00000060: e603 bfbd 6cdc 86bc f742 77bd dfd0 f4bd
00000070: b32c 3f3e a329 febd bff4 aebd 9f96 47bd
00000080: 47f9 04bd 468c e2bd 5362 80bd cc4d b9bd
00000090: 5996 f3bc a47a 95bd 550c 1dbd 7e7d 453d
000000a0: c5e1 6e3d a750 60bd b576 cbbd b394 d0bc
000000b0: ef87 e7bd ab78 d8bc 94c9 d5bd a31b 3abc
000000c0: 867c 78b9 45bf 36bd a2f8 9bbc 5944 adbc
000000d0: d263 813e 9e02 0dbe a500 c8bc 4fe7 c83d
000000e0: 93c4 8abc 304e 0abe de19 75bd 0ab6 36bc
000000f0: f11e 063d b600 ddbd f2d1 63bd 0d46 7fbd
00000100: 0997 eb3d 01fb b1bd 9ef7 6a3d 1ba5 d4bc
00000110: 2ae8 35bd 1aa8 b3bd bcf7 8bbd e050 7a3d
00000120: ce2b 173b ca4a 8dbd b8a8 febd ea1a 93bd
00000130: d636 3bbd 6a96 1fbd 37f9 2fbd 9cc0 e3bc
00000140: a7ee f0bd 3f6a 583e b094 a03c 7537 913e
00000150: 0045 cbbc 83a9 c1bc c51d 25bd 7181 4bbb
00000160: 145e d1bc 4ab8 46bd c553 463e c021 36bd
00000170: 6fbf 0b3c 4673 cebd 1780 de3d 48b1 f0bd
00000180: df2f d3bb 3cea cebc 3f9b 463e c335 11bd
00000190: 70d6 57bc a1e8 8dbd df83 843b 853a 4c3c
000001a0: 66f3 3bbd d159 0dbe b79a c8bd f258 b2bd
000001b0: 89f9 f9bb 5216 1e3e b605 5f3e f1d1 2ebd
000001c0: dd6e ecbd 0a00 46bd af13 22bd e18b e0bd
000001d0: 3c83 9b3e c815 7ebd 96fb 54bd c216 bfbd
000001e0: 2e36 dfbd e3ca 883d c2aa 31bc e2e2 6bbd
000001f0: 72f9 03bd 8d1d 80bc 978a 603e 5618 86bd
00000200: 65f7 573e 6087 c4bc d7e0 043e 0adb 10be
00000210: 4b84 8e3d d2c7 a4bd 1e1e 1ebd b926 bbbc
00000220: 54ae 12be df68 d3bc 9774 16be 652a 3cbd
00000230: fcd0 b3bc 5496 92bd 62aa c6bd 3f90 b9bc
00000240: 7d81 00be 5023 cdbd 1f9e efbc 166b d3bd
00000250: b6cb f13d 5282 8bbd efc0 d8bd c340 acbd
00000260: 2ec0 d6bd cc20 62bd 92e3 48bd 84af bc3e
00000270: 9f3c 86bd ff0c c4bd d575 453e 6323 fbbd
00000280: 3ca5 673e 547c e4bd c8cd 74bd 8f22 52bd
00000290: 9644 3fbe 441d 0ebd 3ced ebbd 6b89 bfbb
000002a0: 8783 e9bd 4910 c23c 53c4 debd 52c8 0fbe
000002b0: 8ac1 53bd 5c36 89bd 0dce f6bc 69c9 8abc
000002c0: 5fa9 01bd 9000 5e3e cfd4 a2bc 57cb 9bbc
000002d0: cf58 60bd 0d8a 5fbd 9efd 26bd 197f ccbd
000002e0: ba5a 2e3e 3503 16bd 76f0 8ebd 62dc 203c
000002f0: 7e56 d4bd f544 923c c805 c7bd 57bb ab3d
00000300: 2fd4 c43c ff4c c2bd 43bb 91bd cc5b 0cbe
00000310: f432 acbc b6c3 8dbd 8734 f0bd 9c46 21be
00000320: ecfa c9bd 2164 0ebe 013a 62bd 1441 ccbd
00000330: 2502 a3bd 2ada c53e 800c 32bc 1c1f 89bd
00000340: 4b43 62bc d8ba c63c b19e fdbd e7fe 983e
00000350: 8c55 abbd c984 8e3e 4a2f 8fbd fd63 00be
00000360: acaa 95bc f734 e6bd 1c0a 6e3d e27f 96bd
00000370: 8d74 4cbd 4518 b63d 5eb0 8bbd c52d a4bd
00000380: 8519 c6bd 3712 47bd e69c e2bd 501f a8bd
00000390: 7673 d5bd 28b2 73bd d49e 773c 7cd5 1abd
000003a0: caf0 f33c 3e17 19be 6dc7 a1bd ab4f d7bd
000003b0: 2a53 bb3d fb1d 2d3e 79f5 04bc cf27 0abd
000003c0: 90cc 23bd c8db 60bd fdc8 ecbc 6a09 92bc
000003d0: 8f29 6d3d 116b 92bd ed93 333e d334 b3bb
000003e0: f488 65bd ffe8 95bd d154 16bd 2823 07bd
000003f0: 4c10 1fbc d06f dfbd 0ed4 bebd 9d73 423e
-2.0765995e-06 -0.11610447 -0.00052747375 -0.08358706 -0.019185916 -0.09148433 -0.102639526 -0.10293878
-0.08379817 0.0651423 -0.09750827 -0.095274694 -0.041433055 -0.04039148 -0.034127176 0.08737218
-0.046299156 0.08264713 -0.07223779 -0.03568815 -0.098274186 -0.0096823815 -0.023307385 -0.059973143
-0.093269154 -0.016462527 -0.060366597 -0.119539015 0.18669395 -0.12410285 -0.08542775 -0.048727628
-0.032464292 -0.11061911 -0.06268754 -0.09048042 -0.029734777 -0.072987825 -0.03834184 0.04821538
0.05832078 -0.054764416 -0.09934751 -0.02546153 -0.11305224 -0.026424726 -0.104388386 -0.011359128
-0.00023697512 -0.044616003 -0.019039456 -0.021150755 0.2527147 -0.1377053 -0.02441437 0.098097436
-0.016939437 -0.13506389 -0.059839122 -0.0111518 0.03274435 -0.10791151 -0.05562014 -0.062322665
0.11503417 -0.08690453 0.057365052 -0.025957635 -0.044410862 -0.08772297 -0.06834361 0.061112285
0.002306688 -0.068990305 -0.12434524 -0.07182868 -0.045706593 -0.038961805 -0.04296228 -0.027801804
-0.11764269 0.2113428 0.01960215 0.28362623 -0.024813175 -0.0236404 -0.040311594 -0.0031052495
-0.025557555 -0.048515595 0.19367893 -0.04446578 0.008529528 -0.100805804 0.10864275 -0.11752564
-0.0064449157 -0.025258176 0.19395159 -0.03545166 -0.0131736845 -0.06929136 0.0040440406 0.012465124
-0.04588642 -0.13803793 -0.097951345 -0.08708371 -0.007628624 0.15438202 0.21779522 -0.042680684
-0.11544583 -0.04833988 -0.039569553 -0.1096418 0.3037356 -0.06203249 -0.051997744 -0.093305126
-0.10899006 0.066793226 -0.0108439345 -0.05758942 -0.03222031 -0.01563909 0.21927868 -0.065476105
0.21090467 -0.023990333 0.12976395 -0.14146057 0.06958827 -0.08045925 -0.03860294 -0.022845613
-0.14324313 -0.025806842 -0.14692913 -0.045938868 -0.021950237 -0.07157579 -0.09700467 -0.02265179
-0.12549396 -0.10016501 -0.029250203 -0.103231594 0.11806433 -0.06811966 -0.10583674 -0.0841079
-0.10485874 -0.05520706 -0.049045153 0.36852658 -0.06554531 -0.09572791 0.1928323 -0.12262609
0.22621626 -0.11156526 -0.05976656 -0.05130249 -0.18678507 -0.03469588 -0.11519858 -0.005845239
-0.1140204 0.023689406 -0.108772896 -0.1404126 -0.051698245 -0.06699821 -0.03012755 -0.016941743
-0.031655665 0.21679902 -0.019876866 -0.019017858 -0.054772194 -0.054575015 -0.040769212 -0.099851795
0.17026797 -0.036624152 -0.06979458 0.009818168 -0.103680596 0.017855147 -0.097178996 0.083853416
0.024026958 -0.09487342 -0.071157955 -0.13706893 -0.02102039 -0.069220945 -0.11728769 -0.15749592
-0.09862313 -0.13905384 -0.055231098 -0.0997335 -0.079593934 0.38643008 -0.010867238 -0.06695387
-0.013809989 0.024259016 -0.123837836 0.29881975 -0.08365926 0.27835682 -0.069914415 -0.12538143
-0.01826986 -0.11240571 0.05811511 -0.073486105 -0.04991584 0.08891348 -0.06820749 -0.08016542
-0.09672836 -0.048601355 -0.11065082 -0.082090974 -0.10422413 -0.059496075 0.015113551 -0.03780125
0.029777903 -0.14950272 -0.078993656 -0.10513242 0.09146722 0.16905968 -0.008115166 -0.03372937
-0.039990008 -0.0548971 -0.028904432 -0.017826755 0.05790096 -0.071493275 0.17536898 -0.0054689436
-0.05603881 -0.07319831 -0.03670198 -0.032992512 -0.009708475 -0.109099984 -0.0931779 0.18989415

classifier.weight f4 [16, 256]
00000000: 41ae f43c 0cfd 8cbc 2f58 8a3d 8403 053c
00000010: c3cd c63d 14b1 e2bd a04e 5bbd 9c35 553d
00000020: ae17 f63c 866e a5bd dca3 0fbe 1893 8bbc
00000030: 6df5 963d 969c 32bd c646 0abe 96d1 09be
00000040: c73c 2a3d 3280 993c 852d 18bd 0246 383c
00000050: 9ea6 b93c ccc1 aabb c5cb 8b3d 99e4 8e3d
00000060: 9223 d4bc 802b 713c 81fe cd3d 8dde 263c
00000070: 517e c6be 5b71 c43d 7eef 95bd baf8 3cbe
00000080: aac1 a43d dfc5 083d 1e78 13bb 2947 30bd
00000090: ba5d 313d 25d6 c43c 5c5e c33d c3a6 603d
000000a0: 7e77 53be 7fdb 9abd a07a 833d db4e ddbd
000000b0: a259 103d 88e2 eb3c 0347 c3bd faad 59be
000000c0: f22a 1dbd 1385 d63c 6792 fa3c 3918 233b
000000d0: 4705 b6be 34ff 2cbc 22de 2b3c 3d7f ac3d
000000e0: 08c6 e6bd 4a3e f03b 39f2 80bd b561 8fbd
000000f0: e0dc 433b 311b 5bbd 16c0 6dbd 0d08 b2bd
00000100: 40e8 7bbe 54cf 7fbd ee51 b93c 6219 5f3b
00000110: 78bc 3c3d 7796 c53d a504 b5bb 7396 433c
00000120: 3290 d23d ccd8 d6bb aab1 c1bd 9772 f73a
00000130: d88d 543d a8c7 52bc 3b6d f6bd db04 b33c
00000140: 285a aabd ff71 31be 1d43 6d3d 9e5f dcbd
00000150: 5255 b43c af0a c93d 4843 683d 127e 4bbd
00000160: f8d9 123d b176 c23c bf0b 34be 4c95 723c
00000170: a00c 02bd 18e4 833d 1862 44be 2be2 27bc
00000180: 75ed e0bc b416 3e3b deb5 e6be f020 4abd
00000190: 53ec a03d 837e aebd 24f7 ae3d 389b 353d
000001a0: 6712 9b3d 33b2 05be 138a ae3d 39ca 72bd
000001b0: 5091 20bc b911 3dbe 98f8 ae3c 5544 743d
000001c0: 8369 163d 1128 eabd 13ad 073c 54f0 dc3d
000001d0: cce6 85be 6a7b 84bd 0666 b3bc d9d9 ecbd
000001e0: 4aa2 cebd 91eb 86bd bbdd 0f3c bd6b 53bc
000001f0: 2d7a eb3d 37a6 e13d 42da f3be e2f8 d3bd
00000200: 51af a5be e8b9 fa3c 9b5c 28be 6f14 24bb
00000210: 63bc cdbb ea21 87bd b240 fa3d 12c1 9bbd
00000220: 02ff 15bd 305e 01be b5af fabd b8f1 b93d
00000230: 4c6f e5bb 1e4b bcbd d430 f0bc 5728 a9bd
00000240: f1fa 1b3d 81e8 bf3d 9ed3 54bb ed5f 473d
00000250: 0ceb 043d 7fd1 cd3c 429b ca3b b356 0abd
00000260: d61e 123d 44ee c93b 6b6e 8dbd 8117 42bf
00000270: e485 e43d dc9b bd3c 9fc5 0cbd 597a 8cbd
00000280: 661b 9dbe e382 a5bc 637d be3d fffc 7b3d
00000290: ad11 093d 4da7 b53c 50e6 323c 0342 98bd
000002a0: f9df 10bd 161b 083d fc47 6b3b 7eb7 58bd
000002b0: 36fc b73d 011c e23c 8453 72bd e13e 323d
000002c0: 7815 dfbc e737 58bc 28bd c23d e574 0c3d
000002d0: d8e5 013e b4ca f4bd 3bae 9e3d 73dd f9bd
000002e0: 0676 3cbe 0df5 693d 93f3 cc3d 00d6 26be
000002f0: 6e27 e1bd af5a 48be 9788 bc3d d8d4 d73c
00000300: c25d 48bd 5b21 c03d add8 083e d002 b93c
00000310: f8d9 77bc 2ead 4fbd da3b 66bd afa8 b7bd
00000320: a108 de3b e130 38be d065 8a3c 173e 5f3d
00000330: b71f 27bd 13d6 73bf 5427 04bd a8b9 4a3d
00000340: 5771 b83d 5f16 25be 7b74 0bbe a287 77be
00000350: 1fb9 c6bd d294 3fbf 6eba 6c3c c95e 0a3d
00000360: 471a 1ebe f29d b6bd 2587 7cbe f399 70bd
00000370: 62c0 183c 144c a13d 7e97 b1bd b942 87bd
00000380: 31de 9c3c c13f eabc df6e bdbd 54ef adbc
00000390: 2a42 3b3b 421a ed3d e117 30be be16 63bb
000003a0: 1b84 57be 7a24 c23d f5b9 b4bc e8fd 023d
000003b0: 695a ff3c bb97 86be 1de0 333d 87d3 a3bd
000003c0: fbd7 bdbd 5fbc 863d cbd1 cc3b d3f2 713d
000003d0: 64a0 4dbd 55a6 8dbb 40a5 08be e3ba 56ba
000003e0: 8782 8bbd 74f8 67bd 6f75 943d 68b3 903c
000003f0: 3a26 7e3d c8bd bdbc 47d4 c93d 16a9 58bd
0.029868247 -0.017210506 0.06755101 0.008118514 0.09707215 -0.11068931 -0.05354178 0.05205308
0.030040588 -0.08077721 -0.14027351 -0.017037913 0.0737103 -0.043606363 -0.1350356 -0.13458857
0.041561868 0.018737886 -0.037152786 0.01124716 0.022662457 -0.0052110907 0.06825975 0.06977195
-0.025895867 0.014719844 0.100583084 0.010184896 -0.38768247 0.09591933 -0.0732107 -0.18454257
0.08044751 0.03339183 -0.0022502015 -0.043036614 0.043302275 0.024027893 0.09539482 0.054846536
-0.20651051 -0.07561397 0.06419873 -0.10806056 0.03524173 0.028794542 -0.09535029 -0.21257773
-0.038371034 0.026186502 0.030587388 0.0024886264 -0.355509 -0.010558892 0.010489972 0.08422706
-0.1126824 0.007331644 -0.062962 -0.07001058 0.002988629 -0.05349273 -0.058044516 -0.08692942
-0.24600315 -0.062453583 0.022622075 0.003404223 0.046078175 0.096478395 -0.0055242353 0.011937725
0.10281409 -0.006556606 -0.09457715 0.0018878755 0.051893085 -0.012864985 -0.12032553 0.021852901
-0.08317977 -0.17328642 0.057925332 -0.10760425 0.02201334 0.09816491 0.05670479 -0.049680777
0.035852402 0.023738237 -0.17582606 0.014806103 -0.03175032 0.0643999 -0.19178045 -0.010246794
-0.027456978 0.0029005231 -0.4506063 -0.049347818 0.07857575 -0.08520224 0.08543232 0.04433748
0.07571869 -0.13056259 0.08522429 -0.059274886 -0.00980027 -0.18463792 0.021358773 0.05963548
0.036721718 -0.11433423 0.00828101 0.107880265 -0.26152647 -0.06468852 -0.021899235 -0.11564989
-0.10089548 -0.065878995 0.008780892 -0.012904105 0.114979126 0.11018031 -0.47627455 -0.10350205
-0.32360318 0.030606225 -0.16441576 -0.0025036593 -0.006278561 -0.065982655 0.12219371 -0.076051846
-0.036620148 -0.12633586 -0.12240545 0.09079307 -0.007001793 -0.09194015 -0.029320158 -0.08259647
0.038081113 0.093705185 -0.0032474766 0.048675466 0.03245072 0.02512431 0.006183059 -0.03377409
0.03567394 0.0061624367 -0.06905826 -0.75817114 0.1115835 0.023145609 -0.034368154 -0.068592735
-0.30684966 -0.020204013 0.09301259 0.061520573 0.033464123 0.022174502 0.010919169 -0.07434466
-0.035369847 0.033228956 0.003590106 -0.052909367 0.08983652 0.027601244 -0.059161678 0.043516997
-0.027231917 -0.013196922 0.09508735 0.034291167 0.12685335 -0.11952725 0.077480756 -0.12200441
-0.18404397 0.057118464 0.100073956 -0.16292572 -0.10993849 -0.19565843 0.0920574 0.026346609
-0.04891754 0.09381362 0.13363905 0.022584349 -0.015127651 -0.050702266 -0.056209423 -0.08967721
0.006775931 -0.17987396 0.016894251 0.054502573 -0.04080173 -0.95248526 -0.03226407 0.04949346
0.09005993 -0.16121815 -0.13618653 -0.24172834 -0.09703278 -0.74836457 0.014448745 0.0337818
-0.15439712 -0.089168444 -0.24660929 -0.058740567 0.009323211 0.07875839 -0.08671473 -0.06604523
0.019148918 -0.028594853 -0.092496626 -0.021232285 0.0028573372 0.11577274 -0.17196609 -0.0034651007
-0.21046488 0.094796136 -0.022061327 0.031980425 0.03117104 -0.26287636 0.043914903 -0.0799933
-0.09269711 0.06578898 0.006250595 0.059069466 -0.05020179 -0.004322807 -0.13344288 -0.00081913004
-0.068120055 -0.056633428 0.07248961 0.017663673 0.062048174 -0.023161784 0.09854942 -0.052895628

classifier.bias f4 [16]
00000000: 5408 9dbd 1f25 48bd 5886 abbc bf03 023d
00000010: 44e3 343d f640 043e 6adf 3cbd 8945 1a3e
00000020: e8ee 173d 7f7f 48bc 9d95 aa3d 7854 063e
00000030: 679c babc bbe4 06bc 3a77 f63b 91e0 fbbd
-0.07667604 -0.048863526 -0.020938084 0.031741854 0.04416205 0.12915406 -0.0461115 0.15065588
0.037093073 -0.012237429 0.08329318 0.1311816 -0.022779657 -0.0082332445 0.007521537 -0.12298692
