transfer00_54_28_22_10_11_FullyConnected.pth (torch, 550959 bytes, 8 tensors)

fc1.weight f4 [256, 4]
0	0xbe7cce68	-0.24688113
1	0xbeaa749e	-0.33292097
2	0xbe84642e	-0.2585768
3	0x3d2b5580	0.041829586
4	0x3e1b713c	0.15179914
5	0x3e24a3b4	0.16078073
6	0xbe2253bc	-0.15852255
7	0xbe061fe4	-0.13098103
8	0xbccf0841	-0.02527249
9	0xbed03bac	-0.40670526
10	0xbe0462e7	-0.12928353
11	0x3eb12a6c	0.34602678
12	0x3d4c0295	0.04980715
13	0xbede1d8d	-0.4338192
14	0x3e337e4d	0.17528649
15	0x3ed0ab57	0.40755722
16	0xbee16ee1	-0.44029906
17	0xbf1434f3	-0.57893294
18	0xbebc68aa	-0.36798602
19	0x3e5ff373	0.21870212
20	0x3ec47dab	0.38377127
21	0x3f17c99f	0.59292024
22	0xbd1baf29	-0.038008843
23	0x3e9e1344	0.30874074
24	0x3dc5d0e0	0.0965898
25	0xbddfaff0	-0.10922229
26	0x3ea49ad0	0.32149363
27	0xbeeb43fe	-0.4595031
28	0x3f10fec0	0.5663872
29	0xbd6e4f74	-0.05818124
30	0xbe55aecd	-0.20867462
31	0x3ed09d9e	0.40745252
32	0x3e737db4	0.2377842
33	0xbea1c99a	-0.31599122
34	0x3e0ec6a3	0.13942961
35	0xbdbaead6	-0.09126823
36	0x3e0d898c	0.13822001
37	0xbeb16dc2	-0.3465405
38	0x3e1d664c	0.15371054
39	0x3d2e73f0	0.042591035
40	0x3e0e2044	0.13879496
41	0x3ef4f1a6	0.47840613
42	0xbe4020dc	-0.18762535
43	0xbe7a2950	-0.24429822
44	0x3dbc7480	0.09201908
45	0x3efa61ac	0.48902643
46	0xbe047a60	-0.12937307
47	0xbea12ac0	-0.31477928
48	0xbe86d9cb	-0.26338038
49	0xbea9ff3c	-0.3320254
50	0xbe8c325f	-0.2738218
51	0x3e62f055	0.22161992
52	0x3ec4b0e3	0.38416204
53	0xbe8e718d	-0.27821007
54	0x3eb5d0e9	0.35510948
55	0x3ea96328	0.33083463
56	0x3e7a17e0	0.2442317
57	0xbe175f68	-0.14782488
58	0x3e956694	0.29179823
59	0xbeba2f88	-0.36364388
60	0x3e12ca30	0.14334941
61	0x3ea4b848	0.32171845
62	0x3e936d24	0.28794205
63	0xbe39bc8c	-0.18138331
64	0xbeb4a0c2	-0.35278898
65	0x3e9dfff4	0.3085934
66	0xbeb7e706	-0.35918444
67	0xbe83ba18	-0.25727916
68	0x3e0fa090	0.14026093
69	0x3e33edc4	0.17571169
70	0xbeb7c3f4	-0.35891688
71	0xbed0ec4a	-0.40805274
72	0xbe9f6c61	-0.31137374
73	0x3ec49fbc	0.38403118
74	0xbe1a7785	-0.15084656
75	0x3de00981	0.10939313
76	0x3ef53801	0.4789429
77	0xbe94e6bd	-0.2908229
78	0xbe867422	-0.26260477
79	0xbeb69817	-0.3566291
80	0xbe1125b4	-0.14174539
81	0xbe983ca6	-0.2973377
82	0x3e69bd64	0.22826153
83	0x3ea5ed50	0.32407618
84	0x3e6ecec9	0.2332107
85	0xbf03dbdd	-0.5150736
86	0xbec21ac9	-0.3791106
87	0x3e8208e2	0.25397402
88	0xbe935e46	-0.28782862
89	0xbdc54ab0	-0.09633386
90	0xbe83be7c	-0.25731266
91	0x3efc6936	0.4929902
92	0x3e014f54	0.12627918
93	0x3f1a8aeb	0.6036822
94	0x3eef0111	0.466805
95	0xbe692f51	-0.22771956
96	0xbe80bf50	-0.2514596
97	0xbe5c5140	-0.2151537
98	0xbd90d648	-0.07072121
99	0xbdbc4630	-0.09193075
100	0xbe455be8	-0.1927334
101	0xbea525e2	-0.32255465
102	0x3e9957f8	0.29949927
103	0xbe72be10	-0.23705316
104	0x3e9c79d0	0.30561686
105	0x3f0a3e4c	0.5400131
106	0xbdf90fd3	-0.12161221
107	0xbe984f71	-0.2974811
108	0x3ea765ea	0.32694942
109	0xbeda937f	-0.42690656
110	0x3e04935b	0.12946837
111	0x3e82403c	0.25439632
112	0x3eccdcb3	0.4001213
113	0xbe3413f8	-0.17585742
114	0xbeccfee3	-0.40038213
115	0xbe522854	-0.20523196
116	0xbec7cfde	-0.39025778
117	0x3eb2686c	0.34845293
118	0x3db00b18	0.08595866
119	0xbe26c2e0	-0.16285276
120	0x3e3f2dfc	0.18669885
121	0x3e19886e	0.1499345
122	0xbe1e20a0	-0.15442133
123	0x3e8ee418	0.27908397
124	0xbe5c45ca	-0.21510997
125	0x3ee8e26b	0.45485243
126	0x3ec7a2c3	0.38991365
127	0x3ec70c8c	0.3887676
128	0x3ed09ebf	0.40746114
129	0x3f13784c	0.57605433
130	0x3f0e13e7	0.5549912
131	0xbce2aad7	-0.027669353
132	0x3e3f6f66	0.18694839
133	0x3f17def6	0.59324586
134	0x3eade97f	0.33967206
135	0xbea84545	-0.32865348
136	0x3d81544c	0.063149065
137	0x3e7f7a7a	0.24949065
138	0x3e7963d5	0.24354489
139	0xbe046e23	-0.12932639
140	0xbe62637b	-0.22108261
141	0x3f09e929	0.538714
142	0x3e8c2c52	0.27377564
143	0x3e3af208	0.1825639
144	0xbea5d750	-0.32390833
145	0xbd29d950	-0.04146701
146	0xbead1f6e	-0.3381304
147	0x3e2446ec	0.1604268
148	0xbee0b869	-0.43890694
149	0xbf34f2c4	-0.7068293
150	0xbf092ed1	-0.5358706
151	0x3ebedf6e	0.37279838
152	0x3db3902d	0.08767734
153	0x3d395ff0	0.04525751
154	0xbea1d95d	-0.31611148
155	0x3eafea56	0.34358472
156	0x3e86496c	0.2622789
157	0x3e64904e	0.22320673
158	0xbf03f894	-0.51551175
159	0x3e3f7249	0.1869594
160	0x3d5a616a	0.053315558
161	0x3e8a2a35	0.26985326
162	0x3ed2c15e	0.41163152
163	0x3e540670	0.2070558
164	0x3daf40b1	0.08557261
165	0x3eda1a4b	0.42598185
166	0x3ebdd60a	0.3707736
167	0x3e349e78	0.17638576
168	0x3ec97417	0.39346382
169	0x3da40886	0.08009438
170	0x3f055422	0.520815
171	0x3db013ab	0.08597501
172	0x3b9b409f	0.004737928
173	0x3eb03bc0	0.34420586
174	0xbecf5b1e	-0.40499204
175	0xbd8d1719	-0.06889171
176	0xbeaf8d8c	-0.3428768
177	0xbe765130	-0.24054408
178	0x3d6c50c0	0.057694197
179	0xbe817aa0	-0.25288868
180	0xbced1fe8	-0.028945878
181	0xbdafefb7	-0.08590644
182	0xbf1d285b	-0.613897
183	0xbe76d571	-0.24104859
184	0xbdb46aa0	-0.088093996
185	0x3dd25ed0	0.1027199
186	0xbe21dde4	-0.15807301
187	0xbe71b5ac	-0.23604459
188	0xbf0744de	-0.5283946
189	0x3e7752f9	0.24152745
190	0xbdb05329	-0.086096115
191	0x3e8c303c	0.2738055
192	0x3ad24c67	0.0016044498
193	0x3eea8d4d	0.4581093
194	0xbd7ec77d	-0.062201966
195	0x3eb11f7c	0.34594333
196	0x3dabd78d	0.083907224
197	0xbe437675	-0.19088157
198	0x3d5ebe60	0.054380774
199	0x3dec412a	0.115358666
200	0xbe7d0ae6	-0.24711189
201	0x3ef4efcc	0.478392
202	0xbd65d330	-0.056109607
203	0x3dd27197	0.10275572
204	0xbeae68ad	-0.34064236
205	0x3e84fcc3	0.25974092
206	0xbe5938ab	-0.21213023
207	0x3e28df98	0.16491544
208	0x3e2ed47f	0.17073248
209	0x3eb72cad	0.35776272
210	0x3e6709d4	0.22562343
211	0xbe70dec0	-0.23522472
212	0x3d997d6b	0.07494625
213	0x3f0205fe	0.50790393
214	0xbe56db03	-0.20981984
215	0x3d6cb3e1	0.057788733
216	0xbef4090c	-0.47663152
217	0x3e859794	0.26092207
218	0x3e1d7356	0.15376028
219	0x3ecc5dcc	0.3991531
220	0xbee4cd9e	-0.44688123
221	0xbdd6feb0	-0.104977965
222	0x3ec1cc2c	0.37851083
223	0x3c2bc240	0.0104833245
224	0xbdd670cc	-0.10470733
225	0x3ef0f55d	0.47062197
226	0x3e06a54c	0.13148993
227	0x3cc38e7a	0.023871649
228	0x3ec90823	0.3926402
229	0x3eb3e686	0.35136813
230	0x3ee3d4f1	0.444984
231	0xbbbf414e	-0.0058366423
232	0xbec559a6	-0.3854496
233	0xbe34e1dc	-0.17664284
234	0x3dad4028	0.084595025
235	0xbe7a7b9c	-0.24461216
236	0x3e38f7d8	0.18063295
237	0xbd9dd0f8	-0.07705873
238	0x3e216358	0.15760553
239	0xbdfc1008	-0.12307745
240	0xbe7ada24	-0.24497277
241	0x3dcfec1c	0.10152456
242	0x3f07fa7a	0.5311657
243	0xbe1ceac8	-0.15323937
244	0xbefcd7d2	-0.49383408
245	0xbefa09b4	-0.48835528
246	0x3ebb342a	0.36563236
247	0xbe452004	-0.19250494
248	0x3ed3380b	0.41253695
249	0xbe3573e2	-0.17719987
250	0xbe87beb1	-0.26512673
251	0xbf0e3d59	-0.5556236
252	0x3f09523e	0.53641117
253	0xbedadd8f	-0.4274716
254	0x3d4a5950	0.04940158
255	0xbeca6b0c	-0.39534795

fc1.bias f4 [256]
0	0xbe188910	-0.14896035
1	0xbeffd3b2	-0.49966198
2	0xbe30e9b9	-0.17276658
3	0xbef2c239	-0.47413805
4	0x3e3bd417	0.18342625
5	0xbda7a10e	-0.081850156
6	0xbedaf1b2	-0.42762524
7	0xbee38573	-0.4443775
8	0x3e0ca65e	0.13735339
9	0xbeb80cfe	-0.35947412
10	0xbec2b06e	-0.3802523
11	0xbeacfe1a	-0.33787614
12	0x3eafc9af	0.3433356
13	0xbebd1c4c	-0.3693565
14	0xbeb3b966	-0.35102385
15	0xbed56b90	-0.41683626
16	0xbea11b8a	-0.31466323
17	0xbc5612c0	-0.013065994
18	0xbec6cb01	-0.38826755
19	0x3e83a551	0.25712064
20	0xbebac5ce	-0.36479038
21	0x3e8690dc	0.26282394
22	0xbec02bcc	-0.37533414
23	0xbe224a61	-0.15848686
24	0xbecfc65e	-0.4058103
25	0xbe3520d0	-0.17688298
26	0x3e90ed89	0.28306225
27	0xbd80561c	-0.06266424
28	0x3e133433	0.14375381
29	0xbbc0f280	-0.0058882833
30	0x3e6aa792	0.22915486
31	0xbd765af9	-0.060145352
32	0x3e17517a	0.14777175
33	0x3f0425a3	0.5161993
34	0x3e8094dd	0.25113574
35	0x3cd24691	0.025668414
36	0xbe8c3154	-0.27381384
37	0x3caf16c6	0.021373164
38	0xbf00b704	-0.5027926
39	0xbd86f830	-0.06590307
40	0xbe2a5ebd	-0.16637702
41	0xbe7c8b74	-0.24662572
42	0xbde484ea	-0.11158164
43	0xbe995146	-0.2994482
44	0x3db887e0	0.09010291
45	0x3ebb0da4	0.36533844
46	0xbcda43e0	-0.026643693
47	0x3df0ca94	0.11757389
48	0xbe030652	-0.1279538
49	0x3c30b15b	0.010784472
50	0x3ce9ef22	0.02855641
51	0xbe89c00b	-0.2690433
52	0x3e8b4467	0.27200624
53	0x3e0cfb6a	0.13767782
54	0xbf0650a0	-0.52466774
55	0xbea08fca	-0.31359702
56	0x3a9a2437	0.001176006
57	0xbe350b1c	-0.17680019
58	0xbd20f760	-0.039298415
59	0xbeecb19e	-0.4622926
60	0x3e92590d	0.28583565
61	0xbbbfed80	-0.0058571696
62	0xbe6fc43c	-0.23414701
63	0x3e8e8be0	0.2784109
64	0xbea1e8a2	-0.31622797
65	0xbedf5f1e	-0.43627256
66	0x3d5cb319	0.05388174
67	0xbe9a2aa8	-0.3011067
68	0xbed67f58	-0.4189403
69	0x3ea156c8	0.3151152
70	0xbd2ab579	-0.041676972
71	0x3d529b6e	0.05141776
72	0x3e601128	0.21881545
73	0xbecb8b58	-0.39754748
74	0xbe964ca9	-0.29355362
75	0xbe07561c	-0.13216442
76	0xbe302894	-0.1720298
77	0xbea56eaa	-0.32310992
78	0xbdc0fb0e	-0.09422885
79	0xbed3b92e	-0.41352218
80	0xbe1f4cdc	-0.15556663
81	0x3e196d33	0.14983062
82	0x3ed71948	0.42011476
83	0x3cb938c5	0.022610078
84	0xbcfbf8c0	-0.030758262
85	0xbed1163e	-0.40837282
86	0x3e341748	0.17587006
87	0x3e09b29d	0.13447042
88	0x3d845740	0.06461954
89	0xbeb2aac6	-0.34895915
90	0x3e9aa279	0.30202082
91	0x3e1f3e97	0.1555122
92	0x3d83c09a	0.0643322
93	0x3dca3480	0.09873295
94	0x3e192cf8	0.1495856
95	0xbdb25c08	-0.0870896
96	0xbedb07fd	-0.42779532
97	0x3e9f563c	0.3112048
98	0xbec1955e	-0.3780927
99	0x3e853492	0.2601667
100	0xbeae3ce8	-0.34030843
101	0xbe49db8c	-0.19712657
102	0x3d567c58	0.052364677
103	0xbdcf87ed	-0.10133348
104	0xbe83c1c8	-0.2573378
105	0x3d1d4530	0.03839606
106	0x3e5d19a4	0.21591812
107	0x3d170fff	0.03688049
108	0x3d87ec4e	0.066368684
109	0xbe4dd1b4	-0.20099527
110	0xbec1ec6c	-0.37875688
111	0x3d8ef572	0.06980409
112	0x3dfa242f	0.12213933
113	0xbeb5d7e0	-0.35516262
114	0xbeec884e	-0.46197742
115	0xbc17485f	-0.009233563
116	0xbe05ab1c	-0.13053554
117	0x3d471892	0.048607416
118	0xbe9e02b4	-0.30861437
119	0xbed20842	-0.41021925
120	0xbe874892	-0.26422554
121	0x3e2ad951	0.16684462
122	0x3e5d00ab	0.21582286
123	0x3eaa895b	0.3330792
124	0x3d8c827b	0.06860825
125	0xbeb83771	-0.35979798
126	0xbd804578	-0.0626325
127	0x3e85689d	0.26056376
128	0xbe784940	-0.24246693
129	0xbd3a0eff	-0.045424458
130	0xbee6c578	-0.45072532
131	0xbeaf6dd8	-0.34263492
132	0xbec2dee0	-0.38060665
133	0x3dfb105a	0.12258978
134	0x3ec251c1	0.37952998
135	0x3e1371e3	0.14398913
136	0xbed245e2	-0.4106894
137	0xbee99e80	-0.45628738
138	0x3dd73380	0.1050787
139	0xbef45f12	-0.47728783
140	0xbe718cb4	-0.2358883
141	0x3e1624c1	0.14662458
142	0xbe9e3b64	-0.30904686
143	0xbd156adc	-0.036478862
144	0x3edd98a1	0.4328051
145	0xbe303c8a	-0.17210594
146	0x3db6e7af	0.08930909
147	0x3e0abd4d	0.13548775
148	0xbefb2e94	-0.49058974
149	0x3e3ae7c6	0.18252477
150	0xbe8c161a	-0.27360612
151	0x3e953f32	0.29149777
152	0x3dbb3e94	0.09142795
153	0x3ecf175b	0.40447506
154	0x3da77ac6	0.08177714
155	0x3c506540	0.012719452
156	0xbc54cb99	-0.012987995
157	0x3e5caa17	0.21549259
158	0xbe5425e2	-0.20717576
159	0xbe5154d3	-0.20442514
160	0x3d592d16	0.053021513
161	0x3e33c6cf	0.17556308
162	0xbeca4816	-0.39508122
163	0xbca8f897	-0.02062635
164	0x3e2f6073	0.17126636
165	0xbf03b5e5	-0.51449424
166	0x3e5c3f25	0.21508463
167	0x3ec00c3f	0.37509343
168	0x3e4b6e28	0.1986624
169	0x3cf44ee0	0.029822767
170	0xbefdb0b6	-0.49548882
171	0x3efe345d	0.49649325
172	0xbe6022e0	-0.21888304
173	0x3eb4e669	0.3533204
174	0xbeee391e	-0.46527952
175	0x3e54fc76	0.20799431
176	0xbecece54	-0.4039179
177	0x3e20759e	0.15669867
178	0xbdba72a0	-0.09103894
179	0xbda66500	-0.08124733
180	0x3e8bd7c4	0.27313054
181	0x3eebf609	0.46086147
182	0x3e645654	0.22298557
183	0xbf15b1a2	-0.5847417
184	0xbe6a5b16	-0.22886309
185	0x3e16c6e9	0.14724316
186	0xbe25b6c1	-0.16182996
187	0x3ebc3d0f	0.36765334
188	0xbe119428	-0.14216673
189	0x3cbb7e31	0.022887321
190	0xbdbfa068	-0.09356767
191	0xbee2262a	-0.44169742
192	0xbdc28828	-0.09498626
193	0xbebc3911	-0.36762288
194	0x3e2a67f2	0.16641214
195	0xbe3f0983	-0.18655972
196	0x3e464d6e	0.19365475
197	0x3e96853e	0.2939853
198	0x3ebcf7ec	0.369079
199	0x3e6f771d	0.23385282
200	0xbe312212	-0.17298153
201	0xbef61940	-0.4806614
202	0x3e871acc	0.26387632
203	0x3eaf1f85	0.34203735
204	0x3ed7aa6d	0.42122212
205	0xbecf7a52	-0.4052301
206	0xbe4cffc4	-0.20019442
207	0xbced1030	-0.028938383
208	0x3ea3ecf2	0.32016712
209	0x3ea48e44	0.3213979
210	0xbe9ff6a8	-0.3124287
211	0x3e3e26e7	0.18569528
212	0xbe811d1c	-0.2521752
213	0x3ed19d98	0.40940547
214	0x3ee74454	0.45169318
215	0x3e967c5c	0.29391754
216	0x3ea129e4	0.31477273
217	0xbe0cd9bc	-0.13754934
218	0x3eb5071a	0.3535698
219	0x3e764cf0	0.24052787
220	0xbde81d37	-0.11333697
221	0xbeb99950	-0.3624978
222	0x3e5fe635	0.21865161
223	0x3e3866f1	0.18008019
224	0xbeb46542	-0.35233504
225	0x3e8c4773	0.2739826
226	0x3e3c3ee8	0.18383372
227	0xbeafafc6	-0.34313792
228	0xbe99b543	-0.30021104
229	0xbe910c12	-0.2832952
230	0x3e663c79	0.22484006
231	0xbe0c9aac	-0.13730878
232	0x3dca50f2	0.0987872
233	0x3eb0b027	0.34509394
234	0x3e40cef2	0.18828943
235	0xbde6638e	-0.11249457
236	0x3e7e32b7	0.24824034
237	0xbea8398d	-0.32856408
238	0x3d280250	0.04101783
239	0xbef52b6a	-0.47884685
240	0xbeafb905	-0.34320846
241	0x3ea07ee2	0.31346804
242	0x3c333e88	0.010940202
243	0x3e21934b	0.15778844
244	0xbec468d4	-0.38361228
245	0xbe681430	-0.22663951
246	0x3df66cac	0.12032446
247	0x3ea1933c	0.31557643
248	0xbdcc475e	-0.0997455
249	0x3eaeec0b	0.34164461
250	0x3e9917a2	0.29900843
251	0x3e6c46d4	0.23073894
252	0xbedf62b8	-0.43630004
253	0xbb873200	-0.0041258335
254	0x3d48ed9a	0.04905472
255	0xbe7b8cec	-0.24565476

fc2.weight f4 [256, 256]
0	0x3d3b5c22	0.04574216
1	0xbd1a7a7a	-0.03771446
2	0x3e320175	0.17383368
3	0x3e723505	0.23653038
4	0x3e639f4f	0.2222874
5	0xbe27907b	-0.16363709
6	0x3d61ff1c	0.055174932
7	0xbd0d4cc9	-0.034497056
8	0x3bf52b40	0.0074819624
9	0x3d0e2750	0.03470546
10	0x3d7b6376	0.06137415
11	0x3d267cb2	0.040646262
12	0x3d073dc4	0.03301789
13	0xbd9f8fb5	-0.07791082
14	0xbd2e7b4c	-0.042598054
15	0x3c1e39f0	0.009657368
16	0x3c7a2a18	0.015268825
17	0x3d4d8e40	0.05018449
18	0x3be3cf40	0.0069521964
19	0x3cde0d6e	0.027106013
20	0x3cb0dda4	0.021590061
21	0x3c92f1a5	0.01793749
22	0x3b90bca0	0.004417017
23	0xbd8b37af	-0.0679773
24	0xbd53993a	-0.0516598
25	0x3cf0df84	0.029403456
26	0xbe430891	-0.19046237
27	0xbd57efb9	-0.05271885
28	0xbd5a58f0	-0.053307474
29	0x3d50ac18	0.05094537
30	0xbd823cdb	-0.063592635
31	0xbe369d38	-0.17833412
32	0xbeb7fb78	-0.35934043
33	0xbe3189fa	-0.1733779
34	0xbe238646	-0.1596919
35	0xbd9003e8	-0.07031995
36	0x3cbf2e3c	0.023337476
37	0x3e8e1e63	0.27757558
38	0xbd32d157	-0.043656673
39	0xbe02a741	-0.12759115
40	0xbd733f72	-0.059386678
41	0xbde05ded	-0.10955415
42	0xbe6ad29a	-0.229319
43	0xbbcf2258	-0.0063212328
44	0xbd337ace	-0.043818288
45	0x3d141d7f	0.036160942
46	0xbca49b08	-0.020093456
47	0xbd3697df	-0.04457843
48	0xbe6923c6	-0.22767553
49	0x3c4c8123	0.0124819605
50	0xbd858a63	-0.06520536
51	0xbde531ce	-0.1119114
52	0xbe44692a	-0.19180742
53	0xbe8a2464	-0.2698089
54	0xbde2a0f3	-0.11065855
55	0x3d3ef26c	0.04661791
56	0xbe25bcc5	-0.16185291
57	0xbe012a6b	-0.12613837
58	0x3ccb3b1c	0.024808459
59	0xbd27e57c	-0.040990338
60	0xbe69cfee	-0.22833225
61	0x3d5fbdc4	0.054624334
62	0x3c908329	0.017640667
63	0xbd6a72aa	-0.05723826
64	0xbd2830b8	-0.041062087
65	0x3d314cec	0.04328625
66	0xbebcafa0	-0.3685274
67	0x3c07a558	0.008279167
68	0xbb1ac760	-0.0023617372
69	0xbe9b941f	-0.30386445
70	0xbe1bfa1a	-0.15232125
71	0xbe40a24f	-0.18811916
72	0xbe20cae8	-0.15702403
73	0xb99c0f00	-0.00029765815
74	0x3d211b5e	0.03933274
75	0xbd0405bc	-0.03223203
76	0xbd48bf32	-0.049010463
77	0x3d99a410	0.075019956
78	0x3e1bbd12	0.15208843
79	0xbd47f402	-0.04881669
80	0xbdda3703	-0.10655024
81	0xbe9ce534	-0.30643618
82	0x3e3f13a5	0.18659838
83	0xbd6445f6	-0.055730782
84	0x3ce76a7c	0.028249018
85	0x3cbcdf1c	0.023055606
86	0xbdfe1c81	-0.124077804
87	0x3e58114a	0.21100345
88	0x3cd7659c	0.026293568
89	0xbc544750	-0.012956455
90	0x3e8f20a9	0.27954605
91	0x3e087beb	0.13328521
92	0xbe9cde00	-0.30638123
93	0x3d284bde	0.041087978
94	0xbe4bb4a8	-0.19893134
95	0xbcbda404	-0.023149498
96	0xbd854bec	-0.065086216
97	0xbd38222d	-0.044954468
98	0x3d0d502c	0.034500286
99	0x3db43779	0.08799643
100	0xbd3654b6	-0.04451438
101	0x39ca0300	0.00038530678
102	0xbd75c9e0	-0.060006976
103	0xbdeb2cf8	-0.114831865
104	0x3c48e680	0.012261987
105	0x3d713410	0.05888754
106	0xbe2766e5	-0.16347845
107	0x3e9949d3	0.29939136
108	0x3bef37a3	0.0073003336
109	0x3d7091cc	0.058732793
110	0x3b2992e0	0.0025874898
111	0xbdcaa2cf	-0.098943345
112	0xbe281ae5	-0.1641651
113	0xbd293313	-0.041308474
114	0xbd0e014e	-0.034669213
115	0xbec61b3d	-0.38692656
116	0xbd51b68a	-0.051199473
117	0x3da6ad98	0.08138579
118	0xbe8df35b	-0.27724728
119	0x3d816845	0.06318716
120	0xbd733450	-0.05937606
121	0x3d7e8950	0.06214267
122	0xbd99f620	-0.07517648
123	0xbe2a1473	-0.16609363
124	0xbdcab867	-0.09898453
125	0xbe254159	-0.1613821
126	0x3b86f160	0.0041181296
127	0x3db6c604	0.08924487
128	0x3ce81f64	0.02833528
129	0x3e880e89	0.2657359
130	0xbc9ddf5c	-0.019271545
131	0xbd395dee	-0.045255594
132	0xbbce26e0	-0.0062912554
133	0xbe0031a7	-0.12518941
134	0x3e695042	0.22784522
135	0x3e04aadf	0.12955807
136	0xbd528324	-0.051394597
137	0xbce57878	-0.028011546
138	0xbcb96a84	-0.022633798
139	0x3c605a78	0.013693444
140	0xbc791ed8	-0.015205108
141	0xbe3032c1	-0.17206861
142	0x3cccaa0c	0.024983428
143	0xbda4dfb7	-0.08050483
144	0x3e183b8b	0.14866464
145	0x3d4bd6de	0.04976546
146	0xbe0a7500	-0.13521194
147	0x3e611388	0.21980107
148	0x3d7cc314	0.06170948
149	0xbe93d621	-0.28874305
150	0xbd39e6b8	-0.045386046
151	0xbea5bfb1	-0.3237281
152	0xbde2a2ba	-0.11066194
153	0xbe10151b	-0.14070551
154	0xbcb5e44c	-0.022203587
155	0xbd568e60	-0.052381873
156	0xbc998798	-0.018741414
157	0x3d5b6065	0.053558726
158	0x3d2c95d7	0.042135086
159	0xbd214c2a	-0.039379276
160	0xbe49bff6	-0.19702134
161	0xbeaf7070	-0.3426547
162	0xbd3dad8c	-0.046308085
163	0x3d87fa9a	0.06639595
164	0xbe08785c	-0.13327163
165	0xbd6680ed	-0.056275297
166	0xbe010d29	-0.12602676
167	0x3e4e152a	0.20125261
168	0x3e8bde16	0.27317876
169	0x3d24d34e	0.04024058
170	0x3d377a94	0.044794634
171	0x3e048b62	0.12943795
172	0xbc9b86d8	-0.018985197
173	0xbe113831	-0.14181592
174	0xbd5d08fc	-0.053963646
175	0xbd44fad2	-0.048090763
176	0xbd001fdc	-0.031280383
177	0xbd450fba	-0.0481107
178	0xbd528562	-0.051396735
179	0x3e69bcf2	0.22825983
180	0xbcb634a1	-0.022241892
181	0x3e181a3d	0.14853759
182	0x3c771e4b	0.015082906
183	0xbd61df60	-0.055144668
184	0x3e035442	0.1282511
185	0xbdad0b65	-0.08449439
186	0x3cd8a46c	0.02644559
187	0xbe19c6bb	-0.15017216
188	0xbd2d9de2	-0.042386897
189	0xbe051407	-0.12995921
190	0x3d42922a	0.047502674
191	0xbd0fb002	-0.035079964
192	0xbd070f88	-0.032973796
193	0xbdee4424	-0.116340905
194	0xbd5f6753	-0.054541897
195	0xbd15513e	-0.03645443
196	0x3db90ab5	0.09035245
197	0x3d4ad7a1	0.049522046
198	0xbe480d5c	-0.19536346
199	0x3eada39a	0.3391388
200	0xbe1678ff	-0.14694594
201	0xbb305120	-0.0026903823
202	0xbd50d78a	-0.050986804
203	0xbe094f8d	-0.13409252
204	0xbdeae6e3	-0.114698194
205	0xbd31fda0	-0.043454766
206	0xbe3e97bd	-0.18612571
207	0x3ccb1cc2	0.024793986
208	0xbce7cd22	-0.028296057
209	0x3cf289f8	0.029606804
210	0x3defb90f	0.11705219
211	0xbd81f8bd	-0.06346271
212	0x3ceb6358	0.028733894
213	0x3e7664b6	0.24061856
214	0xbe3b2802	-0.1827698
215	0x3da93c93	0.08263507
216	0x3e5dbc50	0.21653867
217	0x3d07bc40	0.033138514
218	0xbe4d9b6a	-0.20078817
219	0xbdfd8738	-0.123793066
220	0x3e57f010	0.2108767
221	0x3d1cb496	0.038258158
222	0xbc8ee442	-0.017442826
223	0x3e8db64f	0.27678153
224	0x3d4288b0	0.047493637
225	0xbd856a64	-0.06514433
226	0x3e0de860	0.13858175
227	0x3c433b38	0.011915974
228	0x3d89f192	0.06735529
229	0x3c40e2e0	0.011772841
230	0xbe3b0d71	-0.18266846
231	0x3b4b4a80	0.0031019747
232	0xbe31fd7d	-0.17381854
233	0x3c590742	0.013246359
234	0x3bd679d0	0.006545283
235	0xbea38d81	-0.31943896
236	0x3cc2c325	0.023774693
237	0x3cf4da7e	0.029889341
238	0x3b37be40	0.0028036982
239	0x3c906d18	0.017630145
240	0xbcc5e493	-0.024156844
241	0xbc4b8cb9	-0.012423688
242	0x3e7ae153	0.24500017
243	0x3e4b6ebf	0.19866465
244	0x3d615d56	0.055020653
245	0xbd7a638a	-0.061130084
246	0xbe15b721	-0.1462064
247	0x3d90a354	0.07062402
248	0xbd562405	-0.052280445
249	0x3e87b963	0.26508626
250	0xbdd72634	-0.105053335
251	0x3c86f8ef	0.016476123
252	0xbd4ae1fa	-0.049531914
253	0xbd476f62	-0.048690207
254	0xbcf714b1	-0.030161234
255	0xbd6d573c	-0.05794452

fc2.bias f4 [256]
0	0xbcc2a284	-0.023759134
1	0xbd1c4ea0	-0.03816092
2	0xbdaca161	-0.08429218
3	0xbdf7984e	-0.12089597
4	0x3dcb0b6d	0.09914289
5	0xbba83093	-0.0051327436
6	0x3d5d6186	0.054048084
7	0xbdb1afaf	-0.08676087
8	0xbe0700cc	-0.13183898
9	0xbd6e6262	-0.058199294
10	0xbc9529f0	-0.018208474
11	0x3cd235dc	0.025660448
12	0xbd893949	-0.067003794
13	0xbe15e1f9	-0.14636983
14	0xbbce65dd	-0.006298764
15	0xbda2dbfe	-0.079521164
16	0xbd8bc9f1	-0.06825627
17	0xbdaf4cd0	-0.08559573
18	0xbd1eadab	-0.03873984
19	0xbd115983	-0.035485756
20	0xbd818799	-0.06324691
21	0xbd8f3e23	-0.069942735
22	0xbca9bbf4	-0.020719506
23	0xbd2dfb66	-0.04247608
24	0xbbd1a59e	-0.006397917
25	0xbcaa5578	-0.020792708
26	0xbd4eeeae	-0.05052059
27	0x3d514272	0.051088758
28	0xbd20a7ca	-0.039222516
29	0xbc838688	-0.01605536
30	0xbdb8f5e7	-0.09031277
31	0xbc4bf868	-0.012449361
32	0x3c7ecae8	0.015551306
33	0xbd99dbd6	-0.075126335
34	0xbd7866d0	-0.060644925
35	0xbcaaea1e	-0.020863589
36	0xbd939d81	-0.07207776
37	0x3c9231c8	0.017846003
38	0xbd8d5846	-0.069016024
39	0x3dc13eb4	0.09435788
40	0xbd1cb7b6	-0.038261138
41	0xbd2db4e0	-0.042408824
42	0x3da37ccc	0.079827875
43	0xbe8003f0	-0.25003004
44	0xbdb11580	-0.08646679
45	0xbcadb11c	-0.021202616
46	0xbd7eb8a0	-0.06218779
47	0xbd724781	-0.059150223
48	0xbd5f6de6	-0.054548167
49	0xbd15ee0e	-0.03660398
50	0xba5cbf00	-0.0008420795
51	0xbd0be6af	-0.034155544
52	0xbd1a1fb2	-0.037627883
53	0xbd90484b	-0.07045039
54	0xbd7ff48d	-0.06248908
55	0xbd338cfd	-0.04383563
56	0xbb6fe4bf	-0.003660485
57	0x3c08d7e0	0.00835225
58	0xbcfcf983	-0.030880695
59	0xbc52d5ff	-0.012868403
60	0xbd49a2c8	-0.049227506
61	0xbd7d0570	-0.061772764
62	0x3c326915	0.010889311
63	0xbdf535b6	-0.11973135
64	0x3db837b2	0.08994998
65	0xbcffc05b	-0.031219652
66	0x3d379d48	0.04482773
67	0xbd7cdfab	-0.061736744
68	0xbd49dcaa	-0.049282707
69	0xbda137a8	-0.07871944
70	0x3c24b025	0.010051762
71	0xbca7a9e8	-0.02046676
72	0xbd182ec4	-0.037153974
73	0xbca11188	-0.01966168
74	0x3e4bd619	0.1990589
75	0xbd76be55	-0.06024011
76	0xbda04000	-0.07824707
77	0xbda128a8	-0.07869083
78	0x3df22cd4	0.118249565
79	0xbb060249	-0.002044814
80	0xbc0c9090	-0.008579388
81	0xbd246d5c	-0.040143356
82	0xbd685c4b	-0.056728642
83	0x3e4b9094	0.19879371
84	0xbdc9605c	-0.09832832
85	0x3b8f0df0	0.004365675
86	0xbb97f165	-0.004636931
87	0xbd902f62	-0.070402876
88	0x3c81dbd6	0.015851896
89	0xbcd5e873	-0.026111817
90	0xbcdf7810	-0.02727893
91	0xbcd23978	-0.025662169
92	0xbda28abd	-0.079366185
93	0xbdb31d2c	-0.087457985
94	0xbd9760f4	-0.07391539
95	0x3b9888c5	0.004654976
96	0xbd834a8d	-0.06410704
97	0x3d99231b	0.07477399
98	0xbc6dc328	-0.014511861
99	0xbd637ac4	-0.055537
100	0xbcb74060	-0.022369564
101	0xbd576ea8	-0.052595764
102	0x3c80fff4	0.015747048
103	0xbd28d60c	-0.041219756
104	0xbd546b20	-0.051859975
105	0xbde8bdea	-0.11364348
106	0xbc274f10	-0.010211721
107	0xbd7046d9	-0.058661316
108	0xbce69882	-0.028148893
109	0xbdbf9a09	-0.09355552
110	0xbcd0d427	-0.025491787
111	0xbde128ef	-0.109941356
112	0xbdd5ba94	-0.104359776
113	0xbc93f886	-0.018062841
114	0xbcec4e5a	-0.028845955
115	0xbd88c62e	-0.06678425
116	0xbd50d55d	-0.05098473
117	0xbcb3c4e8	-0.021944478
118	0xbcf7991c	-0.030224375
119	0xbd5df181	-0.054185394
120	0x3cb1ad1c	0.02168899
121	0xbd0fbe6d	-0.035093714
122	0x3cff25d8	0.031145975
123	0xbcd445f3	-0.02591226
124	0xbde86eda	-0.11349268
125	0xbd42e174	-0.04757829
126	0x3c19f1dc	0.009396043
127	0xbcf11b4f	-0.029431967
128	0xbd53a7a3	-0.051673543
129	0xbd16b80a	-0.036796607
130	0x3bfa5500	0.0076395273
131	0x3d403f12	0.04693515
132	0xbcd850eb	-0.026405772
133	0xbc5ffa9a	-0.013670588
134	0x3c38dab9	0.011282616
135	0xbdcc5577	-0.099772386
136	0xbccdc2f0	-0.025117368
137	0xbc29798a	-0.010343919
138	0xbe0caa0e	-0.13736746
139	0xbcd50791	-0.026004585
140	0xbd1f4fd2	-0.038894482
141	0xbcd748ca	-0.026279826
142	0xbc68a3f0	-0.014199242
143	0xbc612189	-0.013740906
144	0xbd50d1a9	-0.050981198
145	0xbd3b137f	-0.04567289
146	0xbd3528be	-0.044228308
147	0xbdb7384a	-0.08946283
148	0xbdae6696	-0.085156605
149	0x3b881402	0.0041527757
150	0xbcba30d6	-0.022728365
151	0xbd7e0751	-0.062018696
152	0xbdaa1dfa	-0.08306499
153	0xbd60e67d	-0.05490731
154	0xbd1f050a	-0.038823165
155	0xbdd70809	-0.104995795
156	0xbddc083a	-0.107437566
157	0xbdd26b15	-0.102743305
158	0xbda4866e	-0.08033453
159	0xbd3a812a	-0.045533337
160	0xbdca0c2c	-0.09865603
161	0xbcc0cb8c	-0.023534559
162	0xbd3919fb	-0.045190793
163	0xbdbef5f3	-0.09324255
164	0xbdcc084b	-0.09962519
165	0x3cfb14d7	0.030649586
166	0xbaf80fd1	-0.0018925612
167	0xbd1e4c6c	-0.0386471
168	0xbda5d743	-0.080976985
169	0xbce1b848	-0.027553692
170	0xbbd78231	-0.0065767993
171	0xbd0b1769	-0.033957873
172	0xbd012ef8	-0.031538934
173	0xbd331401	-0.04372025
174	0xbd8db7f9	-0.069198556
175	0xbc1df7c4	-0.009641591
176	0xbda6918d	-0.0813323
177	0xbd9b6f06	-0.075895354
178	0xbd5f522c	-0.054521725
179	0xbdb46359	-0.088080116
180	0xbcb7316b	-0.022362432
181	0xbbdb0cf0	-0.006684892
182	0x3d72841c	0.05920802
183	0xbdbec140	-0.09314203
184	0xbbc5b45b	-0.006033463
185	0xbd11441d	-0.03546535
186	0xbd0e07d2	-0.034675427
187	0xbd462d8c	-0.04838328
188	0x3c321f9d	0.010871795
189	0xbd305b6e	-0.043055944
190	0xbbadf5d4	-0.005308846
191	0xbd38bff0	-0.04510492
192	0xbdeb1699	-0.114789195
193	0xbd958e1b	-0.07302495
194	0xbd21bbf6	-0.039485894
195	0xbd94a47b	-0.07257935
196	0xbd22acdf	-0.039715644
197	0xbcbe945c	-0.023264103
198	0xbdcb94f5	-0.09940521
199	0xbd3ac9b6	-0.045602523
200	0xbcfad1df	-0.030617652
201	0xbdb7b054	-0.08969179
202	0x3b813d10	0.003944047
203	0xbd183338	-0.03715822
204	0xbc822c4c	-0.015890263
205	0xbe0aaa6a	-0.1354157
206	0xbdd9456a	-0.10608943
207	0xbda544ad	-0.080697395
208	0xbde2393e	-0.11046074
209	0xbdb2abac	-0.0872415
210	0x3ca5857d	0.020205254
211	0xbda6419d	-0.081179835
212	0x3d47aca7	0.04874864
213	0x3d0681c0	0.032838583
214	0x3d864649	0.065563746
215	0xbdacced9	-0.084378906
216	0xbcb36048	-0.021896496
217	0xbd9a207b	-0.075257264
218	0xbcc1a623	-0.02363879
219	0xbc88f414	-0.016717948
220	0xbd8ac1ec	-0.06775269
221	0xbd9ae182	-0.075625435
222	0xbd6dad45	-0.05802657
223	0xbcea3083	-0.028587585
224	0xbd11eb13	-0.035624575
225	0x3e726228	0.23670256
226	0xbc3a7b90	-0.011381999
227	0xbe10c841	-0.14138891
228	0xbdde4cb1	-0.108544715
229	0xbd8db116	-0.06918542
230	0xbd0005b6	-0.031255446
231	0xbd7783f9	-0.060428593
232	0xbb1408a0	-0.0022588149
233	0xbd3196ee	-0.04335683
234	0xbd5cc55f	-0.053899165
235	0x3bede3a0	0.007259801
236	0x3cb70e02	0.022345547
237	0xbdbb442f	-0.09143864
238	0xbd15a729	-0.03653637
239	0xbd80fb1c	-0.06297895
240	0xbd96ae56	-0.07357471
241	0xbd716c0c	-0.058940932
242	0xbd9cbdcb	-0.07653388
243	0xbc6301e0	-0.0138554275
244	0x3b14fb37	0.0022732744
245	0xbd8ea9ff	-0.06966018
246	0xbcf4ac5c	-0.029867344
247	0xbcc826b4	-0.024432518
248	0x3c46b470	0.012127981
249	0xbd53ee97	-0.05174121
250	0xbd4c2260	-0.04983747
251	0xbd89ac7a	-0.067223504
252	0xbd1fe455	-0.039036114
253	0xbcf74968	-0.03018637
254	0xbdbc1d31	-0.09185255
255	0xbd04a439	-0.032383177

fc3.weight f4 [256, 256]
0	0xbdb3989f	-0.087693445
1	0xbd1e2d3b	-0.038617354
2	0xbd195ff5	-0.037445027
3	0xbc82e137	-0.015976531
4	0xbd2d233c	-0.04226993
5	0xba20ce64	-0.000613427
6	0xbd8e0d5c	-0.06936142
7	0xbdc43265	-0.095799245
8	0xba99a32c	-0.0011721603
9	0xbc3ae918	-0.011408113
10	0xbcf676bf	-0.03008592
11	0xbd516f9c	-0.05113183
12	0x3b7a4400	0.0038187504
13	0x3cafdba4	0.021467037
14	0xbdb82158	-0.08990735
15	0xbd0f264c	-0.034948632
16	0x3d46ff4e	0.04858332
17	0xbd5ae75a	-0.05344329
18	0xbd97962c	-0.0740169
19	0xbd4d531f	-0.0501281
20	0xbc6bf7d5	-0.0144023495
21	0x3cd083e0	0.025453508
22	0xbda0bae0	-0.078481436
23	0xbd412af1	-0.047160093
24	0xbd23c7db	-0.03998552
25	0xbdb35b60	-0.08757663
26	0xbdccd867	-0.10002213
27	0xbd8bffa5	-0.0683587
28	0xbdf7d0ec	-0.121003956
29	0x3d1eba20	0.03875172
30	0xbdf9bdb3	-0.121943854
31	0xbd1f9358	-0.038958877
32	0x3b7a79c0	0.0038219541
33	0xbd1bb4ad	-0.038014103
34	0xbd6b96ee	-0.057516985
35	0xbc0f0895	-0.008730073
36	0x3ddeae70	0.10873115
37	0xbd651348	-0.05592659
38	0xbde0cebd	-0.10976932
39	0xbde077c0	-0.109603405
40	0xbccfb510	-0.025354892
41	0xbd9878c2	-0.07444908
42	0xbd67f4b3	-0.056629848
43	0x3d4f7c50	0.050655663
44	0xbdd39d1b	-0.103327
45	0xbc89daf0	-0.01682803
46	0xbd282714	-0.041052893
47	0xbdaaa7ee	-0.08332811
48	0xbd711b36	-0.05886384
49	0x3c625f10	0.01381661
50	0x3d063ec6	0.03277471
51	0xbd531b4a	-0.051539697
52	0xbd236ca6	-0.039898537
53	0xbd09c71c	-0.03363715
54	0x3adf0718	0.0017015664
55	0xbd377112	-0.044785567
56	0xbd2a2fc9	-0.041549478
57	0x3d0a2874	0.033729985
58	0xbdfa8dc7	-0.12234073
59	0xbc3548ce	-0.011064721
60	0x3c052e98	0.008128785
61	0xbd410336	-0.047122203
62	0xbbb3067e	-0.0054634204
63	0x3cd0e1e4	0.025498338
64	0xbda3f440	-0.08005571
65	0xbdaf9165	-0.08572654
66	0x3da3182d	0.079635955
67	0xbc3de5f8	-0.011590473
68	0x3bc239a0	0.0059272796
69	0xbd4791e5	-0.04872312
70	0xbd6224a6	-0.055210732
71	0x3b0ebb44	0.00217791
72	0x3cb02534	0.021502115
73	0xbb425420	-0.0029652193
74	0xbde58b45	-0.11208204
75	0xbdba1ce8	-0.09087545
76	0xbd7a8a98	-0.06116733
77	0x3c146088	0.009056218
78	0x3cbb0074	0.022827365
79	0xbca1d481	-0.01975465
80	0x3b6113e0	0.0034344122
81	0xbcfd2030	-0.030899137
82	0x3cd407d8	0.025882646
83	0x3c8c0de0	0.01709646
84	0xbce2142b	-0.027597507
85	0xbb0cf060	-0.002150558
86	0xbda279c8	-0.07933384
87	0xbb72e6ec	-0.003706391
88	0xbde6378b	-0.11241063
89	0xbdbb00e5	-0.0913103
90	0xbcf04ce0	-0.029333532
91	0x3d28c25c	0.04120098
92	0xbde7dc0e	-0.11321269
93	0xbddf9824	-0.109176904
94	0xbc2d04cd	-0.010560227
95	0xbc5d3b15	-0.013502856
96	0xbd9fddbd	-0.07805965
97	0xbc8b0ba7	-0.01697333
98	0xbd36887c	-0.044563755
99	0xbdbfd555	-0.09366862
100	0xbdb3374a	-0.0875078
101	0x3c04bc78	0.008101575
102	0x3d19b4fc	0.037526116
103	0xbd68cffd	-0.056838978
104	0xbde5bb70	-0.112173915
105	0x3de748ca	0.1129318
106	0xbd3e708c	-0.04649405
107	0xbcffd708	-0.031230465
108	0xbc58274a	-0.013192961
109	0xbdceee58	-0.10104054
110	0xbdd5f07b	-0.10446259
111	0xbd7df686	-0.06200268
112	0xbc2fbec0	-0.010726631
113	0xbd506420	-0.050876737
114	0xbd9dcfef	-0.07705676
115	0xbc6ebcf8	-0.014571421
116	0xbd4f5d79	-0.05062625
117	0xbda45ffa	-0.080261186
118	0xbd076c1e	-0.033062093
119	0x3d57f40a	0.05272297
120	0x3d714bde	0.058910243
121	0xbd79a0da	-0.060944416
122	0xbdf6a955	-0.12044016
123	0xbd526580	-0.05136633
124	0xbdd4cbc8	-0.10390431
125	0x3cf30250	0.029664189
126	0xbd14e6b4	-0.03635283
127	0xbd4e3060	-0.050339103
128	0xbd397bbc	-0.045284018
129	0x3ca4c298	0.02011232
130	0xbc87e134	-0.016586877
131	0x3d730c18	0.059337705
132	0xbdda7dba	-0.10668512
133	0xbc4ccbae	-0.012499733
134	0xbd998ab5	-0.074971594
135	0xbdba6233	-0.09100761
136	0xbbf9b099	-0.007619929
137	0xbdc97f09	-0.09838683
138	0x3a9474c7	0.0011326306
139	0xbd957c70	-0.07299125
140	0xbd85baa9	-0.06529743
141	0xbd73b306	-0.059496902
142	0xbd87a1d9	-0.06622667
143	0xbd56f2b7	-0.052477565
144	0xbcde5bc0	-0.02714336
145	0xbd0f8330	-0.03503722
146	0xbd186a18	-0.037210554
147	0xbcfc15c6	-0.030772101
148	0xbcb947bc	-0.022617213
149	0xbd53e6f6	-0.051733933
150	0xbd9b83eb	-0.07593521
151	0xbd4d6f54	-0.050155
152	0x3d7b8002	0.061401375
153	0xbdb3b479	-0.08774657
154	0xbdd147db	-0.102187835
155	0xbd0274d2	-0.03184969
156	0xbdb3e17a	-0.087832406
157	0xbde88566	-0.11353569
158	0xbd98a7dd	-0.074538924
159	0xbdbbe1b3	-0.09173908
160	0xbc0d09a0	-0.008608252
161	0xbcda2234	-0.026627637
162	0xbd8528f9	-0.065019555
163	0xbde489d7	-0.11159103
164	0xbc7afcc0	-0.015319049
165	0xbd6a6104	-0.057221428
166	0xbd41379b	-0.04717217
167	0x3d748f48	0.059706956
168	0x3d30fcf6	0.043209992
169	0xbcdfad58	-0.027304336
170	0xbd0a3938	-0.033745974
171	0xbdaa2f24	-0.083097726
172	0xbc082cc6	-0.008311456
173	0xbc919a27	-0.0177737
174	0x3d486fd8	0.048934788
175	0xbd2546e3	-0.040350806
176	0xbdc2ab6c	-0.095053524
177	0xbd9fd0d8	-0.07803506
178	0xbcf0d526	-0.029398512
179	0xbdf21cda	-0.11821909
180	0xbdc68247	-0.09692817
181	0x3d2c7d3a	0.042111613
182	0xbd5cbf4c	-0.053893372
183	0xbc11a0a9	-0.008888402
184	0xbc50832b	-0.012726585
185	0xbd1ecaf0	-0.038767755
186	0xbcf63534	-0.030054666
187	0xbd2513a3	-0.04030193
188	0xbd3b897f	-0.045785423
189	0xbdba2ba7	-0.09090357
190	0xbdbb3e19	-0.091427036
191	0xbd934c09	-0.07192237
192	0xbd1ef6ac	-0.038809463
193	0xbd9e3ae7	-0.077260785
194	0xbcce51a4	-0.025185414
195	0xbddff21d	-0.10934851
196	0xbdc00f5b	-0.09377929
197	0x3b340c60	0.0027473196
198	0xbd7ba947	-0.061440732
199	0xbcbea488	-0.023271814
200	0xbda32216	-0.07965486
201	0xbbb5ff55	-0.0055541196
202	0xbd12cc78	-0.035839528
203	0xbd108b7a	-0.035289265
204	0xbdd8e021	-0.10589624
205	0xbd2e66b6	-0.04257842
206	0xbb1f1728	-0.0024275277
207	0xbd967020	-0.07345605
208	0xbc748247	-0.014923639
209	0xbb6d7242	-0.0036231433
210	0xbc64095e	-0.013918249
211	0xbda64905	-0.08119396
212	0xbc8016c2	-0.015635852
213	0xbcf80734	-0.030276872
214	0xbc777c7e	-0.015105365
215	0xbdd0553e	-0.10172509
216	0xbdb76343	-0.089544795
217	0xbd152f1a	-0.036421873
218	0xbd9e422a	-0.077274635
219	0x3d238296	0.03991946
220	0xbd08ba25	-0.033380646
221	0xbd26eb1c	-0.04075156
222	0x3cd521c4	0.026017077
223	0xbdf24e77	-0.11831372
224	0xbd4ec304	-0.05047895
225	0xbc93787b	-0.018001786
226	0x3ca4b988	0.020108
227	0xbbf61510	-0.007509835
228	0xbdd414df	-0.10355543
229	0xbb50f06a	-0.003188158
230	0x3ce7d964	0.028301902
231	0xbc9426c0	-0.018084884
232	0x3d16f5f8	0.036855668
233	0x3d706110	0.058686316
234	0xbba8889f	-0.0051432396
235	0x3bd49ee0	0.006488666
236	0xbd68433b	-0.05670474
237	0x3d5d5894	0.054039553
238	0xbcf86568	-0.030321792
239	0xbbc3ad60	-0.0059715956
240	0x3ab984c0	0.0014153942
241	0xbc7ee4b2	-0.015557455
242	0xbd74ad52	-0.059735604
243	0xbd7e0ad0	-0.06202203
244	0xbc4b4100	-0.012405634
245	0xbd4116f8	-0.047141045
246	0xbb670342	-0.0035249745
247	0x3d42da8e	0.04757171
248	0x3b9a6b80	0.004712522
249	0xbd2a6fe6	-0.04161062
250	0x3d785c86	0.060635112
251	0xbd674933	-0.056466293
252	0xbd4414dc	-0.047871456
253	0xbc891314	-0.01673273
254	0xbd98b632	-0.07456626
255	0xbd25dd2b	-0.040494125

fc3.bias f4 [256]
0	0xb60d3c14	-2.1045607e-06
1	0xbd7c4005	-0.06158449
2	0xbcd0867e	-0.025454756
3	0xbdab2fc3	-0.08358719
4	0xbcf20fdf	-0.029548584
5	0xbdbb5c09	-0.09148414
6	0xbd66f2b4	-0.056383803
7	0xbdb3df52	-0.08782829
8	0xbdab9e77	-0.08379834
9	0x3e0c533e	0.1370363
10	0xbd87fbee	-0.06639849
11	0xbde65979	-0.11247534
12	0xbcfa23ca	-0.030534644
13	0x3dbddc22	0.092705026
14	0xbbf905eb	-0.0075995824
15	0xbdcd767a	-0.10032363
16	0xbd8ef46b	-0.06980213
17	0x3d3ab6e4	0.045584574
18	0xbca67b2e	-0.020322409
19	0xbd122dbd	-0.03568815
20	0x3e8852f2	0.26625782
21	0xbc3fe666	-0.011712646
22	0x3db9b11c	0.09066984
23	0x3e393e51	0.18090178
24	0xbd949314	-0.072546154
25	0xbc86dc6c	-0.016462527
26	0xbd1e7ea8	-0.038695008
27	0xbdf61531	-0.12015761
28	0xbd44e2e7	-0.048067953
29	0xbddea76a	-0.108717754
30	0xbd7320b9	-0.05935738
31	0xbe3b94e3	-0.18318515
32	0xbd04f953	-0.032464337
33	0xbde0102f	-0.10940587
34	0xbdc71adc	-0.0972192
35	0xbdec8406	-0.11548619
36	0xbc90c094	-0.017669953
37	0x3be81008	0.007081989
38	0xbd93f13f	-0.072237484
39	0xbce07694	-0.027400292
40	0x3e0a797b	0.13522904
41	0xba21f3a8	-0.000617797
42	0xbda22155	-0.07916514
43	0xbaf8c974	-0.0018980936
44	0xbd1ca50d	-0.038243342
45	0xbcc637cb	-0.024196526
46	0xbde524d0	-0.11188662
47	0xbdf6f5d8	-0.1205861
48	0x3d833dda	0.064082816
49	0xbd36bf5a	-0.04461608
50	0x3a2f900e	0.0006697186
51	0xbd021ae0	-0.03176391
52	0xbc073e98	-0.00825467
53	0xbd63b577	-0.05559298
54	0xbc978d54	-0.018500008
55	0x3dc4cf1b	0.09609815
56	0x3d5883b1	0.052859966
57	0xbd973bd0	-0.07384455
58	0xbdbd1840	-0.09233141
59	0xbc043261	-0.008068652
60	0x3cb0656d	0.021532739
61	0xbd62340a	-0.05522541
62	0xbd63d1f6	-0.055620156
63	0xbcbf5b6f	-0.023359029
64	0xbd8b5672	-0.068035975
65	0xbdb1fb02	-0.08690454
66	0x3cf4be31	0.029875847
67	0xbcbc2a3f	-0.022969363
68	0xbd35e82b	-0.044410866
69	0xbdb80fe8	-0.08987409
70	0xbdcf14ef	-0.10111415
71	0x3d8fae63	0.070156835
72	0x3c8abd04	0.016935833
73	0x3ea69550	0.3253579
74	0xbde6d60b	-0.11271294
75	0xbd931af1	-0.07182873
76	0xbd3b36d6	-0.045706593
77	0xbcc115c6	-0.023569953
78	0xbd0f762f	-0.035024818
79	0xbda1f347	-0.079077296
80	0xbe064363	-0.13111643
81	0x3ca5908e	0.02021053
82	0x3e0dad1d	0.13835569
83	0xb9e9d760	-0.0004460169
84	0x3d988fc6	0.074492976
85	0xbe012070	-0.1261003
86	0xbd251dc9	-0.04031161
87	0x3d4572a0	0.048205018
88	0xbcd15e2e	-0.025557604
89	0xbd437cc8	-0.047726423
90	0xbdce4bf2	-0.10073079
91	0xbd28a716	-0.04117497
92	0xbe073f34	-0.13207704
93	0xbdd650ca	-0.10464628
94	0xbd3e6496	-0.046482645
95	0xbdd69b12	-0.10478796
96	0xbb2a44bf	-0.0025980917
97	0xbcceea6d	-0.025258267
98	0x3e145edf	0.14489315
99	0x3c846750	0.016162544
100	0xbc857ecd	-0.016295815
101	0xbd8983b5	-0.06714574
102	0xbc9f7557	-0.019465132
103	0xbd6228d1	-0.055214707
104	0xbda6be9a	-0.08141823
105	0xbdb9c442	-0.09070636
106	0xbdd498fc	-0.10380742
107	0xbdbc1343	-0.091833614
108	0x3ce3299a	0.027729798
109	0x3e2e2353	0.17005663
110	0xbc5c4054	-0.013443071
111	0xbd2650ba	-0.04060433
112	0xbddd1a96	-0.107960865
113	0xbd67711d	-0.056504358
114	0xbd2213db	-0.039569717
115	0xbe31d6f5	-0.17367156
116	0xbdfe551c	-0.12418577
117	0xbd2398c3	-0.039940607
118	0xbd54fb96	-0.051997744
119	0xbdbf16c2	-0.093305126
120	0xbdf2a20d	-0.11847315
121	0x3e190646	0.149438
122	0xbd8633bb	-0.065528356
123	0xbd6be2e2	-0.05758942
124	0xbd36373c	-0.04448627
125	0xbd8d2632	-0.06892051
126	0xbda97cef	-0.08275782
127	0xbd1264ff	-0.03574085
128	0xbc8a1be6	-0.016859006
129	0xbcc48799	-0.02399044
130	0x3e802847	0.2503073
131	0xbdbb21ca	-0.09137304
132	0x3e1392c3	0.14411454
133	0xbdc76c9b	-0.09737512
134	0xbd9c4712	-0.07630743
135	0x3d6bcf64	0.05757083
136	0xbbaea783	-0.0053300275
137	0xbdacd79c	-0.08439562
138	0xbe18fd9f	-0.14940499
139	0xbd8c3a80	-0.068470955
140	0x3e1d8352	0.15382126
141	0xbd92964e	-0.071575746
142	0xbd8b059e	-0.06788181
143	0xbcb9903a	-0.02265178
144	0xbd94e5e9	-0.072704144
145	0xbdece6b6	-0.11567442
146	0x3d271b59	0.040797565
147	0xbdd36b14	-0.10323158
148	0x3bed9904	0.007250907
149	0xbd8b8256	-0.06811969
150	0x3c6a9d72	0.014319764
151	0xbdfb60e0	-0.12274337
152	0xbdc421c5	-0.095767535
153	0xbcb6db48	-0.022321358
154	0x3e4c1351	0.19929244
155	0x3db89a7f	0.09013843
156	0xbdbbc550	-0.09168494
157	0xbdc40d01	-0.09572793
158	0xbd2afe5e	-0.04174649
159	0xbe0fdc50	-0.14048886
160	0xbc838165	-0.016052911
161	0xbe4f3b59	-0.20237483
162	0xbdf306a3	-0.118665
163	0xbd90ca63	-0.07069852
164	0xbe2a9779	-0.16659345
165	0xbcd8eb30	-0.026479334
166	0xbd7cd6ec	-0.061728403
167	0xbc216088	-0.009849675
168	0xbdb90186	-0.09033494
169	0x3cf60287	0.030030502
170	0xbe515f36	-0.20446476
171	0xbdc7019c	-0.09717104
172	0xbd9bd8a3	-0.076096795
173	0xbdec4210	-0.11536038
174	0x3eb1ccc3	0.34726533
175	0xbdc63f5f	-0.09680056
176	0xbc21efb2	-0.009883808
177	0xbc22a406	-0.009926802
178	0xbd8543fc	-0.065071076
179	0xbc559d70	-0.013038024
180	0xbdd5ca6a	-0.10438998
181	0xbd5f8a18	-0.054575056
182	0xbd71056c	-0.05884306
183	0xbdcc7f19	-0.099851795
184	0x3c197994	0.009367365
185	0xbd162536	-0.03665658
186	0xbe191eaa	-0.14953104
187	0x3da07690	0.07835114
188	0xbe30fd55	-0.17284139
189	0x3dd686b0	0.10474908
190	0xbdc705c4	-0.097178966
191	0x3e31a580	0.1734829
192	0x3dcdb72b	0.10044702
193	0xbdafee6c	-0.08590397
194	0xbd415c9b	-0.047207456
195	0xbdee86ea	-0.116468266
196	0xbcac32f4	-0.02102039
197	0x3e5ec79b	0.21755831
198	0xbe15eeef	-0.14641927
199	0x3e4e8abf	0.20170115
200	0xbdc9fad7	-0.09862297
201	0xbe14da8e	-0.14536497
202	0xbd55f5ab	-0.05223624
203	0xbe2cf2bd	-0.16889472
204	0xbd76419e	-0.06012117
205	0xbc7ad42d	-0.015309376
206	0xbda66079	-0.081238694
207	0xbd42b9d4	-0.0475405
208	0xbc1c0b8e	-0.009524239
209	0xbd387320	-0.045031667
210	0xbde4a5ff	-0.11164474
211	0x3c364524	0.011124883
212	0xbcf5b4e8	-0.02999349
213	0xbcb13d69	-0.021635728
214	0xbdb1029e	-0.08643077
215	0xbdcf8d0b	-0.10134324
216	0xbd4b8183	-0.04968406
217	0x3e49fe4b	0.19725911
218	0xbdad8dac	-0.084742874
219	0x3c531cec	0.0128853135
220	0xbd466a9b	-0.04844151
221	0x3dd934bc	0.106057614
222	0x3d8e7c07	0.0695725
223	0xbda721db	-0.08160754
224	0x3e210f26	0.15728435
225	0xbd9b9742	-0.075972095
226	0x3cb429f8	0.021992669
227	0xbda81f50	-0.082090974
228	0x3e141f44	0.14465052
229	0xbc8a97b9	-0.01691805
230	0xbdc842a4	-0.09778336
231	0x3e4a30bf	0.19745158
232	0x3d3c703f	0.046005484
233	0xbe38bc19	-0.18040504
234	0xbdba1ae0	-0.09087157
235	0xbde9e5c9	-0.11420781
236	0x3e067379	0.13129987
237	0x3df16fe0	0.117889166
238	0xbc04f567	-0.008115149
239	0xbc939a82	-0.018018011
240	0x3e804061	0.25049117
241	0xbbbeb12a	-0.0058194594
242	0xbcecc8fe	-0.028904434
243	0xbd87dc69	-0.06633837
244	0x3d4e2d74	0.050336316
245	0xbd94d77f	-0.07267665
246	0xbd36ec18	-0.04465875
247	0x3cfa8b0d	0.030583883
248	0xbcccd15b	-0.025002172
249	0xbd959a96	-0.073048756
250	0xbc09c2ea	-0.008408288
251	0xbd072328	-0.032992512
252	0xbabe7d9d	-0.0014533285
253	0xbd96cd45	-0.07363371
254	0xbe57359d	-0.21016546
255	0x3e2a348a	0.16621605

classifier.weight f4 [16, 256]
0	0x3cf4ae89	0.029868381
1	0x3c2b45d9	0.010453665
2	0x3d8a10f3	0.06741514
3	0x3c0503c8	0.008118577
4	0x3de39682	0.111126915
5	0xbde28c30	-0.11061895
6	0x3d8a05af	0.06739365
7	0x3b961681	0.0045803194
8	0x3cf61aa2	0.030041996
9	0x3d21a17d	0.039460648
10	0xbe21eeeb	-0.15813796
11	0xbccd70e0	-0.025078237
12	0x3d2b97b1	0.04189271
13	0xbdd1dcf6	-0.10247223
14	0xbcd49278	-0.025948748
15	0x3c7357d2	0.014852481
16	0x3cafa629	0.021441536
17	0x3c88d7ed	0.016704524
18	0xbe03045a	-0.12794629
19	0x3c384eba	0.011249239
20	0xbedc7451	-0.43057492
21	0xbcd743e4	-0.02627749
22	0x3ce67ff2	0.028137181
23	0xbc87aa49	-0.01656069
24	0x3db74bb7	0.08949988
25	0x3c712b80	0.014719844
26	0x3d9ae424	0.075630456
27	0x3d86f7f7	0.06590264
28	0x3db31ca2	0.08745696
29	0xbc85357b	-0.016260853
30	0x38db05cc	0.000104438135
31	0xbd67b96e	-0.056573324
32	0x3da4c1ac	0.080447525
33	0xbd94211d	-0.07232878
34	0x3c9dc49e	0.019258793
35	0x3ccea9a1	0.02522737
36	0x3cc13cab	0.023588499
37	0xbd676bb5	-0.0564992
38	0x3de7c41c	0.11316702
39	0x3c6d32a1	0.014477403
40	0xbe168376	-0.14698586
41	0xbe371d47	-0.17882262
42	0x3cefe661	0.029284658
43	0xbdb8c323	-0.090215944
44	0x3d6d5a5a	0.057947494
45	0x3cec8d79	0.028876053
46	0x3c84e22f	0.016221134
47	0xbd9fdf19	-0.078062244
48	0xbcd3a50b	-0.025835535
49	0x3cd68540	0.026186585
50	0x3cfb4847	0.030674113
51	0xbb4a8b57	-0.0030905807
52	0xbdd7f825	-0.10545377
53	0xbd2bcaa7	-0.04194131
54	0xbd671533	-0.0564167
55	0x3cf2fcc0	0.029661536
56	0xbe041d48	-0.12901795
57	0x3dc8a812	0.09797682
58	0xbdab5f72	-0.08367814
59	0xbda37903	-0.079820655
60	0x3b370097	0.0027923936
61	0xba8dc140	-0.0010815039
62	0xbd6dc008	-0.058044463
63	0xbd60001b	-0.0546876
64	0xbdea0ca6	-0.11428194
65	0xbd7fcf55	-0.062453587
66	0xbd103af9	-0.03521249
67	0x3b907c5a	0.004409355
68	0x3d3cbc80	0.046078205
69	0xbcd0a6cb	-0.025470158
70	0xbdcb3913	-0.099229954
71	0x3d558cf5	0.05213638
72	0xbb14f767	-0.002273047
73	0xbf208adb	-0.62711877
74	0x3cc448fc	0.023960583
75	0x3af77419	0.0018879204
76	0x3d548dd8	0.051893085
77	0xbc9d0ad8	-0.01917021
78	0xbd963b29	-0.07335503
79	0xbcef77dc	-0.029231958
80	0xbdbf2932	-0.09334029
81	0x3b9df3d8	0.004820328
82	0xbdb5f371	-0.088843234
83	0x3de8072c	0.11329493
84	0xbc77ec26	-0.015131986
85	0x3d447d6d	0.047971178
86	0x3d684357	0.056704845
87	0x3a922800	0.0011150837
88	0x3d12da00	0.035852432
89	0x3c68def0	0.014213309
90	0x3bbfe729	0.005856414
91	0x3d112419	0.035434816
92	0x3cc4842a	0.023988802
93	0x3d353aac	0.044245407
94	0xbe001ed2	-0.12511757
95	0x3da03d53	0.07824197
96	0xbce6a74e	-0.028155949
97	0x3b3e136f	0.0029003283
98	0xbdf69e2d	-0.120418884
99	0x3b1441a0	0.0022622123
100	0x3d80edd4	0.06295362
101	0xbe025945	-0.12729366
102	0x3d83325c	0.0640609
103	0x3d6b758c	0.05748515
104	0x3d9d20a9	0.07672245
105	0xbdeab52a	-0.114603356
106	0x3dcabafb	0.09898945
107	0xbd86c067	-0.065796666
108	0xbc2ce491	-0.010552541
109	0xbe05f26b	-0.13080756
110	0xbcddf2fc	-0.027093403
111	0x3cfb8085	0.030700931
112	0x3d9496b7	0.07255309
113	0xbe09822d	-0.13428564
114	0x3c07ad50	0.008281067
115	0x3cf981e0	0.030457437
116	0x3d5f5a3d	0.054529417
117	0xbdf88c7f	-0.121361725
118	0xbcb36606	-0.021899235
119	0xbdecd9d9	-0.11564989
120	0x3658274c	3.2209382e-06
121	0xbdd5549b	-0.10416528
122	0xbe0d34f2	-0.13789728
123	0xbc536bbd	-0.012904105
124	0x3dc983e8	0.09839612
125	0x3dd800ef	0.10547053
126	0xbde5aa63	-0.11214139
127	0xbd9aa022	-0.07550074
128	0xbdcc8ded	-0.09988008
129	0x3cfab9f7	0.030606253
130	0xbe34a32f	-0.17640375
131	0xbdd8e332	-0.10590209
132	0xbeaca5f2	-0.33720356
133	0xbd613a9f	-0.054987546
134	0x3e0bc63e	0.13649842
135	0xbe07e193	-0.13269643
136	0xbe1e6e88	-0.15471852
137	0xbdc5c674	-0.096569926
138	0x3c556568	0.013024665
139	0x3da2d78b	0.07951268
140	0xbd85482c	-0.06507906
141	0xbdbc4b26	-0.09194021
142	0xbdec107d	-0.115265824
143	0xbda92832	-0.0825962
144	0xbd1e0bd7	-0.03858551
145	0x3db8f46c	0.09030995
146	0xbe33e70e	-0.17568609
147	0x3d475ff5	0.048675496
148	0x3d21244a	0.03934125
149	0x3ccdd1c9	0.025124447
150	0xbdfe5932	-0.124193564
151	0x3d198240	0.03747773
152	0x3d813eb7	0.0631079
153	0x3c4a3fc9	0.012344309
154	0xbe95ab7b	-0.29232392
155	0x3cb29735	0.021800617
156	0x3debc4c5	0.1151214
157	0x3cbd9bff	0.023145674
158	0x3dc16ca1	0.094445474
159	0xbdf683eb	-0.1203688
160	0x3b933651	0.004492559
161	0xbe1ec589	-0.15505041
162	0x3e056e06	0.13030252
163	0xbd5606de	-0.052252643
164	0xbd540714	-0.051764563
165	0xbd028f78	-0.031875104
166	0xbd2e4498	-0.042545885
167	0xbd8d3b81	-0.06896115
168	0xbd9eb3fe	-0.077491745
169	0x3d1e24c3	0.038609277
170	0x3a7e00ac	0.0009689431
171	0xbd59bd80	-0.053159237
172	0x3d47faa2	0.048823006
173	0x3d6f87ee	0.058479242
174	0xbe8ccea9	-0.2750142
175	0x3d789b70	0.06069511
176	0xbca105d7	-0.019656105
177	0x3c7bf377	0.015377871
178	0x3dab23e9	0.08356459
179	0x3c0854fa	0.008321041
180	0x3de253be	0.11051129
181	0x3a151547	0.00056870695
182	0x3d686204	0.0567341
183	0xbdf9dd73	-0.12200441
184	0xbdb35dd8	-0.08758134
185	0x3d69c325	0.05707087
186	0x3d3c3509	0.045949016
187	0xbe3b52d9	-0.18293323
188	0x3e071f84	0.13195616
189	0xbe986a8d	-0.29768792
190	0x3dbc889c	0.09205744
191	0xbdad7b2b	-0.08470758
192	0xbea0ec92	-0.3143049
193	0x3db876f7	0.09007066
194	0x3d5a460c	0.05328946
195	0x3db84766	0.08997993
196	0xbc77d9f8	-0.015127651
197	0xbe8b95c3	-0.27262697
198	0xbca76749	-0.020434992
199	0xbe92f6d2	-0.28703934
200	0x3bde1202	0.006777049
201	0x3d921044	0.07132009
202	0x3c8d206f	0.01722738
203	0x3b77bb35	0.0037800793
204	0xbd26261d	-0.04056369
205	0xbc4384dc	-0.011933532
206	0xbd042779	-0.032264207
207	0x3ba27407	0.004957679
208	0x3db1c33a	0.08679815
209	0xbaf34a88	-0.0018561641
210	0xbddf471b	-0.10902234
211	0x3d847d85	0.064692535
212	0xbd32ad4e	-0.043622307
213	0xbdcef369	-0.101050206
214	0x3d43d3ed	0.04780953
215	0x3d0a6343	0.03378607
216	0xbd801865	-0.06254653
217	0xbe9a70f4	-0.301643
218	0x3bfd2d54	0.007726351
219	0xbde88c24	-0.11354855
220	0x3c192926	0.009348189
221	0x3dbfb5c7	0.09360843
222	0xbdb52909	-0.088457175
223	0xbd802829	-0.0625766
224	0xbc8a387f	-0.016872643
225	0xbd285a9f	-0.041102048
226	0xbe24a1b7	-0.16077314
227	0xbcadef54	-0.021232285
228	0xbe52b00a	-0.20574966
229	0x3dbf3512	0.09336294
230	0xbcd296d0	-0.025706679
231	0xbe0cb789	-0.13741888
232	0xbe180fbf	-0.14849757
233	0x3da2460a	0.07923515
234	0xbbd25cf2	-0.0064197714
235	0xbc3e9dad	-0.0116342725
236	0xb90d0586	-0.00013448866
237	0xbd2c409a	-0.042053796
238	0x3d33e024	0.04391493
239	0x3d469e46	0.048490785
240	0xbf20a075	-0.6274484
241	0xbd877d23	-0.06615665
242	0x3bcce17c	0.006252466
243	0x3cf8c24f	0.030366091
244	0xbd33fddb	-0.043943267
245	0xbbb4721b	-0.0055067665
246	0x3d9bd8c2	0.07609703
247	0x3c4c84cf	0.012482836
248	0x3da2761a	0.07932682
249	0xbd6758e9	-0.056481276
250	0x3d2ef356	0.042712532
251	0x3c90b368	0.017663673
252	0xbcb2a640	-0.02180779
253	0x3c10698c	0.008814227
254	0x3e00b1a8	0.1256777
255	0xbd334a29	-0.043771897

classifier.bias f4 [16]
0	0xbe04e9be	-0.1297979
1	0xbce39f17	-0.02778582
2	0x3c2e7e17	0.010650179
3	0x3c67d186	0.014149075
4	0xbad96f4a	-0.0016588953
5	0x3e3b6c5a	0.18303052
6	0xbd94e16c	-0.07269558
7	0x3df7a432	0.12091865
8	0x3c3bdb6e	0.01146589
9	0xbd0e63c1	-0.0347631
10	0x3d79ffdb	0.06103502
11	0x3dbd0672	0.09229745
12	0xbd50bedb	-0.050963264
13	0xbd0acd94	-0.03388746
14	0x3d5715b0	0.052510917
15	0xbdfc783a	-0.12327619
