transfer17_26_47_22_10_12_FullyConnected.pth (torch, 550959 bytes, 8 tensors)

fc1.weight f4 [256, 4]
0	0x3edc896b	0.43073592
1	0xbd3558f2	-0.044274278
2	0xbc61fdbf	-0.013793408
3	0xbeb0f589	-0.34562328
4	0x3deee28e	0.116643056
5	0x3e860790	0.26177645
6	0x3ee2b531	0.44278863
7	0x3e981476	0.2970311
8	0xbea1d071	-0.3160434
9	0xbdd0f9f2	-0.10203923
10	0x3f079252	0.5295764
11	0x3cb44da4	0.022009678
12	0xbec5c5e4	-0.3862754
13	0x3e0fbeb0	0.14037585
14	0x3ecb6eb0	0.39732885
15	0xbe3a212c	-0.18176717
16	0x3d908a14	0.07057586
17	0x3dfe2870	0.124100566
18	0xbee77e8f	-0.45213744
19	0x3e3a85ef	0.18215154
20	0x3d810f75	0.06301776
21	0x3e929501	0.28629306
22	0xbeea9a8f	-0.45821044
23	0x3e14b2a8	0.14521277
24	0x3ee9fc42	0.4570027
25	0xbe582a74	-0.21109945
26	0x3e5017c8	0.20321572
27	0xbe81eefe	-0.2537765
28	0xbe0e8308	-0.13917172
29	0xbed659d0	-0.41865396
30	0x3e1af5e3	0.15132861
31	0xbb82966b	-0.0039852164
32	0x3da0c4fa	0.0785007
33	0x3ed7345d	0.42032138
34	0x3f190835	0.5977815
35	0x3e7158d4	0.23569041
36	0xbe91405a	-0.2836941
37	0x3ddd0c18	0.10793322
38	0x3de4ec50	0.111778855
39	0xbef3e7c0	-0.4763775
40	0xbeeb073a	-0.4590395
41	0xbecc6c1e	-0.39926237
42	0xbea4e4c3	-0.3220578
43	0x3e5559f1	0.20835091
44	0x3e876961	0.26447585
45	0xbde91f54	-0.113829285
46	0xbe773f85	-0.24145325
47	0xbf04e27e	-0.519081
48	0xbee9e51d	-0.45682612
49	0x3f1696c1	0.5882378
50	0x3d941876	0.07231228
51	0xbeb85c7f	-0.3600807
52	0x3e5763b8	0.21034133
53	0x3ede9799	0.43475035
54	0x3ecf50ca	0.40491325
55	0x3db3a4e8	0.08771688
56	0x3c83d307	0.016091837
57	0xbd586731	-0.052832786
58	0xbf0e322a	-0.55545294
59	0x3c9234f9	0.017847525
60	0x3ee8b1f4	0.45448267
61	0xbe7329ba	-0.23746386
62	0xbed412e8	-0.41420674
63	0x3e175fb0	0.14782596
64	0xbe04b727	-0.12960492
65	0x3e931142	0.28724104
66	0x3f1de057	0.6167044
67	0xbe14dbfe	-0.14537045
68	0xbe8640d9	-0.2622135
69	0x3f12c4c4	0.5733149
70	0x3e81a68c	0.25322378
71	0x3eaa8dae	0.33311218
72	0xbe85b529	-0.26114777
73	0xbe85fdb8	-0.26170135
74	0xbec99814	-0.3937384
75	0x3e422ea3	0.18963103
76	0xbd50b8a5	-0.05095734
77	0x3f0feadc	0.5621774
78	0x3ee489b5	0.44636312
79	0xbea4a85c	-0.32159698
80	0xbe9887b6	-0.2979104
81	0x3ee48ea2	0.4464007
82	0x3edb9998	0.4289062
83	0xbe194604	-0.14968115
84	0x3f1a5f33	0.6030151
85	0xbef72988	-0.48273873
86	0xbef4a9f3	-0.4778591
87	0x3eb13c27	0.34616205
88	0xbdbfd047	-0.093658976
89	0x3ee462a4	0.44606507
90	0x3ebbba94	0.36665785
91	0x3e3f547e	0.18684575
92	0xbe9467dc	-0.28985488
93	0x3de2a9a0	0.1106751
94	0x3ecffa72	0.40620762
95	0xbc811680	-0.0157578
96	0x3e84b86a	0.25921947
97	0x3daf40b0	0.0855726
98	0xbe7e972c	-0.24862355
99	0xbeec180e	-0.46112102
100	0x3de81e74	0.113339335
101	0x3f007d84	0.5019152
102	0x3f18cbb0	0.596858
103	0x3e4c7000	0.199646
104	0xbea7b4fc	-0.32755268
105	0xbed7fc70	-0.42184782
106	0xbe16458c	-0.14674968
107	0xbedb4312	-0.42824608
108	0xbed194c1	-0.40933803
109	0xbef60841	-0.48053172
110	0xbe8b59f5	-0.2721707
111	0x3de6be47	0.11266761
112	0x3e43f12a	0.19134966
113	0x3f0162e5	0.50541526
114	0x3e6965a1	0.22792675
115	0xbefa09db	-0.48835644
116	0xbeea26a9	-0.4573262
117	0xbebdef53	-0.37096652
118	0xbf33923f	-0.7014503
119	0x3e20be4d	0.15697594
120	0x3e0d74cf	0.1381409
121	0xbe4a4e18	-0.19756353
122	0xbeebe03a	-0.4606951
123	0xbe725923	-0.23666815
124	0x3e66f274	0.22553426
125	0xbee99a98	-0.45625758
126	0x3e4bd1fc	0.19904321
127	0xbea1eb3e	-0.31624788
128	0x3eea7c1c	0.45797813
129	0x3ef3b6d2	0.47600418
130	0x3f0f7db6	0.56051195
131	0xbdaa0207	-0.08301168
132	0x3ebe9230	0.37220907
133	0xbef26648	-0.4734366
134	0xbe938dbb	-0.2881907
135	0xbe85ded6	-0.26146573
136	0x3cd5a6c0	0.02608049
137	0xbee0ed18	-0.43930888
138	0xbec74d0c	-0.3892597
139	0xbdbf7408	-0.09348303
140	0xbdfdbba8	-0.12389308
141	0xbe582cb4	-0.21110803
142	0xbd8f3d98	-0.0699417
143	0xbc9a3200	-0.01882267
144	0x3e944426	0.28958243
145	0xbed3f0b9	-0.41394594
146	0x3def61bf	0.116885655
147	0x3effa408	0.49929833
148	0x3e8a928e	0.27064937
149	0xbe183cdb	-0.14866965
150	0xbd20cd46	-0.039258264
151	0xbeff4c78	-0.4986303
152	0x3d5210ba	0.051285483
153	0x3f0fde71	0.56198794
154	0x3c3a88f8	0.011385195
155	0x3e0d28e3	0.13785128
156	0xbef988f2	-0.48737293
157	0xbed9ed18	-0.425637
158	0xbe171166	-0.1475273
159	0x3e44a794	0.19204551
160	0x3ef73768	0.4828446
161	0xbdabb89f	-0.08384823
162	0xbf0071d9	-0.5017372
163	0xbea19685	-0.3156015
164	0x3da415db	0.08011981
165	0xbebe3446	-0.37149256
166	0xbde7e700	-0.11323357
167	0xbc884f02	-0.016639236
168	0xbe02c94c	-0.12772101
169	0x3de7988f	0.11308395
170	0x3ee3550f	0.44400832
171	0x3eaf96ec	0.34294832
172	0x3e9f949f	0.31168076
173	0x3ef8de09	0.486069
174	0x3e92cdd0	0.28672647
175	0xbe45211d	-0.19250913
176	0xbe5e984c	-0.21737784
177	0x3d6bd100	0.057572365
178	0xbbc09e00	-0.00587821
179	0xbe8b7d76	-0.27244157
180	0x3ecc311d	0.3988122
181	0x3ef34a44	0.47517598
182	0xbec46f47	-0.38366148
183	0x3edc4d0e	0.43027538
184	0xbe9ab3fb	-0.3021544
185	0x3e689338	0.2271241
186	0x3efc2e0b	0.49253878
187	0xbdc4d093	-0.09610095
188	0xbebd5f28	-0.3698666
189	0xbe7efc80	-0.24901009
190	0x3e339cc4	0.1754027
191	0xbe88b730	-0.2670226
192	0xbcc9eb78	-0.024648413
193	0xbe6deae4	-0.23234135
194	0xbec00767	-0.37505648
195	0xbf029728	-0.51011896
196	0x3ea7dd94	0.32786238
197	0x3e8826ca	0.26592094
198	0x3eecfd16	0.4628684
199	0x3d938c68	0.07204515
200	0x3e66422c	0.2248618
201	0xbe92e074	-0.2868687
202	0xbe61e1cb	-0.2205879
203	0xbef99edd	-0.48754016
204	0xbea546a0	-0.32280445
205	0x3f18a28e	0.5962304
206	0xbe82b486	-0.25528353
207	0x3efe206f	0.4963412
208	0x3e8fdcbe	0.280981
209	0xbe48740c	-0.19575518
210	0x3ea6ee7e	0.3260383
211	0xbec71814	-0.38885558
212	0x3e7c2303	0.24622731
213	0x3e08be9f	0.13353966
214	0xbef16dae	-0.4715399
215	0xbe947af2	-0.2900005
216	0xbf0328bb	-0.51234025
217	0x3e26cb44	0.16288477
218	0xbdd41131	-0.103548415
219	0x3e878a58	0.26472735
220	0xbe8e1d05	-0.27756515
221	0xbf011a55	-0.50430804
222	0xbeef3295	-0.4671828
223	0x3e3fbbdc	0.18724006
224	0x3ce29eec	0.02766367
225	0x3ec0173b	0.37517723
226	0x3e68b408	0.22724926
227	0x3ddfe33d	0.10932014
228	0x3e6383bc	0.22218221
229	0x3e2ad90c	0.1668436
230	0xbcdbd0c0	-0.026832938
231	0xbefcd5a0	-0.49381733
232	0xbeff531e	-0.498681
233	0xbefb3544	-0.49064076
234	0x3e98d05e	0.29846472
235	0x3e8e05da	0.2773884
236	0xbe10f52a	-0.14156023
237	0x3f0dac3e	0.55340946
238	0xbd0327c5	-0.03202035
239	0xbdfa8096	-0.12231557
240	0xbedf33e1	-0.43594268
241	0x3f177e26	0.5917686
242	0x3eded620	0.4352274
243	0xbdc98240	-0.09839296
244	0xbeafd62e	-0.34343094
245	0xbce2f460	-0.027704418
246	0x3e271ea0	0.16320276
247	0x3edbad80	0.42905807
248	0xbe20841c	-0.15675396
249	0x3f03283b	0.5123326
250	0x3edb9a29	0.42891052
251	0xbe85c9ca	-0.26130515
252	0x3f249af1	0.6429892
253	0xbee90e14	-0.45518553
254	0xbef306ef	-0.47466227
255	0xbd89ae56	-0.06722705

fc1.bias f4 [256]
0	0x3d957c24	0.072990686
1	0xbe3e22e7	-0.18568002
2	0x3e75029b	0.23926775
3	0xbe8ea794	-0.27862227
4	0xbe7bb5b2	-0.2458103
5	0xbe0bf479	-0.13667478
6	0xbee80574	-0.4531666
7	0x3e738e02	0.2378464
8	0xbd8f3774	-0.06992999
9	0x3e342978	0.17593944
10	0x3ebeb1c3	0.37244996
11	0xbdd13b6a	-0.102164105
12	0x3ec9cf1a	0.39415818
13	0x3db75cc6	0.08953242
14	0x3e179a4d	0.14804955
15	0xbe1e67f3	-0.15469341
16	0x3ed25b15	0.41085115
17	0x3e8fe110	0.28101397
18	0x3e7d15e4	0.24715382
19	0x3c14d1fa	0.009083265
20	0xbe97574c	-0.2955879
21	0xbe0da4f7	-0.1383246
22	0xbe8557e3	-0.26043615
23	0xbe8a8bde	-0.27059835
24	0xbe96cca2	-0.29452997
25	0xbe9d49f2	-0.30720478
26	0xbd422e10	-0.04740721
27	0x3edaba45	0.42720237
28	0x3e34c7cd	0.17654343
29	0x3ea8fd98	0.33005977
30	0x3e4e3b41	0.20139791
31	0xbec9283e	-0.39288515
32	0x3dd5ad5c	0.10433456
33	0x3e9d6899	0.30743864
34	0xbeff4d80	-0.49863815
35	0xbead3ed4	-0.33836997
36	0xbe99a963	-0.30012044
37	0x3ebf7794	0.37395918
38	0x3e073072	0.13202074
39	0x3e6d83fc	0.2319488
40	0x3e072415	0.13197358
41	0x3e35c58d	0.17751141
42	0xbd4f860c	-0.050664946
43	0xbe77f28a	-0.24213615
44	0xbdc94f00	-0.09829521
45	0xbeed1af1	-0.46309617
46	0x3e8cb8f5	0.2748486
47	0x3a869a00	0.0010269284
48	0xbd261c91	-0.040554587
49	0xba65acfa	-0.0008761432
50	0x3eb19cc5	0.34689918
51	0xbe5bbdd0	-0.21459126
52	0xbe409b9c	-0.1880936
53	0x3e12ae49	0.14324297
54	0x3e2f2e56	0.1710752
55	0x3ec43d90	0.38328218
56	0x3e03b01b	0.12860148
57	0xbe223084	-0.1583882
58	0xbe145af8	-0.14487827
59	0x3d11a072	0.035553403
60	0x3ec40c2a	0.3829053
61	0xbe8a21ba	-0.26978856
62	0x3e30f324	0.17280251
63	0x3d94cefd	0.072660424
64	0x3df502df	0.11963438
65	0xbda58406	-0.08081822
66	0x3d386c30	0.04502505
67	0xbd7aa910	-0.061196387
68	0x3d76778a	0.060172595
69	0xbda73f30	-0.08166349
70	0xbe266864	-0.1625076
71	0x3eb49e30	0.35276937
72	0xbee0f352	-0.4393564
73	0xbe4ee890	-0.20205903
74	0xbeb81152	-0.35950714
75	0x3e031daa	0.12804285
76	0x3e69e983	0.22842984
77	0x3e05f160	0.13080359
78	0x3e3382da	0.17530385
79	0xbedefb4c	-0.435511
80	0xbe69ba47	-0.22824965
81	0x3e1b8a74	0.15189534
82	0x3e7f750a	0.2494699
83	0xbe1a37bb	-0.15060322
84	0xbee6b7e8	-0.45062184
85	0xbe1bd1a4	-0.1521669
86	0xbe72484e	-0.23660395
87	0x3eb758b1	0.35809854
88	0x3e35715f	0.17719029
89	0xbe000ad8	-0.12504137
90	0xbf0e8b15	-0.5568097
91	0x3d744fa1	0.059646253
92	0x3c517f36	0.012786677
93	0xbeaf5de6	-0.34251326
94	0xbebe6a6f	-0.37190577
95	0x3e9f4978	0.3111074
96	0xbea5f08c	-0.32410085
97	0xbef1ebca	-0.47250205
98	0xbedd3ca6	-0.43210334
99	0xbde4051f	-0.11133789
100	0x3eb43531	0.35196832
101	0xbed1615a	-0.40894586
102	0x3d102860	0.035194755
103	0xbf12d440	-0.5735512
104	0xbea0ba5f	-0.3139219
105	0xbe70be70	-0.23510146
106	0xbe74bf00	-0.23900986
107	0xbdf4fae5	-0.11961917
108	0xbdbcbfbc	-0.09216258
109	0x3e1b39c1	0.1515875
110	0xbed8ff45	-0.42382255
111	0x3e87476c	0.26421678
112	0x3e7b770f	0.24557136
113	0xbcf00da0	-0.029303372
114	0x3e36e94b	0.17862432
115	0x3d86f31e	0.0658934
116	0xbe0dd809	-0.13851942
117	0xbe574af4	-0.21024686
118	0xbeb3f9e6	-0.35151595
119	0xbed24fcd	-0.41076508
120	0xbf04dd4b	-0.51900166
121	0x3ea535c8	0.32267594
122	0xbe81dda4	-0.2536441
123	0xbd6ac9ca	-0.057321347
124	0x3e974ad8	0.2954929
125	0xbe6d4370	-0.23170257
126	0xbe319360	-0.17341375
127	0xbed0cb16	-0.40779942
128	0x3e8c654a	0.27421027
129	0xbc60ac6c	-0.013712984
130	0xbef64a42	-0.4810353
131	0x3edc97c4	0.43084538
132	0x3ddf465a	0.1090209
133	0x3c504d7d	0.012713787
134	0xbda9fd47	-0.08300262
135	0xbe0d47a9	-0.13796867
136	0xbe71631a	-0.2357296
137	0x3da281ca	0.079349115
138	0xbeacccb1	-0.33749917
139	0xbe38abf6	-0.18034348
140	0xbed9dc85	-0.42551056
141	0x3b14aaa1	0.002268471
142	0xbd5528f6	-0.052041017
143	0x3e105657	0.14095436
144	0x3d102840	0.035194635
145	0xbe801b68	-0.2502091
146	0xbeac01b6	-0.33595055
147	0xbe75bce0	-0.23997831
148	0xbdf2e6b0	-0.118604064
149	0xbea3b08a	-0.31970626
150	0xbcfd6ab9	-0.030934678
151	0xbe2193d0	-0.15779042
152	0xbf064a3e	-0.52457035
153	0x3e788234	0.24268419
154	0x3e80629e	0.2507524
155	0xbd94a8e4	-0.07258776
156	0x3e3901af	0.18067048
157	0xbe7a78ec	-0.2446019
158	0x3ed8901d	0.4229745
159	0x3e787ed0	0.24267125
160	0xbe7bf77f	-0.24606131
161	0x3ea0b3b4	0.31387103
162	0xbe86a93e	-0.26300997
163	0x3e51023a	0.20411006
164	0x3eae8b98	0.34090877
165	0xbd04ecae	-0.032452278
166	0x3e28bff6	0.16479477
167	0xbe0c674c	-0.1371128
168	0xbd91ed1b	-0.071253024
169	0x3ec58a1e	0.38581938
170	0xbeb7704a	-0.35827857
171	0xbf06a863	-0.5260069
172	0x3d081a8a	0.033228435
173	0x3d887c56	0.0666434
174	0x3e8e2af9	0.2776716
175	0xbe30dece	-0.17272493
176	0x3ec32412	0.38113457
177	0xbd83bc0d	-0.06432352
178	0xbe1baedd	-0.15203424
179	0xbe7a5f1d	-0.24450345
180	0x3d9785f4	0.073985964
181	0x3e94455f	0.28959176
182	0xbcdd08e0	-0.026981771
183	0xbbb99909	-0.005663995
184	0xbcee56b9	-0.029094087
185	0x3cf4a375	0.029863099
186	0x3e040f1c	0.12896389
187	0x3ef0d09c	0.47034156
188	0xbe2355e0	-0.15950727
189	0xbec02126	-0.3752529
190	0xbee68796	-0.4502532
191	0xbe8f84ac	-0.28030908
192	0xbe6b5500	-0.22981644
193	0xbe2484ab	-0.16066234
194	0x3dff76e6	0.1247385
195	0x3e30ef25	0.17278726
196	0x3eba1257	0.36342117
197	0x3de6e22e	0.11273609
198	0x3ed3e127	0.41382715
199	0x3e376473	0.17909412
200	0x3e9adf2d	0.30248395
201	0xbeff015a	-0.4980572
202	0xbea287f4	-0.3174435
203	0xbf028af0	-0.5099325
204	0xbeb227aa	-0.34795886
205	0xbe515849	-0.20443834
206	0xbea57ab0	-0.32320166
207	0xbe26b124	-0.16278511
208	0x3d04d75d	0.03243195
209	0xbdd215ee	-0.10258089
210	0xbee94986	-0.45563906
211	0x3e955136	0.29163522
212	0x3c620f3a	0.013797576
213	0xbe005a8e	-0.12534544
214	0x3d7f079e	0.062263124
215	0xbe084ef3	-0.13311367
216	0xbebc136c	-0.36733568
217	0x3d298716	0.041388594
218	0xbdb361f3	-0.08758917
219	0xbe9d3d2b	-0.3071073
220	0xbe586a33	-0.21134262
221	0x3e765b28	0.24058211
222	0xbe8648ac	-0.2622732
223	0xbea9dd1e	-0.33176512
224	0x3e6bc8bf	0.23025797
225	0x3e697481	0.22798349
226	0x3e913e37	0.2836778
227	0xbd3cee30	-0.04612559
228	0xbed8c830	-0.4234023
229	0xbdd8e19a	-0.10589905
230	0xbef7e78d	-0.48418847
231	0x3e931a6e	0.28731102
232	0x3cc1b9d9	0.02364819
233	0xbce64b97	-0.028112216
234	0x3d9975a8	0.07493144
235	0x3eab97be	0.33514208
236	0x3d385852	0.045006104
237	0xbeb9f8fc	-0.36322773
238	0xbe926090	-0.28589296
239	0xbdbd49b1	-0.09242571
240	0xbedcab2e	-0.4309935
241	0x3e0cf2fa	0.13764563
242	0xbdb8f6e8	-0.09031469
243	0x3e871f03	0.26390848
244	0xbef89f02	-0.48558813
245	0xbdab68f8	-0.083696306
246	0x3e3bd0eb	0.18341415
247	0x3e547039	0.20745935
248	0xbdfe9d30	-0.12432325
249	0xbede7318	-0.43447185
250	0x3ea9ecf4	0.33188593
251	0xbec17800	-0.37786865
252	0xbea6873d	-0.32525054
253	0xbcc682e0	-0.024232328
254	0x3eabcfc9	0.33556965
255	0xbe25a440	-0.16175938

fc2.weight f4 [256, 256]
0	0xbe880ee7	-0.2657387
1	0x3dad2fe8	0.08456403
2	0x3d250c5b	0.040294986
3	0x3d6f0636	0.058355533
4	0xbaf712a6	-0.0018850162
5	0xbce72076	-0.02821372
6	0xbd284738	-0.041083544
7	0xbdd717db	-0.10502597
8	0x3da8d761	0.08244205
9	0xbba89010	-0.0051441267
10	0xbda10f49	-0.078642435
11	0x3d22b810	0.039726317
12	0x3e6b9fbc	0.23010153
13	0xbd2b505a	-0.041824676
14	0xbe284334	-0.16431886
15	0xbde2c852	-0.11073364
16	0xbae871c2	-0.0017734098
17	0x3c3f5d56	0.011679968
18	0xbcb89f1a	-0.022536803
19	0x3e16cdce	0.14726946
20	0x3d3b7766	0.045768164
21	0xbe7786aa	-0.24172464
22	0x3dc773af	0.09738862
23	0x3d050854	0.032478645
24	0xbd45c786	-0.048285984
25	0x3dca3e07	0.09875112
26	0xbd19d858	-0.037559837
27	0xbe11fd46	-0.14256772
28	0xbc33aaa1	-0.010965974
29	0xbdc3ddeb	-0.09563812
30	0xbd15ee11	-0.03660399
31	0xbcbb3b20	-0.022855341
32	0xbca36260	-0.01994437
33	0xbe78fbb4	-0.24314767
34	0xbc84918c	-0.016182683
35	0x3d7742c6	0.060366414
36	0xbe5a6f79	-0.21331586
37	0xbd9ffb7a	-0.07811637
38	0xbcf02dbd	-0.029318685
39	0xbd40432e	-0.046939068
40	0xbe96c7d8	-0.29449344
41	0xbd788c96	-0.06068095
42	0x3d423dd7	0.047422256
43	0x3dbed0f4	0.093171984
44	0xbd0922c0	-0.033480406
45	0xbd385068	-0.044998556
46	0x3e0e2148	0.13879883
47	0xbd1ceb08	-0.03831008
48	0xbdbd156d	-0.09232602
49	0x3c361cab	0.011115233
50	0xbe507aab	-0.20359294
51	0x3e3724a2	0.17885068
52	0x3caf8a58	0.021428272
53	0xbe5ff45e	-0.21870562
54	0xbd07f145	-0.033189077
55	0xbe0f0131	-0.13965298
56	0xbcb88042	-0.022522096
57	0xbd0b64b4	-0.034031585
58	0x3cc14558	0.023592636
59	0x3e088fa0	0.13336039
60	0x3e1001de	0.14063212
61	0xbbed6b60	-0.007245466
62	0x3e397860	0.18112326
63	0xbea7dbce	-0.32784885
64	0xbdb9c357	-0.09070461
65	0x3e0b90b0	0.13629413
66	0x3d5ef9b6	0.05443736
67	0xbcf37c58	-0.029722378
68	0xbd307cbc	-0.043087706
69	0xbd762e12	-0.06010253
70	0x3c8cfac8	0.017209426
71	0x3cb64106	0.022247802
72	0xbbf38320	-0.007431403
73	0x3d6fb502	0.058522232
74	0x3b1bd5a0	0.0023778453
75	0xbdc9761f	-0.09836983
76	0xbe850c4c	-0.25985944
77	0x3cc0c030	0.023529142
78	0xbc525e57	-0.012839875
79	0x3d61f626	0.055166386
80	0x3d5d92de	0.05409514
81	0xbc0daffb	-0.008647914
82	0xbd91d12d	-0.07119975
83	0xbe8beb18	-0.273278
84	0x3ca67aec	0.020322286
85	0x3c6042a0	0.01368776
86	0x3e2c79d2	0.16843346
87	0x3e09f4bd	0.13472266
88	0xbd38e8ea	-0.045144
89	0xbc5768e8	-0.01314757
90	0x3df4cc13	0.119529866
91	0xbd139c45	-0.036037702
92	0xbec4b86d	-0.38421956
93	0xbc195fe8	-0.009361245
94	0xbba3f1d0	-0.0050031915
95	0x3c9dcee4	0.019263692
96	0x3d00840e	0.031375937
97	0xbd90c90e	-0.07069598
98	0xbd7fec3a	-0.062481143
99	0x3d127ee4	0.035765544
100	0xbe07970c	-0.13241214
101	0xbc8e171c	-0.017345004
102	0xbc271e70	-0.010200128
103	0xbd31bcbb	-0.043392878
104	0x3cfb74ad	0.030695284
105	0xbc5fac00	-0.013651848
106	0xbbc5dac0	-0.00603804
107	0x3c43da10	0.011953846
108	0xbd7c630c	-0.061617896
109	0x3b566bb7	0.0032718012
110	0x3da0e6dd	0.07856534
111	0xbc696a6c	-0.014246564
112	0xbde919ab	-0.11381849
113	0xbd716f8e	-0.058944277
114	0xbe196eeb	-0.14983718
115	0xbdecee3d	-0.11568878
116	0x3d39509b	0.045242887
117	0xbd5db4b0	-0.054127395
118	0x3d55dbee	0.052211694
119	0x3d78e1de	0.06076228
120	0x3da47715	0.080305256
121	0x3c2f187f	0.010686993
122	0x3d493142	0.04911924
123	0x3e08977b	0.13339035
124	0xbd53b679	-0.05168769
125	0xbc8377a8	-0.016048267
126	0xbce1bbd4	-0.027555384
127	0x3d36785c	0.044548377
128	0xbd79f400	-0.061023712
129	0x3c2454f0	0.010030016
130	0x3d42bd0a	0.047543563
131	0x3d1ab5f7	0.03777119
132	0xbe2b9256	-0.16755041
133	0xbe08f175	-0.13373359
134	0x3b97c476	0.0046315743
135	0xbe96bc97	-0.29440758
136	0x3bcb003d	0.0061950968
137	0xbdd192ed	-0.10233102
138	0xbdb742a1	-0.08948255
139	0x3c47b022	0.012187989
140	0xbde1ce98	-0.11025733
141	0xbe129a45	-0.14316662
142	0xbd757940	-0.059930086
143	0xbdfb0a9e	-0.122578844
144	0xbd7c15f8	-0.06154439
145	0x3c7a6ea8	0.015285172
146	0xbc7b0ca0	-0.015322834
147	0x3d564754	0.052314118
148	0xbd07bdb2	-0.033139892
149	0x3cf5a6ac	0.029986702
150	0x3cf590ce	0.029976275
151	0x3d227622	0.03966344
152	0x3c24ce9f	0.010059028
153	0xbd7b97b4	-0.061423972
154	0x3c96f9b3	0.018429613
155	0xbe464f92	-0.19366291
156	0xbc402937	-0.011728576
157	0xbcc25e5c	-0.023726635
158	0x3e0b9b95	0.13633569
159	0x3ce2e8a0	0.027698815
160	0xbdb06423	-0.086128496
161	0xbdb19ff2	-0.08673085
162	0x3cf9090c	0.030399822
163	0xbd800c77	-0.062523775
164	0xbe4c710a	-0.19964996
165	0x3e0c2897	0.13687359
166	0x3d44e297	0.048067655
167	0x3cc9ef9c	0.024650387
168	0xbce91a34	-0.028454877
169	0xbdc8942b	-0.09793886
170	0x3d31d49c	0.04341565
171	0x3df698a8	0.120408356
172	0xbd7319fd	-0.059350956
173	0xbbd58c86	-0.006516996
174	0x3e7590f1	0.23981072
175	0xbcef9e93	-0.029250419
176	0xbe25f738	-0.16207588
177	0x3e4737d9	0.19454898
178	0x3cc8c24c	0.02450671
179	0xbc6e6c75	-0.014552225
180	0xbd07fb29	-0.03319851
181	0xbd2b6709	-0.04184631
182	0x3c75cb90	0.015002146
183	0xbdcf2216	-0.10113923
184	0xbdd80b38	-0.10549015
185	0x3daa5845	0.08317617
186	0xbcc5100e	-0.024055507
187	0xbc08c63e	-0.008348046
188	0xbd688c48	-0.056774408
189	0x3c77e227	0.0151296025
190	0xbd22752e	-0.039662533
191	0x3d497eb6	0.049193107
192	0x3ddfddf7	0.10931008
193	0xbc87fc62	-0.016599838
194	0xbd18a760	-0.037268996
195	0xbe2a9e2b	-0.16661899
196	0xbd135973	-0.035973977
197	0xbd8c7008	-0.06857306
198	0x3d281808	0.041038543
199	0x3e4a8d4c	0.19780463
200	0xbdbbfcc6	-0.09179072
201	0x3d1b0722	0.0378486
202	0xbdff218e	-0.12457572
203	0x3d2359fb	0.039880734
204	0x3d10a8c4	0.035317197
205	0xbdceab4c	-0.10091266
206	0xbcc7a6ec	-0.024371587
207	0x3d4a6d3c	0.04942058
208	0x3d30b0e4	0.043137446
209	0xbdc4af76	-0.09603779
210	0x3c3faea0	0.011699349
211	0xbcbc303c	-0.022972219
212	0xbbd5baa0	-0.0065224916
213	0xbe26dbd6	-0.16294798
214	0xbd0bf860	-0.034172416
215	0xbbd724cb	-0.0065656654
216	0xbce52240	-0.027970433
217	0xbdbaf23b	-0.09128233
218	0xbac91d8d	-0.001534389
219	0xbd3753ee	-0.044757776
220	0x3d13695a	0.035989143
221	0xbc11ea68	-0.008905984
222	0xbc9dfaec	-0.019284688
223	0xbd9e68e5	-0.07734851
224	0xbe408d28	-0.18803847
225	0xbd38ccf2	-0.045117326
226	0xbdbace5b	-0.091213904
227	0x3c3918a8	0.011297382
228	0x3d6c98c8	0.05776289
229	0xbbac5207	-0.005258802
230	0x3da76c50	0.08174956
231	0x3d83d6f3	0.06437483
232	0x3d3f55b5	0.046712596
233	0xbe0b8e7f	-0.13628577
234	0x3d6ad0a6	0.05732789
235	0xbdef681b	-0.116897784
236	0xbe53fa21	-0.20700885
237	0xbadc68c0	-0.0016815886
238	0x3c892da2	0.016745392
239	0xbdd4e17a	-0.10394569
240	0xbcadf35c	-0.021234207
241	0x3d7eb865	0.06218757
242	0x3d51bcea	0.051205553
243	0xbb027223	-0.0019904457
244	0x3d46b8fa	0.04851625
245	0x3c6a9a78	0.014319055
246	0xbbfd104f	-0.0077228914
247	0x3db9b464	0.0906761
248	0x3c4ae440	0.012383521
249	0xbd62d238	-0.05537626
250	0xbc923cb5	-0.017851213
251	0x3cd122d0	0.025529295
252	0xbe0322fa	-0.12806311
253	0x3d23b746	0.039969705
254	0x3c52583b	0.012838419
255	0x3d430e40	0.04762101

fc2.bias f4 [256]
0	0xbbd33e1a	-0.006446612
1	0x3b5261b5	0.0032101695
2	0xbdc1b61f	-0.09458565
3	0xbdbaed6c	-0.09127316
4	0xbdbeb586	-0.093119666
5	0xbcbef387	-0.023309482
6	0xbbbd9fd3	-0.005786875
7	0x3d48d63f	0.049032446
8	0xbcf4d5a4	-0.029887028
9	0xbc588cf8	-0.013217203
10	0xbce8b67b	-0.028407326
11	0x3d33773d	0.043814886
12	0xbdd6ae39	-0.10482449
13	0xbc6b6ab3	-0.014368701
14	0xbdcde374	-0.10053149
15	0xbc20d639	-0.0098167
16	0xbcc92fd0	-0.024558932
17	0xbd0a63f5	-0.033786733
18	0xbd84def9	-0.06487841
19	0xbdc195ea	-0.09452422
20	0x3c8831c0	0.016625285
21	0x3cd05657	0.025431795
22	0xbcb83c18	-0.022489592
23	0x3d07c9dd	0.033151496
24	0xbd9b883e	-0.075943455
25	0xbde01dce	-0.10943185
26	0xbd034b1b	-0.032054048
27	0x3d4cc83e	0.049995653
28	0xbdf8d65a	-0.12150259
29	0xbcb6c488	-0.02231051
30	0xbd33f03a	-0.04393027
31	0x3ca6f179	0.020378815
32	0x39e3a326	0.0004341837
33	0xbe00b1ca	-0.12567821
34	0xbc82a787	-0.015949024
35	0xbdc30efe	-0.09524344
36	0xbd3ed2cf	-0.04658776
37	0xbc7e1f18	-0.015510343
38	0xbc5ab22a	-0.013348142
39	0xbde069f0	-0.10957706
40	0xbd86e4b3	-0.0658659
41	0xbd8c0139	-0.06836171
42	0x3e057120	0.13031435
43	0x3cb007f7	0.021488173
44	0xbd48a3f4	-0.048984483
45	0xbcb72665	-0.022357175
46	0xbccd096f	-0.025028912
47	0x3cedd639	0.029032813
48	0x3cdf6684	0.027270563
49	0xbccb265e	-0.024798568
50	0xbd6ca37b	-0.057773095
51	0xbaf9e0c0	-0.0019064173
52	0xbcb4aba6	-0.022054505
53	0xbda3a21e	-0.07989906
54	0xbdbab922	-0.091173425
55	0xbdb3ffc0	-0.08789015
56	0xbdb7de3a	-0.08977933
57	0xbd1de6ed	-0.038550306
58	0xbd00cca9	-0.03144518
59	0xbe22ba9a	-0.15891495
60	0xbbef72cb	-0.0073073856
61	0xbd8b41e2	-0.067996755
62	0xbd4f4287	-0.050600555
63	0x3cb79750	0.022411019
64	0x3cec789f	0.02886611
65	0x3d1e32a9	0.038622532
66	0xbd3a797c	-0.045526013
67	0xbd9403db	-0.07227298
68	0xba824100	-0.0009937584
69	0xbb820129	-0.0039674235
70	0x3c62d63f	0.013845026
71	0xbcd9b9c2	-0.026577834
72	0xbdd01020	-0.101593256
73	0xbd41c91f	-0.047310945
74	0xbd410a48	-0.047128946
75	0xbde5aa18	-0.112140834
76	0x3c7fc7b6	0.01561158
77	0x3c9adb90	0.018903524
78	0xbd0eab4b	-0.034831326
79	0xbbdb52d0	-0.0066932216
80	0x3cb1a9fd	0.021687502
81	0xbd5359d8	-0.051599354
82	0xbd60d618	-0.054891676
83	0xbd88a9a3	-0.06672981
84	0xbb941c1c	-0.0045199525
85	0xbb420a09	-0.0029608032
86	0xbdd55466	-0.10416488
87	0x3d8c8666	0.06861572
88	0xbc4eaee5	-0.01261494
89	0xbc17dc1f	-0.00926879
90	0xbbd8127a	-0.0065939995
91	0xbd7086b5	-0.058722217
92	0xbb8990b1	-0.0041981568
93	0xbda8a4cf	-0.0823456
94	0xbd227122	-0.039658673
95	0x3c36a688	0.011148103
96	0xbd41b95c	-0.047295913
97	0x3bfc0dab	0.007692059
98	0x3d32ee24	0.04368414
99	0xbbde79e3	-0.0067894324
100	0xbdf0867a	-0.11744399
101	0xbd130683	-0.035894882
102	0xbb845d2d	-0.0040394277
103	0x3c0bf980	0.008543372
104	0xbc9995fc	-0.018748276
105	0xbdc43c8a	-0.095818594
106	0x3c8537a4	0.016261883
107	0xbdcb3cbe	-0.09923695
108	0xbe0392ef	-0.1284902
109	0x3d63b406	0.055591606
110	0xbd03436f	-0.03204673
111	0x3d7c84a3	0.06164993
112	0xbdc32ebb	-0.095303975
113	0xbda25e27	-0.079281144
114	0xbd10a004	-0.035308853
115	0xbcce3084	-0.025169618
116	0xbd900693	-0.07032504
117	0xbbb72600	-0.0055892467
118	0x3e2abb17	0.16672932
119	0xbceaeb21	-0.028676571
120	0xbd5f25f8	-0.05447957
121	0xbdac5696	-0.084149525
122	0xbd57b256	-0.05266031
123	0x3dc7a0f5	0.09747497
124	0x3cc33c24	0.023832388
125	0x3de23bf0	0.110465884
126	0xbd23c22e	-0.039980106
127	0x3cc19335	0.023629764
128	0xbd5dc9f6	-0.054147683
129	0xbd0b3679	-0.033987496
130	0xbd0e96f1	-0.034811918
131	0xbc3a3ea8	-0.0113674775
132	0xbd85731b	-0.06516095
133	0xbd3a2e52	-0.04545433
134	0xbd73e325	-0.059542794
135	0x3e483bea	0.19554105
136	0x3ca422ce	0.020036127
137	0xbd627342	-0.0552857
138	0xbcf7d9e2	-0.030255262
139	0xbe159b29	-0.1460997
140	0xbbb5fdab	-0.005553921
141	0xbcff4658	-0.031161472
142	0x3d5f158b	0.054463904
143	0xbd8fcd6a	-0.070216015
144	0xbdd79035	-0.10525552
145	0xbd94f42f	-0.07273137
146	0xbdc4b7f6	-0.096054
147	0xbda87069	-0.082245655
148	0xbc85b708	-0.016322628
149	0xbd133f6a	-0.03594915
150	0x3b176d62	0.0023105969
151	0xbcb311d7	-0.021859093
152	0xbe0add19	-0.13560905
153	0xbd37986e	-0.044823103
154	0xbda8bf5b	-0.08239623
155	0xbc9d83c6	-0.019227874
156	0x3ddeb6b4	0.108746916
157	0xbdf54aa3	-0.119771264
158	0xbdddb3a2	-0.10825278
159	0xbd795599	-0.060872648
160	0xbdb27b79	-0.08714957
161	0x3aba4f80	0.0014214367
162	0xbca59784	-0.02021385
163	0xbd061d69	-0.03274289
164	0xbca7cc88	-0.02048327
165	0xbd5cc508	-0.05389884
166	0xbbb97850	-0.0056600943
167	0xbdd0dab2	-0.10197963
168	0xbd60df4c	-0.054900452
169	0x3df52b4c	0.11971149
170	0x3cf481c2	0.02984703
171	0xbd09a55a	-0.033604957
172	0x3a90932f	0.0011030192
173	0xbdcd4ce3	-0.100244306
174	0xbce5f0e1	-0.028068962
175	0xbd21945a	-0.03944812
176	0xbdb53a25	-0.08848981
177	0xbc5c45d7	-0.0134443855
178	0x3c985ab0	0.01859793
179	0x3c930d6b	0.017950734
180	0x3d6b574b	0.057456296
181	0x3dd3750b	0.103250585
182	0xbde1d713	-0.1102735
183	0x3cbf613f	0.0233618
184	0x3d864d1a	0.06557675
185	0xbca69d5c	-0.020338707
186	0xbd498355	-0.049197514
187	0xbd4821a1	-0.048860196
188	0xbd673c5c	-0.056454048
189	0xbcef3a01	-0.029202463
190	0xbe016fd2	-0.12640312
191	0xbda14fe7	-0.07876568
192	0xbcf850c3	-0.030311948
193	0x3b84f779	0.0040578214
194	0xb7a18b53	-1.9257574e-05
195	0xbd8501cf	-0.064944856
196	0x3dcf05f2	0.10108556
197	0xbd0ba0c5	-0.03408887
198	0xbd1b5405	-0.037921924
199	0x3d8bda5c	0.06828758
200	0xbd573ff9	-0.052551243
201	0xbd6d5962	-0.05794657
202	0xbb97ee30	-0.0046365485
203	0xbd8d8879	-0.06910796
204	0xbd8b8a5b	-0.068134986
205	0xbce0b238	-0.027428731
206	0xbdefe6a7	-0.11713915
207	0x3de7bb57	0.11315029
208	0x3d74989a	0.059715845
209	0xbdcbd24e	-0.09952222
210	0xbde09ddd	-0.1096761
211	0x3ccbf325	0.024896214
212	0x3d05d44d	0.03267317
213	0xbd46a02b	-0.04849259
214	0xbdc3c990	-0.09559929
215	0x3e259cf8	0.1617316
216	0x3d32878d	0.043586303
217	0xbe0e714d	-0.13910408
218	0x3b418b5e	0.0029532532
219	0x3d1178c5	0.035515565
220	0xbd301bb8	-0.042995185
221	0xbd059fae	-0.032622986
222	0xbd6c0087	-0.05761769
223	0xbdcc2281	-0.099675186
224	0x3c5b9ca3	0.013404044
225	0xbc8f6619	-0.017504739
226	0xbd9209b2	-0.071307555
227	0x3c96df89	0.018417137
228	0xbd033505	-0.032032985
229	0xbd2f83be	-0.04285025
230	0x3d43bb19	0.047785852
231	0xbd269e5f	-0.04067838
232	0xbd19be60	-0.03753507
233	0xbdf1b757	-0.118025474
234	0x3c2b77f8	0.0104656145
235	0x3e454bbb	0.1926717
236	0xbd91a9dc	-0.07112476
237	0xbd545100	-0.05183506
238	0xbd891986	-0.06694321
239	0xbd3e09b4	-0.046395972
240	0xbe19871b	-0.14992945
241	0xba8d8f05	-0.001080007
242	0xbd3d2307	-0.046175983
243	0x3b73199a	0.0037094117
244	0xbd34a625	-0.04410376
245	0xbd76d3d5	-0.060260613
246	0x3ca2fe0c	0.01989653
247	0xbd0f05ac	-0.03491752
248	0xbde2dae4	-0.11076906
249	0xbda845fa	-0.08216472
250	0xbd00ab33	-0.03141327
251	0xbdbe44bf	-0.09290456
252	0xbd123641	-0.03569627
253	0x3c8fc6b4	0.017550804
254	0x3da225f8	0.07917398
255	0xbc9f8c1c	-0.019475989

fc3.weight f4 [256, 256]
0	0xbda88dfb	-0.082302056
1	0xbba2ab54	-0.0049642716
2	0x3de43da1	0.11144567
3	0xbd031ba2	-0.032008775
4	0x3d16be1d	0.0368024
5	0x3df66cfa	0.120325044
6	0xbb5db1e5	-0.0033827957
7	0xbce00eed	-0.027350867
8	0xbd798de0	-0.06092632
9	0x3d69c562	0.057073005
10	0x3e01c771	0.12673737
11	0xbd7d6bcb	-0.061870378
12	0x3dcd4ddf	0.10024618
13	0x3df7f51b	0.12107297
14	0xbd8dcefa	-0.06924243
15	0xbd97d82e	-0.0741428
16	0xbc46724f	-0.012112214
17	0xbdaedbfa	-0.08538051
18	0x3d3dc166	0.046327017
19	0x3da6bacc	0.081410974
20	0x3ca0db18	0.019635722
21	0xbcdee462	-0.02720851
22	0xbc8c22fc	-0.017106526
23	0x3c161dca	0.009162376
24	0x3baaf8d4	0.005217651
25	0x3d610255	0.054933865
26	0x3d94a60c	0.072582334
27	0x3d63b254	0.05558999
28	0x3d1b7ed4	0.03796275
29	0x3c5f615a	0.01363405
30	0x3a12cb12	0.0005599718
31	0x3d1912e6	0.03737154
32	0xbcfa02b6	-0.03051887
33	0x3d2499c6	0.040185712
34	0x3de7198c	0.112841696
35	0xba245981	-0.00062694406
36	0x3d93f682	0.07224752
37	0xbd024b88	-0.031810313
38	0xbdb11efa	-0.086484864
39	0x3d84c85a	0.064835265
40	0xbc965bce	-0.018354323
41	0xbd36fe04	-0.044675842
42	0x3cbf90e1	0.023384513
43	0xbda73a50	-0.08165419
44	0x3d9c8ba8	0.07643825
45	0x3d190e5c	0.03736721
46	0xbda250c4	-0.07925561
47	0xbd71cc69	-0.05903283
48	0xbcb1407c	-0.021637194
49	0x3dec9622	0.11552073
50	0x3dcc29dd	0.09968922
51	0x3d666b98	0.056254953
52	0xbb61c7c0	-0.0034451336
53	0x3daeb262	0.085301176
54	0xbd3d437e	-0.046206944
55	0x3be1c093	0.0068894117
56	0xbcf7df2a	-0.03025778
57	0xbdbb0963	-0.0913265
58	0xbd720b60	-0.05909288
59	0x3d22335a	0.039599754
60	0x3d082e06	0.033247016
61	0xbd977dbc	-0.07397029
62	0xbd45ad8a	-0.048261203
63	0x3d25a590	0.040441096
64	0xbc668582	-0.014069917
65	0xbc6c63a8	-0.014428057
66	0xbcd9f1ec	-0.026604615
67	0xbd35a700	-0.044348717
68	0xbd7c39bc	-0.061578497
69	0x3d6e10b7	0.05812141
70	0xbd6a3730	-0.057181537
71	0x3cdd28ea	0.026997048
72	0xbd4c39cb	-0.049859803
73	0xbd2f00d2	-0.04272539
74	0xbcb4aec7	-0.022055997
75	0x3a7b0f5d	0.00095771794
76	0x3d74b8cc	0.05974655
77	0xbc8888b8	-0.016666755
78	0x3c49628f	0.012291565
79	0xb88eaf92	-6.80379e-05
80	0xbd853987	-0.06505113
81	0xbd75d562	-0.06001795
82	0xbd710d70	-0.058850706
83	0x3ba3e95f	0.0050021852
84	0x3df06ea8	0.11739856
85	0xbbc26799	-0.00593276
86	0x3c6f412a	0.014602939
87	0xbd86686e	-0.06562887
88	0xbd0536b8	-0.032522887
89	0x3ce1ab9f	0.027547656
90	0x3d5f265a	0.054479934
91	0xbc42bba9	-0.011885562
92	0xbd246fed	-0.040145803
93	0x3d48511e	0.048905484
94	0xbd580a44	-0.052744165
95	0xbcd9df98	-0.026595876
96	0x3df03988	0.11729723
97	0x3cf20c56	0.029546898
98	0xbd9c8f76	-0.076445505
99	0xbcf9ca66	-0.030492019
100	0xbd15d29e	-0.036577813
101	0xba0905f4	-0.00052270223
102	0x3ce6f52c	0.028193079
103	0xbd34e5e0	-0.04416454
104	0x3c642fe8	0.013927437
105	0xbde40758	-0.11134213
106	0xbc985de9	-0.018599467
107	0x3df85c98	0.12127036
108	0x3d09cecc	0.033644482
109	0x3c48e65b	0.012261952
110	0x3d81d5d6	0.06339614
111	0xbd90af50	-0.07064688
112	0x3b31bb06	0.0027119531
113	0xbbfcc9fa	-0.007714507
114	0x3bbd2417	0.0057721245
115	0xbd3c4ce0	-0.04597175
116	0x3d5c1eae	0.053740196
117	0xbb35b4e0	-0.0027726218
118	0xbd339dce	-0.043851666
119	0xbd40563c	-0.04695724
120	0xbd6d4718	-0.05792913
121	0x3d31f228	0.04344383
122	0x3d9e8903	0.07740977
123	0x3c4761b2	0.0121692885
124	0x3d0a1e00	0.033720016
125	0xbdf1f2d6	-0.118138954
126	0x3ce52fab	0.027976831
127	0xbd37df95	-0.04489096
128	0x3babe74a	0.0052460777
129	0xbdb25a48	-0.08708626
130	0xbd76ee74	-0.060286
131	0x3d0194b1	0.031635944
132	0xbcf404ed	-0.029787505
133	0x3cdb6374	0.026780821
134	0x3dd4f3e9	0.10398085
135	0xbd503a62	-0.05083693
136	0xbd8470de	-0.0646684
137	0xbcc898fc	-0.024487011
138	0x3c29bb2e	0.0103595685
139	0x3d35ae35	0.04435559
140	0x3cf3b7c8	0.02975072
141	0xbd142e90	-0.036177218
142	0x3b3cc91c	0.0028806394
143	0xbdf0eaf6	-0.11763565
144	0x3988ab50	0.0002606758
145	0xbd626f36	-0.05528184
146	0xbdb4f77e	-0.08836268
147	0xbd7c1d76	-0.061551534
148	0xbcd29842	-0.025707368
149	0x3d42a720	0.047522664
150	0x3c7b0b45	0.015322511
151	0x3b14704a	0.0022649937
152	0x3d9999e7	0.07500058
153	0x3be46b15	0.006970773
154	0xbd94ea86	-0.07271294
155	0xbcad0461	-0.021120252
156	0xbd5b592d	-0.05355184
157	0x3d1641f8	0.036684006
158	0x3de4eb7f	0.1117773
159	0x3c454609	0.012040623
160	0x3c04dafd	0.0081088515
161	0x3cc0ad2c	0.023520075
162	0x3aa19e40	0.0012330487
163	0x3dbdff8b	0.092772566
164	0x3d2bd282	0.041948803
165	0xbc6cab70	-0.014445171
166	0xbcddfaa0	-0.027097046
167	0xbd815986	-0.06315903
168	0x3d5bafb2	0.053634353
169	0xbc0f4eae	-0.008746786
170	0xbd80a75f	-0.062819235
171	0xbb946100	-0.004528165
172	0xbd457cfc	-0.048214898
173	0x3d0ce138	0.034394473
174	0x3db8fae2	0.09032227
175	0x3cf4c061	0.02987689
176	0xbd6b4842	-0.057441957
177	0xbc9c78f5	-0.019100646
178	0x3d05b2d3	0.032641243
179	0x3cfdac06	0.030965816
180	0x3d0ab4b3	0.033863734
181	0x3c1e144b	0.009648393
182	0x3b88a690	0.0041702464
183	0xbd3851e3	-0.04499997
184	0xbd9ea6f1	-0.07746685
185	0x3d69c494	0.057072237
186	0x3c5003fe	0.012696264
187	0xbdaaa4ce	-0.08332215
188	0xbcc74678	-0.024325594
189	0xbd311d2b	-0.043240707
190	0x3daaf4e5	0.08347491
191	0x3c933847	0.017971171
192	0x3ce7298d	0.028218055
193	0xba7d0836	-0.00096524076
194	0xbd4f166d	-0.050558496
195	0x3d9abc2f	0.075554244
196	0xbd9054ed	-0.07047448
197	0x3cd43943	0.02590621
198	0xbde9d1e3	-0.11416986
199	0xbd53563f	-0.051595923
200	0x3da166bd	0.07880924
201	0xbd637f70	-0.055541456
202	0xbcde41f4	-0.027131058
203	0x3b3a1450	0.0028393455
204	0x3d3b839d	0.045779813
205	0x3c59c9f9	0.013292783
206	0x3d2cb8cb	0.04216842
207	0xba1ed968	-0.0006059618
208	0x3d33b626	0.043874882
209	0x3c368f67	0.011142588
210	0x3d4f1915	0.05056103
211	0xbd9d9b42	-0.07695629
212	0xbd669dd7	-0.05630287
213	0xbd3dccd6	-0.046337925
214	0xbdc30b6f	-0.09523665
215	0xbd8e72f5	-0.0695552
216	0xbde05649	-0.109539576
217	0x3c2adb00	0.01042819
218	0x3a1780d2	0.00057793886
219	0x3c8a9949	0.016918795
220	0x3c1d4d2f	0.0096009215
221	0x3de523d4	0.11188474
222	0xbb7d5195	-0.0038653363
223	0x3d48cf68	0.049025923
224	0x3b913da4	0.004432397
225	0x3dc2cf5d	0.09512208
226	0x3c2831eb	0.010265808
227	0xbd1f1080	-0.038834095
228	0x3dffef1d	0.12496779
229	0x3c6f01ec	0.014587861
230	0xbcd2c8db	-0.025730541
231	0xbcb3a09a	-0.021927167
232	0xbd78ec82	-0.060772426
233	0x3b290317	0.0025789195
234	0xbc3b8055	-0.011444171
235	0xbe025700	-0.127285
236	0x3c91c54e	0.017794278
237	0xbd79e5ab	-0.061010044
238	0x3d698821	0.05701459
239	0xbd29e3c1	-0.04147697
240	0x3cc54450	0.024080426
241	0xbde68370	-0.112555385
242	0xbdb7d8a5	-0.089768685
243	0x3d9f26b3	0.07771053
244	0xbd346890	-0.04404503
245	0xbc791f0f	-0.015205159
246	0xbd03326a	-0.0320305
247	0x3d18de2c	0.037321255
248	0xbd051a74	-0.03249593
249	0x3c5f51de	0.0136303585
250	0x3d4e5396	0.050372683
251	0xbbd05400	-0.00635767
252	0x3ce4d0d3	0.027931606
253	0x3d15ae4e	0.036543183
254	0x3cfc69bb	0.030812135
255	0xbce81b88	-0.02833344

fc3.bias f4 [256]
0	0xbc3feed4	-0.011714656
1	0xbd2ace67	-0.041700747
2	0x3dc0b21b	0.09408971
3	0xbcfab31f	-0.03060299
4	0x3d2ff018	0.04295358
5	0xbd66f63d	-0.056387175
6	0xbd35a0be	-0.04434275
7	0x3ea2bf5a	0.31786615
8	0xbde698bb	-0.112596
9	0xbde14975	-0.11000339
10	0xbd480b44	-0.04883887
11	0xbcbb7328	-0.02288206
12	0x3d2cb658	0.042166084
13	0xbdf5e1b7	-0.12005942
14	0xbda646c0	-0.08118963
15	0x3e204e7c	0.1565494
16	0xbd9a5d57	-0.075373344
17	0xbda8f773	-0.08250322
18	0x3db954e8	0.09049398
19	0x3e9857ef	0.29754588
20	0xbb03a2b7	-0.0020086
21	0xbd1cadf8	-0.038251847
22	0x3e2d5ba4	0.1692949
23	0xbbade461	-0.005306766
24	0xbd6d43a1	-0.057925824
25	0x3ddb8f1c	0.10720655
26	0xbdc16cac	-0.09444556
27	0x3c1e2045	0.009651248
28	0xbdaf533f	-0.085608
29	0xbd89c216	-0.06726472
30	0xbdb630b1	-0.08896006
31	0xbce7c46c	-0.028291903
32	0xb981aafd	-0.00024732194
33	0x3a216e1a	0.0006158069
34	0xbd99fd56	-0.07519023
35	0xbc4d5bd8	-0.012534104
36	0xbab8a690	-0.0014087725
37	0x3d369b9c	0.044581994
38	0xbcaa90bf	-0.020820973
39	0xbdf86556	-0.12128703
40	0xbdbabdb8	-0.09118217
41	0x3e4004c0	0.18751812
42	0x3bcf76ef	0.0063313167
43	0xbdd676b6	-0.10471861
44	0xbdc1abec	-0.094566196
45	0xbd8c20d1	-0.06842197
46	0xbe09f7ef	-0.13473485
47	0xbcbd090a	-0.0230756
48	0xbd02af3d	-0.0319054
49	0xbc508ad2	-0.01272841
50	0x3cf7b94f	0.03023973
51	0xbd3e5578	-0.046468228
52	0xbd3d6cec	-0.046246454
53	0xbd337cad	-0.043820072
54	0xbdd12229	-0.10211594
55	0xbdd9feef	-0.10644328
56	0xbd1abb1d	-0.0377761
57	0x3e19593b	0.14975445
58	0xbba92f6c	-0.005163124
59	0xbdb8db8f	-0.090262525
60	0xbdac7ee8	-0.08422643
61	0xbde99a1f	-0.114063494
62	0xbd858d9a	-0.06521149
63	0xbcdb19b9	-0.026745664
64	0xbdf4a4ab	-0.119454704
65	0xbe041f2d	-0.12902518
66	0xbd24bc35	-0.04021855
67	0xbdc82f6c	-0.0977467
68	0xbd070a8c	-0.032969043
69	0xbdbf6a8f	-0.09346496
70	0xbc4d3ffe	-0.012527464
71	0x3d2727b9	0.040809367
72	0x3dd819e3	0.105518125
73	0xbd28ef40	-0.04124379
74	0x3d3707c6	0.044685148
75	0xbd86cd43	-0.06582119
76	0xbd6fdfc7	-0.05856302
77	0x3c379e5f	0.011207192
78	0xbc8ac74a	-0.016940732
79	0xbd81a801	-0.06330872
80	0xbc8dc18f	-0.01730421
81	0xbd28d4b5	-0.04121848
82	0x3a05b466	0.0005100429
83	0xbde86319	-0.113470264
84	0xbd0af9c1	-0.03392959
85	0xbd8c55bf	-0.06852292
86	0xbdd3cdd3	-0.10341992
87	0xbce73cd9	-0.028227257
88	0xbe0d905d	-0.13824601
89	0xbb3a97ba	-0.0028471784
90	0xbd597bf5	-0.05309673
91	0x3e05a1b0	0.1304996
92	0x3d77ea24	0.06052603
93	0xbcab75d0	-0.0209302
94	0x3a097c12	0.0005244623
95	0x3eb529c1	0.35383418
96	0xbd6ff2bb	-0.058581095
97	0xbd1ce7a9	-0.038306866
98	0xbd9258d8	-0.07145852
99	0xbd6220fc	-0.055207238
100	0x3dce0662	0.10059811
101	0xbdf1072e	-0.117689475
102	0x3daaa1ff	0.083316796
103	0xbdb763e9	-0.08954603
104	0x3e29060d	0.16506214
105	0x3add05bd	0.0016862672
106	0xbda6f26c	-0.08151707
107	0xbdb73e1c	-0.08947393
108	0xbda09aea	-0.078420475
109	0xbd869d60	-0.06572986
110	0x3eb1b9ae	0.34711975
111	0xbd3cbad2	-0.046076603
112	0xbc507bc2	-0.012724819
113	0x3d858eb1	0.06521357
114	0xbdacace2	-0.08431412
115	0xbdb91af1	-0.09038342
116	0xbd958748	-0.073011935
117	0x3d3351f1	0.043779317
118	0x3db59596	0.08866422
119	0xbce31325	-0.02771909
120	0xbdc65bfa	-0.09685512
121	0x3ce8af69	0.028403955
122	0xbd87f297	-0.06638067
123	0xbd758ecf	-0.059950646
124	0xbdd0099d	-0.101580836
125	0xbc95351d	-0.018213803
126	0xbd6982f3	-0.05700965
127	0xbd57ecbc	-0.052716002
128	0xbdceebb0	-0.101035476
129	0xbd22bb8e	-0.039729647
130	0xbda91b18	-0.08257121
131	0xbd70112b	-0.058610123
132	0x3d113aa0	0.0354563
133	0xbd861a5a	-0.06547995
134	0x3b9e0fca	0.0048236595
135	0xbc9c6ce0	-0.019094884
136	0xbdecbdc2	-0.11559631
137	0x3b8ccaa8	0.0042966194
138	0x3b956f9a	0.004560423
139	0x3d52dfc5	0.051482935
140	0xbca5b013	-0.02022556
141	0xbd260564	-0.040532485
142	0xbd16ae72	-0.036787458
143	0xbdae320f	-0.08505642
144	0xbd54bed0	-0.051939785
145	0x3b4e5515	0.0031483818
146	0xbd2bbf8d	-0.041930724
147	0xbdc61185	-0.0967131
148	0x3e331ca4	0.17491394
149	0xbcd78ad3	-0.026311314
150	0xbdb22c38	-0.0869984
151	0xbd5bca71	-0.05365986
152	0xbd1d4a33	-0.03840084
153	0xbbb8042d	-0.005615732
154	0xbb3ce125	-0.002882072
155	0xbdf03e42	-0.11730625
156	0xbd15ec26	-0.03660216
157	0x3d842f4d	0.064543344
158	0xbd2fbf7a	-0.042907216
159	0xbd0e9daf	-0.034818348
160	0x3d91f276	0.07126324
161	0x3e5390c4	0.20660692
162	0x3c78b374	0.015179504
163	0xbc42a6f9	-0.01188063
164	0x3da1039f	0.07862019
165	0xbd0ffebc	-0.035155043
166	0xbc52d411	-0.012867943
167	0xbcbe844c	-0.023256443
168	0xbceb5d8a	-0.028731126
169	0xbd147cfd	-0.03625201
170	0xbd996e05	-0.07491688
171	0xbc8dd16b	-0.017311772
172	0xbd805071	-0.06265343
173	0x3dc88e81	0.097928055
174	0xbd7e9a58	-0.062158912
175	0xbdadd3a0	-0.0848763
176	0xbc10c153	-0.008835155
177	0xbd2f695b	-0.042825084
178	0x3d20fc51	0.039303128
179	0x3caeb913	0.021328485
180	0xbdac0579	-0.08399481
181	0xbdf65c17	-0.120292835
182	0x3ab00b00	0.0013431013
183	0x3c80fe84	0.015746363
184	0xbd618a92	-0.05506379
185	0xbd9d0f40	-0.07668924
186	0xbd7723ca	-0.060336865
187	0xbda6348d	-0.08115492
188	0xbddb8ddd	-0.10720418
189	0xbd82bcbb	-0.06383654
190	0xbd3e929b	-0.046526533
191	0xbdad975d	-0.08476136
192	0xbd3f7f52	-0.04675228
193	0xbdc78c94	-0.0974361
194	0x3c1cd490	0.009572163
195	0xbda23383	-0.07919981
196	0xbdd5803d	-0.1042485
197	0xbd91d57c	-0.07120797
198	0xbdd0d4be	-0.10196827
199	0xbc074466	-0.008256054
200	0x39f562f0	0.00046803756
201	0xbd276697	-0.04086932
202	0xbdb76b03	-0.08955958
203	0xbd7d48f1	-0.06183714
204	0xbcf79172	-0.03022072
205	0xbdf21233	-0.118198775
206	0xbd3d2337	-0.04617616
207	0xbdb7e0a3	-0.08978393
208	0xbdbb7ee5	-0.091550626
209	0xbd2a5a94	-0.04159029
210	0x3cc86bc6	0.024465453
211	0xbdc5654e	-0.09638463
212	0x3c2c9b4d	0.0105350735
213	0xbce3c690	-0.027804643
214	0xbd89c39a	-0.06726761
215	0xbcae2726	-0.021258902
216	0xbcd43d4d	-0.025908137
217	0xbc843770	-0.016139716
218	0x3e130a91	0.143595
219	0xbda20078	-0.07910246
220	0x3d19e2ad	0.03756969
221	0xbdb8a1fa	-0.090152696
222	0xbd22fb1e	-0.039790265
223	0x3e04742a	0.12934938
224	0xbd188809	-0.03723911
225	0xbce86e10	-0.028372794
226	0xbd9a6725	-0.075392045
227	0xbb96902e	-0.0045948243
228	0xbcca9003	-0.024726873
229	0xbe0e5859	-0.1390089
230	0x3e075b5c	0.13218445
231	0xbd6fee94	-0.058577135
232	0xbda11e30	-0.07867086
233	0xbc673da8	-0.014113821
234	0xbd5ce933	-0.053933334
235	0x3dc23224	0.0948222
236	0x3d69061c	0.056890592
237	0xbd38608a	-0.04501394
238	0xbc065e6b	-0.008201222
239	0x3e205a7e	0.1565952
240	0xbd6b2c63	-0.057415377
241	0x3e0be766	0.1366249
242	0x3d98fe4e	0.0747038
243	0xbd8f383d	-0.069931485
244	0xbdc81146	-0.0976892
245	0xbd1ca7a8	-0.038245827
246	0x3e4f5b3b	0.20249645
247	0x3d195ae1	0.037440185
248	0x3df5ad32	0.11995925
249	0xbd0819a4	-0.033227578
250	0xbd638bbb	-0.05555318
251	0xbd4db058	-0.050217003
252	0xbd090342	-0.033450373
253	0xbba77bed	-0.0051112087
254	0xbce5c793	-0.028049266
255	0xbdb24edf	-0.0870645

classifier.weight f4 [16, 256]
0	0x3a0157bb	0.00049340323
1	0xbd72ea1b	-0.05930529
2	0xbe8bdfee	-0.27319282
3	0xbd983649	-0.07432229
4	0xbdb39930	-0.087694526
5	0xbe0c0394	-0.1367324
6	0xbbff713d	-0.0077954815
7	0xbef25ef3	-0.47338066
8	0x3cbfef70	0.023429602
9	0xbd9c1454	-0.07621065
10	0x3ca4f244	0.020135053
11	0x3d791e64	0.06082
12	0x3dd889ed	0.10573182
13	0xbd827795	-0.06370465
14	0x3d99bc67	0.07506638
15	0xbe57a592	-0.21059254
16	0xbbba4fce	-0.005685783
17	0xbd794b0c	-0.060862586
18	0xbe89a123	-0.2688075
19	0xbe8e01fd	-0.27735892
20	0xbcf8da13	-0.030377423
21	0xbaac2e80	-0.0013136417
22	0xbf84e4a2	-1.0382273
23	0xbbb6170c	-0.0055569466
24	0x3d26234f	0.040561017
25	0x3dd1737a	0.102271035
26	0x3ddbd297	0.10733526
27	0xbdbe5e9e	-0.092953905
28	0x3cbb33a4	0.022851773
29	0x3aa81f13	0.0012826644
30	0x3dc6745e	0.09690164
31	0x3d72e6a0	0.059301972
32	0xbccbcfa2	-0.02487928
33	0xbc582247	-0.013191766
34	0xbd046558	-0.03232321
35	0x3d2a2de4	0.04154767
36	0x3cd8ccc8	0.026464835
37	0x3dcd9fba	0.10040231
38	0xbd346ab4	-0.044047073
39	0xbd8fd318	-0.07022685
40	0xbd2e1793	-0.04250295
41	0xbecfdf2f	-0.40599963
42	0x3e048770	0.1294229
43	0xbc8895f1	-0.01667306
44	0x3a9f262e	0.0012142116
45	0xbdc193de	-0.094520316
46	0x3b5c0149	0.0033570102
47	0x3d6fc98c	0.05854182
48	0x3d5c9c83	0.0538602
49	0x3cf9c970	0.03049156
50	0xbcdad94a	-0.02671494
51	0xbccb4d72	-0.024817202
52	0xbdb02625	-0.086010255
53	0x3c684db9	0.014178687
54	0x3d8da651	0.06916488
55	0xbdce8e08	-0.10085684
56	0x3d29dacc	0.041468427
57	0xbc8c4b9b	-0.017125895
58	0xbd923019	-0.0713808
59	0xbd6e271f	-0.058142778
60	0x3d11f4b6	0.035633765
61	0x3cd39ae0	0.025830686
62	0x3c48df6c	0.012260299
63	0xbd842407	-0.06452184
64	0x3c1be4ba	0.009514982
65	0xbcc7ff45	-0.024413714
66	0x3d178967	0.03699627
67	0x3b7bde86	0.0038432195
68	0xbcdd138c	-0.02698686
69	0x3d4d4799	0.05011711
70	0x3d989385	0.07450012
71	0xbe3e0dfe	-0.18560025
72	0xbe88f8b9	-0.2675226
73	0x3d88a70b	0.06672486
74	0x3de09d2c	0.10967478
75	0x3c977289	0.018487232
76	0x3dace1dd	0.084415175
77	0x3d4a4349	0.049380574
78	0xbe3abb84	-0.18235594
79	0x3d8998bc	0.06718585
80	0x3d74e21a	0.05978594
81	0x3dbe1e86	0.09283166
82	0xbd1deddf	-0.03855693
83	0xbddb55b9	-0.1070971
84	0xbe21ad7b	-0.15788834
85	0x3dd94c32	0.10610236
86	0x3d7d1be9	0.061794195
87	0xbdcbff6b	-0.099608265
88	0xbdb563ab	-0.08856901
89	0x3c3d62f9	0.011559241
90	0x3d6911e5	0.05690183
91	0xbe8470e4	-0.2586738
92	0x3de58080	0.1120615
93	0xbddb5eee	-0.10711466
94	0x3d977191	0.07394708
95	0xbf154a32	-0.5831634
96	0x3d02f638	0.031973094
97	0x3d8f8f98	0.0700981
98	0x3d03abc9	0.03214625
99	0xbcda46bb	-0.026645055
100	0xbd5efebd	-0.054442156
101	0xbdeb9e49	-0.115048
102	0x3dcab8d5	0.09898535
103	0x3d8593e1	0.06522346
104	0xbda2886a	-0.07936175
105	0x3dfb7abf	0.12279271
106	0x3d5e6fde	0.054305904
107	0xbd9cd6cd	-0.076581575
108	0x3db09397	0.086219005
109	0xbd139b8f	-0.036037024
110	0xbf305b51	-0.6888934
111	0x3b6ff180	0.003661245
112	0x3c8caab4	0.017171241
113	0x3cacd82a	0.021099169
114	0x3cba0692	0.022708211
115	0xbda1a4e2	-0.07892777
116	0x3d09f6ba	0.033682562
117	0xbe28926e	-0.16462108
118	0xbe11cd2b	-0.14238422
119	0x3ca929f5	0.02064989
120	0xbb7b24f4	-0.0038321586
121	0x3de20bbd	0.11037395
122	0xbd55174c	-0.05202417
123	0x3c9b3b5d	0.018949205
124	0xbdae5c2c	-0.08513674
125	0x3dc0f874	0.09422389
126	0x3dec8db3	0.115504645
127	0xbc369965	-0.011144971
128	0xbd613589	-0.054982696
129	0xbba86fd5	-0.0051402845
130	0x3d348795	0.044074614
131	0x3d76d4cb	0.06026153
132	0x3d827bc2	0.06371261
133	0x3c3690f8	0.011142962
134	0x3de12b96	0.109946415
135	0xbd87ff71	-0.066405185
136	0x3d3dfb43	0.0463822
137	0xbe11c2ed	-0.14234515
138	0x3d887ac9	0.066640444
139	0x3dd26d32	0.102747336
140	0xbd9bf321	-0.076147325
141	0x3da7a451	0.08185638
142	0x3c8f6c13	0.017507588
143	0xbc444556	-0.011979422
144	0x3c456427	0.012047804
145	0x3c6e3e4a	0.014541218
146	0xbcd8940d	-0.026437784
147	0x3ddab6e5	0.106794156
148	0x3d645812	0.055748053
149	0x3d29e047	0.041473653
150	0xbd8fa95b	-0.07014724
151	0xbc3ed014	-0.011646289
152	0xbc6055b6	-0.01369231
153	0xbbe87ff5	-0.007095332
154	0x3df693cb	0.12039908
155	0xbda2d011	-0.07949842
156	0xbc210c30	-0.009829566
157	0x3dcb05ec	0.09913239
158	0x3deb9048	0.11502129
159	0xbdeeaa35	-0.11653558
160	0x3dcff638	0.101543844
161	0xbd74e87f	-0.059792038
162	0x3df29053	0.11843934
163	0x3af2a593	0.001851248
164	0xbe8b73fe	-0.27236933
165	0xba5d797d	-0.0008448584
166	0x3d56cc89	0.052441154
167	0x3cc26ebc	0.023734443
168	0x3da892e8	0.08231145
169	0x3d78ea28	0.060770184
170	0x3b576cdf	0.0032871289
171	0xbdec95eb	-0.11552032
172	0x3d38a05e	0.045074813
173	0x3de0ab0a	0.10970123
174	0xbd251d04	-0.040310875
175	0xbe128409	-0.1430818
176	0xbc13ed88	-0.0090288
177	0xbd74794f	-0.059686
178	0xbdfe3e92	-0.12414278
179	0x3c28a8ac	0.010294121
180	0xbd1fac2c	-0.038982555
181	0x3d37f2a1	0.044909123
182	0x3d276765	0.04087009
183	0xbc84853f	-0.016176818
184	0xbc0a6ba8	-0.008448519
185	0xbdb73ae6	-0.08946781
186	0x3d103028	0.035202175
187	0x3d382d83	0.04496528
188	0x3d35b948	0.04436615
189	0x3c338fcb	0.010959576
190	0x3bc29a7f	0.0059388275
191	0xbdac6e41	-0.08419467
192	0xbdb1c173	-0.08679476
193	0xbce4753d	-0.027887935
194	0x3dc7a317	0.09747904
195	0x3dab9061	0.083771475
196	0x3d8a98e5	0.067674436
197	0xbcbea8ec	-0.023273908
198	0xbe3b8b89	-0.18314947
199	0x3cbe9646	0.023265015
200	0xbc77db7d	-0.015128014
201	0x3d8e1485	0.069375075
202	0x3ca6eb9e	0.020376023
203	0xbdbdd12c	-0.09268412
204	0xbded99bc	-0.11601588
205	0xbd4538aa	-0.048149742
206	0x3d597ea6	0.053099297
207	0x3abd6b91	0.0014451613
208	0xbc89f6c1	-0.016841294
209	0x3bfdb58d	0.00774259
210	0x3dcef941	0.10106135
211	0x3bc68992	0.00605888
212	0xbe033abb	-0.12815373
213	0xbc9058d2	-0.017620478
214	0xbc420f8b	-0.011844526
215	0x3cb0557f	0.021525143
216	0xbd608ed9	-0.05482373
217	0x3d5a11c2	0.05323959
218	0xbea61ed4	-0.32445395
219	0xbc54e050	-0.012992933
220	0xbc538378	-0.012909763
221	0xbdc235c2	-0.0948291
222	0xbcf3124b	-0.029671809
223	0x3daecfab	0.08535703
224	0xbd9bf453	-0.076149605
225	0x3c05f712	0.008176582
226	0xbcdec1d2	-0.02719203
227	0x3d34dc9c	0.044155702
228	0xbdccc7f7	-0.09999078
229	0xbdf29d16	-0.11846368
230	0xbebc00d2	-0.36719376
231	0x3d929294	0.07156864
232	0xbc132660	-0.008981317
233	0xbe3b4d18	-0.18291128
234	0xbd0b99ef	-0.03408235
235	0x3d60721b	0.05479632
236	0x3c16cb05	0.009203677
237	0x3d6ad419	0.05733118
238	0x3c276e37	0.010219148
239	0xbe962db6	-0.2933175
240	0x3a1082f1	0.0005512676
241	0xbebb2454	-0.36551154
242	0xbc4c14fc	-0.012456175
243	0xbdacd27b	-0.084385835
244	0xbd18a80d	-0.03726964
245	0x3c344571	0.011002884
246	0xbe3b818e	-0.1831114
247	0x3d86ba5e	0.065785155
248	0xbd659b3c	-0.056056246
249	0x3de52e94	0.11190525
250	0x3dc05439	0.09391064
251	0x3b929cce	0.004474259
252	0xbdce1140	-0.10061884
253	0xbc5565ba	-0.013024742
254	0x3d7d5caf	0.061855968
255	0x3a9e2d77	0.0012067993

classifier.bias f4 [16]
0	0xbcd72e8b	-0.02626731
1	0xbd9f75ef	-0.07786166
2	0x3d96a2f8	0.073553026
3	0xbdf40b93	-0.1191627
4	0x3df52b19	0.11971111
5	0x3ceed2b3	0.029153204
6	0x3dac1800	0.08403015
7	0xbca78dd9	-0.02045338
8	0x3e059a7f	0.13047217
9	0x3dd54b5a	0.10414763
10	0x3d3e65f6	0.046483956
11	0x3d65dd20	0.056119084
12	0xbdd211f6	-0.10257332
13	0xbb467d50	-0.0030287094
14	0xbdd92ebb	-0.10604616
15	0xbd8059cb	-0.06267127
