transfer04_21_52_22_10_12_FullyConnected.pth (torch, 550959 bytes, 8 tensors)

fc1.weight f4 [256, 4]
000000 d0 74 5b be d0 61 b1 bd ee 43 c9 3e 32 f9 9b 3e
       -0.21431279 -0.086612344 0.3930964 0.30463558
000010 1d c1 c1 bd 48 18 d0 3e a1 0d 8d 3e 8f 54 70 be
       -0.094606616 0.40643525 0.2754946 -0.23469757
000020 ee 01 ef be 8e c1 b4 3e 44 b4 27 be f0 e9 87 bd
       -0.4668116 0.3530392 -0.1637736 -0.06636417
000030 0b 36 05 be 79 bf fe 3e e9 ec 1a 3f 76 89 ec 3e
       -0.13008897 0.49755457 0.60517746 0.46198624
000040 4f 95 73 be 07 af 05 3f 40 d8 03 3f 54 fb 03 be
       -0.23787425 0.52220196 0.51501846 -0.12888843
000050 00 9a dc bc 1c 66 68 be 48 be 8e be ae 4d d5 be
       -0.026928902 -0.22695202 -0.27879548 -0.41660827
000060 c0 8d b0 be 80 72 16 bc f6 2b bd 3e dc ce 19 be
       -0.34483147 -0.009182572 0.36947602 -0.15020317
000070 9a a9 86 be 18 4c 82 3d e0 c7 2f bd 36 e0 91 3e
       -0.2630127 0.0636217 -0.042915225 0.28491372
000080 9f 96 4b 3e 5e a0 bf 3d 5d 0e 82 bd 09 6c ac 3e
       0.19881676 0.093567595 -0.06350396 0.33676174
000090 0f 97 9b bd 2f 36 02 3f b5 6f 1e 3c 57 4b 91 bd
       -0.075971715 0.5086393 0.009670188 -0.07094448
0000a0 ad 68 4f 3e c0 a1 b3 3e 34 ef 10 3f d0 9b 8f 3e
       0.20254774 0.35084343 0.56614995 0.28048563
0000b0 a3 ab 49 be d0 31 1c bf 57 fb 18 bf e7 d6 b1 3e
       -0.1969438 -0.6101351 -0.59758514 0.3473427
0000c0 ef 6d 78 3e 12 be ff 3d 04 57 6b 3e 75 ce 7a 3d
       0.24260686 0.12487425 0.22982413 0.06123205
0000d0 f5 84 f7 be 03 b5 e6 3e 23 36 11 3e 5f 65 aa 3d
       -0.48343626 0.45059976 0.14180808 0.08320116
0000e0 50 49 0c bd 40 3f a4 be 44 27 d7 3e 00 60 a6 3c
       -0.034249604 -0.32079506 0.42022145 0.020309448
0000f0 75 9b f7 be 98 e4 83 be 40 f4 b9 3e 83 a3 e0 3e
       -0.48360792 -0.2576034 0.3631916 0.4387475
000100 8e d8 38 be 5b 1c eb 3e 6b b4 14 3f d7 fd e5 3e
       -0.18051359 0.4592007 0.58087796 0.44920227
000110 e8 44 a7 be 2c 8a e9 be 87 f3 bd be 83 56 2d 3e
       -0.3266976 -0.4561323 -0.3709986 0.16927533
000120 54 41 f7 be a0 90 f9 3e 9c 3d fd be 50 6f dd be
       -0.4829203 0.48743153 -0.49461067 -0.43248987
000130 42 b5 b1 3e 81 2f c2 be 94 99 47 be f2 30 ce 3d
       0.347086 -0.37926868 -0.19492179 0.10067929
000140 e1 eb 6f bd 0d 49 cb 3e 37 4f 53 bd c0 52 6a 3e
       -0.05857456 0.3970417 -0.051589217 0.22883129
000150 33 05 04 3d 81 1a f5 be 89 a5 0b be 33 d1 a2 3d
       0.03223152 -0.47871783 -0.13637365 0.07950058
000160 a4 24 64 be 68 17 70 3e f2 ff 86 be ba 87 89 3e
       -0.22279602 0.23446429 -0.26367146 0.26861364
000170 88 ab ab bd e4 f7 da 3e 85 99 77 be 32 3d a3 bc
       -0.08382326 0.4276725 -0.24179657 -0.019926641
000180 4c 80 29 be 78 c8 0c bf ed 5f 33 3d 92 b2 b6 be
       -0.16552848 -0.5499339 0.043792654 -0.35683113
000190 30 41 5a 3e 40 21 6a 3c f0 71 d3 be 80 96 29 be
       0.2131393 0.014290154 -0.41297865 -0.16561317
0001a0 f4 73 1d be 70 cb c8 be b8 8d d9 3d 00 44 9c 3a
       -0.15376264 -0.3921771 0.10622734 0.0011922121
0001b0 39 5a 10 bf 39 08 e5 3e b7 3b 98 3e 2c 5d 17 3e
       -0.5638767 0.44732836 0.2973306 0.14781636
0001c0 40 bb 9a 3d 94 2a 17 bf c9 59 36 3e 4e 04 c3 3d
       0.07555246 -0.59049344 0.17807688 0.095223054
0001d0 dc ae a7 bd 9e 9d 2f 3e 14 a6 8d 3e 17 51 02 3f
       -0.08187649 0.1714997 0.2766577 0.50904983
0001e0 7c 41 46 3e 3f 3c 63 3e e3 41 af 3e 7c 59 06 bf
       0.19360918 0.22190951 0.34229955 -0.5248029
0001f0 8c 8d e9 be f2 8e be 3e 16 73 d8 3e 74 03 c1 3e
       -0.45615804 0.37218434 0.42275304 0.37697947
000200 d8 9e ae be 00 ab 25 3e 4c 52 97 be 6a bc e0 be
       -0.34105563 0.16178513 -0.29554975 -0.4389375
000210 78 71 a9 be 00 26 45 3b e0 a1 a5 3d 74 ab 81 be
       -0.33094382 0.0030082464 0.08087516 -0.2532612
000220 e2 cc f8 3e e4 2c a0 3e 7d 71 b1 3e 15 0d 27 bd
       0.48593813 0.3128425 0.34656897 -0.04078396
000230 5d eb ea bd 90 c2 c4 3e 4c 03 2a 3f 5d 11 61 3d
       -0.11470673 0.3842969 0.6641128 0.0549482
000240 dc 12 87 3e f0 a3 d1 bd 76 dd dd be 30 db 0c be
       0.26381576 -0.10236347 -0.43333024 -0.13755488
000250 00 49 96 3e 52 f0 04 bd e7 be fd bc 02 8e f5 3d
       0.2935257 -0.03245575 -0.030974818 0.119899765
000260 a0 57 8a be 28 e5 13 3e b0 13 54 3d 08 2f 02 3e
       -0.27019978 0.14442885 0.051776588 0.12713253
000270 fe ee 00 3f 79 90 9d bc ad da bf 3e fb f0 70 3e
       0.50364673 -0.019233929 0.37471524 0.23529427
000280 62 e4 f2 be 43 d5 b3 3e 92 2f b1 3e 88 08 ca bb
       -0.47439867 0.35123643 0.34606606 -0.006165568
000290 5c 69 2e be 9e de 82 3e f0 bf 65 3d 24 7d b7 be
       -0.17032379 0.25560468 0.05609125 -0.35837662
0002a0 2c 31 2b be 57 92 01 3f 3e 42 e5 3e 9a 32 c6 be
       -0.16717976 0.5061392 0.447771 -0.3871048
0002b0 a3 5c 34 3e 70 87 08 3f 66 06 3b 3d f0 2b 97 3e
       0.17613463 0.5333166 0.0456604 0.2952571
0002c0 c3 61 89 3d 49 c3 83 bd 29 8b c1 be 16 7d 25 3e
       0.067081 -0.06433732 -0.37801483 0.16160998
0002d0 35 7b fa 3e 39 6a 48 be bb 96 31 3e fe 21 8d be
       0.48922125 -0.1957177 0.17342655 -0.27564996
0002e0 94 9e 90 be 18 c7 e2 3d 90 bf b4 bd 38 c5 f1 be
       -0.28245986 0.1107313 -0.088256 -0.47220778
0002f0 d7 f3 d4 bd 0b df 15 3f a8 08 b0 be a1 06 2c 3e
       -0.10398071 0.5854346 -0.34381604 0.16799404
000300 a3 1a bf 3e fd ce a3 be 0f cc 32 bf 60 a0 87 3e
       0.3732501 -0.31993857 -0.6984262 0.26489544
000310 cd b3 aa 3e 39 4d 24 bf 68 56 8b be 5a 1d c1 3d
       0.33340302 -0.6418033 -0.2721436 0.094294265
000320 20 1a 85 3c 2c c7 98 be 10 c0 ed 3e c4 a4 94 be
       0.016247809 -0.29839456 0.46435595 -0.29031956
000330 b3 1e 63 be 1e 4d ea be ac 7b 12 be ec 6e 84 be
       -0.2217968 -0.4576196 -0.1430499 -0.25865877
000340 69 30 87 be f7 41 6e 3e d0 a3 82 be 85 67 a0 3d
       -0.26404122 0.23267351 -0.25515604 0.07832245
000350 b8 60 e5 be 64 27 4f be e0 2b bb bc c4 25 b7 be
       -0.44800353 -0.2022987 -0.02284807 -0.35771
000360 c8 16 e5 bd cc 2b 33 be 70 21 56 3e ac 15 65 be
       -0.11185986 -0.17497176 0.20911193 -0.22371548
000370 0c d8 bb be 15 b8 14 bf ed 49 0d bf 0f a2 6f 3d
       -0.36688268 -0.58093387 -0.55190927 0.05850416
000380 c8 da 44 3e b8 6d a6 3e 9a 95 b5 3e 18 69 93 be
       0.19224083 0.32505584 0.354657 -0.28791118
000390 57 8b 94 bd c9 5b 04 3f 3e 35 fe 3e 6c f7 e7 be
       -0.072531395 0.51702553 0.49649996 -0.45305955
0003a0 9e 35 aa be 98 81 d0 3d 04 37 4a 3e 40 84 fd bc
       -0.33244032 0.10180968 0.1974755 -0.03094685
0003b0 93 9c 90 3e 26 03 bf be 06 ee f7 be 7f 4f de bd
       0.28244457 -0.3730709 -0.48423785 -0.108550064
0003c0 fb a0 ee be 58 c7 fd 3e 3c bd 92 be 02 00 03 3f
       -0.46607193 0.4956615 -0.2866 0.51171887
0003d0 14 1c ae 3e 72 06 18 3f 2d f6 1e 3f 6b ce 2e 3e
       0.34005797 0.59384835 0.62094384 0.1707093
0003e0 e6 5f 2b bd a1 a4 eb 3e a3 74 88 3d 01 e4 c7 3e
       -0.041839503 0.4602404 0.06662872 0.3904114
0003f0 3f 48 c6 3d 9c 66 e5 3e 23 d7 25 3f 30 1a af be
       0.096817486 0.44804847 0.647814 -0.34199667

fc1.bias f4 [256]
000000 aa 4f 82 be 9a 22 7c 3e 8a 92 b3 be b1 09 ad 3d
       -0.25451404 0.24622574 -0.35072738 0.08449114
000010 87 b2 0a 3e 0c fc 1e be f0 97 09 be 44 a7 f9 be
       0.13544665 -0.15525836 -0.13436866 -0.48760426
000020 bf 00 13 bf 02 69 3b bd b8 34 bc be 67 b4 b6 3e
       -0.57423013 -0.04575444 -0.3675897 0.3568451
000030 3e 4c 0c 3d f9 a1 98 3e 4a 83 8b be 7c 7b e0 3d
       0.034252398 0.29811075 -0.27248603 0.10961053
000040 b6 32 cf 3d 37 26 ad 3e f2 c9 80 3e 98 9c 95 3e
       0.10117094 0.33818218 0.25154072 0.29221034
000050 13 45 17 be cc f0 83 3e 62 a0 a7 be 86 49 37 3e
       -0.14772443 0.2576965 -0.3273955 0.1789914
000060 71 b5 9a 3e fc 68 8f be bc 9c a1 be e2 83 82 3e
       0.30216554 -0.28009784 -0.3156489 0.25491244
000070 25 c9 aa 3d 65 7d 8b be df 9d c6 3e 2e 66 7c 3e
       0.083391465 -0.27244106 0.3879232 0.24648353
000080 a0 ef a2 bd 2c 2f cf be fc b1 c4 bd cc 5d 11 bd
       -0.07955861 -0.40465677 -0.0960426 -0.035489842
000090 dc ff 9c be ad dd 4a be 04 0c d6 be 58 70 8b be
       -0.30663955 -0.19811125 -0.41806042 -0.2723415
0000a0 16 9b 74 3e 8a 23 c5 be c2 3a 7b 3e 49 40 89 3e
       0.23887286 -0.38503677 0.24534133 0.26806858
0000b0 e9 2e 50 3e 28 54 b0 3d 6c 0b 7c 3e bb 48 4f 3e
       0.20330395 0.086098015 0.24613732 0.20242588
0000c0 ee e1 6b 3e 12 c6 d6 be 60 6f cc 3c 9e 37 92 3e
       0.23035404 -0.4194799 0.024955451 0.28558058
0000d0 3c 8b 7a bd e0 91 58 3e c6 58 d1 be 22 17 03 3f
       -0.06116794 0.21149397 -0.4088804 0.5120717
0000e0 f0 36 b2 be b6 fc 2a 3e 98 3f 0c be 0f f6 c9 3e
       -0.3480754 0.16697964 -0.13696134 0.3944554
0000f0 38 20 7e bd 69 16 a1 3c 4a 47 79 be ca 2c bb 3e
       -0.062042445 0.019664006 -0.24343601 0.3655761
000100 48 be 11 3e 00 fd ea 3d 0c 07 5f bd 5f 50 de be
       0.14232743 0.11474037 -0.05445008 -0.43420693
000110 4a c3 e8 bc 80 9c 43 3e 92 0b c1 3e 18 ea a7 bd
       -0.028413434 0.19102669 0.3770414 -0.08198947
000120 95 36 d3 bd a0 35 3f bd 4d dd d9 be 6c 4c 58 be
       -0.10313145 -0.046682 -0.42551652 -0.21122903
000130 08 9d d9 bd c0 79 2b 3e 3e 36 23 3d ac 6b 5d be
       -0.106256545 0.16745663 0.03984665 -0.21623105
000140 8b 4d 8e 3e 38 56 63 be c4 60 1e be d7 90 ac be
       0.27793536 -0.22200859 -0.154666 -0.33704254
000150 86 74 16 3d 2d 50 48 3e d7 d3 34 bd 04 a1 74 3d
       0.03673222 0.19561835 -0.04414734 0.05972387
000160 5a 57 0b bf a3 3a 18 3e f0 19 85 be 27 4e 0e 3e
       -0.5443016 0.14866118 -0.2599635 0.13897
000170 58 63 d7 bd d3 54 e8 3d b5 8f 9a 3d dd 4d 84 3a
       -0.10516995 0.11344304 0.07546941 0.0010094006
000180 dc 34 b1 3e 1a b7 8f be e8 57 dd bd 44 75 8e 3e
       0.3461064 -0.28069383 -0.108077824 0.27823842
000190 e4 7b d2 be e9 27 3d 3d f2 f8 86 3e c4 50 e5 be
       -0.41110146 0.04618064 0.26361805 -0.44788182
0001a0 11 88 ca 3e de 94 52 be 7e 44 a2 3e f5 e0 bb 3e
       0.39556935 -0.20564601 0.3169288 0.36695066
0001b0 6c 08 9e 3e 05 bd 40 be ac a5 13 be 4f ab 25 3d
       0.308658 -0.18822105 -0.14418668 0.040446576
0001c0 a0 31 8f 3d 3f c7 b5 3e 7a ce 14 be 3e 39 9e 3e
       0.06991887 0.35503575 -0.1453189 0.30903047
0001d0 1f 93 71 3e e8 bd ac 3d db a4 44 be 2c c8 0e bf
       0.23591278 0.08434659 -0.19203512 -0.5577419
0001e0 88 54 a6 3e 35 89 ec be 3c 99 e4 3d 87 b1 84 bd
       0.32486367 -0.4619843 0.1116204 -0.06479173
0001f0 f7 99 62 bd ae 8e 9f be 68 6a 8f bd a4 82 3d be
       -0.055322614 -0.31163543 -0.07002717 -0.18506867
000200 24 6c 95 3e 25 5c 95 3e 0c 0f 3f 3e a8 ef 95 be
       0.29184067 0.29171863 0.18658084 -0.29284406
000210 22 15 5f 3d 7a e9 ad be ac 60 39 be b0 d3 99 bc
       0.054463513 -0.3396719 -0.18103284 -0.018777698
000220 3b 42 19 3c f8 28 1a be ed 4a ec 3e 23 e6 51 3e
       0.0093541695 -0.15054691 0.46150914 0.20497946
000230 e0 27 e0 3d 2c f5 3a 3d fd 45 c1 3d 90 71 21 be
       0.109451056 0.04564397 0.09437177 -0.15765977
000240 c5 24 a0 be 49 41 88 3d a4 ee 84 3e a9 dc 21 be
       -0.31278053 0.06653077 0.25963318 -0.15806831
000250 2e d4 0e 3e 4a 9d d3 be 32 94 c4 be 49 eb 08 bf
       0.13948128 -0.4133094 -0.38394314 -0.53484017
000260 14 ec c0 be 8d 3f 50 3e 90 d4 97 3e 81 12 44 3e
       -0.37680113 0.20336743 0.2965436 0.19147684
000270 85 cf df 3d 2c 5c 67 be 90 37 b7 bd 40 c0 2d 3e
       0.10928253 -0.22593755 -0.089461446 0.16967869
000280 6b a9 29 3e e0 de e7 bd 06 a5 de 3d 2a 76 90 be
       0.16568534 -0.11321807 0.108713195 -0.28215152
000290 7e ec 9f 3e e4 38 fa be c2 f5 d1 3d a9 a0 2a 3d
       0.31235117 -0.4887153 0.10251953 0.041657124
0002a0 11 2b 24 3e a8 f7 40 3e c2 15 fb 3c 48 37 fa be
       0.16032054 0.18844473 0.030650023 -0.488703
0002b0 ae c3 bc be ab 74 6b 3e 42 cf bd be 97 84 2f bd
       -0.36868042 0.22993724 -0.37072188 -0.042851057
0002c0 0d 1c 67 3e 36 80 bb be f0 81 26 be 77 e5 e3 bd
       0.22569294 -0.36621255 -0.16260505 -0.11127751
0002d0 a5 70 9f 3e bb 66 91 3e d0 52 b7 3e 90 53 e6 3e
       0.31140628 0.2839869 0.35805368 0.44985628
0002e0 e0 96 0f be b0 26 49 be 84 f6 f6 be f0 51 0f 3e
       -0.14022398 -0.19643664 -0.48234951 0.139961
0002f0 e4 b3 04 be 20 32 05 be 1b 5f 49 bd 25 d2 03 bf
       -0.12959248 -0.13007402 -0.049162965 -0.5149253
000300 c2 f7 aa be ce 41 9e 3d ca 00 d5 be f0 85 ed be
       -0.3339215 0.07727395 -0.41602165 -0.4639125
000310 02 55 87 3e f4 97 2d be 1f 07 0f 3d b5 1a 28 3e
       0.26432043 -0.16952497 0.0349189 0.16416438
000320 89 07 c1 3e c0 32 6a be d0 7e 3c bd a4 1b 1d 3e
       0.3770106 -0.22870922 -0.046019375 0.15342575
000330 14 fe c4 be ce 8f ff be e2 8b 08 3e 7f e3 53 bd
       -0.38475096 -0.49914402 0.13334611 -0.05173063
000340 30 c9 5e 3e 03 37 41 3d bc 7b 47 be 05 c4 15 3d
       0.21756434 0.047171604 -0.19480795 0.036563892
000350 70 06 87 bd 53 d8 9e 3e 8e 8c d9 be da 8e ab be
       -0.06593025 0.31024417 -0.42490047 -0.33507425
000360 90 90 dd be 7c f1 74 be a8 05 95 3e 1f 3c 95 3c
       -0.43274355 -0.23920244 0.29105878 0.018217145
000370 1f 4d c7 3e 00 a3 58 bb 65 7f fc bd e2 0a 4d 3d
       0.38926026 -0.003305614 -0.12328986 0.050059207
000380 6c 6c 0a be 20 65 00 be 71 d7 0f be 48 90 eb bd
       -0.13517922 -0.12538576 -0.14047028 -0.11502129
000390 80 77 67 be 9c bb b0 be 35 a9 53 3e ac 47 42 be
       -0.2260418 -0.34518135 0.20670016 -0.18972653
0003a0 38 b6 ef be a4 b7 7f 3e b0 52 7b bd 03 49 91 be
       -0.4681871 0.24972397 -0.061358154 -0.28376016
0003b0 85 97 cb 3e 14 2e e8 be 89 90 a5 3e cf 77 8e 3d
       0.39764038 -0.45347655 0.32336834 0.069564454
0003c0 28 6b b9 3e c3 14 d9 3d 61 e7 58 3e b3 4e 87 3e
       0.36214566 0.10599663 0.21182014 0.2642723
0003d0 bc 1c d8 be 71 84 a7 3c 70 c8 f5 3d e0 05 f9 be
       -0.42209423 0.020448895 0.12001121 -0.48637295
0003e0 3c 87 76 be 64 75 d0 3e e8 66 7d 3e 78 e8 f3 3d
       -0.24075025 0.40714562 0.24746287 0.11909574
0003f0 c7 9f 82 3e a1 49 73 3d 19 46 6b 3e c2 3b c3 be
       0.25512525 0.05939639 0.22975959 -0.3813153

fc2.weight f4 [256, 256]
000000 b8 7b cc 3c d9 35 e8 bd d0 8e d5 bb e3 63 48 bd
       0.024961337 -0.113383956 -0.0065172687 -0.048923384
000010 9d 99 b8 bb 12 5b 63 3d d0 31 55 3d 38 14 ea bc
       -0.0056335465 0.055506773 0.052049458 -0.028574094
000020 63 22 c8 bd a6 f7 13 bc db 59 81 bd a0 d3 01 bc
       -0.09772184 -0.009031212 -0.06315967 -0.0079239905
000030 94 45 98 bd de 85 f7 bd 4a 1d 07 bd 69 39 a1 bd
       -0.07435146 -0.1208608 -0.032986917 -0.07872278
000040 cf 57 54 bd f7 a0 a3 bc c0 a4 d7 3c 56 d9 d3 bd
       -0.051841553 -0.019974215 0.026323676 -0.10344188
000050 78 27 bf bd e9 2c 83 bc 52 9d 01 bd eb 2e 1f bd
       -0.093337 -0.016012626 -0.031644173 -0.038863104
000060 39 03 d1 bd ac c7 12 bd 32 00 58 3d 0a 91 f7 bd
       -0.10205693 -0.035834953 0.05273456 -0.12088211
000070 17 05 41 bd b2 0b 1c bd 08 a2 c2 bc 51 46 8d bd
       -0.047123995 -0.03809709 -0.023758903 -0.068981774
000080 70 78 3a bd 76 ad 5a 3d b1 75 f0 bd 3c d1 83 bc
       -0.045525014 0.05338808 -0.11741198 -0.016090982
000090 1c 1b 63 3d 50 85 6b bd 46 0b 2d bd bd d4 8d bc
       0.055445775 -0.057500184 -0.04224708 -0.017313356
0000a0 fa ef 88 bd 78 4f 0f 3c 9a 51 f4 3d d2 fb c7 bb
       -0.06686397 0.008746974 0.11929627 -0.0061030174
0000b0 7a cf 8b bc f1 10 22 bd 28 b1 32 3d b9 45 78 bb
       -0.017066706 -0.039566938 0.04362598 -0.0037883355
0000c0 33 21 dd bd 5b d7 b4 bd e0 21 ac bc 1f 6e 78 bc
       -0.10797348 -0.08830138 -0.021012247 -0.015162974
0000d0 04 af af bb 6a d2 5b bd fc a9 8a 3c 5e d1 3d bd
       -0.0053614397 -0.053667463 0.016926758 -0.046342246
0000e0 82 8c 24 3d f4 77 14 3d 12 f0 5c bd db 58 cf bd
       0.04017306 0.03624721 -0.053939886 -0.1012437
0000f0 af 34 8e bc df 29 d7 bd df 34 30 bb e3 f4 78 bd
       -0.017359106 -0.10506033 -0.0026886982 -0.060780417
000100 1f 83 a5 bd 2f 2c 73 bd 3f 3f ca 3c 9e 0d 90 bc
       -0.0808165 -0.05936831 0.024688361 -0.017584618
000110 3f bd 11 bd 20 94 e4 bc 27 5c e3 bc cd 22 78 bd
       -0.03558087 -0.027902663 -0.027753903 -0.060580064
000120 81 5c 8a bd e8 e8 c5 bc 9d 47 07 bc f6 79 3b bd
       -0.06755925 -0.02415891 -0.00825682 -0.045770608
000130 cc f5 c8 bc f2 5d 93 bd 04 42 6a bc c0 c4 c5 3c
       -0.024531268 -0.07195653 -0.014297966 0.02414167
000140 7f 83 f3 bd 08 e9 74 bc 41 d3 83 bd ed 3d d4 bd
       -0.11890315 -0.014948137 -0.06436778 -0.10363374
000150 03 c1 e7 bc 38 df ed bc ed 1c 3f bd a3 f7 d3 bd
       -0.028290277 -0.029037103 -0.046658445 -0.10349967
000160 dc 44 f3 3c b8 33 8d bd 28 69 44 3d 20 74 e0 bc
       0.02969592 -0.0689463 0.047951847 -0.027399123
000170 e0 11 62 3c 30 13 90 bd 1d 52 c4 bc fe 86 07 bd
       0.013798207 -0.0703491 -0.023964936 -0.033087723
000180 03 ef e0 bc 24 5f e5 bc 9c af 46 bd 3a c7 ea 3c
       -0.02745772 -0.027999468 -0.048507318 0.028659452
000190 e0 53 93 bb 4d 4d 0c bd b0 b2 6c bd f9 c1 71 bd
       -0.0044960827 -0.034253407 -0.057787597 -0.059022877
0001a0 76 a2 1b bd 49 83 bb bc 6b d3 87 bd a8 8a 53 3d
       -0.03799673 -0.02288975 -0.06632122 0.051645905
0001b0 10 74 49 3d 1b 5d 6c bd 12 d8 1e 3d 7f 0d 8d bc
       0.04918295 -0.05770598 0.03878028 -0.01721835
0001c0 72 db f4 bc 5a 5f 9c bd 79 c9 34 bd 34 3e 12 bd
       -0.029889796 -0.07635374 -0.04413745 -0.035703853
0001d0 15 01 27 bd ad d2 ec bc f8 62 c3 bd 34 fd b8 bd
       -0.040772516 -0.028909052 -0.09540361 -0.0903267
0001e0 33 f1 9f bd 4c 52 e4 bd 1d 61 ec bd 4e 95 ab bc
       -0.07809677 -0.111485094 -0.115419604 -0.020945217
0001f0 09 39 f5 39 fd 09 76 bd b4 29 c4 bc 48 d7 2f 3d
       0.00046772536 -0.06006812 -0.023945667 0.042929918
000200 53 28 75 bd 8f e3 42 bd 89 f3 99 bd 6a f6 03 bd
       -0.05985291 -0.047580298 -0.07517154 -0.03221742
000210 e4 f6 a8 bd b6 8b 04 bd 48 3e 75 3c 04 ef c2 bd
       -0.08250216 -0.0323598 0.014968462 -0.09518245
000220 ca db e4 bd ce b1 28 3d 20 ee 80 b9 a1 b8 df bd
       -0.11174734 0.041185193 -0.0002459148 -0.10923887
000230 c4 6d 7e bd 48 44 7d bd 56 d8 b0 bd 40 28 a2 3a
       -0.0621164 -0.061832696 -0.08635013 0.0012371615
000240 ac 43 a3 bb d4 e6 66 bd ac 90 81 bd 54 20 5c bc
       -0.0049824324 -0.05637248 -0.06326422 -0.013435442
000250 f3 55 b2 bd 6d 57 d2 bd 40 6c b8 3a da 95 48 bd
       -0.087078 -0.102705814 0.0014070347 -0.048971035
000260 10 f9 77 bc d1 71 89 bd 8f 85 ab bd 0e 84 a3 bd
       -0.015135065 -0.06711162 -0.08375084 -0.07984172
000270 82 5c 5d bd 62 c2 33 bd 84 85 7f 3d b0 e9 da bc
       -0.0540433 -0.04388655 0.06238319 -0.026722759
000280 42 fd c3 bd f9 b0 c5 bd ba 16 07 bd 48 05 7d bd
       -0.095697895 -0.096528955 -0.032980658 -0.061772615
000290 2b d8 63 bd 3a dc 41 bd 7e e5 40 bd aa a6 7c bd
       -0.055626076 -0.047329165 -0.04709386 -0.06168238
0002a0 cc e0 e5 3c e5 f2 d7 bc 47 37 d7 3c a0 7a 83 bd
       0.028061293 -0.026360938 0.026271475 -0.06419873
0002b0 98 0e 68 3d 0b 6e 2f bd 84 8e c9 3c 06 9d d1 bd
       0.056654543 -0.042829555 0.02460409 -0.10235028
0002c0 56 49 86 bd b0 87 0b 3c 58 df 2b 3c 3e dd eb bd
       -0.065569565 0.008516237 0.010490261 -0.11516808
0002d0 bc f0 b9 bd d1 2e f5 bd 7c 82 80 bc 47 e9 55 bd
       -0.090791196 -0.1197182 -0.01568722 -0.052224424
0002e0 70 b0 d4 3c 20 e8 a2 3c 90 d7 e7 3b 6a 0f 25 3d
       0.025963038 0.019886076 0.0070752576 0.040297903
0002f0 28 4c 33 bd 04 03 8a 3c 5e 42 df bc 7f f8 84 bd
       -0.0437738 0.016847141 -0.027253326 -0.06492709
000300 16 f2 83 bd c0 ad 06 bc 5e 71 5f 3d c4 c8 a7 bc
       -0.064426586 -0.008220136 0.054551475 -0.020481475
000310 59 9a 59 bd d2 d8 62 3d a1 04 a0 bc b0 82 28 bd
       -0.053125713 0.055382557 -0.019533457 -0.04114026
000320 c5 41 7a bb a4 7e 9c 3c 20 05 01 3b a9 5c f5 bc
       -0.0038186174 0.019103356 0.0019686893 -0.02995141
000330 98 fb af bc ca 0b 07 3d 07 ba b3 bd aa 9b ed bd
       -0.021482274 0.032970227 -0.08775716 -0.11601956
000340 5e b4 cd bd 32 e7 39 bc 8c f3 98 3c 47 7a 15 bd
       -0.10044168 -0.011346625 0.01867082 -0.036493566
000350 0a f2 75 bd e3 8d e4 bd 1c b0 6a 3d 32 cb 0d 3d
       -0.06004528 -0.11159875 0.057296857 0.03461761
000360 00 dd 09 3b c0 ed a7 ba b1 f0 b6 bd 4e d7 7a bd
       0.0021036267 -0.0012811944 -0.08932627 -0.061240487
000370 28 31 9f bc 58 24 f8 3c ed f7 35 bd b0 23 16 3b
       -0.01943262 0.030290768 -0.044425894 0.0022909455
000380 98 18 14 bc ce da 42 bd e9 ad 88 bd 34 cd 6b bd
       -0.009039067 -0.04757195 -0.06673796 -0.057568744
000390 a2 92 5f bd f0 74 06 3c 73 5b 88 bd 52 b5 2e bd
       -0.0545832 0.008206591 -0.066580676 -0.04265339
0003a0 52 fc 0f bd c9 1f fe bc 86 58 7d bd 70 48 2b 3d
       -0.03515274 -0.031021016 -0.061852 0.04181713
0003b0 21 61 eb bd 64 bc 11 bd 92 67 37 bd 2f dc 93 bd
       -0.11493135 -0.035580054 -0.044776507 -0.07219731
0003c0 e0 b9 ec bd 59 4b 1b bc 17 44 89 bd 72 a4 db bd
       -0.1155889 -0.0094784135 -0.0670244 -0.10724725
0003d0 08 4b 43 bc 47 9f 50 bd fc d8 88 bb 04 95 d2 bd
       -0.011919744 -0.05093315 -0.004176257 -0.10282329
0003e0 20 f3 46 3c 63 5f b6 bd c9 7a d3 3a 14 c7 dd 3c
       0.012142926 -0.08904912 0.0016134615 0.027072467
0003f0 d5 7f a2 bd 1a dc f9 bd 4e 3d f6 bd 0a 05 19 bd
       -0.07934538 -0.12200184 -0.12023412 -0.03735832

fc2.bias f4 [256]
000000 bf 70 0d bd 33 4d 4e bd a4 9a 2c bc 2f c3 55 3a
       -0.03453135 -0.05036659 -0.010534916 0.000815439
000010 b3 c2 56 bd 08 9f c4 3a e7 46 c7 bd 0c 0e 20 be
       -0.052431773 0.0015001008 -0.097303204 -0.15630358
000020 d8 8d 30 bc 82 c7 5f bd ed 01 b6 bd d6 4a c6 bb
       -0.010776006 -0.054633625 -0.08887086 -0.0060514016
000030 8c 73 1b bc 86 92 95 bc e2 44 99 bd 8b d7 36 bd
       -0.009487998 -0.018258344 -0.074838415 -0.04463915
000040 68 cc 83 bd 06 45 26 bd d8 77 8a 3d 93 25 a0 bd
       -0.06435472 -0.04059317 0.0676114 -0.07819667
000050 d6 b8 a3 bd e1 fe ab bd 95 85 ac bd 03 a1 2b 3e
       -0.07994239 -0.08398224 -0.08423916 0.1676064
000060 f5 a1 2d bd 43 4e 57 bc 68 2d 10 3e 80 39 41 bc
       -0.042390782 -0.013141218 0.14079821 -0.011793494
000070 9c 09 c3 bd a5 69 50 bd c4 39 91 3c 7f fe a6 bd
       -0.09523317 -0.050882 0.01772774 -0.0815401
000080 20 b6 c8 bd bf 68 06 bd fc 7c 37 bc d7 1a 1e bd
       -0.098003626 -0.032814737 -0.011199232 -0.038599815
000090 98 1d 53 bd 36 e2 83 bd 6e b2 ff 3d 0f 80 01 be
       -0.051541895 -0.06439631 0.12485205 -0.12646507
0000a0 e2 0c fb bb e3 a0 39 bd f3 4c 2e bd c4 26 1e bd
       -0.007661448 -0.04531945 -0.042553853 -0.03861119
0000b0 f6 f6 62 bd 84 49 10 3d 4b 26 b4 bc fc bf db bc
       -0.0554113 0.03522636 -0.021990916 -0.026824944
0000c0 f4 6f 48 bd 80 2e b8 bd c4 27 b4 bb 49 76 6b bd
       -0.04893489 -0.08993244 -0.0054979045 -0.057485852
0000d0 5b e1 c7 bd 59 8e ac bc 42 46 e4 bd 5b e9 91 bd
       -0.0975978 -0.02106397 -0.11146213 -0.07124587
0000e0 52 f6 a4 3c e2 dd 08 bd 88 92 d5 bd 85 43 99 bd
       0.020136986 -0.03341473 -0.10428339 -0.074835815
0000f0 ac 5e 22 bd 6e ea 21 bd 72 3e c0 bd 50 91 97 bc
       -0.039641067 -0.03953021 -0.093869105 -0.018501908
000100 70 e8 ac bd 30 17 d8 bc 9e 34 bb bd 72 41 7c bd
       -0.084427714 -0.026378244 -0.09140895 -0.06158585
000110 03 70 48 3c 07 71 79 bc 4c d4 14 3d 70 52 ce bd
       0.012233737 -0.015224702 0.036335275 -0.100743175
000120 24 c5 44 bd b8 48 40 bc 44 05 70 3b a0 22 36 3c
       -0.04803957 -0.0117360875 0.0036624232 0.011116654
000130 67 5c 68 bd 6a 99 5b bd 9d 10 ab bc e6 e8 69 bd
       -0.056728747 -0.053613104 -0.020881945 -0.057106875
000140 e5 f8 67 bd f5 69 9f bc 10 3c c0 bd 74 00 95 bd
       -0.05663385 -0.019459704 -0.09386456 -0.07275477
000150 48 ea 7e bd 8b ae fd 3c 55 2f aa bc a0 10 22 3d
       -0.062235147 0.030967018 -0.020774523 0.039566636
000160 ad a5 9e bd fc 19 9d 3c f5 3c 71 bd fa c8 15 bd
       -0.07746444 0.01917743 -0.058896024 -0.03656862
000170 84 b8 a2 bd bb 6a ae bd 88 27 99 bd 22 b8 1c 3d
       -0.0794535 -0.08516451 -0.07478243 0.03826154
000180 69 de 3f bd 93 f6 9c bd 6b d5 84 bb 96 8c a2 3d
       -0.046842966 -0.07664218 -0.0040537617 0.07936971
000190 2c 0b 62 bd 83 83 a2 bc cb 3b 24 bd a5 9a 36 3c
       -0.055186436 -0.0198381 -0.040096086 0.011145269
0001a0 6d 33 07 bc b1 9e e9 bd 4c c2 a1 bd 26 36 12 3e
       -0.008252007 -0.11407221 -0.07898387 0.14278468
0001b0 4e b2 29 bd a4 77 a4 bc 68 f5 d4 bc 04 c5 ac 3c
       -0.04142981 -0.02007658 -0.025995925 0.021090038
0001c0 d6 0b 75 bd 08 6d a4 bc 90 ac ac bd d2 c9 e2 3c
       -0.05982574 -0.020071521 -0.08431351 0.027684126
0001d0 0c 09 e7 bc bc 8f b5 bc bb 0a a0 3d c3 e5 87 bb
       -0.028202556 -0.022163264 0.07814547 -0.004147263
0001e0 20 73 96 bc 3c 75 81 3c be e3 51 3d 07 0c 63 bd
       -0.018365443 0.015802972 0.051242582 -0.055431392
0001f0 2c 6f 79 bd 52 5b 80 bd 2f 63 c4 bd 2e 43 ef bc
       -0.060897037 -0.06267418 -0.0958923 -0.029206838
000200 1a 70 43 bd a2 b0 c3 bd b3 e4 1d bd b2 4e 1d 3d
       -0.04771433 -0.095551744 -0.038548183 0.038405128
000210 ff fe 98 bc 7a 41 9e bc d3 e6 b4 bc 85 be ff bc
       -0.01867628 -0.019318331 -0.022082722 -0.031218776
000220 48 28 71 bd d9 c8 d9 bc 5c d7 5b 3d 9a f3 07 bd
       -0.058876306 -0.02658503 0.05367218 -0.0331913
000230 31 04 7c bc 13 a7 5e 3d 55 e9 e3 bc 74 ae 03 bd
       -0.015381859 0.054358553 -0.027821222 -0.032148793
000240 0c 86 5d bc 84 81 df bc 72 ac 8b bb ec 2b 34 bd
       -0.013520729 -0.027283438 -0.0042625004 -0.0439872
000250 c1 5c 4a 3a 66 b0 3e bd 43 f9 60 bc 28 3d bf bc
       0.000771951 -0.046554945 -0.013731304 -0.023344591
000260 ed 72 8a bd 9c 22 66 bd 87 08 8a bd c2 73 66 3d
       -0.067602016 -0.05618535 -0.06739908 0.05626274
000270 23 4b 48 bd 85 fa cf bd fa 76 43 bd 9f 5e 12 bd
       -0.04889978 -0.10155205 -0.047720887 -0.03573477
000280 2f aa cc bd 97 e9 d0 bc 18 70 62 3c c8 a5 55 3c
       -0.099933974 -0.02550201 0.013820671 0.013040014
000290 99 a6 2e be 97 76 aa bd 63 2d f4 bb 5a 9d 5b bd
       -0.1705574 -0.083234005 -0.0074516996 -0.05361686
0002a0 e6 55 a3 bd 24 73 c4 bc a5 f8 20 bb ce 8d 1c bc
       -0.07975368 -0.023980685 -0.0024562266 -0.009555293
0002b0 5f ba 07 bd 5b 17 ec ba 19 f9 97 bd 28 da 33 3d
       -0.03313672 -0.0018012332 -0.074205585 0.043909222
0002c0 21 02 28 3c ab 8b 4d bd c7 f4 44 bd 43 68 9a bc
       0.010254414 -0.050182026 -0.048085 -0.018848544
0002d0 ac 83 cb 3c a0 1a da bc 71 f1 81 3c 84 ec 29 bd
       0.02484306 -0.026624024 0.015862199 -0.041485325
0002e0 53 11 d7 b9 b0 08 38 3c 0e 53 48 3d 71 78 a3 bd
       -0.00041020903 0.01123254 0.048907332 -0.07981957
0002f0 6b e0 e9 bd 5b ad 41 bd fc 35 6e 3d 15 06 c2 bd
       -0.114197575 -0.047284465 0.058156952 -0.09473816
000300 76 2e 34 bd 21 18 a9 bd 8f dd f5 bc 35 17 8d bd
       -0.04398962 -0.08256555 -0.030012874 -0.06889192
000310 78 bf 32 3c 83 61 b7 bd d1 28 81 bd 33 52 66 3d
       0.0109099075 -0.08954146 -0.06306613 0.056230735
000320 77 d4 84 bc f1 c4 20 3d 0f 42 c5 bd 04 48 6a bd
       -0.016214592 0.039250318 -0.0963174 -0.057197586
000330 06 64 ce bc ac a4 bb bc 46 b0 1a 3d 24 24 3a bd
       -0.02519418 -0.02290567 0.037765764 -0.045444623
000340 5f d7 5b bd 53 dc 2a bd fd 19 5b bd ce 4b de bc
       -0.05367219 -0.041714024 -0.05349158 -0.027135756
000350 c7 92 f5 bc fa 52 7d ba 6e 09 15 bd 88 36 69 3d
       -0.029977215 -0.00096635486 -0.036385946 0.05693677
000360 38 11 99 bc 1a 97 ca bd 52 56 4a bc 75 ac af bc
       -0.018684968 -0.098921016 -0.012349682 -0.021444539
000370 22 29 67 bd d9 c4 b3 bd 9e 20 ea bd 69 9a 43 bd
       -0.05643571 -0.0877778 -0.114320025 -0.04775468
000380 e1 76 12 bd 03 25 6d bd e9 62 15 bd 97 c8 82 b9
       -0.035757903 -0.057896625 -0.03647128 -0.00024944983
000390 f0 f0 88 bc 0c 29 c1 bc 02 ce a7 bc 07 d6 23 bd
       -0.01671645 -0.023579143 -0.020483974 -0.039999034
0003a0 5b 78 1d bd 9b c0 ac 3c 41 0a 68 bc 7f 0f 88 bd
       -0.038444858 0.021087935 -0.014162601 -0.06643581
0003b0 09 f0 5e bc d7 bd 07 bd 11 e9 da bd 91 e3 3b bd
       -0.0136070335 -0.03314003 -0.10688985 -0.04587132
0003c0 91 3d 04 bc e0 a4 32 bd c0 20 bb 3a f1 d2 34 bc
       -0.008071319 -0.04361427 0.0014276728 -0.0110366205
0003d0 c9 26 39 bd 5c d4 02 be 68 44 6e 3c f7 d0 d2 bc
       -0.045203004 -0.12776321 0.0145426765 -0.025734408
0003e0 7b f3 90 bd a4 f7 f9 bc 55 d5 1c bd d4 32 17 bd
       -0.0707769 -0.030513592 -0.038289387 -0.036913708
0003f0 67 e4 67 bd 28 70 a1 bb e6 13 33 bd c3 80 8a bd
       -0.056614306 -0.0049267 -0.04372015 -0.067628406

fc3.weight f4 [256, 256]
000000 e0 c5 ef 3d ac a8 4d 3d 12 51 c4 bd 8b 93 57 3b
       0.117076635 0.050209686 -0.095857754 0.003289434
000010 34 ee b7 3c 4c e4 40 3d 27 12 fc bc 09 d2 0c bc
       0.022452451 0.04709272 -0.030770374 -0.008594998
000020 d8 40 07 3d f5 e4 35 3c 26 c3 44 3e f7 44 ae 3c
       0.033020824 0.011101951 0.19215068 0.02127312
000030 40 e7 26 3d 9e 12 c0 bd fb c4 10 bc 2a a4 e1 3d
       0.04074788 -0.09378551 -0.008836026 0.1101764
000040 9a cb 88 3d 00 6c 0e 3d 10 b5 9e be f8 59 80 bd
       0.06679459 0.034770966 -0.30997515 -0.0626716
000050 8d e2 95 3d fb 01 e2 bd bb 53 85 3c c6 f8 2a be
       0.07318602 -0.11035534 0.016275277 -0.16696462
000060 a4 67 96 3d 8b 3c 3f 3d 7a 67 20 be de d4 26 bd
       0.07343987 0.046688598 -0.15664473 -0.04073035
000070 7f e9 b4 bd 6f 64 77 3c 46 0d 0d 3d d1 3b f0 3c
       -0.08833598 0.015099629 0.034436487 0.029325398
000080 54 9c e5 bd d8 33 cf 3c e1 fa 02 3d 62 db 99 3d
       -0.11211458 0.025293276 0.031977538 0.07512547
000090 ce 2d 02 3c af c5 a8 3d 93 0f 6d bd 5e 4a ca 3b
       0.007945491 0.0824083 -0.05787618 0.006173416
0000a0 3c 9e a2 bc 41 be 1f 3e a0 32 f7 3c be a3 f1 3d
       -0.019850843 0.1559992 0.030175507 0.117988095
0000b0 8c 68 e4 bc ec f5 7a 3d 16 eb 19 3d 7c 27 e5 3c
       -0.027881883 0.061269686 0.03757771 0.02797293
0000c0 12 12 3d bd 59 89 9b 3d f8 d2 1f bd 5a 12 38 3d
       -0.04615981 0.07594556 -0.039019555 0.044939376
0000d0 05 eb ba 3d eb bc 2a 3d 44 7a c7 3d c3 59 b9 3d
       0.09126858 0.041684072 0.09740117 0.09050324
0000e0 00 0b 7c 3e 62 46 50 3d 70 44 04 be 5d b6 af bd
       0.24613571 0.050848372 -0.12916732 -0.08579705
0000f0 d6 d6 0c 3c 55 d8 41 3d d9 46 35 3d 22 ee 61 bd
       0.008596143 0.04732545 0.04425702 -0.05515874
000100 60 a7 27 3c 80 79 e5 ba fe 36 18 bc 63 86 0b 3b
       0.010232776 -0.0017507523 -0.009290455 0.0021289818
000110 a2 20 93 bd a7 89 dd 3d 1a c2 8c bd 1e a8 bc bd
       -0.071839586 0.10817271 -0.068729594 -0.09211753
000120 80 0c 7f bd 86 03 34 bd 48 ea 13 3e 98 fb 03 3c
       -0.06226778 -0.043948673 0.1444484 0.00805559
000130 94 d3 cd 3c 22 b1 02 3d 9b d6 52 bc e6 a6 d0 3d
       0.025125302 0.03190721 -0.012868549 0.10188083
000140 84 fa ea bb c6 c0 44 3d 92 bc b4 3d 92 1f 76 bd
       -0.007170977 0.048035406 0.088250294 -0.0600887
000150 c0 d3 64 3c ea e8 07 3e dd ce b9 3d 18 61 4a bd
       0.013966501 0.13272443 0.09072659 -0.049409002
000160 93 43 6f 3d d8 bb cd 3c 8f 09 c9 3c 18 98 84 bc
       0.058414053 0.025113985 0.02454069 -0.016185805
000170 9f 17 67 3d d9 b0 21 3c 48 b2 94 3c 20 b9 dc 3d
       0.05641901 0.009868824 0.018151417 0.10777497
000180 57 f8 c7 3c 33 80 e7 bd 6e b0 f1 3d 85 d8 a4 bd
       0.02441041 -0.11303749 0.118012294 -0.0804911
000190 47 dd c7 bc 94 ba 99 3d 25 7d ff 3d cf d8 65 bd
       -0.024397505 0.0750629 0.12475041 -0.056114968
0001a0 d8 b4 3b 3c 83 b5 ab 3d 92 39 5f bd df b9 06 3d
       0.011456691 0.0838423 -0.054498263 0.032892104
0001b0 b6 57 f5 3d a0 9e c8 bb e2 00 6f 3c 6c 3b 97 3c
       0.1197962 -0.006122425 0.014587613 0.018460952
0001c0 0f a0 9c 3d 10 47 12 bd 08 8e 28 3d 2f ce 1f bd
       0.07647716 -0.0357123 0.041151077 -0.03901499
0001d0 80 75 f9 bb b8 69 8a bc 15 f0 db 3c ac c9 27 3e
       -0.007612884 -0.016896114 0.026847878 0.16385525
0001e0 10 8b 2f bd 2c 94 47 3d b2 f1 ab 3d c0 71 59 bc
       -0.04285723 0.048725292 0.08395709 -0.013271749
0001f0 1c b7 d8 bc 8f a3 82 3c e2 45 18 bd 14 db 1b bd
       -0.0264545 0.015947131 -0.03717602 -0.038050726
000200 ac 6b 80 bd fc e8 f0 bc 8d 0e f0 bd d8 6e 4b bc
       -0.06270537 -0.02940797 -0.11721525 -0.012416564
000210 de de 1a 3e 07 5c d7 bc fb 24 bd bc 82 93 56 bd
       0.1512408 -0.026289 -0.023088923 -0.05238677
000220 9a c6 7f bd fb 27 0e bd 50 04 87 bc e8 da 3e 3d
       -0.06244526 -0.034706097 -0.016481549 0.046595484
000230 8b c5 b7 3d a8 90 ad bd ec fc 42 bd c6 4f 66 3d
       0.08973225 -0.084748566 -0.047604486 0.05622842
000240 64 88 71 3d 80 07 ee 3d e0 54 7a 3c 56 92 69 3d
       0.058967963 0.11622524 0.015279025 0.057024322
000250 72 36 c6 3d 15 4b ef 3d 9d 14 6a 3d e4 a2 4a 3d
       0.09678353 0.11684243 0.057148565 0.04947175
000260 d0 7e 80 bd 80 82 2c 3d 5e d6 98 3a e4 e9 c5 3c
       -0.062741876 0.042116642 0.0011660566 0.02415938
000270 73 4b e3 bd dd d8 68 3c b4 5f 20 3d eb 58 c7 bb
       -0.11098375 0.0142118605 0.03915377 -0.006083598
000280 18 93 68 bd 6c 40 0a be 20 13 25 3c 20 cb 78 bd
       -0.056780905 -0.13501137 0.010075361 -0.06074059
000290 9f d8 88 bd b3 9b b7 3d e0 94 39 3c b0 9d bc bc
       -0.06681942 0.08965244 0.0113269985 -0.02302441
0002a0 83 5a 14 3e 20 7c 15 bb cf 42 65 3d 16 4c 80 3d
       0.14487652 -0.002280958 0.055971917 0.06264512
0002b0 0c a3 e9 bd 38 9a bf 3c f9 83 61 bd 20 cc e1 bb
       -0.11408052 0.023388967 -0.0550575 -0.0068907887
0002c0 0f 2f 1f bd f0 6c 5a 3e ad fd 75 bb ea 32 fb bd
       -0.038863238 0.21330619 -0.0037535236 -0.122655705
0002d0 88 08 e7 bc 18 2d 11 3d 64 32 c4 3d 42 68 c0 bc
       -0.02820231 0.035443395 0.09579924 -0.023487214
0002e0 26 4f bf bd df 8b 02 3e c1 50 84 3c c7 e7 74 bd
       -0.09341268 0.12748669 0.016151788 -0.059791353
0002f0 dd 7c c2 bd 28 58 d3 3d 8d f3 89 be e0 d7 dc bd
       -0.09496472 0.10319549 -0.26943627 -0.107833624
000300 20 ca 76 bc 9f 6e c1 bd b6 78 ad bd 22 a8 e4 3c
       -0.015062839 -0.094449274 -0.084702894 0.027912203
000310 c0 c2 e5 3b 21 f0 88 bd 4c 88 e9 bd 0c dc 24 bc
       0.0070117414 -0.06686426 -0.1140295 -0.010062229
000320 9b 38 52 bc ec fe f2 3d 15 45 9a 3a 28 17 e3 3c
       -0.012830879 0.11865029 0.0011769856 0.027721003
000330 08 fe 3d 3e 10 a7 d3 bc 0a db 5b bd 9a e2 c6 3c
       0.18553936 -0.025836498 -0.05367569 0.024277974
000340 68 0b 92 3e e5 5a 78 3d bc 92 fa 3c da ff 7e 3d
       0.28524327 0.06063356 0.030587547 0.062255718
000350 cb a4 ae 3d 82 c8 7d 3d 92 01 23 bd a8 54 2a 3d
       0.085275255 0.061958797 -0.03979642 0.04158464
000360 88 ad 38 bd ec da 03 bc 49 c3 b3 bd fb 11 d3 3d
       -0.045087367 -0.0080478005 -0.08777482 0.10306164
000370 33 ef 18 bd 2b 5b be bd f4 fe db 3d 21 a2 f2 3c
       -0.037337493 -0.09294733 0.10741988 0.029618325
000380 7b c8 4e 3d 0e c1 fe 3c b8 7d dc bc 19 5b ef 3d
       0.05048416 0.031097915 -0.026915416 0.116872974
000390 70 6a bf bc fa 2c fa bc 7e e1 11 3e 44 56 ae 3b
       -0.023366183 -0.030539025 0.14246175 0.0053203423
0003a0 ec 2d 3b 3d 3a ed e5 bc 25 ec 49 3e 05 87 8e bd
       0.04569809 -0.02806722 0.19718988 -0.06959347
0003b0 43 2b 60 3d de 70 e9 3c ad b9 57 bd 36 d9 04 bd
       0.054728758 0.028496202 -0.05266731 -0.03243371
0003c0 f1 1d ba bd c2 ed 24 3e 78 84 26 3c 16 e5 9d bd
       -0.09087742 0.16106322 0.010163419 -0.0770971
0003d0 7f 94 a4 3d d2 10 37 bc 6c 99 5b bd cf d1 e4 3d
       0.08036136 -0.011173444 -0.05361311 0.1117283
0003e0 f0 29 fb bc a2 ec 84 bd 99 fb 50 bc 0e a2 2f 3e
       -0.030659646 -0.064904466 -0.012755298 0.17151663
0003f0 aa 93 e8 3c fb 18 a3 bd 8a b4 21 bd b4 13 07 3c
       0.028390724 -0.07963749 -0.039478816 0.008244444

fc3.bias f4 [256]
000000 e8 2b 92 bb f6 1a d5 3d 9a f9 de bd 72 93 f3 bd
       -0.0044608004 0.10405533 -0.108874515 -0.11893357
000010 04 cf e3 bc 08 c3 a8 bd fc 2e 90 3c 08 e9 ea bc
       -0.027808674 -0.08240324 0.017600529 -0.028675571
000020 7c b5 6f bc 9a f6 d2 3c d6 5b 8f bd bf b0 25 3d
       -0.014630672 0.025752354 -0.06999938 0.04045176
000030 25 26 ad bd 38 be d0 bc 9b 3b 3a bd c1 77 b4 bd
       -0.08454541 -0.025481328 -0.045467 -0.08811904
000040 95 4c c6 bd 95 23 cc 3c 68 d4 37 3d e0 58 75 bd
       -0.096825756 0.02491931 0.0448803 -0.05989921
000050 4c 80 84 3e a7 65 fe bc 5e ee b9 bc c4 25 a3 bd
       0.25879133 -0.031054331 -0.02269667 -0.079661876
000060 66 de 83 bd 0f b1 b9 bd 72 10 ca bd 9a e1 80 3d
       -0.064389035 -0.09066974 -0.09866418 0.0629303
000070 cd 24 c8 bc d8 71 20 bd d0 27 7d bd 25 cb f5 bd
       -0.02443161 -0.03917107 -0.061805546 -0.12001637
000080 08 52 a8 bb 9a c2 7e bd e4 0f 4f bd a9 1a 5e bc
       -0.005136732 -0.062197305 -0.050552264 -0.013556161
000090 fb dd e1 3d 92 20 1a 3d 5b 5c 0a 3e 1c b3 b4 bc
       0.110286675 0.037628718 0.13511793 -0.022058062
0000a0 1d 4b 31 3e cd 33 89 bd 42 44 ba bd a1 7b 70 3e
       0.1731381 -0.06699333 -0.090950504 0.2348466
0000b0 20 4c af bd 34 5b 17 bc a7 44 80 bd 9f 5a fe bd
       -0.085594416 -0.009238053 -0.062630944 -0.12419628
0000c0 c2 25 d1 bc 80 03 d5 bc 07 bb cb bd ef 7f ff bd
       -0.0255307 -0.026002645 -0.09947782 -0.12475573
0000d0 e4 20 de bd 81 84 de bd 39 9a 8c bc c4 03 80 bd
       -0.10846117 -0.10865117 -0.017163383 -0.06250718
0000e0 c1 90 8b 3e c7 4d 32 bd 0a 2f 26 3c 24 af 00 bd
       0.27258876 -0.043531206 0.010143051 -0.031417027
0000f0 ce ad 81 3e 12 36 bc 3c 07 d8 95 bd 95 e9 39 3e
       0.25327915 0.022975001 -0.073165946 0.1815551
000100 14 3f 77 bd b7 e6 21 bd 23 fc ed bc 21 97 95 3e
       -0.06036289 -0.039526667 -0.029050892 0.29216865
000110 cb fc 17 bd 69 34 99 3b 49 e1 3d bc 7d 78 8c bd
       -0.037106317 0.004675437 -0.011589357 -0.06858919
000120 63 5c 10 3e 1a e9 6f bd c8 e4 5b bc 27 2f 0a 3e
       0.14097743 -0.058571912 -0.013421245 0.1349455
000130 85 51 14 bd 38 48 b3 bd 6b 37 ae bd 29 ae 2f 3e
       -0.036210556 -0.08754009 -0.08506664 0.1715628
000140 84 2c 84 bd 33 47 9e bd 9b ed bc bc d3 08 93 bd
       -0.06453803 -0.07728424 -0.023062518 -0.071794175
000150 93 e2 da 3d 53 8d 04 be ec 77 5a bd 1b d4 93 bd
       0.10687747 -0.12944536 -0.053337023 -0.0721819
000160 b2 5c 94 bd a7 fe e3 bc 89 27 d2 bd 5b df a4 bd
       -0.07244243 -0.027831389 -0.10261447 -0.08050414
000170 c8 a6 97 bd 07 46 a0 bc ef 24 61 bc 58 01 08 3e
       -0.07404858 -0.019564642 -0.013741716 0.13281763
000180 88 1c c7 bb d0 68 28 3d 7b 45 4a bd bd 0f 6d bd
       -0.0060763992 0.041115582 -0.049382668 -0.057876337
000190 cd 67 a1 bd 76 02 60 bc f8 4f 5c 3c fd ac e8 bd
       -0.078811266 -0.013672462 0.0134468 -0.1136112
0001a0 35 df 3c bd 84 1a 43 bd 8e b2 cb bd 18 e9 b4 ba
       -0.046111304 -0.04763271 -0.09946166 -0.0013802378
0001b0 d6 80 01 bd 7e 36 9d bd d8 65 f0 bd fc 00 a5 bd
       -0.03161701 -0.07676409 -0.11738175 -0.080568284
0001c0 d9 c9 ac bd 71 ed d0 39 32 54 17 bd 84 b9 d5 ba
       -0.08436937 0.0003984976 -0.03694553 -0.0016305898
0001d0 17 e9 12 be 46 21 e3 bc a5 8a 64 bd 98 f2 a4 bd
       -0.14346729 -0.027725827 -0.055796284 -0.080540836
0001e0 d4 b8 70 bd 40 5d c4 bd 30 a2 90 bd e1 90 0f bd
       -0.058770016 -0.095880985 -0.07062185 -0.035050277
0001f0 5d 94 97 3d 14 ac 02 3e 22 55 22 bd 1f a0 e3 bd
       0.07401345 0.12760955 -0.03963197 -0.11114525
000200 e8 3a 03 be fc f4 df 3b 69 23 03 be 85 fd 91 bd
       -0.1281544 0.0068346243 -0.12806477 -0.07128433
000210 3f 68 fa bc f5 9e 00 be 33 12 b6 3c 2d 2b ac bd
       -0.030567287 -0.12560637 0.022225475 -0.084066726
000220 39 0e b5 bc a0 b8 02 be e8 94 5e bd 87 b9 d5 bd
       -0.022101508 -0.12765741 -0.054341227 -0.10435777
000230 bd bc a9 bd e6 3e 8a 3c 34 4b b0 3c 89 69 6a 3d
       -0.08287952 0.016875695 0.021520235 0.057229552
000240 10 b6 87 bd ea cb 31 bc eb d0 a4 3d 70 dc f6 bd
       -0.066265225 -0.01085184 0.080476604 -0.12053764
000250 71 82 d0 bc 1b 29 f7 bd 66 a7 ca 3d 72 e6 5f 3e
       -0.025452824 -0.12068387 0.0989521 0.21865252
000260 6e 5c 2d bd 53 25 57 bd 23 dd 97 3d 6b 65 73 bd
       -0.042324476 -0.05252583 0.07415225 -0.05942289
000270 f1 29 c6 bd 9f ba 81 bd 63 62 af 3e 03 b2 4f bd
       -0.096759684 -0.06334423 0.3425475 -0.050706875
000280 19 c7 b9 bd 51 9b 40 bd f9 c0 3a 3c db 41 a1 ba
       -0.09071178 -0.04702312 0.011398547 -0.0012302952
000290 9e f3 af bd c1 40 84 bd 05 26 b6 bd 73 4a 2d be
       -0.08591388 -0.06457663 -0.088939704 -0.16922931
0002a0 39 7d 11 3e 4e f9 98 bd ba c6 6e 3e 2b 98 8d bd
       0.14207925 -0.07469426 0.23317996 -0.06913789
0002b0 d7 c6 d1 bd 60 cf 1a bd fb df 0d 3d 34 7c 63 bd
       -0.10243004 -0.037795424 0.034637433 -0.05553837
0002c0 20 5c 0f be e0 ac 0a bd ab 2c 38 3c 7c 3c 5a bd
       -0.13999987 -0.033856273 0.011241118 -0.05328034
0002d0 c9 32 c6 bb 56 b7 0d be 4a c6 89 bd 22 93 3f 3e
       -0.0060485345 -0.13839468 -0.06727274 0.1870847
0002e0 2a b7 11 3d 39 ad 0e bc 40 99 fa bd 2b ce 78 bd
       0.03557507 -0.008708292 -0.12236261 -0.060743492
0002f0 f4 9c 15 be 02 c3 7d bd 25 e9 ae bd 7f 1b 6c bc
       -0.14610654 -0.061953552 -0.085405625 -0.014410852
000300 3d e0 bf bd a7 44 68 bd 71 af 67 bd 46 b4 5e bd
       -0.09368942 -0.056706097 -0.0565638 -0.05437114
000310 6e 69 93 bd 17 be 2f bd 4f 5d 02 be 23 a5 8d bd
       -0.071978435 -0.042905893 -0.12730907 -0.06916263
000320 c4 5a 13 bd 67 ce e1 3d 24 9e f5 bc cb 70 e3 3c
       -0.035975233 0.11025696 -0.029982634 0.027763745
000330 4d f6 1a bc 02 96 a6 bd 45 88 8e bc d3 34 08 3d
       -0.009458137 -0.081340805 -0.017398963 0.033253502
000340 33 d4 92 bd 1a 0d 24 3e 5c f2 c2 bd 6e 41 33 bd
       -0.0716938 0.16020623 -0.09518883 -0.04376357
000350 7d 24 89 3e 01 fe 78 bd 54 da 17 be bd fa d1 bd
       0.2678565 -0.060789112 -0.1482938 -0.10252903
000360 e7 39 a9 bd 44 0e b1 bd 77 d5 b5 bd ee a0 49 bd
       -0.08262997 -0.08645299 -0.08878606 -0.04922574
000370 f5 d7 fc bd ab b7 a5 bd fb 59 ae bc bf 5b 78 bd
       -0.12345878 -0.080916725 -0.02128314 -0.06063437
000380 bd c4 36 bd f4 60 39 bd 41 4d 6c bd b9 dd f1 bc
       -0.044621218 -0.045258477 -0.057690863 -0.02952467
000390 c8 b6 84 bd 4b 19 90 3c 88 1e 91 bd 40 aa 44 bd
       -0.06480175 0.017590186 -0.070859015 -0.048013926
0003a0 f6 ef bd bd 21 cd 07 bc 27 98 73 bd 95 a7 49 bc
       -0.092742845 -0.008288653 -0.059471276 -0.012308021
0003b0 66 4c 80 bd 12 0d 15 3d b0 c3 e8 bd 18 7f 60 bd
       -0.06264572 0.036389418 -0.113654494 -0.054808706
0003c0 e2 32 d1 3c 56 3d 81 bc 86 09 98 3e 86 0d 4c bc
       0.025536958 -0.015776318 0.29694766 -0.012454396
0003d0 a2 58 a0 bd 74 14 61 bd 2a 96 15 bd c5 f4 b4 bd
       -0.07829405 -0.054951146 -0.03652016 -0.088357486
0003e0 b3 61 d8 bd 03 35 02 bd 23 bf c8 bd 79 e5 71 bc
       -0.1056551 -0.031788837 -0.098020814 -0.014764183
0003f0 27 e8 12 3d da d5 39 3c 37 53 8f bd fa 1a 4a 3e
       0.03586593 0.01134249 -0.06998294 0.19736853

classifier.weight f4 [16, 256]
000000 c0 9a 23 be 43 38 4d be b6 d8 37 bb 04 98 a9 bb
       -0.15977001 -0.20040993 -0.0028052754 -0.0051755924
000010 85 b4 fd bd d1 52 be bd 57 27 32 be 81 b0 6d bd
       -0.12387947 -0.0929314 -0.1739782 -0.058029655
000020 20 55 ac bd a3 00 36 3d 18 e0 ee 3d cd b6 af 3d
       -0.08414674 0.0444342 0.11663836 0.08579788
000030 9c 67 a8 3b 21 cf a2 3d a7 0a 0a 3d ce 9d 3f 3c
       0.0051393043 0.07949663 0.033701565 0.011695338
000040 ec 86 e5 3d ed 01 b4 3c a5 86 16 3c 79 3c 6c 3c
       0.11207375 0.021973575 0.009187375 0.014418715
000050 bd 29 c0 be e1 1b bd 3d cd b1 e4 3d 43 23 23 bd
       -0.37531844 0.09233833 0.11166725 -0.03982855
000060 b6 3a 03 3d 47 14 e7 bb b6 cf e0 bd d8 6c 5f 3d
       0.032038413 -0.007051978 -0.10977118 0.05454716
000070 db 69 b3 bb 06 08 84 3d 24 a6 a9 bd 7b ee 0d bd
       -0.0054752654 0.06446843 -0.08283642 -0.03465126
000080 08 1b e0 3c ce 4b e4 bd 34 1e 34 bd 8e 69 69 be
       0.02735664 -0.11147271 -0.043974116 -0.22794172
000090 13 79 a1 be 90 6b 91 3d 3b 76 ea 3a 13 18 c7 bd
       -0.31537685 0.07100594 0.0017888019 -0.09721389
0000a0 3b 12 5c bd dc e5 d2 bd cb 8b ed 3c 09 a8 8a be
       -0.053728323 -0.102977484 0.028997323 -0.27081326
0000b0 fd 95 8b 3d 5c 33 e5 bd f3 8f b9 3d 87 ae f4 3d
       0.06815717 -0.11191437 0.09060659 0.11947351
0000c0 48 4a 6a bd d1 da d4 3d 36 b8 6b 3c 54 06 2c be
       -0.057199746 0.103932984 0.014387181 -0.16799289
0000d0 bd 8a 49 3d 51 b1 63 3d 94 7f 73 3b 9d c0 21 3e
       0.049204577 0.055589024 0.00371549 0.15796132
0000e0 91 73 c5 be 40 2e 16 3d 7d 54 88 3c 9f 07 7b 3c
       -0.38564733 0.0366652 0.01664185 0.015321641
0000f0 24 55 9e be cb 74 52 3b a7 8a f9 3d 3d c9 a9 be
       -0.30924332 0.003211307 0.12184649 -0.33161345
000100 b8 50 23 3d 14 b5 b2 bd 0b 50 81 3a 93 df 95 be
       0.0398719 -0.08725944 0.0009865774 -0.29272136
000110 9e 9f b5 bd 9d 37 a5 3d 52 b6 b1 bd c8 d3 4f be
       -0.08868335 0.08067248 -0.08677353 -0.20295632
000120 73 58 7f bc 40 9d 67 3d 12 6a 44 bd 06 70 70 be
       -0.015585053 0.05654645 -0.04795272 -0.23480234
000130 f1 53 34 ba e9 61 bd bd 66 9a 02 bd 91 98 e4 3c
       -0.00068789633 -0.092471905 -0.031885527 0.02790478
000140 3e 68 fa bd f6 37 12 be 1e cd 69 3d 7c 23 39 bd
       -0.12226914 -0.1427916 0.05708038 -0.045199856
000150 80 b7 06 be 91 0f b2 bb c6 a0 74 3a 0b e2 20 3d
       -0.13155937 -0.0054339846 0.00093318184 0.03927807
000160 56 64 89 3d 50 b2 b8 3b 8e d3 95 bd 01 10 23 bd
       0.06708591 0.005636491 -0.073157415 -0.039810184
000170 35 5e 0c 3e 7d 98 db bd 0a 82 0c 3d 2b 30 1d 3d
       0.13707812 -0.10722444 0.034303702 0.038376015
000180 c7 85 1e 3e 3e 0c 42 be 96 00 7e be d9 a6 b9 3d
       0.1548072 -0.18949983 -0.24804911 0.09065027
000190 86 c6 b7 bd dd bd ee bb f0 2c 93 3c 21 91 ff 3c
       -0.08973412 -0.007285817 0.017965764 0.031197133
0001a0 4d a3 fa 3c ab 69 a6 bc d4 94 8c 3d 27 89 02 3d
       0.030595446 -0.020314058 0.06864324 0.03186908
0001b0 a6 7d fe bc 4c 24 46 3d 3b 89 24 3d 05 5c a2 bd
       -0.031065773 0.04837446 0.040169936 -0.079277076
0001c0 74 64 d7 bd 42 3d 90 3c a6 7b 30 3d bd d5 9a 3d
       -0.10517207 0.017607335 0.04308667 0.075602986
0001d0 6b 18 12 bd 4a 4c 81 bd f7 17 ab 3c 36 eb ac 3d
       -0.035667818 -0.06313379 0.02088545 0.084433004
0001e0 31 e7 6d bd 94 4c a3 3c 3e 38 b2 3d ff d0 4b be
       -0.05808181 0.019933976 0.087021336 -0.19903944
0001f0 ee 4e b9 be 79 68 94 be 57 33 b3 bd b4 ad 80 bd
       -0.3619303 -0.28985956 -0.08750027 -0.06283131
000200 06 76 13 bd 5a 24 de 3d 42 5b ee bc 10 fa c6 3a
       -0.036001228 0.10846777 -0.02909625 0.0015180726
000210 6a fa 8a 3d 16 61 ff 3d ec bb e7 3d 74 df cc bc
       0.06786044 0.124696895 0.1131514 -0.025008895
000220 0f 79 e0 bd 59 e8 a1 3c 33 fc 16 3d d0 64 1e bc
       -0.1096059 0.019764112 0.03686161 -0.00966759
000230 2c b3 82 3c 1a 42 f8 bb 8e 48 d8 bd 5e fc 47 be
       0.015954576 -0.0075762393 -0.10560714 -0.19529864
000240 5d 6d 8c 3b 5b 40 c1 bd 22 4d e8 bd 6b 3f fd 3b
       0.004285498 -0.09436103 -0.11342837 0.0077285073
000250 0d 54 61 3d 26 6b ec 3c 13 69 af 3d 39 a7 62 be
       0.055011798 0.028859686 0.08564963 -0.22134103
000260 c8 19 e3 3c bf 1d b7 bd 16 46 b9 be 1b da 1f 3d
       0.027722254 -0.089412205 -0.36186284 0.03902636
000270 31 43 95 3d 30 b3 03 3e a3 9c 2f bf 3f e2 0b bd
       0.07288206 0.12861323 -0.68598384 -0.034151312
000280 1f ce cf 3c 9e 0c dc 3c 4a f0 ef 3d 69 1d 01 be
       0.02536684 0.026861485 0.117157534 -0.12608875
000290 32 21 02 3e 32 1b 83 3c 0e e0 6c b9 47 6f 0c 3c
       0.12707976 0.016004179 -0.00022590181 0.008571452
0002a0 71 53 01 bd 4a a2 8f bc 85 c1 76 be 33 eb 9c bd
       -0.031573717 -0.01753344 -0.2409726 -0.07662048
0002b0 b1 8a 96 bd 0c 8e 52 3d 7a 52 00 be 29 a3 47 bc
       -0.07350672 0.051404998 -0.12531462 -0.0121848965
0002c0 a3 09 d7 3c 19 da 4e 3c 6e 7a a3 bc aa c5 93 3d
       0.026249712 0.012625241 -0.01995584 0.07215436
0002d0 fc 08 fb 3c fc f0 46 bd 9f 34 d6 3d b0 d6 81 3d
       0.030643933 -0.048569664 0.104592554 0.063397765
0002e0 59 a6 2c be ae c1 57 bd bd be ec 3b 7b 5a 31 bd
       -0.16860332 -0.05267494 0.007224886 -0.04329918
0002f0 bf a1 a9 3b fa fc 24 3d c7 10 5e bb 07 83 c1 bd
       0.0051767523 0.04028032 -0.0033884512 -0.094488196
000300 30 12 ed 3d 66 13 bc 3b ac b9 61 3b b5 3e af 3d
       0.115757346 0.005739617 0.0034442944 0.08556882
000310 3b 33 57 3c 27 23 01 3e d7 b0 8c bd ee 6b d5 bc
       0.013134773 0.12611066 -0.06869667 -0.026052441
000320 80 78 48 3b 54 78 4a be 88 1e e9 3c 9a 23 06 be
       0.0030589402 -0.19772464 0.028456941 -0.13099518
000330 7a 3f 59 3d 72 eb 59 3d 32 96 89 3c 8d bf 5d be
       0.05303905 0.053203054 0.016795252 -0.21655102
000340 21 0a a3 bd 3d cf 4c bd d2 2f 37 3d db 77 86 bd
       -0.07960916 -0.050002325 0.04472334 -0.06565829
000350 a9 2f 36 bf cb 69 7e bb 14 b6 97 bb 27 67 d1 bd
       -0.71166474 -0.0038820382 -0.0046298597 -0.10224753
000360 66 fd 96 3d a4 63 00 bd 0f 46 9c ba 2f 17 00 bc
       0.07372551 -0.031345025 -0.0011922735 -0.007818027
000370 49 29 ef bd 75 2d 2e 3d 96 7b 08 3b f0 17 09 3d
       -0.116777964 0.04252382 0.0020825616 0.033470094
000380 52 90 ee bd 56 71 ef 3c 6c 54 46 3d e8 04 c1 bd
       -0.11648621 0.029228847 0.048420355 -0.09424764
000390 4d a1 a8 3d 84 67 0e 3d 30 b9 82 3d 4e 1c 77 bc
       0.08233891 0.03476669 0.06382978 -0.015082432
0003a0 3c 5a cd 3c cd 32 95 3d 2f 86 53 bd e0 a8 d3 bd
       0.025067441 0.0728508 -0.05164164 -0.10334945
0003b0 b6 39 ad bc 48 f7 58 3d 34 a7 99 3c 5c e3 0e 3e
       -0.021145683 0.0529702 0.018756486 0.13953918
0003c0 2f 91 c1 3d 37 f0 36 bd f8 09 3c bf 42 74 a8 bd
       0.0945152 -0.04466268 -0.7345271 -0.082252994
0003d0 f5 4a a8 3d 0e ba cc bd e1 10 cc bc 4b 8a a3 bd
       0.08217422 -0.099964246 -0.024910392 -0.07985362
0003e0 ff 70 19 be 95 37 4f 3d 72 15 f8 bd 28 da 35 3d
       -0.14984511 0.050590117 -0.12113465 0.044397503
0003f0 e0 d1 44 3d 44 7c 0a be 5a b1 54 bc c8 01 4d be
       0.048051715 -0.13523966 -0.012981737 -0.2002021

classifier.bias f4 [16]
000000 7f 45 0a be 6d ad 01 be 59 c3 ee bb a4 f1 45 3d
       -0.13503073 -0.12663813 -0.007286471 0.04832615
000010 93 5e c6 3c 4b 5f da 3d e2 b6 82 3d 73 98 02 3e
       0.024215018 0.10662707 0.063825384 0.12753467
000020 20 63 22 3c a9 bf b0 3d 9a 9f db 3c 13 08 19 bd
       0.009911329 0.08630306 0.026809502 -0.037361216
000030 75 54 da 3d 12 cc c2 3b 2b 1a 83 3a 6e 1b 7f bd
       0.1066064 0.0059447372 0.0010002305 -0.06228202
