transfer04_17_00_22_10_12_FullyConnected.pth (torch, 550959 bytes, 8 tensors)

fc1.weight f4 [256, 4]
000000 1c 1f f1 be f0 81 46 bd 86 37 d8 3e 58 36 88 be
       -0.47094047 -0.04846376 0.4222986 -0.2660396
000010 88 4c 26 3d 2c a9 7f 3b 26 03 70 be ab 41 a7 3e
       0.04060033 0.0039010746 -0.23438701 0.32667288
000020 43 4f 50 3e 44 b6 c2 be 6a 36 1a bf 3b a5 99 3d
       0.20342736 -0.38029683 -0.6023928 0.07502218
000030 70 66 8e 3e 94 5c 05 bf ec 8a 24 bf 4a 40 f2 3c
       0.2781253 -0.5209439 -0.6427448 0.029571671
000040 90 e3 3a bd f8 67 4d be 26 42 90 be 08 cd bf be
       -0.045627177 -0.20059192 -0.28175467 -0.37461114
000050 a0 c9 8d bc a6 41 de 3e 04 d0 47 be 4c ef de be
       -0.017308056 0.4340946 -0.19512945 -0.43541944
000060 dd 32 b7 be cc f2 22 3f 45 dc 51 be 7d ba 8d be
       -0.35780993 0.6365173 -0.20494182 -0.27681342
000070 74 cc 80 3e 60 8f c4 3d 62 ac e8 be e0 31 8b bd
       0.25155985 0.09597659 -0.45444018 -0.06796622
000080 b6 9e 59 3e 12 37 c2 be 47 ae b3 3e 5e 19 39 3e
       0.2125195 -0.3793264 0.350939 0.18076083
000090 8c 74 7d be a0 2f 77 3d 30 d1 b6 be 00 16 f1 bb
       -0.2475149 0.060348153 -0.35706472 -0.007357359
0000a0 c8 8f bd be 16 38 e0 be 74 59 09 be 60 f9 e0 be
       -0.3702376 -0.4379279 -0.1341303 -0.43940258
0000b0 14 da 40 be a1 c8 53 be 4b 20 09 bf 5f 6d 2e be
       -0.1883319 -0.20682003 -0.535649 -0.1703391
0000c0 67 b9 0f 3e fc ef d6 3e a5 6f db 3e 75 71 62 3e
       0.14035569 0.4197997 0.42858616 0.22113593
0000d0 12 50 ab 3e 48 ee 01 3f 1f 41 06 3f 99 5a cc be
       0.33459526 0.50754213 0.52443117 -0.3991287
0000e0 7c bb ad 3e 52 0e 3b 3e 5c cd d5 be 27 80 2b 3e
       0.33932102 0.18267182 -0.4175824 0.16748105
0000f0 bc af a0 be f2 c8 20 3f d1 c2 13 3f 90 f7 8e 3d
       -0.31384075 0.6280662 0.5771914 0.069808125
000100 a6 ee b9 bd f9 eb 60 3e 8a 39 bb 3e d8 93 85 3e
       -0.09078722 0.21965016 0.36567336 0.26089358
000110 8e 23 c5 be 28 91 62 be 80 9d 63 3d ba 10 a1 be
       -0.3850369 -0.22125685 0.055570126 -0.31458074
000120 e8 0f ef bd 32 a5 da be 86 66 89 be 7c 0e 03 be
       -0.11672956 -0.4270416 -0.26836032 -0.12798494
000130 62 ca c0 3e bf 76 96 3e 16 76 2f 3e 8d 01 93 bc
       0.37654406 0.2938747 0.1713489 -0.017945075
000140 f8 c8 ee 3d 66 3d d5 be 28 a6 ac be 06 82 e0 be
       0.116594255 -0.41648406 -0.33720517 -0.438492
000150 9e ef 10 3e 5b 54 24 3f af cb 9a bd 94 28 8c 3e
       0.14153907 0.64191216 -0.07558381 0.2737471
000160 a1 c5 b9 be a3 8c 10 bf 08 ca 1e bf 3d 1e 36 bd
       -0.3628359 -0.56464595 -0.62027025 -0.04446243
000170 97 de 50 bd 32 8a 72 3e 7b b5 c2 3e 83 2a 7d 3c
       -0.05099353 0.2368553 0.38029084 0.01545203
000180 46 c0 dc 3e 84 d2 0d be 68 c3 4f 3e 50 bb ff be
       0.43115443 -0.13849837 0.20289385 -0.49947596
000190 1c 3b 59 be b4 a7 8d be 50 68 b5 be fe fb 9e be
       -0.21213955 -0.2766701 -0.35431147 -0.3105163
0001a0 2e ac 36 be 21 d8 2f 3f 2d 28 23 3f a8 54 92 be
       -0.17839119 0.6868916 0.6373318 -0.28580213
0001b0 06 98 cb 3e 00 e1 e4 3c 1c 14 5b be 5e d2 8d be
       0.39764422 0.02793932 -0.2139439 -0.2769956
0001c0 61 48 e3 3e 79 56 03 3f 2c d7 1e 3f f1 7b 93 3e
       0.44391158 0.5130382 0.62047076 0.28805497
0001d0 da b4 88 3e 54 7b cf 3d cc 11 d7 be b1 48 b7 be
       0.2670048 0.10130945 -0.42005765 -0.35797647
0001e0 6c cb 98 3e 52 46 8f bc 82 17 91 be b0 b7 bc 3d
       0.298427 -0.017489586 -0.28338248 0.09214723
0001f0 9a 4f c0 bd a7 5f 09 bf 9d 86 2a bf 36 7f 5a 3e
       -0.09390183 -0.5366158 -0.66611654 0.2133759
000200 da e5 81 3e 4c 93 bf be 46 a8 0a bf b5 b1 06 3e
       0.25370675 -0.37417066 -0.54163015 0.13153727
000210 7c 5d 30 3d 7c 06 df 3e c8 5a 16 3f 67 60 51 3d
       0.043057904 0.43559635 0.5873227 0.051117327
000220 62 fa 38 3d 11 bd a4 3d ca a8 03 bf 16 7a 61 3e
       0.04516066 0.08043874 -0.51429427 0.22019228
000230 22 bf 26 be 18 d8 dc 3d 25 19 11 3f 3e 2a 26 3e
       -0.16283849 0.10783404 0.5667899 0.16227052
000240 e9 25 d0 3d b6 2f 06 bf db ea d2 bd c5 98 ac 3e
       0.10163481 -0.5241655 -0.102987014 0.33710304
000250 40 d9 24 be 78 44 19 bf 3d eb 00 be cf 98 76 3e
       -0.160985 -0.598701 -0.12589736 0.2408173
000260 0e 11 90 be 70 1e 4a bd fc 93 d8 3e fc 75 d8 be
       -0.28138012 -0.049345434 0.42300403 -0.42277515
000270 16 f9 cb 3e 04 eb f2 3e 20 5b 24 3d 90 20 a4 be
       0.39838475 0.47444928 0.040125966 -0.32056093
000280 19 64 f9 3d 08 5b 24 3f a5 33 cb 3e e3 cc 12 3e
       0.12177295 0.642014 0.3968784 0.1433597
000290 9b 10 c2 3e ed 91 03 3f b1 f2 ef 3e c2 20 ec be
       0.37903294 0.5139454 0.46864846 -0.46118742
0002a0 33 e7 46 be e4 94 ab be 1d 24 3d be 7f 54 08 be
       -0.19424133 -0.33512032 -0.18470807 -0.13313483
0002b0 04 b9 d0 be 18 05 ab be 9e 94 95 3e 06 99 c0 be
       -0.40766156 -0.33402324 0.29214948 -0.37616748
0002c0 78 03 b1 bd b8 ff 9a bd 1c c9 5b be de ab a4 be
       -0.0864324 -0.07568306 -0.21463436 -0.32162374
0002d0 ff c8 99 bd 00 7e b4 3e 96 38 13 3e 62 07 ea 3d
       -0.0750904 0.3525238 0.14377055 0.114271894
0002e0 94 d9 0e 3f 37 00 da be cb b0 68 3e 37 19 b3 be
       0.5580075 -0.4257829 0.22723691 -0.34980175
0002f0 36 37 9b bd 7e 6c 2f 3f 32 b9 84 3e 07 de c8 3d
       -0.0757889 0.6852492 0.25922543 0.09807973
000300 80 0d 81 3b a0 01 39 3e 88 40 d6 3e 9c 0f 7e be
       0.003938377 0.18067026 0.41846108 -0.24810642
000310 ed 8e 12 bf d9 9f 1d be ae 53 91 3e 59 d5 ac 3e
       -0.5724934 -0.15393008 0.28384155 0.3375652
000320 88 8e 5b 3e 64 36 93 3e 41 87 8d 3d b1 d3 6f be
       0.2144109 0.28752434 0.06910563 -0.23420598
000330 50 e0 68 bd 6c 2e 81 be 6c d8 38 be b0 7c 50 bd
       -0.056854546 -0.2523073 -0.18051308 -0.05090016
000340 72 27 0a bf 5c 3e a9 3e 09 5e 0f 3e 53 48 ba be
       -0.5396644 0.3305539 0.14000715 -0.36383304
000350 d0 eb 51 3e 2a ef 18 3e 44 1b 5e be b4 87 2f 3e
       0.20500112 0.14934984 -0.21690089 0.1714161
000360 b6 89 58 3d a5 de d1 be 28 0d ce 3d ca e9 87 bd
       0.052865706 -0.40990177 0.10061103 -0.066363886
000370 91 68 53 be 92 1f f7 3e ab 02 0d 3f e0 c6 c3 bc
       -0.20645358 0.48266274 0.55082196 -0.023898542
000380 c5 07 05 bf 75 67 72 3e a8 cf 11 3d 2f 65 a5 3d
       -0.5196498 0.23672278 0.035598427 0.0807594
000390 a9 ca c0 3e 57 89 d1 3e 36 4f 0f 3f 06 69 29 be
       0.37654617 0.40925094 0.5598024 -0.1654397
0003a0 e3 fb d0 bd c8 b5 ef 3e 6f f6 21 3e 01 f3 09 be
       -0.102042936 0.46818376 0.15816663 -0.13471605
0003b0 88 c6 c6 bd 60 57 ed 3c f8 48 70 3e 7e b1 c4 be
       -0.097058356 0.028972328 0.23465335 -0.38416666
0003c0 f3 ef 4a 3e fe e8 63 be ab 65 b1 3e d4 c7 4c 3e
       0.19818096 -0.22256848 0.3464788 0.19998103
0003d0 a1 30 c6 be 31 6b 2f 3f 7d 81 11 be 31 51 e3 3e
       -0.38708976 0.68522936 -0.14209552 0.44397882
0003e0 83 da d7 3e e8 26 bf 3e 95 1c ab be a2 44 2b 3e
       0.421589 0.3733437 -0.33420244 0.167254
0003f0 10 47 e5 3e 41 db 8f be 4e 20 63 be b1 d8 f3 be
       0.4478078 -0.28096965 -0.22180292 -0.4762626

fc1.bias f4 [256]
000000 8c b3 2a be d5 75 ee be be bb 28 3e 1a 44 aa 3c
       -0.16670054 -0.46574274 0.16477868 0.020784426
000010 00 84 d4 3b 18 e7 1c be ec fd d1 3e 2a 23 e2 be
       0.006485462 -0.1532253 0.4101404 -0.44167453
000020 c9 11 9f bd 8c b8 05 be da 64 e0 be a5 61 f9 3e
       -0.07767064 -0.1305868 -0.43826944 0.4870731
000030 87 1e c6 3c 16 1b 87 3e c9 2c 82 be 40 df a8 bc
       0.024184478 0.26387852 -0.25424793 -0.020614266
000040 d7 61 20 3e 54 0c 06 be 16 85 99 be c8 cf 81 3e
       0.15662323 -0.1309064 -0.2998435 0.25353837
000050 fe 75 92 be 27 18 dc bc 2a 25 ec 3e 84 83 bc bc
       -0.28605646 -0.026866985 0.46122104 -0.02301193
000060 10 ef fd bd e0 92 c4 bc 85 55 85 3d 3c 43 65 be
       -0.12399113 -0.023995817 0.06510452 -0.22388929
000070 73 19 c6 be e2 95 43 3e 3c 1d e7 be 74 57 f3 3e
       -0.3869129 0.19100145 -0.45139492 0.4752766
000080 35 a2 50 3e 87 54 a7 bd 07 f6 46 be 81 ac 21 3e
       0.20374377 -0.08170419 -0.1942979 0.15788461
000090 a9 04 85 bd da 47 5f bd 4a 8e af be ac ed f0 be
       -0.064950295 -0.054511882 -0.34288245 -0.4705633
0000a0 80 9b 55 3e 88 90 e5 3d 15 29 ec 3e 2c ec 54 3e
       0.208601 0.11209208 0.46125093 0.20793217
0000b0 20 ab 9a bc 85 34 51 3d d5 39 86 3e e1 62 6c 3e
       -0.018880427 0.051075477 0.26215997 0.23084594
0000c0 80 7d e1 be b6 bc 5a 3e 63 ad af 3e c2 ac d4 be
       -0.4404106 0.2136105 0.3431197 -0.41538054
0000d0 79 dc 19 3d e6 6f ed be 22 fe 7a 3e e2 5a b5 bc
       0.037563775 -0.46374434 0.24511006 -0.022138063
0000e0 f4 be 1c be e2 1a da 3d 1d 9d e5 3d 20 d1 81 bd
       -0.15307218 0.10649659 0.112116076 -0.063387156
0000f0 e7 b3 c6 be 40 31 89 be 3e 7d 93 be da ef e7 3e
       -0.3880913 -0.26795387 -0.2880649 0.4530018
000100 84 ff a1 be 48 3e ba be 4b de a1 3e 6f cf 85 3e
       -0.31640255 -0.36375642 0.3161491 0.26134822
000110 d6 14 93 be ca 17 8a ba d0 60 71 bd d6 4b 82 3e
       -0.28726834 -0.0010535654 -0.05893022 0.25448483
000120 4e 46 6a 3e a6 a1 15 be 42 55 e8 be 0a 08 c4 3e
       0.22878382 -0.14612445 -0.45377547 0.38287383
000130 6d 70 10 bd e8 79 d0 bd 34 d0 7d 3e 4d b2 bf be
       -0.035263468 -0.10179502 0.24786454 -0.3744072
000140 6a de 3b 3e 5b 19 f7 bd 20 25 54 3e 50 e4 12 bd
       0.18346563 -0.12065383 0.20717287 -0.035862267
000150 b8 05 b1 bd e8 72 d7 bd a0 a0 e7 be 20 fd 92 bc
       -0.08643669 -0.105199635 -0.45239735 -0.017942965
000160 20 30 aa 3d b4 ff fa be d8 62 c4 be 10 6f 41 be
       0.0830996 -0.4902321 -0.38356662 -0.18890023
000170 75 0b b3 be 3c 3f 7f 3e 89 0e 4e 3e 77 f6 49 bd
       -0.3496968 0.24926466 0.20122732 -0.049307313
000180 93 ca 7c 3e 43 a4 9d 3b 66 cb 80 3d 66 b2 b9 bd
       0.24686651 0.0048108413 0.06288795 -0.0906723
000190 82 d8 96 3e a0 0e 62 be 6d f5 f0 bd 3c 77 d2 3e
       0.29462057 -0.22075891 -0.11765561 0.41106594
0001a0 98 e7 f8 bd 10 e9 8e 3e a4 01 7a be c8 cd d3 bd
       -0.12153548 0.27912188 -0.24414688 -0.10341984
0001b0 6f 4b 3d 3d cd 11 1f be b0 52 c5 3e 49 54 b5 3e
       0.046214517 -0.15534134 0.38539648 0.35415867
0001c0 e0 3d 45 3e 36 c7 f4 be e0 1c c2 bc 82 24 d0 bd
       0.19261885 -0.47808236 -0.02369541 -0.10163213
0001d0 42 b5 6c 3e 55 9f 3c 3e a0 07 ff be 9d 8f 3e be
       0.2311602 0.18420155 -0.49810505 -0.18609472
0001e0 67 de ae 3e 3e ec 1d 3e 88 66 cf be 45 11 09 3f
       0.34154055 0.1542215 -0.40507913 0.53541976
0001f0 78 ce 8e be 66 d5 8c 3e 88 08 88 3d d3 2a 3d bd
       -0.27891898 0.2750656 0.06642252 -0.04618342
000200 76 56 ac 3d 60 a7 b0 3c 34 41 81 be b5 38 22 3e
       0.084149286 0.021564186 -0.2524506 0.15841945
000210 be d1 92 3e c8 ac da be a5 1c ba be 27 0a 2e 3e
       0.28675646 -0.42709947 -0.3634998 0.1699606
000220 d5 ca 01 bf fc 03 8b be 2d a7 bc 3e 58 4d 1e 3e
       -0.5070012 -0.27151477 0.36846295 0.15459192
000230 dd 03 43 3b 7a 94 de be 8a 03 fe be a4 6c 25 bd
       0.0029756941 -0.43472654 -0.49612075 -0.04038681
000240 5a a2 81 be 28 af cf bc f0 3f 36 be de 4f 3c be
       -0.25319177 -0.025352076 -0.17797828 -0.18389842
000250 86 13 97 3e ec 13 b7 3d 68 6e 0c be 89 16 2a 3e
       0.29507083 0.08939347 -0.13713992 0.16610159
000260 82 a6 91 be 1c 09 46 3d b6 7e fc 3d 40 07 f6 bd
       -0.28447348 0.04834853 0.12328856 -0.120131016
000270 93 d5 2e 3e f0 50 ac 3c 79 37 3a bc d4 7f 5f be
       0.1707366 0.021034688 -0.011365765 -0.21826106
000280 ba 05 df be 23 cd 99 3d d8 4f 4f 3e e6 64 f7 be
       -0.43559057 0.0750983 0.20245302 -0.48319167
000290 3c 06 2e be 4a e2 d5 be 54 06 73 3e 70 e0 6e 3e
       -0.16994566 -0.41774207 0.23732883 0.23327804
0002a0 6b 36 b6 3e 7a 5e c0 3d 80 c2 71 be c0 12 b3 3c
       0.35588393 0.0939302 -0.23609352 0.021859527
0002b0 bd 2b 60 3e 22 3a b1 3d bc a9 1a 3e d3 7d aa 3e
       0.21891685 0.08653666 0.15103811 0.3329912
0002c0 3c 76 76 be 64 07 99 3d a8 ea 60 be 96 ad be 3e
       -0.2406854 0.07472113 -0.21964514 0.3724181
0002d0 c6 16 38 3e 1e f3 a1 3e a7 d0 6d 3e fe 4f 78 3d
       0.17977437 0.31630796 0.23224126 0.06062316
0002e0 aa e4 82 3d 14 86 74 be f6 99 a2 3e 54 fc 4b 3e
       0.063912705 -0.23879272 0.31758088 0.19920474
0002f0 23 60 8d 3e 5e 76 c4 be df 73 1b 3e bc cc f9 be
       0.2761241 -0.38371557 0.1518092 -0.48789012
000300 67 69 2f 3e be 20 81 3e 80 f5 a3 be a6 1b e4 bc
       0.17130052 0.25220293 -0.3202324 -0.027845215
000310 75 fc ef 3d 27 7d d4 bd 5b d1 3f be 20 fc 2d be
       0.11718074 -0.103754334 -0.18732207 -0.1699071
000320 08 60 a0 be 6c 9b 52 be 8e 0a a2 bd 9c 40 fe be
       -0.31323266 -0.20567101 -0.079121694 -0.49658668
000330 fc 45 0f 3e 62 9f fe 3e e5 49 01 bf f0 ee 02 be
       0.1399154 0.49730974 -0.5050338 -0.1278646
000340 0a 91 e1 bd dd 43 5d 3e 1a f7 2a bc 27 c5 ea 3e
       -0.11013992 0.21607919 -0.01043489 0.4585354
000350 f2 50 9a be 65 4b df ba 90 56 3c 3d da 51 cf be
       -0.3013988 -0.0017036019 0.04598099 -0.40492135
000360 c0 90 b1 be 0b 83 1c 3e 74 c4 13 bd 8c 17 b7 be
       -0.34680748 0.15284364 -0.036076024 -0.35760152
000370 fc 8d 64 3e 9a eb 81 be 05 32 e4 3d b5 02 5c 3e
       0.22319788 -0.25375062 0.11142353 0.21485408
000380 43 2f b5 be 29 89 bb 3e 3a f5 07 3e 66 44 b6 3e
       -0.3538762 0.36628082 0.1327714 0.3559906
000390 e4 71 7c be 38 02 43 3e f6 15 db bd f6 77 af be
       -0.24652821 0.19043815 -0.10697548 -0.3427121
0003a0 10 81 a3 3e 2c 8c d6 be ef aa 79 3d 1e 5d 9a 3e
       0.31934404 -0.41903818 0.06095403 0.30149168
0003b0 88 61 a5 bd a2 4d b6 3e 0e 7a af be 10 b7 0b be
       -0.08075243 0.35606104 -0.34272808 -0.13644052
0003c0 6a 06 92 3e be b6 da bd ae d9 4f 3e d2 b9 b8 be
       0.2852052 -0.106793866 0.20297882 -0.3607927
0003d0 92 e1 40 be 8b 16 e6 bc 0c 6a 7b be 82 d8 b5 3e
       -0.18836048 -0.028086921 -0.24552172 0.35516745
0003e0 ec 2a b8 3e c3 f6 a1 3e 3d 61 3c 3e 8a 4e d2 be
       0.35970247 0.31633577 0.18396468 -0.41075546
0003f0 4b e7 8b 3e 2e 35 b3 3e f8 73 02 bc c0 5a b5 be
       0.273249 0.3500151 -0.007962219 -0.354208

fc2.weight f4 [256, 256]
000000 a8 9f 70 3c 8a 74 6a bd 4f 9e 28 bd a0 b2 7d bd
       0.0146865025 -0.057240047 -0.0411666 -0.06193793
000010 16 c9 63 bd 20 f6 2c bd cd 4c 33 bd 4e 86 76 bd
       -0.055611692 -0.04222691 -0.043774415 -0.060186677
000020 80 48 36 bc d0 3b a7 3b 40 30 a8 bc 43 90 d5 bd
       -0.011125684 0.0051035658 -0.02053082 -0.10427906
000030 6d f2 8c bd 7c 86 73 bd a3 ba ad bd b7 a8 5f bc
       -0.068821765 -0.059454426 -0.08482864 -0.013651065
000040 99 e2 ba bd f0 98 93 3b e4 16 88 3c db 76 8c bd
       -0.09125251 0.0045043156 0.016612478 -0.068586074
000050 00 89 57 3c 28 68 fe bb 33 ff 2b bc a2 b3 67 bd
       0.013155222 -0.0077638812 -0.010497856 -0.056567796
000060 1c f4 c1 3c da ff 72 bd 4a 98 ab bd 0a ee 30 bd
       0.02367597 -0.05932603 -0.08378656 -0.04319576
000070 8e d8 13 bd 68 82 cc bc 75 54 bf bc ba a2 f0 bd
       -0.036095195 -0.024964526 -0.023355702 -0.11749788
000080 a4 7f c4 bd 0f 5b 1f bd 06 a2 a9 bd 40 a7 ac bd
       -0.09594658 -0.0389052 -0.08282857 -0.08430338
000090 78 c6 0b 3c 6c 9d 7e bd f2 77 65 3d 40 81 da ba
       0.008531205 -0.062161848 0.056022592 -0.00166706
0000a0 75 2e db bd a4 2d a3 bd db 1b e2 bc ec af 00 bd
       -0.1070222 -0.0796769 -0.027601173 -0.031417772
0000b0 3c 2a e1 bc 1c b6 b8 bd 0e 11 1d bd 58 c2 c2 bd
       -0.02748596 -0.090191096 -0.038346343 -0.095097244
0000c0 80 8a 66 bd 56 d9 ab bc 21 75 1e b9 f2 71 1a 3d
       -0.056284428 -0.020977657 -0.00015111688 0.037706323
0000d0 ec a3 09 bd 4c ee 22 bd 7a 9c 71 bc b5 08 51 bd
       -0.033603594 -0.03977804 -0.01474678 -0.051033694
0000e0 16 d2 09 bc 33 7d 96 bb 20 c4 bc bc 16 11 49 bd
       -0.008411905 -0.0045925616 -0.023042738 -0.04908856
0000f0 9a 96 5b 3d d4 5d fe bc 19 2a 5e bd 2e e1 82 bd
       0.05361042 -0.0310506 -0.054239366 -0.06390606
000100 62 cb 13 3d e8 9e 71 bd a0 32 d5 bd 78 06 f8 bd
       0.036082633 -0.058989435 -0.104100466 -0.12110609
000110 6d 63 ad bd 39 60 f4 bd 84 42 cf bc ab bb e0 bc
       -0.084662296 -0.119324155 -0.025300272 -0.027433237
000120 b2 6f 2a bd fc ce 38 bd 74 ad 9d bc 48 a9 7d 3c
       -0.041610427 -0.04511927 -0.019247748 0.015482254
000130 b8 eb 03 bd c6 dd 18 3d b4 3d 82 3c 5c ca a9 bd
       -0.03220722 0.037320875 0.015898563 -0.0829055
000140 e3 b1 d9 bb 5a ed 43 3d 4a 5f eb bd f4 63 52 3d
       -0.00664352 0.047833778 -0.11492784 0.051364854
000150 1c ba e8 bc 1e 38 47 bd 80 3c 7f 3c a4 7b 82 3c
       -0.028409056 -0.048637502 0.015578389 0.015928097
000160 ee 0c c6 bd b2 cd 03 3d 8e 20 1f 3d c6 10 44 bd
       -0.09670435 0.03217859 0.038849406 -0.04786756
000170 64 31 57 bd 85 8f 45 bd 35 b6 99 bd 7f 74 eb bd
       -0.052537337 -0.048232574 -0.07505456 -0.11496829
000180 a0 cc ce bd 3f 6c b3 bd 5c 36 ac bc 6c 7d 48 bd
       -0.10097623 -0.08760881 -0.021022014 -0.048947737
000190 98 ec 6c bd e0 62 70 bc 8f c6 91 bd 9c 69 ff bb
       -0.05784282 -0.014672011 -0.0711795 -0.007794572
0001a0 8c b3 b1 3c 9e c7 bc bd 8a ba 1c 3d 95 6f f0 bc
       0.02169206 -0.092177615 0.038263835 -0.029350081
0001b0 84 26 97 3c d0 98 42 3d ce c2 85 bd 6d 07 a3 bb
       0.018450983 0.047509015 -0.06531297 -0.0049752505
0001c0 30 7d 15 bd 92 24 47 bd e8 1a 6c 3d 95 d4 ed bc
       -0.03649634 -0.04861886 0.057642847 -0.029032031
0001d0 3d 5a 43 bc f2 e6 f6 bd ea e2 49 3d 6e f2 0f 3d
       -0.01192337 -0.12055768 0.049288668 0.03514331
0001e0 00 e1 00 bd e7 33 9b bd 7a 38 5e 3d 9a 06 9f bd
       -0.031464577 -0.07578259 0.05425308 -0.07764931
0001f0 90 1a 67 3d 0c b5 8d bd 93 a9 c6 bd a0 7e 25 bc
       0.056421816 -0.069192976 -0.097003125 -0.0101009905
000200 5f 25 13 bd 12 2a 76 3d 54 cc 9e 3c 74 14 a5 bd
       -0.03592431 0.060098715 0.01938454 -0.08060542
000210 0b e1 d6 bb 88 fa 2b 3c 54 80 c7 bc 39 40 2a bd
       -0.006557589 0.010496743 -0.024353184 -0.041565154
000220 ce d9 84 bd 60 7d 14 3c af 37 f0 bc a0 b4 8d bb
       -0.064868554 0.009063095 -0.029323427 -0.0043245107
000230 47 9c 64 bd 84 c6 3a 3d c4 27 6d bd f5 3d 08 bd
       -0.0558131 0.045599476 -0.05789925 -0.03326221
000240 e0 db 20 bd 7e c1 a3 bd 00 00 73 3b 61 67 52 bb
       -0.03927219 -0.0799589 0.0037078857 -0.0032105076
000250 c9 7a 77 bc f5 98 c0 bd 92 9f 38 3d 87 07 a2 bd
       -0.015104958 -0.09404174 0.045074053 -0.07911592
000260 b8 32 90 bc 34 d1 e4 bd 82 04 b6 bc 52 b0 14 3d
       -0.01760231 -0.11172715 -0.022218946 0.036300965
000270 aa 6a 1d bd 57 fa f6 bd 5d e5 f1 bc 3a d7 0f 3d
       -0.0384318 -0.12059467 -0.029528314 0.035117365
000280 78 0e 68 bd 1f a7 be bd df 02 d8 bd a0 0e 59 bd
       -0.056654423 -0.093092196 -0.105474226 -0.052992463
000290 22 9d 66 3d 78 ef 92 bd 65 df 89 bd 94 26 28 bd
       0.056302197 -0.07174581 -0.06732062 -0.041052416
0002a0 45 77 b3 bd 1f 0b ae bb b4 09 54 3d ee 18 24 3d
       -0.08762983 -0.0053113843 0.051767066 0.040062837
0002b0 43 12 57 bd 87 ab f5 bd 80 0a 47 3b 68 67 33 bc
       -0.05250765 -0.11995607 0.0030371249 -0.010949947
0002c0 45 c2 3f bd 25 09 c5 bc 9c de c7 bc d0 81 35 bd
       -0.04681613 -0.024052212 -0.02439814 -0.044313252
0002d0 52 79 3e 3d c2 e4 64 bd 81 19 a8 bd 7e 97 e4 bd
       0.04650242 -0.055882223 -0.082079895 -0.11161707
0002e0 e3 3d 12 bb 04 75 93 bc 95 c4 86 bd 2f b9 68 bd
       -0.002231472 -0.018000133 -0.06580464 -0.05681723
0002f0 5b dc be bd 6c 74 3e 3d ae dc af bc dc f0 da bc
       -0.09319373 0.046497747 -0.021467533 -0.026726179
000300 08 d2 20 bd b8 7c c2 bb ac c2 c9 bc 88 5e 88 bc
       -0.0392628 -0.005935278 -0.02462896 -0.016646639
000310 b3 ea 13 bd 7d c8 58 bc 0e d3 d5 bd 1c 39 cd 3c
       -0.0361125 -0.013231394 -0.10440646 0.025051646
000320 df 96 c7 bd 80 04 8d 3b d0 39 ce bd f8 fb 42 bd
       -0.09745573 0.004303515 -0.100696206 -0.047603577
000330 6c 02 a6 bd 3c ed b4 bd ab 2c e9 bd a0 5f ff 3c
       -0.08105931 -0.08834311 -0.11385473 0.031173527
000340 fe 2f 8e bd d7 32 9c bd 65 9e bc bd e1 2f 14 bc
       -0.069427475 -0.076268844 -0.09209899 -0.009044618
000350 d0 98 1d bd 05 63 82 bd 36 0b 64 3d 70 b4 8c 3b
       -0.03847581 -0.06366543 0.055674754 0.0042939708
000360 78 09 68 bc b4 5d 9e bd 92 51 ca bd a8 98 18 bc
       -0.014162414 -0.07732716 -0.098788396 -0.00931374
000370 35 3f c6 bd e4 62 2a bd db b7 90 bd 90 cd d7 bd
       -0.096800245 -0.041598216 -0.07066318 -0.10537255
000380 ab 0a 6b bd 19 a6 e4 bd 33 ab 84 bd 25 26 64 bb
       -0.05738322 -0.11164493 -0.06477966 -0.0034812775
000390 e2 ee f5 bc 02 8f 9a bd 0e e1 ed bd ba f7 00 3d
       -0.030021135 -0.07546808 -0.116151914 0.03148625
0003a0 f7 a0 11 bd 9c 51 a7 bc 26 69 7b bd 79 e1 41 bd
       -0.0355539 -0.020424657 -0.061379574 -0.047334168
0003b0 d0 6a 73 bc 89 1b a7 bd 42 60 13 bd c6 97 42 bd
       -0.014857009 -0.08159549 -0.03598047 -0.047508024
0003c0 f9 4c a9 bd 10 90 e2 bc a2 e4 c0 bd 0e 37 1d bd
       -0.082666345 -0.027656585 -0.09418608 -0.038382582
0003d0 8f c0 c6 bd 80 c8 49 bd b0 f7 d1 3b a8 16 92 bc
       -0.097046964 -0.049263477 0.0064077005 -0.017833069
0003e0 1d 18 a3 bd 63 99 9c bd 00 23 00 bb 80 18 42 3a
       -0.079635836 -0.07646444 -0.0019552112 0.00074041635
0003f0 f1 ae be bd 00 00 d4 b8 67 a0 ef bc 2a 5d 64 bd
       -0.09310711 -0.00010108948 -0.02925129 -0.05575291

fc2.bias f4 [256]
000000 60 7f ee bb 8b b3 05 be 4c 37 25 bb b9 8e b6 bc
       -0.007278368 -0.13056771 -0.0025209961 -0.022284852
000010 55 5a 6a bd 00 97 80 3a ab 3b 6c bd 8b 09 f3 bc
       -0.057215054 0.0009810627 -0.05767409 -0.029667636
000020 b9 35 47 bc 47 5a 29 bd d6 21 49 bd 00 56 f6 bc
       -0.012158805 -0.04134586 -0.049104534 -0.030070305
000030 7c f5 4e bd ce 2a bb bd e0 b9 5a 3d f6 04 76 bd
       -0.05052708 -0.09139024 0.05339992 -0.060063325
000040 37 f4 89 bd 22 f9 57 bd cf 1b 35 3d c5 f9 0f bd
       -0.067360334 -0.052727826 0.044215973 -0.03515031
000050 03 94 ad bc 41 fe d9 bd 72 ad 8a bd c6 2a be bc
       -0.021188742 -0.10644198 -0.06771363 -0.023213755
000060 b8 1f a5 3d fd 2c d2 bd 52 b4 7c 3e 08 5d e8 bc
       0.080626905 -0.10262487 0.24678162 -0.028364673
000070 0a eb 6a bd 84 64 cb 3d dc 24 22 bd 26 3d 7b bd
       -0.057353057 0.09931281 -0.039585933 -0.061337613
000080 88 ab 63 3c 84 07 b2 bd 96 bd 41 3d 1e 16 84 3c
       0.013895877 -0.0869284 0.047299944 0.016123828
000090 63 c5 3a bd ff 9a 10 be 85 39 33 bd 52 3c 14 be
       -0.0455984 -0.14121626 -0.043756027 -0.14476135
0000a0 2a 12 0b bc 1f dd 32 bd a3 a2 73 bd f4 40 20 bd
       -0.008488217 -0.04366791 -0.059481274 -0.039124444
0000b0 5a ff 35 bd bb b7 f0 bc 60 b5 31 bb 90 94 70 3d
       -0.044432975 -0.029384485 -0.0027116165 0.05873543
0000c0 59 ce 9f bd 98 6d 8f bd 73 cd 6a bd 8f 25 5b bd
       -0.078030296 -0.07003325 -0.057324838 -0.053502616
0000d0 44 c7 7d bd a9 53 c1 bd b2 34 ed bc fc 30 de bd
       -0.061957613 -0.09439785 -0.028955791 -0.10849187
0000e0 6c 9b eb bd 80 dd ac ba d4 38 c8 3d 5e a5 b7 bd
       -0.11504254 -0.0013188571 0.09776464 -0.08967088
0000f0 3d 3b e5 bd 5d 6d 00 bd 71 b7 2e 3e 0a de 3b bd
       -0.111929394 -0.031354297 0.17062165 -0.04586605
000100 ff 22 2b bd de a4 4a be 5e 3c 1c bd 47 ff 8f bc
       -0.04178142 -0.19789454 -0.038143508 -0.01757778
000110 1e 98 3e 3c 01 e6 e0 bd 91 62 42 bd a8 99 67 3d
       0.011632947 -0.1098137 -0.04745728 0.056543022
000120 a8 5d e4 bc da 66 ac bc b9 db ca 3a d5 ba e6 bd
       -0.02787669 -0.021045137 0.0015476859 -0.11266104
000130 8b c9 04 be ab 82 98 bd 0f 74 a0 bc c0 27 2d bd
       -0.12967508 -0.07446798 -0.019586591 -0.042274237
000140 f0 d1 8d 3c 55 5b c9 bc 4c 81 3a 3c ae 3b 18 3d
       0.01731202 -0.024579683 0.011383366 0.03716629
000150 0d ec 12 bd 9b 3c 51 bd 49 26 1e bb 88 0b b1 bc
       -0.035869647 -0.05108319 -0.0024131706 -0.021611944
000160 27 3c 8d 3c 41 ee d1 bc bd fd 83 bc 10 44 7d bd
       0.017240597 -0.025626304 -0.016112203 -0.061832488
000170 3d 37 d9 bd 7c 00 9c 3c cb c0 dd 3d f2 01 55 bd
       -0.10606239 0.0190432 0.10827788 -0.05200381
000180 00 8a 4f bd ef 23 04 bd 5d cd dc bc 01 a1 b2 bb
       -0.050668716 -0.03226083 -0.026953394 -0.005451322
000190 fc ce e1 bd 30 a2 95 bd b0 00 f1 bd 54 ab 05 bd
       -0.11025807 -0.073063254 -0.11767709 -0.032634094
0001a0 87 cf 88 bd 52 6a a9 bd 71 15 ed bb 02 20 37 bd
       -0.06680208 -0.08272232 -0.007235222 -0.04470826
0001b0 a4 65 97 bc 42 93 a5 bc c8 83 b4 bc 87 30 8f bd
       -0.018481083 -0.02021182 -0.022035494 -0.06991678
0001c0 5a 2b a5 bd c6 14 23 bd 60 8d 6b bd cb d3 e8 bc
       -0.08064909 -0.039814733 -0.057507873 -0.028421303
0001d0 7b 69 85 bd d0 71 02 bd 09 ec ea 3b 04 cb a3 3d
       -0.065142594 -0.03184682 0.007169251 0.079977065
0001e0 e1 91 ea bc 3f 78 cc bd c3 9f 6e bd cf dd c0 bd
       -0.028634014 -0.099838726 -0.05825783 -0.09417307
0001f0 c8 ea fe 3c ab 96 83 bd f8 a5 d1 bd 46 14 3b bd
       0.031117812 -0.06425222 -0.10236734 -0.04567363
000200 ba 9a 1d bd c4 58 79 bc 7e 69 1a bd 50 66 01 bd
       -0.038477637 -0.015218917 -0.03769826 -0.031591713
000210 5b aa af bd 7b 2e 8c bd 7a e4 26 3d 69 42 01 bd
       -0.085774146 -0.06844803 0.040745236 -0.031557474
000220 dd f6 e9 bc 24 30 9d bd 64 5c 27 bd 80 81 05 3d
       -0.028560096 -0.07675198 -0.040859595 0.032594204
000230 e7 1d a5 bd 03 4e c9 bd 63 40 38 bd 90 e8 a8 bb
       -0.08062344 -0.09829333 -0.04498328 -0.0051546767
000240 23 3e b0 bc c7 44 d0 bd b9 a4 f8 bc a2 85 35 bd
       -0.021514004 -0.10169368 -0.030351983 -0.044316895
000250 d2 a7 a0 bd c7 ac 2e bd ac 9b 08 3b f2 8c ad 3c
       -0.07844509 -0.042645242 0.002084474 0.021185372
000260 a6 66 1d bb 18 fa 47 3d c4 78 4d bc 63 bb cf bd
       -0.0024017482 0.048822492 -0.012541 -0.10143163
000270 80 33 1d bc 70 b6 6c 3c 1c 7c 7b bd 06 e4 b7 bd
       -0.009594798 0.014447793 -0.061397657 -0.08979039
000280 fa 09 c6 bd ca ee 0d bd 16 55 9b bd 31 61 be bc
       -0.09669872 -0.034651555 -0.07584588 -0.023239704
000290 9b 4b dc bd 57 64 f5 3c 44 ea 66 3d 26 07 91 bc
       -0.10756608 0.029955072 0.056375757 -0.017703604
0002a0 b3 cc e0 bd f6 5f b4 3a f8 c1 e6 bd e3 75 eb bd
       -0.10976543 0.0013761509 -0.11267465 -0.114970945
0002b0 c0 9e ce bd eb de f0 bc 99 a2 04 bd e3 e9 f9 bd
       -0.10088873 -0.02940317 -0.032381628 -0.122028135
0002c0 c8 80 ce 3d 36 7a 2f bd aa 7d 3d bd 7f 08 69 3d
       0.10083157 -0.04284116 -0.04626242 0.056892868
0002d0 04 cd 07 bd fc 67 9c 3c d9 6a a2 bd 32 c8 bb bc
       -0.033154503 0.019092552 -0.07930536 -0.022922609
0002e0 a8 1a cb bd cc a7 98 bd ca cd 38 bd ae 67 9c bd
       -0.09917194 -0.0745388 -0.04511813 -0.07636963
0002f0 7e 34 8f bd 3a ad 26 bd e8 8f d5 bd b8 4a 71 bd
       -0.06992434 -0.040692545 -0.104278386 -0.058909148
000300 da 59 7d bd 88 c6 0c bd 2c 48 ee bd 7e d4 28 be
       -0.061853267 -0.03436902 -0.116348594 -0.1648731
000310 b0 a7 c7 bc 07 01 07 be 8f d0 87 bd bc 6a 5f bd
       -0.024371952 -0.13183986 -0.06631576 -0.05454515
000320 8b 35 9a bc 62 5b b9 bd 14 44 7e bd c2 6a 56 3d
       -0.01882436 -0.09050633 -0.062076643 0.052347906
000330 df a7 c6 bc 82 b6 2e bd d9 f5 25 bb 08 9b fe bc
       -0.024249969 -0.04265452 -0.0025323539 -0.031079784
000340 da 91 92 bd cb 15 f4 bc a8 86 57 3c c0 3e 3e bd
       -0.07156725 -0.029795548 0.013154663 -0.04644656
000350 16 0e c5 bc 70 80 a5 3b 6c 58 f9 bb 56 16 49 3d
       -0.024054568 0.0050507113 -0.0076094177 0.049093567
000360 26 b6 c8 bd 34 2e d5 bd fb 3d 82 bd ba df 55 3d
       -0.09800367 -0.10409203 -0.06359478 0.052215315
000370 3c 1b 96 bd 5d 08 f8 bd 3c 78 cf 3d 97 03 e0 bd
       -0.07329413 -0.1211097 0.10130355 -0.10938185
000380 5d 66 d1 bd a3 5f 1c be 62 43 c3 bd c0 ea 1a bd
       -0.10224602 -0.15270858 -0.095343366 -0.03782153
000390 f5 24 d0 bd ac 4b ca bd c5 8c b0 bc 8a b9 6e bd
       -0.10163299 -0.098777145 -0.0215515 -0.058282413
0003a0 c7 2d 70 bd ba 4f f8 bd 48 36 0f bd e0 d0 29 bd
       -0.058637407 -0.12124582 -0.034963876 -0.041458964
0003b0 1d 96 27 bd 20 18 e4 bd 7c 70 be bd 03 07 da 3d
       -0.040914644 -0.11137414 -0.092987984 0.10645869
0003c0 cc 8a 8c 3d 29 b4 2f bd 18 70 77 bd c0 8d e4 3c
       0.06862411 -0.042896423 -0.060409635 0.027899623
0003d0 6e 7f b8 bd bb c9 a1 bd d2 49 9c bc 03 07 84 bd
       -0.0900868 -0.07899805 -0.019078169 -0.0644665
0003e0 48 1e 05 bb cf 55 a5 bd 2a 68 33 bd 75 22 7b bd
       -0.0020312238 -0.08073007 -0.04380051 -0.061312158
0003f0 4a f3 31 bd 4a 32 c5 bd df 9c 30 3c 34 85 f0 bd
       -0.04344491 -0.096287325 0.0107795885 -0.117441565

fc3.weight f4 [256, 256]
000000 50 e5 61 bd 00 24 e9 3a 0a 42 3a 3d 98 27 57 bd
       -0.05515033 0.0017787218 0.045473136 -0.052527994
000010 00 f0 cd b7 40 fd 3a 3b 96 36 14 3d 64 72 46 bd
       -2.4549663e-05 0.0028532296 0.03618487 -0.048448935
000020 e8 88 ab 3c 16 78 7b bd 30 de 0e 3d f0 e2 ea 3b
       0.020939305 -0.06139382 0.034879863 0.0071681663
000030 68 73 05 3d 28 0b dc 3c f0 58 3b 3d ec 70 8c bc
       0.032580763 0.026860788 0.045739114 -0.01714369
000040 0a b1 1b 3d 8e d7 73 3d ba e7 60 3d 92 ef 2f 3d
       0.038010634 0.05953174 0.05490849 0.04295308
000050 30 93 22 3c d2 70 1d 3d 1c cf 5a 3d 50 e1 e1 3b
       0.009922788 0.038437672 0.05342017 0.0068933144
000060 58 23 00 3c f8 d6 68 bc 52 cc 4c bd a4 54 4c bd
       0.007820927 -0.014211409 -0.049999543 -0.049885407
000070 f0 cc b9 bb f4 06 fd 3c 10 03 f8 bb a0 bc 4e 3c
       -0.0056701824 0.030887105 -0.0075687245 0.012618214
000080 10 b4 6a bd 00 07 95 bb fe 73 0f 3d 7c 2c 72 bd
       -0.057300627 -0.0045479536 0.03502273 -0.059124455
000090 b8 1b 9e 3c a8 95 d5 3c a0 c7 22 3d ac 92 4b bd
       0.019300327 0.026072338 0.03974116 -0.049700424
0000a0 58 9f 09 3d 84 d9 c3 3c 56 f4 14 bd 60 f2 82 3b
       0.033599228 0.02390743 -0.03636583 0.0039961785
0000b0 64 e7 bf 3c 84 72 05 3d 3a ad 75 3d 2c aa 20 3d
       0.023425765 0.032579914 0.059979655 0.03922479
0000c0 3e 99 11 3d 30 92 84 3b 7c 80 55 bd ac 2e 26 3d
       0.035546534 0.004045747 -0.052124485 0.040571854
0000d0 28 69 6d bd 00 02 32 39 90 82 7f bc 50 a1 2c bc
       -0.057961613 0.00016976148 -0.015595093 -0.010536507
0000e0 18 3a 7c bd 1e 3e 69 bd 30 3a d4 bb 26 95 39 3d
       -0.06157884 -0.056944005 -0.006476663 0.045308255
0000f0 70 c8 c0 bb d2 2d 0a 3d 3c 67 41 3d 5e 2a 00 3d
       -0.005883269 0.033735104 0.047217593 0.031290404
000100 a4 69 ee bc 90 c0 e8 bb c0 95 c8 3a 98 26 24 3d
       -0.029103108 -0.0071030334 0.0015303418 0.04007587
000110 84 1b 8c bc 76 9e 08 bd 74 89 ca 3c 2a 7a 3f bd
       -0.017102964 -0.033354245 0.024723746 -0.046747364
000120 98 2b fa bc 24 4e 6d bd fa fd 74 3d 34 32 66 3d
       -0.030538365 -0.05793585 0.059812523 0.05620022
000130 1c 10 aa bc 90 29 06 3c 58 df 75 bd b0 7a e6 bb
       -0.020759635 0.00818862 -0.06002745 -0.0070336685
000140 7c b3 50 3d b0 9b 3d 3c 14 ca 21 3d e8 d9 6e 3d
       0.05095242 0.011572763 0.039499357 0.05831328
000150 50 ba 89 3c a8 ca fb bc 50 98 48 bc c4 0d 0e bd
       0.016812474 -0.030736282 -0.012243345 -0.034681097
000160 b0 53 6f bd 5a f7 4a 3d fc 41 bb bc 7e 87 75 bd
       -0.05842942 0.0495523 -0.022858612 -0.05994367
000170 bc 15 fc bc 60 8b 02 bc a8 34 7f 3c 80 fb 55 bc
       -0.030772083 -0.0079678 0.015576519 -0.013060451
000180 56 d0 58 bd 60 44 34 bc d0 58 56 bd ea 35 04 bd
       -0.05293306 -0.01100263 -0.052330792 -0.03227798
000190 44 94 84 3c d0 02 c6 bc 90 5e 2c bd b4 bb c6 bc
       0.01618398 -0.024171263 -0.04208237 -0.024259426
0001a0 08 18 3a 3d 4c 9c 15 bd 4c 2e 6d bd c2 1b 5f 3d
       0.045433074 -0.03652601 -0.05790548 0.05446983
0001b0 a8 cf 19 3d 08 18 85 3c e0 d6 9a 3b 40 7e ec 3a
       0.037551552 0.01624681 0.004725322 0.0018042997
0001c0 f6 14 68 3d 1c 41 c2 bc 0c 3e 65 3d c8 e2 6e 3d
       0.056660615 -0.023712687 0.055967376 0.058321744
0001d0 d0 b4 d2 bb 30 be 95 bc a4 34 6c bd 10 bd 55 bc
       -0.006430246 -0.018279165 -0.05766739 -0.013045564
0001e0 4c 58 ac 3c 2c dd c3 3c 84 0e 0b bd c0 73 44 3c
       0.021038197 0.023909174 -0.03394939 0.011990488
0001f0 24 ce 5a 3d 24 bd 2e 3d 68 7c 6d bc 20 db 35 3c
       0.053419247 0.042660847 -0.014494993 0.011099607
000200 80 f5 41 bd 60 da 3a bd c0 96 4e bb c0 a2 84 ba
       -0.047353268 -0.045618415 -0.003152296 -0.0010119304
000210 98 62 05 3d c0 c7 1f 3c d0 0a 82 bc 28 a6 cd bc
       0.03256473 0.009752214 -0.015874296 -0.025103644
000220 d8 7e e3 bc 18 99 45 bc 18 72 83 bc e2 6c 08 bd
       -0.027770445 -0.012060426 -0.016045615 -0.033306964
000230 e0 a2 a6 3b d8 c0 ec 3c c0 b5 c8 bc 28 5e 46 bc
       0.005085334 0.028900549 -0.024500728 -0.01210741
000240 9a ea 1c 3d 90 4a 5a 3c 10 e9 b0 bc 00 b6 b0 3b
       0.03830967 0.013323441 -0.021595508 0.00539279
000250 70 c9 95 3c 8a ad 12 3d dc f8 57 3d bc 74 b5 bc
       0.01828453 0.03581003 0.052727565 -0.02215039
000260 fc 83 f6 bc 62 8a 7c 3d 24 67 74 bd 94 3f 42 bd
       -0.030092232 0.06165541 -0.059668675 -0.047423914
000270 00 10 d2 3b c6 3e 1b bd ae 83 57 bd 10 83 e8 3b
       0.0064105988 -0.037901662 -0.052615814 0.007095702
000280 b6 04 6a bd 78 64 6e bc 98 9e 6f bc 38 75 00 bd
       -0.0571334 -0.014550321 -0.014625214 -0.03136179
000290 7c 11 7b 3d 2c 2b b1 3c 38 92 0f 3d 00 98 ec ba
       0.06129597 0.021627031 0.035051554 -0.0018050671
0002a0 30 bb c4 bc 70 1b 72 bd c0 02 72 3d 28 0d 8e 3c
       -0.02401504 -0.059108198 0.059084654 0.017340258
0002b0 ae 70 08 3d e0 d5 c2 bc aa d4 47 3d 08 b2 55 3d
       0.033310585 -0.023783624 0.048786797 0.052171737
0002c0 d0 44 2e bd f6 8a 33 bd 8c 3e a1 3c c8 80 75 3c
       -0.042546093 -0.043833695 0.019683145 0.014984317
0002d0 92 81 18 bd a6 0e 26 bd 6c 73 19 bd 08 67 53 bc
       -0.037232943 -0.040541314 -0.03746359 -0.0129029825
0002e0 68 8f 01 3d 58 ff fe bc 94 c6 24 3d 3a 7e 7b 3d
       0.031630903 -0.031127617 0.04022844 0.061399676
0002f0 00 fe 30 3c bc 8f 7e 3d e0 1f d0 3c e8 65 ac 3c
       0.010802746 0.062148795 0.025405824 0.021044686
000300 c0 fd be ba 18 53 3c 3d 60 0d 3f bd 04 89 74 3d
       -0.0014571473 0.045977682 -0.046643615 0.05970098
000310 10 58 91 bc 5c 58 ad bc 40 82 38 bc d0 de 30 bc
       -0.017742187 -0.021160297 -0.011261523 -0.01079531
000320 7e 02 12 3d 80 a7 f1 bb c0 88 41 3c 06 95 21 3d
       0.035646908 -0.007374704 0.011812389 0.03944876
000330 04 b4 ac 3c 98 6b f2 3c a0 69 50 3b 82 74 08 bd
       0.021081932 0.02959232 0.0031801239 -0.033314236
000340 e8 49 91 bc ae 82 14 3d 96 cf 1d bd 56 e1 2c bd
       -0.017735437 0.03625744 -0.038528048 -0.042207085
000350 a0 61 32 bb fe 01 13 3d 9c e1 67 bd e0 c7 37 3d
       -0.0027218834 0.03589057 -0.056611642 0.04486835
000360 80 5d bc 3a f2 1f 23 3d 14 1b 1d 3d 72 41 33 bd
       0.0014371127 0.039825387 0.0383559 -0.043763585
000370 e0 58 4e 3d da fa 7d 3d a4 f8 65 3d d6 2f 65 bd
       0.050377727 0.06200681 0.056145325 -0.055953823
000380 b2 e4 26 bd ec 1b 91 3c e0 81 af bb fa 1e 1a 3d
       -0.040745445 0.01771351 -0.0053560585 0.037627198
000390 80 1a 2d ba e8 e0 3b 3c cc 69 a1 3c 0c 70 af bc
       -0.0006603375 0.011467196 0.019703768 -0.021415733
0003a0 86 b8 0a bd 62 54 47 bd 80 6b 13 3b f2 63 26 3d
       -0.03386738 -0.048664458 0.0022494495 0.04062266
0003b0 76 4a 56 3d a4 cd d2 3c 0e e1 1e bd a0 1b 31 bb
       0.052317105 0.025732823 -0.038788848 -0.0027024522
0003c0 74 7e 10 bd 94 df 61 bd 80 ff eb 3b 30 55 53 3c
       -0.035276845 -0.05514486 0.007202089 0.012898728
0003d0 f4 f5 2a 3d 66 0c 58 3d fe c2 42 3d fc 48 0b 3d
       0.041738465 0.0527462 0.04754924 0.03400515
0003e0 58 22 3a 3d b2 13 06 3d c4 0b d2 bc d4 29 da bc
       0.04544291 0.032733627 -0.025640376 -0.026631273
0003f0 d2 2b 37 bd 2a 5e 5f bd 0e 16 68 bd da 15 46 3d
       -0.044719525 -0.05453316 -0.056661658 0.048360683

fc3.bias f4 [256]
000000 82 ec 0b bd be 43 56 bd 80 67 07 be 1d d3 d8 3d
       -0.0341611 -0.052310698 -0.13223076 0.10587142
000010 18 5c d9 bd be 71 00 3e fe 70 a5 bd 36 20 19 bd
       -0.106132686 0.12543389 -0.08078192 -0.037384234
000020 7b eb 30 bd ba c1 d0 bd 4f cc b2 bd e2 8b 3a bd
       -0.04319332 -0.101932004 -0.08730375 -0.04554356
000030 18 5a 74 3e 48 0e 44 bb 05 e9 c5 bd 71 70 3b 3e
       0.23862493 -0.002991574 -0.096635856 0.18304612
000040 64 63 20 bd 53 ef e9 bd 0d 07 ba 3c bb 32 f6 3b
       -0.039157286 -0.114226006 0.02270844 0.0075133718
000050 5d 00 80 3d c0 c6 40 bc b5 86 4b 3e b4 88 e6 bd
       0.06250069 -0.011766136 0.19875605 -0.11256543
000060 01 bd d2 bd 04 36 bf bc b1 93 d2 bd 9e 53 11 bd
       -0.10289956 -0.023341186 -0.10282076 -0.035480134
000070 6f d8 91 bd e1 6e fc ba fb 82 8b bd 95 7d 81 bb
       -0.071213596 -0.0019259119 -0.06812092 -0.003951738
000080 7c ef e6 bb 8e 29 0c be aa e4 c6 bc 97 e4 e6 3b
       -0.0070475917 -0.13687727 -0.024278957 0.007046293
000090 a2 3c b2 3c 1c b5 d7 ba 32 e8 80 bd db b8 c8 3b
       0.021757428 -0.0016457173 -0.06294288 0.006125552
0000a0 79 be 6b 3d 31 a5 de bd 30 d2 c4 bd 9a e6 ac bb
       0.057554696 -0.108713515 -0.096104026 -0.0052765133
0000b0 87 57 80 3e 3a 77 8b bd 73 ae 21 be be a2 6e bd
       0.25066778 -0.0680985 -0.15789203 -0.05826067
0000c0 1d 02 bb bd 47 f7 e5 3b 96 34 62 3e 25 b0 ed bc
       -0.091312625 0.007018003 0.22090372 -0.029014656
0000d0 85 4a f0 bd 9e a6 ff bd e0 12 45 bd b1 28 1b bd
       -0.117329635 -0.124829516 -0.048113704 -0.037880603
0000e0 05 38 0c bd c3 91 cc bd 59 85 93 3d 5b d2 a4 3c
       -0.034233112 -0.09988739 0.072031684 0.020119837
0000f0 e1 7d 3f be ed 8e ed bd 63 1d 91 bd 92 9a 4f be
       -0.18700363 -0.115995266 -0.07085683 -0.20273808
000100 2e a9 e6 bd a7 93 d1 3d 6e b3 ff bc 08 e4 2d bd
       -0.11262737 0.102332406 -0.031213488 -0.042453796
000110 73 4c aa bd d8 ce 6f 3d 71 e4 af bc 02 90 00 3e
       -0.08315363 0.05854687 -0.021471234 0.12554935
000120 b2 97 09 bd f8 b1 e9 bd 91 59 ff bc 4d 34 d2 bd
       -0.033591934 -0.11410898 -0.031170638 -0.10263882
000130 50 f7 89 bd d6 3c cc bd db 5b 9d bd 28 67 16 bd
       -0.06736624 -0.09972541 -0.07683536 -0.03671947
000140 a4 ae aa bc c8 2a f3 bd 7b 54 d4 3d fa 75 8b bd
       -0.020835228 -0.11873394 0.10367676 -0.068096116
000150 84 a6 b1 bc 68 7f af 3e 23 7f bf bd 1e 23 ce bd
       -0.021685846 0.3427689 -0.09350421 -0.10065292
000160 90 4e 4d bc f7 5e 72 3e 3b bc 06 be 4a 2a 8d bc
       -0.012530938 0.23669039 -0.13157742 -0.017232079
000170 15 e0 c4 bc 11 68 50 bd 6c a3 4b bd 54 53 08 bd
       -0.024032632 -0.050880495 -0.049716398 -0.033282593
000180 f5 16 19 be 81 2b 1f bd 90 ac 41 bd a5 dd 78 bd
       -0.14950164 -0.038859848 -0.04728371 -0.06075825
000190 65 26 82 bc a5 eb 24 3e 03 08 8b bd 24 29 19 3e
       -0.015887449 0.16105516 -0.067886375 0.149571
0001a0 de e4 ff bd 20 96 ba bc e9 b7 f3 3b 63 38 6e bc
       -0.12494825 -0.022776663 0.0074376953 -0.014539811
0001b0 1e b1 c1 bd d7 18 cf bc 9f eb 23 bd 9d 03 83 bd
       -0.094576105 -0.0252804 -0.040019628 -0.063971736
0001c0 02 d8 84 bd f1 ee 3e bd 5f 54 0f 3b f0 40 f1 bd
       -0.06486513 -0.04661459 0.0021870357 -0.11779964
0001d0 f4 74 1c be 5c 80 e3 bd 0a 55 22 bd 45 32 55 bd
       -0.15278989 -0.11108467 -0.03963188 -0.052049894
0001e0 59 5b 5b bd 81 88 7f 3e 1c ae f0 bd 72 a2 99 bd
       -0.053553913 0.24954416 -0.11751959 -0.07501687
0001f0 3d d3 cb 3c 78 64 b2 bd 04 44 67 bd f4 83 2d bd
       0.024881 -0.08710569 -0.05646135 -0.04236217
000200 ba 9c a4 bd c2 b9 48 bd fa 2d dc 3c c1 ca 21 3c
       -0.08037706 -0.049005277 0.026877392 0.009875
000210 2a c1 96 bd 5d 45 6e bd df 4f 4a bd 3c 40 73 bd
       -0.07361062 -0.05817162 -0.049392577 -0.05938743
000220 24 7d e7 bd 11 84 a6 bd 6d e2 20 3e b2 38 5c 3e
       -0.113031656 -0.081306584 0.15711375 0.21506003
000230 94 07 01 bd 10 42 ab bd af 7a 59 bd 87 c7 9c bd
       -0.031501368 -0.0836221 -0.053095516 -0.07655244
000240 d7 96 ec bc 6e ad 19 be bb 56 0c 3d ba b0 02 be
       -0.02888052 -0.15007564 0.0342624 -0.12762728
000250 e8 ad 53 bd c8 b9 d7 3c 00 76 f0 bc 81 79 0e bd
       -0.05167952 0.026333705 -0.029353142 -0.034783844
000260 43 56 dd 3d 6c 66 b5 bd fb 15 69 3d 10 57 fd 3d
       0.10807469 -0.08857426 0.056905728 0.123701215
000270 05 ee ee bd 43 c6 4c bd cd cd e7 bd c6 d2 e6 bd
       -0.116664924 -0.049993765 -0.1131855 -0.112706706
000280 ca e5 a0 bd f2 47 02 bd aa af 80 bd b2 8e 82 bd
       -0.07856329 -0.031806894 -0.06283505 -0.06374873
000290 02 90 ac bd 37 dd 66 3e 3c ab 28 bc 27 95 a5 bc
       -0.08425905 0.22545324 -0.010294732 -0.020212723
0002a0 4e 6c 3e 3e e7 6d b9 bd 7c ce 2c 3e d1 bb 1f be
       0.18596002 -0.09054165 0.16875643 -0.1559899
0002b0 32 91 a4 3d 88 2b 80 bd 7c 7d da bd 32 16 0f bd
       0.08035506 -0.06258303 -0.106684655 -0.034933276
0002c0 5a de a5 bd 6f 49 87 bd 8d 83 4c bd 7b f9 76 bc
       -0.08099051 -0.06605803 -0.049930144 -0.015074129
0002d0 39 e5 c0 bd 90 06 2a 3e 5d 3d 7c bd 6c ba d9 bd
       -0.09418721 0.16604066 -0.061581958 -0.1063126
0002e0 77 db 63 3e 7b 9e 0b bb 83 47 c9 bd ce eb 00 3c
       0.22251688 -0.0021304179 -0.09828093 0.00786872
0002f0 69 16 e4 bd ae fb 8e bc b5 7b 79 bd 22 ca de 3d
       -0.11137087 -0.017453995 -0.06090899 0.108783975
000300 cf 75 a0 3e d4 67 af bb e3 46 22 bd 80 89 15 3d
       0.3133988 -0.0053529534 -0.039618384 0.036508083
000310 bf ab ce bd 68 97 05 3e 78 c3 8d bd a9 64 46 bd
       -0.10091352 0.13046038 -0.06922048 -0.04843584
000320 12 fc f7 bc 50 19 87 bd 37 55 21 be 53 5b 1c be
       -0.030271564 -0.06596625 -0.15755163 -0.15269212
000330 d2 43 8c bd ab 89 36 3e a1 1a 54 3e c7 89 61 bd
       -0.06848873 0.17825954 0.20713283 -0.055063035
000340 05 b3 01 3d 16 05 f0 bd d1 b2 35 3b 8f 6c 29 be
       0.031664867 -0.1171972 0.002772499 -0.16545318
000350 0b 46 80 3d da af 28 3e cb 1a 99 bd 21 61 ed bc
       0.0626336 0.16473332 -0.074758135 -0.028976979
000360 4b 74 2a bd 9e 18 c9 bd d2 9c d0 bd 72 16 ea 3a
       -0.041614812 -0.098191485 -0.10186161 0.0017859472
000370 86 81 c3 bd e4 1e df bd f7 5d b7 bd ed 75 01 bc
       -0.09546189 -0.10894564 -0.08953469 -0.007901651
000380 7b db 8f 3c 87 24 94 bd 36 d2 d3 bd 1f 81 ed bd
       0.017560711 -0.072335295 -0.10342829 -0.115968935
000390 70 8c 67 3e b2 65 74 bd f0 1a fd bc 35 ce 87 bc
       0.22612166 -0.059667297 -0.030896634 -0.01657782
0003a0 8e 0c e6 bd d2 af 18 be 13 73 ae bd 4b a7 37 3d
       -0.11232863 -0.1491082 -0.085180424 0.044837277
0003b0 55 bd 0e bc 45 85 33 3d 26 52 61 3e cb 81 95 bc
       -0.008712132 0.043828268 0.22003993 -0.018250367
0003c0 37 bb 17 be 98 f9 8b bd bf 49 95 3d fc 75 9f bd
       -0.1481751 -0.068347156 0.072894566 -0.077861756
0003d0 4a a7 4b bd b9 1a 50 bd 7f 81 80 bd 9d aa be bd
       -0.049720086 -0.050806735 -0.062746994 -0.09309886
0003e0 4d c0 5d bc 92 46 1d bd 75 eb e2 bd 16 13 12 3e
       -0.013534618 -0.03839738 -0.11080066 0.14265093
0003f0 a2 6b 74 3d ce 6e 5c bd a7 30 d8 3e e7 7b b6 bd
       0.05967296 -0.05381661 0.4222462 -0.08910351

classifier.weight f4 [16, 256]
000000 f0 58 2a bc 76 b1 a6 3d 81 85 17 bd 6b cc 10 be
       -0.010397181 0.08139317 -0.036992554 -0.1414048
000010 3b 3b b4 bd 59 79 0a be d0 ab 4d bb 69 69 6b bb
       -0.0880036 -0.13522853 -0.0031382926 -0.0035920984
000020 92 20 e2 bc 28 24 f3 3b ae bb 54 bd 6e 51 0e 3d
       -0.027603421 0.0074200816 -0.051936798 0.034745626
000030 a6 61 c6 be a7 c4 79 3d 01 67 ba 3c 51 66 17 bf
       -0.38746375 0.060978558 0.022754194 -0.591405
000040 99 ff 14 bd e0 b7 1b 3c 9f ec 49 3d 69 5c ff bd
       -0.03637657 0.009504288 0.049297925 -0.12468798
000050 08 3b 90 bd f8 68 9f 3c 49 6f b4 be 7e 48 03 bd
       -0.07042509 0.019459233 -0.35241154 -0.032051556
000060 40 57 91 3c ae 82 99 bd 2a 38 b1 bd 20 5d 1c bb
       0.0177418 -0.07495628 -0.086532906 -0.0023859218
000070 54 fe 59 bd 53 15 88 bd 68 7d 5d 3d ea 3a ba 3d
       -0.05322106 -0.06644692 0.054074675 0.09093268
000080 7d 93 ba bd be f6 8b 3c ec 1a b2 bd 71 70 68 3d
       -0.091101624 0.01708543 -0.08696541 0.056747857
000090 a6 cc 8f 3d 19 57 0f bd 34 00 26 3c ce 2c 3b 3d
       0.070214555 -0.034995172 0.010131884 0.045697026
0000a0 88 c6 99 bd 14 0a 87 3d 46 c0 12 3e e4 03 9d 3c
       -0.0750857 0.06593719 0.14331159 0.019166894
0000b0 10 bc 37 bd 09 d3 d3 3c 9a d6 0c 3e f1 4b fb bd
       -0.044857085 0.025857465 0.13753739 -0.12270344
0000c0 ff 56 e2 bd 54 fb a2 bd 49 50 67 be 7d 77 cb 3d
       -0.110517494 -0.07958093 -0.2258922 0.099349
0000d0 7d c3 c8 3d e6 09 fd bd 62 c1 bb bb 5c 33 74 bd
       0.098029114 -0.123554036 -0.00572984 -0.059619293
0000e0 d9 dd c7 bd 43 4e 3e bd 32 41 44 be a3 0a cf bc
       -0.09759111 -0.046461355 -0.19165495 -0.025273627
0000f0 ad bd 80 bc 36 48 7c bb 63 39 96 bc e2 c7 1e 3e
       -0.015715444 -0.003849519 -0.018337911 0.15505937
000100 20 79 13 bd e4 4c ca bd 45 7d 8c bd 9e 5f 5e 3d
       -0.036004186 -0.09877947 -0.06859831 0.054290406
000110 e0 af 05 be 31 7d f2 bd 80 48 36 3d c0 db b2 be
       -0.13055372 -0.118402846 0.044502735 -0.3493328
000120 44 8a 0b 3e 7b 4b 46 3b 7e 60 2b 3d 0b df fd 3c
       0.13626963 0.0030257392 0.04184007 0.030990144
000130 6c 2b 92 3a f1 8c 82 3d a0 0d b7 3c b8 07 19 bc
       0.0011151857 0.06374539 0.022345364 -0.009340219
000140 f7 62 f1 3c ca 9f 3c 3e e7 ff c1 bd de 2d 1c bd
       0.029466135 0.1842033 -0.094726376 -0.03812968
000150 ae 0d ef b9 4b 9e 58 bf e5 09 d4 3d 65 08 87 3d
       -0.00045595824 -0.84616536 0.1035345 0.06593398
000160 20 81 5a bb 69 df 3d be 82 9d da 3d 38 b4 2c be
       -0.0033341125 -0.18542255 0.106745735 -0.16865623
000170 b4 5f e2 bd 1e 83 3e bd c2 34 e1 bd dc f0 18 3e
       -0.1105341 -0.04651176 -0.10996391 0.1493563
000180 0b 01 fd bd 43 92 55 bd 4a ec c7 3d 69 13 86 bd
       -0.123537146 -0.05214144 0.097618654 -0.06546671
000190 67 b0 35 3d ec 99 80 be c5 3b 29 be 2c 92 04 bd
       0.044357684 -0.25117433 -0.16526707 -0.032365963
0001a0 10 8a 79 3c b3 c4 42 bd 4d fd 27 be 7c df 52 3d
       0.015230671 -0.04755087 -0.1640522 0.051482663
0001b0 c6 94 95 bc 10 00 df bd 0d 5b 5c 3d aa d7 9e 3d
       -0.018259417 -0.10888684 0.05379777 0.077559784
0001c0 2a a3 21 bd 0c 2d 6b 3d 0f 94 c4 bb 6c f0 f7 bd
       -0.039462246 0.057416007 -0.0059990953 -0.12106404
0001d0 07 04 73 bc 0c a6 97 3d 0c 7b 9b 3d e4 12 87 bd
       -0.014832503 0.07404718 0.07591829 -0.065954
0001e0 57 48 07 be 5f 3c 31 be 69 df 8e 3d ff 10 61 3d
       -0.13211189 -0.17308186 0.06976206 0.05494785
0001f0 a9 d5 b6 bb cc 15 b8 bd 50 5b 0a bd be a6 93 3d
       -0.0055796695 -0.089885324 -0.03377849 0.07209538
000200 31 a5 03 3e 35 77 f4 bd 67 a9 cb bd b6 97 11 3d
       0.12855984 -0.119367994 -0.0994442 0.035545073
000210 28 50 e8 bd c2 3f 1e 3d 70 dd 20 bd 49 f1 1a bc
       -0.113434136 0.038635023 -0.03927368 -0.009456941
000220 5f ed ca 3d 09 c5 28 bd d0 df 17 bd 8a ea 5f be
       0.09908556 -0.041203532 -0.03707868 -0.21866813
000230 f5 f7 d3 bd 7f e9 d4 3d ce 04 0c 3d ac f2 d0 bd
       -0.103500284 0.10396098 0.03418427 -0.10202536
000240 31 0e 26 3d e8 72 36 3d 8f 45 4e 3c ff 4f 45 bd
       0.040540878 0.044543177 0.012589826 -0.048171993
000250 c1 39 e8 3a 8c b5 ef 3c 41 eb 8c 3d 94 15 be ba
       0.0017717407 0.029261373 0.068808086 -0.001450228
000260 b4 ff 7e 3d e1 67 6e 3d bf 55 1f be 37 c3 1c be
       0.062255576 0.058204535 -0.15560053 -0.15308844
000270 ac a7 1b 3e 89 cb 3f bd 8d 93 f7 bb 29 2e 89 b9
       0.1520068 -0.046824966 -0.007555431 -0.00026165068
000280 67 3f bf bc 8e 97 a2 3d 85 ac 2e bc be 5e ea 3d
       -0.023345662 0.07939063 -0.010661249 0.11443852
000290 18 c3 fe bd 67 af d9 be 23 42 22 be 51 74 f3 bc
       -0.12439555 -0.42516634 -0.15845542 -0.02971855
0002a0 fd 10 80 be fb 96 57 bd 41 aa a5 bd 04 d5 0f bc
       -0.2501296 -0.05263422 -0.08089114 -0.008778814
0002b0 9b ae 7a 3d 13 5b 50 be 3a f7 5f bd 9f 1d c9 bd
       0.061201673 -0.20347242 -0.054679133 -0.09820103
0002c0 5e 37 83 bd 5c e3 72 bd 2a 6a 7b bd f3 d2 26 bc
       -0.06407045 -0.059298858 -0.061380543 -0.01018213
0002d0 ab eb 9c bd e6 bd f7 be c3 ee 69 3d 2d a5 55 3d
       -0.076621376 -0.4838707 0.057112467 0.052159477
0002e0 5a b6 93 be 0a 1a 63 bd c3 7c 3a bd f6 70 2f 3d
       -0.2885006 -0.055444755 -0.04552914 0.042832337
0002f0 ef c9 f4 3b a8 31 9b bd 71 89 8e bc 62 42 f0 bd
       0.0074703614 -0.075778306 -0.017399522 -0.117314115
000300 2c 32 29 bf ef 73 80 bd 6c 30 61 bd f5 82 28 be
       -0.6609218 -0.062721126 -0.05497782 -0.16456206
000310 e2 c0 50 3d 59 02 af bd e6 63 e5 3d de 76 8b 3b
       0.050965197 -0.0854537 0.11200695 0.0042561134
000320 8c 63 f0 3d 55 c1 99 3c dc 9a 18 3e c7 e8 03 3e
       0.11737737 0.018768946 0.14902824 0.12881766
000330 e8 bb c9 bd a7 8d 41 be fa 20 6a be c9 f6 0a be
       -0.098502934 -0.18901692 -0.22864142 -0.13570704
000340 24 58 0e be 46 a5 96 3d 9d d0 6d 3d 64 32 38 3e
       -0.1390081 0.07355742 0.058060277 0.17987972
000350 2e 97 32 be 89 8a 43 be 71 c2 49 bd a1 e7 be bd
       -0.17440483 -0.19095816 -0.0492577 -0.093215235
000360 50 d4 b4 bd ae 3a 5f 3d 93 b4 b5 bd fa f9 cf 3c
       -0.08829558 0.05449932 -0.088723324 0.025387753
000370 34 78 a5 3d 08 41 23 bd 97 60 7f 3c a6 df 22 bd
       0.080795676 -0.03985694 0.015586994 -0.03976407
000380 6c 30 8c bd 6a ea d8 bd a1 d6 06 ba f8 6f c3 bd
       -0.06845173 -0.10591586 -0.00051436765 -0.09542841
000390 3d 0b 07 be 71 6c e8 bc 50 7f 6d 3c 24 51 33 bc
       -0.13187881 -0.028372021 0.014495686 -0.010944638
0003a0 9e f4 a9 3d 11 35 27 bd ef d3 95 bd 31 e6 42 be
       0.0829861 -0.040822092 -0.07315814 -0.19033124
0003b0 9d d8 ae 3d 66 0a 04 be 46 e2 50 bd 83 b2 ad 3d
       0.085374095 -0.12894592 -0.05099704 0.08481314
0003c0 b9 b5 73 bd a6 d7 0b be c6 3c 8f bd 21 5e 8b bd
       -0.059499476 -0.13656482 -0.069940135 -0.06805063
0003d0 7b 4f a9 bd ff 68 f5 bd 4b 86 d2 bd 64 aa 91 bd
       -0.08267113 -0.11982917 -0.102795206 -0.071125776
0003e0 3d 0c 56 3d 5c e2 c4 3d 15 23 31 3e 57 e4 a7 3c
       0.052257765 0.09613487 0.17298539 0.020494623
0003f0 2f 36 21 bc ac e9 e5 bd de 5f fd be a7 b3 e6 3b
       -0.0098395785 -0.1122621 -0.49487203 0.007040459

classifier.bias f4 [16]
000000 3c 13 3a be c1 e3 f6 bd 3a 35 b3 3b dc 36 b6 3c
       -0.181714 -0.12055159 0.0054689916 0.022242956
000010 70 64 99 3d 33 a0 7c 3d 13 9c 33 3c b8 1e 67 3d
       0.0748986 0.061676215 0.010962504 0.05642578
000020 8b f3 34 bd 04 fc 18 3e e7 0b 8c 3d 9e 8d b6 3b
       -0.044177573 0.14939886 0.06838208 0.0055710813
000030 da 55 e2 bc 61 ab 03 3d 69 a1 c7 bd 22 bd b9 bd
       -0.027628828 0.03214586 -0.097475834 -0.09069277
