transfer13_54_00_22_10_12_FullyConnected.pth (torch, 550959 bytes, 8 tensors)

fc1.weight f4 [256, 4]
00000000: 74f0 d03e bdef d6be cd6c 2ebd 8e29 f8be
00000010: 0247 c4be c09f a53d fe93 803e 846f b7be
00000020: e8c6 14be b0a1 b2be f893 dd3e fe44 98be
00000030: 5409 1a3e b30f b73e 4f37 363e 5f5b e0bd
00000040: 73e6 403d f087 153e aa4a 033e ceab a53d
00000050: fde1 f3bd 8db9 48be 39b7 dc3e 46e9 bf3e
00000060: e072 d3be 4041 28be 9ce4 8d3e e4f8 b63e
00000070: 5454 afbe e7d2 1f3e 5fc6 68bd a20c 96bd
00000080: 0e8b a1be 86d6 973e 3cda 1bbe e855 d83d
00000090: b98b 993e 7ec0 2d3e 23fc e8be d9bb 273d
000000a0: b5eb 933d 46be acbe f809 d1be 93f1 b6bd
000000b0: e671 87be 1276 dabe 7006 1c3e 9ac3 fbbe
000000c0: e10e e2be 4edf fabe fa49 cdbe 588b 42be
000000d0: b360 8e3e 12a6 4bbe aca6 b6be de51 6d3d
000000e0: f9df 8b3e e227 4abe e51b f0bc 4ca3 853e
000000f0: 477c 37bd 1eb5 123f 5aad 94be fc83 6a3e
00000100: 1e59 8dbe e006 b9bc c0b6 bb3e 489f b9bd
00000110: 98b5 9f3e db54 dc3e 22b1 e73e fa78 083e
00000120: b278 34bc 300b 93bd a5f2 b4bc 708b 3f3e
00000130: 0336 d23e 9588 b3bd 2988 713e fd80 f0be
00000140: a7a1 d2be 6301 ecbd 1581 f9be 1bd6 623c
00000150: eb5d bd3e a965 c3be 0f06 3ebe 8ce6 cbbe
00000160: 6622 efbe 3886 bebd c42d 1b3e 481e fd3d
00000170: 363d 803e e2a0 f7bd 4828 d7bd 74f6 a63d
00000180: ce64 9a3e 40ed 48bd 90a6 7fbd 04d1 6cbe
00000190: 2362 b1be ebfd 6cbe 4225 89be 161b f3be
000001a0: edb4 d5bd 351a 0f3f 4b32 373d 9191 2a3c
000001b0: 6ac5 9d3e eca0 743e 2a92 96be f815 acbd
000001c0: 6849 d0bd 1aa7 f8be 4040 883d d836 9e3d
000001d0: 3ee3 51bd 97f2 a53e e062 85be d443 143e
000001e0: 696e 853e 5d00 1fbf ddc6 28bf b0e8 89be
000001f0: a59e 69bd 3175 0f3f ef04 84be 845c 8c3d
00000200: bae2 b53e 58b5 ccbd 9a44 cf3e b8fb edbe
00000210: 7a2f 08bc 2a91 0ebf 1448 cdbd 35e1 02bf
00000220: 9cf7 eebe ccfb 8cbe 3827 88bd 00c7 133b
00000230: 0076 6b3e bda3 93be 87e7 62be f5ff 683e
00000240: bac5 f1be 381c bc3e a02b 37bd 7c25 333e
00000250: f8ee 1abe 7a7c ea3e 80b6 603e 98bb eebd
00000260: 40ba 93bc 20f2 e73c 5431 c93e 7029 7dbe
00000270: 0556 9b3e 63aa 7d3e 12b7 193f 6c96 e3be
00000280: 7125 ec3e 0c4c 083e 698e 14be 5c7b 91be
00000290: 5fc0 c7be d8ab e13e d7e1 4abe 0f3c 83be
000002a0: 8ce3 60be f263 e53e 8cbe 0dbe e6e9 8bbe
000002b0: 90d4 743e c0ba 0a3e 78f8 42be 2002 7ebe
000002c0: 232d 81be 0ca4 e63e f4f2 ec3d 3179 febe
000002d0: 1452 e93e baf7 a23e 86a2 55be 6939 903e
000002e0: 8017 d8bd b0a1 f0bd 04bf 3dbe e0fb f7be
000002f0: a17d f33e 041c 20bf 8ff0 d4be f0da 8ebd
00000300: 5449 bc3e 23bf 0fbf 0d33 18bf 7c23 003f
00000310: c800 b93e d166 15bf 1a01 00bf 31fa 53be
00000320: 9019 eebe 1aff d8be 30af 8fbd 78a5 a3be
00000330: b017 8bbd acef 02be 0242 eb3e 1038 4b3e
00000340: 1c29 343e 63f2 713c c5a3 803e 5921 8fbe
00000350: cde7 d13e 504b d53e 73fb 8c3e 45d6 77be
00000360: 5039 2f3d 2006 73be a00b babd 3ccf 443e
00000370: 9974 24be 99cb 08be 8486 16bf 63cf b43e
00000380: 7a81 0abe 2385 29be 3d83 0dbf 1827 773e
00000390: 9a64 4c3d 7f84 873e 33da 1cbe 7fe9 ddbe
000003a0: 4b2f 08be dc8e 86be 76c5 f1be 5780 d33e
000003b0: ce44 fa3d 114a e63e a7d9 dbbd 3b6e 37bd
000003c0: aa60 ffbe 668e c83e 85a2 57be 96ec 8b3d
000003d0: 06d7 923e 5aa2 afbe 7829 b7be c0b8 62be
000003e0: e6a9 a8be 8c3a 8dbe e0ed 60bd 3477 ccbe
000003f0: 2589 353e 5149 ed3e 9ca8 8e3e 7c40 36bc
0.4080845 -0.4197978 -0.04258423 -0.48469204 -0.38335425 0.080871105 0.2511291 -0.35827267
-0.14529002 -0.34888983 0.43276954 -0.29740137 0.15042621 0.35754165 0.17794536 -0.10954928
0.047094774 0.14602637 0.12821451 0.0808941 -0.11908338 -0.19602032 0.43108538 0.3748266
-0.4129858 -0.16431141 0.27713478 0.35736763 -0.34244025 0.15607797 -0.056829806 -0.07326628
-0.31551403 0.29655856 -0.15219969 0.1056326 0.29989412 0.16967961 -0.45504865 0.04095063
0.07222692 -0.33738917 -0.40827918 -0.089327954 -0.26454085 -0.42668205 0.1523683 -0.4917267
-0.44151977 -0.48998493 -0.40095502 -0.18998468 0.2780815 -0.1988757 -0.35674036 0.057939403
0.27319315 -0.19741777 -0.029310176 0.26101148 -0.044796254 0.5730761 -0.29038507 0.2290191
-0.27607054 -0.022586286 0.36662865 -0.090635836 0.31193233 0.4303349 0.4525233 0.13327399
-0.011015104 -0.07179868 -0.022088358 0.18705535 0.41056833 -0.08766285 0.23587097 -0.4697341
-0.41138956 -0.11523702 -0.48731294 0.013844992 0.36985716 -0.38163498 -0.18556999 -0.3982433
-0.4670593 -0.09302944 0.15154177 0.12359291 0.250467 -0.12091233 -0.1050573 0.08152476
0.30155033 -0.049054384 -0.062414706 -0.23126608 -0.34645185 -0.23143737 -0.26786238 -0.47481602
-0.104348995 0.55899364 0.044725697 0.010410682 0.30814677 0.23889512 -0.2940839 -0.08402628
-0.10170251 -0.48564988 0.0665288 0.07725304 -0.051242106 0.32411644 -0.26051998 0.14479
0.260608 -0.6210993 -0.6592844 -0.2693534 -0.05703606 0.56038195 -0.25785014 0.068535835
0.3552454 -0.09995526 0.40482026 -0.4648111 -0.008312101 -0.5569025 -0.100235134 -0.5112489
-0.46673286 -0.27535856 -0.066481054 0.0022549033 0.22994232 -0.2883586 -0.22158633 0.2275389
-0.47221166 0.3674028 -0.04471934 0.17494768 -0.15130222 0.45798093 0.21944618 -0.116568744
-0.018033147 0.028313696 0.39295447 -0.24722838 0.30339065 0.24772029 0.6004497 -0.444507
0.46122316 0.1331026 -0.1450745 -0.28414428 -0.39013955 0.4407642 -0.19812714 -0.2563176
-0.21961802 0.44802815 -0.13842219 -0.27326888 0.23909211 0.13547802 -0.19040096 -0.24805498
-0.2522975 0.45047033 0.11569777 -0.49701837 0.45570433 0.31829625 -0.20862779 0.281688
-0.10551357 -0.117495894 -0.18529898 -0.48434353 0.47556785 -0.6254275 -0.41589782 -0.06975353
0.36774695 -0.56151026 -0.594529 0.50054145 0.3613341 -0.5836001 -0.5000168 -0.20700909
-0.46503878 -0.42382127 -0.07015836 -0.3196218 -0.067916274 -0.1278674 0.45948797 0.19845605
0.17593807 0.014767262 0.25124946 -0.2795513 0.40997162 0.4165902 0.2753559 -0.24202831
0.042779267 -0.23732805 -0.090842485 0.19219679 -0.16060103 -0.13358916 -0.58799005 0.35314474
-0.13525954 -0.16554694 -0.5527838 0.24136007 0.04990063 0.26468274 -0.15317611 -0.43342206
-0.13299291 -0.26280868 -0.47220963 0.41308853 0.12220155 0.44978383 -0.10734873 -0.04478286
-0.49878436 0.3917114 -0.2105809 0.068322346 0.28679675 -0.34303552 -0.35773826 -0.22140789
-0.32942122 -0.2758373 -0.054914355 -0.39934695 0.17728098 0.46344998 0.27863014 -0.011123773

fc1.bias f4 [256]
00000000: beef 003f 58fc de3d 308a 563d d10d 943e
00000010: 06b5 b8bd cdda a4be 646a 4fbe a729 6d3e
00000020: d408 70be d654 043e 6eef d2be e00b 8abe
00000030: e507 bb3e 1672 d13d 6862 1dbe 6a5c babe
00000040: e805 6abe 46c8 913d ff73 bbbe cad5 99bd
00000050: 29dc 1e3e 1a17 ee3e 6094 30bd a4ae 3ebd
00000060: 423d c2be e0c7 c43e 46d9 bc3d c839 fcbe
00000070: ae04 fabe 4e65 a7be 5ff6 223e 02f5 c3bc
00000080: 362a c7be 4bcd 613e a86c e7bd 5a8a a83c
00000090: 586d 6abe 54bf e4be 3094 0bbd eea5 8b3e
000000a0: e787 71bc 7788 a83e c059 a4be c0df 51be
000000b0: a8e2 8a3e 8426 8dbe 3003 cc3d 31e7 debe
000000c0: 727c b0be 9919 943c 804e 12bc d6de ddbe
000000d0: ff12 7a3e 766b 303e 4aea ffbe 583c 3abd
000000e0: 434b e73c 324f af3e 8486 d3bc 2333 20be
000000f0: 23e6 303e 1e0c d7be 442e f1be fa94 873d
00000100: 4f6d 5a3e 7cbe 94be 542d 77be 3f0a 9b3e
00000110: d5e1 2c3e c243 133e 0343 773e 48fa 6d3d
00000120: 14d6 a53e 800d d5be 2002 4cbd 7c34 f8be
00000130: d085 dcbd a5f6 833d 4739 663d 2401 c0be
00000140: 5d2f 233d 1c39 63be a6a8 003e e678 d2bd
00000150: c412 8c3e 5cf7 c4be 5188 ec3d e879 e4be
00000160: f893 a4be a869 d0be b6b2 ddbe 4481 513e
00000170: 2a58 babe ba35 f8be 4a8e 0e3d d835 c43d
00000180: dc98 033e 991d 35be 3c17 0dbf 2fab 10be
00000190: fe86 f4be fca8 a4be 78f3 eebe 11a5 25be
000001a0: 0070 c7bd 0ae2 f9be 3849 903e 4276 b8be
000001b0: 092b ac3d 87b6 f33d b455 0cbe 3742 b1bd
000001c0: 0637 d5be b8b1 913e cda7 4dbd dc67 723e
000001d0: 8cf6 f13d 7914 c3bd 5092 a4be ebeb 06bf
000001e0: 85cb bf3e ac5a 9ebe db2f 123e 7fc4 73be
000001f0: 3ccb 52be 7b20 973d 42e5 a5be 8818 acbe
00000200: ac66 05be 7e35 1bbd 2644 ec3e 02f5 61be
00000210: ee18 f9bd 759d d63d f8ff 8fbe e04b 94be
00000220: 9cd7 45be 4458 19be 1f32 bc3d 80a1 71bc
00000230: 0816 033e fce4 adbe da1f d3be 72c7 92be
00000240: 839a 7fbe 26ce 843a f155 483e ad64 c53e
00000250: 6f00 9e3e 8f20 b53e 5c39 c8bd a631 0ebe
00000260: 39c4 693e 4c7f 55be c54f 833e 1404 13bc
00000270: 0a8e c9be cf04 c13e f468 f8be 886d 19be
00000280: 9f0d fcbd 3ec6 ae3e 4c87 ccbe f99a b23e
00000290: a823 f33d 2afa 8abd 4a1d a13d ef5e 28be
000002a0: 5a23 fabe 8548 603e 3086 abbe a6d3 bcbe
000002b0: 10b8 debd 612c 6f3e 4a15 f9be 40f2 26be
000002c0: d0da 93bd 4c03 5bbc 9089 da3e 1ae2 293e
000002d0: d637 773e fea1 103e b78e 203e b044 a0be
000002e0: dd02 e63d f6f4 443e 014f b73e ea6d efbe
000002f0: 416f 833e a183 553e de10 84be 187c 383e
00000300: e6f9 b8bb 9155 ad3d a042 ee3e 9d3b 08bd
00000310: c1e1 7e3e c0e3 963e 9c2a 20be 00fc fc3b
00000320: 9a4b fcbe 12aa 7abe 30c7 c5be 1cd0 efbe
00000330: 19c3 a43d b6fd e33d 88af ffbe df19 c43e
00000340: d489 27be 80be f7be b227 f7be 88b0 2fbe
00000350: 2afa db3e e715 aa3e 1aab f13d ab60 60bd
00000360: 000f 05be 30f5 63bd 9f93 a1be 25da 97bd
00000370: da9d f8be 53e6 5a3e d046 1dbe b37f c33e
00000380: 257a bdbc ce1b 093e 2cb6 d7be 221c f3be
00000390: 4c44 383e 1b09 5b3e 24d7 56be fcd5 6dbe
000003a0: b8df d43d 2263 9cbc 273a d33e 940b 75be
000003b0: d94e bcbe 8dab 73bd 5034 7abe 8c50 8a3d
000003c0: 0a2f 693d bad0 3f3d a62e 8fbe 9af0 b1be
000003d0: e4c1 babe 4837 28be faa2 5e3e 8294 833e
000003e0: e184 a33e 0bda b5bd 20f9 ee3c 0dd4 a13e
000003f0: 9698 3c3e c6bd d5be e86f 35be 8b97 a83e
0.5036582 0.108879745 0.05237788 0.2891679 -0.090189025 -0.32198182 -0.20255429 0.2316042
-0.23440868 0.12922987 -0.41198295 -0.26962185 0.3652946 0.10226838 -0.1536957 -0.3639863
-0.22853816 0.07118277 -0.36611935 -0.0751148 0.15513672 0.46502 -0.04311025 -0.04655327
-0.3793736 0.38433743 0.09221129 -0.49262834 -0.48831695 -0.32694477 0.15914296 -0.02392054
-0.38899392 0.2205097 -0.113000214 0.020573784 -0.22893274 -0.44677222 -0.03407687 0.27275032
-0.014741874 0.32916614 -0.32099724 -0.2049551 0.2712605 -0.27568448 0.099615455 -0.4353576
-0.34469944 0.018078612 -0.008929849 -0.43334073 0.24421309 0.17228493 -0.49983436 -0.045467705
0.02823413 0.3424011 -0.025820978 -0.15644507 0.1727529 -0.42001432 -0.4710561 0.06620212
0.2133076 -0.29051578 -0.24138385 0.30281255 0.16883023 0.14381316 0.24146657 0.058100015
0.3238989 -0.41611862 -0.049806714 -0.48477542 -0.1076771 0.06443528 0.056206968 -0.3750087
0.03984009 -0.22189754 0.12564334 -0.10276966 0.27358067 -0.3846997 0.11549438 -0.44624257
-0.3214414 -0.4070561 -0.43300408 0.20459467 -0.3639539 -0.4847849 0.034803666 0.095805824
0.1285128 -0.17687072 -0.5511358 -0.14127801 -0.4775924 -0.32160175 -0.46670127 -0.16176249
-0.09738159 -0.48805267 0.2818086 -0.36027724 0.08406646 0.11900049 -0.13704568 -0.086552076
-0.41643542 0.284559 -0.050208855 0.23672432 0.11814603 -0.09525389 -0.32142878 -0.5270373
0.3745996 -0.30928552 0.14276068 -0.23805426 -0.2058534 0.07379242 -0.32401472 -0.33612466
-0.13027447 -0.03789281 0.46145743 -0.2206612 -0.12162958 0.10479251 -0.28124976 -0.28964138
-0.1932053 -0.14975077 0.09189247 -0.014747977 0.12801373 -0.33963764 -0.41235238 -0.2866779
-0.24961285 0.0010132238 0.19564034 0.38553372 0.30859706 0.35376403 -0.097765654 -0.13886127
0.22828759 -0.20849341 0.25646797 -0.00897314 -0.3936618 0.3769898 -0.48517573 -0.14983189
-0.123072855 0.34135622 -0.39946973 0.3488386 0.11872035 -0.06785996 0.078669146 -0.16442464
-0.48855096 0.21902664 -0.33500814 -0.36880225 -0.10874951 0.23356773 -0.48649055 -0.16303349
-0.072194695 -0.013367485 0.42683077 0.16590157 0.24142393 0.14124295 0.15679441 -0.31302404
0.11231015 0.1923407 0.35802463 -0.46763545 0.25670817 0.20850994 -0.2579412 0.18016088
-0.0056450246 0.08463586 0.46535206 -0.033259977 0.24890806 0.29470634 -0.15641254 0.0077204704
-0.4927643 -0.24478939 -0.3862853 -0.46838462 0.080450244 0.11132376 -0.49938607 0.38300988
-0.16361171 -0.48387527 -0.48272473 -0.17157185 0.42964298 0.33219835 0.11800213 -0.05477969
-0.12994003 -0.05565375 -0.31557938 -0.07414655 -0.4855793 0.21376924 -0.15359044 0.38183364
-0.023129532 0.13389513 -0.42131174 -0.474824 0.17994803 0.21390192 -0.20980507 -0.2322616
0.103942335 -0.019090239 0.41255304 -0.23930198 -0.36778906 -0.059489775 -0.24434018 0.06753644
0.056929626 0.046829917 -0.27965277 -0.34753877 -0.36476052 -0.16427338 0.21741858 0.2569924
0.31937316 -0.08879479 0.029171526 0.31607094 0.18417582 -0.41746348 -0.1771847 0.32928118

fc2.weight f4 [256, 256]
00000000: bc5c 8b3c dccd a63c ec33 3e3d a0d9 733c
00000010: a8ec 513d f49e 113d 4ad0 1fbd e0c2 26bd
00000020: dc1e f1bc 104c e03b 0047 5e3c aced 4f3d
00000030: 848a f3bc 2c84 71bd b8d2 eabc a253 59bd
00000040: b84f 263d e4fa 533d d842 de3c eef6 403d
00000050: e831 b9bc 161b 013d ca1b 6cbd fe66 64bd
00000060: ca2a 28bd c025 ecba c097 c43b 304a 903c
00000070: 84a2 ea3c d277 073d a0e4 35bc 4a96 4e3d
00000080: 1a89 42bd 5a0c 4cbd 9a0a 7dbd cc1b 393d
00000090: cc80 4c3d 9cb7 0fbd 403e ee3a 902c e6bb
000000a0: d8ae 06bd 0095 6a3b 303d 063d 3a36 523d
000000b0: 3a52 463d 0049 563d 0e40 5e3d 5ce9 dcbc
000000c0: deef 793d 0c43 49bd 8418 01bd c852 8f3c
000000d0: 9076 efbc c231 1bbd 0060 79ba 866a 62bd
000000e0: 7c77 153d 4c40 95bc 32ad 24bd 6eb3 343d
000000f0: 1883 313c 10ce f3bc 5006 5bbc 300a 3a3d
00000100: 9ebc 22bd 7ce5 b13c a066 3bbb 64ee 1a3d
00000110: d66e 37bd 1c17 5cbd 785b a8bc e26a 28bd
00000120: 982e 9ebc d6d9 703d 84ab 223d e8a9 d0bc
00000130: 1093 e13b f055 703c 4a5e 013d da6d 433d
00000140: 40a7 0c3b 00fb 5b3c 76dc 76bd fccd 023d
00000150: 38f7 273c 4a94 6a3d 002e e83b 58ed 773d
00000160: 1ced 78bd 341c bbbc b6c9 553d 6049 ee3c
00000170: 0806 cabc 5c33 71bd fc17 ea3c 20f9 40bd
00000180: 2822 093c 28c4 e53c c4d2 203d 5040 6bbd
00000190: 0848 31bc 28af ecbc 68bd b03c 60e2 f1bc
000001a0: e254 34bd ee97 4a3d a867 08bc e48e 41bd
000001b0: 963c 193d 5e4e 273d 40eb 07bd 2425 33bd
000001c0: e006 de3b ec18 46bd d4e7 1c3d 0c59 7a3d
000001d0: 68ac d8bc 38c3 0bbc b822 72bc 105e 58bc
000001e0: 9419 963c fc85 aebc 08c8 673c f4d4 173d
000001f0: f039 ad3c acf1 6cbd d2c9 70bd 2058 4ebd
00000200: fca3 8fbc c09b 663b 7001 8bbb 3600 7b3d
00000210: 8060 f4bb 90df 2e3d c4d6 c0bc 44fc 363d
00000220: 40b6 6fbc 8c90 703d 383b c23c d028 fc3c
00000230: 60b7 6cbb 20dd 2c3c 6067 4fbd 507b 09bc
00000240: c8c0 2fbd ce76 49bd a0aa 63bd a415 7c3d
00000250: 341b 1d3d b059 b93b ce26 183d d44c fcbc
00000260: 4054 503b 30a7 163c 9827 3c3c 78eb e8bc
00000270: b6fc 62bd 88fd 14bd 6e04 783d 58e5 adbc
00000280: 1e1d 68bd ac8c 6abd 6cd1 71bd 00a4 6f3c
00000290: b838 2cbc 806c a33b 70ce 40bc dac5 033d
000002a0: fe96 463d e817 0cbd b86d 403c b833 65bd
000002b0: ba6e 0ebd 4a89 62bd 6094 6fbc c08c a7bc
000002c0: baf0 583d 946a 8dbc 9055 e4bc f81f 7d3d
000002d0: c298 18bd 36b6 19bd e4b5 d53c 24ee a2bc
000002e0: a0a6 cebc 70b3 29bc a084 703c 74aa 683d
000002f0: 4e2b 0f3d d266 41bd eccf 8dbc 6cd0 a83c
00000300: b0f3 e1bc fc97 213d b8c9 5b3c 9883 5b3c
00000310: 60d9 7ebc e003 a73b c0fa 8cba 942b 903c
00000320: a019 f33b a0b3 183b aad4 28bd a4e5 c5bc
00000330: ec5a 75bd b43d a7bc d294 6e3d e20d 20bd
00000340: c283 013d ae1a 6abd 70d9 9fbb 1e1f 2b3d
00000350: 6cdb 583d fcc9 e2bc 22bd 37bd 7cda c73c
00000360: 8417 e0bc e452 15bd 20c3 323c 7a1c 7abd
00000370: 90e0 a0bb 3860 0b3d 1aef 33bd 9a8d 2cbd
00000380: 045a 4a3d 484f 5bbc b234 1fbd a0aa 463d
00000390: e0a4 143d 5068 8fbb 6c43 99bc 261e 28bd
000003a0: e007 40bd 80b9 63bb 6851 e8bc ee87 573d
000003b0: 6046 edbb aee4 52bd f2bf 27bd cc3f e9bc
000003c0: 60ba 013c 1ce1 e5bc 003c 9e3b 4057 20bc
000003d0: 86ff 00bd 0030 e5bb 887f 8dbc 0cb8 d0bc
000003e0: fab2 3d3d c09c a43c 584e 463c 28bc 4dbc
000003f0: c0f2 32bd cc39 1f3d bca6 bc3c f8cb 58bc
0.017011993 0.020361833 0.046436235 0.014883429 0.051251084 0.03555198 -0.039017 -0.04071319
-0.02943366 0.006845005 0.013566732 0.05076377 -0.029729135 -0.05896394 -0.028664932 -0.053058274
0.04060337 0.05175294 0.027131483 0.04711049 -0.022606805 0.03151997 -0.05764369 -0.055762284
-0.04105643 -0.0018016621 0.0059995353 0.0176135 0.028641947 0.033073254 -0.011101872 0.050436296
-0.04749403 -0.049816467 -0.06177769 0.045192525 0.049927518 -0.035087213 0.0018176511 -0.007024355
-0.032881588 0.0035794377 0.032773197 0.051321246 0.04841826 0.052315712 0.054260306 -0.026966743
0.06101977 -0.049136207 -0.03151752 0.017495528 -0.02923134 -0.03788925 -0.00095129013 -0.05527737
0.036490902 -0.018219136 -0.040204234 0.04411643 0.010834478 -0.029761344 -0.013368204 0.04541987
-0.03973066 0.021715872 -0.0028595105 0.037825003 -0.044783436 -0.053732976 -0.020551428 -0.041117556
-0.019309327 0.058801495 0.03971435 -0.025471643 0.0068839863 0.014668927 0.03158406 0.047712184
0.0021461993 0.013426542 -0.06026884 0.031934723 0.010251813 0.057270326 0.0070855618 0.060529083
-0.060773 -0.022840597 0.05219432 0.029087722 -0.024661079 -0.05888687 0.02857589 -0.047112584
0.00836996 0.028047636 0.0392635 -0.05743438 -0.010820396 -0.028892115 0.021574691 -0.02952689
-0.044026263 0.049461298 -0.008325495 -0.04725541 0.037411295 0.04084622 -0.033183336 -0.043736592
0.006775722 -0.04836361 0.038307026 0.061120078 -0.026449397 -0.0085304305 -0.014778785 -0.01320602
0.018322743 -0.021304123 0.014146812 0.037068322 0.02114579 -0.057847664 -0.05878622 -0.05037701
-0.017534249 0.003518805 -0.0042421147 0.061279498 -0.0074577928 0.042693675 -0.023539908 0.044674173
-0.014630854 0.0587316 0.023709878 0.03078118 -0.0036120042 0.010550767 -0.050635695 -0.008391216
-0.04290846 -0.049185567 -0.055582643 0.061544076 0.03835602 0.0056564435 0.037146382 -0.030798353
0.0031788498 0.009195134 0.011484049 -0.028432593 -0.055416785 -0.0363746 0.0605511 -0.021227524
-0.056668393 -0.05726306 -0.05903761 0.014626503 -0.01051157 0.0049872994 -0.011767969 0.032171108
0.04848384 -0.034202486 0.011744909 -0.055957526 -0.034773566 -0.05530671 -0.014622778 -0.020452857
0.05296395 -0.017262734 -0.02787283 0.061798066 -0.037255056 -0.037527286 0.026087709 -0.019888945
-0.025225937 -0.010357723 0.014680058 0.05680318 0.034953408 -0.047217198 -0.017311059 0.020607196
-0.02758202 0.039451584 0.013414793 0.013398074 -0.015554756 0.0050968975 -0.0010755882 0.017598905
0.007418826 0.0023300424 -0.041218437 -0.024157353 -0.059901163 -0.020415165 0.058247395 -0.03907574
0.031619795 -0.05715435 -0.0048782155 0.041777723 0.052943632 -0.027684204 -0.044858105 0.024396174
-0.027354963 -0.036456004 0.010910779 -0.061062314 -0.0049095824 0.03402731 -0.043929197 -0.04212723
0.04940225 -0.013385601 -0.038868614 0.048502564 0.03629005 -0.0043764487 -0.018708907 -0.041044377
-0.04688251 -0.0034748018 -0.02835913 0.052619867 -0.0072410554 -0.051487617 -0.040954538 -0.028472804
0.00791797 -0.028061442 0.00482893 -0.009786427 -0.031493686 -0.0069942474 -0.017272726 -0.025478385
0.046313263 0.020094275 0.01210364 -0.012557067 -0.043688536 0.03887348 0.023028724 -0.013232224

fc2.bias f4 [256]
00000000: f8ee 2bbd 46c7 5cbd 7a11 dfbd fc33 95ba
00000010: 4893 313c 62cd 1fbe 3744 42bc 6d26 c7bc
00000020: a53b 90bd 4e22 843c ee3f 40bd f162 0cbd
00000030: b1d2 ee3c c936 c8bd e9ad c6bd 536f 393e
00000040: 15f1 153c 7b3c f83c b4ee dcbd ad6c 823c
00000050: 703a f1bc 5943 5abd 6618 4cbd b80e 55bd
00000060: 8090 80bd 6e40 09bd 5bbc 1cbd c0e8 ba3c
00000070: dc85 0a3d 017d 4e3d 9aa0 9bbd 4532 b6bd
00000080: f4cd c5bd 56c2 b3bd 5286 e9bc 11ef d23c
00000090: e03b 273d dec4 0cbd 8dfd 06be 8e60 71bd
000000a0: 8109 54bd cf58 0ebd da7a 86bd 396b bcbd
000000b0: cffe f1bd d648 c1bd 6219 edbd f057 99bd
000000c0: e297 543d a9c4 ec3d d5d7 44bd 246c 96bc
000000d0: bc1e a3bd d283 0d3e 326e a7bd a4f6 043e
000000e0: 76a4 6dbd 6743 babd 72ba 86bd 23ff 123e
000000f0: f4a6 bcbc 5edf 0bbd 6039 d5bc 2cf5 49bd
00000100: d419 54bd fe1f 71bb 16f0 53bd c1ec d1bd
00000110: cc8d c3bc 949b 10bd 5082 97bd bdd6 82bc
00000120: 024b 83bd 5dcf 463d 1a70 00bd b6ae 393c
00000130: 786e 26bd 70d4 9bbc 5770 eabd 349c d1bd
00000140: 60ba 0dbb b28e b13d dddf 27bb 808d 6c3b
00000150: cc6f b8bd b014 4ebc 1941 5fbd 8a31 673c
00000160: d005 ecbc f2a9 38be 0151 c13c 3c87 97bd
00000170: 2c6e e2bc c0a6 1dbb 6aa4 843d 36f8 c63c
00000180: 9299 5cbd a3b1 14bd f8f5 c6bd 8782 d23d
00000190: 99b4 2bbc 28b9 a3bd f263 6ebd abe3 193e
000001a0: b4e8 cebc 6c20 1cbd 70d4 483c d594 80bd
000001b0: a7df a03d 5693 99bd a853 7cbd 1e0f a7bc
000001c0: c0f3 ecbd 067d 203d 3f5f 9b3d 1e89 02bd
000001d0: c972 c43c 6965 143b f714 cdbd c0f1 a03d
000001e0: 9255 cbbd 6c57 65bd 1369 98bc 01cc 473c
000001f0: 7dba 83bd af60 90bb 68be afbc fbf9 8cbd
00000200: bf38 40bd ca65 11bd 15a2 0abd 1666 753d
00000210: 22c1 94bc 152e a8bd 20e7 47bd ee55 43bd
00000220: d047 3cbd 893a 69bc f11f 88bc 01a1 3cbd
00000230: bea0 ec3c 7529 c3bd 0040 b8b9 dc89 dfbd
00000240: 2858 41bd f5c9 97ba 68d9 15be e8ee c1bb
00000250: d8bf 293e 1899 06bd b7a1 483c 7f76 ddbc
00000260: 5c0d aabd d66f 183b bd73 d2bd ffdd f13d
00000270: c31b 64bd c7dc 77bc 6828 3bbd 88ef 553d
00000280: f48f 83bd 93c5 b0bc 5c93 07bd 627f c83c
00000290: c854 f0bc a660 5ebd 16f8 5abc feb8 c4bd
000002a0: 3c09 8bbd e92e c0bd 68ad 473c 22f7 29bd
000002b0: 5bd9 bbbd bc36 d6bd abbc 70bd d439 19bd
000002c0: b65c c1bd 2446 d1bc 736f 453a eb14 113d
000002d0: 3daa 9ebd 58b2 f9bd e826 5f3c 60af 24bd
000002e0: a8af bfbd 34f7 96bd ac84 83bc 1659 ba3d
000002f0: 34ff d9bc 2098 7fbd b901 64bd 6b2e 01b9
00000300: 477d 033d f5de 353d 601e ad3c eb92 653d
00000310: 74e6 f23d 0c11 1abd 32f6 833d a585 11bd
00000320: 53d7 1a3d 8a48 9ebc 4563 6a3c 35f0 4b3d
00000330: 1642 8fbd 25d0 90bd 6a6c c33c 183e e73d
00000340: a01a 0ebe ec7d 13bd b748 98bd 9829 46bd
00000350: 10e0 e73d 89c6 7e3c 55a4 ebbd ff69 213c
00000360: 0c0b 11bd 8b41 483c b08a 96bc 8cd3 d33d
00000370: 7309 bbbd fa6f 2cbd 3a4a d7bd 638e af3d
00000380: 83a7 e53a 3077 b0ba 7100 7abd cd9c f8bd
00000390: d591 5abc aa55 d03b 34ac 233e ac4f e2bc
000003a0: 5517 84bc 7d5a 81bd 39cb 0a3e fb73 80bd
000003b0: f2b6 d2bd 5014 04bd 3c8d d8bd 03bc c5bd
000003c0: fff5 10bd 4a8f 92bd 3bff 9bbc df48 22bd
000003d0: ebd0 64b8 838f d43d 5219 933d ffb1 463d
000003e0: 20ff 77bd 11b8 803d f459 98bc 0c4c 68bd
000003f0: 3d8b 79bd 638a 32bd 85d2 1abd 524a c0bd
-0.041975945 -0.05390098 -0.10892005 -0.001138329 0.010838337 -0.15605691 -0.011857084 -0.024310315
-0.07042626 0.016129639 -0.046935968 -0.034274045 0.0291532 -0.097760744 -0.097011395 0.18108873
0.009151717 0.030302277 -0.107877165 0.015920961 -0.02944681 -0.053286884 -0.049827956 -0.05201599
-0.06277561 -0.03350871 -0.038265567 0.022816062 0.033819064 0.05041218 -0.07598992 -0.08896307
-0.09658423 -0.08777301 -0.028506432 0.025748761 0.040828586 -0.034367435 -0.1318266 -0.058929972
-0.051766876 -0.034752663 -0.06566401 -0.092001386 -0.11816179 -0.094377205 -0.11577107 -0.07487476
0.05190266 0.115609474 -0.048057396 -0.018362112 -0.079648465 0.13819817 -0.08175315 0.12984711
-0.05801817 -0.09094887 -0.0657853 0.1435514 -0.023028828 -0.034148566 -0.026028335 -0.04930608
-0.051782444 -0.003679275 -0.051742636 -0.10250235 -0.023871325 -0.03530462 -0.07397902 -0.015971536
-0.06410791 0.0485376 -0.03135691 0.011333158 -0.040632695 -0.019022197 -0.114472084 -0.102348715
-0.002162598 0.08669795 -0.002561561 0.0036095083 -0.090056986 -0.0125781745 -0.05450544 0.014110932
-0.028811365 -0.18033579 0.023598196 -0.07398841 -0.027640425 -0.002405569 0.06476672 0.024288278
-0.053857394 -0.03630222 -0.097148836 0.10278802 -0.01048007 -0.079943 -0.058200784 0.15028255
-0.025257446 -0.038116857 0.01225768 -0.062783875 0.07855158 -0.07498805 -0.06160322 -0.02039295
-0.11569929 0.03918173 0.07586526 -0.031869046 0.023980515 0.0022643453 -0.10013764 0.0785861
-0.099284306 -0.055991575 -0.01860479 0.012194634 -0.06432054 -0.004406057 -0.021453097 -0.068836175
-0.046929117 -0.035497464 -0.03384598 0.05991181 -0.0181585 -0.082119144 -0.048804402 -0.04768937
-0.045966923 -0.014235147 -0.016616793 -0.046051983 0.028885242 -0.09529392 -0.000351429 -0.109149665
-0.047203213 -0.0011580574 -0.14633715 -0.0059183724 0.16577089 -0.032860845 0.012245587 -0.027034042
-0.08303329 0.0023260019 -0.102759816 0.118099205 -0.05569054 -0.015128321 -0.04569283 0.052230388
-0.06423941 -0.021578586 -0.033099517 0.024474803 -0.029337302 -0.05429139 -0.013364812 -0.09605597
-0.06788871 -0.093839474 0.012187339 -0.04149545 -0.09172317 -0.104596585 -0.058773678 -0.037408665
-0.09441511 -0.025546141 0.0007531561 0.03542034 -0.07747314 -0.121922195 0.013620116 -0.040206313
-0.09359676 -0.07371369 -0.016054474 0.09099023 -0.026610948 -0.062400937 -0.055665705 -0.0001231969
0.032101896 0.04440208 0.021132648 0.056048315 0.11860362 -0.037613913 0.064434424 -0.035527844
0.037803005 -0.019321699 0.014305894 0.049789626 -0.06995027 -0.070709504 0.023855407 0.1129114
-0.13877344 -0.03600876 -0.07435744 -0.04837951 0.113220334 0.015550264 -0.11505953 0.009851932
-0.035410926 0.012222658 -0.018376678 0.10343084 -0.09132662 -0.042098977 -0.105122045 0.0857208
0.0017521236 -0.0013463255 -0.061035577 -0.121392824 -0.013340433 0.006357868 0.15983659 -0.027625881
-0.016124407 -0.063160874 0.13554086 -0.062721215 -0.102888 -0.032245934 -0.10573813 -0.09655001
-0.03539085 -0.071562365 -0.019042602 -0.039620277 -5.4554006e-05 0.10378935 0.07182564 0.048509594
-0.06054604 0.06285108 -0.01859758 -0.05671315 -0.060923804 -0.043589007 -0.037798423 -0.093891755

fc3.weight f4 [256, 256]
00000000: b2ab 73bd 502e a2bd 4937 9bbc 47ce d6bd
00000010: 9215 25bd 67c6 3cbd ca00 26bd f74d bb3d
00000020: 1302 b33d b23d 8dbd 967a 74bd e760 6ebc
00000030: 6f39 95bd e651 ad3d e081 5dbc a530 99bd
00000040: 3b7f 413d 4a1a a4bd 26a5 f13d 000e 0ebd
00000050: 051f 95bd 392a 86bc 4c30 633d 50cf cc3d
00000060: 5a8c e83d 98b8 61bc 90e4 9c3b b25e 3bbd
00000070: 7c38 3fbd 13f9 4cbd 9861 903d ba41 12bd
00000080: dd34 2fbd 52b3 dd3d 6868 c83d 12a9 b23c
00000090: c5f4 71bd 2414 edbc bd0b 65bc 58fd a4bd
000000a0: a9f4 fcbc 9d24 b33d 8a40 633c 0074 febb
000000b0: 35eb 9cbd 2d6d 153d 56f2 1a3d c9db ccbb
000000c0: 2693 703d 2167 42bd 8fcd b1bd d822 adbc
000000d0: 8422 a63c f7f3 c5bd d3cd cd3c 23a8 d1bd
000000e0: 2828 45bc aef3 0b3d 0a0c 5d3b d33e 9dbd
000000f0: 117e 913d d4d1 0f3d cadb 0ebd e056 a7bc
00000100: 2f99 913b a361 083d 6e06 55bd 5522 203d
00000110: 4f8c a23b b075 0ebc 1528 cc3d 5e94 b13d
00000120: 9dfa d6bd 015e f8bd 51f1 cb3d 6540 823d
00000130: e1bd ec3b 7cb0 25bd fbf0 dcbd 9dc9 153d
00000140: fedf 213d a6f8 94bd 94ed 5d3c 2089 21bd
00000150: b14e 193c 1e74 12bd a66d 9fbd e074 afbd
00000160: 9fe8 68bd 7448 f4bc e169 e73b a4d2 453c
00000170: de6d 3e3d 4eb8 623d 1cdd 96bc 4cf7 86bd
00000180: 50a2 f9bb 8cb1 f13d c989 b7bd 32f1 e5bd
00000190: 31f9 d8bd 391f e03b 7406 7b3d afe2 c6bd
000001a0: 5a63 62bd c475 ca3c 8087 2d3c 8445 f0bc
000001b0: dc54 6abd fefb 083d 3c21 67bd c4b8 9cbc
000001c0: c940 afbd c0dc febc 1977 cfbc 1c16 203c
000001d0: 7125 4bbd 37cd 24bc 6672 ec3d 6c2c dbbd
000001e0: 8421 36bd 9e14 5dbd 2a06 08bd 70c1 82bc
000001f0: 2f22 433d b68f 59bd 6cab 46bd 462c 2c3c
00000200: 4ffe ea3d 7cca c93c 0f74 68bb c43d f5bd
00000210: 754b 1a3d 6989 76bc d03e e3bc a46a e83b
00000220: 649c b1bd 4c21 b73d fb0e 503d d014 3b3d
00000230: a62b 4b3d f062 78bd 10ab 91bb dd6e d63d
00000240: e636 6abd e6e6 383d 7eed 6abd 5bac 21bd
00000250: b4e7 95bd bf89 79bc 3a36 55bd 4ced a3bb
00000260: 868e 393d 68c3 8abc 0a5f cd3c bff9 f3bc
00000270: c69d b93d d118 ba3d c135 01bc 2e00 d8bc
00000280: bb12 263d 80ee a8ba 50ea d2bd db29 a1bd
00000290: 4b43 813d 9a6e 7bbd d3e6 cc3d 1f1a 203a
000002a0: 5fe4 013c 3f05 ccbc f029 1e3c e02b 6ebc
000002b0: f71e 4c3d bf6d f33d 05eb 703c f4db dcbc
000002c0: 4136 f03c 3ed9 073d 7ae9 d53d 7f4d a1bd
000002d0: 8e62 333d 19f3 57bd 0020 0ab7 307e 7bbc
000002e0: 5cf3 0fbd 1f29 ec3d c074 0ebb bc14 54bd
000002f0: e0ee 183d 5b2b 30bd 2d30 7fbb d08d cf3c
00000300: f9bf 403b 42c3 61bd 28e6 703d 80f3 d03a
00000310: 86a3 f0bd c6cd 463d 65bd f4bd 3185 973d
00000320: a624 e03a b0a3 e43d 136c 19bd 7dd0 46bd
00000330: 6968 483d d179 36bd 1b28 20bd c1b1 aabc
00000340: c048 3cbb 059d c93a e230 853d f44e 793d
00000350: 4db3 97bd a884 8c3c b84d 7d3d 6bd7 9fbd
00000360: 8094 6ebc bdf0 b9bd 0a1c 4ebd 07ab dfbd
00000370: 009c 37bd 73df 983c 10ab d73d dc37 7bbd
00000380: 8170 9ebc 99a4 61bd 887c 783d bb50 423d
00000390: 5949 a43d e68d 10bd 8fcd f8bc 90fb 45bd
000003a0: 7b71 dc3d 70e5 753d 4a31 3c3d 5815 253c
000003b0: f8cf 6e3d ca42 0dbd f161 2d3d f78d 04bd
000003c0: 61c7 083d d205 ee3d c694 3cbd ad72 5d3b
000003d0: fe39 df3d bb7d 8fbd 93db 90bd 3a75 b7bd
000003e0: a0cd 22bd 0c65 99bd a68d 093d 15e8 f53d
000003f0: e691 d53d 26b5 b63d 7e9d 6c3d 4523 9b3c
-0.059489913 -0.0791899 -0.01894726 -0.10488563 -0.040303774 -0.04608765 -0.040528096 0.0914573
0.0874063 -0.06896533 -0.05968722 -0.0145494705 -0.07286345 0.084628865 -0.013519734 -0.07479981
0.047240477 -0.08012827 0.11799078 -0.03468132 -0.07281307 -0.016377555 0.05546598 0.10000479
0.11354895 -0.013776921 0.004787989 -0.045744605 -0.046684727 -0.050042223 0.070498645 -0.035707213
-0.042775024 0.10825218 0.09785539 0.021809135 -0.05907132 -0.028940268 -0.013979849 -0.08056134
-0.030878382 0.08747218 0.013870368 -0.007765293 -0.0766205 0.03648107 0.037828766 -0.0062517864
0.05873408 -0.047461633 -0.08681785 -0.021134779 0.02028013 -0.09665673 0.025122559 -0.10237148
-0.0120335 0.034167938 0.00337291 -0.076779984 0.071041234 0.035112217 -0.034877576 -0.020427167
0.0044433097 0.03329624 -0.052008085 0.03909524 0.0049605737 -0.008695051 0.099685825 0.08670877
-0.104970194 -0.12127305 0.09958137 0.063599385 0.0072247838 -0.04045151 -0.10788151 0.036569227
0.039520256 -0.072739884 0.013545413 -0.039437413 0.00935714 -0.03575527 -0.07784586 -0.08567214
-0.05686247 -0.029819705 0.0070621823 0.012074146 0.046491496 0.055351548 -0.01841598 -0.06590137
-0.007618226 0.118014425 -0.08961827 -0.11227645 -0.105944045 0.0068396595 0.06128545 -0.09711205
-0.05527053 0.024714358 0.010591388 -0.029330023 -0.057209834 0.033443443 -0.05642818 -0.019131072
-0.08557279 -0.031111121 -0.025325345 0.009770896 -0.049596254 -0.010058693 0.11545257 -0.10701832
-0.044465557 -0.05397474 -0.033209004 -0.015961379 0.047640022 -0.05311557 -0.048503324 0.0105086025
0.11474287 0.024632685 -0.0035469567 -0.119746715 0.037669618 -0.01504741 -0.027739912 0.0070927907
-0.08672407 0.08941898 0.050795536 0.045674145 0.049602173 -0.06064123 -0.004445441 0.10470364
-0.05718126 0.045142077 -0.057355396 -0.03947101 -0.073195845 -0.015230595 -0.052053668 -0.005002653
0.045301937 -0.01693888 0.025069732 -0.029782174 0.09063296 0.090867646 -0.007886351 -0.026367273
0.040545207 -0.0012888461 -0.10298598 -0.078693114 0.06311663 -0.061384775 0.10004964 0.0006107408
0.007927983 -0.024904845 0.009653553 -0.014536828 0.049834218 0.11886167 0.0147044705 -0.02696035
0.029322745 0.033166163 0.10444923 -0.07876109 0.04379516 -0.05272207 -8.232892e-06 -0.01534991
-0.035144195 0.11531281 -0.002173707 -0.051777586 0.037337184 -0.043010097 -0.0038938627 0.025336176
0.00294113 -0.055117853 0.058813244 0.0015941709 -0.117499396 0.048536085 -0.11950187 0.07398451
0.0017100766 0.111640334 -0.037456583 -0.048538674 0.0489277 -0.044549767 -0.039100748 -0.020836713
-0.0028729886 0.0015381878 0.06503464 0.06086631 -0.07407246 0.0171531 0.061841697 -0.078047596
-0.014561772 -0.0907912 -0.05031971 -0.10921293 -0.044826508 0.018661236 0.105306745 -0.06133257
-0.019340755 -0.055088613 0.060665637 0.04744027 0.080218025 -0.035291575 -0.030371455 -0.04833561
0.10763832 0.06003326 0.045945443 0.0100758895 0.058303803 -0.034487523 0.042329732 -0.03236195
0.033393268 0.11622204 -0.04604032 0.0033790276 0.10899733 -0.07006403 -0.070731305 -0.08957906
-0.03974688 -0.07489976 0.033582352 0.12007157 0.104282185 0.0892127 0.057767384 0.018937716

fc3.bias f4 [256]
00000000: 1e2c cfbd d12c 9cbd 9682 153e eb2b d23d
00000010: 87e6 473d 3cf4 7bbd 9ceb 273e d424 23bc
00000020: 7e8f c3bd bbbf 7ebd 954b eebc 8f59 72bd
00000030: f0ac 9c3d 8953 78bc 415c 17bd 1b38 e03d
00000040: f069 64bd c970 17bd df1f 97bd e78e f33d
00000050: fcd8 31bd b0c6 bc3d e286 efbd 49bb 5f3d
00000060: 43ca b1bd 9a00 263e f748 f0bd 1fca 853c
00000070: 9ac1 1d3d 2b8a b1bc 695c 853c cffd c2bd
00000080: 021e eabc b5e4 59bd 44af 183d 59b4 86bd
00000090: 566a d2bd e621 e0bd c697 88bd 7644 09bd
000000a0: bc32 5dbd 29cb 0ebd 3372 d43c 7d35 52bd
000000b0: be2e 95bc 657b 323e b6e4 f7bc 94a3 e0bd
000000c0: e44d 79bd e8d5 ef3c b6a5 fdbc 37b2 473e
000000d0: 833a 8cbd 7533 8ebd 7440 a9bd 0da3 b4bd
000000e0: 48a6 1e3e 34eb aa3c 9e64 1a3e c0b0 8a3d
000000f0: a740 81bd 2cf7 dbbd d750 803e b814 d0bd
00000100: 8aab e83c 0228 20be 1a57 bcbd 2d19 48bd
00000110: 0b20 8abd ede0 a0bc 2b2d f33d f7b9 df3d
00000120: ea69 9e3a a4dd a5bc c9fb 8dbd 7cdc f4bd
00000130: 6659 14be e539 103e d455 c7bc 24c0 04bd
00000140: 5acb 01bd b084 f5bd 2f1f b2bd 6627 eebd
00000150: fc95 7abd 712b 1cbe bc83 64bd 1813 c1bd
00000160: 641b 25bd 34d9 82bc 235b d4bd 3a8a 7b3b
00000170: ebbc 4d3d adba b7bc bc72 313d 78fe f039
00000180: 9e38 a7bd f3db c4bd 18b6 92bd d7a3 c2bd
00000190: 0e94 893d c6ee ee3d a7a2 dcbd 61c1 49bd
000001a0: 4680 c73c 75bc c23d 9f86 02bd 564f d3bd
000001b0: 006c ddbb 6222 d1bd f33a 93bd eb2a eebc
000001c0: b5e4 e3bc 3818 e5bc 793e 403e 8adc 6fbd
000001d0: 1acc cfbd 5159 b13d db21 c6bd 38c6 aabc
000001e0: a7cb efbb 8844 71bd b2a2 f3bd 37ea 53bd
000001f0: 8040 933e 312e e1bd 1aa7 50bb 461a 89bc
00000200: a6d6 efbb 4dbf 07be 59da f7bc 883f 0cbe
00000210: 22c3 10bc d026 92bd 861e 723d 3e71 82bd
00000220: b115 bebd a5fe eb3c 9c68 8dbc d57e aabd
00000230: 5ac3 ecbd 058f 2bbd 234d 73bd 951f 8cbd
00000240: b9d0 7f3d 4030 36bd 096b 12bc b28b 65bd
00000250: 3479 ed3d 66d1 70bd 9eac f3bd cf7b 1fbd
00000260: 05a0 c33d aac6 debd f4af dcbd d279 4a3d
00000270: 8c7c 8bbd 9797 db3d a6df 7bbd 6660 1f3e
00000280: 95ef 9bbc 7434 223d f46b 45bd 1bc0 d0bd
00000290: 602b 47bd e038 82bd 4f8c 253d fef6 f7bd
000002a0: 65d8 abbd 6426 b5bd 1e9e 9dbd 4fd1 c8bd
000002b0: cf94 afbd 2402 adbd 96fd 143c 6898 d9bd
000002c0: 7352 96bd a9b8 adbd 14f0 b5bd c352 543d
000002d0: 58a8 61bd 03df 663d 7ae7 813c c855 bdbc
000002e0: e0c0 e8bd 6df2 15bd 08cd c0ba de3f c9bd
000002f0: 8b5a 9d3d 61da 94bd f85c a4bd 9df6 d6bc
00000300: 7592 93bd ecc7 593d ec84 0b3e ff6d f53d
00000310: 4592 dcbd 1762 40bd 07fb a43d b525 2c3e
00000320: b90c 713e d9cd 18bd 6936 b53c f295 65bd
00000330: 08a6 04bd 4cae 063d 6ef7 9bbd bb0d 6abd
00000340: cbf3 2cbe 8a6c 383d 82ce 08be 1712 c53b
00000350: f135 2abe e079 afbd 817f 07be 836d b2bd
00000360: 3e06 1a3e f0c1 003c 1441 2dbe d17f 833e
00000370: 4798 a6bd 9a73 4a3d cfe8 dc3c 581a d33d
00000380: 94ac 5dbd e96f 7a3b 3f7a 23bd 96c2 b2bd
00000390: 9852 c2bd b560 b1bd 8f04 efbc 582e d0bd
000003a0: 43d9 dfbd f151 d93d 7937 a7bd 5d7a 66bd
000003b0: 256c 14be 5718 91bc f2d4 ac3c 3423 26bd
000003c0: 2455 21bd 626d 393d 688f ecbd d272 aebb
000003d0: 8d00 f2bb b765 01bd 4aaf ddbb 9c91 283e
000003e0: 8de6 f5bd b343 4d3d 5e5f 0cbe c025 7cbd
000003f0: 33ae ff3d c0f0 d23c d4eb 913c daf2 453e
-0.101158366 -0.076257356 0.14600596 0.10262283 0.048803832 -0.061512217 0.16398472 -0.009957511
-0.09548853 -0.062194567 -0.029088775 -0.05916744 0.07650173 -0.015156635 -0.036953215 0.10948201
-0.055765092 -0.036972795 -0.07379126 0.11892491 -0.043419823 0.09217584 -0.11695649 0.05462197
-0.086811565 0.16211167 -0.11732667 0.01633173 0.03851471 -0.021672329 0.016279416 -0.095210664
-0.028578762 -0.053196628 0.03727652 -0.06577367 -0.10274188 -0.109439656 -0.066695735 -0.033512555
-0.054003462 -0.034861717 0.02593336 -0.05132054 -0.018210765 0.17429884 -0.030260425 -0.109687
-0.060865298 0.029276803 -0.030962806 0.19501577 -0.06847098 -0.069434084 -0.082642466 -0.08820162
0.15493119 0.020864107 0.15077445 0.06771994 -0.063111596 -0.10740504 0.25061676 -0.10160202
0.028402109 -0.15640262 -0.09196301 -0.048852134 -0.06744393 -0.019638503 0.118738495 0.10924142
0.0012086008 -0.020247288 -0.0693279 -0.119561166 -0.14487228 0.14084585 -0.024332918 -0.032409802
-0.03168807 -0.11988199 -0.08697354 -0.116286084 -0.061178192 -0.15250947 -0.055789694 -0.0942747
-0.040309325 -0.015972711 -0.103689454 0.003838195 0.050228994 -0.022427881 0.04332231 0.0004596596
-0.08165096 -0.096122645 -0.07163638 -0.09503906 0.06717692 0.11666636 -0.10773211 -0.049256686
0.024353158 0.095086016 -0.031866666 -0.103178665 -0.0067572594 -0.10211636 -0.07188978 -0.0290732
-0.027819017 -0.02796565 0.18773831 -0.05855993 -0.10146351 0.08659614 -0.09674426 -0.020846471
-0.0073179784 -0.058903247 -0.11896266 -0.051737037 0.28760147 -0.109951384 -0.0031837882 -0.016736161
-0.0073192893 -0.13256569 -0.030255483 -0.1369611 -0.008835586 -0.07136309 0.05911114 -0.063692555
-0.09281481 0.028807947 -0.017261796 -0.083249725 -0.11560698 -0.04188444 -0.059399735 -0.06841961
0.062454913 -0.04447961 -0.008936652 -0.056041427 0.11595383 -0.058793448 -0.118981585 -0.038936432
0.09552006 -0.10877736 -0.10775748 0.049432583 -0.06810865 0.10722273 -0.061492585 0.15564117
-0.01903514 0.039600804 -0.048198655 -0.10192891 -0.04862535 -0.06358504 0.04041701 -0.12107657
-0.08390883 -0.08845213 -0.07696174 -0.098055474 -0.08573305 -0.08447674 0.009093663 -0.10624772
-0.07339945 -0.08482487 -0.08883682 0.05183674 -0.055092186 0.056365024 0.015857447 -0.023112193
-0.11364913 -0.03660815 -0.0014709542 -0.09826635 0.07683285 -0.07268215 -0.08025545 -0.026240641
-0.07205669 0.053169176 0.13624924 0.11983871 -0.10770086 -0.046968546 0.08055692 0.16811259
0.2354001 -0.037305687 0.022120671 -0.056051202 -0.032384902 0.032881066 -0.07615553 -0.057142
-0.16889875 0.045025386 -0.13360026 0.0060141194 -0.1662214 -0.08568168 -0.13232233 -0.08712294
0.15041444 0.007858738 -0.16919357 0.25683454 -0.08134513 0.049426652 0.02696648 0.10307759
-0.05411966 0.0038213676 -0.039911505 -0.087285206 -0.0948841 -0.086610235 -0.029176978 -0.10165089
-0.10930111 0.10611332 -0.081648774 -0.05626904 -0.14494379 -0.017711801 0.021097634 -0.040560916
-0.039387837 0.04527033 -0.1155079 -0.0053237462 -0.0073853196 -0.031591143 -0.006765281 0.16461796
-0.12006865 0.05011339 -0.13708255 -0.06155944 0.12484398 0.025749564 0.017812647 0.19330922

classifier.weight f4 [16, 256]
00000000: 4f39 c4bc 1e35 173d 88ea ccbd 077a 1abe
00000010: 0a00 1ebe 757d edbc dcfe f4bd 3e81 edbd
00000020: f5d9 04be c2ea 243c 54e7 49bd d42b 04bd
00000030: 7985 7bbd 1955 a0bd d74a cfbd ace4 f0bd
00000040: df93 bcbd db37 9bb8 e053 c7bd 4f0a a7bd
00000050: 2afc d8bd ca41 5cbe 9156 c0bb 1e0b 06be
00000060: 6f02 9b3b aa7b b5bd 3b03 babd 720d 06be
00000070: 763b 91bd f0bc 303a 752f c8bd de3b 3dbd
00000080: 84fc 6dbd 6cae 24bc afd7 71bd 77c8 a9bd
00000090: 81da d8bd 89cc e3bc 46b6 83bd 5ab6 30bd
000000a0: 1219 92bd 9dd8 31bd a681 88bd 2099 95bd
000000b0: 8aed 52bd 5aad 2abe b2c6 acbd aa7a e63a
000000c0: 006a debd 0a27 24be cfeb afbc 2a60 1cbe
000000d0: 985b e5bd 51fe adbd 54fe 89bd 4e41 55bd
000000e0: 32ef 15be f23d 2cbe 170b babd 1bab 49bd
000000f0: 3ce2 8bbd 3229 033c 7210 e1bd bbfc cbbc
00000100: 33be d9bd c6e7 66bd 6e69 b0bd 8821 49bd
00000110: 758f 92bd 4d7f c0bd cf68 45be 3b59 e8bd
00000120: 02d5 e1bd b99f 70bd 41ef b3bd 2402 2bbe
00000130: c57e 8abd 547e 40be b62b c1bd c31e 97bd
00000140: b25a 483d 5b47 c6bd d023 2dbd 969b 96bc
00000150: 0582 02be 45b1 01be 41e8 10be 17dd edbc
00000160: d376 96bd f8f1 6fbd 08e2 aabd 9431 b2bd
00000170: d17c 0abe c174 5bbd 1ca1 20be 6eb1 f0bd
00000180: ea50 ebbd 782c 5a3b c943 68bb a755 2fbc
00000190: dc91 07be 6268 45be 4e0f 07bb 68a1 3cbd
000001a0: 6b97 11be 46b8 acbd d7ab e6bc 5923 bebd
000001b0: 6aaf 7dbd cc8a 51bd 04cc 0c3a ec34 d9bd
000001c0: 0b1b 8cbc 318e 0cbe 3340 12be 8239 75bd
000001d0: bc79 e43c 453c 2dbe 9c0a 0bbe 70db d8bc
000001e0: f932 07bc 8879 59bd 100c ecbc 7d29 25be
000001f0: e09b 31be 45a4 6ebc 8650 29bd 9872 34be
00000200: c95c bcbd d36f 4ebd 22e6 1fbd 08a1 8bbd
00000210: 125a d3bd 19c6 5abd 1754 d6bd b908 69bd
00000220: 900a 12bd b425 1dbe d608 3fbc eb0a 1cbd
00000230: 678d a7bd 7781 aebd a2a1 cbbd 40be c9bd
00000240: 8d1a 17be 9185 53bd 20a2 adbd 13fe c0bd
00000250: 08a9 e0bd 02f1 24bd 5328 2cbc d6e5 243d
00000260: fdd8 a9bd aff1 e1bd b831 4d3d 3348 bcbd
00000270: cd77 d2bc 04e4 1bbe 9218 1ebd ec14 2ebe
00000280: 0def ddbd e5d0 f5bd e84e 53bd 98cf 8cbc
00000290: 66a6 2bbc a4be 03bd 6910 1dbe 9db4 a0bd
000002a0: f673 8dbd 5bef d5bd 4848 b6bd 8594 90bd
000002b0: edf5 dcbd b86c 06be 598e 14be 7ca6 0dbd
000002c0: 4a57 31bd 73ab 89bd 5589 8dbd ac66 35be
000002d0: 3f9d edbd 4476 45be c652 15be 98ed fabc
000002e0: b5fa b8bd 1e89 96bd 27e0 acbd e265 c3bd
000002f0: 27b5 adbd 532c dcbc ad7b d5bd f521 ccbd
00000300: ea2a 75bd 79b6 dcbd b7e8 52be 417d 23be
00000310: d348 df3a 7b0e 7dbd e16c a0bd b8ce 5dbe
00000320: dd2f 3dbe 27a2 00be 4015 debd 3254 20be
00000330: 1585 24bd d6e2 243d 77bd 08be 86ee e0bd
00000340: 35b5 f2bc 35f8 2ebe 6578 9ebd e22e 33bd
00000350: a5b8 f5bd 270c c6bd 679a 97bc 019c 3dbd
00000360: 9b23 bdbd 2594 49be 0177 c0bd e882 cdbd
00000370: 52b7 0abc a2b7 27be ff39 61bd e0ad 3cbe
00000380: a890 713c c584 97bd a77e bbbd 08ad d5bc
00000390: 4024 79bd c37d 0d3d 50b5 c7bd 09a1 afbd
000003a0: dfa3 e1bc 5f20 48be 92ec cbbd 8e38 f6bd
000003b0: a9c7 673d 4d8b 59bd 732c 9ebd 6a3a 1bbd
000003c0: 9a0d 40bd 749c 98bd bf91 87bd 38d7 1ebe
000003d0: 45c2 e2bc 93b4 96bd 8837 c7bb 6c40 0fbe
000003e0: 32c7 bcbd 485d 29be c27c eebd 949d 7bbd
000003f0: 70fb 38be d8c2 f1bd a07d 24be f1a3 15be
-0.023953108 0.03691589 -0.10005671 -0.15085612 -0.15429702 -0.028990487 -0.11962673 -0.115969166
-0.12973769 0.010065736 -0.049292877 -0.03226836 -0.061406586 -0.07828731 -0.101216964 -0.11762366
-0.09207892 -7.40138e-05 -0.09732795 -0.08156263 -0.105949715 -0.21509472 -0.0058696945 -0.13090178
0.0047305147 -0.08861478 -0.090826474 -0.13091066 -0.070914194 0.0006742021 -0.09774677 -0.046199672
-0.058102146 -0.010051351 -0.059043583 -0.08290189 -0.10588551 -0.02780749 -0.0643125 -0.043142654
-0.07133688 -0.04341947 -0.066653535 -0.07304597 -0.051496066 -0.16667691 -0.084363356 0.0017584164
-0.10860062 -0.16030517 -0.021474747 -0.15271059 -0.11199111 -0.08495773 -0.06737962 -0.052064233
-0.14642027 -0.16820505 -0.090841465 -0.049235445 -0.0683026 0.008005427 -0.10989465 -0.024900785
-0.10631981 -0.05637338 -0.08613859 -0.049104244 -0.071562685 -0.09399281 -0.19278263 -0.11345144
-0.11026956 -0.058746073 -0.087858684 -0.16700035 -0.067624606 -0.1879819 -0.09432165 -0.07378914
0.04891462 -0.09681579 -0.04227048 -0.018384736 -0.12744911 -0.12665279 -0.14151098 -0.029036088
-0.07346883 -0.05858037 -0.08343893 -0.087008625 -0.13524176 -0.053578142 -0.15686458 -0.11752592
-0.114900425 0.0033290666 -0.0035440794 -0.010701573 -0.13239235 -0.192781 -0.0020608488 -0.046052366
-0.14217918 -0.08433585 -0.028158111 -0.09284086 -0.061934866 -0.051157758 0.0005370977 -0.10605797
-0.017102739 -0.13726117 -0.14282303 -0.059869297 0.027890079 -0.16917522 -0.13578266 -0.026471823
-0.008251899 -0.053094417 -0.028814346 -0.16129108 -0.17344618 -0.014565532 -0.04133656 -0.17621839
-0.09197385 -0.050399613 -0.03903783 -0.06817824 -0.10319914 -0.053411577 -0.104652576 -0.056893084
-0.035654604 -0.15346414 -0.0116598215 -0.03809635 -0.08181267 -0.08520787 -0.099429384 -0.098507404
-0.14756222 -0.05164105 -0.084781885 -0.09423461 -0.1096974 -0.040268905 -0.010507661 0.04025825
-0.0829334 -0.110324256 0.050096244 -0.091934584 -0.025691891 -0.152237 -0.03859765 -0.17000169
-0.10836611 -0.12002734 -0.051588923 -0.017188832 -0.010476684 -0.03216423 -0.15338291 -0.07846949
-0.069068834 -0.10446044 -0.08900505 -0.07059578 -0.10789094 -0.1312741 -0.14507426 -0.0345826
-0.043296136 -0.067221545 -0.0691096 -0.17714947 -0.11602258 -0.19283396 -0.14582357 -0.030630872
-0.090321936 -0.07350372 -0.08441191 -0.09540917 -0.08481818 -0.026876604 -0.1042398 -0.09967414
-0.05985538 -0.107769914 -0.20596586 -0.1596575 0.0017035253 -0.061781388 -0.07833267 -0.21660888
-0.1847529 -0.12561856 -0.10843897 -0.15657118 -0.04016598 0.04025539 -0.13353525 -0.10982995
-0.029627422 -0.17086871 -0.07737807 -0.043745883 -0.11998109 -0.096702866 -0.018506242 -0.046291355
-0.09235307 -0.19685419 -0.09397698 -0.10034734 -0.0084665585 -0.16378644 -0.05498695 -0.18425703
0.014743961 -0.07398371 -0.091550164 -0.026083484 -0.060825586 0.034543764 -0.097513795 -0.08575637
-0.02754396 -0.19543599 -0.099572316 -0.12022506 0.056586895 -0.053111363 -0.07723322 -0.037897505
-0.04688797 -0.07451716 -0.06619596 -0.15511787 -0.027680526 -0.073586605 -0.006079618 -0.13989419
-0.09217681 -0.1653949 -0.116448894 -0.061429575 -0.18064666 -0.118047416 -0.16063547 -0.1461332

classifier.bias f4 [16]
00000000: cae9 d8bd 9b60 b0bd 532f b1bd 1449 fbbd
00000010: 8d89 93bd d9b3 f73d ff82 953d b0d5 553d
00000020: 7cf9 c63d 869f c43c 895f cd3c 601b 5f3d
00000030: 783c 27be c750 37be 6957 5cbd 9a36 0abe
-0.10591467 -0.08612176 -0.086516045 -0.12269798 -0.0720397 0.1209485 0.07300376 0.05220574
0.09715554 0.024001848 0.025069969 0.054469466 -0.16331661 -0.17901908 -0.0537943 -0.13497391
