transfer04_16_02_22_10_12_FullyConnected.pth (torch, 550959 bytes, 8 tensors)

fc1.weight f4 [256, 4]
00000000: 986e dc3e 2809 c93c ccdb 483d 1ba5 b6be
00000010: 1b92 de3d 6200 7d3e 583f e43e 6a52 973e
00000020: a385 b6be b2af 74be 86be c03e 6834 18bd
00000030: e4c5 c5be b0be 0f3e b06e cb3e 2c21 3abe
00000040: c07f a33c 5e8d 333e e38d d8be d679 183e
00000050: 371f bebb 36c9 553e d873 02bf 3f4d 393d
00000060: 42fc e93e 742a 58be c817 503e feee 81be
00000070: b13f e6bd e4c0 04bf ccfd 123d 5eeb b13c
00000080: 8ef7 093e c3d4 d03e 118e 173f 3125 8e3e
00000090: 5a40 91be 180c dd3d 50ec e43d c0e7 f3be
000000a0: 2147 e4be fee8 e6be 5afa b8be 98d4 363e
000000b0: 748b 9b3e b4fb d1be cf7e 10bf 25bd e9be
000000c0: a5ce fbbe a5a6 1d3f f280 e23d 7396 b1be
000000d0: 503e 433e 24e3 d13e 53b6 bf3e 9cf9 903d
000000e0: 8045 663d 046f 55bd 4ee5 11bf 41e2 0f3d
000000f0: d100 013f 0a66 38be c41b bfbe 1de2 3a3e
00000100: 437a 43be dee1 a93e 25ef 1d3f 546f 42be
00000110: 8c04 9cbe fb5c 063f 2933 5b3e 5c57 9b3e
00000120: 963c 43be e78e 8cbe 38dc d6be da23 6d3e
00000130: da1b f4bd 38d2 b33e 6152 4e3e 3903 e2be
00000140: b687 98be a28e e43e 9899 db3e 0446 19be
00000150: c8bb c93e f0d4 2abf 4bce 2ebf c8cd 2f3e
00000160: 2eba 02be d63f e43e 365e c53e ef8f 383e
00000170: dc67 94be a0a9 e23d 72fa cf3e 8016 81bc
00000180: 6ab8 843e b040 af3d 2c97 7ebe 0e18 ecbe
00000190: 55f4 843d 497f fc3e 322c 193f 1879 313e
000001a0: fcb4 a7be 70fc d7be 8c45 16be 1243 dbbe
000001b0: 30ab c7be d64e 01bf 1f86 92be cd79 cb3d
000001c0: af0c 3c3e 6e6c 013f 4446 7e3e 1637 fbbe
000001d0: 86f2 dcbe 12e8 a3be b624 27bf 38a8 123e
000001e0: 7d13 003e 7217 95be 1bb2 12bf 7e82 89be
000001f0: 74f2 663e 989a e9be fcd1 4b3e 3eeb a1be
00000200: b998 d93e b5bd fd3e de89 103f 35cf dcbd
00000210: 233e cc3e 4f49 d1be decf 5ebe bbbe 79be
00000220: c0a6 d53c 18ed e0be 0c4d c7be 0874 bfbd
00000230: a8bb fdbd b42c 58be 983d 8fbd 0032 9abc
00000240: d285 b03e 77b8 c9be ba8a e23d 3de2 073f
00000250: 22e0 a63e d739 51be f3a1 bdbd f446 f3be
00000260: 47b7 153d f346 f63e 4812 a7bd cf53 d63d
00000270: c9bb 0cbf 7abb c9be 3055 00be bdd3 fa3d
00000280: 99f7 063f 806f 56bd 7cac f2be eb30 98be
00000290: 4a41 d63d 143a a2be 1648 4fbd c2e1 303c
000002a0: dafd 03be a674 073e 0fca fa3e 8ce4 b03e
000002b0: e8f6 823e d1e0 ee3e d7eb 8e3e 823c 65be
000002c0: 4c98 5ebe 00d1 6b3d 009e c0bb 767d 8bbe
000002d0: 3d86 ca3e 7967 cb3e 8334 e0be d6aa d43e
000002e0: 90e2 82be 2a70 913e c735 113f fc09 1fbd
000002f0: 285f bdbe 80fc 7ebe c49c 333e 30b7 88be
00000300: 82d2 e63d f0c7 0ebf 9591 3abf 96d6 b5be
00000310: dbd6 a03e 045c 233e 1219 c13e 8471 ce3c
00000320: 8cf3 643e 591a 90be ec5c 4bbe 07c4 efbe
00000330: 9ce4 aebe 3fdf 183f ed8a 86be cb90 ff3e
00000340: bedc 8f3e 0c74 48be 7eee a63e 1418 c7be
00000350: 695b 1c3d 3abd 8a3e eeec a2be fbf7 d9be
00000360: cfb1 0abf c32f d83d e7a5 14be b51a 7d3e
00000370: cfd1 48be 811b e7be d6b7 e2be 4a35 6d3e
00000380: 7369 46bd 3e85 a93e bd76 1c3e 7fd3 533d
00000390: bc83 633e 0cd9 2a3e c0d0 dbbc a0d5 fcbe
000003a0: 1e53 ffbe 4435 fbbe 5ed0 983e da05 8e3e
000003b0: be93 00be 6db8 153f 0ab5 623c 8cbd c3bd
000003c0: 18b6 edbe afe6 143f c095 db3e 849a ebbd
000003d0: 2ed6 afbe 60f4 e2bc a01e 273e 80ad db3e
000003e0: 9cd4 46be 7c23 033f 4152 e13e 6eca 8cbe
000003f0: 19c9 283f 474a bfbe 26e5 cabe 78a1 29bd
0.43053126 0.024540499 0.04903774 -0.3567284 0.10867711 0.24707177 0.44579577 0.29555064
-0.35648832 -0.23895147 0.37645358 -0.037159353 -0.3862754 0.14037585 0.39732885 -0.18176717
0.019958377 0.17534396 -0.4229575 0.14890227 -0.005802061 0.20877537 -0.50958014 0.045239683
0.4570027 -0.21109945 0.20321572 -0.2537765 -0.11242617 -0.5185683 0.03588657 0.021718677
0.13473341 0.40787324 0.5920115 0.2776275 -0.2836941 0.10793322 0.111778855 -0.4763775
-0.44585517 -0.45099634 -0.36128503 0.17854536 0.30379832 -0.41012347 -0.56443495 -0.45652118
-0.49181095 0.61582404 0.110597506 -0.34685096 0.19066739 0.40993607 0.3744379 0.07078859
0.056218624 -0.052107826 -0.56990516 0.035127882 0.5039187 -0.18007675 -0.3732587 0.18250318
-0.19089608 0.33180135 0.6169303 -0.18987781 -0.3047222 0.52485627 0.21406235 0.30340087
-0.1906608 -0.27452776 -0.4196489 0.23158208 -0.11919375 0.35121322 0.20148613 -0.44143084
-0.2979104 0.4464007 0.4289062 -0.14968115 0.39401078 -0.66731167 -0.6828353 0.17168343
-0.12766334 0.44579953 0.3854844 0.18023656 -0.28985488 0.1106751 0.40620762 -0.0157578
0.25921947 0.0855726 -0.24862355 -0.46112102 0.06491915 0.4931586 0.5983306 0.1733135
-0.32755268 -0.42184782 -0.14674968 -0.42824608 -0.38997793 -0.5051092 -0.2861795 0.09935341
0.18364213 0.50556076 0.24831492 -0.49065465 -0.4315378 -0.32012993 -0.6529039 0.14321983
0.12507434 -0.2911945 -0.5730302 -0.2685737 0.22553426 -0.45625758 0.19904321 -0.31624788
0.4249933 0.49558797 0.5646037 -0.10781709 0.39891157 -0.40876243 -0.21758983 -0.24389164
0.02608049 -0.43930888 -0.3892597 -0.09348303 -0.12389308 -0.21110803 -0.0699417 -0.01882267
0.34477097 -0.39398548 0.11061616 0.5307959 0.32592875 -0.2043222 -0.09259405 -0.4751507
0.03655174 0.48101005 -0.08157784 0.10465204 -0.5497404 -0.39400846 -0.12532496 0.12247417
0.52721554 -0.05235243 -0.4739722 -0.2972482 0.10461672 -0.31684935 -0.050605856 0.010796012
-0.12889805 0.13228092 0.48982283 0.34549367 0.25579 0.46655896 0.27914307 -0.22386363
-0.21737784 0.057572365 -0.00587821 -0.27244157 0.3955554 0.3972738 -0.43790063 0.41536587
-0.25563478 0.28405887 0.5672268 -0.03882788 -0.3698666 -0.24901009 0.1754027 -0.2670226
0.1127062 -0.5577383 -0.7287839 -0.3551528 0.31413922 0.1595307 0.3771444 0.025200613
0.22358531 -0.28145102 -0.19859666 -0.46829244 -0.3415879 0.59715647 -0.26277867 0.49915156
0.280981 -0.19575518 0.3260383 -0.38885558 0.038173113 0.27097493 -0.31821388 -0.42572007
-0.54177564 0.10555985 -0.14516412 0.24717219 -0.19611286 -0.4513817 -0.4428088 0.2316486
-0.048440408 0.33109468 0.1527967 0.05171537 0.22218221 0.1668436 -0.026832938 -0.49381733
-0.498681 -0.49064076 0.29846472 0.2773884 -0.12556359 0.58484536 0.013837108 -0.095576376
-0.4642799 0.58164495 0.42887688 -0.11504081 -0.34343094 -0.027704418 0.16320276 0.42905807
-0.19417042 0.5122602 0.44008067 -0.27498192 0.6593185 -0.37361357 -0.3962795 -0.041413754

fc1.bias f4 [256]
00000000: 9fc4 5e3d 6f53 3bbe fc91 553e 94a7 8ebe
00000010: 100d 92be b7ca 35be 7405 e8be 621f 7a3e
00000020: a6c6 e5bb 7829 343e ad68 ba3e a78b b5bc
00000030: 390d c53e 7f59 b33d 7e88 1c3e 7121 03be
00000040: b092 c63e 66bf 833e 7c9d 933e 5d23 07be
00000050: 4c57 97be 2c2c a0be 1d21 84be de8b 8abe
00000060: a2cc 96be 9a51 a9be 102e 42bd 15d6 de3e
00000070: cbb8 373e 2b53 b13e 6654 473e 3e28 c9be
00000080: f544 c93d a0c3 b23e 804d ffbe d43e adbe
00000090: 4bdc 90be e421 d83e 5ad3 e53d 210b 303e
000000a0: a4df 153e f6be 523e b258 30bd bf2b 89be
000000b0: 004f c9bd ddee ecbe 2cad a73e 009a 863a
000000c0: c79e e93d ed31 57bd 9d6e bc3e 140f 54be
000000d0: 9c9b 40be 084f 453b cf48 203e bbad dc3e
000000e0: 9635 e13d 8430 22be f85a 14be 7c24 993d
000000f0: 8490 c73e ba21 8abe d8af 293e c9dc b13d
00000100: 017f 1c3e 20a5 abbd 306c 383d 10a9 7abd
00000110: a60e c13d 303f a7bd 6468 26be bff2 a23e
00000120: 52f3 e0be 90e8 4ebe 5211 b8be fbb8 3d3e
00000130: d3bb 893e 60f1 053e 4b8a 603e 4cfb debe
00000140: 1579 88be 98ef 0a3e f321 8a3e e8bc 5ebe
00000150: e8b7 e6be a4d1 1bbe d1c3 76be 4ff5 c13e
00000160: 5adc 413e d80a 00be c567 06bf 85a3 613d
00000170: b6b0 393d e65d afbe f45c d8be 4641 913e
00000180: 8cf0 a5be 51fe 9fbe a63c ddbe 6a03 e4bd
00000190: 8f47 b23e 5a61 d1be 6028 103d 7b3a 14bf
000001a0: 28f9 bbbe 70be 70be 00bf 74be d0a9 c03c
000001b0: 9ad7 d9bd 0e58 173e dca7 b4be 0992 8a3e
000001c0: 8ea3 8d3e a00d f0bc e2d8 203e 75c2 8e3d
000001d0: b826 06be f44a 57be e6f9 b3be c34d e6be
000001e0: 5dc9 f6be ba68 8e3e a4dd 81be 6f23 85bd
000001f0: 6718 a23e 7043 6dbe 6093 31be 16cb d0be
00000200: 4f45 853e 6152 3ebd 424a f6be 12d8 cb3e
00000210: a913 ec3d 2d80 5f3d 3e3d 0ebe 3843 86be
00000220: aede 71be 71ef dc3d 8354 b6be 80f3 2ebe
00000230: 5907 92be 6064 d53c bf92 22bd b3d8 393e
00000240: 4028 103d 681b 80be b601 acbe e0bc 75be
00000250: b0e6 f2bd 8ab0 a3be d17a 59bd d093 21be
00000260: da83 fbbe 3482 783e c83f 813e 970d a1bd
00000270: 9c0d 3d3e ec78 7abe 49d9 dc3e 4c5c 803e
00000280: cf33 56be ab40 a23e 3ea9 86be c493 693e
00000290: cd75 a93e 41e2 cebc 604c 283e 4c67 0cbe
000002a0: aa72 34bd 6acd b63e 4a70 b7be 1689 02bf
000002b0: 5f97 0d3c 5c71 b23d 97cc 8f3e 7bd3 21be
000002c0: 16c3 e33e ca71 8abd bfd0 2fbe 5b87 82be
000002d0: 4cbd d43d e2d7 3b3e e008 ddbc cadf 7f3e
000002e0: b975 463e acc7 463d b3da 7a3e a507 e63e
000002f0: e055 23be 0000 b2be 9687 e6be ac84 8fbe
00000300: 4b99 69be 675a 14be 5c07 e23d 95cb 533e
00000310: daab ad3e 6d8e 2c3e ee6f c43e 1081 613e
00000320: a335 a53e 5a01 ffbe 58d3 cabe 47bb fabe
00000330: aa27 b2be 2724 2ebe b07a a5be 24b1 26be
00000340: 2b37 afbb 272a cabd 8649 e9be bf19 923e
00000350: bea9 603c ac54 09be dbf9 973d 034f 1fbe
00000360: 6c13 bcbe 9c26 8b3d e0e7 f2bd 9f48 d8be
00000370: 1d99 89be 285b 763e ac48 86be 1edd a9be
00000380: 8269 833e dba3 813e cb90 a33e 30ee 3cbd
00000390: 30c8 d8be a297 3fbe 6ef3 c4be b212 973e
000003a0: d0ab 873b dcd0 3a3b a875 993d ac3e ab3e
000003b0: c927 ba3c fcf8 b9be 47b1 8bbe 12d3 d5bd
000003c0: 2eab dcbe afe8 0f3e e8f6 b8bd 0e1b 573e
000003d0: 029f f8be f868 abbd f2ff 3d3e 32c9 573e
000003e0: 317c 75bd 1873 debe 9613 a13e 0078 c1be
000003f0: 2aac a5be b5b1 77bd 6df2 a33e 40a4 25be
0.05438673 -0.18293546 0.2085647 -0.27862227 -0.2852559 -0.17753111 -0.4531666 0.24426034
-0.007012206 0.17593944 0.36407986 -0.022161318 0.3848665 0.087573044 0.15286443 -0.12805726
0.3878379 0.25731963 0.2883109 -0.13197084 -0.2955879 -0.312837 -0.25806513 -0.27059835
-0.29452997 -0.3307007 -0.04740721 0.43522707 0.17941587 0.34633765 0.19465789 -0.39288515
0.09827606 0.34914875 -0.49863815 -0.33836997 -0.2829307 0.42213356 0.11221953 0.17191745
0.14636093 0.20580658 -0.043053336 -0.26791188 -0.09829521 -0.46275988 0.32749307 0.0010269284
0.114072375 -0.052537847 0.3680314 -0.20708877 -0.1880936 0.003010692 0.15652774 0.43101296
0.10996549 -0.1583882 -0.14487827 0.07477662 0.38977444 -0.26978856 0.16570985 0.086846896
0.15282823 -0.083811045 0.04502505 -0.061196387 0.09426622 -0.08166349 -0.1625076 0.31825826
-0.4393564 -0.20205903 -0.35950714 0.18527596 0.2690111 0.13080359 0.21927755 -0.435511
-0.26654878 0.1356796 0.26979026 -0.2175175 -0.45062184 -0.1521669 -0.24098136 0.37882468
0.18931714 -0.12504137 -0.5250209 0.055087585 0.04533454 -0.34251326 -0.42258418 0.28370112
-0.32410085 -0.31248716 -0.43210334 -0.11133464 0.3482022 -0.40894586 0.035194755 -0.57901734
-0.3671353 -0.23510146 -0.23900986 0.023518473 -0.10636826 0.14779684 -0.35284317 0.2706454
0.27663845 -0.029303372 0.15707734 0.069706835 -0.13100708 -0.21024686 -0.35151595 -0.44981202
-0.48200503 0.27814275 -0.2536441 -0.06500899 0.31659243 -0.23170257 -0.17341375 -0.40779942
0.2602944 -0.04646528 -0.4810353 0.39813286 0.115271874 0.054565597 -0.1389055 -0.2622316
-0.23620102 0.10787857 -0.35611352 -0.17085075 -0.2852123 0.02604884 -0.03969073 0.1814907
0.035194635 -0.2502091 -0.33595055 -0.23997831 -0.118604064 -0.31970626 -0.053095642 -0.15779042
-0.49124032 0.24268419 0.25243974 -0.0786392 0.18462223 -0.2446019 0.43134525 0.25070417
-0.20918201 0.31689963 -0.26300997 0.22810274 0.33097687 -0.02525437 0.16435385 -0.1371128
-0.044054665 0.35703593 -0.35827857 -0.50990427 0.008642047 0.08713028 0.28085777 -0.1580333
0.44484776 -0.06759985 -0.17169474 -0.25493893 0.10387668 0.18344072 -0.026981771 0.24987713
0.19380845 0.048530266 0.2449749 0.44927707 -0.15950727 -0.34765625 -0.4502532 -0.28030908
-0.22812383 -0.14487611 0.1103656 0.20683129 0.33920175 0.16851206 0.38366646 0.2202189
0.32267484 -0.4980572 -0.39614367 -0.48971006 -0.34795886 -0.17005979 -0.32320166 -0.16278511
-0.0053471527 -0.09871321 -0.45563906 0.28535268 0.013712345 -0.13411206 0.07420703 -0.15557484
-0.36733568 0.067944735 -0.11860633 -0.42242905 -0.2687463 0.24058211 -0.2622732 -0.33176512
0.25666434 0.25320324 0.31946406 -0.04612559 -0.4234023 -0.18710187 -0.38466972 0.2950645
0.0041403547 0.0028505838 0.07493144 0.33446252 0.02272405 -0.36322773 -0.2728369 -0.10440649
-0.4309935 0.14053605 -0.09031469 0.21006414 -0.48558813 -0.083696306 0.18554667 0.21072844
-0.05993289 -0.43447185 0.31460255 -0.37786865 -0.32357913 -0.06047221 0.32020894 -0.16175938

fc2.weight f4 [256, 256]
00000000: 992d 413d 168d 803e 838a c13d 3606 6f3d
00000010: c6d0 ec3c 0ce7 383d 3847 28bd e773 a4bd
00000020: 81f8 853e 1090 a8bb 29a8 d4bd d3ff 2abe
00000030: 3724 3b3e de54 093e 136f b7bd f9a1 233c
00000040: be75 263e dc4a 1e3e 91f8 513d 0da5 f53c
00000050: 6677 3b3d fd92 39be d66b 4abe 5408 053d
00000060: 86c7 45bd f193 623d 58d8 19bd b019 2fbe
00000070: 3208 3f3e 0d18 5dbe 1c4a 01be 203b bbbc
00000080: 249a 3e3e e35d c0bd 8c91 84bc c642 773d
00000090: 28de 8fbc 48b9 cd3c e308 f53d 1209 5dbd
000000a0: 4d80 42bd 2cde d73c 97ac 473e eb1e 4a3d
000000b0: c022 09bd 7e9a 0f3e 800d 823e 08eb 1cbd
000000c0: 690a d3be 4ea2 383e 7888 09be 509f 93bc
000000d0: 588a af3c c82c 9b3c 2109 7fbd ff7d debd
000000e0: 0c57 fc3d b464 0bbd 5845 c13c aea8 153e
000000f0: 40d5 8c3e 606b edbb 6f26 323e e620 2fbd
00000100: a868 87bd a3b4 79bd b6f9 5e3d 587c f3bc
00000110: 786d 8a3d 122e 76bd c8fa 8c3c 3f43 353e
00000120: 2083 f3bb 02b5 6f3d a0d5 1b3b 501d afbe
00000130: 2b32 92bd 30c0 c03c 9bb0 003e 26f6 613d
00000140: add5 1dbc 6625 1a3e e9be 9ebe c2f2 04be
00000150: ec7a a63c a042 603c 5c12 60be 19b5 503e
00000160: 78d5 bb3d e868 57bc 55d0 dabd 6eb6 0a3e
00000170: c942 99bc e85f 19bc 3732 fcbc 0dba 3a3e
00000180: 0e84 003d 64cb 0cbe 3aec 7fbd e47e 123d
00000190: c37d d5be 1c17 8ebc 701e 27bc 7682 08be
000001a0: 00c6 b13d 00ac 5fbc c0da c5bb 26bf d6be
000001b0: 50aa a0bb 9776 223e f2f6 88bc 235f 173d
000001c0: 0a59 6bbe 8e6f 71bd c68a adbe e511 75be
000001d0: 08d7 4d3c b0b4 5dbd eedb 553d ec36 edbd
000001e0: 7e4a 4a3c d688 4f3d 4231 493d 3dbf 47bd
000001f0: 0fa8 33bc a877 83bc d4bb e1bc 5c78 363d
00000200: afcb 84be 73e0 ea3d 0abd 423d b59b 473e
00000210: 707c 03be 19f5 a1be bd06 1b3e 2f75 1cbe
00000220: fda8 fc3c 3ca7 d73c 1dae 033e 493d 303e
00000230: 8e89 a9be fbd7 d6be ebb9 02bc 7614 a03a
00000240: f815 7cbd a86e 7a3c a00c 7bbc 5447 563d
00000250: b2bd 07bd aca6 f53c 1e15 6a3e 2276 223d
00000260: 5608 763e b497 7bbd a3bf 1a3e 4018 02ba
00000270: b295 923d 5c5e c2bc 2c5a 8c3e 6b43 253e
00000280: 7e3c f63c 8fd6 5ebd 0c09 f93c e64a 17bc
00000290: 9dca 37be 26ae 9a3d b4dd 4b3e 9cef c93c
000002a0: e27f 943d 67ba 13be 9cd4 313d 18f3 4d3c
000002b0: 71eb 4cbe d195 0e3e 557d fe3d 9909 a6bc
000002c0: c12d 4ebd a6bc 5c3d 211f 713e 2789 0e3e
000002d0: d1b6 a43d 46ed b13c 90cb 753c 3d2f bdbe
000002e0: 4082 c7be efd9 323e d996 e3bd d7a7 1f3e
000002f0: 488c 68bd 594c b4bc 2e75 22bd b67e 493d
00000300: c571 89bd 3d40 d23c e35e 003e 07dd 3cbd
00000310: fe09 f63d bb8c 8e3c e65e 4d3e deac 903e
00000320: 0aa0 0abe 2207 1b3d c78e 1bbe b7e7 c13b
00000330: c4a8 103d 37c3 b53c eca6 c7bc 3c6d 4a3d
00000340: aafe b13d 521a a0be a0ae 3f3c 3ea6 063e
00000350: a0ba d5bb 72d5 12bd 7210 70be 3d11 243e
00000360: 4022 e5bc eb47 51be fa9c 43bc c1ac c3bc
00000370: 7b59 3c3e 68ea 11bc ecfa 9dbc b755 9ebd
00000380: cfcd ddbd 1a15 c93d a1bb a2bd a818 393c
00000390: c898 6c3d c0c2 ac3d 2a02 89bd b120 3d3e
000003a0: e91a 0cbe c868 97bb a6d0 6a3d 372d 02bd
000003b0: 0424 1dbd c068 dcba c15e 453e 4f4d 84be
000003c0: 5cf3 adbc eebe 1a3e eabc 513d e7e8 9e3d
000003d0: fab8 463d 789a 6a3c fbb2 c4bc 16bf 88bb
000003e0: 2787 533e 38d2 62bd fa33 173e d022 d13c
000003f0: 6dfb afbe 0c89 17bc ccb8 693d 400e 433d
0.047162626 0.2510764 0.09450247 0.058355533 0.028908145 0.04514222 -0.041083544 -0.08029919
0.26166156 -0.0051441267 -0.103836365 -0.16699152 0.18275534 0.1341128 -0.089567326 0.009987348
0.16255853 0.15458244 0.051262442 0.029985929 0.045768164 -0.18122478 -0.19767699 0.032478645
-0.048285984 0.05531687 -0.037559837 -0.17099643 0.1865547 -0.21591206 -0.12625927 -0.022855341
0.18613487 -0.093929075 -0.016182683 0.060366414 -0.017561987 0.025112763 0.11964586 -0.05396373
-0.04748564 0.026351057 0.19499432 0.049345892 -0.033480406 0.14023778 0.25400925 -0.03831008
-0.4121888 0.18030664 -0.13430965 -0.018020302 0.021428272 0.018942252 -0.062264565 -0.108638756
0.123212904 -0.034031585 0.023592636 0.14615127 0.27506447 -0.007245466 0.17397474 -0.042755984
-0.066117585 -0.060963284 0.05443736 -0.029722378 0.06759161 -0.06010253 0.017209426 0.17701434
-0.007431403 0.058522232 0.0023778453 -0.3420205 -0.07138475 0.023529142 0.1256737 0.055166386
-0.009633464 0.15053329 -0.31005028 -0.1298323 0.020322286 0.01368776 -0.21882004 0.20381583
0.09171575 -0.01314757 -0.106842674 0.13546154 -0.018708603 -0.009361245 -0.030785663 0.18235035
0.031375937 -0.13749462 -0.062481143 0.035765544 -0.4169751 -0.017345004 -0.010200128 -0.13331017
0.08680344 -0.013651848 -0.00603804 -0.4194271 -0.0049031153 0.15865551 -0.016719315 0.036955964
-0.22983184 -0.058944277 -0.33894938 -0.23932607 0.0125634745 -0.054127395 0.052211694 -0.11582741
0.012346862 0.050667606 0.04911924 -0.048766363 -0.010965361 -0.016048267 -0.027555384 0.044548377
-0.25936648 0.114685915 0.047543563 0.19492991 -0.12840438 -0.31632307 0.15139289 -0.15279077
0.030842299 0.02632486 0.12859388 0.17210878 -0.33112758 -0.41961655 -0.007978897 0.0012213129
-0.06154439 0.015285172 -0.015322834 0.052314118 -0.033139892 0.029986702 0.22859618 0.03966344
0.24026617 -0.061423972 0.15112166 -0.000496272 0.07157458 -0.023726635 0.27412546 0.16138999
0.030058142 -0.054403838 0.030399822 -0.009234166 -0.17948385 0.075527474 0.19908792 0.024650387
0.07250954 -0.14426576 0.04341565 0.012570165 -0.20011689 0.13924338 0.12426249 -0.020268248
-0.050336603 0.053890847 0.23547031 0.13919507 0.08042682 0.021719586 0.015002146 -0.36950102
-0.3896656 0.17465948 -0.11112756 0.1559137 -0.056774408 -0.022009062 -0.039662533 0.049193107
-0.06711153 0.025665397 0.12536196 -0.046109226 0.120136246 0.01740109 0.20055732 0.28256887
-0.13537613 0.0378486 -0.15191184 0.005917515 0.035317197 0.022187812 -0.024371587 0.04942058
0.086911514 -0.3127008 0.011699349 0.13149354 -0.0065224916 -0.03584809 -0.23443773 0.16022201
-0.027970433 -0.20437591 -0.011939282 -0.023886086 0.18393509 -0.008905984 -0.019284688 -0.077311926
-0.108302705 0.09818478 -0.079459436 0.011297382 0.05776289 0.08435583 -0.06689866 0.18469502
-0.1368214 -0.004620645 0.05732789 -0.0317814 -0.038364425 -0.0016815886 0.19274427 -0.25840232
-0.021234207 0.15111896 0.051205553 0.07759266 0.04851625 0.014319055 -0.024011126 -0.00417317
0.20657025 -0.05537626 0.14765921 0.025529295 -0.3437151 -0.009248983 0.057061 0.04762101

fc2.bias f4 [256]
00000000: a2bd 083e dced 103d c289 52bd ac0a 5abd
00000010: 0ce7 eabd f00d df3d 99a0 9dbc 5ad6 353e
00000020: a4d5 f4bc f88c 58bc 0683 c4bc 425d 97bb
00000030: 2dae d6bd 24b5 493d cddf d9bd 6311 41bd
00000040: 2a06 dcbc 7749 c6bc c7f0 acbd 76f8 bfbd
00000050: 829f 8bbc e75f 13bd 183c b8bc 49e3 30bc
00000060: 3c57 babd 3ee4 d6bd e393 09bd 3ec8 4c3d
00000070: 2b1c 05be 67c4 1e3b 51cd 633d a0ae 353e
00000080: fca2 533d 480e 3fbd 981b 783a 8f6d bdbc
00000090: c04a dfbb 6e6c 303e fb1a edbc cc0d d7bd
000000a0: 745e b0bd 6ed1 43bd 970b 8bbd 2cae 60bc
000000b0: 1570 173e 6aed bbbc 4e71 44bd 3dc6 793a
000000c0: 8466 df3c e326 cbbc 83a0 6cbd c0e0 f9ba
000000d0: 8320 1fbd bdff 8cbd ceda 0b3e 37a4 a2bd
000000e0: 05a2 bdbd edfb c3bb f936 01bd f20e 4fbd
000000f0: 201e 8bbb 0042 ffbd 7c5e a4bc 5097 b73c
00000100: b94c a83c d3e9 abbc 7c79 3abd 7d0e a7bc
00000110: 0041 82ba 3be4 7fbd 06d5 0c3d 5999 87bd
00000120: 4ce6 09bd 7645 3bbd f91d 94bc 26aa e5bd
00000130: 928b acbb 3103 91bd e7a7 0ebd c757 dbbb
00000140: 7e83 1fbd d859 53bd 18d6 60bd fb27 8ebd
00000150: 6414 94bb 8752 a8bd f8f5 4bbd 1e62 85bd
00000160: 4e1e 0f39 37dd 29bd 4b12 d8bb c31f 8cbd
00000170: efdf 913c fe07 85bd 93d9 4fbd 88a6 363c
00000180: e9b8 41bd 399a 8a3c d0b5 a6bd d0aa a9bc
00000190: e0fa cebd ef61 85bc 1191 413d 80f9 0b3c
000001a0: fc95 99bc 92e1 77bb b0a0 bf3d 8f3c cbbd
000001b0: af6b b1bd aa85 29bd c089 35bd a0af e3bd
000001c0: 722e c3bd 9bed b8bd d539 1ebd bb02 abbc
000001d0: 7906 90bd 0026 b7bb d355 773d 9d04 18bd
000001e0: f825 5fbd 5c56 acbd abb6 57bd e34b 4ebd
000001f0: 243c c33c 2ffe 26bd 8cc0 1bbd d922 65bc
00000200: 3b65 26bd f058 3cbd 8094 f5bc 8976 55bc
00000210: 4839 c8bd a932 57bd 8f11 78bd 129e 3cbb
00000220: 6d61 db3d 4f4f 6cbd d7d9 f7bc 0f2a 8cbd
00000230: 12fe b5bb e991 dabd 763c 7bbc 655d 3bbd
00000240: b1b5 e3bd b16f 98bd 22ca 4bbd 0202 abbd
00000250: abfb a73d 6a3f 13bd 2040 173b 25f5 42bd
00000260: b76f dbbd 4b46 c2bc 268c a4bc 6fd4 6fbc
00000270: 1fb8 563d c5ac e7bd 78d0 01be 9ed5 4dbd
00000280: 9f78 b2bd 804f ba3a 8497 a5bc f61d 06bd
00000290: 88cc a7bc d418 21bd 5078 b9bb b165 aebd
000002a0: 4cdf 60bd 4897 d13d 87a8 663d 5aa5 09bd
000002b0: 8fbf d3bb 964d cdbd 55f1 e5bc 1e8a 06bc
000002c0: 31a6 debd 0af2 9e3c 5142 40bc 03bc 10ba
000002d0: cc36 533d 0078 20bc b139 d4bd f52f f23d
000002e0: 66bc a33d ef9e b4bd 189b 99bd e4b9 3dbc
000002f0: 5c3c 67bd bd9b 06bd 8894 18be ca18 c5bd
00000300: e429 40bd 824b a4ba 1ce0 6fbc ff01 85bd
00000310: 019e 91bd 2438 40bd 4952 1bbd 8ba6 d6bd
00000320: 8ab8 6d3d 6259 6dbd 7367 363c 881d 6bbc
00000330: d441 8fbd b22c dabb 91e6 efbd 8920 0d3e
00000340: dedc 14bd 79d4 cbbd 6349 d7bd 48d3 cabd
00000350: 7cad 9c3c e8d8 3ebd 58c9 c3bd c0ed 4b3e
00000360: 2186 e9bd f41a 37bd 96a4 80bc 560b 8d3d
00000370: ceea 81bd 909f 05bd db66 83bd 5a22 ccbd
00000380: 231c 46bd 2e66 8fbc 6187 69bd f22f c73b
00000390: 5e8b 8abc a6d6 b1bd dc75 ac3d f064 4cbd
000003a0: 60be 19bd a2ff f3bd ea81 4a3c 98bd 3f3e
000003b0: f6a9 91bd 3895 9abd 6819 89bd 64cb eabc
000003c0: a00e 28be 499c 2cbd 7c80 43bd aba4 08bd
000003d0: 71f0 a5bc faee abbd 0cfe a23c 7c05 0fbd
000003e0: d21a c0bd 4e45 a8bd 5faa 00bd aa8a bebd
000003f0: 6761 0c3d fcd2 5c3b c557 be3d 017d f8bc
0.13353589 0.03538309 -0.051400907 -0.053232834 -0.1146985 0.1089133 -0.019241618 0.1775755
-0.029887028 -0.013217203 -0.023988258 -0.0046192715 -0.1048244 0.049245015 -0.1063839 -0.047135722
-0.026858408 -0.024204953 -0.08444362 -0.09373562 -0.017043833 -0.03598013 -0.022489592 -0.0107963765
-0.0909867 -0.104927525 -0.0335883 0.049995653 -0.12999026 0.0024225952 0.055615727 0.17742395
0.051669106 -0.04664448 0.0009464561 -0.02312353 -0.006814331 0.17228863 -0.02894353 -0.105006784
-0.086117655 -0.04780715 -0.0678932 -0.013713401 0.1478885 -0.022940356 -0.04795962 0.0009528136
0.027270563 -0.024798816 -0.057770263 -0.0019064173 -0.038849365 -0.06884716 0.13657686 -0.07941478
-0.092594184 -0.0059809596 -0.031546567 -0.050551362 -0.0042455345 -0.124637604 -0.020064585 0.022411019
0.020544397 -0.02098552 -0.045526013 -0.02039265 -0.0009937584 -0.062473517 0.034382842 -0.066210456
-0.033666894 -0.04572054 -0.018080698 -0.11214094 -0.0052656615 -0.07080687 -0.034828093 -0.0066938135
-0.03894376 -0.051599354 -0.054891676 -0.069412194 -0.0045190323 -0.08218866 -0.04979512 -0.06512855
0.00013648832 -0.041470733 -0.0065939776 -0.068419956 0.017806975 -0.06495665 -0.050744604 0.011148103
-0.047295485 0.016919242 -0.08140147 -0.020711333 -0.10106444 -0.01628205 0.047257487 0.008543372
-0.018748276 -0.003782366 0.093568206 -0.0992366 -0.08663117 -0.041387238 -0.04432082 -0.11117482
-0.09530343 -0.09029695 -0.03862937 -0.020875325 -0.070324846 -0.0055892467 0.060384583 -0.037113775
-0.05447957 -0.08414909 -0.05266444 -0.05036534 0.023832388 -0.040769752 -0.038025424 -0.013985359
-0.040623885 -0.045983255 -0.029978037 -0.013028749 -0.097765505 -0.052538548 -0.06056362 -0.002878074
0.10711942 -0.057692822 -0.030255241 -0.068439595 -0.005553969 -0.106723614 -0.015334239 -0.045743365
-0.11118639 -0.074431784 -0.049753316 -0.08349992 0.08202299 -0.03594915 0.0023078993 -0.04759707
-0.10714667 -0.023715159 -0.02008636 -0.01463805 0.052421685 -0.1131225 -0.12677181 -0.05025255
-0.08714413 0.0014214367 -0.02021385 -0.032743417 -0.02048327 -0.03933032 -0.0056600943 -0.0851549
-0.054900452 0.10233933 0.056313064 -0.033604957 -0.0064620445 -0.10024564 -0.028069178 -0.008211641
-0.10871542 0.019402523 -0.011734561 -0.000552118 0.05156593 -0.009794235 -0.10362566 0.11825553
0.079949185 -0.08819377 -0.07500285 -0.011579964 -0.056454048 -0.032863367 -0.1490041 -0.09623869
-0.04691495 -0.001253471 -0.014640834 -0.06494521 -0.07110215 -0.04692854 -0.03792027 -0.10480984
0.05803732 -0.05794657 0.011133063 -0.0143503025 -0.069949776 -0.00665816 -0.11713899 0.13781942
-0.036343448 -0.09952635 -0.10512044 -0.0990358 0.019125693 -0.046593577 -0.09559888 0.19914913
-0.11402536 -0.04470344 -0.01570348 0.06886928 -0.063436136 -0.032622874 -0.064161025 -0.099674895
-0.048366677 -0.017504778 -0.057013873 0.0060787136 -0.016912159 -0.08683519 0.084209174 -0.04990095
-0.03753507 -0.119139925 0.0123600755 0.18724668 -0.071124956 -0.075479925 -0.06694299 -0.028661437
-0.16411829 -0.042141233 -0.047729954 -0.033360165 -0.020256253 -0.083951905 0.01989653 -0.03491734
-0.093801156 -0.08216344 -0.03141248 -0.09303792 0.034272578 0.0033695092 0.092940845 -0.030333044

fc3.weight f4 [256, 256]
00000000: 9189 2abe 4e08 03bd e081 e23d 1b6f 5f3c
00000010: c583 f7bc 8cae 6e3d 713e 47be 3d18 88be
00000020: e08d 79bd 62c5 693d a4ec 12bc d765 ad3c
00000030: 773e cd3d 1834 c53c eeaf 043d 6c0b 65bd
00000040: af17 4abc 8ebf 0bbd e0ba 13bd 15e8 57bd
00000050: f1bd be3d fca2 763d fc22 8cbc d645 ac3b
00000060: cb8d eabd 628e 08bd 015e cdbc 54b2 633d
00000070: 4740 6a3c 6b1e bebb 697a 62bd 59df 0a3b
00000080: e22e 62bd c699 243d 1ef3 903c c471 c3bd
00000090: a8fe 1a3c 5b99 bbbd b0fa 82bd a6e3 7ebd
000000a0: 0f2c c13d 23d9 8bbc 3f38 3c3d ca23 ccbd
000000b0: 591e ea3c f3ce b9bc 1ee0 09bb d457 f5bd
000000c0: 7c40 b1bc 7798 ec3d 5f25 a5bc 986b 663d
000000d0: 541f 27bd 1e79 0dbd 7615 48bd 347e e13b
000000e0: 0a63 3abd f4ce 8f3b 600b 72bd 5a33 223d
000000f0: f5b8 a33d 06cd 0fbe 2447 5c3d 90a5 253d
00000100: 2068 9abd 72e7 94bd ecf1 d9bc 2c96 4dbe
00000110: bc39 7cbd f6ee 213d 3c83 8cbd 7eb9 2739
00000120: 58b2 c53c d2a3 cdbd dd52 9dbd 22e5 f73d
00000130: 151a 463d 851d c13d 3297 dcbd eef2 a5b8
00000140: 3191 c23c 62d5 75bd 700d 71bd 18c6 333c
00000150: 0580 f03d 220d 9abd 8f28 7d3c 15cc a4bd
00000160: c5b3 8cbd 6e99 633d ff2d 5f3d e0c1 84bd
00000170: 6c2e 263b dc70 f53c 440a 58bd 98df d9bc
00000180: 2846 f03d 5597 bbbb 40d8 19bc 8d96 803d
00000190: e9e0 95bd 6ba5 37bd f08a c83c e0e5 34bd
000001a0: e82f 643c 52f7 03be 820d c33d 8862 f83d
000001b0: ccce 093d 7c23 c83d 1712 873d d910 753d
000001c0: 6001 313b 7265 98bd 9b39 bd3b 4df6 01be
000001d0: 9e00 5c3d e0b4 35bb 52ae b6bd 3c56 40bd
000001e0: 1847 6dbd bef9 313d 487c d63c 4c46 cd3d
000001f0: 001e 0a3d 112f 053c ab2b df3c 0f16 0c3d
00000200: fc84 4d3d b9f7 bc3c fd65 bdbb 2eac f13d
00000210: ca71 bebd bc0a 343c 024c d33d 0610 873d
00000220: d724 b5bd 1d0f b43c a9ed 293c 4c7f 63bd
00000230: 5cce f33c 902e 14bd 243f c63d 2fbc b3bc
00000240: d4ff b7bd a57d debd a2c6 2fbd 2632 01bc
00000250: 5f0a 5ebe 20a7 423d 666b 7b3c dac6 ad3d
00000260: 4a3d dd3d 6c62 a93d d248 07be 97e5 9f3d
00000270: 573e 7abd f841 163d 3f68 fc3c aa06 35bd
00000280: d62e f83b 2cad c03c 409e a13a 0d4d bc3d
00000290: 82d2 2b3d 6dc1 d5bb a0fa ddbc 260a bbbd
000002a0: b2af 5b3d 932e 863b b4c7 f5bd 0061 94bb
000002b0: 406d 643d 92dc aebd bafe b83d 04e2 ad3c
000002c0: 4248 6bbd b061 00bd 7958 fdbb 2651 b5bd
000002d0: 9fcb 053d 622f fa3c e16b 6abd 5645 8bbe
000002e0: 06f3 a7bd 805a 31bc 1212 503c 8e83 a33d
000002f0: 7846 c7bc 8202 cebd 5082 a63d 2873 27bc
00000300: 65a6 0d3c c7a3 ddbc f8d1 81bd f0c0 9a3d
00000310: ccbd b83c 12e2 d83d 2f1e f1bb 0ba4 aebd
00000320: 86e0 51bd 707f 63bd f441 debc 1c2f 5c3d
00000330: a6d4 593d 5b2f 5d3b 4ad8 2c3d d76e cabd
00000340: 26b6 333d fd33 363c 8f8a acbd 65f5 a23b
00000350: b290 30bd 8e89 b2bd 085f ca3c 07d1 95bd
00000360: 7494 803c 00db 2a3c 9a2f 20bd 8b4e 5bbd
00000370: ac46 83bc b326 e53d 5ef1 14bd 5cc0 483d
00000380: f2c8 97bd 766e c23d c488 bc3d f50e 62bd
00000390: 6505 d93d 6e36 58bd c3d3 3abe d91c 803d
000003a0: 82ec 78bd 15c9 853c a985 e5bc 6400 8bbe
000003b0: f063 923c 5456 353d d777 693d c4a2 12bd
000003c0: 5044 c53c cfa3 acbd d486 bebd 689e 73b9
000003d0: 99b6 8fbd 4939 80bc 6a32 03bd 39e5 183d
000003e0: 0042 bbbd e57e 5e3c 80f7 4d3d 0054 d0bb
000003f0: 30a2 4ebc b310 28bb 6745 c33c 174f 5d3d
-0.1665404 -0.03199034 0.11059928 0.013637329 -0.0302142 0.05827193 -0.19457413 -0.26580992
-0.06092632 0.057073005 -0.008967552 0.021166725 0.1002168 0.024072692 0.032394342 -0.055919096
-0.012334748 -0.034118228 -0.03606689 -0.052711565 0.09313572 0.060214028 -0.017106526 0.0052573485
-0.11452826 -0.03333891 -0.025069239 0.05558999 0.0142975515 -0.005801966 -0.05529252 0.0021190254
-0.055220492 0.040185712 0.017694052 -0.095431834 0.009460129 -0.091601096 -0.06395471 -0.06222882
0.09432232 -0.017071312 0.045952078 -0.09967764 0.028578924 -0.022681689 -0.0021038125 -0.119796425
-0.021637194 0.11552518 -0.020159421 0.056254953 -0.04080136 -0.034539334 -0.04884859 0.0068814997
-0.045504607 0.0043886844 -0.05909288 0.039599754 0.07994262 -0.14043054 0.053778782 0.040441096
-0.075393915 -0.07270707 -0.026604615 -0.20076817 -0.061578497 0.03953453 -0.068609685 0.00015995462
0.024132892 -0.10041012 -0.076818205 0.121042505 0.048364718 0.094294585 -0.10771026 -7.913062e-05
0.023750873 -0.06001795 -0.058850706 0.010972522 0.11743168 -0.07522036 0.015451564 -0.08046738
-0.06870226 0.055566244 0.054487225 -0.06482291 0.002535726 0.029961042 -0.052744165 -0.026595876
0.11732131 -0.0057248273 -0.009389937 0.06278715 -0.07318289 -0.04483549 0.024480313 -0.04416454
0.013927437 -0.12887314 0.09524061 0.12128168 0.033644482 0.09772393 0.06595247 0.05983052
0.0027008876 -0.07441224 0.0057746894 -0.12691613 0.053711526 -0.0027726218 -0.08919968 -0.04695724
-0.05792913 0.043451063 0.026182309 0.10023174 0.033720016 0.008128897 0.027242502 0.034200724
0.050175652 0.023067342 -0.00577998 0.11800419 -0.09299047 0.010988887 0.10317232 0.06594853
-0.08844917 0.021979863 0.010371604 -0.05554132 0.029761486 -0.036177218 0.09680012 -0.021940319
-0.08984342 -0.108638085 -0.04291404 -0.0078854915 -0.21683644 0.047522664 0.01534543 0.084851936
0.108027056 0.082707256 -0.13211372 0.07807463 -0.06109461 0.036684006 0.030811427 -0.04419581
0.0075739427 0.023520075 0.0012330487 0.09194384 0.041948803 -0.0065233023 -0.027097046 -0.09132795
0.053634353 0.0040949075 -0.12000981 -0.004528165 0.05576825 -0.08538164 0.0903296 0.021225937
-0.057441957 -0.031343162 -0.007731494 -0.088533685 0.03266489 0.030540172 -0.057231788 -0.27201337
-0.0820065 -0.0108248 0.012699621 0.079840764 -0.024325594 -0.10059072 0.08130324 -0.0102203265
0.008645629 -0.027055634 -0.063388765 0.07556331 0.02255144 0.105899945 -0.0073583345 -0.085273825
-0.051239513 -0.055541456 -0.027131058 0.053755865 0.053181313 0.003375015 0.042198457 -0.09884422
0.043874882 0.011120793 -0.084248655 0.004973101 -0.043106742 -0.08717643 0.024703518 -0.073152594
0.015695788 0.01042819 -0.039107896 -0.0535417 -0.01602491 0.11189022 -0.036363 0.049011573
-0.07411374 0.09493725 0.092057735 -0.055190045 0.10596732 -0.052786283 -0.18244843 0.06255502
-0.060772426 0.016331235 -0.028017836 -0.27148736 0.01786992 0.044271782 0.056999054 -0.035799757
0.024080426 -0.084296815 -0.0930306 -0.00023233297 -0.070172496 -0.015652316 -0.0320305 0.03732798
-0.09143448 0.013580059 0.050284863 -0.00635767 -0.012611911 -0.002564472 0.023836805 0.054030504

fc3.bias f4 [256]
00000000: d699 5dbd 940b 5dbc 13b0 963e 8ee6 aabd
00000010: 9217 c23c 94a1 b13c 08f2 c13d 4a7c 35bc
00000020: f675 b2bd 144b 523e ed0a 48bd a029 76bd
00000030: 04bd 173d 069d 093c 0f58 a0bd c0e0 2b3e
00000040: 2222 62bc c960 50bb a8c7 2cbd 1983 22bd
00000050: 2e7c 773a f8ad 1cbd e367 5bbd d7fe 42bd
00000060: 9e43 6dbd 8e64 c03d c63f c8bd 5942 263e
00000070: 5153 afbd d6af 8abd 89f6 8dbb 2482 5d3d
00000080: 27b0 8f3c d016 68bc 80fd 99bd 79ed 0bbb
00000090: e4a6 b8ba ec48 5cbc eada f3bd f5df 09bd
000000a0: 4fbd babd afb7 1abd e53e 9d3d 12d9 a6bc
000000b0: 5750 cdbd c5ab 6a3e f036 31bd c850 8bbd
000000c0: 5eaf 02bd 178c 50bc 51c0 b3bd d084 10bd
000000d0: f66b 3dbd 9e7c 33bd 3b22 d1bd 56e3 08be
000000e0: 5dbb 1abd d0a6 77bc 5875 6abd 17ab b9bd
000000f0: 3e44 693d c9c9 e6bd 7d8d 85bd e78d 9fbd
00000100: 7aa4 f4bd f54f a6bd f5bb 24bd fddb 993d
00000110: 76b7 0fbd 7fb3 21be c7fa 30bd b18f 453d
00000120: f680 8ebd bf3a 29bd d20f 0d3e 56cd 86bd
00000130: 0bac cebd 7848 08bd 369e 0abd 7bf1 4f3d
00000140: 8439 7abc 4a08 cebd 88b4 053a 72a8 743c
00000150: 2946 91bd fec6 00be b2cd d3bd 9823 04bd
00000160: 8e51 e2bd 8972 713e 2ea6 a9bd ddf9 03bd
00000170: 5576 3cbc 7f53 21bd 620f cfbc 15d8 6fbd
00000180: 6e40 ea3b f98d 363b 499c 9abd d520 62bd
00000190: 144b 41bb 24b1 54bd bd0b 3b3d ee63 b7bd
000001a0: 4b41 1d3e a0bf 88bc 5853 a9bd 17b6 cebd
000001b0: d84b 80bd 3316 153d 7012 d43d f2f0 d6bd
000001c0: e72f 41bd 8e8b c0bb 08b4 e1bd 2a1b b9bd
000001d0: 7b43 bfbc 5741 5d3a f21b 493e 6612 e3bc
000001e0: 1118 81bd 5d17 59bb e49c 113d 0869 713d
000001f0: bc3c 71bc 91b2 9f3c 4f30 b6bd b031 b5bd
00000200: 5b10 d7bd 490c 69bd abf4 afbd fc47 82bd
00000210: dffa cd3c 8d1a 86bd 6dae 203b 6090 163d
00000220: edbd ecbd 2ab9 423d 5651 d1bb c28a 133d
00000230: 3c6b 53bc 8c75 27be 786b b13d 2ebd c0bb
00000240: bcbe 54bd 1293 6abd 31c0 b2bd c043 943b
00000250: 68d5 ca3c 3509 a0bc 8c38 743e 9885 9a3e
00000260: 0760 50bd 6003 b8bb 590e 283c 952f eb3d
00000270: 3366 95bd bdfc 053e 98d7 fbbd d58b b7bd
00000280: 7ca5 8d3d 503f bb3d e8fd a0bd c0a6 42bc
00000290: 0fe0 eb3d a212 ceba 88c9 de3c 4c84 bebc
000002a0: 2891 22be 7b40 b43d dc77 c4bd 7f03 56bd
000002b0: 6676 19bd b3a7 ab3d 4781 46be 8f85 9ebd
000002c0: 3742 82bd 2b92 7cbd b9c6 1cbc 2aaa 91bd
000002d0: 9087 f8bc 2b5c f6bd be0c b03a 2729 23bc
000002e0: d9c5 27be 81d2 babd a72f c53d 91cb b1bd
000002f0: 958c dbbd 9dcb 853e 65fe 613c 7bbb b0bd
00000300: bd4d 8e3e 978c c7bd 0d4e 20be 2051 4abd
00000310: 576e dbbd 02ef 93bd 96ca 03be 6843 07bc
00000320: e015 553d a166 27bd 4633 4ebe 7cd2 893e
00000330: 7c77 edbc 378a 50bd 46f5 6e3d 7cae c9bd
00000340: 1dd1 a43d 57c9 16bd 9153 333d 1fb4 bebd
00000350: 91d5 abbd c3cd 9b3d 026c 353d 350b a5bc
00000360: 86ca 1c3e 12d5 f1bd 3526 d1bd 593a 87bd
00000370: 4db8 1fbd bb4a 5abc f295 e5bc 1ef5 123b
00000380: 7788 18bd 728c 883c 7f13 913e b3e7 37bc
00000390: 7bde 16bc 01af 98bc d09e b4bd 695d 2fbd
000003a0: 0d22 d6bc 41b4 aebb c34d e13d b6cd 3dbd
000003b0: b7a1 afbc 9f47 1abe 335e 06bc 9134 a8bd
000003c0: 6a55 4f3e df28 24be f844 d9bd 6928 27bd
000003d0: d2b5 553e 4b7b 8bbc fe79 16bd d987 bbbb
000003e0: fc88 ecbd 9734 853c 742b bfbd 7e75 efbd
000003f0: 4bd6 1b3a da7b a7bb 0be2 efbc cc4e b2bd
-0.054101788 -0.01349153 0.2943121 -0.08344756 0.02369288 0.021683492 0.09469992 -0.011076996
-0.087139055 0.20536453 -0.048838545 -0.06009829 0.037045494 0.008399254 -0.07829296 0.16784954
-0.013802083 -0.003179597 -0.042182595 -0.039675806 0.00094408065 -0.038251847 -0.05356587 -0.047606315
-0.057925813 0.09394179 -0.09777789 0.16236247 -0.08560813 -0.06771819 -0.004332368 0.05407919
0.01754005 -0.014165595 -0.075190544 -0.0021351262 -0.0014087823 -0.01344512 -0.11906989 -0.033660848
-0.09118139 -0.03777283 0.07678012 -0.020367179 -0.10025089 0.22917087 -0.043265283 -0.06802517
-0.031905524 -0.0127287125 -0.08776916 -0.03528291 -0.046245538 -0.043820016 -0.10211607 -0.13367972
-0.03777634 -0.015115455 -0.057240814 -0.09065836 0.056949846 -0.11268956 -0.065211274 -0.077907376
-0.11945434 -0.08120719 -0.040218312 0.075126626 -0.03508707 -0.15791129 -0.04320791 0.048232738
-0.06958191 -0.04131579 0.13775566 -0.065821335 -0.10091408 -0.033272237 -0.033842288 0.050767403
-0.015272502 -0.10060175 0.00051004486 0.014932739 -0.0709346 -0.1257591 -0.10341968 -0.032260507
-0.110507116 0.23578848 -0.082836494 -0.03222071 -0.011502822 -0.03938627 -0.02527589 -0.05855568
0.007148794 0.0027855618 -0.0754934 -0.055207092 -0.0029494213 -0.051926747 0.04566549 -0.08954607
0.15356939 -0.016692936 -0.0826785 -0.10093325 -0.06264466 0.036398124 0.10355079 -0.104951754
-0.047164824 -0.005876011 -0.11020666 -0.09038384 -0.023347607 0.00084402174 0.19639567 -0.027718734
-0.063034184 -0.0033125498 0.035550013 0.058938056 -0.014723953 0.019494327 -0.08895933 -0.08847368
-0.105011664 -0.05689648 -0.085915886 -0.06361386 0.025144039 -0.06548033 0.0024518028 0.03675878
-0.11559663 0.047539867 -0.00638787 0.036021 -0.012903985 -0.16353434 0.08663076 -0.005881927
-0.05193971 -0.057269163 -0.08728064 0.004524678 0.024759963 -0.01953564 0.23849696 0.3018005
-0.05087283 -0.0056156367 0.010257327 0.11483685 -0.072948836 0.13084693 -0.122969806 -0.08962218
0.06916329 0.09142935 -0.07860929 -0.011880577 0.11517345 -0.0015722106 0.027195707 -0.023256443
-0.15875685 0.08801361 -0.09593174 -0.052249428 -0.03746643 0.083815955 -0.19385253 -0.07740318
-0.06360286 -0.061662834 -0.009568864 -0.07112534 -0.030338079 -0.120292984 0.0013431532 -0.009958542
-0.16384067 -0.09122182 0.096282296 -0.08681405 -0.10720173 0.26131907 0.013793563 -0.08629509
0.27793685 -0.09743612 -0.15654774 -0.049393773 -0.10714405 -0.072233215 -0.12870249 -0.008255817
0.052022815 -0.04086936 -0.20136747 0.269184 -0.028987639 -0.050913062 0.05833938 -0.098477334
0.08047698 -0.036813106 0.043780867 -0.09311699 -0.08390344 0.07607605 0.044292457 -0.020146945
0.15311632 -0.11808218 -0.102123655 -0.06602926 -0.038994122 -0.013323481 -0.028025601 0.0022423933
-0.037239518 0.016668532 0.28335187 -0.011224675 -0.009208317 -0.018638136 -0.088193536 -0.042813692
-0.026139284 -0.0053315465 0.1100116 -0.04633876 -0.021439416 -0.15066384 -0.00820117 -0.08213151
0.20247427 -0.16031216 -0.10608858 -0.040810023 0.2087014 -0.017026564 -0.036737435 -0.0057229814
-0.11549565 0.016260428 -0.0933446 -0.11692332 0.0005944713 -0.0051112 -0.02928259 -0.087064356

classifier.weight f4 [16, 256]
00000000: 491c ffbb 2a94 86bd 0b74 d1be 44c4 0abe
00000010: 48c3 4ebc 7803 36be 9762 8c3d e7b8 4fbd
00000020: 8f29 f93c 1bfa dcbe e8f1 a43c c4da 433b
00000030: 3f2e c33d 3c44 07be 5140 993d 0024 c5be
00000040: 7729 593d 15c2 85bc 104e 44be 5097 fa3a
00000050: 82bf 53bb 802e acba 193f 57bd f7f4 6ebd
00000060: 2d23 263d 3652 553d 4676 e23d e01a bfbd
00000070: b82d bb3c a4d9 cfbd 10d7 b53d 2551 f23c
00000080: ace1 423c e28e 88bd 5865 04bd c10a 57bd
00000090: 7fcc d83c 47c9 203e 391a d7bd 1f27 b0bd
000000a0: 9317 2ebd ec10 00be fce3 443d 1b49 cfbd
000000b0: b382 2abd aea8 46bd 0029 5c3b 0fcc 483e
000000c0: f59b 5c3d 0fc9 f93c eb43 2bbe b56e dbbb
000000d0: 2526 b0bd 634c 683c 43a6 8d3d 3001 373d
000000e0: b2da 293d f3bc bb3c 8b15 f6bd 0f94 64bd
000000f0: aca3 c4bd ef65 19bd eade 483c 5ea3 d8bd
00000100: cc4e 1b3c f4df 55be 5389 173d 0249 15bd
00000110: 3e53 eebc 3ba9 57bd 6a88 5c3d 995c 80be
00000120: 4002 83bd 35d4 41bd 0078 6b3d 5572 973c
00000130: b672 86bc fbb9 53bb f491 c6bc 2bed a43d
00000140: cbd1 c43d 8864 093e dfed 1dbd 22d3 0fbe
00000150: ac2b 1ebe d3a9 a13d d91b 7d3d 1681 d4bd
00000160: 024d 17be 987c e3bd 1ed8 953d 63fd 19bc
00000170: c146 033e 297a 64bc d66d 053d c2a6 84bd
00000180: cbf2 013d c986 943d cc3a 143d 6a41 dabc
00000190: 708b 403d d8d7 4bbd bd6a 973d d193 853d
000001a0: 7573 19be 2a42 cb3d 6917 49bd 66e0 9e3d
000001b0: 0837 963d 1d4e b1bd 1ad9 b0be 4882 99bd
000001c0: 24c1 0c3b dd55 96bd a0a9 e6bc e2a4 a1bd
000001d0: de8f 683d 70c9 2cbe f7c8 53be 7329 a93c
000001e0: 2179 59bd c68b 973d 23ac 0dbe 9732 29bd
000001f0: 044a f8bd d249 c03d cd89 63bd 5f0c 9338
00000200: 2c9e 73bd 0a69 bcbc aaca 8ebd e642 80bd
00000210: 064b a0bd 8a94 363c fced b93d 5c05 06be
00000220: 34fb 3d3d a2bb 1dbe 0e36 0f3e 9d0e 0c3e
00000230: ef38 c2bd a1da 393e bd9b dfbd eeb4 b7bc
00000240: d362 453c 440e bbbb 74e6 4dbd a0d7 b63b
00000250: 48f4 0dbd 96e4 0e3d ca78 ddbe 0fef b1be
00000260: 1087 0cbc f57f e8bb 1004 6b3d fe01 e2be
00000270: 22c1 62be 58d8 913d 6d44 223e 3d93 92bd
00000280: 15a4 b33c d463 d83b 2628 093e 9f9e f23a
00000290: a1e3 90be 36f5 063d d380 6f3c bc6e c23c
000002a0: d8d0 463b ebe5 dabd a062 a33a ebf1 20bb
000002b0: b209 393d 575d 453d a8d9 463d 17e1 6abd
000002c0: c149 bfbc 7d96 6abd a2d9 6fbd ea55 5b3d
000002d0: d8dc 6c3c 67f2 373d 2867 273d 937d 113d
000002e0: f3c7 ecbd dda5 1fbe a20e 09be f2f5 5ebc
000002f0: 9ab7 353d 0dfe c1bd 9ead e2bd 6e55 ff3c
00000300: 54df a9be 3d75 e4bc 1c20 353e 61bd b33d
00000310: bcc6 8c3d 4ffa c7bc e5f3 b5bd 2996 be3c
00000320: 10b1 113d 6514 8e3d ad01 213e 37fa adbe
00000330: ce65 45be 9709 8a3c f545 5c3d eccc bdbb
00000340: 7e2e 34be f5ea 13bb 391e cc3d 381d 9cbd
00000350: 4b8a dd3c 900e b2bd 1844 9dbd d5be 05bc
00000360: 004f 18be 5861 abbb bd6a da3b e7da d33d
00000370: 6452 babc 17ec 2dbe 9eab 563c 29d1 5d3d
00000380: 53f4 9bbd b77a 563c d687 d9be 59c9 9f3c
00000390: e9d3 87bd 1641 a53c 9ef2 0ebc a22f 833d
000003a0: d8de 18bd da0d 3fbe 2838 87be 7095 e33d
000003b0: 2c24 203d 31bd 4c3d f26d 273c 0e04 9b3d
000003c0: 962f 71be 9076 62be 9383 08bd be43 e4bd
000003d0: bb6d 02be 548e 143d 11fb d6bd 4962 1c3e
000003e0: 96d3 8739 843f 4ebd 8f43 863d f309 19bb
000003f0: 4fc1 2dbe ba65 55bc 8312 993d 26c4 9e3a
-0.0077853543 -0.06571229 -0.40908846 -0.13551432 -0.012619801 -0.1777476 0.06854742 -0.050713446
0.030415324 -0.43159565 0.020134881 0.0029885033 0.09530305 -0.13209623 0.074829705 -0.38504028
0.05301806 -0.016327897 -0.19170403 0.0019118581 -0.0032310192 -0.0013136417 -0.05255041 -0.058339085
0.04056089 0.052080356 0.11057715 -0.09331298 0.022848949 -0.101489335 0.088789105 0.029579708
0.011894625 -0.06667878 -0.03232321 -0.05250049 0.026464699 0.15701781 -0.105030484 -0.08601212
-0.04250295 -0.12506455 0.048068985 -0.10121366 -0.04162855 -0.04850071 0.0033593774 0.19609092
0.05385967 0.03049138 -0.16725127 -0.006696547 -0.086010255 0.014178368 0.069164775 0.044678867
0.04146833 0.022917246 -0.12015828 -0.055805262 -0.096015304 -0.037450727 0.012260178 -0.10578035
0.009479236 -0.20886213 0.036996197 -0.03644658 -0.029092427 -0.052651625 0.053841032 -0.25070646
-0.063969135 -0.047321517 0.057487488 0.018487135 -0.01641212 -0.0032306898 -0.024239518 0.08053049
0.09610327 0.13417256 -0.03855693 -0.14045385 -0.15446347 0.078937195 0.061794136 -0.10376184
-0.1477547 -0.11107749 0.07316612 -0.009398791 0.12819959 -0.013945141 0.03257545 -0.06477119
0.031725686 0.07252271 0.036188886 -0.02664252 0.047007978 -0.04976639 0.073934056 0.06522334
-0.1498545 0.09924729 -0.04909459 0.07757644 0.07334715 -0.08657477 -0.34540635 -0.07495552
0.0021477425 -0.07340596 -0.028157055 -0.07892777 0.056777827 -0.16873717 -0.20682131 0.020649647
-0.053094033 0.073997065 -0.13835196 -0.04130801 -0.12123492 0.0938908 -0.05555134 7.0118105e-05
-0.059477016 -0.022999305 -0.06972249 -0.0626276 -0.078268096 0.011143813 0.09078595 -0.13087982
0.046382144 -0.15403607 0.13985464 0.1367745 -0.094835155 0.18149807 -0.109183766 -0.022425141
0.012047487 -0.0057084877 -0.050268605 0.0055799037 -0.034656793 0.034885965 -0.43256217 -0.347527
-0.008577123 -0.007095332 0.05737692 -0.44142145 -0.22143987 0.071213424 0.15846415 -0.0715699
0.021928826 0.0066036973 0.13394222 0.0018510408 -0.28298667 0.032948695 0.014618116 0.023734443
0.0030336883 -0.106883846 0.0012465306 -0.0024558257 0.04517526 0.04818472 0.048547417 -0.05734357
-0.023350598 -0.057272423 -0.05855716 0.05354873 0.01445695 0.044908907 0.04086986 0.035520148
-0.11561575 -0.15590616 -0.13384488 -0.013608443 0.04436455 -0.094722845 -0.11068271 0.031168666
-0.33178198 -0.027887935 0.1768803 0.087763555 0.06873843 -0.024411349 -0.0888441 0.023264961
0.03556925 0.06937484 0.15723296 -0.3397996 -0.19277117 0.016850276 0.053777654 -0.005792251
-0.1759586 -0.0022570465 0.09966702 -0.076227605 0.027043482 -0.08694184 -0.076790035 -0.008163174
-0.14873886 -0.00523011 0.006665556 0.10344487 -0.022744365 -0.16984592 0.01310244 0.05415455
-0.076149605 0.013090781 -0.42486447 0.01950519 -0.066322155 0.020172637 -0.008724837 0.064055696
-0.037321895 -0.18657628 -0.2641003 0.11112487 0.039096996 0.049985114 0.010219084 0.07569133
-0.23553309 -0.2211554 -0.033328604 -0.11145733 -0.12737171 0.036268547 -0.10497106 0.15271868
0.0002590685 -0.050353542 0.065558545 -0.0023351877 -0.16968273 -0.013024742 0.07474234 0.00121129

classifier.bias f4 [16]
00000000: 8a13 06be b139 a1bd a014 7bbc 2c46 003e
00000010: ef8c 6f3b c7b1 8c3c 48f5 833d b024 343d
00000020: 43d3 f13c 5ecc ff3d a2ab 123e a93f 91bb
00000030: ebdf 123d a21f 28bd f9b3 b4bd 53c2 85bc
-0.13093391 -0.07872332 -0.015324742 0.12526768 0.0036552509 0.017174615 0.06443268 0.0439803
0.029519683 0.12490152 0.14323285 -0.0044326377 0.035858076 -0.041045792 -0.088233896 -0.016328013
