transfer18_39_34_22_10_10_FullyConnected.pth (torch, 550959 bytes, 8 tensors)

fc1.weight f4 [256, 4]
-0.38573116 -0.2810384 0.16181064 0.13407522 0.17999575 0.53346956 0.34464803 -0.20062794
0.1529886 0.590456 0.076028824 -0.13570192 -0.42769283 0.4217637 0.6040102 0.37054124
-0.42538846 -0.2664054 0.19585466 -0.114500344 -0.34575322 0.28142762 -0.40115708 0.24090931
-0.0049392385 0.17615324 0.3091436 0.26497206 0.11377187 -0.39689073 -0.3925243 -0.08382944
-0.070519924 -0.2920618 0.16459954 -0.46525145 0.43998125 0.13628528 -0.30026957 0.28258207
-0.0318883 0.6587556 0.59373534 0.28183556 -0.309254 -0.28862995 -0.058368325 -0.12934375
-0.35179812 -0.13279033 0.07369846 -0.24572253 0.17043093 0.011522686 0.43577448 0.011280192
-0.036116607 0.22751641 0.5544705 -0.02188281 0.07509118 0.047940135 -0.47577405 -0.18882453
0.14646026 -0.44197306 0.13022473 -0.1984257 0.052048814 -0.59585613 -0.20090884 0.36825186
0.30574828 -0.21096545 0.038456682 -0.23333816 -0.033712443 -0.13528071 0.40208557 0.30270338
-0.48341978 0.050389603 0.60851943 0.22934747 -0.2120961 0.20230502 0.39211726 -0.41367543
-0.18704806 -0.61129713 -0.43870142 -0.3784775 0.11484359 -0.23259345 -0.34387708 -0.21179119
-0.13003768 0.4400378 -0.18124047 -0.08826755 -0.23026413 -0.24778432 -0.48863155 -0.40641898
0.38767046 -0.21449117 -0.44747615 -0.2101632 -0.3598243 0.19473273 0.22442162 0.24431002
0.12299912 -0.3531008 -0.036770776 0.12993592 -0.4001888 -0.4008186 -0.07209182 0.050937414
-0.19701387 -0.009379946 0.097081184 -0.41429496 0.3598031 -0.21078198 0.007599797 -0.18473308
0.0009753108 0.20903999 -0.09963179 -0.4789886 -0.38068396 -0.036029637 0.07507378 0.32241172
-0.25371522 -0.07215611 -0.6666038 0.24110453 0.10475695 0.20052224 0.21555322 -0.44962174
0.24315222 0.46934596 0.40649182 -0.43248793 0.22365147 0.5925021 0.6643188 0.004791192
-0.49097213 0.23168707 0.52820736 0.48978886 0.18786308 -0.011987823 -0.50550777 0.3174665
-0.17027855 0.17514431 0.20749378 -0.18302947 0.48196054 -0.34017813 0.40380603 0.09800792
-0.30358082 0.48513162 -0.20027423 -0.3781284 0.28456625 -0.71278614 -0.123338714 -0.04534967
0.35377434 0.33021724 0.3741433 0.2992017 -0.38388503 -0.2984019 -0.46988475 0.26557946
0.46771762 0.4967819 0.43664137 0.014531773 -0.19941705 0.5106463 0.13168187 -0.10478141
0.06884694 0.3985057 -0.306006 -0.4482404 0.21481599 0.044289786 0.0665908 -0.5252785
0.22592202 0.31605092 0.17414646 0.17487386 0.093465894 0.4738738 0.50281465 -0.36238438
-0.25169113 -0.6484716 -0.24347869 0.31716803 -0.45417964 -0.30242798 -0.27996725 -0.23350891
0.1662478 -0.45517346 0.24272607 0.13864416 -0.04390931 -0.13635409 -0.21722513 0.056084692
-0.22500291 0.5492142 0.40440446 -0.05760476 0.2758954 0.46446496 0.4915367 0.26457003
0.018741082 -0.31748566 -0.7450775 -0.31749773 0.26322603 -0.07492864 0.40179163 -0.40082633
0.0065219067 0.32640803 -0.26895076 -0.031645637 0.3409837 -0.61384547 0.0037476385 0.12984234
-0.4561239 -0.31835234 0.2193256 -0.44473135 0.19989038 -0.2725395 -0.380602 -0.39541876
00000000: 8e7e c5be 44e4 8fbe b0b1 253e 044b 093e
00000010: ce50 383e 7691 083f b575 b03e 6971 4dbe
00000020: 0ba9 1c3e 2028 173f 00b5 9b3d 72f5 0abe
00000030: 8efa dabe 69f1 d73e 6aa0 1a3f 95b7 bd3e
00000040: 84cc d9be 4a66 88be 208e 483e 287f eabd
00000050: 9106 b1be 4817 903e 7664 cdbe eeb0 763e
00000060: 56d9 a1bb 8461 343e 1248 9e3e 6baa 873e
00000070: 3a01 e93d 4335 cbbe f2f8 c8be c5ae abbd
00000080: c06c 90bd 2089 95be c88c 283e 7035 eebe
00000090: 3945 e13e 5e8e 0b3e efbc 99be 99ae 903e
000000a0: 4e9d 02bd 35a4 283f 0aff 173f c04c 903e
000000b0: 8a56 9ebe 4ec7 93be a013 6fbd b072 04be
000000c0: e21e b4be 30fa 07be 38ef 963d b09e 7bbe
000000d0: 7285 2e3e a6c9 3c3c d51d df3e 8ed0 383c
000000e0: 02ef 13bd 10fa 683e c7f1 0d3f 9443 b3bc
000000f0: 68c9 993d e05c 443d a898 f3be 385b 41be
00000100: aef9 153e 4b4a e2be a259 053e 1b30 4bbe
00000110: 2331 553d 078a 18bf 0cbb 4dbe 828b bc3e
00000120: 0a8b 9c3e 5407 58be c184 1d3d 33f0 6ebe
00000130: 0f16 0abd 0787 0abe 29de cd3e f0fb 9a3e
00000140: cc82 f7be 5465 4e3d eec7 1b3f 10da 6a3e
00000150: b82f 59be 0c29 4f3e 98c3 c83e 44cd d3be
00000160: 8789 3fbe f87d 1cbf 799d e0be cec7 c1be
00000170: 1e33 eb3d fa2c 6ebe a810 b0be cadf 58be
00000180: 9928 05be a24c e13e 1a97 39be 9ec5 b4bd
00000190: 5cca 6bbe 2cbb 7dbe ea2d fabe 2616 d0be
000001a0: be7c c63e 93a3 5bbe 981b e5be 0635 57be
000001b0: e43a b8be 0468 473e c8ce 653e 682c 7a3e
000001c0: f6e6 fb3d a1c9 b4be f49c 16bd ec0d 053e
000001d0: 8ce5 ccbe 1838 cdbe e0a4 93bd c0a3 503d
000001e0: 01be 49be 58ae 19bc 80d2 c63d 781e d4be
000001f0: 1d38 b83e 3bd7 57be b807 f93b ab2a 3dbe
00000200: 00ac 7f3a 940e 563e c00b ccbd fe3d f5be
00000210: 02e9 c2be d093 13bd 48c0 993d 2613 a53e
00000220: f6e6 81be 95c6 93bd 8ca6 2abf 1be4 763e
00000230: d08a d63d b455 4d3e fcb9 5c3e d234 e6be
00000240: e5fc 783e 1d4e f03e b21f d03e 0f6f ddbe
00000250: e404 653e 38ae 173f cc10 2a3f 6eff 9c3b
00000260: b360 fbbe 603f 6d3e 9938 073f 9bc5 fa3e
00000270: 2e5f 403e 9368 44bc f568 01bf f88a a23e
00000280: 805d 2ebe 0859 333e 4079 543e 146c 3bbe
00000290: 88c3 f63e d42b aebe aabf ce3e 60b8 c83d
000002a0: f26e 9bbe 2c63 f83e b014 4dbe 0c9a c1be
000002b0: abb2 913e 2779 36bf 0299 fcbd 93c0 39bd
000002c0: e921 b53e 3c12 a93e b68f bf3e f730 993e
000002d0: 948c c4be 22c8 98be bc94 f0be 08fa 873e
000002e0: af78 ef3e 325a fe3e 758f df3e ac16 6e3c
000002f0: fc33 4cbe b7b9 023f 9dd7 063e a397 d6bd
00000300: a0ff 8c3d f008 cc3e d2ac 9cbe c47f e5be
00000310: b9f8 5b3e 3569 353d c260 883d a778 06bf
00000320: 1a58 673e 6dd1 a13e 7353 323e 2212 333e
00000330: 0c6b bf3d 969f f23e 76b8 003f 728a b9be
00000340: a9dd 80be 3c02 26bf 7a52 79be d963 a23e
00000350: 3c8a e8be d7d7 9abe de57 8fbe f61c 6fbe
00000360: dd3c 2a3e 7f0c e9be 2f8d 783e bcf8 0d3e
00000370: 40da 33bd 68a0 0bbe 4470 5ebe 10b9 653d
00000380: 2a67 66be 4d99 0c3f 1a0e cf3e f8f2 6bbd
00000390: 2942 8d3e 5ace ed3e b3aa fb3e b975 873e
000003a0: e686 993c 7b8d a2be 66bd 3ebf 108f a2be
000003b0: 90c5 863e 3074 99bd a2b7 cd3e 1c39 cdbe
000003c0: b8b5 d53b f41e a73e eab3 89be db9e 01bd
000003d0: 6a95 ae3e fa24 1dbf f19a 753b 64f5 043e
000003e0: 1289 e9be 14ff a2be e496 603e d4b3 e3be
000003f0: 10b0 4c3e 4c8a 8bbe 44de c2be 5474 cabe

fc1.bias f4 [256]
-0.30489314 -0.013881624 0.34358898 0.3720962 0.099131584 -0.033167332 -0.16761985 0.3011041
-0.13581681 -0.32787287 0.25759357 0.028918445 -0.35988492 0.16500074 0.25310522 -0.34064502
0.4018472 -0.33013526 0.09288947 -0.007099932 0.16828269 -0.4490226 0.46752325 0.28819427
0.110018 0.06576103 0.20263784 0.0855386 0.21933211 -0.49552 0.22311722 0.08541827
0.1258508 -0.4574132 0.0794302 -0.1192683 0.50169635 0.2533725 -0.0046578306 -0.12364323
-0.44354314 -0.18717536 -0.45974964 0.13327597 -0.13023324 0.12200128 0.017437482 0.3575048
-0.43972415 0.28942794 0.049886312 0.14731216 0.2872406 0.33919114 0.015655423 -0.458481
-0.014313128 0.044786904 0.3088107 -0.24912876 0.15076955 0.307917 0.037297666 -0.4570526
-0.49737614 -0.2473334 -0.07689421 -0.21376127 0.2268578 -0.03946644 0.13745667 -0.32394612
0.10850168 0.43546426 -0.050620973 0.32747978 -0.35128176 -0.38320583 -0.036487736 -0.110862724
-0.0068844142 -0.31351587 -0.06752936 -0.047558475 0.21521434 -0.1535297 -0.384849 -0.19264951
-0.09678161 0.286846 0.19903468 0.048915423 -0.21907514 -0.3093438 -0.041753113 -0.405164
0.037892208 -0.21465531 0.18296732 0.30175352 -0.3357724 -0.12889165 -0.11621836 -0.27068403
-0.3348778 0.20869267 0.33978397 0.14327078 0.34467426 -0.14388959 0.2933689 0.21802136
0.08892244 0.0840798 0.3124494 -0.10469349 0.12383458 0.17330946 0.39753467 -0.4168607
0.014690319 -0.43738842 0.22693275 -0.39338738 0.2531974 -0.45287868 -0.4489141 0.13942495
0.0273917 0.015000849 0.07696596 -0.024304211 -0.36024022 0.36976993 -0.35041088 -0.20569333
-0.04794832 0.33313978 -0.15172207 -0.40915966 -0.47358936 0.27224004 -0.43888682 -0.13765097
-0.059096675 0.15364031 0.44017464 -0.3339377 0.071459234 0.33709803 -0.41402727 -0.18638465
0.26899832 -0.07090515 -0.27715808 -0.20253539 0.19558589 -0.14479357 0.19853865 -0.04534113
-0.30181307 -0.04741114 -0.14826477 0.26513252 -0.4779591 -0.4215297 0.12942252 0.20168209
-0.29170763 -0.50411713 0.04153456 0.22035219 -0.4307704 0.36904654 -0.39738148 0.09091166
0.11604939 0.182308 0.2869248 0.11223211 0.0320988 -0.14207676 -0.37392345 -0.4152971
-0.26109713 0.020221192 0.2691959 -0.28476945 0.17711626 0.00090761425 -0.25256187 -0.05736561
-0.32570714 0.043552328 -0.18641615 -0.09315608 -0.118612856 0.4452896 -0.14330971 0.34795845
0.48721614 -0.006288383 0.2564695 0.41692576 0.22645067 0.104959585 -0.01548892 -0.49570704
-0.059703946 0.031205153 -0.0713194 0.1459817 -0.2258712 -0.19982958 0.34147325 -0.4249975
0.50873977 0.17748514 0.102395974 0.2898439 0.20695452 0.19432291 -0.36773086 -0.49952
0.19200103 0.06679955 0.08856749 0.067091785 0.2055461 -0.3837949 -0.08525668 0.2348047
-0.47374132 -0.43118924 0.01628527 -0.35691413 -0.3418758 0.11516097 -0.25997508 -0.39169872
-0.07696062 0.08470851 0.22090447 -0.43475002 0.5238865 -0.18964976 0.25653324 -0.061094932
-0.09396873 0.38925385 -0.47822374 0.46291918 -0.47078758 -0.15080571 -0.16365556 -0.026246745
00000000: f41a 9cbe c06f 63bc e5ea af3e 6583 be3e
00000010: 8005 cb3d 78da 07bd 8aa4 2bbe 512a 9a3e
00000020: 9013 0bbe f4de a7be 4ee3 833e 60e6 ec3c
00000030: d642 b8be f4f5 283e 0297 813e 0669 aebe
00000040: ebbe cd3e 7d07 a9be d63c be3d 8ca6 e8bb
00000050: 4c52 2c3e 4ae6 e5be 355f ef3e 338e 933e
00000060: 1e51 e13d b8ad 863d 4b80 4f3e dd2e af3d
00000070: 9998 603e ccb4 fdbe d778 643e c6ef ae3d
00000080: 08df 003e 1032 eabe 4dac a23d f042 f4bd
00000090: 2c6f 003f 0aba 813e b7a0 98bb a938 fdbd
000000a0: 1618 e3be e6aa 3fbe 4e64 ebbe 7f79 083e
000000b0: dd5b 05be cfdb f93d 0dd9 8e3c df0a b73e
000000c0: 8623 e1be e62f 943e 9755 4c3d 00d9 163e
000000d0: 3311 933e 76aa ad3e cd3f 803c 06be eabe
000000e0: 9c81 6abc 7972 373d 701c 9e3e 9c1b 7fbe
000000f0: 5563 1a3e 4ca7 9d3e 70c5 183d cc02 eabe
00000100: 16a8 febe f844 7dbe b67a 9dbd 3ce4 5abe
00000110: 694d 683e 90a7 21bd 71c1 0c3e 44dc a5be
00000120: 2136 de3d 2cf5 de3e f057 4fbd 6eab a73e
00000130: 34db b3be 8e33 c4be 2a74 15bd ff0b e3bd
00000140: a796 e1bb 2785 a0be d54c 8abd adcc 42bd
00000150: 2661 5c3e e436 1dbe ee0a c5be ea45 45be
00000160: 7035 c6bd 7bdd 923e bfcf 4b3e 8a5b 483d
00000170: 3c55 60be 5062 9ebe 5005 2bbd a871 cfbe
00000180: dc34 1b3d 9ace 5bbe c95b 3b3e 707f 9a3e
00000190: 5cea abbe 2cfc 03be e403 eebd 1997 8abe
000001a0: 1a75 abbe 88b3 553e 2af8 ad3e 93b5 123e
000001b0: 2579 b03e cb57 13be 7334 963e fe40 5f3e
000001c0: f81c b63d 0832 ac3d 5ef9 9f3e 8a69 d6bd
000001d0: fc9c fd3d 0978 313e aa89 cb3e c46e d5be
000001e0: aaaf 703c 60f1 dfbe 0f61 683e 126a c9be
000001f0: 17a3 813e b7df e7be 12d8 e5be 6ac5 0e3e
00000200: 8f64 e03c 1fc6 753c 54a0 9d3d a019 c7bc
00000210: 6871 b8be 7c52 bd3e 0e69 b3be 46a1 52be
00000220: 7565 44bd 4c91 aa3e 085d 1bbe 607d d1be
00000230: 4e7a f2be 0c63 8b3e c6b5 e0be 60f4 0cbe
00000240: 5b0f 72bd e353 1d3e 925e e13e e2f9 aabe
00000250: 3859 923d 1d98 ac3e 62fb d3be 9edb 3ebe
00000260: 26ba 893e b836 91bd aae7 8dbe 7065 4fbe
00000270: ab47 483e c444 14be b74d 4b3e 9fb7 39bd
00000280: 3e87 9abe 2f32 42bd b8d2 17be 73bf 873e
00000290: 0eb7 f4be bed2 d7be 5687 043e c085 4e3e
000002a0: b45a 95be d20d 01bf 2520 2a3d 01a4 613e
000002b0: f08d dcbe abf3 bc3e 9675 cbbe e42f ba3d
000002c0: 4dab ed3d f3ae 3a3e cfe7 923e f3d9 e53d
000002d0: 087a 033d 927c 11be e572 bfbe d2a1 d4be
000002e0: 86ae 85be eaa6 a53c 0cd4 893e 4dcd 91be
000002f0: f75d 353e f6ec 6d3a ca4f 81be 34f8 6abd
00000300: 16c3 a6be ed63 323d e0e3 3ebe 9dc8 bebd
00000310: 4ceb f2bd 00fd e33e c8bf 12be 9c27 b23e
00000320: 6574 f93e c80e cebb f84f 833e 4b77 d53e
00000330: afe2 673e 0df5 d63d 3dc5 7dbc 50cd fdbe
00000340: 208c 74bd f3a1 ff3c e80f 92bd 3a7c 153e
00000350: c84a 67be 20a0 4cbe 95d5 ae3e 4699 d9be
00000360: c53c 023f aabe 353e fbb4 d13d 6b66 943e
00000370: e3eb 533e 96fc 463e 3847 bcbe 16c1 ffbe
00000380: eb9b 443e 34ce 883d df62 b53d 6b67 893d
00000390: ad7a 523e c480 c4be 0e9b aebd a570 703e
000003a0: 398e f2be d6c4 dcbe b068 853c 73bd b6be
000003b0: 580a afbe 84d9 eb3d 741b 85be bc8c c8be
000003c0: 889d 9dbd a87b ad3d c834 623e 8e97 debe
000003d0: 6d1d 063f 8c33 42be 5358 833e ae3e 7abd
000003e0: ad72 c0bd 484c c73e bed9 f4be be03 ed3e
000003f0: 120b f1be d06c 1abe 5395 27be 6a03 d7bc

fc2.weight f4 [256, 256]
0.027782694 0.021610467 -0.05289007 -0.0029850327 -0.028384648 0.040601324 0.013921722 -0.12436801
0.030036323 -0.0039987173 0.020528631 0.021984108 -0.044704758 -0.048001144 -0.050590817 0.057202883
-0.009544761 -0.041956462 -0.0074643735 -0.0036023054 -0.06258297 0.03129174 -0.08819718 -0.110840514
0.00024543726 -0.014690667 -0.008133532 -0.008768923 -0.08877445 0.0383749 -0.051681977 -0.0053058625
-0.014905505 -0.05295098 -0.020718552 -0.013375275 -0.0131635675 0.018349266 0.00094664766 -0.04544173
-0.050334714 -0.03730578 0.028723463 -0.055418506 -0.052617073 -0.02210526 0.03366988 -0.030123107
0.023127183 -0.05716474 -0.05830071 -0.071397714 -0.11851287 0.004138067 -0.056383554 0.0031209514
-0.098349564 -0.08362813 -0.18813904 -0.05318895 -0.019697512 -0.09629643 -0.019721538 -0.033132322
-0.03846541 0.023029536 -0.099078916 -0.0729868 -0.0028658584 0.009065673 -0.09422184 -0.01945617
-0.07009098 -0.010358637 -0.041612282 0.041216757 0.037550822 -0.05817704 -0.11021537 0.048961975
0.029072218 -0.08566513 0.035978295 -0.08394572 -0.057931527 -0.09276828 -0.0029963106 -0.030734079
-0.043726444 -0.076459646 -0.109819375 -0.04214744 -0.012405314 0.023328535 0.0481131 0.042331256
-0.06484412 0.013420417 -0.11370262 -0.06639038 -0.112200916 0.018813238 0.029932618 -0.02662234
0.007978149 -0.043483563 -0.025767004 -0.0005539287 -0.057320606 -0.004699654 -0.032040343 0.048640747
0.02060119 -0.05293299 -0.06478073 -0.034113668 0.020519048 -0.068898685 -0.075816095 0.022301681
-0.021990063 0.059580483 -0.0091413725 -0.040074676 -0.10965923 0.08004632 -0.044128515 -0.081466064
-0.10418143 -0.03373075 -0.016490808 -0.018461773 0.012427576 -0.12239865 0.015308477 0.011063744
-0.06863587 -0.043646097 0.016434975 0.030643508 -0.028005287 -0.01965251 0.021001317 0.030454688
-0.0012975351 -0.058922134 -0.050609916 0.05563818 -0.042550623 -0.030169895 -0.06984945 -0.09228378
-0.10602368 -0.011922161 0.036765866 0.048583373 -0.047719717 -0.021001592 -0.062049337 -0.061362416
-0.0001957193 0.027004914 -0.054303728 -0.033661224 0.054352418 -0.09973385 -0.010149204 -0.07837545
-0.017905354 -0.07663521 0.0041164923 -0.06853257 0.05745671 0.036652796 -0.011289477 -0.11173679
-0.058885004 -0.004654004 -0.07513071 -0.012459461 -0.05523765 0.031390082 0.052387986 -0.026127256
-0.047920525 0.032231893 -0.113448806 -0.05424637 -0.034130905 0.021065833 -0.08366267 0.059893113
-0.053032465 -0.08811425 -0.0070330575 0.039355367 0.0068068905 0.036034957 0.02414304 0.009395152
0.025118623 0.04819864 0.025364961 -0.12185339 -0.10208697 -0.11089913 -0.017834693 -0.02762556
-0.024282746 -0.12138477 -0.031130068 -0.078884944 -0.041900277 0.008208231 -0.1037069 -0.04168403
-0.124972045 -0.038837455 0.025439713 -0.08357409 -0.021490006 -0.044459008 0.04190235 -0.011966482
-0.09954663 -0.09035407 -0.085344814 0.07774558 -0.031929273 0.0036722198 -0.052053 -0.030103749
0.02814353 -0.027079575 -0.01682358 0.061036576 0.04842546 0.018394437 -0.00094964355 0.045975827
-0.036079112 0.0072838143 -0.076691285 0.07474572 -0.1101513 0.00582055 -0.030660454 -0.024669796
-0.014675839 0.010924504 0.047034398 -0.12890238 -0.03249456 0.05248701 -0.004569682 -0.03837238
00000000: 8898 e33c 6f08 b13c 42a3 58bd 8aa0 43bb
00000010: ec86 e8bc 934d 263d ef17 643c a8b4 febd
00000020: bc0e f63c ac07 83bb a92b a83c 0418 b43c
00000030: 561c 37bd d99c 44bd 5138 4fbd 924d 6a3d
00000040: a161 1cbc 8ada 2bbd b497 f4bb a814 6cbb
00000050: 802b 80bd c42b 003d b9a0 b4bd 5a00 e3bd
00000060: 08ae 8039 20b1 70bc 8142 05bc 87ab 0fbc
00000070: 61cf b5bd 002f 1d3d 7bb0 53bd cddc adbb
00000080: 3836 74bc 20e3 58bd f4b9 a9bc f823 5bbc
00000090: 01ac 57bc 3351 963c 7328 783a 1c21 3abd
000000a0: c62b 4ebd f2cd 18bd 784d eb3c 84fe 62bd
000000b0: 0085 57bd 1716 b5bc 6ee9 093d bcc4 f6bc
000000c0: 3875 bd3c 9325 6abd bacc 6ebd f738 92bd
000000d0: e0b6 f2bd 9f98 873b 71f2 66bd e088 4c3b
000000e0: 7f6b c9bd 3a45 abbd 85a7 40be a8dc 59bd
000000f0: ad5c a1bc 1037 c5bd 108f a1bc c2b5 07bd
00000100: e88d 1dbd 70a8 bc3c e3e9 cabd 1a7a 95bd
00000110: 20d1 3bbb 3088 143c 61f7 c0bd 8c62 9fbc
00000120: dc8b 8fbd 46b7 29bc a471 2abd e7d2 283d
00000130: e4ce 193d 0c4b 6ebd 99b8 e1bd 5a8c 483d
00000140: dc28 ee3c 3371 afbd fa5d 133d bceb abbd
00000150: 9c49 6dbd 4cfd bdbd c05d 44bb 09c6 fbbc
00000160: 801a 33bd e096 9cbd fbe8 e0bd cba2 2cbd
00000170: a83f 4bbc 7c1b bf3c 3e12 453d 8a63 2d3d
00000180: fecc 84bd 4fe1 5b3c ebdc e8bd aef7 87bd
00000190: 98c9 e5bd 381e 9a3c 4035 f53c 1817 dabc
000001a0: c8b6 023c d21b 32bd 5315 d3bc 8735 11ba
000001b0: 03c9 6abd 8eff 99bb bc3c 03bd 853b 473d
000001c0: d4c3 a83c 43d0 58bd c2ab 84bd c6ba 0bbd
000001d0: 9017 a83c c11a 8dbd 7845 9bbd 04b2 b63c
000001e0: 8124 b4bc aa0a 743d b2c5 15bc 5825 24bd
000001f0: 0595 e0bd 53ef a33d 1ac0 34bd aed7 a6bd
00000200: 135d d5bd 4129 0abd bb17 87bc 253d 97bc
00000210: 089d 4b3c 25ac fabd 68d0 7a3c b544 353c
00000220: f790 8cbd 40c6 32bd a4a2 863c 1808 fb3c
00000230: 586b e5bc 4dfe a0bc f40a ac3c 1c7c f93c
00000240: 0e12 aaba 5658 71bd 584c 4fbd dce4 633d
00000250: 9049 2ebd db26 f7bc 3a0d 8fbd 47ff bcbd
00000260: f122 d9bd 2b55 43bc ce97 163d 5cff 463d
00000270: c075 43bd 880b acbc 7227 7ebd 2857 7bbd
00000280: 003a 4db9 6939 dd3c 966d 5ebd 5ae0 09bd
00000290: a4a0 5e3d 4341 ccbd d948 26bc 4f83 a0bd
000002a0: 40ae 92bc ecf2 9cbd a4e3 863b ce5a 8cbd
000002b0: ba57 6b3d 3e21 163d 80f7 38bc 42d6 e4bd
000002c0: 6731 71bd 9d80 98bb 21de 99bd c422 4cbc
000002d0: e040 62bd e392 003d c994 563d d408 d6bc
000002e0: 5048 44bd 9705 043d d957 e8bd 7131 5ebd
000002f0: d9cc 0bbd 4192 ac3c 5557 abbd 7b52 753d
00000300: 9238 59bd 3e75 b4bd 9075 e6bb 1833 213d
00000310: 560c df3b 6499 133d a0c7 c53c 20ee 193c
00000320: 92c5 cd3c f06b 453d 2eca cf3c 458e f9bd
00000330: f912 d1bd 151f e3bd 101a 92bc 004f e2bc
00000340: 9cec c6bc 9498 f8bd 7c04 ffbc 6e8e a1bd
00000350: a09f 2bbd d17b 063c 4864 d4bd e0bc 2abd
00000360: 58f1 ffbd 0614 1fbd f266 d03c e428 abbd
00000370: cf0b b0bc a61a 36bd cca1 2b3d 100f 44bc
00000380: 1bdf cbbd 8e0b b9bd 43c9 aebd 1339 9f3d
00000390: 45c8 02bd a0a9 703b 8735 55bd 239c f6bc
000003a0: 438d e63c fcd5 ddbc 9bd1 89bc 7d01 7a3d
000003b0: c659 463d eeaf 963c 80f1 78ba 2651 3c3d
000003c0: b1c7 13bd 10ad ee3b 5210 9dbd 4914 993d
000003d0: 0197 e1bd 50ba be3b a22b fbbc 5018 cabc
000003e0: ee72 70bc b1fc 323c 24a7 403d fcfe 03be
000003f0: 0419 05bd 9efc 563d 45bd 95bb 5b2c 1dbd

fc2.bias f4 [256]
-0.03275339 -0.07690905 -0.0969347 0.038842782 -0.07082589 -0.049979888 -0.016492078 0.01189229
-0.10608945 -0.017883489 -0.07250613 -0.04044945 0.12294339 -0.026959494 0.052636497 -0.030522816
-0.0875206 -0.057392616 -0.06841827 -0.10821126 0.005963844 -0.014144083 -0.019829256 -0.007521126
-0.032816812 -0.06711445 -0.051137462 0.021010682 -0.042759478 -0.082948975 -0.03225373 -0.063143805
-0.10172255 -0.061860066 -0.10760173 -0.038708985 -0.069768995 -0.030813241 -0.005620122 0.05489363
0.07730085 0.11929991 -0.018948153 0.02336191 -0.032598924 0.0075263903 -0.090431765 -0.122024074
0.017417131 0.031017937 -0.052149888 0.026795924 -0.0353582 -0.12577035 2.3874376e-05 -0.085466236
0.033062577 0.06124861 -0.081694365 -0.07078489 -0.08007512 -0.020564944 -0.003116758 0.04536201
-0.054632008 -0.04791822 -0.049150698 -0.022619566 -0.083979286 -0.07836545 -0.08240649 0.17381254
-0.07264824 -0.004551471 -0.028660843 -0.1407394 -0.10373839 0.05068654 -0.14577347 -0.06184289
0.12752214 -0.006290883 -0.043608245 -0.03714744 0.0025931178 -0.0046468303 -0.057152443 -0.11087407
-0.045462403 0.0037708392 -0.002118878 -0.045040958 -0.10028711 -0.021016188 -0.043292932 -0.075782396
-0.028812105 0.02621784 -0.03369137 -0.008338956 -0.042308267 -0.07338062 -0.040099896 -0.08104097
-0.13502052 -0.04993109 -0.031399462 0.097263455 -0.062027633 -0.04483843 -0.035133027 0.033798754
-0.032045223 -0.08263782 0.021571314 -0.12178307 -0.03605439 0.14809868 -0.0338459 -0.078163065
-0.06725274 -0.010345267 -0.018448832 -0.053229056 -0.13958235 -0.057728477 -0.045096308 -0.021221414
-0.049310915 -0.009373188 -0.047952842 -0.14215326 -0.05208177 -0.0027456065 -0.03900131 0.02592957
-0.005694932 -0.06213395 -0.04958699 0.00039588314 -0.008468448 -0.025021713 0.006241955 -0.056178153
-0.102018744 0.027174167 0.061558515 -0.015301101 0.030281559 0.10757121 -0.06334567 -0.083551705
0.011757552 -0.13833396 -0.016950974 -0.048307914 -0.0596357 0.009932317 -0.0702298 -0.0033171214
-0.029956438 -0.028770193 -0.08937805 0.024019852 -0.039260074 -0.06455668 -0.059034824 -0.04341241
-0.059319768 -0.09135877 -0.017079901 0.089595735 -0.03920377 -0.04190389 -0.021205945 0.00076043047
0.0012498517 -0.02979845 -0.057853945 -0.010683925 -0.11037696 -0.06471326 -0.00021654184 -0.008634776
-0.12307583 -0.004831689 -0.032819867 -0.107682556 -0.034099422 -0.08532708 0.11828611 -0.047391903
0.012574612 -0.06354175 -0.03146853 -0.046933886 -0.0765401 0.02843358 -0.056950465 -0.05614384
0.0643889 0.056771845 0.038140256 -0.06414662 -0.05544157 -0.08648897 -0.059818137 -0.12109782
-0.06471932 -0.00647967 -0.027720086 -0.0069277165 -0.0026687258 -0.015723247 -0.06695072 -0.048886016
-0.0073732417 -0.072415605 0.007661128 -0.09172505 0.013451852 -0.058015123 -0.10135763 0.054729283
-0.055605263 -0.008996218 -0.042744398 -0.011068675 -0.020679668 -0.041248478 -0.018180681 -0.1194653
-0.026157826 0.003105849 0.032968074 -0.027468076 -0.09755663 0.00079689885 -0.022888683 -0.044672087
-0.049485937 -0.038959447 -0.01749789 -0.007732466 -0.03656818 0.0011596314 -0.038003605 -0.06377466
-0.07399572 -0.0002873242 0.042675536 -0.10060353 -0.056802936 0.10123515 -0.0768404 -0.0051980796
00000000: 6b28 06bd 7e82 9dbd b385 c6bd 9c19 1f3d
00000010: 2a0d 91bd b6b7 4cbd 651a 87bc e1d7 423c
00000020: 6d45 d9bd 6580 92bc 187e 94bd 53ae 25bd
00000030: bec9 fb3d 28da dcbc 5e99 573d fc0a fabc
00000040: 003e b3bd 8514 6bbd e11e 8cbd dd9d ddbd
00000050: 596c c33b 95bc 67bc f770 a2bc c773 f6bb
00000060: ec6a 06bd 4d73 89bd 8475 51bd 981e ac3c
00000070: 9024 2fbd 27e1 a9bd 7d1c 04bd 8a51 81bd
00000080: ea53 d0bd fb60 7dbd 4c5e dcbd 508d 1ebd
00000090: 0ce3 8ebd 0d6c fcbc 0029 b8bb 25d8 603d
000000a0: e84f 9e3d 8353 f43d 2839 9bbc 7a61 bf3c
000000b0: 7386 05bd f09f f63b 4a34 b9bd c2e7 f9bd
000000c0: 5fae 8e3c 5419 fe3c 1f9b 55bd 2083 db3c
000000d0: c3d3 10bd f1c9 00be d545 c837 ec08 afbd
000000e0: a06c 073d d3df 7a3d 604f a7bd abf7 90bd
000000f0: 6dfe a3bd d077 a8bc 8642 4cbb 84cd 393d
00000100: d0c5 5fbd e545 44bd 3e52 49bd ab4c b9bc
00000110: 55fd abbd 117e a0bd bcc4 a8bd eafb 313e
00000120: 9ac8 94bd 8224 95bb 25ca eabc fd1d 10be
00000130: cb74 d4bd b09c 4f3d a445 15be f84e 7dbd
00000140: 2a95 023e c023 cebb 8f9e 32bd ea27 18bd
00000150: 4cf1 293b 7044 98bb ae18 6abd f211 e3bd
00000160: c936 3abd 2f20 773b e0dc 0abb de7c 38bd
00000170: 5463 cdbd 242a acbc ee53 31bd cd33 9bbd
00000180: 5d07 ecbc ccc6 d63c f6ff 09bd 1ea0 08bc
00000190: 6f4b 2dbd 9448 96bd ca3f 24bd cff8 a5bd
000001a0: d242 0abe 8b84 4cbd b99c 00bd 1032 c73d
000001b0: b010 7ebd 80a8 37bd a6e7 0fbd 9070 0a3d
000001c0: da41 03bd 043e a9bd 53b6 b03c 6769 f9bd
000001d0: c5ad 13bd 2ea7 173e 00a2 0abd f513 a0bd
000001e0: cebb 89bd 327f 29bc 0122 97bc b606 5abd
000001f0: adee 0ebe b274 6cbd e8b6 38bd 88d8 adbc
00000200: 3efa 49bd 0092 19bc 336a 44bd a090 11be
00000210: b253 55bd a2ef 33bb d6bf 1fbd 406a d43c
00000220: 8d9c babb 2b80 7ebd ba1b 4bbd 898e cf39
00000230: 3fbf 0abc 56fa ccbc 5089 cc3b 101b 66bd
00000240: 34ef d0bd 5c9c de3c c824 7c3d 78b1 7abc
00000250: 0811 f83c 4b4e dc3d 60bb 81bd 281d abbd
00000260: bfa2 403c 6ba7 0dbe c5dc 8abc 85de 45bd
00000270: 9044 74bd 28bb 223c a4d4 8fbd 1064 59bb
00000280: 3467 f5bc 78af ebbc d70b b7bd 48c5 c43c
00000290: 2ccf 20bd 4b36 84bd 80ce 71bd 36d1 31bd
000002a0: 49f9 72bd 4f1a bbbd 26eb 8bbc f87d b73d
000002b0: 2294 20bd 6aa3 2bbd 17b8 adbc a057 473a
000002c0: 10d2 a33a e11b f4bc 42f8 6cbd a10b 2fbc
000002d0: 510d e2bd 6388 84bd 820f 63b9 e078 0dbc
000002e0: 2e0f fcbd 2553 9ebb 206e 06bd ac88 dcbd
000002f0: d6ab 0bbd f7bf aebd fd3f f23d 031e 42bd
00000300: bf05 4e3c 2d22 82bd 25e5 00bd bf3d 40bd
00000310: 0ec1 9cbd 8aed e83c e444 69bd 15f7 65bd
00000320: 54de 833d 9889 683d f538 1c3d 4e5f 83bd
00000330: b316 63bd 2121 b1bd dd03 75bd 2202 f8bd
00000340: 908b 84bd 6953 d4bb 3c15 e3bc e601 e3bb
00000350: cae5 2ebb 0ace 80bc 761d 89bd b43c 48bd
00000360: 3c9b f1bb a24e 94bd 330a fb3b 58da bbbd
00000370: 2865 5c3c 44a1 6dbd 9794 cfbd d02b 603d
00000380: 58c2 63bd e064 13bc c014 2fbd 6359 35bc
00000390: 6868 a9bc 2af4 28bd a7ef 94bc 39aa f4bd
000003a0: f048 d6bc 808b 4b3b 8809 073d bb04 e1bc
000003b0: c5cb c7bd fae6 503a 0c81 bbbc 14fa 36bd
000003c0: c4b1 4abd f193 1fbd bc57 8fbc a060 fdbb
000003d0: 84c8 15bd c6fe 973a aba9 1bbd 4a9c 82bd
000003e0: 118b 97bd 00a4 96b9 8bcc 2e3d 3909 cebd
000003f0: 32aa 68bd 6054 cf3d 805e 9dbd a754 aabb

fc3.weight f4 [256, 256]
0.02390778 0.08578866 0.06386491 -0.082322165 0.026770309 -0.028845452 -0.12573288 0.07664009
-0.0068055987 -0.032098092 0.041363604 0.026042275 -0.09475848 0.047644105 0.008471698 0.017558282
0.050872065 0.057050258 0.009228848 -0.033672594 0.028889433 0.08462767 -0.033737786 0.11381026
-0.044933952 0.036980525 0.022880808 0.03263838 0.01845719 0.033611115 -0.079939075 0.036161624
-0.07065497 0.0073097423 0.012120362 -0.05762047 -0.016219117 -0.035660107 0.028735101 -0.021930678
-0.052200176 -0.0802564 0.04544811 -0.06170608 0.056811757 -0.047456697 -0.0038583577 -0.01842948
0.017418526 0.015792005 0.021344282 -0.05433377 0.026661187 -0.008184743 0.06038256 0.05538137
-0.052946605 -0.11651261 -0.006650897 0.0131768435 0.05710566 -0.039930597 0.0034221336 0.039287724
0.030549632 0.10488261 -0.033012465 -0.0050394903 -0.05870934 -0.00433214 -0.040932693 -0.002246596
-0.024079256 -0.023381501 -0.013048828 0.024634674 -0.026900046 -0.017137766 0.028616428 0.045777664
-0.15569204 0.054142192 -0.044801272 0.020325266 -0.0739953 -0.06078416 -0.0029464886 0.025856331
-0.031612642 0.024995618 -0.012162752 -0.040794536 -0.011956543 0.05896938 -0.025035365 -0.005972922
-0.006408237 0.0024573968 0.035151362 -0.0033889213 -0.009338482 0.0313925 0.042480774 -0.061293684
0.046167426 -0.0115164295 0.046731733 -0.087191805 -0.03431926 0.026834898 -0.024698444 -0.0018698871
-0.0016448647 0.05869425 0.029837921 -0.007891923 -0.028702535 -0.028812505 0.022565134 -0.04485187
0.03561786 -0.0019381046 -0.083137065 0.008727892 0.008098729 -0.03994117 -0.041131854 -0.012284737
-0.07815673 -0.017798088 0.07092487 -0.008181281 0.0051999316 -0.03524437 -0.028174788 -0.03903538
-0.1066667 -0.009749362 0.009066284 0.07160725 -0.0034214333 0.05483266 -0.027894743 -0.024312247
0.012204491 0.047302835 0.049545467 0.051433727 0.03435384 -0.11838628 -0.0993409 -0.006349981
-0.09337877 -0.026637495 -0.058695115 0.0016190484 -0.052624688 -0.033919446 -0.02535206 -0.116557434
-0.03449589 -0.031966433 0.009139641 0.01705473 -0.032358453 0.056962315 0.014387704 0.013337456
-0.043663107 -0.046342686 -0.04004604 -0.054669254 0.049087197 -0.045690514 -0.03661693 0.061821684
-0.061096735 -0.030606186 0.019842379 -0.042704456 0.029692203 -0.06168134 0.0377167 0.045979045
0.06051822 0.04312972 -0.03570769 -0.020013012 -0.034866072 0.049158573 -0.04488627 0.013676174
-0.016888868 -0.059379607 0.032253973 0.035146438 -0.04986649 0.039339337 -0.014771526 -0.007963374
0.007336888 -0.06003777 0.002658494 -0.020207755 0.02286319 -0.0038590878 0.054989465 -0.028444916
-0.13786454 -0.06214809 0.048130423 -0.030024365 -0.070524156 -0.022177229 0.05957923 -0.037198324
-0.046724163 0.034447365 -0.012816722 0.005879797 -0.023252867 -0.04405351 0.038618162 -0.00961256
-0.05793705 0.05174607 0.042918794 -0.012939535 -0.022343911 -0.008687989 -0.030605527 -0.039344154
0.0494259 0.016724043 -0.047773153 0.025255427 0.08197564 0.015968313 0.083124176 -0.023651212
-0.034446307 0.03583078 -0.018446105 -0.00025063753 -0.0099905655 0.06187295 -0.12501776 0.0497843
-0.045911126 -0.0001129657 -0.05093493 -0.04455646 -0.017936103 -0.13666409 -0.12542993 -0.031992055
00000000: 40da c33c f7b1 af3d 9bcb 823d 8698 a8bd
00000010: 684d db3c 4c4d ecbc 1fc0 00be 7bf5 9c3d
00000020: 8001 dfbb 4a79 03bd e26c 293d 9c56 d53c
00000030: bc10 c2bd 7726 433d e0cc 0a3c 63d6 8f3c
00000040: 3a5f 503d 88ad 693d 9834 173c 46ec 09bd
00000050: 88a9 ec3c 4651 ad3d a230 0abd 5b15 e93d
00000060: aa0c 38bd e478 173d 8870 bb3c d2af 053d
00000070: 8833 973c cfab 093d 19b7 a3bd 361e 143d
00000080: 8eb3 90bd 9086 ef3b 7c94 463c 7103 6cbd
00000090: f4dd 84bc 5510 12bd e065 eb3c f7a7 b3bc
000000a0: dacf 55bd 785d a4bd cc27 3a3d 84bf 7cbd
000000b0: 72b3 683d f461 42bd 80dc 7cbb 6cf9 96bc
000000c0: 4cb1 8e3c 3c5e 813c 34da ae3c 168d 5ebd
000000d0: 9068 da3c 4d19 06bc b453 773d 93d7 623d
000000e0: 8ade 58bd 2a9e eebd c5ef d9bb b0e3 573c
000000f0: a0e7 693d 448e 23bd e045 603b 2aec 203d
00000100: 3943 fa3c b2cc d63d 1438 07bd 4f22 a5bb
00000110: 3479 70bd a0f4 8dbb 0aa9 27bd a03b 13bb
00000120: dc41 c5bc 908a bfbc c0ca 55bc a8ce c93c
00000130: 7c5d dcbc 8064 8cbc 006d ea3c 5c81 3b3d
00000140: bc6d 1fbe 34c4 5d3d 8a81 37bd 2c81 a63c
00000150: d98a 97bd d0f8 78bd e019 41bb a8d0 d33c
00000160: 427c 01bd 9cc3 cc3c 4846 47bc 2c18 27bd
00000170: 60e5 43bc e089 713d f716 cdbc 80b8 c3bb
00000180: 30fc d1bb 470c 213b e0fa 0f3d aa18 5ebb
00000190: 6f00 19bc 6c95 003d 5200 2e3d 160f 7bbd
000001a0: 0e1a 3d3d 68af 3cbc c669 3f3d 9e91 b2bd
000001b0: 5a92 0cbd dcd4 db3c 6454 cabc 0017 f5ba
000001c0: 8098 d7ba 6269 703d a86e f43c 204d 01bc
000001d0: 9421 ebbc 3408 ecbc 84da b83c 98b6 37bd
000001e0: 08e4 113d 0008 feba c443 aabd 6fff 0e3c
000001f0: 88b0 043c 5a99 23bd e079 28bd ec45 49bc
00000200: a310 a0bd 4ccd 91bc 0f41 913d c80a 06bc
00000210: 3064 aa3b 675c 10bd d0ce e6bc 90e3 1fbd
00000220: 1274 dabd cabb 1fbc c08a 143c d2a6 923d
00000230: 203a 60bb 3698 603d 8483 e4bc 7a2a c7bc
00000240: 58f5 473c 9ec0 413d 30f0 4a3d 2cac 523d
00000250: 9db6 0c3d 8274 f2bd 3e73 cbbd 8013 d0bb
00000260: 5e3d bfbd e036 dabc 4a6a 70bd 4036 d43a
00000270: fc8c 57bd 1eef 0abd 20af cfbc aab5 eebd
00000280: 904b 0dbd 3cef 02bd 6fbe 153c 5cb6 8b3c
00000290: 4c8a 04bd 5151 693d 68ba 6b3c 5885 5a3c
000002a0: 16d8 32bd d4d1 3dbd 5107 24bd deec 5fbd
000002b0: a80f 493d fa25 3bbd a2fb 15bd bc38 7d3d
000002c0: 9240 7abd d3b9 fabc 7c8c a23c deea 2ebd
000002d0: 103d f33c 93a5 7cbd d47c 1a3d 8654 3c3d
000002e0: f4e1 773d caa8 303d 3a42 12bd 54f2 a3bc
000002f0: bacf 0ebd 805a 493d aada 37bd 0812 603c
00000300: 865a 8abc 0838 73bd be1c 043d b6f5 0f3d
00000310: ce40 4cbd 4922 213d 4504 72bc d078 02bc
00000320: 476a f03b 2aea 75bd 213a 2e3b bc8a a5bc
00000330: 964b bb3c c0e8 7cbb a23c 613d 5005 e9bc
00000340: 5d2c 0dbe ff8e 7ebd 6824 453d a8f5 f5bc
00000350: f86e 90bd 05ad b5bc 5a09 743d 455d 18bd
00000360: d661 3fbd ae18 0d3d 3afd 51bc 50ab c03b
00000370: cc7c bebc 7471 34bd 142e 1e3d 007e 1dbc
00000380: 664f 6dbd b0f3 533d 9ecb 2f3d 5800 54bc
00000390: 940a b7bc 1158 0ebc 71b8 fabc 5627 21bd
000003a0: d072 4a3d dc00 893c c8ad 43bd 78e4 ce3c
000003b0: d8e2 a73d fbcf 823c 023d aa3d 30c0 c1bc
000003c0: 9217 0dbd 4cc3 123d 491c 97bc 0068 83b9
000003d0: 78af 23bc 7e6e 7d3d a804 00be 9fea 4b3d
000003e0: 4e0d 3cbd 00e8 ecb8 25a1 50bd d680 36bd
000003f0: bcee 92bc acf1 0bbe b470 00be 1a0a 03bd

fc3.bias f4 [256]
-0.047191557 -0.15593383 -0.06660524 -0.039104573 -0.0818203 -0.10138954 -0.09452314 -0.10244621
-0.010335136 0.31305793 -0.012993468 -0.011317435 -0.07586273 -0.05364545 0.011945304 -0.06616882
0.25772864 -0.020968396 -0.10140871 -0.11343165 0.110236116 -0.01185662 -0.12223139 -0.06234185
-0.1077352 0.095388845 -0.024606517 0.12885338 -0.013179152 -0.05621323 -0.0032918055 -0.09027564
-0.0041547343 -0.09820835 -0.04905664 -0.08948066 -0.07665485 0.12105201 -0.023248918 -0.09692386
-0.03454136 -0.006832916 0.018320741 -0.09355311 -0.051346857 -0.11441631 -0.032564722 -0.12638399
-0.032431997 -0.12373885 -0.10591189 -0.05905787 -0.093905784 -0.036026154 -0.11007772 -0.02816337
-0.15467937 -0.07836506 -0.02498206 -0.04329929 -0.12730709 -0.040138632 -0.055110224 -0.06252487
-0.06910696 -0.122096695 -0.08898621 -0.041233905 -0.08426793 -0.08247533 0.27924827 -0.03392501
0.26377863 -0.016871836 -0.102175154 -0.0070124036 -0.10581492 -0.054348823 -0.050311718 -0.0027698427
0.03764834 -0.10844318 -0.09233434 -0.05173037 -0.03617981 -0.043836273 -0.023721093 -0.019776255
0.2616854 -0.11473178 -0.14725769 0.04535292 -0.10489225 -0.059199657 -0.11837453 -0.010023683
-0.094684735 0.011349937 -0.079168774 -0.045036156 -0.022437934 -0.011663573 0.05979287 -0.0792821
-0.059017874 0.023017421 -0.02086142 -0.10232839 0.040357165 -0.12977028 -0.020199345 0.10099494
-0.030088533 0.075660676 -0.06289966 0.08458302 -0.06239297 -0.041087 -0.008471342 -0.038165376
-0.09748532 -0.13947792 -0.047854222 -0.09317341 -0.09697507 -0.039428063 -0.1531343 -0.07773017
0.0699893 0.0973469 -0.08472706 -0.00578884 -0.16440468 -0.103264146 -0.016098326 -0.09421076
-0.0414785 0.20708583 -0.15511659 -0.076591395 0.001355137 0.1644934 -0.06858698 -0.074297324
-0.06690401 -0.08588437 -0.011753946 -0.063010074 -0.09827137 0.04720998 0.02658037 0.13546671
-0.041471228 -0.0840076 0.057085183 -0.05964691 -0.04897371 0.20381969 -0.109963775 -0.056625374
-0.12819344 -0.061883662 -0.021445699 -0.113263935 -0.036987636 -0.030939719 0.006537415 -0.034516517
0.017124189 -0.038954724 -0.057976827 -0.010299772 0.17385228 -0.10857044 0.059764892 -0.090034775
-0.0985971 -0.013789724 0.022774758 -0.022976518 0.044480424 -0.098622404 -0.004592185 -0.019673062
0.13826421 -0.10633879 -0.09716842 0.03974971 0.016294697 -0.062426288 -0.04177718 0.17572184
-0.0113312015 0.015581764 -0.000761725 -0.042663027 -0.04390079 -0.049498923 0.35333842 0.16953062
0.009074763 -0.043584317 -0.12871543 0.16649893 -0.082694426 -0.0038043987 -0.0061941952 0.11549644
-0.073937215 -0.0034622326 0.042475108 -0.09354586 -0.066117465 -0.08482745 -0.054635778 0.06633688
0.023654124 0.11223269 0.040080927 -0.10669768 0.2275766 0.034374587 -0.0434275 -0.06978567
0.124910064 0.131963 0.10618091 0.051892363 -0.049730025 -0.034229398 -0.089310944 0.012235867
-0.040465023 -0.10363502 -0.042595822 0.015646284 -0.007138005 -0.076815546 -0.1369047 -0.012421377
-0.028066363 -0.03500888 -0.032546576 -0.11705261 0.049840305 -0.029681915 0.060683556 -0.104314394
-0.061113555 0.13638994 0.0018518772 -0.07766576 -0.09699243 -0.03853645 -0.049111 -0.01530797
00000000: ef4b 41bd 1ead 1fbe 5468 88bd 1e2c 20bd
00000010: 6791 a7bd 52a5 cfbd 5995 c1bd 52cf d1bd
00000020: b454 29bc 2149 a03e 8ee2 54bc c36c 39bc
00000030: eb5d 9bbd 55bb 5bbd 3db6 433c 8583 87bd
00000040: 02f5 833e eac5 abbc 5faf cfbd da4e e8bd
00000050: 79c3 e13d 4542 42bc 7354 fabd 2b5a 7fbd
00000060: 46a4 dcbd 3a5b c33d 9b93 c9bc 24f2 033e
00000070: 5fed 57bc d83f 66bd 55bb 57bb 6fe2 b8bd
00000080: 7024 88bb 7621 c9bd 9eef 48bd a341 b7bd
00000090: 38fd 9cbd 1eea f73d 8474 bebc 0480 c6bd
000000a0: 3e7b 0dbd a7e6 dfbb 6115 963c c698 bfbd
000000b0: 1551 52bd 1953 eabd 9662 05bd ce6a 01be
000000c0: 6ad7 04bd cb6a fdbd 55e8 d8bd aae6 71bd
000000d0: ad51 c0bd 2990 13bd 6d70 e1bd deb6 e6bc
000000e0: 4564 1ebe dc7d a0bd 2da7 ccbc 995a 31bd
000000f0: ca5c 02be 6868 24bd 42bb 61bd 0a0d 80bd
00000100: f387 8dbd d50d fabd 673e b6bd e2e4 28bd
00000110: aa94 acbd d3e8 a8bd a1f9 8e3e f4f4 0abd
00000120: fe0d 873e ce36 8abc 3541 d1bd 4ec8 e5bb
00000130: 7eb5 d8bd df9c 5ebd a913 4ebd 4086 35bb
00000140: 2535 1a3d 7517 debd c919 bdbd 39e3 53bd
00000150: 4831 14bd aa8d 33bd bd52 c2bc d001 a2bc
00000160: a1fb 853e 7ff8 eabd b8ca 16be fcc3 393d
00000170: bfd1 d6bd 577b 72bd 586e f2bd 603a 24bc
00000180: 12ea c1bd 16f5 393c 3d23 a2bd d577 38bd
00000190: c2cf b7bc 9218 3fbc 5ee9 743d a75e a2bd
000001a0: babc 71bd 088f bc3c 92e5 aabc 8c91 d1bd
000001b0: 8e4d 253d 80e2 04be 1979 a5bc 6fd6 ce3d
000001c0: 3a7c f6bc fcf3 9a3d 89d1 80bd dd39 ad3d
000001d0: c58f 7fbd d84a 28bd 62cb 0abc 4c53 1cbd
000001e0: 62a6 c7bd 4dd3 0ebe ca02 44bd b3d1 bebd
000001f0: de9a c6bd 527f 21bd 3dcf 1cbe ff30 9fbd
00000200: 8d56 8f3d d05d c73d 6185 adbd 4fb0 bdbb
00000210: b359 28be 277c d3bd a3e0 83bc 92f1 c0bd
00000220: 5ce5 29bd 4f0e 543e e2d6 1ebe f3db 9cbd
00000230: da9e b13a f570 283e 5577 8cbd 3229 98bd
00000240: f804 89bd 25e4 afbd 9f93 40bc 6d0b 81bd
00000250: 8042 c9bd 415f 413d 13bf d93c c9b7 0a3e
00000260: bcdd 29bd 2d0c acbd 27d2 693d 5150 74bd
00000270: a898 48bd 1cb6 503e b034 e1bd 02f0 67bd
00000280: 2445 03be b979 7dbd e4ae afbc ecf6 e7bd
00000290: 5980 17bd 4b75 fdbc d037 d63b 3161 0dbd
000002a0: 0748 8c3c fd8e 1fbd 1c79 6dbd 60c0 28bc
000002b0: 5506 323e 2e5a debd 08cc 743d 2764 b8bd
000002c0: 47ed c9bd 4bee 61bc 2192 ba3c 4039 bcbc
000002d0: 1b31 363d 8bfa c9bd 0a7a 96bb 6729 a1bc
000002e0: 2295 0d3e 27c8 d9bd 3d00 c7bd 98d0 223d
000002f0: 757c 853c b5b2 7fbd 8c1e 2bbd 6df0 333e
00000300: 81a6 39bc a84a 7f3c 80ae 47ba 6dbf 2ebd
00000310: 51d1 33bd 62bf 4abd c6e8 b43e 6f99 2d3e
00000320: 51ae 143c 7885 32bd facd 03be b27e 2a3e
00000330: b25b a9bd 3853 79bb adf8 cabb 6689 ec3d
00000340: 656c 97bd a0e6 62bb 61fa 2d3d f994 bfbd
00000350: 9868 87bd 04ba adbd c4c9 5fbd a1db 873d
00000360: 4bc6 c13c 41da e53d e62b 243d 5084 dabd
00000370: d709 693e 5ecc 0c3d 09e1 31bd caeb 8ebd
00000380: d9d0 ff3d 4f21 073e 6075 d93d 168d 543d
00000390: b6b1 4bbd 2034 0cbd a8e8 b6bd f278 483c
000003a0: a7be 25bd 993e d4bd f578 2ebd a32c 803c
000003b0: ede5 e9bb 7851 9dbd bf30 0cbe 0883 4bbc
000003c0: 6eeb e5bc 7965 0fbd 8f4f 05bd 47b9 efbd
000003d0: 5925 4c3d 7d27 f3bc 528f 783d c9a2 d5bd
000003e0: 3552 7abd cea9 0b3e b0ba f23a 3a0f 9fbd
000003f0: f8a3 c6bd 66d8 1dbd 9e28 49bd 48ce 7abc

classifier.weight f4 [16, 256]
-0.008012086 -0.08385474 0.065637946 -0.018538984 0.0051244237 0.022447143 -0.027407013 -0.054943718
-0.09845459 -0.13795699 0.09051264 -0.0005565904 -0.03435794 0.10953327 0.00073988235 -0.0069942763
-0.98339343 0.11170354 -0.06865727 0.08963104 -0.045168456 0.045055874 0.06887483 0.05012768
-0.09134721 0.078241244 -0.038197998 -0.35046437 0.0730838 0.012533439 0.00031522417 0.0066836826
0.1169414 0.08728837 -0.03739601 -0.10823064 0.11334273 -0.18485487 -0.007909313 0.028085314
0.016075054 0.024472777 0.052203182 0.057396393 -0.056249697 -0.12157602 -0.114029706 0.09472176
-0.11114762 -0.15511286 -0.0038804428 0.005874763 0.04496313 -0.011918579 -0.021671029 0.013538072
0.107905544 -0.013420239 0.048307754 0.046880044 -0.091656014 -0.087173775 -0.043384213 0.0020842536
0.059938326 0.034071505 0.04906705 -0.08554855 0.08641726 -0.053408936 -0.43246806 0.018300913
-0.8371916 -0.276684 0.06846616 0.07331069 0.010295597 0.046435475 -0.008284295 -0.054354116
-0.24961527 0.10872837 -0.000105233536 0.1160278 -0.016881473 0.023103414 0.0142954495 -0.0019777091
-0.19934477 0.01615762 -0.027737334 -0.03220483 0.0019969915 0.010397237 0.07219416 -0.10006501
-0.087181576 0.10162012 0.04839714 0.012216492 0.1232095 -0.07130452 -0.030038007 0.015141252
-0.11221794 0.052175283 -0.0077708797 -0.05766412 0.037460282 -0.109270975 0.036103953 0.031447835
-0.00012790352 -0.10422577 -0.03627903 0.101194754 0.018116236 0.02199616 0.10592988 -0.04701537
-0.04122198 -0.054373015 -0.014618554 -0.008218329 0.096020766 0.09930767 0.039535064 -0.11908765
-0.23101561 -0.16469969 0.022902332 -0.19632229 0.038452353 -0.0005989505 -0.043534636 0.06524048
-0.0891639 -0.04104319 -0.07337809 0.09850076 0.03749451 -0.28465843 0.0050574844 -0.14412704
0.096633315 -0.08416792 0.08658789 0.059235062 -0.02391311 -0.15703048 0.05978955 -0.5609654
0.08202108 0.06229019 -0.01905043 0.08992386 0.03446176 -0.337131 -0.021067137 -0.12146034
-0.04891318 0.0063063437 0.06196453 -0.015822262 0.093487024 -0.102677 -0.048992597 -0.030420734
0.06579108 0.07027 -0.07122281 -0.102548145 -0.0199767 0.0055544795 0.032518346 0.040459033
0.03241282 -0.107384846 0.011555966 -0.27865764 0.12827833 0.055708237 0.04917981 0.0726511
-0.10962204 -0.030852333 0.08376566 0.08775444 0.049814727 0.041908413 0.010769164 -0.009019887
0.013669062 0.027361268 0.01540482 -0.0011980964 0.049096253 0.11080349 -0.39503527 -0.5266187
-0.06716642 0.10751956 -0.041100927 0.009628291 0.08889487 0.075175345 -0.112797886 0.0229734
-0.024336439 -0.028397761 0.10532167 -0.0011079622 0.054332785 0.0029869992 0.042205922 0.042624474
-0.008293463 -0.1556788 0.07496493 -0.021179453 -0.3264424 0.058993567 0.05286019 0.044438735
-0.07651381 -0.5336609 0.014285743 -0.0033827352 0.0887902 0.01028399 -0.2089595 0.09426861
0.024423443 0.0014174519 0.10929086 0.0063654375 0.11529256 -0.12147256 0.10095589 -0.069026046
0.012582551 0.100429714 0.023609387 0.022545433 -0.015848493 0.032376397 -0.062524244 -0.002020305
0.03256026 0.032545835 0.038515452 0.08170249 0.018196333 -0.11191993 0.057421744 -0.04151138
00000000: 2045 03bc 09bc abbd 306d 863d 11df 97bc
00000010: c8ea a73b 12e3 b73c ac84 e0bc aa0c 61bd
00000020: 8fa2 c9bd 9944 0dbe b15e b93d 26e8 11ba
00000030: e9ba 0cbd fb52 e03d aaf4 413a 3e30 e5bb
00000040: acbf 7bbf d3c4 e43d 2f9c 8cbd 7b90 b73d
00000050: 8f02 39bd 828c 383d 3f0e 8d3d af52 4d3d
00000060: 3f14 bbbd f23c a03d 8175 1cbd 1170 b3be
00000070: f6ac 953d 0e59 4d3c ac44 a539 cb02 db3b
00000080: f97e ef3d 3fc4 b23d 8f2c 19bd 07a8 ddbd
00000090: 3c20 e83d 984a 3dbe 1096 01bc 2c13 e63c
000000a0: d5af 833c 227b c83c 01d3 553d 7b18 6b3d
000000b0: 1566 66bd d9fc f8bd 6888 e9bd 7bfd c13d
000000c0: 5da1 e3bd e8d5 1ebe 074f 7ebb 1581 c03b
000000d0: 422b 383d 2546 43bc 7187 b1bc cace 5d3c
000000e0: 95fd dc3d 90e0 5bbc 5ade 453d 4a05 403d
000000f0: 26b6 bbbd 2a88 b2bd a5b3 31bd f997 083b
00000100: e481 753d 908e 0b3d 88fa 483d 1434 afbd
00000110: 88fb b03d 54c3 5abd 746c ddbe cceb 953c
00000120: 3052 56bf 86a9 8dbe fc37 8c3d ea23 963d
00000130: ddae 283c 2033 3e3d daba 07bc 6ca2 5ebd
00000140: 259b 7fbe fbac de3d d3b0 dcb8 fc9f ed3d
00000150: 044b 8abc 5f43 bd3c 7637 6a3c 749c 01bb
00000160: 0921 4cbe fc5c 843c 6839 e3bc 36e9 03bd
00000170: f5df 023b 2c59 2a3c 88da 933d e2ee ccbd
00000180: 418c b2bd 361e d03d 143c 463d ae27 483c
00000190: 4355 fc3d 1b08 92bd 4412 f6bc 0413 783c
000001a0: 85d2 e5bd c0b5 553d dda2 febb 3631 6cbd
000001b0: f46f 193d 76c9 dfbd bde1 133d 72cf 003d
000001c0: d71d 06b9 5274 d5bd 5299 14bd 323f cf3d
000001d0: 8068 943c 4a31 b43c c4f1 d83d 3093 40bd
000001e0: 61d8 28bd 3db6 5ebd a982 6fbc 2ca6 06bc
000001f0: 89a6 c43d d261 cb3d 85ef 213d 3ae4 f3bd
00000200: 5b8f 6cbe 09a7 28be ac9d bb3c b608 49be
00000210: 3780 1d3d e302 1dba 6051 32bd cd9c 853d
00000220: 909b b6bd e71c 28bd 4147 96bd c4ba c93d
00000230: d893 193d c0be 91be 41b9 a53b 0a96 13be
00000240: b0e7 c53d 3b60 acbd fe54 b13d 77a0 723d
00000250: 6de5 c3bc 99cc 20be e3e5 743d 6e9b 0fbf
00000260: abfa a73d 0024 7f3d a60f 9cbc 002a b83d
00000270: c627 0d3d 6f9c acbe fd94 acbc 33c0 f8bd
00000280: 3059 48bd 72a5 ce3b 85ce 7d3d b09d 81bc
00000290: 2076 bf3d 5248 d2bd 76ac 48bd e734 f9bc
000002a0: 79bd 863d b8e9 8f3d 44dd 91bd c304 d2bd
000002b0: 2da6 a3bc 5a02 b63b f531 053d 5fb8 253d
000002c0: 4ec3 043d 96ec dbbd 3c55 3d3c 37ac 8ebe
000002d0: 655b 033e 522e 643d c570 493d 1aca 943d
000002e0: 8581 e0bd 08be fcbc 558d ab3d 9ab8 b33d
000002f0: 870a 4c3d 28a8 2b3d 2671 303c 26c8 13bc
00000300: 34f4 5f3c bd24 e03c 8064 7c3c 7209 9dba
00000310: 2719 493d f1ec e23d 1042 cabe 7cd0 06bf
00000320: 8c8e 89bd 3733 dc3d 7259 28bd fbbf 1d3c
00000330: 830e b63d 88f5 993d 9402 e7bd b632 bc3c
00000340: 365d c7bc 6ca2 e8bc e3b2 d73d 0b39 91ba
00000350: 0e8c 5e3d 88c1 433b 1ee0 2c3d 0097 2e3d
00000360: 4ee1 07bc 436a 1fbe 3787 993d 8880 adbc
00000370: 7523 a7be 3da3 713d ed83 583d 6405 363d
00000380: 46b3 9cbd 009e 08bf c00e 6a3c e1b0 5dbb
00000390: a3d7 b53d 2e7e 283c 7bf9 55be e70f c13d
000003a0: ac13 c83c cbc9 b93a e3d3 df3d 2995 d03b
000003b0: 811e ec3d 9bc6 f8bd f6c1 ce3d 875d 8dbd
000003c0: 0b27 4e3c 18ae cd3d 7968 c13c 33b1 b83c
000003d0: b3d4 81bc 1d9d 043d b60c 80bd 1867 04bb
000003e0: e85d 053d c84e 053d 61c2 1d3d a353 a73d
000003f0: 7a10 953c 4736 e5bd 1033 6b3d d607 2abd

classifier.bias f4 [16]
-0.053123053 -0.075673975 0.05621829 -0.0069857836 0.14122587 0.02298942 0.06764839 0.07239061
0.037108567 0.030065428 0.050718684 0.041578397 -0.1003419 -0.0005509141 -0.09835437 -0.1913908
00000000: 8f97 59bd f5fa 9abd 2645 663d 00e9 e4bb
00000010: 849d 103e 4f54 bc3c 3d8b 8a3d 8741 943d
00000020: 27ff 173d c64b f63c 65be 4f3d 1c4e 2a3d
00000030: 0e80 cdbd 386b 10ba 046e c9bd f3fb 43be
