transfer04_17_59_22_10_12_FullyConnected.pth (torch, 550959 bytes, 8 tensors)

fc1.weight f4 [256, 4]
0.4040161 0.27434474 -0.121459305 -0.5602738 -0.4668575 -0.36826545 -0.44476926 -0.48026085
0.36513948 0.42711708 -0.23827 0.3688574 0.16296773 -0.53859675 0.28452298 0.089595295
-0.24780339 -0.19392836 0.36998475 -0.45343316 -0.38703203 -0.10444617 0.46485907 0.3874154
0.28172684 -0.57303584 -0.5654383 -0.015040814 0.42833206 -0.2713011 -0.4074655 0.14775078
0.08985025 0.31755406 -0.3980859 -0.42098624 0.058273196 0.048059583 -0.30920374 -0.2573418
-0.0057892455 -0.5068546 -0.6670809 0.2884209 0.16563664 -0.37975413 -0.22528239 0.35501695
-0.46644703 -0.5340968 0.017406767 -0.1674917 -0.5842559 -0.5398677 0.13738565 0.1835232
-0.1336798 0.67212516 -0.16688563 -0.42204314 0.35005122 -0.26395193 -0.26258987 -0.25130546
0.038473908 0.2931393 0.30252934 -0.23769341 -0.5323804 0.036668725 0.02257008 0.15090016
-0.35915357 -0.37735677 -0.042616248 -0.1977821 0.0488613 -0.2853924 0.10131575 0.09107375
-0.3826723 -0.02824837 -0.10190123 0.008021712 -0.25252163 -0.47870803 -0.20773542 0.035800695
0.2495629 -0.21995012 0.53128934 -0.32636815 0.0033415488 0.31525218 0.15435335 -0.057044573
-0.5370877 0.28683013 -0.083885126 -0.39754644 -0.34195185 0.5409988 0.54990005 0.2021737
0.44661647 0.12854679 0.057219826 -0.073579095 0.11283934 0.3555637 -0.19972593 -0.38559246
-0.2544716 0.29070216 -0.30668914 -0.48363388 -0.2944249 -0.3865258 0.09050727 -0.46509272
-0.31359375 0.31911796 -0.4995336 -0.41239023 -0.22929668 0.27792734 -0.48709238 0.007464111
-0.43334487 -0.35168216 -0.6172509 0.19730324 0.15535933 -0.2879403 -0.1627772 0.23957914
-0.30466506 0.39890015 0.602349 0.008727069 0.08380735 -0.24687338 0.45337903 -0.12113911
-0.20726714 0.3662678 0.18970683 -0.23064397 -0.018311381 0.42886394 -0.4760883 -0.34763432
-0.04740199 -0.31071576 -0.62713575 -0.047224823 0.48078814 -0.30202353 -0.11045236 0.109645404
-0.43187097 -0.09847332 -0.12886444 -0.037563756 -0.45633084 -0.2627232 -0.27157086 -0.061291397
0.31880283 -0.4987569 -0.529383 -0.010132023 -0.10887128 -0.005954325 0.00048792362 -0.00797224
-0.2652092 -0.2825327 0.050123632 0.19217068 -0.079438604 -0.55649024 -0.18277745 0.06223439
0.19631505 -0.3267063 0.27226585 -0.4953546 -0.4418714 0.12614465 -0.3746761 0.1129421
-0.32419306 0.049128473 0.3106417 -0.298419 -0.40022174 -0.28897685 -0.65893453 0.20187585
-0.29377186 0.11252284 -0.11101556 0.114965975 -0.30600548 0.07527998 0.3667847 -0.0900016
-0.3096637 -0.36858308 -0.06393021 -0.4788825 -0.05315641 0.72018987 0.06908719 0.26922944
0.31743982 0.18211861 0.15724632 -0.011112893 -0.6032348 0.4932624 -0.30533835 0.08128246
-0.38757175 -0.17413843 0.12560171 -0.21377051 0.078031965 -0.67230934 0.03237309 -0.10720519
0.47225243 0.5495924 0.4858713 0.2630051 -0.21275753 0.35973275 0.21919495 -0.1158849
-0.25943792 0.17889643 0.6724136 0.30582586 -0.1780898 -0.4835723 -0.22578073 -0.46451914
0.2502049 -0.17174225 -0.59826535 0.172237 0.12078063 -0.6984891 0.012258007 0.13715217
00000000: 33db ce3e ea76 8c3e a8bf f8bd 1b6e 0fbf
00000010: f207 efbe 4a8d bcbe ccb8 e3be c0e4 f5be
00000020: 90f3 ba3e 17af da3e 0dfd 73be e1da bc3e
00000030: 03e1 263e 7ae1 09bf ffac 913e bd7d b73d
00000040: 2cc0 7dbe 2895 46be a46e bd3e 6428 e8be
00000050: 1029 c6be e0e7 d5bd 0202 ee3e 505b c63e
00000060: 803e 903e 7ab2 12bf 90c0 10bf bf6d 76bc
00000070: 574e db3e fae7 8abe 519f d0be fb4b 173e
00000080: 6803 b83d 7296 a23e ead1 cbbe 828b d7be
00000090: e0af 6e3d 20da 443d f44f 9ebe 4ec2 83be
000000a0: b6b3 bdbb 39c1 01bf d0c5 2abf e7ab 933e
000000b0: a79c 293e 226f c2be 6db0 66be c8c4 b53e
000000c0: 25d2 eebe 91ba 08bf a398 8e3c f282 2bbe
000000d0: cb91 15bf c534 0abf d3ae 0c3e 81ed 3b3e
000000e0: 5ce3 08be 6510 2c3f 11e4 2abe 0a16 d8be
000000f0: ea39 b33e b524 87be 2e72 86be 1cab 80be
00000100: d196 1d3d 5b16 963e 20e5 9a3e e765 73be
00000110: 154a 08bf f231 163d e3e4 b83c 9285 1a3e
00000120: fae2 b7be e834 c1be 608e 2ebd 6487 4abe
00000130: c922 483d f41e 92be a27e cf3d e084 ba3d
00000140: a0ed c3be 2069 e7bc 98b1 d0bd 806d 033c
00000150: 844a 81be 3819 f5be 98b8 54be c0a3 123d
00000160: 6b8d 7f3e 9b3a 61be 9402 083f ba19 a7be
00000170: e3fd 5a3b bc68 a13e ce0e 1e3e 92a7 69bd
00000180: 947e 09bf 66db 923e f7cb abbd 358b cbbe
00000190: 5014 afbe e67e 0a3f 40c6 0c3f 9f06 4f3e
000001a0: eaaa e43e c5a1 033e 565f 6a3d a3b0 96bd
000001b0: 5018 e73d 720c b63e f484 4cbe 606c c5be
000001c0: 1a4a 82be ead6 943e 5c06 9dbe dc9e f7be
000001d0: dcbe 96be b6e6 c5be e05b b93d a220 eebe
000001e0: 5c8f a0be 6e63 a33e dec2 ffbe d024 d3be
000001f0: c0cc 6abe 7e4c 8e3e 2c64 f9be 8095 f43b
00000200: 61df ddbe af0f b4be 2804 1ebf dc09 4a3e
00000210: 8416 1f3e e96c 93be 11af 26be 3c54 753e
00000220: 0ffd 9bbe a43c cc3e 8b33 1a3f fbfb 0e3c
00000230: 30a3 ab3d 60cc 7cbe 4c21 e83e c817 f8bd
00000240: d63d 54be 7487 bb3e 8242 423e ef2d 6cbe
00000250: c001 96bc 0e94 db3e d8c1 f3be 20fd b1be
00000260: 9728 42bd 2316 9fbe f88b 20bf d16e 41bd
00000270: dd29 f63e d4a2 9abe d934 e2bd c58d e03d
00000280: 311e ddbe 61ac c9bd 0af5 03be 74dc 19bd
00000290: 32a4 e9be a883 86be 560b 8bbe b00c 7bbd
000002a0: 203a a33e 105d ffbe a585 07bf c900 26bc
000002b0: e8f7 debd 801c c3bb 00d0 ff39 009e 02bc
000002c0: 80c9 87be 20a8 90be 704e 4d3d 64c8 443e
000002d0: b5b0 a2bd 2576 0ebf 032a 3bbe 7de9 7e3d
000002e0: d006 493e 0c46 a7be 6e66 8b3e 1e9f fdbe
000002f0: f83c e2be 102c 013e 8cd5 bfbe 304e e73d
00000300: a2fc a5be f03a 493d 6e0c 9f3e 60ca 98be
00000310: dde9 ccbe c6f4 93be efaf 28bf 8bb8 4e3e
00000320: 4469 96be 6072 e63d 205c e3bd 4873 eb3d
00000330: c0ac 9cbe 642c 9a3d 34cb bb3e c252 b8bd
00000340: 3e8c 9ebe ecb6 bcbe d8ed 82bd 1630 f5be
00000350: 89ba 59bd 5d5e 383f 967d 8d3d 71d8 893e
00000360: 7987 a23e 4d7d 3a3e 2e05 213e da12 36bc
00000370: 996d 1abf e48c fc3e 4f55 9cbe 6b77 a63d
00000380: ce6f c6be 5851 32be bc9d 003e a8e6 5abe
00000390: 39cf 9f3d 771c 2cbf a599 043d 658e dbbd
000003a0: 12cb f13e 16b2 0c3f 1fc4 f83e 9ba8 863e
000003b0: 1cdd 59be e42e b83e a474 603e 1055 edbd
000003c0: 0cd5 84be a030 373e 4c23 2c3f 3595 9c3e
000003d0: 2c5d 36be ca96 f7be 1033 67be 74d5 edbe
000003e0: db1a 803e 33dd 2fbe eb27 19bf e55e 303e
000003f0: d65b f73d 2fd0 32bf cfd5 483c 9e71 0c3e

fc1.bias f4 [256]
-0.26538357 0.05969876 -0.26402208 -0.2777369 -0.1835261 -0.46102154 0.13040963 -0.40421394
-0.2407518 -0.0003052354 0.38174775 0.0032604218 0.3467388 0.18336482 0.33332598 0.2886107
-0.3643101 -0.06693991 -0.39111733 0.14620493 -0.27383476 -0.31512988 0.10078288 -0.5229209
0.17192739 -0.024507571 -0.24975792 -0.44505715 0.14443225 0.047211766 -0.053104937 -0.17505807
0.22932993 -0.0028036458 0.34243545 -0.090978384 0.15061629 0.05565107 0.09053758 -0.07362114
0.033987362 -0.052711725 0.013247187 -0.36605936 -0.18151009 0.42132568 0.061743617 -0.01986003
-0.19740492 0.33997467 -0.39405674 0.17577752 0.103577495 0.16490996 -0.05732501 0.26007515
0.04406774 -0.064386256 -0.124876216 -0.19568694 0.16642728 -0.061302125 0.2686769 -0.054121293
0.35643187 0.13618907 0.19803987 0.2775607 0.11259563 -0.4113084 0.021056982 -0.30387628
-0.42949134 0.45411932 -0.37729776 -0.0052480716 0.3227814 0.12393221 -0.009387791 0.22102381
-0.017120361 -0.18414071 -0.27226317 0.20577265 -0.5347329 0.3208847 0.3329061 -0.43436605
0.17037204 -0.2235375 0.2920294 -0.046032503 -0.32577652 -0.15222323 0.10179588 -0.26123986
0.1413627 -0.061345365 -0.27223992 -0.06523174 0.208739 0.1074844 -0.36308938 -0.037156623
-0.08880491 -0.26558954 0.25219625 -0.16635184 0.28179458 0.24854377 -0.028848767 -0.13504565
-0.16742975 -0.075436234 -0.40460235 -0.10599431 0.1448286 -0.4463339 -0.022823447 -0.14282691
0.1314543 0.08276398 -0.051097777 -0.48832107 -0.48621213 -0.2925951 0.067846365 0.3316372
0.2690055 -0.31903234 0.12558916 -0.13876262 0.18914686 0.37557432 0.34723774 -0.1269204
-0.43823755 0.10510628 -0.33368027 -0.10709864 0.062436968 -0.07236737 -0.24343728 0.23265737
-0.22889407 0.3084542 -0.176657 0.39427954 -0.06736667 0.07610246 0.32857177 -0.053324316
-0.3670485 0.115584284 -0.24603528 -0.2427686 0.28392357 -0.46125543 0.32583442 -0.12188023
-0.059182953 -0.4073107 0.20104527 0.13505836 -0.1984315 0.01588589 0.42260948 0.16799998
0.4063171 0.14331329 0.25904307 -0.30370176 0.25105205 -0.010985023 0.38547468 -0.4381519
-0.4765135 -0.025639595 0.069493815 -0.1835194 0.12469798 0.21291356 0.25716993 0.2311544
0.27122766 -0.4757229 0.4185884 0.22691002 0.18713415 0.044176877 0.0047047753 0.25376418
0.1699887 -0.34672308 0.30883664 0.4158617 -0.33049354 0.48119178 -0.20014751 0.27782285
-0.41199696 0.27570954 -0.029029667 0.3172131 -0.26041728 0.19866553 -0.29582983 -0.05964878
0.28565535 0.29270688 0.39578328 -0.04942006 0.31694654 -0.28875387 -0.1210961 -0.41292566
-0.30937904 0.38758752 0.1898048 0.24344403 0.009247278 0.23589255 0.097068936 0.3113809
0.08826539 -0.0052542663 0.19416754 0.30118456 0.07973516 0.22980934 0.07223041 -0.12210228
0.18775241 -0.079427324 0.3538065 -0.41872942 -0.05673802 0.31922162 -0.43740016 -0.30216968
0.2476759 -0.47090542 0.0955186 0.14550751 0.13780531 0.07988208 -0.05359237 -0.1577057
-0.22172996 -0.2899555 -0.01343298 0.19914328 -0.49040914 0.3798607 -0.046702992 0.052871637
00000000: 5be0 87be b086 743d e72d 87be 8833 8ebe
00000010: 44ee 3bbe 040b ecbe 1a8a 053e 21f5 cebe
00000020: a487 76be 0008 a0b9 7174 c33e cdac 553b
00000030: bf87 b13e fdc3 3b3e b4a9 aa3e c8c4 933e
00000040: da86 babe cb17 89bd 8840 c8be bfb6 153e
00000050: 1234 8cbe b458 a1be 4167 ce3d 25de 05bf
00000060: bc0d 303e 1ac4 c8bc 8ac0 7fbe 88de e3be
00000070: 0ce6 133e 2061 413d 9084 59bd 6c42 33be
00000080: 77d5 6a3e 5fbd 37bb b353 af3e e052 babd
00000090: 283b 1a3e 60f2 633d c46b b93d aec6 96bd
000000a0: 5536 0b3d 40e8 57bd bb0a 593c 226c bbbe
000000b0: c8dd 39be 00b8 d73e e0e6 7c3d 80b1 a2bc
000000c0: 8424 4abe 2911 ae3e cec1 c9be 06ff 333e
000000d0: 7020 d43d 28de 283e a1cd 6abd 9228 853e
000000e0: 6080 343d f1dc 83bd 1abf ffbd 2862 48be
000000f0: ea6b 2a3e f017 7bbd 0590 893e 4aae 5dbd
00000100: 3d7e b63e 2675 0b3e f7ca 4a3e 701c 8e3e
00000110: 8a98 e63d 0497 d2be b17f ac3c ac95 9bbe
00000120: 4ae6 dbbe 5482 e83e 2c2d c1be 04f8 abbb
00000130: 9b43 a53e 2cd0 fd3d 40cf 19bc 1154 623e
00000140: 0040 8cbc 628f 3cbe 1466 8bbe 11b6 523e
00000150: 41e4 08bf 004b a43e ab72 aa3e 3a65 debe
00000160: 0276 2e3e 04e7 64be e184 953e 948c 3cbd
00000170: 2ecc a6be 68e0 1bbe 5c7a d03d 3bc1 85be
00000180: 62c1 103e 4745 7bbd 0863 8bbe 3898 85bd
00000190: adbf 553e c820 dc3d dae6 b9be 8b31 18bd
000001a0: 59df b5bd 5afb 87be de1f 813e 2358 2abe
000001b0: 6147 903e 4282 7e3e 4054 ecbc 6849 0abe
000001c0: b472 2bbe 507e 9abd 0a28 cfbe 8b13 d9bd
000001d0: f34d 143e e085 e4be 3df8 babc 3841 12be
000001e0: f59b 063e 2980 a93d e74b 51bd 3805 fabe
000001f0: ccf0 f8be 06cf 95be 09f3 8a3d 5acc a93e
00000200: 17bb 893e 3558 a3be 729a 003e ca17 0ebe
00000210: b7af 413e 474b c03e 25c9 b13e 6cf7 01be
00000220: ac60 e0be f641 d73d 24d8 aabe 8856 dbbd
00000230: e8bd 7f3d 5835 94bd 9f47 79be bc3d 6e3e
00000240: 3563 6abe b5ed 9d3e 93e5 34be 02df c93e
00000250: 89f7 89bd 9bdb 9b3d 8f3a a83e 996a 5abd
00000260: c8ed bbbe 74b7 ec3d acf0 7bbe 5598 78be
00000270: 6e5e 913e ac29 ecbe c5d3 a63e 589c f9bd
00000280: d369 72bd 078b d0be d0de 4d3e bd4c 0a3e
00000290: a131 4bbe 2023 823c 4560 d83e 3008 2c3e
000002a0: cc08 d03e b8c0 123e 4ba1 843e cc7e 9bbe
000002b0: e589 803e 87fa 33bc f05c c53e 7255 e0be
000002c0: 94f9 f3be 210a d2bc c652 8e3d 82ec 3bbe
000002d0: a861 ff3d 0306 5a3e c7ab 833e bdb3 6c3e
000002e0: 5ade 8a3e f491 f3be 3851 d63e 1a5b 683e
000002f0: 18a0 3f3e d0f2 343d 842a 9a3b 61ed 813e
00000300: 8511 2e3e b085 b1be d61f 9e3e d3eb d43e
00000310: 7336 a9be c55e f63e 78f3 4cbe cc3e 8e3e
00000320: 44f1 d2be cd29 8d3e a0cf edbc c169 a23e
00000330: 6a55 85be fa6e 4b3e 0277 97be 4752 74bd
00000340: 6b41 923e addd 953e 1ba4 ca3e b06c 4abd
00000350: d146 a23e 8cd7 93be 3b01 f8bd fe6a d3be
00000360: ee66 9ebe df71 c63e 315c 423e 6449 793e
00000370: e581 173c d18d 713e 14cc c63d 516d 9f3e
00000380: 7cc4 b43d fb2b acbb dbd3 463e dd34 9a3e
00000390: 304c a33d 2453 6b3e 8aed 933d c310 fabd
000003a0: 2b42 403e cbaa a2bd 2026 b53e b463 d6be
000003b0: 2066 68bd 0471 a33e eaf2 dfbe fcb5 9abe
000003c0: c09e 7d3e 841a f1be 419f c33d ecff 143e
000003d0: d61c 0d3e 3799 a33d ac83 5bbd 9a7d 21be
000003e0: 2e0d 63be 0c75 94be 0016 5cbc 37ec 4b3e
000003f0: e816 fbbe 1a7d c23e a34b 3fbd ee8f 583d

fc2.weight f4 [256, 256]
0.0003398101 0.016100682 -0.015523601 0.10982916 -0.0338329 -0.011758581 0.043852527 0.09366436
-0.052130267 0.018166788 -0.066121586 -0.07858527 -0.002540404 -0.12208623 -0.010593389 -0.043490686
0.120097324 0.036661774 -0.05000066 -0.0876163 -0.054841243 -0.061758883 -0.07316087 0.1203239
0.10653167 0.12863006 -0.018190043 0.0042653084 -0.05080332 -0.011136085 0.03536275 -0.031176649
-0.017223375 0.026844097 -0.09386182 -0.045148425 -0.11252525 -0.044200607 -0.015567251 -0.05381287
0.042345278 0.034923054 0.04988693 0.03763941 0.001435861 -0.06796178 -0.042899013 0.04919497
-0.033953868 -0.037674624 -0.045960672 -0.10862999 -0.041454017 -0.0006488875 -0.010301636 -0.06317203
-0.053812884 0.09241722 0.003946956 -0.035670698 -0.094770364 0.0047675148 -0.026014091 0.052870736
-0.013939172 0.044512603 -0.07851939 -0.06333171 -0.0029446594 0.05152298 -0.032718815 0.011835575
0.03647552 0.009209711 0.061314955 -0.07244437 -0.09329252 0.022877634 0.04988598 -0.08922626
-0.00014527887 -0.035472058 -0.024716191 -0.121946074 0.05417429 -0.045275826 -0.11388746 0.0011086613
-0.0033051528 0.09008345 -0.10862525 -0.044606186 -0.059323914 0.023049295 -0.08759825 -0.018849064
-0.042828206 -0.09816488 -0.049131 0.031234711 -0.03915482 -0.052717417 -0.04957729 -0.01718982
-0.033396464 0.033371538 -0.035419296 -0.010184988 -0.006624917 0.038689464 -0.020194031 -0.0099864155
-0.042378984 -0.0158659 -0.046816126 0.029251141 -0.03050831 -0.039522037 -0.030313617 -0.046178065
-0.12912811 -0.034068856 0.04259789 -0.015787862 -0.060295448 -0.0502628 -0.0049140276 -0.060471416
0.05457902 -0.07650943 -0.13063052 -0.124133304 -0.11975148 -0.004430598 -0.06064847 0.05806329
0.023558512 -0.021897962 -0.049971916 0.03153392 -0.11550825 -0.021702789 -0.047490902 -0.011139307
0.05781443 -0.09003722 0.03590422 -0.13476545 -0.08993418 -0.003839139 -0.05688257 0.05365473
-0.05124055 -0.07772213 -0.029214613 0.05938226 0.0849974 0.023943342 -0.009537633 -0.037360974
-0.03030654 0.038584873 -0.022352098 0.0011810525 0.11502193 0.061970472 -0.065354764 -0.051292498
-0.084913805 0.028777167 -0.07628725 -0.059746772 -0.06133936 0.091951594 -0.025885532 -0.03576935
-0.054594345 -0.040860627 -0.09567554 -0.012552377 -0.004556723 -0.03493971 0.04648263 -0.038660027
-0.027799888 -0.046343513 -0.060746647 -0.041486297 0.0013592807 -0.038835727 -0.016328359 -0.14418359
-0.024926167 0.062261023 -0.059034105 -0.058494512 0.06925316 -0.031038104 -0.055494737 -0.039509315
0.03956513 -0.059270896 0.04656844 -0.11426501 0.058957644 -0.054897383 0.029385315 0.066358745
-0.021489797 0.044266574 0.041010767 -0.05993288 -0.032180887 -0.023823954 -0.019865975 0.025517002
-0.002769187 -0.03247257 -0.070553616 -0.120427 0.003070873 -0.064056486 -0.04592914 0.0029669788
-0.05370039 -0.093692645 -0.04896363 -0.089896925 -0.00783647 0.018953273 -0.079471916 0.055752527
-0.03711792 0.00607272 -0.12859526 -0.010877043 -0.0061600786 -0.091261394 -0.034329243 0.01990842
-0.023197185 -0.010130554 -0.12581238 0.043345544 -0.006598948 0.10088383 -0.025029246 0.040304303
0.030017767 0.03574591 0.007871315 -0.066826686 0.062117547 0.03743922 -0.018600557 0.09940438
00000000: 8a28 b239 94e5 833c b456 7ebc 1cee e03d
00000010: 5e94 0abd 10a7 40bc b59e 333d 1ad3 bf3d
00000020: 8c86 55bd 84d2 943c c16a 87bd 50f1 a0bd
00000030: e87c 26bb 5808 fabd e58f 2dbc 4a23 32bd
00000040: 96f5 f53d a82a 163d 7ecd 4cbd 2d70 b3bd
00000050: 36a1 60bd e2f6 7cbd 5ed5 95bd 606c f63d
00000060: 472d da3d 99b7 033e 4903 95bc 00c4 8b3b
00000070: 2417 50bd 2074 36bc 88d8 103d 2c66 ffbc
00000080: 0918 8dbc 27e8 db3c a03a c0bd 8eed 38bd
00000090: a373 e6bd b20b 35bd c80d 7fbc e26a 5cbd
000000a0: 3e72 2d3d 7a0b 0f3d 3d56 4c3d c82b 1a3d
000000b0: 8033 bc3a 8c2f 8bbd e0b6 2fbd aa80 493d
000000c0: 3613 0bbd b550 1abd 4241 3cbd 6679 debd
000000d0: b0cb 29bd 1a1a 2aba 31c8 28bc 5660 81bd
000000e0: e66a 5cbd 3d45 bd3d 7755 813b 701b 12bd
000000f0: f716 c2bd d038 9c3b 811b d5bc fc8e 583d
00000100: 2061 64bc d952 363d c6ce a0bd 0eb4 81bd
00000110: 30fb 40bb c309 533d 2a04 06bd 00ea 413c
00000120: 5b67 153d 54e4 163c 6425 7b3d b75d 94bd
00000130: 2610 bfbd e069 bb3c 3e55 4c3d 42bc b6bd
00000140: 0056 18b9 264b 11bd 9c79 cabc ddbe f9bd
00000150: dce5 5d3d 2573 39bd d43d e9bd 8050 913a
00000160: 439b 58bb ac7d b83d ea76 debd fab4 36bd
00000170: a2fd 72bd e0d1 bc3c b666 b3bd 5a69 9abc
00000180: a16c 2fbd ab0a c9bd 963d 49bd f0df ff3c
00000190: ce60 20bd 38ee 57bd 8e11 4bbd aad1 8cbc
000001a0: bbca 08bd 98b0 083d d313 11bd f0de 26bc
000001b0: d515 d9bb d878 1e3d f46d a5bc 109e 23bc
000001c0: 9695 2dbd 34f9 81bc 44c2 3fbd 17a0 ef3c
000001d0: 90ec f9bc dce1 21bd 4354 f8bc 3625 3dbd
000001e0: 293a 04be c98b 0bbd 207b 2e3d 8c55 81bc
000001f0: 5cf8 76bd 5ee0 4dbd da05 a1bb e0b0 77bd
00000200: 408e 5f3d fab0 9cbd 02c4 05be 9a39 febd
00000210: 4440 f5bd 8d2e 91bb 886a 78bd c6d3 6d3d
00000220: c8fd c03c 5b63 b3bc 5aaf 4cbd b629 013d
00000230: 978f ecbd 0cca b1bc d285 42bd a481 36bc
00000240: d3ce 6c3d 6f65 b8bd 4e10 133d f4ff 09be
00000250: 692f b8bd 109a 7bbb b3fd 68bd 10c5 5b3d
00000260: 9ce1 51bd c82c 9fbd 7c53 efbc d03a 733d
00000270: 1e13 ae3d d424 c43c bb43 1cbc d207 19bd
00000280: 6c45 f8bc 2c0b 1e3d bf1b b7bc 8ccd 9a3a
00000290: 9e90 eb3d c0d4 7d3d b8d8 85bd 1518 52bd
000002a0: 4ae7 adbd 18be eb3c 7d3c 9cbd 08b9 74bd
000002b0: fb3e 7bbd 1e51 bc3d e50d d4bc e282 12bd
000002c0: 529e 5fbd 795d 27bd 8af1 c3bd 7ca8 4dbc
000002d0: 9050 95bb f11c 0fbd 9264 3e3d fa59 1ebd
000002e0: 97bc e3bc b2d2 3dbd 7ad1 78bd 89ed 29bd
000002f0: e429 b23a 3612 1fbd 0dc3 85bc dda4 13be
00000300: f631 ccbc 6a05 7f3d bfcd 71bd f197 6fbd
00000310: 9ad4 8d3d 9f43 febc 734e 63bd 85d4 21bd
00000320: 0c0f 223d 0ac6 72bd 8cbe 3e3d c603 eabd
00000330: 927d 713d 14dc 60bd 79b9 f03c 18e7 873d
00000340: 5f0b b0bc de50 353d e8fa 273d 2e7c 75bd
00000350: 1bd0 03bd 742a c3bc f8bd a2bc 0809 d13c
00000360: 407b 35bb f501 05bd 6a7e 90bd 6ea2 f6bd
00000370: b340 493b 0c30 83bd 3220 3cbd a571 423b
00000380: f1f4 5bbd eee1 bfbd 168e 48bd e11b b8bd
00000390: 8a64 00bc e543 9b3c 2cc2 a2bd c35c 643d
000003a0: f608 18bd abfd c63b 7aae 03be a035 32bc
000003b0: 7cda c9bb 41e7 babd d29c 0cbd fc16 a33c
000003c0: 0608 bebc a0fa 25bc f6d4 00be 198b 313d
000003d0: fd3b d8bb 2e9c ce3d 220a cdbc 2016 253d
000003e0: d2e7 f53c 4e6a 123d b0f6 003c 6edc 88bd
000003f0: f86e 7e3d de59 193d 3260 98bc 8694 cb3d

fc2.bias f4 [256]
-0.02862884 0.0049920916 -0.060631715 -0.0029435717 -0.018217726 -0.108777024 0.037007377 -0.109662056
-0.054284915 -0.024506792 -0.04918393 -0.044726744 -0.07183541 -0.09599243 -0.026825275 -0.029393755
-0.052780926 -0.09792551 -0.023580546 -0.10030503 -0.02994811 -0.029918447 -0.08141887 -0.012863837
0.0044827187 -0.113465354 -0.122089066 -0.08202101 -0.07065119 -0.0738101 -0.065518945 -0.043052122
-0.021878792 -0.07731738 -0.044335764 0.04807281 -0.09986734 -0.102696866 -0.033156753 -0.042018443
-0.016723977 -0.011435293 -0.030401297 -0.050038625 -0.075336434 -0.12068239 -0.014756315 0.1682346
0.17922269 -0.06390045 -0.04867163 0.11560751 0.1756621 0.0051839994 -0.055203855 -0.066243
-0.05479855 -0.001490466 -0.040345557 -0.011044266 -0.00054813176 -0.004653519 0.08787335 -0.033619978
-0.023936786 0.0815389 -0.04502364 0.030862078 -0.030646516 -0.028999552 -0.04052048 0.033847228
0.005898693 0.037407544 -0.07564747 -0.06703403 -0.036215384 -0.049002487 -0.09617689 -0.043153785
-0.07298887 -0.049484104 -0.06584294 -0.03520133 -0.08442619 -0.032691017 -0.07575571 -0.025961274
-0.040498845 -0.0787507 -0.107319765 -0.06716614 -0.019503571 -0.027244918 -0.058516625 -0.039092004
-0.036375463 -0.10848248 -0.08482749 -0.0734343 -0.10360923 0.029380247 -0.0403538 0.057342023
-0.038129367 -0.010212359 -0.11235948 -0.10898386 -0.083398424 0.008053658 -0.016509734 -0.031374007
-0.057577625 -0.07235627 -0.041054837 -0.016319804 -0.033635676 -0.06308677 -0.055660613 0.0052355407
0.0942557 -0.11471585 -0.015002266 -0.026614066 -0.008465289 -0.071888566 -0.024809713 -0.066632874
-0.026666632 -0.029723816 0.05758978 -0.044386294 0.088312715 -0.075426035 -0.08772909 -0.051483296
-0.00096629065 0.004965423 -0.0722778 -0.07412272 0.061822854 -0.12166665 -0.007787754 -0.040698715
-0.11303192 0.035480313 -0.009724344 -7.8476965e-05 -0.07849875 -0.040562004 -0.020754805 -0.033261187
-0.027354285 0.041835375 -0.002110621 -0.08325763 0.04430379 -0.030807078 0.009508591 0.04024356
-0.019615512 -0.05319196 0.0009507275 0.014573947 -0.021828992 0.09383341 -0.081784435 -0.029398827
-0.008071881 0.0067461045 -0.110052906 -0.029348306 -0.024342574 -0.019852653 -0.017907145 -0.07527156
-0.0053536417 -0.010481442 -0.06367917 -0.08159359 0.019846 -0.003901571 -0.027902493 -0.07050548
-0.11902103 -0.041369334 -0.0029885725 -0.0070772497 0.0013341084 -0.03616447 0.006095228 0.12217026
-0.09568376 -0.00233794 -0.038829975 -0.0008643509 0.026309738 -0.016097963 -0.03410487 0.14136837
0.008209728 -0.046257492 0.11910487 -0.07812737 -0.0054069236 -0.11944532 -0.026963778 0.20194893
-0.015467048 -0.113534234 -0.051138088 -0.077362835 -0.036073454 -0.063265115 -0.07856616 -0.09582197
-0.07988192 -0.045871433 0.00041422466 -0.020268416 0.094556116 -0.0114674345 -0.1038641 -0.11322036
-0.07771736 -0.11852797 -0.04383569 -0.063930966 -0.09606461 -0.007356614 -0.056442305 0.005783216
-0.03076039 -0.11680092 -0.0075256946 -0.068824984 0.0021801498 -0.031603787 -0.04327751 0.059421755
0.00524877 -0.1192622 -0.056631166 -0.079326026 -0.071780615 -0.11531912 -0.023193486 -0.05538824
0.015752826 -0.07048814 0.1395805 -0.05398757 -0.10999057 -0.00042297578 -0.001274502 0.0037097891
00000000: 0787 eabc b394 a33b f658 78bd f0e8 40bb
00000010: 573d 95bc 7dc6 debd 0c95 173d 8096 e0bd
00000020: dc59 5ebd 78c2 c8bc 1775 49bd 6433 37bd
00000030: 721e 93bd ae97 c4bd aec0 dbbc 2ccb f0bc
00000040: d030 58bd 2b8d c8bd fd2b c1bc b96c cdbd
00000050: bd55 f5bc 8817 f5bc f0be a6bd d8c2 52bc
00000060: c5e3 923b 8660 e8bd d509 fabd a2fa a7bd
00000070: 92b1 90bd c029 97bd cc2e 86bd 6c57 30bd
00000080: 273b b3bc 9358 9ebd 6b99 35bd ffe7 443d
00000090: 3f87 ccbd bc52 d2bd 60cf 07bd 881b 2cbd
000000a0: b900 89bc 185b 3bbc 240c f9bc 4df5 4cbd
000000b0: fd49 9abd 5428 f7bd 79c4 71bc b145 2c3e
000000c0: 2786 373e 3dde 82bd e75b 47bd a1c3 ec3d
000000d0: c4e0 333e 8ade a93b 701d 62bd 69aa 87bd
000000e0: 7274 60bd bd5b c3ba 6241 25bd 02f3 34bc
000000f0: 80b0 0fba 8c7c 98bb f1f6 b33d 1ab5 09bd
00000100: 1417 c4bc defd a63d b56a 38bd 78d2 fc3c
00000110: 670e fbbc 7890 edbc cef8 25bd 64a3 0a3d
00000120: d349 c13b a738 193d 10ed 9abd 2349 89bd
00000130: 9556 14bd d5b6 48bd 64f8 c4bd 06c2 30bd
00000140: 307b 95bd d8af 4abd aad8 86bd 452f 10bd
00000150: a3e7 acbd 04e7 05bd cf25 9bbd bdac d4bc
00000160: 1ee2 25bd 0c48 a1bd 77ca dbbd 678e 89bd
00000170: f4c5 9fbc bc30 dfbc 21af 6fbd f01e 20bd
00000180: 70fe 14bd 102c debd 09ba adbd b964 96bd
00000190: 1331 d4bd d8ae f03c 074a 25bd 78df 6a3d
000001a0: 8a2d 1cbd bd51 27bc ba1c e6bd ee32 dfbd
000001b0: cbcc aabd 7df3 033c 6c3f 87bc 0882 00bd
000001c0: 84d6 6bbd 862f 94bd 1e29 28bd 1cb1 85bc
000001d0: 90c5 09bd a333 81bd 62fc 63bd e68e ab3b
000001e0: 2209 c13d 25f0 eabd 10cc 75bc be05 dabc
000001f0: ffb1 0abc 503a 93bd bd3d cbbc d176 88bd
00000200: fb73 dabc 5c7f f3bc 43e3 6b3d 67ce 35bd
00000210: 4cdd b43d f778 9abd 4fab b3bd 26e0 52bd
00000220: ab4e 7dba fdb4 a23b 6206 94bd a7cd 97bd
00000230: f639 7d3d 5d2c f9bd 6a30 ffbb b2b3 26bd
00000240: 477d e7bd ce53 113d db52 1fbc 0094 a4b8
00000250: f4c3 a0bd 5824 26bd fb05 aabc e23c 08bd
00000260: 1816 e0bc 925b 2b3d 5852 0abb fa82 aabd
00000270: e477 353d 205f fcbc ecc9 1b3c 6ed6 243d
00000280: b6b0 a0bc d0df 59bd 3e3a 793a 90c7 6e3c
00000290: b7d2 b2bc bb2b c03d 997e a7bd cfd5 f0bc
000002a0: ec3f 04bc 6d0e dd3b 6b63 e1bd dc6b f0bc
000002b0: 146a c7bc 08a2 a2bc 01b2 92bc fa27 9abd
000002c0: 9a6d afbb 5bba 2bbc 3a6a 82bd 8a1a a7bd
000002d0: 1494 a23c 80b1 7fbb c593 e4bc 2d65 90bd
000002e0: 4cc1 f3bd e472 29bd eddb 43bb 46e8 e7bb
000002f0: 40dd ae3a 3221 14bd 7aba c73b 6734 fa3d
00000300: d9f5 c3bd 2038 19bb 2e0c 1fbd 9b95 62ba
00000310: 8587 d73c e0df 83bc 8cb1 0bbd dfc2 103e
00000320: 1882 063c 7f78 3dbd 41ed f33d 3e01 a0bd
00000330: 902c b1bb bf9f f4bd 24e3 dcbc b3cb 4e3e
00000340: 8069 7dbc a384 e8bd 2c76 51bd 6870 9ebd
00000350: c2c1 13bd 2491 81bd 4be7 a0bd 4f3e c4bd
00000360: 2299 a3bd afe3 3bbd 4b2c d939 f309 a6bc
00000370: a3a6 c13d e8e1 3bbc b4b6 d4bd 13e0 e7bd
00000380: 472a 9fbd cbbe f2bd 0d8d 33bd 3dee 82bd
00000390: 86bd c4bd c00f f1bb 0c30 67bd 2281 bd3b
000003a0: 37fd fbbc 5235 efbd 1a9a f6bb 1df4 8cbd
000003b0: d8e0 0e3b f972 01bd c243 31bd 3a64 733d
000003c0: e0fd ab3b be3f f4bd 15f6 67bd af75 a2bd
000003d0: b701 93bd 6e2c ecbd 4400 bebc c7de 62bd
000003e0: 120c 813c 165c 90bd 31ee 0e3e 1222 5dbd
000003f0: bc42 e1bd d9c2 ddb9 310d a7ba ef1f 733b

fc3.weight f4 [256, 256]
-0.0043710135 -0.027510645 -0.078232154 -0.06029591 -0.03470361 0.056037597 0.041073166 -0.032486513
0.024125688 -0.06788872 0.0059222863 -0.044321947 0.016752288 0.001162909 -0.0440147 -0.010390028
-0.010020147 -0.10582508 -0.093259566 -0.039389454 -0.10942586 -0.07129179 -0.020973966 0.04876723
-0.006958188 -0.011284861 -0.006499775 -0.07822455 0.080544725 -0.06416854 -0.051374983 -0.0072829523
-0.08856111 -0.096868195 -0.0429888 0.075594105 -0.056721915 -0.06909941 0.05299694 0.031789303
-0.0077154525 -0.005728011 -0.031086689 -0.044733535 -0.026343659 -0.023787457 -0.088736616 -0.0970528
-0.05743347 -0.0028735101 -0.09327732 -0.01365275 -0.049682535 -0.027782002 0.05758293 -0.04075161
0.06219448 -0.09572053 -0.006812662 -0.065656304 0.046575755 -0.12216157 -0.08839327 -0.035396405
0.048570797 -0.097776 -0.087515354 0.05448453 -0.10255053 0.021031126 0.017493766 0.05139131
-0.0131971985 -0.11098567 -0.015305934 -0.04521865 -0.10817155 -0.009762193 0.056421183 0.022254959
-0.0029215638 -0.002267665 0.007532969 0.051569834 -0.029846283 -0.0144043695 -0.005202763 -0.09931705
-0.01790627 -0.10084934 -0.0643659 -0.028082522 0.0020999983 -0.09514185 -0.059482113 0.032220088
-0.015355367 0.056513034 -0.024477474 0.11429363 0.10060752 -0.022093765 0.015829436 -0.049631026
-0.013165707 -0.10402895 -0.011041317 -0.043149743 -0.060982488 -0.040552527 -0.025034413 -0.03313095
0.04797385 -0.0050029396 -0.07688917 0.013586663 0.04879108 -0.026525898 -0.11823564 -0.036291707
-0.12234901 -0.06869015 0.051172808 -0.002416541 -0.009864796 -0.021604948 -0.0067175324 -0.084893815
-0.05094221 0.02091258 -0.008137207 -0.086122416 -0.038699966 -0.008881804 -0.04767638 -0.03096686
-0.06754868 -0.017981634 0.043995686 -0.07051242 0.046695523 -0.034665346 0.028068371 0.058210842
-0.08264437 -0.077988826 -0.052958123 0.008073434 -0.02602533 0.06049499 -0.08132333 -0.009111948
0.010927372 0.013115875 -0.086367555 -0.076886 0.07407447 -0.011724702 -0.004708918 0.014620237
-0.00028610506 -0.11424702 -0.019485127 -0.03276693 -0.09743797 0.0016275401 -0.08939171 0.019588599
-0.044722393 -0.095406696 -0.049997386 -0.07559984 0.047686443 -0.03340202 -0.019275524 -0.048702378
-0.064671196 -0.048172094 -0.0343134 0.09222821 -0.038344406 -0.0245623 -0.08966164 -0.11593345
-0.0035813907 -0.05162798 -0.10059103 -0.012094907 -0.057828464 -0.024233362 -0.017091163 -0.07468655
-0.04419858 -0.041984744 -0.10733354 -0.099358894 -0.11432171 0.057428263 -0.038448088 -0.10218524
0.0538114 -0.029350378 -0.04049074 -0.10220662 -0.115020044 0.027589086 -0.0037344396 -0.08385644
0.03617777 -0.045506448 -0.10150782 -0.017244248 0.049672045 -0.09970981 0.09837686 -0.07206015
-0.09790763 -0.06793209 -0.016821988 -0.113056935 -0.048456434 -0.0051440904 0.010598339 -0.034047384
-0.03761118 -0.100363754 -0.058119066 -0.054048184 -0.022287697 0.03760688 0.023089927 0.03969308
-0.107085936 -0.02625955 0.0886594 -0.112446666 -0.10207356 -0.11169816 -0.037963666 -0.03236881
0.011775807 -0.0047092643 0.059022684 -0.011834007 -0.052014217 0.00089207647 -0.05697459 0.04558359
-0.044229213 -0.000572184 -0.07506049 -0.061663635 -0.06893199 -0.08036303 -0.01366276 -0.09862419
00000000: b83a 8fbb 015e e1bc 2e38 a0bd d8f8 76bd
00000010: 5f25 0ebd ae87 653d 563c 283d 9410 05bd
00000020: 3ca3 c53c 3e09 8bbd bd0f c23b ee8a 35bd
00000030: 183c 893c c06c 983a c248 34bd f03a 2abc
00000040: 8b2b 24bc d2ba d8bd dffe bebd d656 21bd
00000050: aa1a e0bd 6e01 92bd 98d1 abbc 26c0 473d
00000060: 8301 e4bb 23e4 38bc 11fc d4bb 3134 a0bd
00000070: a2f4 a43d cc6a 83bd 936e 52bd d5a5 eebb
00000080: 875f b5bd d562 c6bd 0615 30bd 15d1 9a3d
00000090: 3d55 68bd fe83 8dbd 5213 593d 8035 023d
000000a0: e8d1 fcbb 0ab2 bbbb 83a9 febc 833a 37bd
000000b0: a8ce d7bc eadd c2bc 8bbb b5bd 9ec3 c6bd
000000c0: 5c3f 6bbd 8051 3cbb 2e08 bfbd c9af 5fbc
000000d0: ea7f 4bbd 1597 e3bc 14dc 6b3d 29eb 26bd
000000e0: a4bf 7e3d 2009 c4bd c03c dfbb d076 86bd
000000f0: 38c6 3e3d d82f fabd 8807 b5bd d2fb 10bd
00000100: 2cf2 463d c93e c8bd 403b b3bd 2c2b 5f3d
00000110: 0306 d2bd 7849 ac3c 164f 8f3c b27f 523d
00000120: 1039 58bc 744c e3bd bdc5 7abc 3137 39bd
00000130: 0c89 ddbd 9bf1 1fbc e619 673d 0850 b63c
00000140: b577 3fbb 1b9d 14bb 20d7 f63b e43a 533d
00000150: 3180 f4bc 4e00 6cbc f07b aabb bd66 cbbd
00000160: 2cb0 92bc 198a cebd 45d2 83bd 510d e6bc
00000170: 20a0 093b bbd9 c2bd 84a3 73bd 36f9 033d
00000180: 1495 7bbc 367a 673d fc84 c8bc c712 ea3d
00000190: 510b ce3d fcfd b4bc bcac 813c e749 4bbd
000001a0: fab4 57bc 210d d5bd a4e6 34bc c9bd 30bd
000001b0: c6c8 79bd 681a 26bd f814 cdbc 52b4 07bd
000001c0: 3a80 443d b3ef a3bb 1278 9dbd 989a 5e3c
000001d0: 28d9 473d d74c d9bc 8725 f2bd 9da6 14bd
000001e0: 1e92 fabd 6cad 8cbd 949a 513d d55e 1ebb
000001f0: f49f 21bc dcfc b0bc bf1e dcbb cfdc adbd
00000200: c7a8 50bd dc50 ab3c eb51 05bc f360 b0bd
00000210: db83 1ebd fc84 11bc 4f48 43bd 36ae fdbc
00000220: f656 8abd 384e 93bc d234 343d d168 90bd
00000230: ce43 3f3d 40fd 0dbd a4ef e53c 7e6e 6e3d
00000240: 7441 a9bd 9bb8 9fbd 9eea 58bd 7046 043c
00000250: 1333 d5bc 98c9 773d d98c a6bd 484a 15bc
00000260: b808 333c f8e3 563c 79e1 b0bd 6876 9dbd
00000270: 5bb4 973d f718 40bc 444d 9abb b889 6f3c
00000280: 5f00 96b9 57fa e9bd 469f 9fbc 9e36 06bd
00000290: 8f8d c7bd 2f53 d53a 0013 b7bd 4578 a03c
000002a0: d42e 37bd 9664 c3bd 0fca 4cbd 17d4 9abd
000002b0: dc52 433d 8ed0 08bd b4e7 9dbc 257c 47bd
000002c0: 5572 84bd 1a50 45bd 358c 0cbd 25e2 bc3d
000002d0: 060f 1dbd e036 c9bc 86a0 b7bd 846e edbd
000002e0: c4b5 6abb dc77 53bd ac02 cebd b829 46bc
000002f0: 8add 6cbd 0b85 c6bc c402 8cbc 43f5 98bd
00000300: 9209 35bd 32f8 2bbd b0d1 dbbd ad7c cbbd
00000310: 8021 eabd e639 6b3d be7b 1dbd 7f46 d1bd
00000320: 5869 5c3d 3470 f0bc 9ed9 25bd b451 d1bd
00000330: a18f ebbd 8202 e23c 80bd 74bb edbc abbd
00000340: 242f 143d f864 3abd 55e3 cfbd cf43 8dbc
00000350: ea74 4b3d a834 ccbd cf79 c93d 4694 93bd
00000360: cc83 c8bd fb1f 8bbd 44ce 89bc 658a e7bd
00000370: 417a 46bd c28f a8bb a8a4 2d3c 4575 0bbd
00000380: 2e0e 1abd 838b cdbd 420e 6ebd a161 5dbd
00000390: b094 b6bc ac09 1a3d 1627 bd3c 3695 223d
000003a0: df4f dbbd 451e d7bc 0f93 b53d 704a e6bd
000003b0: f10b d1bd 01c2 e4bd ca7f 1bbd 2895 04bd
000003c0: 50ef 403c 2c50 9abb c5c1 713d 6ce3 41bc
000003d0: dc0c 55bd 3dda 693a 305e 69bd dcb5 3a3d
000003e0: b129 35bd 9efe 15ba 50b9 99bd 0293 7cbd
000003f0: 372c 8dbd 5f95 a4bd c5d9 5fbc 7bfb c9bd

fc3.bias f4 [256]
-0.0038028187 -0.11740707 0.030365063 -0.020160351 -0.003266091 -0.06363817 0.14472154 0.027583256
-0.054245643 -0.043584142 -0.06233061 -0.10462311 -0.047814704 0.21107836 -0.11321473 -0.15727577
-0.12211062 -0.020490333 -0.120868206 -0.09621315 -0.06645446 0.40470383 -0.13997059 0.034416888
-0.054583214 0.24535576 -0.03948145 -0.08979015 -0.08509471 -0.1011929 -0.10683309 -0.17401123
-0.046779193 0.03636711 -0.073242255 -0.18864186 0.0016808638 0.022769703 -0.099006824 0.0046111476
0.06801175 -0.032843098 -0.15001146 -0.04725488 -0.026246056 -0.023300946 0.2676305 -0.04671356
-0.00054522057 0.06898047 -0.11164164 -0.01750005 0.017543552 -0.0934386 -0.08941257 -0.0835741
0.18487939 -0.00028737378 -0.026457934 -0.09949833 -0.02727255 -0.05137886 -0.05990417 0.012987099
-0.07353334 -0.011492532 -0.043892927 -0.06124588 -0.0016382434 -0.0836503 -0.029326009 -0.042872965
-0.110079415 -0.05309032 -0.027631668 -0.11461498 -0.05214155 -0.0021821763 0.07998468 -0.08765965
-0.11011842 -0.018096713 -0.098722935 -0.061516073 0.120933905 -0.09793421 0.058327112 -0.02508268
-0.007336819 -0.07966232 0.018723994 0.026938785 0.014143679 -0.08934764 -0.059859186 -0.036216468
0.2959276 -0.030374557 -0.06255681 0.07908741 -0.0127903 -0.08526624 -0.08256885 0.33512047
-0.07522602 -0.14667195 0.102350146 -0.109452814 -0.10331629 0.3628005 -0.093161106 -0.10694278
-0.01225461 -0.08710063 -0.07289823 -0.012661038 -0.088273786 -0.0101813795 -0.08581383 -0.00081832195
0.00047079008 -0.06254673 -0.013802033 -0.023727875 -0.07904976 -0.0015110291 -0.0062995465 0.0023784533
0.16073704 -0.080225535 0.04363569 -0.13679382 0.02349087 -0.06232003 -0.109931126 -0.042344995
0.13789172 -0.059509784 -0.09577063 -0.02796863 0.117398985 -0.09379714 -0.027037378 -0.0047038915
-0.075725086 -0.09340338 0.0034673347 -0.053106107 -0.05871425 -0.03988009 0.014493814 0.21272631
-0.07621147 -0.09105267 -0.03961256 -0.00065292255 0.035577416 -0.07884537 0.09451841 -0.072239935
-0.022710502 -0.012362079 -0.03689631 0.0001519652 -0.09891737 -0.006604285 -0.003072744 -0.070946
-0.07293737 0.2580621 -0.040755015 -0.03952373 0.2510095 0.065503486 -0.026723824 -0.06353734
-0.09486841 -0.01329973 -0.078925766 0.20146221 -0.071706384 -0.020811874 -0.060147274 -0.10814818
-0.11128461 0.014007744 -0.10747282 -0.11345646 -0.1356818 0.00914873 -0.0026763694 -0.032184027
0.23637278 -0.063047186 -0.09255085 -0.06359156 0.25356814 -0.068188876 -0.034448966 -0.0475566
-0.04125606 -0.014408106 -0.032534637 -0.012129104 -0.048346892 0.10151014 -0.044427704 -0.110231355
-0.043452084 -0.04856494 -0.06967567 -0.07213958 -0.042758238 -0.07900797 -0.10495022 -0.05163122
0.00022027918 -0.067235485 0.023464082 0.067589775 -0.03515987 0.29040694 -0.07301315 -0.023227938
-0.059288707 -0.10527024 -0.09281103 -0.122877195 -0.04600703 -0.09157994 -0.009773115 -0.03592174
-0.06599027 0.017551966 -0.050964992 -0.002400053 -0.11069773 -0.020009443 -0.11381927 -0.09759752
-0.020376425 0.067365155 -0.07842387 -0.07062362 -0.051481187 0.096048385 0.18685731 -0.040301125
-0.08337822 -0.07256033 -0.108909786 -0.018929675 0.0010807537 0.069955744 -0.17003337 -0.06713363
00000000: b638 79bb 1e73 f0bd 27c0 f83c 5227 a5bc
00000010: ea0b 56bb bb54 82bd e231 143e 48f6 e13c
00000020: ae30 5ebd 4985 32bd 624e 7fbd a444 d6bd
00000030: 5ad9 43bd ed24 583e 20dd e7bd e60c 21be
00000040: 2215 fabd 58db a7bc c089 f7bd 660b c5bd
00000050: 4719 88bd 5735 cf3e 7354 0fbe b9f8 0c3d
00000060: a692 5fbd 8a3e 7b3e 4db7 21bd e6e3 b7bd
00000070: 2346 aebd 393e cfbd 4fcb dabd 0030 32be
00000080: 8a9b 3fbd aef5 143d 0900 96bd 552b 41be
00000090: 6e50 dc3a 8787 ba3c 17c4 cabd 1c19 973b
000000a0: bf49 8b3d 7c86 06bd 9b9c 19be 558e 41bd
000000b0: f801 d7bc a0e1 bebc dd06 893e b856 3fbd
000000c0: 22ed 0eba a245 8d3d 5fa4 e4bd 445c 8fbc
000000d0: 7fb7 8f3c bd5c bfbd f01d b7bd e628 abbd
000000e0: 0651 3d3e a8aa 96b9 4fbe d8bc c8c5 cbbd
000000f0: af6a dfbc a472 52bd 135e 75bd d7c7 543c
00000100: a698 96bd 2c4b 3cbc 12c9 33bd f6dc 7abd
00000110: 54ba d6ba d950 abbd 193d f0bc 909b 2fbd
00000120: 5171 e1bd 3c75 59bd cf5b e2bc 42bb eabd
00000130: 6192 55bd d802 0fbb 02cf a33d e786 b3bd
00000140: c485 e1bd 8f3f 94bc 402f cabd 47f8 7bbd
00000150: 32ac f73d bb91 c8bd 69e8 6e3d 317a cdbc
00000160: b369 f0bb 0026 a3bd 1063 993c baae dc3c
00000170: e4ba 673c e5fb b6bd e82e 75bd b857 14bd
00000180: d383 973e 10d4 f8bc c91d 80bd 94f8 a13d
00000190: 688e 51bc 11a0 aebd db19 a9bd e994 ab3e
000001a0: 1910 9abd 2c31 16be f49c d13d cc28 e0bd
000001b0: 7e97 d3bd fdc0 b93e 40cb bebd d104 dbbd
000001c0: 8fc7 48bc d161 b2bd ab4b 95bd 3e70 4fbc
000001d0: e3c8 b4bd cdcf 26bc 29bf afbd a884 56ba
000001e0: 60d4 f639 8018 80bd ec21 62bc f660 c2bc
000001f0: d7e4 a1bd b90d c6ba 6d6c cebb d3df 1b3b
00000200: 4098 243e 494d a4bd 56bb 323d ae13 0cbe
00000210: ed6f c03c 4a43 7fbd 9223 e1bd f271 2dbd
00000220: 7d33 0d3e 88c0 73bd 6423 c4bd 781e e5bc
00000230: e16e f03d b718 c0bd 7e7d ddbc 1a23 9abb
00000240: c115 9bbd 454a bfbd 393c 633b ca85 59bd
00000250: 5a7e 70bd 4e59 23bd 7677 6d3c edd4 593e
00000260: c214 9cbd d279 babd c840 22bd e428 2bba
00000270: a0b9 113d ae79 a1bd de92 c13d 88f2 93bd
00000280: 600b babc 518a 4abc 9620 17bd d958 1f39
00000290: 3195 cabd c268 d8bb 1760 49bb 234c 91bd
000002a0: 3060 95bd b720 843e bbee 26bd a2e3 21bd
000002b0: 5184 803e b126 863d eceb dabc dd1f 82bd
000002c0: 5e4a c2bd 1ce7 59bc d5a3 a1bd 1c4c 4e3e
000002d0: ccda 92bd aa7d aabc fd5c 76bd cb7c ddbd
000002e0: 30e9 e3bd bd80 653c b61a dcbd dc5b e8bd
000002f0: 2bf0 0abe 8ee4 153c 0766 2fbb 66d3 03bd
00000300: b50b 723e e21e 81bd 4d8b bdbd 4b3c 82bd
00000310: afd3 813e 9ca6 8bbd 5c1a 0dbd b6ca 42bd
00000320: 1dfc 28bd fa0f 6cbc 0a43 05bd 26b9 46bc
00000330: 6407 46bd 8ce4 cf3d d3f9 35bd fac0 e1bd
00000340: d0fa 31bd 08ec 46bd 1eb2 8ebd ebbd 93bd
00000350: 4323 2fbd eece a1bd 24f0 d6bd 427b 53bd
00000360: befa 6639 c2b2 89bd bf37 c03c 826c 8a3d
00000370: cc03 10bd 38b0 943e eb87 95bd 8448 bebc
00000380: b7d8 72bd ec97 d7bd b613 bebd 0aa7 fbbd
00000390: de71 3cbd 438e bbbd 6a1f 20bc ad22 13bd
000003a0: e825 87bd 24c9 8f3c abc0 50bd 354a 1dbb
000003b0: 7eb5 e2bd d8ea a3bc 141a e9bd 35e1 c7bd
000003c0: 76ec a6bc bef6 893d b29c a0bd 1ea3 90bd
000003d0: f0dd 52bd 04b5 c43d 8657 3f3e cb12 25bd
000003e0: 33c2 aabd 839a 94bd 180c dfbd 6812 9bbc
000003f0: 14a8 8d3a f544 8f3d 3a1d 2ebe 5b7d 89bd

classifier.weight f4 [16, 256]
-0.016602492 -0.04386185 -0.18014279 -0.11838963 0.07552318 -0.06533551 -0.22642222 0.038698073
0.01952642 -0.00725578 0.04901918 -0.01407485 -0.04722083 -0.14907393 -0.03766458 -0.08476158
-0.004940054 0.040308524 -0.036275115 -0.056252655 -0.055331673 -0.6837204 0.096798345 -0.2623453
0.039458442 -0.048409827 0.10553846 -0.0032616763 0.05498849 0.009730471 0.004851838 0.20411362
0.031743504 -0.12632912 -0.117532864 0.063967206 -0.01753711 -0.17159069 -0.05601075 -0.0643249
0.07979466 -0.08683388 0.090364285 0.06525822 -0.11309418 0.041700795 -0.019726053 0.05775137
-0.023908949 -0.16688322 -0.08499687 -0.11371224 -0.15718625 -0.028794464 -0.10503116 -0.11413308
-0.13574445 0.014392555 -0.097304255 0.017956452 -0.059052795 -0.05567293 0.0143746445 -0.048112474
0.091436185 -0.013748712 -0.037502464 -0.16469511 -0.12457005 0.037398018 0.08951663 -0.09919353
0.0298945 -0.04155429 -0.09076057 0.0006405764 -0.06916283 -0.08047806 -0.29683375 0.058744006
-0.05721377 0.11418927 -0.15174842 -0.037813928 -0.23205057 -0.10424309 0.1096138 0.08113474
-0.0030711694 0.081258245 0.037619747 -0.18921544 -0.05479762 -0.087574616 -0.03651856 -0.08352661
-0.4762677 -0.06826394 0.14571887 -0.171471 0.06876799 0.07280177 -0.005778186 -0.5220501
0.0013485814 -0.08900502 -0.24683045 -0.012414219 -0.1314269 -0.6378365 -0.041099332 -0.042900857
-0.078478545 0.0020305144 0.07859935 0.117600925 -0.038389668 0.08398807 0.05845638 -0.0036609995
-0.16076571 -0.05692266 -0.08363103 -0.029188816 -0.01674069 -0.11587183 -0.07116973 -0.013372421
-0.121126816 -0.043004747 -0.07171477 0.09529634 -0.018296786 0.013665197 0.10642257 -0.052998062
-0.24532722 0.000342732 0.096941374 0.007416461 -0.34026533 -0.03330115 -0.12277466 -0.06667972
0.08559741 -0.06320793 -0.06982418 -0.21226344 -0.07890879 0.046282757 0.045038074 -0.3411426
0.023982616 0.027791513 0.06449077 0.020067725 -0.019723952 -0.0160977 -0.110383496 0.065846555
-0.04359609 -0.10923273 -0.055036165 -0.110727645 -0.056990433 -0.09843866 -0.03941635 -0.11237877
0.015816918 -0.24618264 -0.09405719 -0.1722893 -0.038071375 -0.102357246 -0.1643245 0.11309839
-0.026418686 0.014648869 -0.12745926 0.075644135 0.069700934 -0.0884312 -0.020298121 0.016529594
0.09100571 0.0704765 0.015806029 0.0010201435 0.1255993 0.10750449 -0.04977004 0.002044124
-0.10234667 -0.0572901 -0.10597359 0.076178625 -0.60967547 -0.083848454 -0.2846119 -0.058089368
-0.002436818 0.018383948 -0.12054444 -0.0042446386 0.022920886 -0.2781529 0.0024059417 0.051810548
-0.03635712 0.019575372 0.007190795 0.04168892 -0.05070479 -0.023634573 0.016503545 -0.02363923
0.030184874 0.0894206 -0.08084537 -0.039224736 -0.19184093 -0.35856894 -0.12723789 0.0058043054
0.10264596 -0.08024481 -0.06326305 0.0733575 -0.08686218 -0.08482355 -0.10567446 0.021361707
0.057152133 -0.18757252 -0.016393337 0.060432322 -0.1518829 -0.024509817 -0.007893333 0.03872732
-0.06819313 0.052350037 0.118633196 0.058507357 0.10631469 -0.02796196 -0.4869333 -0.052106958
-0.026040815 -0.052529715 0.034245398 -0.016039856 0.0192278 -0.008263526 -0.012507452 -0.19152
00000000: f301 88bc 7ca8 33bd 5a77 38be 4376 f2bd
00000010: e6ab 9a3d a0ce 85bd 3adb 67be df81 1e3d
00000020: dff5 9f3c e5c1 edbb 56c8 483d 339a 66bc
00000030: a16a 41bd d6a6 18be 2d46 1abd 7b97 adbd
00000040: 2de0 a1bb 8d1a 253d 3795 14bd 2f69 66bd
00000050: 77a3 62bd 4d08 2fbf 363e c63d 2052 86be
00000060: 2d9f 213d 6249 46bd 8c24 d83d d9c1 55bb
00000070: 9c3b 613d 8e6c 1f3c 2bfc 9e3b 2903 513e
00000080: 7a05 023d 6c5c 01be 12b5 f0bd 3d01 833d
00000090: fca9 8fbc 78b5 2fbe 876b 65bd c6bc 83bd
000000a0: 626b a33d f6d5 b1bd e910 b93d 1aa6 853d
000000b0: ec9d e7bd 74ce 2a3d 8898 a1bc b38c 6c3d
000000c0: b3dc c3bc 6fe3 2abe d712 aebd f6e1 e8bd
000000d0: 6ff5 20be 5ee2 ebbc 941a d7bd 9bbe e9bd
000000e0: 9800 0bbe c0ce 6b3c 7447 c7bd 6919 933c
000000f0: 58e1 71bd 4c09 64bd a183 6b3c 9611 45bd
00000100: e542 bb3d 4742 61bc 2f9c 19bd d6a5 28be
00000110: 951e ffbd aa2e 193d 7f54 b73d fa25 cbbd
00000120: 4fe5 f43c d534 2abd ade0 b9bd 5bec 273a
00000130: 3ea5 8dbd aed1 a4bd 98fa 97be 8e9d 703d
00000140: fc58 6abd 10dc e93d f063 1bbe c7e2 1abd
00000150: aa9e 6dbe 677d d5bd 337d e03d f829 a63d
00000160: ac45 49bb b96a a63d 2a17 1a3d b1c1 41be
00000170: 7873 60bd 525a b3bd 7c94 15bd 0010 abbd
00000180: 5cd9 f3be f7cd 8bbd 5437 153e 1896 2fbe
00000190: 3bd6 8c3d 1819 953d f056 bdbb 13a5 05bf
000001a0: e2c2 b03a 4448 b6bd 1fc1 7cbe 0265 4bbc
000001b0: c694 06be 4149 23bf c657 28bd cfb8 2fbd
000001c0: 5cb9 a0bd 6112 053b b2f8 a03d c1d8 f03d
000001d0: 7c3e 1dbd f001 ac3d f56f 6f3d 61ed 6fbb
000001e0: c49f 24be bc27 69bd bf46 abbd 621d efbc
000001f0: c623 89bc 364e edbd 6fc1 91bd 0018 5bbc
00000200: 5611 f8bd bf25 30bd 31df 92bd ba2a c33d
00000210: 24e3 95bc fee3 5f3c 14f4 d93d 7f14 59bd
00000220: 0f37 7bbe b6b0 b339 3389 c63d c905 f33b
00000230: 4237 aebe c966 08bd 4871 fbbd 618f 88bd
00000240: b24d af3d 2973 81bd fbff 8ebd 965b 59be
00000250: ef9a a1bd fd92 3d3d d879 383d 3eaa aebe
00000260: 3177 c43c 07ab e33c bd13 843d 1265 a43c
00000270: 2094 a1bc 53df 83bc be10 e2bd 8fda 863d
00000280: d091 32bd 69b5 dfbd 9a6d 61bd 2dc5 e2bd
00000290: cd6e 69bd 359a c9bd 0a73 21bd d726 e6bd
000002a0: 7b92 813c 4d17 7cbe 0ea1 c0bd 9b6c 30be
000002b0: bbf0 1bbd ada0 d1bd af44 28be 21a0 e73d
000002c0: 006c d8bc cf01 703c ae84 02be 50eb 9a3d
000002d0: 5dbf 8e3d 6b1b b5bd 3f48 a6bc 1269 873c
000002e0: 3461 ba3d fc55 903d a57b 813c 56b6 853a
000002f0: 1a9d 003e 502b dc3d abdb 4bbd b6f6 053b
00000300: 229b d1bd 06a9 6abd ae08 d9bd 8a03 9c3d
00000310: b113 1cbf bdb8 abbd a7b8 91be 1eef 6dbd
00000320: 06b3 1fbb ef99 963c 01e0 f6bd 9c16 8bbb
00000330: 95c4 bb3c 0f6a 8ebe 01ad 1d3b 4c37 543d
00000340: 34eb 14bd 885c a03c c3a0 eb3b 00c2 2a3d
00000350: d3af 4fbd 4b9d c1bc 7132 873c 0fa7 c1bc
00000360: 4546 f73c 2622 b73d 4292 a5bd 1eaa 20bd
00000370: f371 44be 5996 b7be a64a 02be 0b32 be3b
00000380: 0c38 d23d 6457 a4bd 0f90 81bd 753c 963d
00000390: cce4 b1bd f8b7 adbd da6b d8bd bffe ae3c
000003a0: 5b18 6a3d 0313 40be 524b 86bc e287 773d
000003b0: 3187 1bbe d0c8 c8bc 0a53 01bc 8aa0 1e3d
000003c0: d7a8 8bbd fe6c 563d f6f5 f23d 69a5 6f3d
000003d0: 84bb d93d 7b10 e5bc 524f f9be 1b6e 55bd
000003e0: 8c53 d5bc 6629 57bd e744 0c3d 0466 83bc
000003f0: 9f83 9d3c bd63 07bc 0eec 4cbc d21d 44be

classifier.bias f4 [16]
-0.22351335 -0.12095348 0.085112445 0.012479151 0.07314052 0.056383964 0.0070238216 0.021232575
0.14587289 0.057910495 0.11525581 0.02891488 0.03904338 0.041160926 -0.06515421 -0.069369875
00000000: afe0 64be 75b6 f7bd 6f4f ae3d 5a75 4c3c
00000010: b2ca 953d dff2 663d 1628 e63b f0ef ad3c
00000020: b45f 153e 8e33 6d3d 3d0b ec3d e6de ec3c
00000030: f4eb 1f3d 5c98 283d 926f 85bd cb11 8ebd
