transfer13_55_57_22_10_12_FullyConnected.pth (torch, 550959 bytes, 8 tensors)

fc1.weight f4 [256, 4]
0.47492924 -0.4471137 -0.45307225 0.31645662 0.013991957 -0.4524628 0.061259113 0.09754316
-0.25575256 -0.16917163 0.47802573 0.37371367 0.17973273 -0.5170104 -0.1300933 -0.07434346
-0.1422875 -0.36004508 0.3030228 -0.120544076 0.17774957 0.28111315 0.17363477 -0.23478836
-0.3511724 -0.10208684 -0.12620658 0.1681664 -0.05326414 0.09864348 -0.46302617 -0.49434364
-0.2241041 0.4665388 -0.2193026 -0.3635307 0.13214691 -0.672453 0.038971867 0.42825383
0.16645464 0.23894845 -0.43311173 0.006615668 -0.3796883 -0.5430659 -0.53506655 0.3438322
0.39190313 -0.39044222 -0.39205676 -0.017136373 0.3663234 -0.5877133 -0.013225426 0.27641872
-0.47232258 0.0068737864 0.4542308 0.13740939 0.08459139 -0.3481087 0.16607676 0.12184676
-0.09039023 -0.0944623 0.3320186 -0.4490942 0.3820592 -0.29818004 0.04060437 -0.088048555
0.11544825 0.35267073 0.62728274 0.05488065 0.013896041 -0.464739 -0.11654143 0.12287457
0.2505446 0.12843072 0.09044409 -0.09330428 0.120975316 0.5478204 0.28260997 0.08633837
0.21679367 0.5131683 0.29944676 -0.29046202 -0.40774363 0.13425316 -0.21148196 -0.018112909
0.2748571 0.24975249 0.035380382 0.067738526 0.23364311 -0.38065904 -0.12692058 -0.013529245
-0.36191767 -0.09335601 -0.0011443496 -0.1629408 -0.20358072 0.2581663 -0.1051243 0.39049947
-0.4086029 0.06511462 0.4104324 -0.41949534 0.5518472 -0.3482804 -0.3392241 -0.39932036
0.5407666 0.26501772 -0.079062305 0.34539795 -0.3999619 0.27719247 -0.43498468 -0.26320773
-0.3614842 -0.3975992 -0.4075311 -0.3266081 -0.38982296 -0.34169343 -0.4704617 0.20865697
0.3576929 -0.36318007 0.0036971816 0.23580955 0.20813535 0.389048 -0.09082259 -0.14410414
-0.2561463 -0.13733539 -0.14924677 0.26443702 -0.15676677 0.4580204 -0.12506872 -0.43512672
-0.34771904 0.19726878 0.3674238 -0.20426305 -0.08176327 0.33722645 0.16712856 -0.46405202
0.21311903 0.48905808 -0.22995332 0.14290017 -0.5206144 0.45140693 0.5179248 0.3924943
-0.43275303 0.21613246 0.1226061 -0.35078567 0.37169248 0.042227704 -0.104746886 0.19418517
-0.43256652 -0.05046755 0.14072359 -0.02151537 -0.13051836 0.47299656 0.46607873 0.43774736
0.3627719 -0.31902504 -0.26637518 0.31065238 -0.3280737 -0.42440572 -0.496066 -0.16408318
0.11201495 0.2839831 -0.040490508 -0.43991917 -0.38464856 0.051949143 -0.22313559 0.22389573
-0.3894327 -0.75655586 -0.66544276 0.6251502 0.38959682 -0.46613237 -0.16165075 0.08524814
-0.3988747 0.2591176 0.4528895 -0.28153366 -0.1743356 -0.044882894 0.28181916 -0.119829655
-0.04721438 -0.36421156 -0.38993546 0.39250898 -0.38355422 -0.47867227 -0.081389606 -0.06897688
0.13916057 -0.23409459 0.0062718485 0.13275948 -0.008498495 0.3425186 0.33931476 -0.15022399
-0.09827121 0.2582541 0.5992964 0.21071082 -0.36023444 -0.48865592 0.031066418 0.0314188
-0.41795814 -0.56501275 -0.17230596 -0.16097361 0.25692967 0.49099514 -0.18503413 0.28341594
0.32981628 0.13305776 0.6538403 -0.18190151 0.3728982 -0.2110005 0.28557667 0.108553424
00000000: ed29 f33e 16ec e4be 16f9 e7be 9a06 a23e
00000010: 853e 653c 34a9 e7be d6ea 7a3d b5c4 c73d
00000020: 00f2 82be 543b 2dbe cabf f43e 6657 bf3e
00000030: db0b 383e cb5a 04bf 2e37 05be 6241 98bd
00000040: d0b3 11be d457 b8be ce25 9b3e d0df f6bd
00000050: fc03 363e 10ee 8f3e 50cd 313e 5c6c 70be
00000060: decc b3be e812 d1bd 4c3c 01be d033 2c3e
00000070: 802b 5abd 9805 ca3d c411 edbe 9c1a fdbe
00000080: 8c7b 65be 2cde ee3e dc90 60be b220 babe
00000090: 8551 073e e125 2cbf f7a0 1f3d 1644 db3e
000000a0: 1673 2a3e e7ae 743e d2c0 ddbe 3fc8 d83b
000000b0: 8166 c2be 5e06 0bbf 1ffa 08bf c60a b03e
000000c0: 87a7 c83e 0be8 c7be aabb c8be 9461 8cbc
000000d0: be8e bb3e 6174 16bf 75af 58bc c186 8d3e
000000e0: 44d4 f1be 803d e13b f090 e83e 0cb5 0c3e
000000f0: 403e ad3d 4e3b b2be 0710 2a3e cb8a f93d
00000100: 831e b9bd 7375 c1bd 58fe a93e adef e5be
00000110: 439d c33e 0eab 98be c550 263d cd52 b4bd
00000120: 2270 ec3d 4291 b43e 9a95 203f 88ca 603d
00000130: 38ac 633c 45f2 edbe 46ad eebd aaa5 fb3d
00000140: 6247 803e 5883 033e c03a b93d 5016 bfbd
00000150: e8c1 f73d f53d 0c3f 41b2 903e 2cd2 b03d
00000160: 29ff 5d3e ff5e 033f 1651 993e 70b7 94be
00000170: c6c3 d0be a979 093e ba8e 58be 8661 94bc
00000180: 12ba 8c3e 1ebf 7f3e 05eb 103d 7fba 8a3d
00000190: 2440 6f3e bee5 c2be 78f7 01be c4a9 5dbc
000001a0: 464d b9be 7031 bfbd 00fe 95ba f4d9 26be
000001b0: 7777 50be 602e 843e 694b d7bd 8cef c73e
000001c0: 6634 d1be d05a 853d 3224 d23e 18c8 d6be
000001d0: dc45 0d3f cf51 b2be c8ae adbe b873 ccbe
000001e0: ae6f 0a3f 67b0 873e 6beb a1bd 00d8 b03e
000001f0: cec7 ccbe 2cec 8d3e 50b6 debe 2ac3 86be
00000200: 7514 b9be 1f92 cbbe eba7 d0be 2d39 a7be
00000210: e096 c7be 71f2 aebe 5be0 f0be 2caa 553e
00000220: 8623 b73e bdf2 b9be 6a4c 723b 0f78 713e
00000230: 6f21 553e 4d31 c73e 3201 babd 0990 13be
00000240: 9c25 83be a6a1 0cbe 25d4 18be 4a64 873e
00000250: 7887 20be a681 ea3e 0412 00be eec8 debe
00000260: 3b08 b2be d400 4a3e f91e bc3e 552a 51be
00000270: 8073 a7bd f2a8 ac3e c023 2b3e 3a98 edbe
00000280: e03b 5a3e d265 fa3e e278 6bbe 6c54 123e
00000290: fc46 05bf cf1e e73e b896 043f 03f5 c83e
000002a0: ce91 ddbe d451 5d3e e818 fb3d 2e9a b3be
000002b0: 7a4e be3e f5f6 2c3d 8985 d6bd 7ad8 463e
000002c0: 5c79 ddbe 10b7 4ebd d819 103e 0041 b0bc
000002d0: 9ba6 05be 9b2c f23e dfa1 ee3e 6c20 e03e
000002e0: 3dbd b93e 4057 a3be 5462 88be d40d 9f3e
000002f0: 47f9 a7be b54b d9be 5dfc fdbe 6c05 28be
00000300: 1868 e53d 3c66 913e 60d9 25bd 163d e1be
00000310: a8f0 c4be a0c8 543d a87d 64be ec44 653e
00000320: b963 c7be a5ad 41bf 755a 2abf d809 203f
00000330: 3c79 c73e e7a8 eebe c687 25be 9496 ae3d
00000340: 4e39 ccbe 10ab 843e 22e1 e73e 2e25 90be
00000350: 0885 32be 20d7 37bd 9a4a 903e 4069 f5bd
00000360: de63 41bd f079 babe 9fa5 c7be f0f6 c83e
00000370: 3861 c4be 8814 f5be 98af a6bd c043 8dbd
00000380: 1c80 0e3e 7eb6 6fbe 1484 cd3b 1af2 073e
00000390: 463d 0bbc 995e af3e aaba ad3e 51d4 19be
000003a0: 6b42 c9bd e239 843e 7d6b 193f 94c4 573e
000003b0: a670 b8be 1c31 fabe 007f fe3c 00b1 003d
000003c0: 9cfe d5be ada4 10bf f970 30be 44d6 24be
000003d0: 498c 833e b763 fb3e 9679 3dbe e51b 913e
000003e0: aedd a83e 4b40 083e 1462 273f 6444 3abe
000003f0: 83ec be3e 8410 58be 1b37 923e 4251 de3d

fc1.bias f4 [256]
0.053219877 0.2612215 -0.31757796 0.0374568 -0.3799082 -0.36086392 -0.13207394 0.11357933
-0.031897306 -0.23530522 -0.03028684 0.21141288 0.2720265 0.25681683 -0.19357967 0.08150941
0.21719995 0.16272306 -0.15825607 0.2984136 -0.3182655 0.22859484 0.39031148 0.26869926
0.29607952 0.22972076 0.18497986 -0.09431481 -0.14695728 0.43312928 -0.309232 -0.43122435
-0.10113417 0.046263356 -0.054003447 0.20321347 -0.0203241 0.038855612 0.32682484 0.013895988
-0.2212817 -0.17610462 -0.032476485 -0.25280452 -0.4986332 -0.11059964 -0.2407835 0.4204412
-0.30637717 -0.33142513 -0.13340111 0.18102077 -0.13374418 -0.042704582 0.09157704 -0.12628293
0.020326378 0.25934353 0.09465995 -0.23504537 0.53887784 -0.40388346 0.18911265 -0.1670441
-0.29078358 -0.43749517 0.13523714 -0.4689461 -0.1954715 0.19889052 -0.2219674 -0.45753497
0.16983417 0.016747426 -0.25229585 -0.029438555 0.25184122 0.43972993 -0.016949533 -0.20118727
-0.030969424 0.14268166 -0.34308678 0.08715563 -0.12154859 0.2040239 -0.0025034174 -0.19021069
0.15187317 0.27494112 0.008602073 -0.2185806 0.436067 0.22896579 0.064906836 -0.23468703
0.1304969 -0.0974248 0.18565689 0.2817105 0.06448121 0.04823801 0.2991447 0.078178436
-0.28066173 -0.30756825 -0.22274625 0.20461555 0.13377462 0.19591075 0.14021784 0.211973
0.053695552 -0.041863374 -0.11555195 -0.44775116 -0.391688 -0.4487176 -0.41646177 0.43580046
-0.107835874 -0.047469318 0.07410631 -0.36988515 -0.3639233 -0.19617432 -0.04460221 0.05598794
-0.21446449 -0.11064266 0.4435868 -0.42801368 0.21882002 -0.48744076 0.07874621 0.015955891
0.28318417 -0.096437454 -0.25835776 0.27598295 -0.3625595 -0.2357893 0.23074524 -0.037504077
-0.17648701 -0.3563091 0.066004716 -0.10200385 0.14161912 -0.2544952 0.1387486 -0.43100512
0.18790014 0.30006897 -0.07190316 0.07435661 0.32095265 0.15518606 0.29521418 -0.24108726
-0.33751887 0.29369318 0.32671803 -0.18040068 0.4542648 0.09795499 0.2121592 -0.23962486
-0.042452395 -0.04987242 -0.4503125 -0.4131608 0.04378323 0.32957855 -0.16298345 -0.23383898
0.088884145 -0.4900486 0.24084893 -0.42141062 0.12772983 0.29250738 0.23809877 -0.17665493
0.34202242 -0.36334252 -0.12365433 -0.21965542 -0.13623774 -0.2664612 -0.16613342 0.17228386
-0.016778512 -0.32878238 -0.265406 -0.34090173 -0.42231894 -0.4901954 0.34948656 0.023216877
-0.0043474846 0.33643273 0.4389823 0.19866057 0.38085017 -0.48027027 0.20453173 -0.46792
0.3462611 -0.47841358 0.14822328 0.098358884 0.09388933 -0.07725466 -0.3277197 -0.10679734
0.13685971 -0.13288392 -0.27196687 -0.48719537 0.015306117 -0.090260655 -0.023550168 -0.38910586
0.05225053 0.21178728 -0.12744138 0.28059322 0.07339992 -0.3580896 -0.48331082 -0.086361036
0.038320117 0.48335847 -0.43571848 -0.36227623 -0.083578214 -0.29249346 0.21886744 0.12596263
-0.15239328 -0.38874918 -0.4834118 -0.1042191 -0.2926842 -0.464271 -0.3528689 0.067760006
-0.4849525 -0.070786804 0.18916422 -0.30712634 -0.43510824 -0.17577666 -0.34103918 -0.22937006
00000000: 16fd 593d d3be 853e 9499 a2be 4d6c 193d
00000010: 5483 c2be 28c3 b8be 643e 07be 489c e83d
00000020: c0a6 02bd daf3 70be 1b1c f8bc 9e7c 583e
00000030: 0f47 8b3e 7f7d 833e c039 46be 68ee a63d
00000040: aa69 5e3e e0a0 263e e10d 22be abc9 983e
00000050: b2f3 a2be c414 6a3e e8d6 c73e f392 893e
00000060: bc97 973e eb3b 6b3e 5c6b 3d3e 2028 c1bd
00000070: f87b 16be 1fc3 dd3e a853 9ebe 70c9 dcbe
00000080: 6f1f cfbd a57e 3d3d b832 5dbd 3117 503e
00000090: ba7e a6bc 1027 1f3d 9655 a73e 00ac 633c
000000a0: ac97 62be c554 34be 1006 05bd 986f 81be
000000b0: da4c ffbe 1082 e2bd f38f 76be 1244 d73e
000000c0: 78dd 9cbe 8eb0 a9be 4d9a 08be 825d 393e
000000d0: 3cf4 08be 00eb 2ebd be8c bb3d 5050 01be
000000e0: 8183 a63c adc8 843e 13dd c13d bcaf 70be
000000f0: e6f3 093f d0c9 cebe bfa6 413e 9c0d 2bbe
00000100: 96e1 94be 5eff dfbe 9b7b 0a3e b419 f0be
00000110: ae29 48be f5a9 4b3e 6c4b 63be 0642 eabe
00000120: 02e9 2d3e e631 893c ec2c 81be 2029 f1bc
00000130: 55f1 803e 4824 e13e bfd9 8abc 0904 4ebe
00000140: 97b3 fdbc 241b 123e 12a9 afbe a77e b23d
00000150: 78ee f8bd a4eb 503e 6010 24bb 97c6 42be
00000160: a484 1b3e 15c5 8c3e b6ef 0c3c 98d3 5fbe
00000170: 2c44 df3e 0276 6a3e e0ed 843d cc51 70be
00000180: fba0 053e a786 c7bd d71c 3e3e 5c3c 903e
00000190: ba0e 843d 3895 453d 7e29 993e 041c a03d
000001a0: e5b2 8fbe 9679 9dbe 9817 64be bd86 513e
000001b0: 37fc 083e d49c 483e 4495 0f3e 730f 593e
000001c0: deef 5b3d ee78 2bbd 80a6 ecbd a43f e5be
000001d0: 548b c8be 50be e5be 7a3a d5be 3d21 df3e
000001e0: 0ed9 dcbd 306f 42bd 0dc5 973d 9661 bdbe
000001f0: 2854 babe ece1 48be cfb0 36bd 9c53 653d
00000200: 949c 5bbe 9e98 e2bd cf1d e33e 9c24 dbbe
00000210: 5b12 603e d691 f9be b145 a13d eeb5 823c
00000220: 84fd 903e 0081 c5bd 7847 84be a34d 8d3e
00000230: 66a1 b9be c072 71be 7b48 6c3e e09d 19bd
00000240: 03b9 34be 256e b6be 7b2d 873d 65e7 d0bd
00000250: 9a04 113e 324d 82be 1d14 0e3e b4ac dcbe
00000260: e568 403e a4a2 993e f741 93bd 4748 983d
00000270: e853 a43e 18e9 1e3e 5026 973e 94df 76be
00000280: 46cf acbe f45e 963e 9647 a73e f5ba 38be
00000290: 6595 e83e a09c c83d 4340 593e 3860 75be
000002a0: 90e2 2dbd 0647 4cbd 5c8f e6be d089 d3be
000002b0: 0b56 333d 85be a83e 22e5 26be 7c73 6fbe
000002c0: e408 b63d a6e7 fabe 1aa1 763e 22c3 d7be
000002d0: 9ccb 023e 87c3 953e 2ad0 733e 08e5 34be
000002e0: 901d af3e 0808 babe 7b3e fdbd 5aed 60be
000002f0: e881 0bbe 9a6d 88be e11e 2abe 2e6b 303e
00000300: 1773 89bc 2a56 a8be 4ce3 87be ac8a aebe
00000310: 303a d8be e4fa fabe e7ef b23e 5231 be3c
00000320: 5875 8ebb e940 ac3e 4ac2 e03e ad6d 4b3e
00000330: cbfe c23e fce5 f5be c470 513e 3693 efbe
00000340: 2349 b13e a0f2 f4be d8c7 173e 6270 c93d
00000350: 0d49 c03d b137 9ebd e0ca a7be 90b8 dabd
00000360: f424 0c3e b912 08be 3e3f 8bbe ac71 f9be
00000370: 82c6 7a3c 94da b8bd 48ec c0bc e238 c7be
00000380: a704 563d c4de 583e fe7f 02be eaa9 8f3e
00000390: b252 963d 8557 b7be 8474 f7be 0ede b0bd
000003a0: 8ef5 1c3d c37a f73e 7e16 dfbe 457c b9be
000003b0: 0e2b abbd b4c1 95be c91e 603e 59fc 003e
000003c0: fc0c 1cbe 220a c7be c081 f7be d370 d5bd
000003d0: b4da 95be eeb4 edbe 3cab b4be c2c5 8a3d
000003e0: b24b f8be acf8 90bd 44b4 413e aa3f 9dbe
000003f0: 82c6 debe ccfe 33be b09c aebe fcdf 6abe

fc2.weight f4 [256, 256]
-0.24586512 -0.1307464 0.02266986 -0.1361985 -0.030296475 -0.04620921 -0.044125013 -0.05249419
0.042285293 -0.1414168 -0.051313564 -0.072851226 -0.24700642 -0.12956136 -0.060980156 -0.2125172
-0.18435676 -0.2198716 0.11194826 -0.1800183 -0.0409147 -0.012148299 0.07063994 0.010496639
-0.10379662 -0.2696902 -0.0014222562 -0.0123032015 -0.03703665 -0.22935455 0.0356105 0.00106439
0.029779462 -0.06464504 -0.24605009 0.010696199 -0.05457507 0.023925811 0.17353845 0.047507755
0.121771164 0.1850952 0.016624317 -0.120303184 -0.025568023 0.14560315 -0.08017968 -0.09401022
0.0126509145 0.031219795 -0.094021864 -0.26716453 -0.017794095 -0.035636105 -0.21933465 0.041752994
-0.22007571 0.06113092 0.1245588 0.025416352 -0.044952933 0.08055896 0.016325805 -0.10903649
-0.011960462 0.059529535 -0.03648736 0.06003028 -0.07285173 -0.09178292 -0.05312328 0.05772435
-0.06772604 -0.16137792 -0.0030191988 -0.008530512 -0.12413101 0.015562507 -0.032772608 -0.024886582
0.14461365 -0.08955355 -0.016316295 0.11891143 -0.04167375 -0.049281586 -0.09872754 -0.013688595
-0.03745386 0.08248142 -0.24604106 0.04296007 0.15726794 0.045617435 0.015469901 -0.04554025
0.046052083 0.09951219 -0.08271118 -0.18652812 -0.02282825 -0.110708036 0.13716006 0.020390743
-0.051799566 -0.049526826 0.004599929 -0.024756776 -0.03649123 -0.031335518 0.030086204 0.025181541
-0.11595545 -0.031950742 0.025824443 0.021305352 -0.034174785 0.011663064 -0.042533644 -0.09186283
-0.35175255 0.051044576 -0.05311088 0.035106607 -0.019387506 -0.017653726 -0.13453329 -0.21154775
-0.053323537 -0.10473967 0.0262556 -0.02882839 -0.1406808 0.011710204 -0.032849807 -0.123777375
0.109178394 0.029392183 -0.06048774 0.025702888 -0.0565368 0.04058802 0.030446628 0.04684408
-0.048774667 0.113912344 -0.03944894 0.030131543 0.06991338 -0.030238137 0.072619 -0.2986508
-0.06126866 0.028616542 0.12890585 0.100044705 0.048603065 -0.21794878 0.017344682 -0.19289142
-0.13873532 -0.13928735 0.018541269 0.063483074 -0.06763509 -0.107821606 -0.075224325 0.031631432
-0.020286225 -0.06500651 0.052396595 0.019847237 0.1371382 -0.020702627 -0.090715855 0.0057629896
-0.10835808 -0.029283546 0.0052522216 -0.021134652 -0.07507362 -0.02529507 0.004343425 -0.0725166
0.17606902 0.00818105 -0.09532127 -0.12664104 -0.08054451 -0.04608038 -0.084703274 -0.20246048
-0.14562696 -0.015926316 -0.07765985 0.051694863 -0.19797401 0.016264483 -0.28797597 -0.17231461
0.025428986 0.026231084 -0.04061381 -0.06989392 -0.06509818 -0.00044167042 0.1318037 0.020296603
-0.05534117 -0.045835875 -0.02980942 -0.08364559 -0.04970683 -0.077134244 -0.058341563 0.027481362
0.037612192 0.08353476 -0.22629923 0.03542892 0.022721129 -0.15947865 0.11557614 -0.020565823
-0.13203008 -0.11778295 -0.29929414 0.06475714 0.17949781 0.0076163663 -0.03170784 -0.07711253
0.11226578 -0.12750883 -0.050307028 -0.16291854 -0.05692259 0.06108956 -0.012805815 0.0421876
-0.05549948 0.051231466 -0.015101746 -0.3527101 -0.058401138 0.02687604 -0.019147038 0.05642395
0.015250497 0.189383 -0.017840736 0.0072535127 0.0285936 -0.04875411 -0.0042511076 0.16763653
00000000: 11c4 7bbe 62e2 05be 24b6 b93c 9f77 0bbe
00000010: 5030 f8bc de45 3dbd 6ebc 34bd 2604 57bd
00000020: 5833 2d3d 91cf 10be 2c2e 52bd 0633 95bd
00000030: 40ef 7cbe bcab 04be 54c6 79bd 1c9e 59be
00000040: 05c8 3cbe 0526 61be 2145 e53d b856 38be
00000050: 2c96 27bd a909 47bc acab 903d 18fa 2b3c
00000060: 5393 d4bd d514 8abe 006b baba 5e93 49bc
00000070: beb3 17bd ebdb 6abe 51dc 113d 0083 8b3a
00000080: 0ff4 f33c 9e64 84bd 8ef4 7bbe 1c3f 2f3c
00000090: 1c8a 5fbd 1000 c43c 10b4 313e 7e97 423d
000000a0: 2963 f93d 9989 3d3e b82f 883c 8461 f6bd
000000b0: 0874 d1bc fe18 153e 3e35 a4bd 6e88 c0bd
000000c0: c845 4f3c a8c0 ff3c 898e c0bd cac9 88be
000000d0: ecc4 91bc 2af7 11bd 4399 60be 3005 2b3d
000000e0: 875b 61be 6a64 7a3d af18 ff3d f435 d03c
000000f0: 9120 38bd 19fc a43d b2bd 853c 864e dfbd
00000100: d0f5 43bc 3ed5 733d c573 15bd 50e2 753d
00000110: 4a33 95bd aff8 bbbd cc97 59bd 5e70 6c3d
00000120: f3b3 8abd 4140 25be c0dd 45bb 90c3 0bbc
00000130: 6638 febd e3f9 7e3c 923c 06bd f2de cbbc
00000140: 9a15 143e da67 b7bd c0a9 85bc d687 f33d
00000150: 18b2 2abd 7ddb 49bd aa31 cabd 2146 60bc
00000160: 3869 19bd 05ec a83d 30f2 7bbe e6f6 2f3d
00000170: d90a 213e 59d9 3a3d 7875 7d3c 6a88 3abd
00000180: 1ca1 3c3d 0ccd cb3d 7b64 a9bd 3a01 3fbe
00000190: 4f02 bbbc e5ba e2bd b073 0c3e 7d0a a73c
000001a0: c82b 54bd a4dc 4abd 00bb 963b b9ce cabc
000001b0: d477 15bd ac59 00bd 5877 f63c 8549 ce3c
000001c0: 0d7a edbd c8de 02bd c88d d33c 9088 ae3c
000001d0: dcfa 0bbd 7016 3f3c c237 2ebd 9422 bcbd
000001e0: e918 b4be 1e14 513d cb8a 59bd f2cb 0f3d
000001f0: 8cd2 9ebc 8c9e 90bc 18c3 09be f99f 58be
00000200: c869 5abd c181 d6bd fc15 d73c 8429 ecbc
00000210: a10e 10be 28dc 3f3c 858d 06bd fe7e fdbd
00000220: ec98 df3d e0c7 f03c fec1 77bd dd8e d23c
00000230: 2293 67bd a03f 263d 356b f93c 94df 3f3d
00000240: f2c7 47bd e04a e93d 3695 21bd 6dd6 f63c
00000250: bf2e 8f3d f8b5 f7bc 45b9 943d c2e8 98be
00000260: d9f4 7abd 3d6d ea3c e5ff 033e 3de4 cc3d
00000270: 0214 473d f72d 5fbe 6f16 8e3c 5485 45be
00000280: a210 0ebe 58a1 0ebe dce3 973c 6a03 823d
00000290: 4484 8abd 93d1 dcbd 360f 9abd f68f 013d
000002a0: 4c2f a6bc 2222 85bd d09d 563d ac96 a23c
000002b0: f56d 0c3e 8e98 a9bc 3cc9 b9bd 76d7 bc3b
000002c0: d7ea ddbd 0ce4 efbc d41a ac3b 9422 adbc
000002d0: 33c0 99bd 9b37 cfbc 4a53 8e3b 9583 94bd
000002e0: 704b 343e d009 063c cc37 c3bd 30ae 01be
000002f0: 85f4 a4bd c8be 3cbd e978 adbd cd51 4fbe
00000300: 3c1f 15be e877 82bc 210c 9fbd febd 533d
00000310: b3b9 4abe 183d 853c 9671 93be 3e73 30be
00000320: 7350 d03c 92e2 d63c ab5a 26bd 8b24 8fbd
00000330: 3252 85bd 0090 e7b9 8df7 063e 1045 a63c
00000340: 6cad 62bd 66be 3bbd e332 f4bc 614e abbd
00000350: 6499 4bbd 8ff8 9dbd 90f7 6ebd 9820 e13c
00000360: 3e0f 1a3d 4614 ab3d fcba 67be ea1d 113d
00000370: a921 ba3c 5f4e 23be 2fb3 ec3d a879 a8bc
00000380: e532 07be 3038 f1bd 153d 99be 649f 843d
00000390: 46ce 373e b692 f93b 14e0 01bd 2ded 9dbd
000003a0: 9aeb e53d ad91 02be be0e 4ebd 1ed4 26be
000003b0: a927 69bd 0c39 7a3d 7bcf 51bc e8cc 2c3d
000003c0: 6c53 63bd 16d8 513d 506d 77bc 6b96 b4be
000003d0: 0836 6fbd 242b dc3c 40da 9cbc cd1c 673d
000003e0: 38dd 793c 9eed 413e bc26 92bc e0ae ed3b
000003f0: 203d ea3c 64b2 47bd e04c 8bbb e9a8 2b3e

fc2.bias f4 [256]
-0.030603994 -0.0064537367 -0.08256528 -0.052808106 -0.0005458607 -0.020018307 -0.08465626 0.03550505
-0.0027363673 -0.04456675 0.032220602 -0.06586739 -0.036879838 -0.09031677 -0.028210036 -0.10916613
-0.036130168 0.010225989 -0.035963662 -0.11583848 -0.01107593 0.033855263 -0.07177175 0.14399302
-0.07324257 -0.057733443 -0.019912012 0.009252751 -0.159181 -0.14819267 -0.011695163 -0.0010316159
-0.04285085 -0.11412233 -0.028078469 -0.08297669 -0.018838743 -0.043912105 -0.092023395 -0.048489835
-0.015911471 -0.008927006 -0.065184645 0.016948372 -0.027710095 0.054653764 0.008188918 -0.10190861
-0.010027225 -0.06318483 0.09999189 -0.057549592 0.012124378 -0.114899196 -0.054844454 -0.018322628
0.057847314 -0.047420133 -0.025266493 0.056194916 -0.030406117 -0.062311664 0.035109088 -0.00949239
-0.054404136 -0.12106695 -0.051586885 -0.054203723 -0.03319779 -0.03224255 -0.1259462 -0.01335215
-0.04832822 -0.022286639 -0.0394123 -0.0039551207 -0.029006973 0.08426575 -0.000593178 -0.07616933
0.11012218 0.052820288 -0.061374832 0.044935472 -0.09074143 -0.013629282 0.037728965 -0.1107474
-0.037558712 -0.023705475 0.080800556 0.04094926 -0.06504741 0.032904476 -0.023388393 -0.097508535
0.080236025 -0.08429307 -0.009537386 -0.035726804 -0.025721537 -0.0009958637 -0.023616813 -0.009549268
-0.05617833 -0.05297309 0.044499494 -0.034080107 -0.050953016 0.0149361715 -0.06873567 -0.060915835
-0.0011090785 0.23238742 -0.045910805 -0.021354966 -0.033476725 0.012348808 -0.053444818 -0.10138442
-0.054765668 -0.08199625 -0.004528667 8.9243054e-05 -0.036094554 0.01199042 -0.06584639 -0.14331104
-0.030016847 -0.12441221 -0.057601277 -0.05163914 -0.02845022 -0.020921111 0.03967391 0.04730252
-0.0099911755 -0.015907392 -0.09437209 -0.03434679 -0.011808555 -0.021178097 -0.0032281952 0.0008026756
-0.094611034 -0.052487135 -0.011554272 -0.07653395 -0.0136114955 -0.028060524 -0.12442314 0.07316406
0.056796927 -0.09730785 -0.10307148 -0.020797882 -0.08036206 -0.05744881 -0.025661914 -0.11216361
-0.09568053 0.0040593296 -0.027486956 -0.07128973 -0.014316739 0.086674936 -0.034338847 -0.06762534
-0.08368422 0.016259506 0.06848848 -0.07173375 -0.10400687 -0.003061697 -0.016436003 -0.018168913
-0.03775829 0.0505169 -0.091056384 -0.050194476 0.051028416 0.032030676 -0.108938694 0.089855455
0.0016904752 -0.03430936 -0.0977852 0.005847829 0.0016974828 0.061749738 -0.12889557 -0.02316869
0.047108434 -0.05238287 -0.033729907 -0.08210698 -0.06710302 -0.05919533 -0.070545524 -0.10058509
-0.020169973 0.0039671306 0.008460328 0.040059514 -0.018105086 -0.028942436 -0.10581682 -0.034657974
-0.07329214 -0.0002692382 -0.062466986 -0.10953467 -0.025726601 -0.035985246 -0.10750976 -0.08983748
0.03188254 0.060471155 0.028240863 0.15291631 -0.0057102656 -0.030348675 -0.07681032 -0.037978373
-0.049278446 -0.1093477 -0.010029126 -0.049583293 -0.115993336 -0.052803818 -0.12238102 0.03215746
-0.12085867 -0.061292455 -0.035237703 -0.112411894 0.037995093 -0.10881508 -0.07276361 -0.007572272
-0.12065223 -0.02531495 -0.08170426 -0.014936524 -0.090869375 0.00051669515 -0.107618965 -0.054836106
-0.08144448 0.00080256973 -0.10831456 -0.040048227 0.04239061 -0.08622174 0.08844567 -0.11585861
00000000: 3ab5 fabc de79 d3bb fc17 a9bd 504d 58bd
00000010: 1718 0fba 6ffd a3bc 4360 adbd be6d 113d
00000020: a054 33bb a08b 36bd c0f9 033d 7be5 86bd
00000030: 500f 17bd 00f8 b8bd bc18 e7bc 7e92 dfbd
00000040: 3afd 13bd e88a 273c a24e 13bd ba3c edbd
00000050: d177 35bc d1ab 0a3d 11fd 92bd e872 133e
00000060: 3300 96bd e779 6cbd 841e a3bc da98 173c
00000070: 5800 23be d2bf 17be 129d 3fbc 4937 87ba
00000080: 5f84 2fbd f8b8 e9bd d104 e6bc afef a9bd
00000090: b553 9abc 2edd 33bd c376 bcbd 479d 46bd
000000a0: c658 82bc 9442 12bc 877f 85bd 50d7 8a3c
000000b0: 4800 e3bc a0dc 5f3d d02a 063c 76b5 d0bd
000000c0: 3b49 24bc 0c67 81bd 8cc8 cc3d 1fb9 6bbd
000000d0: 54a5 463c 4550 ebbd 94a4 60bd 5619 96bc
000000e0: 4ef1 6c3d 9d3b 42bd adfb cebc a42c 663d
000000f0: 4016 f9bc 843a 7fbd 8cce 0f3d f885 1bbc
00000100: dfd6 5ebd f3f1 f7bd c54c 53bd b904 5ebd
00000110: 68fa 07bd c410 04bd 0af8 00be fac2 5abc
00000120: d0f3 45bd 7892 b6bc cb6e 21bd f599 81bb
00000130: 08a0 edbc 8693 ac3d 807f 1bba aafe 9bbd
00000140: bd87 e13d 165a 583d 2d64 7bbd 420e 383d
00000150: a5d6 b9bd 5a4d 5fbc b089 1a3d 88cf e2bd
00000160: 2ad7 19bd fc31 c2bc c37a a53d 69ba 273d
00000170: 9437 85bd d8c6 063d 0499 bfbc 8eb2 c7bd
00000180: c952 a43d d8a1 acbd b242 1cbc 4556 12bd
00000190: f9b5 d2bc a487 82ba 0c78 c1bc 8874 1cbc
000001a0: 401b 66bd 50fa 58bd 1a45 363d 9597 0bbd
000001b0: 1cb4 50bd d8b6 743c 49c5 8cbd e282 79bd
000001c0: 805e 91ba f8f6 6d3e f80c 3cbd 9cf0 aebc
000001d0: e41e 09bd a852 4a3c f4e8 5abd a3a2 cfbd
000001e0: f751 60bd a6ed a7bd 3665 94bb 0028 bb38
000001f0: e2d7 13bd 7773 443c 79da 86bd 21c0 12be
00000200: e4e5 f5bc d4cb febd 51ef 6bbd 9083 53bd
00000210: 7010 e9bc c062 abbc 1c81 223d 4ac0 413d
00000220: 07b2 23bc 3850 82bc 2846 c1bd 38af 0cbd
00000230: ab78 41bc b07d adbc 2190 53bb a66a 523a
00000240: 6ec3 c1bd c0fc 56bd 214e 3dbc d5bd 9cbd
00000250: c002 5fbc 2fdf e5bc 8fd1 febd 0ad7 953d
00000260: e5a3 683d 5749 c7bd 2417 d3bd 5260 aabc
00000270: dd94 a4bd 724f 6bbd ef38 d2bc 09b6 e5bd
00000280: 27f4 c3bd 2004 853b 532c e1bc 5a00 92bd
00000290: c190 6abc a182 b13d e4a6 0cbd 277f 8abd
000002a0: a262 abbd a832 853c b043 8c3d 25e9 92bd
000002b0: 8e01 d5bd c0a6 48bb cca4 86bc f9d6 94bc
000002c0: 70a8 1abd cfea 4e3d c57b babd b998 4dbd
000002d0: 2c03 513d 9932 033d 401b dfbd 2306 b83d
000002e0: ef92 dd3a f987 0cbd 9b43 c8bd 259f bf3b
000002f0: 127e de3a 4bed 7c3d 33fd 03be 44cc bdbc
00000300: c6f4 403d 6c8f 56bd 5f28 0abd b427 a8bd
00000310: 4f6d 89bd cd76 72bd 2c7a 90bd 8eff cdbd
00000320: 803b a5bc b4fe 813b 309d 0a3c 7215 243d
00000330: 1e51 94bc b018 edbc 7db6 d8bd 85f5 0dbd
00000340: 311a 96bd 8a28 8db9 62dd 7fbd b753 e0bd
00000350: 98c0 d2bc 4465 13bd 142e dcbd b6fc b7bd
00000360: 4497 023d 9ab0 773d 6259 e73c 1896 1c3e
00000370: 2e1d bbbb c99d f8bc bb4e 9dbd 368f 1bbd
00000380: 32d8 49bd b0f1 dfbd 3451 24bc da17 4bbd
00000390: ea8d edbd d148 58bd e6a2 fabd 8ab7 033d
000003a0: c084 f7bd cc0d 7bbd 6955 10bd 3538 e6bd
000003b0: bea0 1b3d 71da debd 1605 95bd d220 f8bb
000003c0: 8418 f7bd 4c61 cfbc 9054 a7bd 53b8 74bc
000003d0: b919 babd d372 073a 5567 dcbd d39b 60bd
000003e0: 5dcc a6bd 8b63 523a 06d4 ddbd 9c09 24bd
000003f0: c7a1 2d3d 0695 b0bd 0123 b53d 4747 edbd

fc3.weight f4 [256, 256]
0.045193754 0.10337894 0.104991525 0.07619383 -0.011649349 0.030225677 0.060789414 0.012807444
-0.039568394 0.09292511 -0.16158329 0.11532537 0.09617199 -0.016787264 0.043557443 -0.061680697
0.15164578 -0.11519787 -0.04904624 0.036045413 -0.058945976 -0.14944512 0.05037409 -0.1422776
0.115130074 -0.030711196 0.02325742 0.04387706 0.025919065 -0.022786185 -0.0767095 0.011830401
-0.015051062 -0.029018253 -0.040431164 0.020890541 0.084467106 -0.03412754 -0.071140714 -0.00024084002
-0.0011352538 -0.16936013 0.00897982 -0.06655678 0.043529656 0.04077203 -0.002104551 0.111268446
0.016328104 0.10835385 -0.13940255 0.03349403 0.17573267 0.020071162 -0.052558158 0.10431176
-0.0102353245 0.06410412 0.09155312 0.054876722 -0.022477545 0.089653246 0.033647 0.02297096
0.13317563 -0.12271605 0.016020088 0.024238637 0.0927961 0.00013685276 0.010498672 -0.023206182
-0.056187972 -0.0012326614 -0.014333889 0.020289823 0.044868097 -0.050943434 0.021761104 0.03831739
0.03066423 -0.20250288 0.07140387 0.033829726 0.0018420365 0.179691 -0.091995195 0.08051858
-0.044150114 -0.020110555 0.059505053 -0.030736143 -0.08270859 -0.013241723 -0.010149226 0.076865844
0.19189955 -0.03994066 0.033871956 0.037403766 -0.08722868 -0.010529809 -0.049163498 -0.032575987
0.06914454 0.053587332 0.048786573 -0.04174452 0.09373398 -0.027171887 0.18445268 0.03606972
-0.0219222 0.061956607 -0.05002512 0.038586326 0.051829003 0.012490468 -0.012066521 0.11927937
-0.06606712 0.066500925 -0.08054382 0.044858634 0.07035604 -0.11097886 -0.040165655 0.00605008
-0.10154437 0.0004999265 0.10026484 -0.05187601 -0.03266798 -0.013772063 -0.0024343655 -0.09717802
-0.06965633 0.03810665 0.0378448 -0.018520964 -0.13356191 -0.05498848 0.07474812 0.010885261
-0.020779781 0.0352892 -0.02977762 0.08753302 -0.018883161 -0.08461429 0.04793144 -0.16561681
-0.031856257 0.04183109 0.105699636 0.044886135 0.053794608 -0.042269252 -0.062078387 0.002269283
-0.047897324 0.021604933 -0.086618535 0.015081824 -0.022267655 -0.2255874 -0.01874616 0.08470149
0.05429407 -0.034760416 -0.023703555 0.16914926 -0.0045562424 0.02458366 0.048314244 -0.05145336
-0.054778963 -0.0038822235 0.2711604 -0.03822518 -0.018722348 -0.018880965 0.00030265749 -0.20023845
0.0897251 0.09185803 0.10323018 0.052011922 -0.07757344 0.040279746 0.044040315 0.022211157
-0.051081695 0.013381042 -0.051232055 -0.034812268 0.11873749 0.044732776 0.062012143 0.15160386
0.053735405 -0.025127262 0.05303663 -0.036273777 -0.035819117 0.087410666 0.1178452 -0.06528845
0.0071109086 0.09728228 -0.025749281 0.091508724 0.11985478 0.00845536 0.0010404962 0.09874432
-0.0551558 -0.05789776 -0.102869675 -0.042230166 -0.0085788835 0.051713053 -0.04478921 -0.019142691
0.010803252 -0.0048099533 0.00718276 0.038090665 0.011431375 0.0077096387 -0.014096528 -0.017630056
-0.00698445 -0.03810984 0.07676077 0.07919573 -0.020171165 0.03142141 0.031672657 0.014860552
-0.07968778 0.0081490725 0.019619532 0.04215946 0.06318019 0.10545548 0.016215637 0.013048309
0.0488852 0.11693522 0.033224095 0.03644009 -0.099264115 0.0063494984 -0.08857819 0.04371155
00000000: 161d 393d 56b8 d33d cc05 d73d 830b 9c3d
00000010: e9dc 3ebc d79b f73c 52fe 783d 50d6 513c
00000020: 7812 22bd 854f be3d 1776 25be b52f ec3d
00000030: d2f5 c43d 7285 89bc 4a69 323d e6a4 7cbd
00000040: 0849 1b3e dcec ebbd b6e4 48bd 5ba4 133d
00000050: 5671 71bd 2408 19be 1055 4e3d 38b1 11be
00000060: 51c9 eb3d 0c96 fbbc 5886 be3c 6fb8 333d
00000070: 3854 d43c 18aa babc df19 9dbd 4cd4 413c
00000080: bb98 76bc b0b7 edbc 269b 25bd a422 ab3c
00000090: 17fd ac3d 52c9 0bbd 39b2 91bd 008a 7cb9
000000a0: cccc 94ba be6c 2dbe 1820 133c ec4e 88bd
000000b0: 274c 323d 9200 273d 82ec 09bb b6e0 e33d
000000c0: 84c2 853c a0e8 dd3d 8bbf 0ebe 0931 093d
000000d0: 44f3 333e 476c a43c 3947 57bd 67a1 d53d
000000e0: 10b2 27bc 0549 833d 3480 bb3d 6ac6 603d
000000f0: d422 b8bc 1f9c b73d 70d1 093d 982d bc3c
00000100: 315f 083e 8d52 fbbd 8f3c 833c 1b90 c63c
00000110: e20b be3d 2280 0f39 9f02 2c3c e41a bebc
00000120: 5c25 66bd 4191 a1ba b0d8 6abc d836 a63c
00000130: 9cc7 373d 10aa 50bd 5844 b23c b2f2 1c3d
00000140: 8d33 fb3c ea5c 4fbe 313c 923d 0a91 0a3d
00000150: 7d70 f13a eb00 383e fa67 bcbd ede6 a43d
00000160: c0d6 34bd e4be a4bc 92bb 733d 5dca fbbc
00000170: 1f63 a9bd d0f3 58bc f048 26bc d76b 9d3d
00000180: 5181 443e d198 23bd 52bd 0a3d b134 193d
00000190: f3a4 b2bd 3885 2cbc aa5f 49bd 666e 05bd
000001a0: a79b 8d3d 647e 5b3d 6ed4 473d 4dfc 2abd
000001b0: 9af7 bf3d 9497 debc 2ae1 3c3e d8bd 133d
000001c0: 3096 b3bc 36c6 7d3d 24e7 4cbd b20c 1e3d
000001d0: a64a 543d d2a4 4c3c a8b2 45bc be48 f43d
000001e0: 334e 87bd a331 883d 29f4 a4bd b0bd 373d
000001f0: d416 903d e248 e3bd be84 24bd c03f c63b
00000200: 7ff6 cfbd 800d 033a a757 cd3d f07b 54bd
00000210: dcce 05bd 38a4 61bc e089 1fbb 4505 c7bd
00000220: faa7 8ebd b815 1c3d 2603 1b3d 47b9 97bc
00000230: 74c4 08be 9a3b 61bd 8b15 993d 1858 323c
00000240: 5c3a aabc 688b 103d 32f0 f3bc 8344 b33d
00000250: dcb0 9abc 424a adbd c253 443d 7497 29be
00000260: b57b 02bd 1457 2b3d 0d79 d83d 86da 373d
00000270: bc57 5c3d 8622 2dbd e845 7ebd 40b8 143b
00000280: fc2f 44bd d4fc b03c 0f65 b1bd c119 773c
00000290: a86a b6bc 6200 67be 8c91 99bc fa77 ad3d
000002a0: 7563 5e3d f060 0ebd f52d c2bc 7735 2d3e
000002b0: 884c 95bb ac63 c93c 28e5 453d c2c0 52bd
000002c0: e85f 60bd e76c 7ebb 89d5 8a3e 0292 1cbd
000002d0: 9c5f 99bc 41ac 9abc 00ae 9e39 4f0b 4dbe
000002e0: cbc1 b73d 1020 bc3d 586a d33d 740a 553d
000002f0: d3de 9ebd 60fc 243d 9e63 343d 2cf4 b53c
00000300: 0a3b 51bd 283c 5b3c b4d8 51bd 4f97 0ebd
00000310: a42c f33d b739 373d 7200 7e3d 0b3e 1b3e
00000320: a819 5c3d b0d7 cdbc f03c 593d d093 14bd
00000330: 11b7 12bd 5d04 b33d d358 f13d f3b5 85bd
00000340: a002 e93b ef3b c73d 28f0 d2bc ed68 bb3d
00000350: 6c76 f53d 5a88 0a3c 4261 883a 763a ca3d
00000360: 0ceb 61bd 3426 6dbd 56ad d2bd 8af9 2cbd
00000370: 728e 0cbc 11d1 533d e474 37bd 22d1 9cbc
00000380: 2000 313c d09c 9dbb 5c5d eb3b f504 1c3d
00000390: a94a 3b3c 23a1 fc3b 20f5 66bc e86c 90bc
000003a0: d0dd e4bb 1019 1cbd c034 9d3d 5f31 a23d
000003b0: 003e a5bc bdb3 003d 30bb 013d ac79 733c
000003c0: 5933 a3bd b083 053c 24b9 a03c 66af 2c3d
000003d0: 9e64 813d 0bf9 d73d a8d6 843c 93c8 553c
000003e0: d93b 483d bc7b ef3d fd15 083d 3442 153d
000003f0: fc4a cbbd 740f d03b 7b68 b5bd e20a 333d

fc3.bias f4 [256]
-0.0075473855 -0.12706701 -0.029274741 -0.024072044 -0.035596702 0.18200928 -0.010905349 -0.038398594
0.098316975 -0.113322645 -0.004893534 0.23405388 0.042662136 -0.05806752 0.024142692 -0.00012180742
0.005613305 -0.1085141 -0.016124843 -0.11010715 -0.001218282 0.28833306 -0.07009664 0.047264528
-0.032355398 -0.074864276 -0.10705299 0.019672494 -0.10272901 -0.011470202 -0.057963964 -0.044266336
-0.024084797 -0.016231768 0.01988329 0.0031275824 -0.112876415 -0.029904922 0.17210954 -0.026480762
0.2178736 -0.08736539 -0.049580175 0.024375632 -0.027654374 -0.038439825 0.1368897 -0.028734958
-0.013749026 -0.05512161 -0.04434365 0.01920019 -0.043503694 -0.018860033 -0.018894752 -0.08457781
-0.06248525 0.037694782 -0.11402283 -0.032349933 0.064581625 -0.10858416 -0.013947433 -0.0961875
0.11434022 -0.0155239655 0.03967265 0.056702558 -0.024276212 0.020157084 -0.0010711774 -0.013729582
-0.18351325 -0.023752676 0.012034336 -0.018379003 -0.036596227 -0.14320087 -0.022180619 -0.052283447
0.048082855 0.07949417 -0.037979085 0.010499249 -0.054359686 -0.17740007 -0.061267808 0.23082164
-0.08992015 0.16246477 0.00339624 3.1077496e-05 -0.01627106 0.07914886 -0.051521502 0.009972639
-0.044695206 -0.07192199 -0.007509988 0.007594854 -0.017566798 0.03230991 -0.045329496 -0.10155061
0.009412903 -0.10431903 -0.09856633 0.03714489 -0.021319972 -0.07448831 -0.08383793 -0.03435922
0.067327194 -0.015115286 -0.14172612 -0.086013965 -0.0054987418 -0.051442456 -0.05062567 -0.06394222
0.023432856 0.06927938 -0.20491385 -0.1153898 -0.10461562 0.09652637 -0.11160496 -0.09586202
0.004478313 -0.104811355 -0.0692921 -0.008798909 -0.11385404 -0.05834259 -0.034104187 -0.053054422
-0.06777529 -0.13329957 -0.050068714 0.036872223 -0.054374687 0.02531751 -0.015167233 -0.12146457
-0.03918237 -0.07057181 -0.07543946 -0.114828184 -0.084280916 -0.090518236 0.0007947997 -0.10077763
-0.0686405 0.04039561 -0.08997366 -0.084381744 0.11505623 -0.111416735 0.001122951 -0.061347537
-0.061177157 -0.080210984 -0.043399204 -0.05746036 -0.046596456 -0.058350425 0.105747685 0.12551945
-0.05832272 -0.0078993505 0.0054127173 0.0043509007 0.16266622 -0.113244206 -0.10235359 -0.094225824
-0.039374534 -0.10341606 -0.09100063 -0.09395513 -0.058763176 -0.04916834 0.11254491 -0.01755941
0.015364212 0.012882234 -0.00042386213 -0.023324335 -0.060438313 -0.20363116 0.1921613 -0.06582416
0.07822272 -0.012514923 0.074053116 -0.025802877 0.18338561 0.004441542 -0.07987814 -0.11309069
0.0008110777 -0.18018268 -0.061581362 -0.10147762 -0.025486967 0.04995931 -0.006183745 0.057275288
-0.05668431 0.1324524 -0.054642636 0.045480583 -0.030149475 -0.117691815 0.29080656 -0.05408476
-0.05950867 -0.072796926 0.008606413 -0.051065877 0.10578684 -0.1135203 -0.012541765 -0.09571032
0.033558454 -0.07639393 -0.06702889 -0.113512225 -0.07755905 -0.070857495 -0.01197042 -0.07756553
0.008186025 -0.05179127 -0.040471327 0.100452304 0.03266167 -0.006365566 0.025393408 0.14208005
-0.062308304 -0.112788066 -0.024388354 0.021395942 -0.08523756 -0.0071129156 -0.110670686 -0.119153984
0.05585665 -0.030050868 -0.04535989 0.0018470413 -0.10982817 0.18274868 -0.087330185 0.038723495
00000000: 0f50 f7bb db1d 02be 95d1 efbc bc32 c5bc
00000010: d9cd 11bd a460 3a3e 59ac 32bc d847 1dbd
00000020: 695a c93d b415 e8bd f059 a0bb d2ab 6f3e
00000030: 7ebe 2e3d 35d8 6dbd e5c6 c53c dc72 ffb8
00000040: d1ef b73b a43c debd 3f18 84bc dc7f e1bd
00000050: c3ae 9fba 64a0 933e d48e 8fbd 7398 413d
00000060: 1887 04bd 7152 99bd 993e dbbd 3628 a13c
00000070: 9663 d2bd 84ed 3bbc 9f6b 6dbd 9e50 35bd
00000080: 7b4d c5bc 7cf8 84bc 48e2 a23c 20f8 4c3b
00000090: c02b e7bd 2bfb f4bc 7c3d 303e 2fee d8bc
000000a0: 421a 5f3e a0ec b2bd 9514 4bbd 68af c73c
000000b0: 6d8b e2bc 1473 1dbd d02c 0c3e 9365 ebbc
000000c0: 9843 61bc 33c7 61bd b0a1 35bd b849 9d3c
000000d0: ee30 32bd 5b80 9abc 2bc9 9abc 2137 adbd
000000e0: 89f0 7fbd d865 1a3d cd84 e9bd 5d81 04bd
000000f0: 5f43 843d 5f61 debd c683 64bc f4fd c4bd
00000100: 352b ea3d 3b58 7ebc ca7f 223d f140 683d
00000110: e8de c6bc 7820 a53c c066 8cba 0af2 60bc
00000120: e6ea 3bbe f994 c2bc aa2b 453c 908f 96bc
00000130: ede5 15bd 40a3 12be 21b4 b5bc 2b27 56bd
00000140: 87f2 443d d7cd a23d f58f 1bbd 0b05 2c3c
00000150: 43a8 5ebd 5da8 35be f4f3 7abd 825c 6c3e
00000160: 0e28 b8bd 2a5d 263e 7493 5e3b 3559 0238
00000170: e34a 85bc cc18 a23d 3608 53bd 4864 233c
00000180: 5212 37bd d64b 93bd 5816 f6bb 41de f83b
00000190: 3fe8 8fbc 6557 043d 6cab 39bd c4f9 cfbd
000001a0: 9438 1a3c 37a5 d5bd 25dd c9bd 3d25 183d
000001b0: 39a7 aebc 548d 98bd 38b3 abbd 41bc 0cbd
000001c0: d7e2 893d 1ba6 77bc a720 11be 1728 b0bd
000001d0: ca2e b4bb 53b5 52bd dd5c 4fbd 23f4 82bd
000001e0: 43f6 bf3c 59e2 8d3d f0d4 51be 7d51 ecbd
000001f0: b740 d6bd 9eaf c53d 2491 e4bd 4f53 c4bd
00000200: d0be 923b 56a7 d6bd 04e9 8dbd 4d29 10bc
00000210: 4f2c e9bd a4f8 6ebd d5b0 0bbd 984f 59bd
00000220: c5cd 8abd af7f 08be da14 4dbd 5407 173d
00000230: feb7 5ebd ab66 cf3c fc7f 78bc 6bc2 f8bd
00000240: b17d 20bd f487 90bd 0180 9abd 0a2b ebbd
00000250: 799b acbd a061 b9bd 1b5a 503a 8164 cebd
00000260: 6493 8cbd de75 253d 1c44 b8bd 56d0 acbd
00000270: 9aa2 eb3d 752e e4bd fc2f 933a 8e47 7bbd
00000280: e694 7abd a845 a4bd 5dc3 31bd 8e5b 6bbd
00000290: eddb 3ebd db00 6fbd 3e92 d83d 2c88 003e
000002a0: cee3 6ebd 476c 01bc 2a5d b13b 0092 8e3b
000002b0: f991 263e 94ec e7bd c29e d1bd 78f9 c0bd
000002c0: 3147 21bd cdcb d3bd 8a5e babd 8c6b c0bd
000002d0: a8b1 70bd be64 49bd f27d e63d c0d8 8fbc
000002e0: 2dba 7b3c 0110 533c d039 deb9 ad12 bfbc
000002f0: 2a8e 77bd b084 50be efc5 443e d1ce 86bd
00000300: 3c33 a03d 640b 4dbc 29a9 973d 8e60 d3bc
00000310: 70c9 3b3e 5b8a 913b 2697 a3bd 179c e7bd
00000320: 819e 543a cf81 38be bd3c 7cbd 80d3 cfbd
00000330: 0bca d0bc 22a2 4c3d 03a1 cabb 7e99 6a3d
00000340: cf2d 68bd 9aa1 073e f5d0 5fbd d949 3a3d
00000350: 08fc f6bc 6808 f1bd 99e4 943e fb87 5dbd
00000360: 5dbf 73bd 8e16 95bd ea01 0d3c 742a 51bd
00000370: c5a6 d83d 557d e8bd fa7b 4dbc c603 c4bd
00000380: 9774 093d 6c74 9cbd 7146 89bd 1979 e8bd
00000390: 47d7 9ebd bc1d 91bd 951f 44bc adda 9ebd
000003a0: ad1e 063c 1523 54bd 43c5 25bd f0b9 cd3d
000003b0: 3ec8 053d 3d96 d0bb d605 d03c 6f7d 113e
000003c0: fe36 7fbd 6efd e6bd 16ca c7bc 8b46 af3c
000003d0: 0891 aebd 7613 e9bb 50a7 e2bd 0107 f4bd
000003e0: f1c9 643d 3d2d f6bc 4bcb 39bd 6c18 f23a
000003f0: 97ed e0bd 7822 3b3e 2bda b2bd 879c 1e3d

classifier.weight f4 [16, 256]
-0.18313926 0.04345044 -0.08311725 -0.14537148 -0.09798626 -0.104811355 -0.066123426 -0.04337012
-0.21100405 -0.041012432 -0.18098572 -0.1694197 -0.20069736 -0.11428059 -0.08740029 -0.028588025
-0.206231 -0.11739786 -0.024079857 -0.11798292 -0.0486718 -0.23607658 -0.005243448 -0.2110085
-0.06502972 -0.056621313 0.045439333 -0.18144806 -0.16464943 -0.040201724 -0.06808691 -0.029597808
-0.08811199 -0.016534029 -0.17812783 -0.00853733 -0.072481595 -0.044307165 -0.14614339 -0.08602383
-0.18797538 -0.044378337 -0.12739427 -0.12843828 -0.026105803 -0.061104923 -0.1404903 -0.19256166
-0.010536009 -0.18655156 -0.10566395 -0.17170724 -0.13238785 -0.05279714 -0.20698644 -0.15980306
-0.06359634 -0.14637704 -0.027007455 -0.010812727 -0.14086273 -0.09473708 -0.12881584 -0.1337614
-0.20265193 -0.027462041 -0.12761858 -0.17021874 -0.09635077 -0.07033004 -0.0013168305 -0.11496688
-0.16572595 -0.077852294 -0.04459004 -0.031986393 -0.0036978077 -0.14877647 -0.07362476 -0.1892351
-0.151175 -0.18411309 -0.080557644 -0.14443213 -0.09409919 -0.059296537 -0.10622433 -0.21344784
-0.16357967 -0.18763839 -0.13875349 -0.08194565 -0.11857069 -0.17747661 -0.01970614 0.02195973
-0.08045327 -0.02577955 -0.03124913 -0.13497081 -0.036358606 -0.06694562 -0.104876846 -0.058496345
-0.031156013 -0.13507512 -0.0072885887 -0.10116205 -0.03187437 -0.21704306 -0.037881896 -0.07549176
-0.13161796 -0.076561324 -0.026601456 0.015624821 -0.11627722 -0.13352326 -0.041206658 -0.058368776
-0.15446758 -0.13184594 -0.13880517 0.008725973 -0.099121965 -0.16630784 -0.020069554 -0.0069375252
-0.037706904 -0.115955204 -0.16205426 -0.12092874 -0.101054706 -0.022955619 -0.0642028 0.008595079
-0.1929542 -0.09583371 0.017832175 -0.06525135 -0.07742953 -0.08107319 -0.054238755 -0.09991246
-0.1608918 -0.015006537 -0.14502053 -0.02465742 -0.07937085 -0.1054852 -0.076000474 -0.09748332
-0.1030835 -0.12294926 0.025582045 -0.15811302 -0.13045192 -0.050814595 -0.062160503 -0.019345162
-0.105486825 -0.051107656 -0.010744787 -0.0491453 -0.08488917 -0.03790452 -0.18048415 -0.10904808
-0.15520531 -0.21769111 -0.22680749 -0.15353122 -0.14527643 -0.18181528 -0.045123953 -0.019348344
-0.15066688 -0.13374543 -0.034695975 -0.02681369 -0.11973019 -0.023913456 -0.08187121 -0.12806772
-0.15624301 -0.10653155 -0.18603426 -0.114636734 -0.02102591 -0.19838916 -0.1478757 -0.05171568
-0.09659492 -0.013298685 -0.07567419 -0.12826703 -0.20369808 -0.11452552 -0.070594646 -0.07477957
-0.10810777 -0.10246436 -0.06825977 -0.016669765 -0.13188669 -0.19835532 -0.08268408 -0.18452594
-0.0073934156 -0.14320748 -0.12051637 -0.09463756 -0.08381934 -0.12590456 -0.14797951 -0.029294144
-0.11899305 -0.0032396489 -0.09505549 -0.10135686 -0.13457789 -0.025211444 -0.11296928 -0.10197459
-0.12310264 -0.09937459 -0.068896234 -0.13996682 -0.14643902 -0.023648975 -0.13608742 -0.06361321
-0.15338665 -0.062979095 -0.11150885 -0.13785478 -0.08584972 -0.09603761 -0.05933384 -0.1702615
-0.08648552 0.0053265607 -0.15895166 -0.113295496 -0.2097813 -0.0049827327 0.05553288 -0.13613905
-0.08607747 -0.15546322 -0.11871666 -0.1429175 -0.07081402 -0.141413 -0.205225 -0.116437346
00000000: dc88 3bbe 17f9 313d 6039 aabd 43dc 14be
00000010: 05ad c8bd 56a7 d6bd b86b 87bd dea4 31bd
00000020: 7211 58be a7fc 27bd 5254 39be 5c7c 2dbe
00000030: 9c83 4dbe f10b eabd ecfe b2bd 6f31 eabc
00000040: 382e 53be 4a6e f0bd 1f43 c5bc 07a1 f1bd
00000050: 155c 47bd 0fbe 71be 3bd1 abbb 9d12 58be
00000060: 4d2e 85bd c0eb 67bd 981e 3a3d 85cd 39be
00000070: dc99 28be 90aa 24bd 2671 8bbd 1a77 f2bc
00000080: 0f74 b4bd 5f72 87bc 2467 36be 28e0 0bbc
00000090: 3b71 94bd 6e7b 35bd 9da6 15be 432d b0bd
000000a0: 9e7c 40be 0fc6 35bd a573 02be 5385 03be
000000b0: d6db d5bc 2849 7abd b0dc 0fbe e22e 45be
000000c0: 3a9f 2cbc 5f07 3fbe 5766 d8bd 06d4 2fbe
000000d0: ae90 07be d041 58bd 41f4 53be 6aa3 23be
000000e0: cc3e 82bd dde3 15be bd3e ddbc dd27 31bc
000000f0: 523e 10be 8405 c2bd 4de8 03be c0f8 08be
00000100: fd83 4fbe 13f8 e0bc 72ae 02be d24d 2ebe
00000110: 8d53 c5bd 3209 90bd 8099 acba c173 ebbd
00000120: 10b4 29be 0671 9fbd 0ca4 36bd 2a04 03bd
00000130: eb56 72bb dc58 18be 94c8 96bd d9c6 41be
00000140: 9fcd 1abe 2488 3cbe 68fb a4bd 04e6 13be
00000150: 13b7 c0bd ede0 72bd 248c d9bd 1292 5abe
00000160: 6e81 27be 4724 40be 6515 0ebe 1fd3 a7bd
00000170: 31d5 f2bd 6ebc 35be c56e a1bc e4e4 b33c
00000180: afc4 a4bd a32f d3bc 2dfe ffbc ca35 0abe
00000190: c3ec 14bd c91a 89bd acc9 d6bd dd99 6fbd
000001a0: e53a ffbc 2251 0abe 1dd5 eebb 0d2e cfbd
000001b0: b38e 02bd 8940 5ebe 0c2a 1bbd 6d9b 9abd
000001c0: dcc6 06be 2fcc 9cbd 4ceb d9bc 40ff 7f3c
000001d0: c022 eebd 52ba 08be 50c8 28bd 1914 6fbd
000001e0: c02c 1ebe 9f02 07be f122 0ebe 62f7 0e3c
000001f0: 7500 cbbd 9a4c 2abe e868 a4bc 2e54 e3bb
00000200: 8e72 1abd ec79 edbd 8df1 25be 7da9 f7bd
00000210: c5f5 cebd 6c0d bcbc c27c 83bd 60d2 0c3c
00000220: c995 45be 7744 c4bd c814 923c 80a2 85bd
00000230: 6093 9ebd b309 a6bd 7529 5ebd e79e ccbd
00000240: d2c0 24be fadd 75bc 4380 14be 5cfe c9bc
00000250: 2f8d a2bd a008 d8bd 23a6 9bbd 56a5 c7bd
00000260: 711d d3bd d2cc fbbd 7091 d13c 61e8 21be
00000270: 3095 05be f722 50bd 039c 7ebd bf79 9ebc
00000280: 7a09 d8bd 4356 51bd e70a 30bc 954c 49bd
00000290: 60da adbd c541 1bbd d6d0 38be 9a54 dfbd
000002a0: 24ee 1ebe 6bea 5ebe 3940 68be 4a37 1dbe
000002b0: 58c3 14be c92d 3abe e5d3 38bd 6b80 9ebc
000002c0: 6b48 1abe 90f4 08be 5e1d 0ebd 62a8 dbbc
000002d0: 1a35 f5bd 27e6 c3bc 18ac a7bd 2f24 03be
000002e0: 2bfe 1fbe 372d dabd c47f 3ebe aac6 eabd
000002f0: 873e acbc 8726 4bbe ba6c 17be d2d3 53bd
00000300: 8fd3 c5bd bae2 59bc 12fb 9abd 6f58 03be
00000310: 3b96 50be 5b8c eabd ed93 90bd 0826 99bd
00000320: 9b67 ddbd d6d8 d1bd c7cb 8bbd 088f 88bc
00000330: 4e0d 07be a81d 4bbe 4556 a9bd 5ef4 3cbe
00000340: 7744 f2bb fba4 12be 49d1 f6bd 56d1 c1bd
00000350: 79a9 abbd 20ed 00be f187 17be 46fa efbc
00000360: a1b2 f3bd 4a50 54bb 74ac c2bd 2f94 cfbd
00000370: c9ce 09be 3b88 cebc 705c e7bd 0ed8 d0bd
00000380: 3d1d fcbd e884 cbbd 7819 8dbd 7653 0fbe
00000390: 1cf4 15be 7fbb c1bc 805a 0bbe a547 82bd
000003a0: 6411 1dbe 2ffb 80bd c05e e4bd ce29 0dbe
000003b0: fad1 afbd 5eaf c4bd 0a08 73bd 0859 2ebe
000003c0: 521f b1bd 6e8a ae3b 39c4 22be 7807 e8bd
000003d0: e9d0 56be 3146 a3bb 7276 633d 0968 0bbe
000003e0: 6249 b0bd c031 1fbe b821 f3bd f758 12be
000003f0: f106 91bd 92ce 10be 8126 52be b476 eebd

classifier.bias f4 [16]
-0.074489385 -0.08630849 -0.10591569 -0.18610752 -0.052915037 0.019791706 0.069481984 0.0900821
0.11984862 0.07581765 0.1405981 0.079814635 -0.16383386 -0.16664243 -0.082385726 -0.081058696
00000000: e48d 98bd 81c2 b0bd 53ea d8bd f892 3ebe
00000010: 70bd 58bd 3722 a23c 924c 8e3d f77c b83d
00000020: 3173 f53d 4946 9b3d f3f8 0f3e db75 a33d
00000030: 10c4 27be 50a4 2abe d9b9 a8bd 1a02 a6bd
