transfer14_03_43_22_10_12_FullyConnected.pth (torch, 550959 bytes, 8 tensors)

fc1.weight f4 [256, 4]
000000 4e f6 7c 3e 54 9c a5 3e 20 f8 1e bd 9b 56 42 3e
       0.24703333 0.3234583 -0.03881085 0.1897835
000010 a4 d7 43 be 51 bf db be b1 dc 52 bd 72 62 f2 3e
       -0.19125229 -0.429194 -0.05148 0.47340733
000020 de 0f b0 be a8 5f ba bd a0 95 ec 3d 22 46 98 be
       -0.34387106 -0.09100276 0.11551976 -0.29741007
000030 0d ef 01 3e 49 51 02 3f 9a 47 ae be c3 a8 fa bd
       0.12688847 0.5090528 -0.34039003 -0.1223922
000040 f5 33 93 3e 16 e0 11 3f 49 1a d7 3e 87 a6 98 bd
       0.28750578 0.56982553 0.4201224 -0.074536376
000050 a0 0e 55 3e 66 b4 96 3e dc 0e 78 be b6 dd b9 be
       0.2080636 0.29434508 -0.24224418 -0.36301965
000060 58 a0 64 3e 5d 50 54 3e 54 5d aa 3d 7a 19 90 be
       0.22326791 0.20733781 0.08318582 -0.28144437
000070 56 05 dd be 61 26 49 be ce 67 0f bf 5f a8 96 be
       -0.43168133 -0.19643547 -0.5601777 -0.29425332
000080 d8 11 56 3e 00 3a f4 3c c8 6e af 3d e2 c2 f0 be
       0.20905244 0.029812813 0.08566052 -0.47023684
000090 c6 ce 1e bf fb 9c 66 3e 66 19 c8 be a8 88 c9 3e
       -0.6203426 0.22520821 -0.39081877 0.39362073
0000a0 13 fd 34 be 02 37 41 be 54 f8 b0 3e 85 39 e1 be
       -0.17674665 -0.1886864 0.3456446 -0.43989196
0000b0 80 61 c6 bd 70 17 71 3e d8 fc 1f be 7c 66 67 be
       -0.096865654 0.23544097 -0.15623796 -0.22597688
0000c0 a3 5b 37 3e 96 c5 04 bf 99 cb f4 be 1a 6e 41 3e
       0.1790605 -0.5186399 -0.47811583 0.18889657
0000d0 38 4d c9 3e 99 60 07 3e bb a8 fa be b0 35 9e bd
       0.39316726 0.13220443 -0.48956856 -0.07725084
0000e0 c7 c4 82 3e 24 76 f1 be 11 97 1a bf c0 74 86 be
       0.25540754 -0.47160447 -0.6038676 -0.26260948
0000f0 40 ae be 3c cc 48 6c be 7c 22 99 3e 34 91 ce be
       0.023276448 -0.23074645 0.29909122 -0.40345156
000100 c6 f0 d7 be 4b 9a 87 3d 35 3d 8c bd 6f d1 11 be
       -0.42175883 0.06621226 -0.06847612 -0.14240049
000110 c1 18 91 3e 1a 72 01 bf 70 48 2f bf a6 19 a0 be
       0.28339198 -0.5056473 -0.68469906 -0.31269568
000120 0c 4c 63 3e b5 9a e6 bd d1 c3 d9 be 03 48 03 bd
       0.22196978 -0.11259977 -0.4253221 -0.032051098
000130 06 e8 f1 3e 64 4d 74 3e 4a b3 fc be 4a 4d 81 be
       0.47247332 0.23857647 -0.49355537 -0.2525428
000140 c6 cc a8 3e 8b 00 0a bf f3 9d 0f bf 53 86 b7 3e
       0.3296873 -0.5390708 -0.56100386 0.3584467
000150 30 51 bf 3e e7 ed cb be 10 c8 36 3d 82 4b 90 3e
       0.3736663 -0.39829943 0.04462439 0.28182608
000160 66 ef c3 3e cf 06 d8 3e 95 ba 8a be a4 e4 ec be
       0.38268584 0.42192695 -0.27095476 -0.4626819
000170 de cc 01 3f f6 29 d8 3e 91 41 34 3d af de c9 3c
       0.5070323 0.42219514 0.04400784 0.024642317
000180 1f f6 7e 3d 49 02 cb be a0 de 17 bd da 40 b6 3e
       0.062246438 -0.3965018 -0.037077546 0.35596353
000190 c4 ad 95 3e bb 03 a9 bc da 1f 8e 3e f8 39 b0 3e
       0.29234135 -0.020631662 0.27758676 0.34419227
0001a0 0b 5c 7b be ad 70 dc be 52 48 f8 3e 98 16 d2 3d
       -0.2454683 -0.43054715 0.48492676 0.10258216
0001b0 5c 96 b7 3e 1b c7 12 bf 84 db b1 be 91 c9 43 be
       0.35856903 -0.5733506 -0.3473779 -0.1911986
0001c0 2b 30 04 3f b8 01 ca bb 76 85 e2 be d9 cd 23 3e
       0.51636 -0.0061647557 -0.44242448 0.15996493
0001d0 ec ed 48 3e 4c d4 61 3e 6c 96 1e 3e 40 cc df 3c
       0.1962201 0.22053641 0.15487069 0.027319074
0001e0 5d 7c 83 3e 2e 6a b5 3e 74 c4 a9 3e cd 24 08 be
       0.2568082 0.3543257 0.33157694 -0.13295288
0001f0 56 77 ae 3e b2 cc 1b bf bc f7 90 be 6d 6b 39 be
       0.3407542 -0.60859215 -0.28314006 -0.18107386
000200 4a 84 f5 3e 33 0a 5d bb 98 b4 dd bd dd d8 e7 be
       0.4795249 -0.0033728003 -0.10825461 -0.4528264
000210 7b 4e ce 3e af d0 0a 3e d1 c3 e8 be 56 b0 d5 3d
       0.4029425 0.13556169 -0.45461896 0.10434024
000220 7a f7 cf be 2f d7 ba be 72 ec e1 3d 5b 25 33 3d
       -0.40618497 -0.36492297 0.110314265 0.043736797
000230 ef 5a cd 3d 83 ea 1c bf 3b 8f 88 be 26 3b 76 bd
       0.1002711 -0.61295336 -0.26671776 -0.060115002
000240 0f cc 8a 3e 21 87 ee 3d b7 77 05 3f ec da 81 bc
       0.2710881 0.116468675 0.52135795 -0.01585146
000250 81 0c 97 3c a3 34 18 bf f0 9b b8 bc 69 d0 b3 be
       0.01843858 -0.5945532 -0.022535294 -0.35119942
000260 61 a6 4d 3e 2d 27 7c 3e 86 b2 ab be 19 3d 2c be
       0.20083 0.2462432 -0.3353464 -0.16820182
000270 78 96 8c bd 66 8c d6 3e f9 4a e5 3e 42 99 90 3e
       -0.06864637 0.4190399 0.44783762 0.28241926
000280 76 11 b4 be c0 a0 0b 3d 40 0a c4 3c f0 d8 c8 be
       -0.35169572 0.03408885 0.023930669 -0.3922801
000290 03 96 82 3d c9 94 21 3f 21 02 7a 3e db aa 9c be
       0.06376269 0.63117653 0.24414875 -0.30599102
0002a0 7e 15 22 3e b5 29 c7 3e e4 26 e5 3e 3b ad 3e 3d
       0.15828511 0.38899007 0.44756234 0.046551924
0002b0 47 51 0b 3e 5e 60 b4 3d c6 1b 64 3e 08 3b 91 3e
       0.13605224 0.08807443 0.2227622 0.2836535
0002c0 99 13 c7 bc 69 64 b6 3e c7 0b c7 3d 9f 57 9a 3e
       -0.024301337 0.35623482 0.09719043 0.30144975
0002d0 5f 28 6b be 1d 5f 3e be 96 98 1a bf e3 72 8e be
       -0.22964619 -0.1859097 -0.6038908 -0.27822027
0002e0 79 d7 08 bf 1c 2d 14 bf 6f 50 5b 3d 40 64 9b 3e
       -0.53453785 -0.5788133 0.053543504 0.30349922
0002f0 e6 ad 73 be b6 0c 9c be 50 f9 f3 be cc a6 55 3e
       -0.23796806 -0.30478448 -0.47651148 0.20864409
000300 b7 f0 c8 3e 34 9f 5f be ec eb 05 bf ef 1f 94 be
       0.3924615 -0.21838075 -0.52313113 -0.28930613
000310 44 6f d8 be a8 7b 6a 3e ae 33 ae be 38 65 78 be
       -0.4227239 0.22898734 -0.34023803 -0.24257362
000320 85 e8 09 3d 3b 57 2a bf 71 75 d8 be b1 85 f5 3e
       0.033669014 -0.66539353 -0.422771 0.4795356
000330 78 c5 8d be d1 d7 d5 3e e3 d4 c1 3e ee 98 9e 3e
       -0.2768972 0.41766217 0.37857732 0.3097605
000340 c7 f2 23 be f3 85 b2 3e df 00 df bc dd cf cf 3e
       -0.16010581 0.3486782 -0.027222095 0.40588275
000350 00 8c d8 3b 56 91 90 be c2 cf 9d 3e 50 a3 73 3d
       0.006608486 -0.28235883 0.3082257 0.05948192
000360 3e 9f d6 be 40 b6 eb 3c 38 16 59 3e 1a c0 89 be
       -0.41918367 0.028773427 0.21199882 -0.26904374
000370 7b 3d f8 3e 48 90 a4 be 16 1b a5 3e 40 2b c1 be
       0.48484406 -0.32141328 0.32247227 -0.3772831
000380 d6 71 c6 be 50 b9 03 bd fc 5b 52 be a8 5a 53 be
       -0.38758725 -0.03215915 -0.20542902 -0.20640051
000390 9f f5 9d 3d 60 1e cc 3e 9a 65 b7 3e f8 ae 8f be
       0.07712864 0.39866924 0.35819703 -0.28063178
0003a0 f2 12 2a 3e da fb a0 3e 82 b4 9d bd 5f a4 ab bd
       0.1660879 0.31442147 -0.07700445 -0.08380961
0003b0 e2 45 86 3e 0d b9 1f bf fd ea 23 bf 51 95 0d bf
       0.2622519 -0.6239174 -0.6403044 -0.55305964
0003c0 a8 9e 8f be 0a 63 83 3e b0 cf d4 3d ca 7b b2 be
       -0.28050733 0.25661498 0.10391176 -0.3486007
0003d0 37 c2 59 bd ed 18 10 3e 40 0e 46 be 85 42 35 3e
       -0.053163733 0.14072008 -0.19341373 0.17701156
0003e0 3e 30 75 3e ff 50 08 3e e0 1a 45 be 48 52 35 bd
       0.23944184 0.13312148 -0.19248533 -0.044267923
0003f0 7b c0 be 3e 76 ef 58 3e b9 49 cf 3e 05 57 01 bd
       0.37256226 0.21185097 0.40485933 -0.03157713

fc1.bias f4 [256]
000000 07 10 80 bd c2 81 7a be c4 6a 09 3e e2 1f 2c 3e
       -0.06253057 -0.24463561 0.13419634 0.16809037
000010 44 0c 7c 3e d4 1e 27 be 3d 78 bf 3e 10 e5 c6 3e
       0.24614054 -0.16320354 0.37396422 0.38846636
000020 20 7d 66 bd c2 73 28 3e 4a d8 9f 3e bc 63 15 be
       -0.056271672 0.16450408 0.31219703 -0.14588827
000030 12 2a e6 3b 9b 4e a1 3e 65 31 84 3e a4 64 91 be
       0.007024058 0.31505284 0.25818935 -0.28397095
000040 ed 1b ba 3e 3c 96 26 3d ea d3 9a 3e 26 d6 ac be
       0.3634943 0.04067062 0.30239803 -0.33757132
000050 d6 9b 94 3d 92 44 e5 bc 75 5b 5a 3e 75 cd 4d bd
       0.07256286 -0.027986798 0.2132395 -0.050244767
000060 73 97 aa 3d 4f 50 8c 3e 66 ed 4c 3e 86 31 ab bd
       0.08329668 0.2740502 0.20012435 -0.08359055
000070 ab 6f 51 be 30 d0 e8 be ea 38 b4 3e ee 76 a3 bd
       -0.20452754 -0.45471334 0.35199672 -0.079816684
000080 1c 86 26 3e 22 b7 f1 be de 31 fb bd 18 a2 d7 bd
       0.16262096 -0.47210032 -0.12265371 -0.10528964
000090 f1 67 db be 17 76 be 3e 1e 43 d5 3e 53 cb 20 be
       -0.42852738 0.3719947 0.4165277 -0.15702562
0000a0 18 65 97 be b5 a2 eb 3c 76 8d 04 3e 2a 9f f1 ba
       -0.29569316 0.028764108 0.12944588 -0.0018434275
0000b0 f9 a7 c8 3b ab 37 69 3e 70 b9 86 3d f8 d1 91 3e
       0.0061235395 0.22775142 0.06578338 0.28480506
0000c0 46 66 bd 3e 74 ea 8d be d3 52 48 be 9a 45 80 3e
       0.3699209 -0.27717936 -0.19562845 0.25053102
0000d0 de 08 9b bd 16 d0 ad be 60 1a d4 3c 0e 4f 42 3e
       -0.07570051 -0.3394782 0.025891483 0.1897547
0000e0 58 0c 8c bd ad 31 d0 3e 70 ba 9f 3d 7c c3 bb 3e
       -0.06838292 0.406629 0.07799232 0.3667258
0000f0 6c cb df be a4 26 a6 be 17 27 81 bd 41 c2 a6 3e
       -0.43709886 -0.32451355 -0.06306284 0.3257008
000100 83 5e 72 3e 5a 6c 5b 3e a8 5d c9 3c a9 94 55 be
       0.23668866 0.21428052 0.024580792 -0.2085749
000110 44 e1 c0 be ac 5e da be ec 82 d2 bd 53 2d cb bd
       -0.37671864 -0.42650354 -0.102788776 -0.09920754
000120 2e 45 08 3f 2f 93 3a be c0 79 13 3c 65 b9 0c 3e
       0.5323056 -0.18220209 0.009001195 0.13742597
000130 3e ae c2 3c 78 aa e9 3d 9a 68 7f 3e 42 b0 b2 3e
       0.023764726 0.114094675 0.24942246 0.349001
000140 15 e6 48 3e 68 88 fe be 25 5e a8 bd c3 8d 27 3e
       0.1961902 -0.49713445 -0.08221082 0.16362672
000150 ae 43 77 be 8c 95 70 be 1f 27 73 3e 76 9c 94 be
       -0.24146912 -0.23494548 0.23745392 -0.2902562
000160 16 ec e8 bd 52 2b 74 3e 22 97 fd 3d 99 b8 41 3e
       -0.11373155 0.2384465 0.12382342 0.18918075
000170 ca ba 80 bd b0 4b c8 3e af 10 83 3e f0 6d 14 3e
       -0.06285627 0.39120245 0.25598666 0.14495063
000180 08 db a0 3e a4 ce 74 be 24 74 4d be ab 8f 82 3d
       0.31417108 -0.23906952 -0.20063835 0.06375059
000190 2d 80 b3 be c6 f9 6e 3e 3d c2 92 3e b4 19 07 be
       -0.35058728 0.23337469 0.28663817 -0.13193399
0001a0 46 82 16 be 6f b8 4b be 0a d1 12 3c ce 13 4c 3e
       -0.14698133 -0.19894575 0.008960972 0.1992943
0001b0 66 65 7a 3e 24 12 6b 3e 4e 45 c2 be d2 82 16 3d
       0.24452743 0.22956139 -0.379435 0.036745854
0001c0 2b 8d 57 3c ca 8f e3 3d 5f 09 e4 bd e3 3a 59 3e
       0.013156216 0.1111141 -0.111346 0.2121387
0001d0 08 6b d9 3e 9a e7 93 be 65 ee a9 3e 27 e0 dc be
       0.4246447 -0.28887635 0.33189693 -0.43139765
0001e0 e4 0f 7c be c0 91 b5 3e 2c f0 0a be 04 99 95 be
       -0.24615437 0.3546276 -0.13568181 -0.29218304
0001f0 9c 3e 59 3e dc ce af 3e 88 bc 9a 3e ac 20 b7 3d
       0.2121529 0.3433751 0.30221963 0.089417785
000200 c0 a9 fa be 36 b1 c0 3e f2 3e e4 3d 61 88 f4 bd
       -0.48957634 0.376352 0.11144818 -0.11940075
000210 c8 20 98 be ec a0 3b 3e 69 11 ae be 48 31 f9 be
       -0.2971251 0.18323106 -0.33997658 -0.4867041
000220 56 32 e0 be d3 56 51 3e 34 be c5 be eb 6c 0e bf
       -0.43788403 0.20443277 -0.38621676 -0.55634946
000230 10 7a 9c be bf 56 04 be 30 b4 f6 bd 70 b5 2d 3e
       -0.30561876 -0.12923716 -0.12046087 0.16963744
000240 08 2a 95 3d b4 ca a5 be 01 95 ae bd 58 53 b1 bd
       0.072834074 -0.32381213 -0.08524514 -0.08658475
000250 3c 58 69 be 84 7c 7f 3e 16 c0 a0 3e 40 28 08 bd
       -0.22787565 0.24949843 0.3139655 -0.03324151
000260 20 0c 71 bd 65 bf f6 bc e1 cc fa 3d 78 50 85 bd
       -0.058849454 -0.03012056 0.12246109 -0.06509489
000270 b9 55 33 3e d5 80 01 be 32 04 e4 be 60 19 b4 be
       0.1751317 -0.12646802 -0.4453445 -0.3517561
000280 df 31 42 bd cc f0 c8 3e 77 f7 91 3e 40 7a 83 3e
       -0.047410842 0.39246213 0.28509113 0.25679207
000290 ec cc 01 be 93 26 37 3e 10 8a b4 bd 6d 1c 64 3e
       -0.12675828 0.17885809 -0.08815396 0.22276469
0002a0 ae 6b 8f 3e 7e 90 ad 3e 25 cd 30 3e da 81 0e bc
       0.2801184 0.338993 0.17265756 -0.008697951
0002b0 a4 11 bb be 06 88 8b 3e 85 fd bd be d3 73 9c 3c
       -0.36536896 0.27252215 -0.37107483 0.019098198
0002c0 90 43 5f 3d 5d ef d5 3d 69 81 b9 3e 08 0d 27 be
       0.054507792 0.104460455 0.36231545 -0.16313565
0002d0 41 bb c0 3d 01 da a0 bd 2f a2 4b 3e 40 ef a7 be
       0.09410716 -0.07854081 0.19886087 -0.3279972
0002e0 e8 2c 78 3e 84 9a f6 bd 98 43 d4 3e 8c 4b d3 be
       0.2423588 -0.1204119 0.4145782 -0.41268575
0002f0 97 3e 9f 3d 06 e2 92 3d a8 25 51 3e 34 6a 9e 3e
       0.0777561 0.07172017 0.20424521 0.30940402
000300 90 a6 fc bd 43 9e 05 be 81 b6 0e be 6a 95 68 be
       -0.12336457 -0.13048653 -0.13936807 -0.22713247
000310 84 5a af be d4 9d 80 bd be 25 10 be 38 65 f7 be
       -0.34248745 -0.06280103 -0.14076898 -0.4831941
000320 75 63 b5 3d b4 30 8b be fa 0e d4 be b0 c0 e3 bd
       0.088568605 -0.27185595 -0.41417676 -0.111207366
000330 40 13 d4 bd 8c 91 a3 3d 73 b0 8a 3e 00 66 ff bb
       -0.10355234 0.07986745 0.27087745 -0.007794142
000340 18 1e 66 be 5b b9 8b bd 28 42 5a 3d a8 a3 d1 bd
       -0.22472417 -0.06822463 0.053285748 -0.10236293
000350 60 da ad be cf 06 7f 3e 00 03 bf bd d8 19 22 3e
       -0.3395567 0.24904941 -0.09326744 0.15830171
000360 c5 a3 35 3e 3e a9 85 be 51 a8 82 be 8e cf 92 3e
       0.17738254 -0.26105684 -0.2551904 0.28673977
000370 03 63 f4 bd 09 40 37 3e 35 a1 ef bd d2 51 dc 3e
       -0.119329475 0.17895521 -0.1170067 0.43031174
000380 df 3c 3a 3e 53 9f 79 3e bb bd 6e 3e c0 00 4b be
       0.18187283 0.24377184 0.23314564 -0.19824505
000390 ac 4d c7 be 14 2c fd be 9a a6 d3 be 5a 30 8e 3e
       -0.38926446 -0.4944769 -0.41338044 0.27771264
0003a0 18 86 ef bd b8 51 b8 bd 49 7d 1b 3e 55 8d 7e bd
       -0.11695498 -0.089999616 0.15184511 -0.062146503
0003b0 bb 43 d1 bd 64 c0 61 be 2c 1f bf be 7e 29 17 be
       -0.10217997 -0.22046047 -0.3732847 -0.14761922
0003c0 04 da b3 3e 55 e0 1f 3e a0 61 d9 3c fa 8e aa be
       0.3512727 0.1561292 0.026535809 -0.33312207
0003d0 be 8b 85 be 0a f9 32 3e c6 4b de be 55 5f 02 3e
       -0.26083177 0.17477813 -0.43417186 0.12731679
0003e0 72 04 77 3e ac 05 e6 be 74 ce 48 3e f5 cd 43 3d
       0.2412279 -0.44926202 0.19610006 0.047803838
0003f0 40 d8 01 3d 8a 58 a2 3e d8 45 fa be 86 99 9e be
       0.031700373 0.31708175 -0.48881412 -0.30976504

fc2.weight f4 [256, 256]
000000 8c 15 fa bc b0 71 20 bc 40 d0 8e bc d8 a9 21 bd
       -0.030527852 -0.00979273 -0.017433286 -0.039468616
000010 78 d1 95 bc 2e 56 5d bd ac 6e 13 bd 1c 96 b2 3c
       -0.018288359 -0.054037265 -0.035994217 0.021800093
000020 00 b8 ec 3c b0 48 6b 3d e4 fe 1e 3d 76 64 03 3d
       0.028896332 0.057442367 0.0388173 0.03207823
000030 98 33 7e bd e0 0f e3 bc c0 11 ee 3c 52 0a 20 bd
       -0.062060922 -0.02771753 0.029061198 -0.039072342
000040 30 4c 5e bd de 4e 0a 3d ac 27 2a bd 40 6b 05 3c
       -0.054271877 0.03376662 -0.04154174 0.008143246
000050 14 e2 de 3c de 81 21 bd c0 1b 29 3d c0 53 37 3d
       0.027207412 -0.03943049 0.04128623 0.044757605
000060 4e 79 0e bd b8 65 22 3d ac d3 ef 3c ee 23 29 bd
       -0.034783654 0.039647788 0.029275738 -0.04129403
000070 9c 16 fd bc 70 88 09 3c 70 62 83 3c 2e 7b 0b bd
       -0.03089457 0.008394346 0.01603815 -0.03405302
000080 2e fb 22 3d 26 fa 21 bd 30 c8 91 bb c4 3a 7f 3d
       0.039790325 -0.0395452 -0.004448913 0.062311903
000090 42 59 1e 3d 80 84 d1 3b 8c 45 7c 3d 70 dd a3 bb
       0.03865934 0.006393969 0.061589763 -0.0050007626
0000a0 d6 31 23 3d 2a 78 43 bd 08 20 71 bd c0 78 e1 ba
       0.03984245 -0.04772202 -0.058868438 -0.0017202124
0000b0 e0 c8 2c bc b0 80 af bc 82 b1 3a bd 96 5c 70 3d
       -0.010545939 -0.021423668 -0.04557944 0.058682047
0000c0 42 75 60 bd 2c 26 36 3d 8a f2 62 bd a4 6c 0b bd
       -0.054799326 0.044469997 -0.055407085 -0.034039155
0000d0 82 ef 23 3d fe 5e 66 3d de 88 78 bd 60 29 89 3b
       0.040023334 0.056242935 -0.0606774 0.0041858405
0000e0 48 2d 94 3c a0 a1 4d bb 18 a5 07 bd b0 3d 59 3c
       0.018087998 -0.0031376854 -0.03311643 0.013259336
0000f0 58 fc 4d 3d 98 34 c5 3c 50 ac d4 3c 70 d9 25 bd
       0.050289482 0.02407293 0.025961071 -0.040490568
000100 04 22 ef bc ec 50 03 3d 84 f3 5a bd 5c ca 68 bd
       -0.029191025 0.032059595 -0.05345489 -0.05683361
000110 4a 5f 41 bd d8 7a fe 3c 10 17 e9 bc c0 4e 78 bc
       -0.047210015 0.031064436 -0.02845338 -0.015155494
000120 76 1f 53 3d 64 df ee bc e4 bc 54 3d d0 9c 0d 3d
       0.051543675 -0.029159255 0.051937953 0.034573376
000130 58 f9 22 bd c0 2b b4 ba cc fb ea bc fc 80 28 bd
       -0.039788574 -0.0013745949 -0.02868452 -0.041138634
000140 60 65 cf bb 60 13 6b bc 62 24 5a 3d 92 40 0d 3d
       -0.0063292235 -0.014347881 0.053257354 0.034485407
000150 54 74 15 3d c0 80 db 3b 80 5d 67 3b c4 c5 70 3d
       0.036487892 0.006698698 0.0035303533 0.058782354
000160 48 19 5e bd 90 3e 4d bc 80 60 0d 3b 64 78 91 bc
       -0.05422333 -0.012527123 0.002157241 -0.017757602
000170 64 79 10 bd d6 86 63 3d a0 ac d0 bc 8c 54 82 bc
       -0.035272017 0.05554851 -0.025472939 -0.015909456
000180 0a 0b 60 bd e2 7a 4d 3d 4c b0 d3 bc 58 98 4f 3d
       -0.054698028 0.05016602 -0.0258409 0.050682396
000190 c0 0b ae 3b 58 c0 5a 3d 24 98 b4 bc 60 2f 61 bc
       0.0053114593 0.05340609 -0.022045203 -0.013744205
0001a0 c6 e7 7e bd b2 fb 4f 3d 6e 1f 71 bd a8 a2 11 3c
       -0.062232755 0.050777145 -0.058867864 0.008888878
0001b0 a0 0a 62 3b 08 13 65 bc 20 3f 13 bb e6 81 09 bd
       0.0034491196 -0.013981588 -0.0022468045 -0.033571146
0001c0 10 32 5e 3d 2a 46 74 bd e0 6e a8 3b 78 d7 fe 3c
       0.054246962 -0.059637226 0.0051401705 0.031108603
0001d0 d0 d0 c9 3c ac 2b 62 3d 46 a7 49 bd a8 09 51 bc
       0.024635702 0.05521743 -0.04923179 -0.01275865
0001e0 90 be 30 3d ac d8 dd bc 14 82 38 3d e0 08 98 3b
       0.043150485 -0.027080856 0.045045927 0.00463973
0001f0 84 6a 88 3c 00 35 4b bc 02 1d 16 bd 20 ef 14 3c
       0.016652353 -0.012402773 -0.036648758 0.009090215
000200 f8 b5 6a 3d b8 13 cd 3c b4 a4 ec bc 28 0b fa 3c
       0.057302445 0.025033817 -0.02888713 0.030522898
000210 88 8f da 3c f6 f5 73 3d e0 d0 66 3b e0 af 9e 3c
       0.02667977 0.05956074 0.0035219714 0.019370973
000220 aa 53 60 3d b8 45 b4 bc aa dd 7a bd a0 da b3 bb
       0.05476729 -0.0220059 -0.06124655 -0.0054887086
000230 14 cb b2 3c 48 ef 62 bd 40 d4 53 3b c0 80 22 3c
       0.02182535 -0.055403978 0.0032322556 0.009918392
000240 c0 b6 82 3a 5e 24 55 3d 00 0a 61 39 4c d5 cf bc
       0.0009972677 0.052036636 0.00021461397 -0.025370263
000250 c0 b1 82 bc e8 83 6e bd a0 f7 9b 3b 2e a9 55 3d
       -0.015953898 -0.058231264 0.004759744 0.052163295
000260 8e d1 39 3d b8 73 8b bc cc ee 20 3d 96 fd 0b bd
       0.045365863 -0.017022952 0.039290234 -0.034177385
000270 b8 32 c9 bc c4 c2 7b bd 56 55 07 bd 74 1b 86 bc
       -0.024560317 -0.06146504 -0.033040367 -0.016370513
000280 40 09 a6 bc a0 e0 19 bd be f1 10 bd f0 84 be bc
       -0.020268083 -0.037567735 -0.035386793 -0.023256749
000290 a4 a9 0c 3d f0 8c 84 3c 38 b8 24 3c 80 fc d8 3a
       0.03434147 0.016180485 0.010053687 0.0016554743
0002a0 a4 95 49 bd fc a4 b0 bc 60 3a 0b bc 56 05 0d 3d
       -0.049214974 -0.021563046 -0.008497804 0.034428917
0002b0 0a b6 0c 3d 1a 75 27 3d a6 f7 0f 3d a0 fc 48 3b
       0.034353293 0.04088316 0.035148285 0.0030668154
0002c0 a0 17 03 3c 98 a3 30 3c a0 2b e9 3b e4 63 87 bc
       0.008001238 0.010781191 0.007115796 -0.016527124
0002d0 c4 f8 c1 bc 7c 19 f0 bc 60 99 49 bd 50 a5 85 3c
       -0.023678191 -0.029309027 -0.049218535 0.016314179
0002e0 68 c8 61 bd 9c 0a f7 bc 06 39 02 3d ba 92 73 3d
       -0.055122763 -0.030156426 0.031792663 0.0594661
0002f0 90 92 e9 3c 1e f6 5d bd ac 8c f6 bc 10 07 52 3c
       0.02851227 -0.054189794 -0.030096374 0.012819067
000300 46 9a 31 3d a0 bf 76 3b bc 74 3f bd e8 18 24 bc
       0.043360017 0.0037650838 -0.046742186 -0.010015704
000310 f0 64 87 bc a0 aa 3f 3b 44 c0 f5 3c 00 64 22 39
       -0.016527623 0.0029245988 0.029998906 0.00015486777
000320 50 5b 10 bd 78 64 d8 bc 72 9c 17 bd f8 c9 66 3d
       -0.035243332 -0.026415095 -0.037014432 0.056344956
000330 92 c6 43 bd 20 c1 1e bd 40 a0 88 bc 4c 8a 7c bd
       -0.047796793 -0.038758397 -0.016677976 -0.061655328
000340 f0 35 5e bd 66 c6 0d bd 08 9a 66 bd 48 00 73 bc
       -0.054250658 -0.034613036 -0.05629924 -0.01483161
000350 50 bb c3 3c c0 f3 96 3a 12 93 02 3d 70 57 7e 3d
       0.023893028 0.0011516735 0.03187854 0.062095106
000360 60 ee 50 bc 98 96 d6 3c 38 bd 0a bc f4 60 9e bc
       -0.0127521455 0.026194856 -0.008467965 -0.01933334
000370 48 6e 51 bc 20 0a db bc 7a 1e 29 bd dc 67 c4 bc
       -0.012782641 -0.026738226 -0.04128883 -0.023975305
000380 d8 15 d7 3c 50 ae d7 3b f0 0e ce 3b b8 c9 f2 bc
       0.026255533 0.006582059 0.006288402 -0.029637203
000390 d6 a5 57 bd a8 fe 7e 3d 60 ca 0c bb 18 b7 7c bd
       -0.052648388 0.062254578 -0.002148293 -0.06169805
0003a0 2a 51 24 bd 58 d8 f0 3c 60 a2 44 bc 14 50 d3 3c
       -0.040116467 0.029400036 -0.012001604 0.02579502
0003b0 2c 44 a3 bc c8 83 01 bc 40 51 d0 bc a0 fe 2f 3b
       -0.019929968 -0.007904954 -0.025429368 0.002685465
0003c0 7e cb 64 3d 4a 19 1b bd 50 51 02 bc be 8c 14 bd
       0.055858128 -0.037865914 -0.007953957 -0.036267035
0003d0 f2 cf 4a 3d 88 4c c0 bc d0 b0 31 bc ee 03 79 3d
       0.04951472 -0.023473993 -0.010845378 0.060794763
0003e0 9c 4d ec 3c a0 14 d7 bc 48 bf e0 3c 44 20 5d 3d
       0.0288456 -0.026254952 0.02743496 0.05398585
0003f0 68 cd 77 3c 44 85 c1 bc 3c 81 f5 bc a6 b8 2b 3d
       0.015124656 -0.023623116 -0.02996885 0.04192414

fc2.bias f4 [256]
000000 ac 05 c9 bc 96 7d ff bc be 53 41 3d 23 77 09 bc
       -0.024538837 -0.031187814 0.047199003 -0.008390221
000010 e5 44 25 3d 46 62 da bd b8 75 55 bd 52 4d 49 3d
       0.040348906 -0.106632754 -0.05211422 0.049146004
000020 49 b5 03 3c ca bb 6e bd 84 20 c9 bc 84 a0 1a 3d
       0.008038827 -0.05828456 -0.024551637 0.037750736
000030 cb 5b e7 bd 20 32 c7 3c 51 43 cc bc f6 8c 00 bd
       -0.11296805 0.024315894 -0.024934443 -0.03138443
000040 38 19 9f bd 33 ec ca bd 08 70 09 bd c6 01 35 3d
       -0.07768482 -0.09908333 -0.033554107 0.044191144
000050 1b 19 0a bd 40 a8 67 bd b8 27 96 bd e2 ff ac bd
       -0.03371535 -0.05655694 -0.073317945 -0.08447243
000060 6e 5f 1a bd cf a3 49 3d e9 51 2c 3d 1d 08 10 bd
       -0.037688665 0.049228486 0.042070303 -0.035163987
000070 e0 68 1b bc 7e 97 c0 bc fb 8c c5 3d c2 0f 77 bd
       -0.009485453 -0.023509737 0.096460305 -0.060317762
000080 45 66 0c bd 5a 0c d1 bb 96 95 d5 bd b2 05 85 bd
       -0.03427722 -0.0063796462 -0.10428922 -0.06495227
000090 b4 b9 d2 3c 21 c8 f1 3d 4f f8 cb 3b 82 6d 8e bd
       0.025723316 0.1180575 0.006224669 -0.06954481
0000a0 68 67 c8 bc b5 7d 26 3d da c6 92 3c 9d a9 62 39
       -0.02446337 0.040647227 0.017917085 0.00021616225
0000b0 a1 77 c8 bd 39 a3 38 bd eb fe cb bd 9a d4 94 3d
       -0.097884424 -0.045077536 -0.09960731 0.07267113
0000c0 48 0c 99 bd 7e 49 2d 3d d5 a1 08 bc 25 4f dc bc
       -0.074730456 0.042306416 -0.008339365 -0.026893208
0000d0 47 ea b9 bd 77 d9 c1 bd 66 52 7d bd c1 75 07 bd
       -0.09077888 -0.09465306 -0.06184616 -0.033071283
0000e0 f3 85 f3 bd 9b 96 ec bd 03 20 18 bd 64 55 d6 bc
       -0.11890783 -0.11552163 -0.037139904 -0.026163764
0000f0 40 4c 84 3d 35 21 c2 3a f4 f4 6d bd c6 f5 50 bd
       0.06459856 0.0014810922 -0.058094934 -0.051015638
000100 a3 7e 9e bc fd 5d d3 bc c7 d7 8c bd 4a 29 bc bc
       -0.019347494 -0.025801653 -0.06877094 -0.022968907
000110 e8 97 8d bd 31 3f b4 3c d9 eb e3 3a aa ba c2 bd
       -0.069137394 0.022002788 0.0017389014 -0.095082596
000120 f6 a5 6d bd 57 33 94 bd 95 8c 35 bd 8b e6 b5 bd
       -0.0580196 -0.07236355 -0.044323523 -0.08881863
000130 d0 39 56 bd b0 35 27 bd d2 8a 4b bd 4c f1 f8 bc
       -0.052301228 -0.040822685 -0.049692936 -0.030388497
000140 b7 78 d4 bc 75 c9 d9 3d 1c 86 e4 3d 2e ed ed bd
       -0.025936468 0.10634128 0.11158392 -0.11617504
000150 e4 e7 e0 bd 7d ec fd 3d 7d 81 ac 3d 00 82 94 39
       -0.109817296 0.12398622 0.084231354 0.00028325617
000160 f4 d7 69 bd 21 1f 1f bb 8c c9 04 bc 5c 23 5e bd
       -0.057090715 -0.002428003 -0.008104693 -0.05423294
000170 bb ad 07 3d fb e7 62 bd a2 e8 71 bd 43 d2 f6 bd
       0.033124667 -0.055397015 -0.059059747 -0.12051823
000180 b0 86 86 3c 23 92 18 bd 3e 83 96 3d ad c8 7d 3d
       0.016421646 -0.03724874 0.07349251 0.061958957
000190 81 a7 d4 3d a0 f4 16 3c d6 aa c1 bc df c3 a8 3b
       0.10383511 0.009213597 -0.023641031 0.005150303
0001a0 c0 0b be 3c f2 4e 24 3d 01 0c d6 bd ce 86 39 bd
       0.023198962 0.04011435 -0.10451508 -0.045294575
0001b0 b0 16 8c 3b 5f 9a 47 bb c0 2d 65 bd 95 f8 89 3c
       0.0042751655 -0.0030457003 -0.055951834 0.016842166
0001c0 25 b0 5f bd 74 d3 32 bd 3a 1b 33 3d 52 34 81 bb
       -0.054611344 -0.04365869 0.043727137 -0.0039430046
0001d0 a4 ce b8 bc 2d 03 b0 bd 99 df 27 bd 43 1b 01 bd
       -0.022559471 -0.08594356 -0.040984724 -0.03152014
0001e0 97 6b a4 bd 5d 84 96 3d c0 40 99 bd e4 e9 3c 3d
       -0.08028334 0.07349465 -0.07483053 0.046121493
0001f0 cc a4 f3 bc 86 15 20 bd 8a 3b c7 bc 9e 49 0e 3e
       -0.029741667 -0.039083026 -0.024320383 0.1389527
000200 aa 48 5e bd ac 6e bc bd a4 13 55 bd cc 96 d0 bd
       -0.054268517 -0.092007965 -0.052020684 -0.10185012
000210 36 ce a9 bd 15 a3 d4 bd 8c e7 9e bc f2 4c 1c 3d
       -0.08291285 -0.10382668 -0.01939752 0.03815932
000220 f4 6f 75 bd 9e 4f a1 bd f9 77 f0 bd 8a 16 ca bb
       -0.05992122 -0.07876514 -0.11741633 -0.0061672376
000230 13 9d 04 bd f7 e8 94 bd 04 53 0a 3d 77 e4 08 bd
       -0.03237636 -0.07270997 0.033770576 -0.033421006
000240 69 7e de bd 21 d5 3d 3d 80 f9 ba 3c 0b 46 0b bb
       -0.108639546 0.046345834 0.022824049 -0.0021251466
000250 a0 61 a6 bc 17 14 9a 3b 0f 7d f3 bd 17 98 89 bd
       -0.020310223 0.004702102 -0.118890874 -0.06718462
000260 cf ef 6a bd c5 c8 79 bd eb 6a 72 3d 15 26 1c 3d
       -0.057357606 -0.060982484 0.059183996 0.038122255
000270 c0 df 24 3b 30 85 a0 bc 08 0b 7e 3d 8c c7 9b bd
       0.002515778 -0.019594759 0.06202224 -0.0760642
000280 70 78 e0 3b d2 5c 8b bd c3 8c 17 3d 97 04 ad bb
       0.006850295 -0.068048134 0.036999475 -0.005280088
000290 f3 d4 7d bd 90 5f e9 3d 36 65 47 bd 98 2e d4 bd
       -0.061970662 0.1139518 -0.048680507 -0.103604496
0002a0 63 b4 85 bd d2 50 2a bd 0b e8 99 3d de b7 32 bd
       -0.06528547 -0.041580983 0.07514962 -0.04363238
0002b0 3e 51 40 bd 2c 10 1c be 0a 5f 9f bd 78 20 10 bd
       -0.04695248 -0.15240544 -0.07781799 -0.035187215
0002c0 9a 61 ee 3d cb ea 4f 3d 69 e2 33 bd 59 b5 40 bc
       0.1163971 0.050761025 -0.043917093 -0.011761987
0002d0 bc 40 c9 bd 0f d5 46 bd d2 bb 95 bc bf 02 2b 3d
       -0.098268 -0.048543032 -0.018278036 0.041750666
0002e0 78 cb dd bc 00 d8 2d 39 69 fa 7d bd 01 24 7e bd
       -0.02707456 0.00016579032 -0.062006388 -0.062046055
0002f0 fa f1 b8 3d 10 df 41 bc 2b f3 f4 bd 8c 9f bb bc
       0.09030528 -0.011832967 -0.11960443 -0.022903226
000300 14 d3 0c bd dd 2c b5 3c 3a 22 16 bd b0 c5 06 bc
       -0.034380987 0.022116119 -0.036653735 -0.008225843
000310 82 f6 00 3e 55 c2 88 bd c0 38 54 bc 20 c0 2d ba
       0.12594035 -0.06677691 -0.012952983 -0.0006628055
000320 ce af 71 bd fe 05 d4 bd b7 3e 5a bd c9 e8 26 3d
       -0.05900555 -0.103527054 -0.053282466 0.040749345
000330 93 ec f6 bc 0c ca cb bd 50 9e 5a bd a0 b8 1d bc
       -0.030142104 -0.09950647 -0.053373635 -0.009626538
000340 af 09 ce bd c7 ef 19 bd a6 ee 20 bc f6 3a e0 bd
       -0.10060441 -0.037582185 -0.009822523 -0.10948746
000350 04 b7 bd 3d 15 a2 42 3c 1a 40 e7 bd b0 d5 c3 bc
       0.09263423 0.011879464 -0.11291523 -0.023905605
000360 14 af 8b bc ca b3 08 bd d8 00 2d bc 60 e8 fd bc
       -0.017051257 -0.033374585 -0.010559283 -0.030994594
000370 6e ee 1e bd 7e 9a cb bd 05 58 0f be 7e 16 65 bd
       -0.038801603 -0.099415764 -0.1399842 -0.055929653
000380 66 64 45 bd 36 4f 84 3d 81 d2 ee 3d 5d 14 ad bd
       -0.04819145 0.06460421 0.11661244 -0.084511496
000390 09 77 06 bc 54 ed 32 bd ed 9c 1d bd 80 63 c9 3b
       -0.008207091 -0.043683365 -0.038479734 0.0061458945
0003a0 b7 0f 90 3d ec cd b6 bd fa f4 9a bd 8c 95 06 3e
       0.07034247 -0.08925995 -0.07566257 0.13142985
0003b0 c2 86 f6 3c cf d2 6a bc 06 df 5f 3c 3d 48 c2 3c
       0.030093554 -0.014332487 0.013664013 0.023716087
0003c0 ba 6d 45 3c a0 16 8d 3d 93 b1 26 bc bf 8a 6c bd
       0.012050087 0.06889081 -0.010174173 -0.057749506
0003d0 34 b7 f5 bc 6b 86 ab bd 5f 69 20 3d 3f 51 2b bd
       -0.029994585 -0.083752476 0.03916299 -0.04182553
0003e0 98 23 e7 bc c8 f9 d7 bd 20 cc b2 bc e8 80 ea bc
       -0.028215215 -0.10545689 -0.02182585 -0.02862592
0003f0 00 c0 ba 3a a1 55 a5 3d 6c c9 a7 3d 61 a9 e8 bd
       0.0014247894 0.08072973 0.08192715 -0.113604315

fc3.weight f4 [256, 256]
000000 10 e7 bd bc ea 81 61 bc 9d 6a 3f 3d 7e 39 3e bd
       -0.023181468 -0.013763884 0.046732534 -0.046441548
000010 1b b5 fc bc 54 e6 9b 3d 40 c6 c0 3b 9a bd 10 bd
       -0.030848077 0.07612291 0.0058830082 -0.03533707
000020 d4 c9 20 bd b1 47 51 3b 68 b4 42 3c d4 5d 5a bd
       -0.03925498 0.00319336 0.0118838325 -0.053312138
000030 3d 03 05 bd c1 da 34 3d 6a 38 d9 bc f2 79 27 bd
       -0.03247379 0.044153932 -0.026516158 -0.04088778
000040 c0 59 9e 3d 42 77 02 3d db 99 e6 bc a8 fb 12 bd
       0.07731962 0.031852014 -0.028149536 -0.03588453
000050 b7 9d 95 3d 5f 88 4c 3c 88 64 bd be a9 b3 e6 bc
       0.07305472 0.012483685 -0.36990762 -0.02816184
000060 3a f8 8b 3d a2 6c 8a 3d 63 c9 32 bd 54 bf c7 3d
       0.06834455 0.06759001 -0.04364909 0.0975329
000070 56 03 44 3d 2d 78 d9 3d 5f 7f 34 3d 60 80 bb 3b
       0.047854744 0.10618625 0.044066783 0.0057220906
000080 1e 8f 58 be 1e 02 6b 3d d8 62 da 3b 32 3a e1 3d
       -0.21148345 0.057375066 0.006664615 0.10997428
000090 6c f2 e7 bc d0 b0 a1 3c 96 3b a4 3c 7b 62 7e bd
       -0.028313838 0.019737631 0.020047944 -0.062105637
0000a0 9e 37 5b bd 74 e3 41 3c 12 df b4 3d 5c 1a 02 3e
       -0.053519838 0.011834014 0.0883161 0.12705368
0000b0 31 fa c7 3d cd 25 c7 3b 84 52 d6 bd 69 ac e8 3d
       0.09764517 0.0060775043 -0.10464957 0.1136101
0000c0 87 07 cd 3c 85 a1 c9 3d 23 84 c2 3d 31 fc 8b 3d
       0.025028003 0.098452605 0.09497859 0.06835211
0000d0 e6 bc 26 bc 5d d3 a7 3c e7 58 5e bd ba 9b ad bc
       -0.010176873 0.020486528 -0.054284003 -0.02119242
0000e0 6c a7 b8 bb be 65 67 3d ae a5 48 3d 4a c2 25 3d
       -0.0056351926 0.056493513 0.04898613 0.04046849
0000f0 d7 3f 2d bc f8 9a de bd bf fb e6 3d 5e 54 1d bd
       -0.010574303 -0.10869402 0.112784855 -0.038410537
000100 56 92 78 3d 7e bc f3 3d 14 20 91 3d a6 18 d0 bc
       0.06068643 0.119011864 0.070861965 -0.025402378
000110 62 18 3e bd 54 a9 89 bc a9 d7 50 3d 0f 84 68 3b
       -0.046409972 -0.016804375 0.05098692 0.0035479104
000120 92 48 4d 3d 34 ef a7 bd 8f 82 c2 39 09 bf 72 bd
       0.050118037 -0.08199921 0.00037099837 -0.059264217
000130 56 4d d0 bd 0c d0 9c bd 2f 9b 11 bd e0 0e 6c bd
       -0.10171001 -0.07656869 -0.035548385 -0.057631373
000140 6a cc ee bd be a4 9c bc c8 c5 d7 3c 2c cb 31 bd
       -0.11660083 -0.019121524 0.026339427 -0.04340665
000150 c5 20 46 3c bd 9b 5d 3d e7 f2 4f bb 00 00 a7 b9
       0.012092774 0.0541036 -0.0031730474 -0.00031852722
000160 49 7f b7 3d de 8c d2 3c aa e1 26 3c bc 0c 35 bd
       0.089598246 0.025701936 0.010185638 -0.044201598
000170 d8 a5 85 bd 75 fd b4 3d 0e 25 6f bd b4 fb b4 3c
       -0.06525773 0.088374056 -0.058384947 0.022092678
000180 98 cd 3d 3c 82 21 32 3d 6e ab ca 3d a0 39 6b 3c
       0.011584662 0.043488987 0.09895979 0.014357001
000190 af a3 45 3d 84 79 07 bd be 20 48 be 56 57 e6 3c
       0.048251804 -0.03307487 -0.1954374 0.028117817
0001a0 b8 d9 0c bd 48 87 b5 3c 7d 9b 96 3d b8 e1 a4 bd
       -0.03438732 0.022159234 0.07353876 -0.08050865
0001b0 24 fa dc 3c 15 e2 d8 3d 2e 3c 47 3d 1d 34 7d be
       0.026974745 0.10589997 0.048641376 -0.24726911
0001c0 14 9d e0 bc d0 01 ee bc bb 9c ae bd 1e b2 a6 3c
       -0.02741865 -0.029053599 -0.08525988 0.020348605
0001d0 cf 23 02 bd 93 cd 5e 3d 8e 96 03 3d cf 67 14 3c
       -0.03177243 0.05439527 0.032126002 0.009057953
0001e0 88 30 85 bb 9b ff 00 3d 5f 55 4c bd b8 95 72 3d
       -0.0040646233 0.031493764 -0.049886104 0.059224814
0001f0 b0 bf f5 3b 74 ab 57 3d 00 9e 59 3d 41 fd ed bb
       0.0074996576 0.052653745 0.053129196 -0.0072628562
000200 68 8f 55 bc 82 86 dc 3d a0 87 15 3d 10 77 ef 3d
       -0.013034679 0.10767843 0.036506295 0.11692631
000210 5e 7e a0 3e 50 e3 d2 bb d5 4e 0f be f4 5a 7a bd
       0.3134641 -0.006435789 -0.13994916 -0.061121896
000220 e0 44 23 3b a9 36 92 bd 7f a8 db bc ae 25 ec bd
       0.002491288 -0.07139332 -0.026813744 -0.11530624
000230 91 7c cb 3c 1b 91 19 bd 6d 1f 85 be 12 da 53 3d
       0.024839671 -0.0374919 -0.26000538 0.05172164
000240 68 3d 30 3c d2 74 80 bd 6a ba 16 bd d8 f0 ea bd
       0.010756828 -0.06272282 -0.036798872 -0.114717185
000250 3e 20 78 bd 3c 84 1e bd 8e 5f 17 bd cb 2e e0 3d
       -0.060577624 -0.038700327 -0.036956362 0.10946425
000260 02 6e ae bd 2d 4e 70 3d 2c 12 4b bd 7c b8 a6 bc
       -0.08517076 0.058668304 -0.049577877 -0.02035164
000270 90 49 4e bd 65 7e e2 3d a0 54 81 3b df 20 ad bd
       -0.050363123 0.11059264 0.0039468557 -0.08453535
000280 dc a8 c9 3c 81 fd 8d be ab 57 a4 3d a0 02 fd 3d
       0.024616651 -0.2773247 0.08024534 0.12354016
000290 8d a7 30 bd 58 ff 02 3e 74 d8 bb 3c 3c 71 3b be
       -0.04312854 0.12792718 0.022930361 -0.18304914
0002a0 1c 44 0e 3d 50 62 a7 bb c4 61 d4 3c 00 54 fc ba
       0.034732923 -0.0051081553 0.025925525 -0.0019251108
0002b0 d6 8f 51 3d f7 a1 3b 3d a5 50 73 3d 00 25 b8 39
       0.051162563 0.04580876 0.05940308 0.00035122782
0002c0 4a 91 10 3e 6b 1c 4b 3d 95 10 ee 3c 2a 79 f6 3d
       0.14117923 0.04958765 0.029060641 0.12034829
0002d0 cd ec 28 3d fe 08 58 3d 54 b1 bc 3b 27 5a c4 3d
       0.041241456 0.05274295 0.005758444 0.09587508
0002e0 2c c1 67 bd 04 af ac 3c 56 38 33 3d 48 c4 41 be
       -0.056580707 0.021079548 0.043754898 -0.18922532
0002f0 10 62 ff 3c b4 45 a7 3c 82 f5 5d bc a2 d3 49 be
       0.03117469 0.02041898 -0.013547303 -0.19709638
000300 ad 0f 75 bd 3f 35 1e be d8 75 6c 3c b8 1c 9b 3c
       -0.059829403 -0.1545 0.014432393 0.018934593
000310 09 f0 a1 3d 38 cb 13 3d 30 73 c6 bc dc 13 0a 3c
       0.07907111 0.036082476 -0.024224848 0.008427586
000320 92 f9 85 3d c8 82 8c bd b3 5b 2a 3d 6c f4 a6 be
       0.065417424 -0.06860882 0.041591357 -0.32608354
000330 f1 65 be 3c 1f 3b ca 3d 60 87 66 bc 2d e0 a9 be
       0.023241969 0.09874558 -0.014070362 -0.33178845
000340 4c 24 1f bc a2 9f b3 bd 18 9e 31 3d 33 77 e9 bb
       -0.009713244 -0.08770682 0.04336366 -0.0071248054
000350 99 ea 0a 3e 95 e7 8f 3c ec e9 85 bd 0b 2f 82 3d
       0.13566054 0.017566482 -0.06538758 0.06356629
000360 7c 1e 0f 3d 4c 31 b0 be e8 17 c4 3c 2e b7 25 3d
       0.03494118 -0.3441261 0.02393718 0.040457897
000370 e0 d3 03 3d a2 d3 e9 3d f0 be 62 3d 18 be 23 bd
       0.03218448 0.11417319 0.055357873 -0.03997621
000380 30 4e a4 3b 5e b1 97 3c 14 d0 3f bd 40 46 a1 3d
       0.0050142035 0.018517192 -0.0468293 0.07874727
000390 d5 f4 cf bc e9 11 a7 3c 1f 80 d5 3c 64 9c d4 3c
       -0.0253853 0.020394282 0.02606207 0.02595348
0003a0 d2 4d 17 bd 9f d6 ab bb 60 a1 c7 bd c8 75 0c 3e
       -0.03693945 -0.0052440907 -0.09747577 0.13716805
0003b0 a8 19 37 bd f8 51 f3 bb a8 92 09 3d ce c9 be 3b
       -0.044702202 -0.007425543 0.033587128 0.005822397
0003c0 41 02 b6 bd fe be 99 be 50 79 7d 3d 04 86 03 3d
       -0.08887149 -0.30028528 0.06188327 0.03211023
0003d0 d8 4a 73 3d 50 2a ac bd 5f cd a5 3d 49 be c5 bd
       0.05939755 -0.08406508 0.08095812 -0.09655435
0003e0 f6 65 48 bd 1b 05 85 bc 40 53 a4 bc f4 39 48 3d
       -0.048925363 -0.016237786 -0.020059228 0.048883393
0003f0 b0 cc 92 bb 4a 10 07 39 76 d2 80 be 6a 9d 9a bd
       -0.004479967 0.00012880671 -0.2516057 -0.075495556

fc3.bias f4 [256]
000000 96 f4 cf 3d c0 f4 94 bc e5 fd 63 3e 2e 17 30 3d
       0.10154073 -0.018183112 0.22264822 0.042990856
000010 33 cf 10 3d c4 07 89 bc 51 d0 41 bd 0f 14 03 3b
       0.03535385 -0.016727336 -0.047317807 0.002000097
000020 c1 7e 41 bc 64 a6 78 bd ce 7f 38 bd f0 8a 8c 3d
       -0.011810006 -0.060705557 -0.04504376 0.06862438
000030 0e e3 b2 bd f6 86 8b bc 88 b9 de 3c b7 64 e0 bd
       -0.087347135 -0.017032128 0.027188078 -0.1095671
000040 78 2c 55 3d ab af aa 3d 37 86 9f bc 63 95 6d bc
       0.05204436 0.08334287 -0.019473178 -0.014500949
000050 44 78 ce bc b8 c6 0c 3e c2 6d 0b be 84 6d 7f bd
       -0.025203831 0.1374768 -0.13616088 -0.0623603
000060 65 2d 0f 3d a0 5c db 3b 60 ca 25 bc 2e 3b ba bd
       0.0349554 0.0066943914 -0.010119051 -0.09093319
000070 f2 fe 02 be 31 fd 6d 3d 67 3f 73 bd d4 23 9f ba
       -0.12792566 0.05810279 -0.059386637 -0.0012141415
000080 92 97 b2 bd bd 81 01 bd 62 1e c8 3b 66 0a 16 3e
       -0.08720316 -0.03161787 0.0061071375 0.14652404
000090 8d 3f 35 bd de a2 0e bd f4 fb cb bd 78 9d 8c bc
       -0.04425006 -0.03482329 -0.099601656 -0.01716493
0000a0 7c 18 a1 bd 56 f3 a9 bd 60 2c 69 3e 60 ab f9 bc
       -0.07865998 -0.08298366 0.22770834 -0.030477226
0000b0 a8 37 72 bd 20 b2 10 3d 4f 1e 5d bd 00 eb e9 bc
       -0.05913511 0.035326123 -0.053983983 -0.02855444
0000c0 d8 77 77 bd bf c6 48 bd b0 63 1c bd 47 75 08 bc
       -0.060417026 -0.049017664 -0.038181007 -0.008328742
0000d0 55 b7 f5 3c e7 5d 7a bd d2 5e 09 3e d4 32 9b bd
       0.029994646 -0.06112471 0.13415077 -0.07578054
0000e0 54 96 b9 bc 7f 4c 28 be 40 e6 42 3e 8f 76 20 bd
       -0.02265469 -0.16435431 0.19033146 -0.039175566
0000f0 c5 97 96 3d cb 16 b3 bd c0 20 b3 bd db 43 ad bd
       0.073531665 -0.08744582 -0.08746481 -0.08460208
000100 6e 1f 20 bd d0 62 d7 bc 2f eb 2b bd 2e df 43 bd
       -0.039092474 -0.026292235 -0.041972335 -0.047820263
000110 60 54 cd bd b0 ba 14 be 34 9d 38 bc ce 97 86 3c
       -0.10025859 -0.1452434 -0.011267949 0.016429808
000120 24 13 26 bd ec e6 fa bd 85 1e 81 bc 05 5c 47 3d
       -0.040545598 -0.12251076 -0.015761623 0.04867174
000130 e0 3f 2f 3c 5f 59 26 3d 59 49 db bd af a1 69 3d
       0.010696381 0.040612575 -0.10707349 0.05703896
000140 49 7d 7d bd 88 40 95 3d e8 f9 8a bd 97 8d 71 bd
       -0.06188706 0.07287699 -0.06785947 -0.05897292
000150 65 d2 6d bd 12 56 7f 3d b1 b9 16 bc fe ff 3d 3d
       -0.058061976 0.062337942 -0.009199546 0.04638671
000160 76 96 87 3d 46 30 3c bc 1f 5a 74 3d 16 69 f0 3c
       0.06620495 -0.011486119 0.05965626 0.029346984
000170 f5 45 b8 bd 0c 8c 55 3d 43 79 cc bc 56 fb b0 bd
       -0.08997718 0.052135512 -0.024960166 -0.086416885
000180 d3 65 2f bc 10 ee 71 bc 74 b8 9a bd c0 0d ab bd
       -0.010705429 -0.014766231 -0.07554713 -0.08352232
000190 aa a7 2c bb 91 a5 35 3d 40 b9 ed bc 55 88 31 3d
       -0.0026345053 0.04434735 -0.029018998 0.043342907
0001a0 33 7f 4d bd 35 4d e7 bb 3f ff 08 bd c6 11 e0 3d
       -0.050170135 -0.0070587643 -0.033446547 0.1094089
0001b0 71 8a 88 3c 12 65 ea bc dc 01 f4 bd 75 a3 28 3d
       0.016667577 -0.028612647 -0.11914417 0.04117151
0001c0 f7 63 d5 3d 9a 69 31 3d 40 a0 aa bc de 50 ed 3d
       0.104194574 0.0433136 -0.020828366 0.1158769
0001d0 75 11 a8 bc d6 e0 99 bd e5 e6 7e 3d 95 93 a5 bd
       -0.020516137 -0.07513587 0.062231917 -0.0808479
0001e0 be 9b b1 bc 7b 29 d0 bc 7d 09 39 bd e4 35 87 bd
       -0.021680709 -0.025410404 -0.045175064 -0.06602076
0001f0 ba a0 da bc f8 46 03 be c4 dc 96 bb 0f af 88 bc
       -0.026687969 -0.12820041 -0.004603954 -0.016685037
000200 70 d5 be bd 59 11 8d bd b2 c0 9f 3e d3 be cc bd
       -0.09318054 -0.068880744 0.31201702 -0.09997334
000210 4e e8 b5 bd ea d1 d9 bd a2 c7 7a bd a5 bf 06 bd
       -0.08882199 -0.10635741 -0.06122554 -0.03289761
000220 9f 97 ad bd ec 0c 43 bd dc 74 4c 3d a0 d6 b9 bd
       -0.08476185 -0.047619745 0.049916133 -0.090741396
000230 f7 bf 32 bd 69 8c b0 bd 05 fa 1b be 08 73 b4 bc
       -0.043640103 -0.08620531 -0.15232094 -0.022027507
000240 96 bd 89 bd 59 09 7a bd 92 ad 36 be af e7 a2 bd
       -0.06725614 -0.06104407 -0.1783965 -0.079543464
000250 c7 6c 2d be 78 99 03 be 00 54 2c bd 52 61 2e 3d
       -0.16936027 -0.12851512 -0.042072296 0.04257328
000260 df 06 d1 bb ff 89 07 bd 18 dc 94 bd 98 7e a8 bd
       -0.006378993 -0.033090588 -0.07268542 -0.08227271
000270 2d 25 e4 bd 0f 33 67 3e 81 4a 3c 3e 37 af 06 bd
       -0.11139903 0.22578071 0.18387796 -0.03288194
000280 93 61 38 be 07 18 b7 bc e1 78 09 bc 64 07 d0 bd
       -0.18005972 -0.022350324 -0.008390636 -0.1015766
000290 19 b7 87 bd f6 b4 62 bc 6b 6c 31 bb dc 3f e5 3b
       -0.0662672 -0.01383709 -0.0027072679 0.006996138
0002a0 0e 53 5a 3e de ed 4f 3e 87 a9 69 bc 5e 45 48 3e
       0.21320745 0.20305583 -0.01426161 0.19557711
0002b0 02 2c 4a 3c ae 26 81 bc 51 a7 b8 bd 28 39 ee bd
       0.012339594 -0.015765514 -0.09016288 -0.116319954
0002c0 2f df e5 3c b6 55 60 3c 9f bb 06 be 47 5a 68 3d
       0.028060524 0.01369231 -0.1315751 0.05672672
0002d0 4a 23 d8 bd 9a b6 d2 bd 8f f3 28 bd b6 a7 b7 bc
       -0.10553606 -0.10288735 -0.0412479 -0.022418838
0002e0 43 75 c1 bc fb cc 23 bd 84 81 a7 bd 95 00 47 bc
       -0.023615485 -0.039990406 -0.08179 -0.012146135
0002f0 66 37 b4 bd f2 a2 bd bc e0 b4 2b bd 49 98 91 bd
       -0.08799629 -0.023148987 -0.041920543 -0.07109124
000300 4f f6 b3 ba 7a d2 29 ba 60 19 8e 3d 0c e6 b2 bd
       -0.0013730022 -0.0006478202 0.06938434 -0.08735284
000310 98 02 01 bd 77 fb 1e bc 04 6d 45 bd 8a 91 c9 bd
       -0.031496614 -0.009703509 -0.04819967 -0.098422125
000320 ce 3a 9d bd 5e b8 e1 bd cd 34 8f bc 95 cd 39 bd
       -0.07677232 -0.110214934 -0.017481232 -0.045362074
000330 8e f9 66 bd bc 45 f7 bc c7 4f c3 bc bc 12 b5 bb
       -0.056390338 -0.03018462 -0.023841752 -0.005525915
000340 d7 43 ac bc c2 37 8a bd 1c 2f 15 3e 5b 06 e5 bd
       -0.021028442 -0.06748916 0.14568752 -0.11182853
000350 6f 92 cb 3d 99 bb f1 bd 51 03 5c 3d 1e 6e 45 bd
       0.09940039 -0.118033595 0.0537141 -0.04820072
000360 29 13 de bd c6 d9 9f bd 14 d6 e2 bd 96 ee 86 3d
       -0.10843498 -0.07805209 -0.110759884 0.065884754
000370 e1 e8 0a 3e 40 bd 99 bb d2 5b 99 bd 0d 2b e6 bd
       0.13565399 -0.00469175 -0.074882165 -0.1123868
000380 c0 36 10 bb 3b 45 01 bc 90 23 1d bd 9b a8 17 bd
       -0.002200529 -0.007890041 -0.038363993 -0.03702603
000390 f7 23 5c 3d e2 4e d8 bc d9 e8 2e bd 55 4c d4 3d
       0.053745236 -0.026404802 -0.04270253 0.10366122
0003a0 dd 30 09 3e 46 77 08 bd fc 63 11 bc 74 a4 fe bc
       0.13397546 -0.033316873 -0.008873936 -0.031084277
0003b0 30 d4 b2 bd 66 82 e2 bb de ec c7 bd c7 04 6f bd
       -0.08731878 -0.0069125174 -0.09761976 -0.058354165
0003c0 1a fc 13 ba 77 7a c9 bd 9b 41 32 ba e7 d3 87 3c
       -0.0005645171 -0.098378114 -0.0006799937 0.016580535
0003d0 22 0d c6 bd 16 4c 03 3c 87 53 d4 3c 19 48 af bd
       -0.09670474 0.008013746 0.025918735 -0.085586734
0003e0 9d b1 47 3d cb e9 cb bc e4 fb 52 bd 82 c2 a0 3c
       0.04875337 -0.024891755 -0.051509753 0.019623999
0003f0 67 eb 7d bd 39 5e 86 3d 96 35 88 bc 28 4a f4 bc
       -0.061992075 0.0656094 -0.016627114 -0.029820517

classifier.weight f4 [16, 256]
000000 f7 3f e0 bd 80 fc f7 ba 9b 1f 33 be 99 7b 9f bd
       -0.109497 -0.0018919855 -0.17492525 -0.07787246
000010 0c 83 64 be 4e 5e 1a 3d 79 00 1a bd 6e 3c 04 bd
       -0.22315615 0.037687592 -0.037598107 -0.032284193
000020 ea c1 b8 bc 54 54 e8 bc b0 97 55 bc 08 8c 37 be
       -0.022553403 -0.028360523 -0.013036653 -0.17924511
000030 b2 7b 09 bd 44 17 9f bd f4 78 e9 bd 6c 18 89 bd
       -0.03356523 -0.077681094 -0.11400023 -0.06694111
000040 04 a9 0a be fe 58 a2 bd 05 7b 98 bd 5a 98 dd bd
       -0.13541037 -0.0792713 -0.07445339 -0.108200744
000050 22 42 02 be 4f b2 51 be eb 56 fc bc e9 f6 c0 bd
       -0.1272054 -0.20478176 -0.030803164 -0.094220944
000060 e6 52 3b be 48 10 63 bc 1c 47 4b be 8b 5e 5e 3a
       -0.18293342 -0.013858862 -0.19851345 0.0008482716
000070 64 2a ac bd f0 ba 11 be e9 11 a4 bd 85 a4 a1 bd
       -0.08406523 -0.14231467 -0.080112286 -0.07892708
000080 18 d9 20 bd 83 8e 3a be 76 de a1 bd af 12 0c be
       -0.039269537 -0.18218426 -0.07903759 -0.13679002
000090 04 a4 56 bd 54 79 33 bd ab 55 94 bd 88 30 ce bd
       -0.05240251 -0.04381688 -0.07242902 -0.1006785
0000a0 5d af 0b bd d5 63 27 3b f2 3a 1c be 9c 89 a8 3c
       -0.034102786 0.0025541682 -0.15256861 0.02057343
0000b0 ae 6c 6f bd b1 2b 0c be 85 57 2c be d0 a4 d4 bc
       -0.058453254 -0.13688542 -0.16830261 -0.025957495
0000c0 7b 18 3e bd 40 b8 87 bd 74 84 87 bc 58 8b a7 bc
       -0.046410065 -0.0662694 -0.01654265 -0.020452186
0000d0 01 c7 3a be 2c a4 6b bd 30 f9 49 be 51 0b 3b bd
       -0.18239976 -0.057529613 -0.19723964 -0.04566509
0000e0 ac 4e 11 bd b7 c5 9c bd 0f b7 fe bd 31 8e d4 bd
       -0.035475418 -0.076548986 -0.124372594 -0.10378683
0000f0 d8 18 5a be f3 60 8f bd 93 59 91 bd 94 84 a3 bd
       -0.2129854 -0.070009135 -0.07097163 -0.07984272
000100 2f 58 89 bd 12 63 d1 bd 2a e0 88 bd df 67 b4 bd
       -0.06706273 -0.10223974 -0.06683381 -0.08808874
000110 f5 15 a9 bd 76 60 b5 3b b9 ee a9 bc 56 1a 5e be
       -0.08256141 0.0055351807 -0.020743715 -0.21689734
000120 3a 5c 44 bd 46 8f 6c bd ab 24 46 3d 0a 05 d2 bd
       -0.047939517 -0.057753824 0.048374813 -0.102548674
000130 c4 60 f3 bd 4c 82 24 be 0b 06 05 bd 24 cd 41 be
       -0.11883691 -0.1606533 -0.032476466 -0.18925911
000140 21 15 e8 bd 62 75 0b be 6c 1e 2e bd 8c ca ef bd
       -0.11332155 -0.13618997 -0.04250948 -0.117085546
000150 e4 59 fc bc 11 72 39 be 20 b2 01 be 46 81 f4 bd
       -0.030804582 -0.18109919 -0.12665606 -0.119387195
000160 41 bd cb bd 50 18 1b be f7 cd 96 bd f6 52 99 bd
       -0.09948207 -0.15145993 -0.073635034 -0.07486527
000170 8b cc cd bd 13 d3 de bd 19 e9 3d bd 5f 21 65 bd
       -0.10048779 -0.10880103 -0.046364877 -0.05594003
000180 92 d6 68 be d0 50 28 bc 35 39 d7 bd 71 9b b1 bd
       -0.22738102 -0.010273173 -0.10508958 -0.08672226
000190 92 15 ef bd b8 b3 bf bd 8d ba e7 bd de 77 35 be
       -0.11674036 -0.093604505 -0.113148786 -0.17721507
0001a0 1f bc 0e bd 39 f9 77 3a 82 39 9a bc 35 d8 25 be
       -0.034847375 0.00094594393 -0.01882625 -0.16195758
0001b0 be c2 9c bd b8 3e ca bd 80 dd 73 bd 6e 5a 2a be
       -0.076543316 -0.09875244 -0.05953741 -0.16636059
0001c0 27 cb 25 be d4 14 58 be cc 59 3b be 72 b8 16 be
       -0.16190778 -0.21101695 -0.18295974 -0.14718798
0001d0 e2 89 ba bd b7 11 f2 bc 99 b3 27 be ea 8a 03 bd
       -0.0910833 -0.029549463 -0.16377105 -0.0321149
0001e0 6a b8 d9 bc c4 6f f0 bc 4c 3b 33 bd 57 d5 dc bd
       -0.026577193 -0.029350169 -0.04375772 -0.10782879
0001f0 2f 05 bc bd 93 41 a1 bd c9 20 13 be 40 53 d3 bb
       -0.09180676 -0.078738354 -0.14367975 -0.006449133
000200 c3 b8 26 bd 01 5a 87 bd ea 10 ff bd be 54 4a 3d
       -0.040703546 -0.06608964 -0.12454398 0.049397223
000210 d1 ab b2 bb 39 ef f9 bc 50 2e 44 bc a8 72 0c be
       -0.005452611 -0.030509578 -0.011973932 -0.13715613
000220 87 99 1e bd c3 7b ba bd e7 d5 42 bd 2c ec a3 3b
       -0.038720634 -0.09105637 -0.047567274 0.005002519
000230 df 03 16 be eb fb de bd 8e a0 ee bd d1 30 5d bd
       -0.14649914 -0.10887893 -0.11651717 -0.054001633
000240 2e 84 4f bd 51 20 f2 bd 0e 88 59 3d c3 b7 98 bd
       -0.050663166 -0.1182257 0.053108267 -0.07456925
000250 7f 6b ab bd de cb 26 bd 02 1f 39 3d fa a1 8c bd
       -0.08370113 -0.040721767 0.045195587 -0.06866832
000260 5a 05 41 bd 27 bc 09 be 01 b0 e5 bd f2 0b ac bd
       -0.047124244 -0.1345068 -0.11215211 -0.08400716
000270 57 a0 c9 bc c4 74 1d be 03 23 fa bd 39 f8 fb bc
       -0.024612589 -0.15376574 -0.12213709 -0.03075801
000280 44 ba 52 bd 49 c7 6d bd 23 e5 33 bd f0 45 32 3d
       -0.051447168 -0.05805138 -0.043919694 0.04352373
000290 be 48 e8 bd d0 ac 3c bc a6 69 9a bd 45 92 24 be
       -0.113419995 -0.011515811 -0.07539682 -0.16071422
0002a0 7f fc 4d be 26 a5 13 be f6 48 90 bc a1 0d bb bd
       -0.20115851 -0.14418468 -0.017612915 -0.09133459
0002b0 54 81 01 be 1d 4d 35 be 53 3c cb bd 9a 6e 91 bc
       -0.12646991 -0.17705198 -0.09923615 -0.017752934
0002c0 bd 9f 15 be 2a e8 42 bd 98 9c 15 3c 03 ca 06 be
       -0.14611717 -0.04758469 0.009131573 -0.13162999
0002d0 a3 34 85 3b 24 41 73 bd 27 25 25 bd 72 56 0c be
       0.0040651127 -0.059388295 -0.040318634 -0.13704851
0002e0 c3 12 20 be 3c bc 02 be 70 34 32 3d 65 54 fc bd
       -0.15632157 -0.12767118 0.04350704 -0.123207845
0002f0 dd 0d 0b bd 44 88 2d bc 16 b2 e1 bd 92 7a 9e bd
       -0.033948768 -0.01059157 -0.11020295 -0.07738222
000300 c0 27 a6 bc 10 ac f2 bd 57 cf 24 be 02 b1 1f be
       -0.020282626 -0.118492246 -0.16094719 -0.15594867
000310 eb 6d 1e be 40 61 66 bd 83 3b 37 bd 15 0f 0f bd
       -0.15471618 -0.05624509 -0.04473449 -0.034926493
000320 a2 3f 8b bd 67 17 8f bd dc 65 19 bd 6e 3b 5d bd
       -0.06799246 -0.069868855 -0.037450656 -0.054011755
000330 0e ef a0 bd 48 0e 25 bc 04 fb ad bd e7 a9 0b be
       -0.07858096 -0.010074206 -0.08495143 -0.13639031
000340 e4 c7 c2 bc 93 09 03 bd 78 93 34 be 12 64 24 bd
       -0.023776956 -0.031991553 -0.1763438 -0.040134497
000350 23 b2 24 be d5 69 09 bd fc 59 4a be dd 83 80 bb
       -0.16083579 -0.033548195 -0.19760889 -0.0039219693
000360 a5 44 c4 bd 00 75 89 bc 1c 27 09 be 99 b0 52 be
       -0.095834054 -0.016779423 -0.13393825 -0.20575179
000370 84 6c 0d be d7 b1 27 be da aa c6 bc 90 80 13 3d
       -0.13810927 -0.16376434 -0.02425139 0.03601128
000380 a4 1e 1d 3d 51 c8 a4 bd d9 8f 91 bd 07 9f 0a be
       0.0383593 -0.0804602 -0.07107515 -0.13537227
000390 79 74 f5 bd bb 8e 20 bd 04 a1 ee bd b0 82 2d be
       -0.11985106 -0.03919862 -0.11651805 -0.16944385
0003a0 30 f6 d5 bd 01 31 95 bd 5a 98 01 bc 63 92 95 bd
       -0.10447347 -0.072847374 -0.007909859 -0.07303312
0003b0 a6 8c 3c bd 3d b1 ae bb ea 63 de bd 11 1d 56 bd
       -0.04603257 -0.005331187 -0.10858901 -0.052273814
0003c0 72 e0 bb bc be a3 7c bd 08 0c 02 be dd 74 ca bd
       -0.022934172 -0.061679594 -0.12699902 -0.09885571
0003d0 75 c7 b2 bd 22 f1 42 be 95 ed 2b be de 0a 19 bd
       -0.0872945 -0.19037297 -0.16789849 -0.03736388
0003e0 dc eb 26 be 88 bc 9c bd ee b3 87 bd 3b f7 3e be
       -0.1630091 -0.07653147 -0.06626116 -0.18648998
0003f0 45 33 9e bd 14 34 28 be 55 2e ef bc 98 2b 22 bb
       -0.07724623 -0.16426116 -0.029196898 -0.0024745222

classifier.bias f4 [16]
000000 86 c7 df bd e9 06 d0 bd ba 94 23 be c9 b2 cc bd
       -0.10926728 -0.10157568 -0.15974703 -0.09995038
000010 29 0d 06 bd c0 be a8 3c 77 05 b7 3d c4 b7 14 3e
       -0.032727394 0.02059877 0.08936589 0.14523226
000020 7b c0 76 3d 7d 04 51 3d 05 7c 40 3d 02 6b dc 3d
       0.060242157 0.05102967 0.046993274 0.107625976
000030 11 ee 05 be e0 40 c9 bc db a5 9a bd 83 e4 1f be
       -0.13079096 -0.024567068 -0.07551166 -0.15614514
